results/PushBlockCollab_POCA_RND/PushBlockCollab/PushBlockCollab-3999936.onnx (onnx, 643240 bytes, 12 tensors)

network_body.observation_encoder.processors.0.conv_layers.0.weight f4 [16, 6, 8, 8]
00000000: 6776 cd3c ca18 09bc f7eb f8bb bb06 babd
00000010: 2d5f 39bd 645a 94bd b2df f1bc 610f 00bc
00000020: 7a4b ae3d 1c30 9b3d f21f ac3c 0ee6 a2bd
00000030: b989 c1bd 63e9 49bd fdf6 3bba 551d 783d
00000040: e4fd 2e3d b368 c73c cc96 58bd 3a74 8fbd
00000050: 6cdb af3c da8a 7abd 7a12 183d e148 54bb
00000060: e764 a93d 433c 51bd 1922 dcbc c5fa 57bc
00000070: 77ec 0fba f1c3 a0bd 53d1 99bc e3a5 153d
00000080: 20e4 da3c 2884 6abb cb34 68bd 39f9 9cbc
00000090: 6534 173c 4461 20bd 76e5 9cbb 1656 15bd
000000a0: a972 dd3c 5675 e5bc 7055 6b3d eb96 f43c
000000b0: 2022 6bbd a71d 1bbc 312f 993a 59b3 5f3d
000000c0: e3a4 453d d1d6 b63d 8e46 713d d823 d13d
000000d0: 736d 72bd ddb4 1c3c 934d 4fbb 949a 5abb
000000e0: 7595 de3c ef7d de3c 0a75 373d bb18 593d
000000f0: f1a9 aabd 9e85 dcbd b457 debc 7109 50bd
00000100: 9561 6cbd 15cf ed3d f74f a53d 0ddb c03d
00000110: 50e3 bc3c af78 763c 6fcf dc3c 8546 183d
00000120: 4bbe 8dbc 4a14 a13c 632a 953d 76a7 e83c
00000130: 058e 72bd 827b 863d 2781 533c 84ac 5a3d
00000140: 80a9 4bbd 896c b1bc 1057 303c 9aa6 e43b
00000150: f394 f5bc 4253 c13c 451c 8e3d f742 a73c
00000160: 1548 2cbd 01c1 e9bb 1aeb c93c 0f7f 493d
00000170: dcf6 01bd 5f55 393d 0339 2fbd a3f2 05be
00000180: 6cf1 00bd 7d44 523d eda6 ab3d 1f22 223c
00000190: b405 5a3a 32a2 06bd c3d7 a63d aacc 4f3d
000001a0: 67d2 4d3d 4ebb ddbc d0fb febc a66e 60bd
000001b0: c885 99bd c5e0 0abd 0fbb 1c3c 95f9 d23c
000001c0: 4a6e 9ebd a402 133e 310c f83d 9e64 243d
000001d0: c233 64bd 481d 4fbd 68d5 1fbc c631 4f3d
000001e0: fd00 40bd a648 9ebc 714c fd3c e1a9 d33c
000001f0: 9f64 6d3d 7eba 8bbc 5780 623c 9f1e b43d
00000200: bf0d c03b 4e6e 2039 8517 503c 5523 c13c
00000210: 64cd 4e3d 0e1a 93bc 15ee af3b 77f2 ad3c
00000220: 0c2e c2bc bdf9 0fbc 68f9 093d 6033 8d3c
00000230: 43ff 933d de6f 3b3d 218b 51bd f8ea 17bc
00000240: 57d7 21bd 69c0 5d3d 3dce a33d 3d45 4e3d
00000250: 6cf6 c43c ef79 9c3b 212d 503d 4acb 46bc
00000260: 9def 553c 00a1 623c d03e 8d3c 029b 733d
00000270: 94c4 1d3d 4e65 ca3c 512c 3c3c a734 a6bc
00000280: a557 e93c 12c0 a53b fb25 cb3c 5272 d93c
00000290: a2a7 623d 3e10 ea3c dcbc 2e3d 8607 8b3c
000002a0: d9a1 2f3b f025 2ebc 02be 833d f6fc 3bbd
000002b0: f1ef bebc 69d5 283d 6675 0bbd 22de 643c
000002c0: ffcf d23c 55c8 96bd 9f48 78bd 1d03 2a3d
000002d0: cc07 453c 5246 063c 34fa b7bc 9642 843a
000002e0: 4d37 acbc 9a1e 3fbc a502 5c3d ba6f e93a
000002f0: d5b7 5ebc 98d3 193d c1d4 46bc c0a1 513d
00000300: 392f f4bd a95e 53bd 44b0 f03a aeb3 853a
00000310: c8d4 81b8 4a52 e4bb 9aa0 653d 2b26 603d
00000320: 79e2 b93c fd2c 53bc 2d29 77bd a770 19bd
00000330: f377 093b 7cb5 4fbd 52e6 083d 12f3 f53c
00000340: 89a0 ca3d ddfb 9f3d 3c77 123d 3ff0 08bd
00000350: 5dd0 273d 0396 8b3d e53d 8abc e037 163d
00000360: 9aa4 f33d c4c7 1ebd 6848 8ebc a709 b53d
00000370: 2dab 073e 4d4f 203d eafb 08bb c299 9a3d
00000380: b584 c43d 535e c73b badb 133d 82b1 ae3d
00000390: 1ffe 6b3d 4291 fc3c 4f31 d03c 4280 c6bc
000003a0: d1fa 923d 0401 b73d daeb 2d3d 70b1 b83d
000003b0: 39dd 8d3d 46e9 f33b 1cd3 37bd 5f3f 13bc
000003c0: 33c3 4a3e 5014 be3d 3339 5d3c c5db d73d
000003d0: 2277 ae3d f305 cbbc 2190 0bbd fdad a8bd
000003e0: 6461 5b3e 4e88 473d a4ed f43c 65ee 003e
000003f0: 4c7e ed3d fabe 623d 8334 3f3d 322b b1bd
0.025080873 -0.008367727 -0.0075964886 -0.09083315 -0.045256782 -0.07243803 -0.029525612 -0.007816167
0.0851049 0.075775355 0.021011326 -0.07954036 -0.09450097 -0.04929484 -0.0007170288 0.06057485
0.042722598 0.024341917 -0.052878186 -0.0700459 0.021466933 -0.061167575 0.037126996 -0.0032392072
0.08271199 -0.05108286 -0.026871728 -0.013182347 -0.0005490253 -0.07849873 -0.018776571 0.036535155
0.026720107 -0.0035784338 -0.056690972 -0.019161807 0.0092288 -0.03915526 -0.004788096 -0.03645905
0.027032213 -0.028010052 0.057454526 0.02985712 -0.05740559 -0.009467519 0.0011687038 0.0546144
0.04825295 0.08927692 0.058905177 0.10211915 -0.05918641 0.009564606 -0.0031631931 -0.0033356296
0.027170876 0.02715966 0.04478935 0.0530021 -0.08333195 -0.10767673 -0.02714143 -0.050790254
-0.05771025 0.116117634 0.08071893 0.094167806 0.02305761 0.015043422 0.02695438 0.037176628
-0.017302653 0.019662995 0.07283475 0.028400164 -0.05921747 0.06566526 0.01290921 0.05338718
-0.049722195 -0.021658199 0.010762945 0.0069778683 -0.029978251 0.02359927 0.06938986 0.020417674
-0.04206093 -0.0071336036 0.024648238 0.04919344 -0.031729564 0.04524743 -0.04277898 -0.1308084
-0.031480238 0.051334847 0.08381448 0.00989583 0.000831689 -0.032869525 0.08146622 0.050732292
0.050249483 -0.027066853 -0.031125933 -0.054793023 -0.0749622 -0.033905763 0.009566083 0.025753776
-0.0773588 0.14356476 0.121117 0.04013502 -0.055713423 -0.050565034 -0.00975547 0.050584577
-0.046875942 -0.01932175 0.03092024 0.02583784 0.057957288 -0.0170567 0.013824544 0.08794903
0.0058610137 0.00015299881 0.01270092 0.023576418 0.050488845 -0.01795676 0.0053689578 0.02123378
-0.023703597 -0.00878757 0.033685118 0.017236412 0.07226422 0.04576098 -0.051158074 -0.0092723295
-0.039512005 0.054138575 0.07998321 0.050359 0.024043284 0.004775278 0.05082429 -0.012133429
0.013057617 0.013832331 0.017241865 0.059474 0.03851755 0.024706509 0.011485175 -0.020288778
0.028484175 0.005058297 0.024798384 0.02654377 0.05533565 0.028572198 0.04266058 0.01697136
0.002679935 -0.010629162 0.064327255 -0.04589554 -0.023307772 0.04121915 -0.034047507 0.013968976
0.025733946 -0.07362429 -0.060616132 0.041506875 0.012025785 0.008195477 -0.022458173 0.0010090645
-0.021022463 -0.011665011 0.05371346 0.0017809786 -0.013593634 0.037555307 -0.012135685 0.051179647
-0.119230695 -0.051603947 0.0018363078 0.0010200643 -6.190833e-05 -0.0069678174 0.056061365 0.0547239
0.022690998 -0.012889144 -0.060342003 -0.03746095 0.0020976036 -0.050710186 0.033422776 0.030023132
0.09893901 0.07811711 0.035758242 -0.03343224 0.040970195 0.06815722 -0.016875217 0.03667438
0.1189663 -0.03876473 -0.01736851 0.08839732 0.13248892 0.039138127 -0.0020902106 0.07548858
0.09595624 0.0060842424 0.03609822 0.08529951 0.057615396 0.030830983 0.025414137 -0.02423108
0.07176746 0.089357406 0.042461254 0.090182185 0.069269605 0.00744358 -0.044879064 -0.008987277
0.19801025 0.09281218 0.013502407 0.105399646 0.085188165 -0.02478311 -0.034073 -0.08236311
0.2142387 0.048713975 0.029898472 0.1259094 0.11596355 0.05535791 0.04668094 -0.08650817

network_body.observation_encoder.processors.0.conv_layers.0.bias f4 [16]
00000000: 0565 7fbc e5db e43c 707a 55bd 781e 963c
00000010: 2c09 b0bc 1237 3dbc a6ad 9ebc b20d d23c
00000020: 7b73 02bc e88d 20bd 1e22 d0bc 4025 75bb
00000030: d496 41bc 0d9f a73c 52b9 483d 99c8 153c
-0.01558805 0.027936885 -0.05211872 0.018325076 -0.021488748 -0.011548774 -0.019369911 0.025641296
-0.007962103 -0.039197832 -0.025406893 -0.0037406236 -0.011815745 0.020461584 0.04900486 0.0091420645

network_body.observation_encoder.processors.0.conv_layers.2.weight f4 [32, 16, 4, 4]
00000000: 8edc 73bd 4ab8 18be 441c f93b a95a 793d
00000010: 00ab 0b3d 4098 f9bd 98c3 803c 59f9 a43d
00000020: 0405 b5bc 5943 06bb 679b ac3d 0dde f13c
00000030: 93f8 15bd 4538 903d ef77 f93d dddf d53c
00000040: aea1 32bc 4ca4 a1bc 59c5 903d 0c04 22bd
00000050: ddaf d93d afa7 16bd a55e 113d 87f9 53bc
00000060: 0910 5a3c 372f 693c 4d3b 473b 8395 233b
00000070: b87a bf3d ecbf 983d e530 fbbc 338e 6d3c
00000080: 8d85 913c 1f64 89bb dd33 9d3d fd58 7f3d
00000090: 778d 053d bd17 75bd a257 593d 9c9c 803d
000000a0: 11f2 023d 850c 9a3d be76 4d3d 9ccc b63c
000000b0: 72fc 8d3a b3eb 9a3d f553 bf3c ae8e 153d
000000c0: ccf1 afbd 1d86 203d 834c ba3d 4d30 07bd
000000d0: d292 8d3d 721c 3e3b fed4 6b3d 14fd 823d
000000e0: af80 abbc 923a c63d f3d4 a33d 1ea4 74bd
000000f0: f598 253d c5fd c13d 1458 d13b 59b3 a03d
00000100: da5f f2bc f5cb b33c 73ee ba3d 6202 193d
00000110: 13e8 16bc a111 883c 2234 803c ca69 f03b
00000120: cdae 923d 9338 82bc 148c 023d a348 bb3d
00000130: 9642 b4bd 2a14 073d 86d2 433d 1fbe 403d
00000140: c861 a93c 838e 25bc 2e60 b53d 7994 12bd
00000150: b49d 4cbd c636 403b 0281 adbb 9e46 5b3c
00000160: 6609 cfbd 24d4 ecbc f0f8 f43b 2499 b0bd
00000170: 9d99 aa3c 9103 f03d 19e9 753c d5ec 283d
00000180: a807 a43c 1b59 68bb 2d97 013d d812 303d
00000190: 6d69 d43b 23ce ccbb 0ced 9eba 4a00 8a3b
000001a0: 12fe 8f3d 8db0 a8bc d4a4 2a3d 1267 b43c
000001b0: 446a 573d f0e9 913d 4737 bd3d dd40 253d
000001c0: f3ac bc3d 669c 9f3c 8323 653c 9eca 973d
000001d0: 6d59 143d af92 4a3b 12bf e63d a5f6 9d3d
000001e0: a6ca 803d 4513 47bc 2220 873c 04c7 e93d
000001f0: f960 32bc ec34 9d3c a346 0a3d 5a44 74bd
00000200: ddfe e2bc ca1f 903b 69f7 923d eeca c53c
00000210: 727e 73bc a0e6 acbd 3821 b03c ddc9 cabd
00000220: ff10 023d 4a21 8a3c a9b7 243c 15ef 353d
00000230: c709 8e3c 0307 313c aa19 fe3d af9b 9bbc
00000240: 1471 5cbd 9a66 ed3c 4d76 8c3c 615b 213c
00000250: 8841 39bc 272f d43d 4a30 183e b8b3 9d3d
00000260: d963 d53d 64ac 563d 2e76 783d cf32 f23d
00000270: 1c66 413d 31d2 8e3d c9d7 913d fb25 c93c
00000280: 3edd 1abb 6f74 5fbd 8e89 1ebd ffe8 b93d
00000290: cf64 913c 1720 723c 6612 2c3d 22ca a63d
000002a0: 2852 813c e06c 9abc 9639 173d 889e 753d
000002b0: f6e1 98bd 5c7d 6e3d 1025 073d 2be8 e83d
000002c0: 2ba3 d0bd e3a0 e5bd f18e 40bb 9dd2 c13d
000002d0: 8063 38bd 0aa1 6cbc 17ad 53bd 6a85 2fbc
000002e0: 79e7 963d 7e8f c83d b528 58bd 466d 3fbd
000002f0: 925c 9abc d663 71bc b899 9a3d 0c5c 8d3d
00000300: 0546 5cbd 83d2 d7bc bdde d2bc ccdc 96bc
00000310: 68c3 93bd 2b03 88bd 6fcc 1f3d 9ff3 703d
00000320: 5bcb a8bc 211e a73c 347d b03c 194f 173b
00000330: 3dd7 0c3d a5c4 903c 4166 8c3d 1ddf 4cbc
00000340: 774f acbd a0ee 3f3d d88d 9f3d b3b1 723d
00000350: 9553 88bc a335 b53d d1c0 053d 9d75 973b
00000360: 8c77 d5bc 07a8 db3c a813 f5bb fe82 ce3d
00000370: 451c e4bc cc45 f63c 9fe7 d03c 088a db3c
00000380: 9517 e23a e1a9 cbbc 6679 1b3d 629c bc3d
00000390: ac7a 9fbc c821 873d 5b12 743d 323c 343d
000003a0: def2 f93c a933 9a3d b2c1 ce3d 7967 b53c
000003b0: 957c 27bd 91aa b53c 934a 04bc 0e3b 183d
000003c0: e13b 46bd 7ff6 123d b0cc 5bbd bf69 8abc
000003d0: f19d 1dbd 0e62 94bd d6d3 19bb 3d40 c53c
000003e0: cc4a d33c 515c b63c 12a7 c03c d3de 16bd
000003f0: 6013 59bd 8c4c 34bd 2f81 623d 773e 523d
-0.05953651 -0.1491405 0.0076022465 0.060877476 0.034098625 -0.121872425 0.015718266 0.08055372
-0.022097118 -0.002048692 0.08428078 0.029524827 -0.036614012 0.070419826 0.12181079 0.026107723
-0.010902805 -0.019731663 0.07068891 -0.03955464 0.106292464 -0.03678101 0.03549065 -0.01293791
0.013309487 0.014232448 0.0030400336 0.0024960942 0.093495786 0.07458481 -0.030662963 0.014499235
0.017763877 -0.0041928436 0.07675908 0.062340725 0.032605615 -0.05983709 0.05306209 0.06279871
0.031969134 0.07521919 0.05016207 0.022314362 0.0010832681 0.07564487 0.023355464 0.036513023
-0.08591041 0.0391904 0.09096625 -0.033005048 0.069127694 0.0029008654 0.057576172 0.06395927
-0.020935385 0.0967914 0.07999601 -0.059726827 0.040429074 0.09472231 0.0063886736 0.07846708
-0.029586721 0.02194784 0.09127512 0.037355788 -0.009210604 0.016609969 0.015649859 0.00733683
0.07162247 -0.015896117 0.03187187 0.09144714 -0.08801763 0.032978214 0.047808193 0.047056314
0.020676509 -0.010104778 0.088562354 -0.035786126 -0.049955085 0.0029329523 -0.00529492 0.013383536
-0.101092145 -0.02890975 0.0074759647 -0.08622959 0.020825202 0.1171943 0.015009188 0.041241486
0.020023182 -0.0035453502 0.031638313 0.04298672 0.0064822943 -0.0062501593 -0.0012125089 0.0042114602
0.07030882 -0.020591998 0.0416611 0.022021804 0.052591577 0.07124698 0.09239059 0.04034506
0.09212675 0.019483756 0.013985517 0.07411693 0.036218096 0.0030910184 0.112669125 0.07713059
0.06288652 -0.01215059 0.016494814 0.11414912 -0.010887378 0.019190274 0.03375877 -0.059635498
-0.027709419 0.004398321 0.07176096 0.024144616 -0.01486169 -0.08442426 0.021500215 -0.099017836
0.03175449 0.016861577 0.010053554 0.04441746 0.017338647 0.010804894 0.12407239 -0.018995134
-0.053818777 0.028979588 0.017146254 0.009848447 -0.011307128 0.10360556 0.14862171 0.07700294
0.10419435 0.0524105 0.06065958 0.11826097 0.04721652 0.069736846 0.07121236 0.024554243
-0.0023630406 -0.0545544 -0.0387054 0.090776436 0.017748265 0.014778159 0.042009734 0.081440225
0.015786245 -0.018850744 0.036920153 0.05996564 -0.07464974 0.05822502 0.03299433 0.113724075
-0.10187372 -0.11212327 -0.0029382075 0.094639994 -0.045016766 -0.014442692 -0.051678743 -0.010712961
0.07368369 0.09792994 -0.052773196 -0.04673507 -0.01884297 -0.014733275 0.07548851 0.06902322
-0.053777713 -0.026345497 -0.025740976 -0.018415831 -0.07215005 -0.06641229 0.039013322 0.058826085
-0.02060478 0.020400109 0.021544077 0.0023087917 0.034384955 0.017671892 0.06855441 -0.012504366
-0.08413594 0.04685843 0.077907264 0.0592515 -0.016641418 0.08848121 0.032654587 0.004622175
-0.026057981 0.02681352 -0.00747915 0.100835785 -0.027845511 0.030062579 0.02550107 0.026799217
0.001724946 -0.024861278 0.03795757 0.09209515 -0.019467674 0.0659824 0.059587818 0.04400272
0.030511316 0.07529385 0.10095538 0.022144066 -0.040890295 0.022176059 -0.0080744205 0.037165694
-0.04839695 0.03587961 -0.053662002 -0.016896127 -0.038480703 -0.07245265 -0.0023472211 0.024078483
0.025792502 0.022260817 0.023517165 -0.036833595 -0.052996993 -0.044018313 0.05529898 0.051329102

network_body.observation_encoder.processors.0.conv_layers.2.bias f4 [32]
00000000: ef79 1bbc 8fd8 a0bc c725 9e3c 051f 8cbc
00000010: 199d 80bd cc06 133d f778 853d 7699 d4bc
00000020: fe61 a33d 88f7 c43c ea31 38bd 1911 58bd
00000030: 0048 84bc 599a cfbc 9a92 b63c cac3 933d
00000040: 4e04 64bd 6fbe 8d3d 54c2 40bd 2ab0 553d
00000050: c7b6 723c 3785 67bd c303 0bbc 47c6 efbc
00000060: ebda 433d fd2a 1dbd 87ec 92bd 19cd 9bbd
00000070: e047 3d3d ce1a a73c ec92 4d3d 6987 5dbc
-0.00948952 -0.019634513 0.019305123 -0.017104635 -0.06279964 0.035895154 0.06517213 -0.025952082
0.07977675 0.024043813 -0.044969477 -0.05275068 -0.016147614 -0.025342153 0.022286702 0.07215078
-0.055668168 0.06921088 -0.047060326 0.052169956 0.014814085 -0.056523528 -0.008484784 -0.02926935
0.0478162 -0.038371075 -0.0717402 -0.07607479 0.046211123 0.020398524 0.050188944 -0.013521054

network_body.observation_encoder.processors.0.dense.0.weight f4 [256, 32]
00000000: 4869 2f3e 2902 8f3e 4315 b83d 197f 233e
00000010: 6f8b a1be d696 b4be a266 c53e e1c7 d3be
00000020: 33a1 9c3d 82ee ce3e 029f dd3e 80f7 693e
00000030: 87c2 e5be 770b 1b3d 3710 c3bd 541c 813e
00000040: 8be1 9a3d 208a 23be f2f6 ae3d c41b c6be
00000050: 3757 98be cb31 bebe 55f5 fcbd 1fa5 ba3d
00000060: 2c00 d73e 2759 87bd 87cf 97be 837f 693e
00000070: 3e63 6d3e 9901 e13c 471e a7be 60c9 d0bd
00000080: 8d38 02be 88db 393e f317 8cbe 6127 5fbe
00000090: 4c52 3dbf 5922 843d dd32 1c3e e9f9 c73d
000000a0: a948 46be bdfd 0b3f 9895 32be ebed 3dbe
000000b0: ea54 d73e 7fc6 acbd 5e33 b13e b97b 943d
000000c0: 0fc6 803e 2b71 ac3e 5b64 bbbe 8575 edbe
000000d0: 02aa b23d f429 a93e efbd c03e 95bc 26be
000000e0: 1305 efbd f454 3a3d 8a44 bb3e 46e0 873e
000000f0: 8782 3bbe 75a4 c03d e772 673d f18c c9bd
00000100: 7095 b23c c18e c23e 2f51 e03e 2a2e 683d
00000110: 4d4d 93bc 8f2e 39bf 1b3a 9a3d 6efe 393f
00000120: bed7 213f 964d 4b3d b247 963c efcd dbbe
00000130: c958 ccbd d642 193e 34d2 623e 5a08 d0bd
00000140: 6943 3d3d f7b7 313e 6015 733e f544 d83e
00000150: e29d 7dbe 2c38 75be c7ae 343e e3f7 9fbc
00000160: 9ea8 37be 746e 273d 3018 5b3b a011 81bd
00000170: 3ea3 4cbd f393 c43c 4798 d6bd 30c5 e43b
00000180: 8e12 a73e aa9d 9fbd 436f 79be c46d aabe
00000190: e114 f7be 11fe 013e 7d74 30bd b0a2 a13e
000001a0: d4b7 5fbe 6628 8f3e 102a dcbe 6bc1 c1bc
000001b0: fb76 27be 7196 813c 2aa3 65bd e37b 7dbd
000001c0: 0fcf 8ebe f0bd 8d3e 5c17 12be 7330 493e
000001d0: 5084 80bd 7c6d 4fbc e7e3 d7be ce2f 2cbe
000001e0: 575c babb 832a ddbe 46ff f1be f7a8 213f
000001f0: 30cf bf3d 2ed5 bb3e caaa 813e 5dd1 993d
00000200: e4fc 5ebe 7d70 1e3f 0ed9 cc3e 52d2 d53e
00000210: 5d12 1cbf 0f87 cebc 28ed 03bf 2ddb c2be
00000220: e646 333e 0903 0abd 996b 0fbd d077 553e
00000230: f84a 04bd f207 b93e 7c23 683d 9cc9 a03b
00000240: ad5d 3f3e 4fbe b33d 87df f43d e944 ac3e
00000250: f510 6dbe 3be4 2f3e bc9d 42be 13f5 303e
00000260: a023 87be f044 c03c a61a c5be d579 2a3f
00000270: 9a15 013e e07c 2c3e 4273 b7be 2d3d a43d
00000280: 3901 aa3d 6907 e73b c016 bf3c 2e47 e93d
00000290: c62d 043b 897c d63e 91f5 973e b0dc fabd
000002a0: ec9e b53e ba2a 983d 50a2 13bc 4c6f ff3d
000002b0: badb d83d 60eb 413e 1f84 dfbe 8f35 7dbd
000002c0: 1a6f 8dbe fd2c 473e b716 aa3e 9e2c fa3e
000002d0: 941b 1b3d 431b 02be 8de7 cfbe 8336 88be
000002e0: 3c3e 4c3e 9f74 313e 5ffe 8abe fa9f 74be
000002f0: e1db 05be dc7e 183e 785d 61bd af5e 713d
00000300: 773a 2e3e 5b5d 68bd f6ac de3c 4f5f 4fbe
00000310: 6dab 233d 8af9 7dbe 44c2 64be 93f2 d73e
00000320: 10ac 833e 106c 4c3e b0e3 153e 89ad 99be
00000330: f55d 043e 2b64 63be 2468 bbbe 0890 523e
00000340: f4d2 e93c 6bd5 79bd eb47 2d3b 689e 233e
00000350: f7e2 913d 60d2 ea3d 0771 5b3c e546 2dbe
00000360: 3259 fd3d 5135 51bd e525 a33e 244d b2be
00000370: fb6c ff3e 6cab cc3d 10b6 663e 2c06 cdbd
00000380: 8129 15be 4a2a a4be 5f51 61ba 2c01 023e
00000390: f2be 433e e9f4 0c3e e205 98be a539 313c
000003a0: d51f 5ebe d575 d7bd 354e 2a3e 6ef1 4dbc
000003b0: b0eb 43be dd05 b13d d8d6 ee3d 514a 5a3d
000003c0: cb14 e53d 0a49 5fbc 31df cb3e cc30 8b3e
000003d0: 10ed ecbd 5188 043f 6f45 8ebb 997d 1e3e
000003e0: 6be7 e5bd 2316 9bbd 0d3e 09bf a270 703e
000003f0: 8d43 323e 05d1 18be 5af1 80be d7b1 6a3d
0.17130005 0.27931336 0.0898843 0.15966453 -0.31551692 -0.3527133 0.38554865 -0.41363433
0.07647934 0.40416342 0.43285376 0.2284832 -0.44874975 0.03785273 -0.09524577 0.25216925
0.0756255 -0.1597066 0.08543195 -0.38693058 -0.2975404 -0.37147364 -0.12351481 0.091135256
0.4199232 -0.06608801 -0.29650518 0.22802548 0.23182389 0.027466582 -0.32640287 -0.10194659
-0.12716885 0.18150151 -0.27362022 -0.21792366 -0.739537 0.06451864 0.15253778 0.097644635
-0.19363655 0.5468405 -0.17439878 -0.1854779 0.42056972 -0.084362976 0.34609503 0.07250161
0.25151107 0.3368009 -0.36600003 -0.46378723 0.08723833 0.3303982 0.37644908 -0.16282876
-0.1167089 0.045491174 0.3657573 0.26538295 -0.18311511 0.09406368 0.056506064 -0.098413356
0.021799773 0.37999538 0.43811938 0.05668465 -0.017981196 -0.7233667 0.07530614 0.72653854
0.6321982 0.04963454 0.018344734 -0.42930552 -0.09977872 0.14966902 0.22150499 -0.10157843
0.046206865 0.17355333 0.23738623 0.4224011 -0.24767259 -0.23947209 0.17644797 -0.019527381
-0.17935416 0.04087682 0.0033431165 -0.0630219 -0.049960367 0.023996329 -0.10478263 0.0069815144
0.32631344 -0.07793744 -0.24358849 -0.3328687 -0.48258117 0.12694575 -0.043079842 0.31569433
-0.21847469 0.2796051 -0.4300084 -0.0236518 -0.16353981 0.015818806 -0.05606381 -0.061885726
-0.27892348 0.27683973 -0.14266723 0.19647388 -0.062752366 -0.01266038 -0.42166063 -0.16815111
-0.0056872773 -0.43196496 -0.4726507 0.63148445 0.0936569 0.3668608 0.25325614 0.07510636
-0.21776158 0.61890393 0.4000935 0.41762024 -0.6096552 -0.025210885 -0.51533747 -0.38057843
0.17507514 -0.0336943 -0.035014722 0.20846486 -0.03229806 0.36138874 0.056674466 0.004906846
0.18688078 0.08776533 0.11956697 0.33646324 -0.23151 0.17176907 -0.19005483 0.17280988
-0.26394367 0.023470372 -0.38496894 0.6659215 0.12605897 0.16844511 -0.35830122 0.08019481
0.083010145 0.007050444 0.023326278 0.113905296 0.0020168885 0.41891888 0.2967954 -0.12249124
0.3547281 0.074300244 -0.009010866 0.124724 0.105887845 0.18937445 -0.43655488 -0.061818656
-0.27623826 0.19450755 0.33220455 0.48862165 0.037868097 -0.12705712 -0.40606347 -0.2660409
0.19945616 0.17329644 -0.27147195 -0.23889151 -0.13072158 0.14892143 -0.05502078 0.058928188
0.1701449 -0.056729656 0.027182084 -0.20251201 0.039958406 -0.24802223 -0.22339731 0.42177257
0.2571721 0.19963098 0.14637637 -0.3001521 0.12926467 -0.2220618 -0.3660289 0.20562756
0.028542973 -0.060994547 0.0026440572 0.15978396 0.07123368 0.11465907 0.013393647 -0.16921575
0.12370528 -0.051076237 0.3186485 -0.3482448 0.49887833 0.09993634 0.22530389 -0.10010943
-0.14566614 -0.32063514 -0.0008595194 0.1269576 0.19115809 0.13765301 -0.29691988 0.010816966
-0.2169183 -0.105205216 0.16631396 -0.012569768 -0.19132876 0.086436965 0.11662072 0.05329353
0.111856066 -0.013628254 0.3981872 0.27185667 -0.115686536 0.517705 -0.004341773 0.15477599
-0.1122578 -0.075725816 -0.53610307 0.23480466 0.17408581 -0.14923485 -0.25184137 0.057298508

network_body.observation_encoder.processors.0.dense.0.bias f4 [256]
00000000: 16dd 703c 25ee e8bc a627 c7bc d010 a63d
00000010: 9c2e b73b e7ba 9a3d 7d12 4c3d a481 a73c
00000020: d7a5 92bb 0bca 52bc 5fa6 debb d3b8 323c
00000030: 7e01 953c bee2 f13a a1d6 11bd fe15 47bc
00000040: c8aa 9b3b 5df4 5a3d 79ce 68bb a823 e73c
00000050: 45ff f5bb 5d3b 86bc bb59 ac3d d1cd d63c
00000060: 7ec5 84bb 05e9 f63c 966d b33c 80c2 4c3d
00000070: 2308 513c 70d9 07bd 54e8 22bc 8053 ca3d
00000080: 3282 02bd de76 573d cbac 5d3c 9138 4f3d
00000090: fb9b eabc fe1f 653d 3e04 053d cc88 bf3c
000000a0: 8ad5 a3bc 248f 473c 41c6 d8bc 2c06 3a3b
000000b0: 1c4a 663d 2e2d 563c 7094 113d 8c18 2a3c
000000c0: a84d 0c3d fe29 cabc bea2 693d c129 853d
000000d0: 8494 6f3d b50b 123d 682b 833c 99a0 083d
000000e0: b8cf cb3c c8e2 243d 6c9b 2f3d abac 7e3d
000000f0: 52b7 373d 0f01 313c 267d 143d 0c87 20bd
00000100: eb99 34bd 512b 863c 3f79 b23c a830 733d
00000110: 902b 4b3d f47f 923b ebae 51bc 51f5 513d
00000120: e2d6 23bc 88a4 7a3d 612a 0d3c 909e 003d
00000130: 90dd b53c 5c9c 1fbb a851 e13c d0ea 983d
00000140: cc14 adb9 81f5 663c c754 17bd c4af 0f3d
00000150: ea11 ddbc 3c32 ca3b d5b4 313c 2c01 1a3d
00000160: 1709 793d e613 353a 6d73 813c 0dcc 703c
00000170: 28d1 863c 2a4b 07b9 4980 2abc 83c0 ffbb
00000180: f0fc 533b cb51 2bbc 6e24 60bc 8f4a 193d
00000190: 9ed7 9e3d 6e0a 893c fde0 7e3c e1f5 893d
000001a0: a932 8a3b b9d4 7abc 0508 b53c b009 fe3c
000001b0: 1060 8e3d df04 8cbc 77d0 403d edb4 89bc
000001c0: 7ae7 1a3d 40f4 27bd 4e2c a1ba 1180 86bc
000001d0: d6db 353d d2e2 743c fb36 42bb 6dbd 27bc
000001e0: 2efe 01bd 0b6c 4abc ffe2 8b3c 5cf5 423d
000001f0: 28ea 813c 0cc2 3e3c 0b16 8dba 9ee1 193d
00000200: 4f80 b5bc 35e8 8a3d bc86 7a3b ad0e e23d
00000210: 6d07 8a3d eb53 033e d05b 963d e7e6 f9bc
00000220: 2e8f 483d ddbc 10bc 0c85 613c 8354 abbc
00000230: 4888 483c e7f2 363d db8a bb3d c642 36bd
00000240: 8f3d ac39 2ebc 67ba 07b0 9c3d f041 ad3c
00000250: f2c7 18bc 6077 ff3b d0a0 8fbc 134a 993c
00000260: 1007 183d 39c2 b83c 6e61 553d ea99 a33d
00000270: 3a61 423c 44aa 1dbd 564f 613d 71d4 213d
00000280: 3c83 373c 7390 903c 6a57 843c 0e90 bbbb
00000290: 154e 86bc cb7a 853c 30bc a0bc dccd 353d
000002a0: b01a e83c f925 39bc abc2 3c3d 5b33 503c
000002b0: 6867 b23d 1fdd 433c 43c2 293d 921c 183d
000002c0: dad1 053d fb9b bd3c 8a3f 913d 3fa6 623d
000002d0: e326 d33c 306a 2f3c 262b c73d 751b 6bbc
000002e0: b396 84bc 01ab 3d3a 4de6 543d a884 a0bc
000002f0: 7a6b 003d 3e1f 473d b543 9639 a70b c2bc
00000300: 663f 29bc 2fc8 483c 3cb9 aebc 8fb3 4c3d
00000310: 6dde a13d 8c77 783c 595b 3e3d 694d 10bd
00000320: 3d6c 9f3b 6224 3f3c 021b a43c 1ec0 50bb
00000330: 1c93 4b3d c9ce ab3c 8e58 51bd b65e 243d
00000340: b07e 893d 0004 bd3d 00a3 5f3d 5354 1e3c
00000350: 291a a63c 7b22 513d 18b1 253d 1754 833d
00000360: 36fb 183d 3c75 983c d7ca e3ba 1129 a7bc
00000370: 7f5b cdb9 d148 fd3c f783 4d3d 5526 3b3c
00000380: 4629 563d ec88 90bc 039f 38bc 3879 44bc
00000390: b0d7 04bd b7f9 a23d d655 3a3b 0884 35bd
000003a0: 822c 0d3c 2d14 633c 6c4a 203d 5ddd ad3d
000003b0: e0f6 2c3d 9567 193d 42bf 943d 6463 4d3c
000003c0: c2d6 ea3c e363 283c 1253 fb3c 86d9 8d3c
000003d0: c958 c53c 4b8d 703d b747 9a3d 9671 92bd
000003e0: ac31 e53b daf7 bebb eaae 533c 0ec4 633d
000003f0: 4a3a 3fbc 9e52 1e3c 30ba 2c3d 7443 d33c
0.0147011485 -0.028433869 -0.024310898 0.081086755 0.005590273 0.0755518 0.04982232 0.02044756
-0.004475336 -0.012865554 -0.0067947353 0.010908323 0.018189188 0.0018454415 -0.035605077 -0.012151239
0.0047505833 0.0534557 -0.0035523458 0.028215244 -0.007507237 -0.016385728 0.08415552 0.026221188
-0.004051863 0.03014041 0.02190284 0.049990177 0.012758288 -0.03316635 -0.009943087 0.098792076
-0.031862445 0.052603595 0.013529967 0.050591055 -0.02863883 0.055938713 0.03247475 0.02338066
-0.019999284 0.0121801235 -0.026461722 0.0028385026 0.05622302 0.013072295 0.03554195 0.010381829
0.034253746 -0.024678227 0.05703997 0.065021046 0.058491245 0.035655696 0.016011909 0.033356283
0.024879321 0.040255338 0.04287283 0.062176388 0.044852562 0.010803475 0.036252163 -0.03919129
-0.0440921 0.016378077 0.02178633 0.059372574 0.04960209 0.0044708196 -0.012798051 0.051259343
-0.0099999625 0.061192065 0.008616061 0.031401217 0.022200376 -0.0024354672 0.027504757 0.07466662
-0.00033012626 0.014096619 -0.036946084 0.035079733 -0.026986081 0.006170539 0.010846336 0.037598774
0.060799684 0.0006907567 0.01580211 0.014697087 0.016457155 -0.00012902604 -0.010406562 -0.0078049316
0.0032346807 -0.010456513 -0.0136805605 0.03742462 0.077559695 0.016728606 0.015556571 0.06736351
0.004217465 -0.015309506 0.02209855 0.031010479 0.06951916 -0.017092166 0.047073808 -0.016809905
0.03781841 -0.04100442 -0.0012296529 -0.016418489 0.044399105 0.014946656 -0.0029634822 -0.010238034
-0.031736545 -0.012354861 0.017076014 0.047597274 0.015858725 0.011642944 -0.0010764016 0.03756868
-0.022155909 0.06782571 0.003822728 0.110379554 0.067396976 0.12824981 0.073417306 -0.03050561
0.04896467 -0.008834091 0.013764631 -0.020914322 0.012239523 0.044665243 0.09157344 -0.044497274
0.0003285226 -0.00088399916 0.07650762 0.021149606 -0.009325014 0.007796213 -0.017532736 0.01871208
0.03711611 0.02255355 0.05209487 0.07988341 0.011864001 -0.038492456 0.0550073 0.03950924
0.011200722 0.017647004 0.016154964 -0.0057239598 -0.016394654 0.016293904 -0.019620985 0.044385776
0.028333038 -0.011300557 0.046084087 0.012707557 0.087111294 0.011954575 0.041445028 0.03713662
0.032670833 0.023145666 0.07092197 0.055334326 0.025775379 0.010706469 0.09725027 -0.014349808
-0.01618514 0.00072352594 0.051977444 -0.019594505 0.031352498 0.04861378 0.00028660675 -0.023687197
-0.010330057 0.012254759 -0.021328561 0.049975928 0.079037525 0.015165221 0.046473835 -0.035230074
0.004865198 0.011666389 0.02003241 -0.0031852792 0.04970084 0.020972626 -0.051109843 0.040129386
0.06713617 0.092292786 0.05459881 0.009663659 0.020276146 0.051058274 0.040452093 0.06412523
0.03734895 0.01861059 -0.0017379177 -0.020405324 -0.00039168817 0.03091851 0.05017468 0.011422713
0.052285455 -0.017643414 -0.01126838 -0.011991791 -0.032432258 0.079577856 0.002843251 -0.044315368
0.0086165685 0.013859791 0.039133474 0.08489487 0.042227626 0.0374523 0.07263042 0.012535904
0.028666858 0.010277721 0.03067926 0.017315637 0.024090188 0.058728497 0.0753321 -0.07150571
0.0069944467 -0.005827886 0.012920121 0.055606894 -0.011671612 0.009663252 0.04216975 0.025789

network_body._body_endoder.seq_layers.0.weight f4 [256, 266]
00000000: 8d58 143d a988 3bbd 626c f23c bd29 b8bd
00000010: 02ce 553d 60a1 18be 1b34 b5bd d2bc 11bd
00000020: 4b89 9bbd 16ae 033e 46a1 043e e6f4 f1bd
00000030: 2d8c c9bd fc7e d93d cba3 c9bd 1b1a d93c
00000040: 1ab2 12be 6d83 213d 384f 8fbc 7acb 31bd
00000050: 718a 80bd 2758 e9bc 14ba 86bd 71c5 5f3c
00000060: 5ebf 0dbc 9e6d 463d 95b3 7abc 08bb 95bb
00000070: 2d05 113d bd79 e1bc c968 ccbc cab2 d63d
00000080: 4138 86bc a61b 133e de7e b03c 4902 fd3d
00000090: 4c70 cb3d cdf6 cc3d c2d5 65bd dfa6 39bc
000000a0: 5186 19bd 9c36 a73c 7b1f 88bd dc89 22be
000000b0: f4cd 583c 50f9 38bd 5836 e13c 4d83 763d
000000c0: 7acd a9bc 2ae9 9d3b 0e2c 11be 6838 14bd
000000d0: b58b a73d bd17 0dbe ea1e d23d 12b6 f8bc
000000e0: 7c30 d6bb c6fb 02bd 3a5b 753c 2b0a cc3c
000000f0: 176e c9bd cfa8 7f3d 6fe2 c9bc 9ca5 ae3c
00000100: bb68 a33d 439b ee3d 7e64 013d fcb6 40be
00000110: 175b f6bd 4ce5 a5bc 8b94 903d b6cd 07be
00000120: b0b2 ebbd 1adc f3bc 1694 a53d 1b6f b3bd
00000130: ee02 e63d a92b a93d f8f2 a0bd 6236 f5bd
00000140: 1f5a 163e 5026 3cbd c832 2d3e 46bf b63b
00000150: 5d29 8bbc c33b 753c ec33 533d ff06 45bb
00000160: 9f7b 06bc e8ba aebd 9b0a 893d ff90 d9bc
00000170: e128 2b3e ff52 afbc f01a 2b3d e53e 283c
00000180: 170c 98bd 23d1 60bb 5e13 2abc c35f f4bc
00000190: 7673 b93d 7416 e13c e959 353d a475 01be
000001a0: 78da 373d c791 30bd 018c 1c3e 32e9 8dbd
000001b0: 2a60 39bd d645 893c 66c1 ce3d 6e13 f63d
000001c0: 8bbc be3d b311 683b 80b5 b33d cdf1 bd3d
000001d0: 92a5 b23d 81ae d3bc 0725 a13c 6ac1 50bd
000001e0: 67c0 51bd 5fd9 1e3d 7720 3cbd d58c 0cbe
000001f0: c60a 633d 78bc 673d 2a9f 1d3e 5164 153d
00000200: 8938 483d b595 8dbe a439 ba3b 56a9 d53d
00000210: 1eeb fabc c804 0cbd df64 043e 2288 ee3b
00000220: 3233 cdbc cff5 83bd a3b7 acbd 71fb 253e
00000230: 62e4 063c c0f6 8fbd 296f 73be 672b 303d
00000240: bc17 23be f362 0fbd 6677 af3d a3dc 63bd
00000250: 2a44 203e 5ba9 15bd 598a 06bc e508 1f3b
00000260: e315 48bd 462f fd3c e395 2dbd e34f b3bd
00000270: 6a51 c4bc 4abd f63c 5722 37bd 5841 f1bd
00000280: 7955 d03c 3e46 36bd 433f 2bbe 31c8 f6bd
00000290: 9d79 d93b a55f 993c 9e2d 6f3d 27ba a3bd
000002a0: 1a1c efbd 2fbe 0e3e 661d 19bd 7a1b 58bd
000002b0: 8f14 bfbd 7620 3c3c 1dc7 94bc 8461 313c
000002c0: 7d4f 32be da52 e1bc a680 4fbd b36b a1bb
000002d0: 6a8e cbbd 5bdb f03b 33be 873d a8d3 5ebc
000002e0: ef40 c83c a8e4 c13d dcbf 473d b154 db3d
000002f0: 7394 38be 9f32 78bd 0f69 48bd 4d97 3dbd
00000300: 0c6a 8c3c 5ae6 b0bd e7bb 943d a3c7 bfbd
00000310: c170 f1bd af97 663d fe54 e73c 9cb4 333d
00000320: 641b 443d 8bd6 4abd 0a52 80bc 3bd1 fdbb
00000330: 7c41 7abd 5b6c 83bd 2ff6 523d 6700 2dbe
00000340: ec9f 59be a648 ab3c 6067 9fbd 75a1 1fbe
00000350: a9e2 d53b 6dd5 0fbe 0776 f63c 518d 203e
00000360: d02d bebd 4a4d 39bd 3353 e13d 93e2 eabc
00000370: 6868 92bc f061 8c3d e97f febb debe 03bd
00000380: a2ec 98bd 907e 043d d762 533c 2439 d2bc
00000390: 68bc 9bbd 203f a23c 42fd af3c 2592 64bb
000003a0: f65f 17bd 6d50 983d 6a47 e6bd 2504 cfbb
000003b0: 43f3 2f3e 245e 533d b583 0cbd ad01 f93d
000003c0: b000 f5bc 73f0 2cbd 49be 963d b80b a4bd
000003d0: 1647 5dbc 4d62 d0bd 8080 9bbd 7a24 6dbd
000003e0: ef77 443d d2a9 c73d c4c5 e03b dc12 3139
000003f0: 5ca2 643d 040a cb3c c531 1abe 4eb3 b7bd
0.03621726 -0.045784626 0.029592697 -0.08992336 0.052198417 -0.1490531 -0.08847829 -0.035580464
-0.07594546 0.12859377 0.12952146 -0.11814289 -0.098411895 0.106199235 -0.09845694 0.026501706
-0.14325753 0.039431978 -0.01749383 -0.04340694 -0.062764056 -0.028484417 -0.0657846 0.013657914
-0.0086515825 0.048444383 -0.015301605 -0.004569415 0.035405327 -0.02752387 -0.02495231 0.1048332
-0.016384246 0.14366016 0.02154487 0.123539515 0.09933528 0.10008011 -0.05611206 -0.011331289
-0.03748161 0.020411782 -0.066466294 -0.15872902 0.013232697 -0.045159638 0.027491733 0.060183812
-0.020727862 0.004819055 -0.14176962 -0.036186606 0.08180944 -0.13778587 0.10259803 -0.030360255
-0.0065365415 -0.03197839 0.014975363 0.024907192 -0.09835451 0.062416848 -0.024644105 0.021319203
0.0797896 0.116507076 0.031589977 -0.18819803 -0.12029093 -0.020250939 0.07059582 -0.13262066
-0.11508691 -0.029768039 0.08084886 -0.08761426 0.112310275 0.08260281 -0.078588426 -0.11973263
0.14682816 -0.045934975 0.16913903 0.005577001 -0.016987497 0.014967862 0.05156319 -0.0030063984
-0.0082081845 -0.08531743 0.06691476 -0.026558397 0.16714813 -0.02140188 0.041773736 0.0102689015
-0.07424181 -0.0034304343 -0.010380594 -0.029830819 0.090552256 0.027476527 0.044275198 -0.12642533
0.044886082 -0.043107774 0.15287782 -0.06929244 -0.045257725 0.016756933 0.100954816 0.12015425
0.093133055 0.003541094 0.08774853 0.092746355 0.08722986 -0.025840046 0.019670976 -0.050965704
-0.05120888 0.03878152 -0.0459294 -0.13725598 0.055430196 0.056576222 0.15392748 0.036472622
0.04888204 -0.2765328 0.005683141 0.10432689 -0.03062969 -0.034184247 0.12929104 0.007279412
-0.025048826 -0.06443369 -0.084334634 0.16209199 0.008233162 -0.07029486 -0.23772873 0.04301014
-0.15927023 -0.035006475 0.08567695 -0.055630337 0.15651003 -0.036538463 -0.008211696 0.0024266776
-0.048848998 0.03090633 -0.04237927 -0.087554716 -0.023964603 0.030119557 -0.044710483 -0.117800415
0.025431382 -0.044500582 -0.16723351 -0.12049902 0.006636812 0.018722365 0.058393113 -0.0799449
-0.11675282 0.13939737 -0.037381552 -0.05276058 -0.09330093 0.011482349 -0.01816135 0.010826472
-0.17413135 -0.027505327 -0.050659798 -0.004926169 -0.09939273 0.007350368 0.066280745 -0.0136002675
0.024445025 0.09467441 0.048766956 0.10709513 -0.18025379 -0.06059515 -0.048928317 -0.04628687
0.01714041 -0.08637686 0.07262402 -0.093642496 -0.11789084 0.056297 0.02823877 0.043873414
0.047877684 -0.04952101 -0.01566412 -0.0077458895 -0.061097607 -0.064171515 0.05150431 -0.16894685
-0.21252412 0.020908665 -0.07783389 -0.15588935 0.006527264 -0.14046259 0.030085577 0.15678908
-0.09286082 -0.045239724 0.11002197 -0.028672492 -0.01787205 0.068546176 -0.007766713 -0.032164447
-0.07467009 0.032347262 0.012901983 -0.025662012 -0.07604295 0.019805491 0.021483067 -0.0034877148
-0.03695675 0.07437215 -0.1124409 -0.0063176327 0.1718264 0.05160345 -0.034305293 0.12158523
-0.029907554 -0.042221498 0.07360513 -0.08010048 -0.013505718 -0.101749994 -0.07592869 -0.057896115
0.04796594 0.097491875 0.006859513 0.00016887061 0.0558189 0.02478505 -0.15058048 -0.089697465

network_body._body_endoder.seq_layers.0.bias f4 [256]
00000000: c72d 85bc bbf9 413c 43b8 23bc b4d6 863c
00000010: 6c06 613b c3a8 893b 0b76 9bbc 2099 923c
00000020: 4220 e3bc f071 ebbc 6bad f6bc 2ab5 f63c
00000030: 4dd0 b0bb 2312 543b 60e4 a43b ae2b 223c
00000040: 7f8e 8e3c 0cfa 7cbc bf61 0abc 12b7 8c3c
00000050: d3b5 b63c 8f92 f13b 9190 ec3c 57ba d23c
00000060: 6835 f43c 3a32 6b3c 1b5a 83bc 05d5 f93c
00000070: b586 f8bc 3e30 4d3c 4bec 683c 6b7e 983c
00000080: 03c4 e2bb 0b3f 9cbc 0849 d53c ac1e 33bb
00000090: dc45 b5bc 71c2 7fbd e8f9 c73c 279a 0c3c
000000a0: 51fd 043c 5696 9b3c c005 d6bc bd91 993c
000000b0: 90e0 66bc 23d7 f9bb 2e6d 63bb 4d96 eabc
000000c0: cbfd 8dbc adcc 993b 4213 0b3d ff10 adbc
000000d0: 450f 163a fdcc 0d3c 32b7 af3b e12e 57bc
000000e0: 454f 05bc 37f9 c83c 60bd 283c fb79 cabc
000000f0: ae8a 9abc c22a 0d3c dbb4 1bbc 47f0 20bc
00000100: 8577 74bc 74bf 6e3c 182a efbb 61fe 223b
00000110: 0e2d 9abc f096 b43b 8d57 953b 034d 953c
00000120: 8a77 1b3c 9f0b 69bc fce6 683a b141 303d
00000130: a6cb f2bc a3c7 c83c 22ea 50bc f7a1 fe3a
00000140: c959 afbc 18fb cfbc 2de6 cf3c bab4 1cbd
00000150: c0de 8e3a 89af e2bc 49fa 193d 8d37 c8bb
00000160: 107b 793c ead7 be3c e4e5 81bc 7fed 96bc
00000170: d5e5 85bc 7e55 06bc 2287 c1bc bbc5 3f3c
00000180: ad38 b23c ee70 b43c ab8b cfbc 201b 1a3d
00000190: a093 66bc e2f3 cfbc 0980 443c 1686 063c
000001a0: c62b 59bd ea14 05bd d176 09bb 3cc4 d7bc
000001b0: f7c5 b9bc 7f05 c43c d297 a5bc 150c 003b
000001c0: e488 c2bc 32d9 ec3b 4283 24bd 3987 e43c
000001d0: f9c6 d13c d760 643c 9ff4 cebc cc39 87bc
000001e0: 4533 64bc 5dee 573b c572 e6bc e91e a2bc
000001f0: c6fc 533a 830a 093d 70ef c2bc 4cd7 0c3d
00000200: b01f 9cbc e965 b73c d2d2 bdbc b7a2 97bc
00000210: 0484 14bc cc54 463b 9314 1f3d 7ccb 7b3c
00000220: bba6 0abc 73f1 193d efcc c7bb 5fb4 bebc
00000230: c4fa bd3b 2336 9f3c 3c5d d9bc c520 483b
00000240: 48f2 eb3c c013 88bc 29f1 2b3c 4b9d 90bc
00000250: fa75 b33c 3bc7 853c a28a 403d d58e eb3b
00000260: 0d2d 5f3b 8f72 9a3b c126 83bc 4cf4 5ebc
00000270: 5030 08bc 1d7a ec3a 6f35 d13c 89a0 b5bc
00000280: 8f8d 98bc 2a45 263a adce ed3b 7069 b4bb
00000290: 73b5 19bc 890f e23c 294d 52bd a926 a63b
000002a0: 4aa6 283c 51c4 f13c 2c98 423c eaad 71bc
000002b0: f6a2 da3c 38eb 913b 6282 e0bc ea7e 1fbb
000002c0: a89a 62bc e171 0a3d f9a1 f4bc 4623 a63b
000002d0: 3419 073d 3a89 473c 3343 c33c 8187 8d3c
000002e0: d2e0 97ba 7d06 fb3c 2bc2 03bd 65ca 3a3d
000002f0: 7ae2 e7bb 3a49 053d 2fac 2cbc 4053 0b3c
00000300: 5b55 2f3c 276f c7bc a111 1ebc 2431 9e3b
00000310: 5dc4 68bd 75a5 283d 05db 3bbb 9f8e ed3c
00000320: c035 403c 3dec 073d ea50 d93c d728 f73c
00000330: a1cc 22bd f35e 3a3d 8792 ccbc 347f 18bc
00000340: b87a 833c 4b79 113c fd5e 9bbc 1cd1 72bb
00000350: 01fb f23b 121a ddbc 16a2 4ebd 2f71 08bd
00000360: ece2 7d3c 89de 0e3a 8be7 c4bc a7c6 2d3b
00000370: 16e0 a4bb 33c6 1a3b 4c4a b93c 2087 9a3c
00000380: 042c b3bc c615 6d3a 918f aabc 2d0c 9bbb
00000390: 4ea3 163c b853 de3c d012 123c 4e4f 203b
000003a0: 53e0 d73a e4a4 40ba 13ad 353c 99a7 bcbb
000003b0: c4cc 0a3a 0173 ab3c 344f d8bc d6fa 843c
000003c0: c340 fe3c c35f c53c 9ccf 853c 3c20 75bc
000003d0: a569 8abc f028 e4bb 7f21 5dbd c249 ab3c
000003e0: 4f22 39bc 96b9 f13b 4367 8f3c 2d6e 7bbc
000003f0: 6af8 60bd 6af3 05bd 1017 91bc 2ee2 e83c
-0.01625718 0.011839326 -0.009992662 0.0164598 0.0034336103 0.004201026 -0.018977186 0.017895281
-0.027725343 -0.028740853 -0.030111989 0.030115683 -0.005395925 0.0032359443 0.0050321072 0.009898109
0.017401932 -0.015440475 -0.008446156 0.017177138 0.022303497 0.0073722075 0.028877528 0.02572362
0.029810622 0.014355237 -0.016034177 0.030497083 -0.03033767 0.012523709 0.014216493 0.018614968
-0.006920339 -0.01907303 0.0260358 -0.0027331514 -0.022128038 -0.062441293 0.024411157 0.008581675
0.008117036 0.018992584 -0.026125789 0.018746251 -0.014091626 -0.0076245232 -0.0034702527 -0.028636122
-0.017332932 0.0046935887 0.033953913 -0.021126268 0.0005724321 0.00865483 0.0053624148 -0.013133735
-0.008136575 0.024532897 0.010299057 -0.024716368 -0.018864956 0.008616151 -0.0095035685 -0.009822912
-0.014921074 0.014572013 -0.007298719 0.002487086 -0.018820312 0.005511157 0.004557556 0.018225199
0.00948895 -0.014223962 0.0008884517 0.0430314 -0.029638123 0.024509257 -0.012751134 0.0019426931
-0.021405118 -0.025388286 0.025378311 -0.03825829 0.0010900125 -0.027671592 0.037592206 -0.006110138
0.015227094 0.023296315 -0.01585669 -0.018423794 -0.016344944 -0.008199094 -0.023624007 0.011704857
0.02175554 0.022026505 -0.025335154 0.037623525 -0.0140732825 -0.025384847 0.011993417 0.0082106795
-0.05302026 -0.03249065 -0.002097536 -0.026338689 -0.022677405 0.023928402 -0.020213995 0.0019538451
-0.023746915 0.00722804 -0.04016424 0.02789651 0.025607573 0.013939104 -0.025263129 -0.016507052
-0.013928239 0.0032948472 -0.028130898 -0.01979013 0.00080866774 0.03345729 -0.023795813 0.03438501
-0.019058079 0.022387462 -0.023171816 -0.018510206 -0.009064678 0.0030262945 0.03883798 0.015368339
-0.008462603 0.03758378 -0.006097428 -0.023279367 0.005797716 0.019434994 -0.026533715 0.003053711
0.028802052 -0.01661098 0.010494509 -0.017653128 0.021906842 0.016330352 0.04700721 0.0071886578
0.0034053952 0.0047133635 -0.01600969 -0.01360805 -0.0083123 0.0018041764 0.025538174 -0.022171276
-0.018622188 0.0006342704 0.0072573037 -0.005505733 -0.00938164 0.027595298 -0.051343117 0.0050705266
0.010293553 0.029512556 0.011877101 -0.014750937 0.026689034 0.004453089 -0.027405921 -0.0024337121
-0.013830818 0.03380001 -0.02986239 0.005070123 0.03298302 0.012178713 0.023835754 0.017276527
-0.0011587387 0.030642742 -0.032167595 0.045603175 -0.0070765587 0.032540537 -0.010539099 0.008503735
0.010701503 -0.024344994 -0.009647758 0.0048276354 -0.05682789 0.041173417 -0.0028664481 0.028998671
0.011731565 0.03318428 0.02652784 0.030170841 -0.03974593 0.045500707 -0.024972213 -0.009307671
0.016049728 0.008879016 -0.018966192 -0.0037050908 0.007415176 -0.02698997 -0.050447546 -0.033311065
0.015495997 0.00054500304 -0.02403619 0.002651611 -0.005031596 0.002361667 0.022618435 0.01886326
-0.021871574 0.0009044077 -0.02082041 -0.004731676 0.009194208 0.02713953 0.008915618 0.0024461332
0.0016470052 -0.00073487894 0.011088627 -0.005757284 0.00052947947 0.020928862 -0.026404954 0.01623289
0.03103674 0.024093514 0.016334347 -0.014961299 -0.016896078 -0.006962888 -0.053987022 0.020909194
-0.011299684 0.00737686 0.017505294 -0.015346092 -0.054924406 -0.03270284 -0.017711192 0.028428163

network_body._body_endoder.seq_layers.2.weight f4 [256, 256]
00000000: 5be2 30bd 6f53 8a3d e79b a2bd a765 13bd
00000010: 0747 c8bd cbc4 57bd 5698 1b3d 41d7 9dbd
00000020: 9e89 02be 585f b8bd f962 0abe e3e2 64bd
00000030: 6a79 0dbe b28b a23d 99f5 84bb 323d 37bd
00000040: 01c3 f73d 0ba9 1dbe 7068 87bd 7a2f 703d
00000050: 913a ac3c d1c2 953c cbec bb3c 0fb6 93bd
00000060: b8b0 873d ae6c 053e 3b8b b3bc b5d6 75bb
00000070: 5a52 343d 08d7 6b3b 49c7 52bd a328 04bd
00000080: dd63 fb3c c0d3 f0bc 5722 08bc d9dd e8bc
00000090: e5f6 39bb 0924 c6bd 446d c23c 7d5a 953d
000000a0: 609d a33d 29bd 0b3e 34e8 a9bd fde3 c53b
000000b0: 0596 34be 6578 c93d 41aa 6abd 5751 e6bd
000000c0: b6d7 803d 22dc 823d e585 63bc adeb 0dbb
000000d0: 3ca9 4b3b bef5 0bbd 4bd9 4dbe 9179 b5bd
000000e0: 19c8 95bd c8ed 1a3e e481 1fbd 7d7d 9abd
000000f0: 88bd e8bd 1a8a a23c e378 83bd f0fe d8bd
00000100: 88b2 583d ab10 373d 9711 84bd 2696 4cbd
00000110: 4333 90bd 0ad6 47bd f694 26bd fde3 05bd
00000120: ef8f 12be de32 52bd a08f 533d bd9c 02bc
00000130: a715 2f3e 26ab 943d fb85 d9bc 7a7a 36bc
00000140: 7c18 20bd 9547 6fba 648f d63c f9d1 b73c
00000150: 0fe8 253e 1cf5 33bd f873 253d 1c06 683d
00000160: 14fb c4bd 6033 84bd 94d1 0b3d 7e97 ceba
00000170: 0334 bcbd c7a8 dbbb 33e8 04bd 1c2b 143d
00000180: c4a1 813d 0736 cbbc 43d7 a83b e7a0 eb3c
00000190: e1d7 33bd 8632 993d 193e 823d f521 093e
000001a0: b5d4 2ebd 1b7e d23d d281 22bd bb35 1abe
000001b0: d2ae fcbc 1ebd ea3d a464 b3bd f014 a23d
000001c0: 7329 febd e0e9 a83a 50bc 743c 4579 99bc
000001d0: 602d 743d a0c9 bd3c cafc 28bd 6ce5 38bd
000001e0: bdb6 163d 1245 8e3d b888 eabc 9ed1 1cbe
000001f0: 5e07 9dbd 048a 13bc 0850 02be 81a2 013e
00000200: a841 86bd f44e cfbc 8cb5 883c d52e 4cbe
00000210: 122c c5bd 3c65 773d cbab 153a 0b78 523d
00000220: 3211 d13d f5c2 a33d 9a31 86bc 535d 85bc
00000230: 120f 1fbc 168d 5e3d d33a 83b9 c0b9 a0bc
00000240: 3fe2 15bd 3d61 843d 157e 9e3c 9c71 19bb
00000250: 5c1f 61bd 5ec7 5a3d 2eb6 f839 1e5a d6bc
00000260: ef9e 283c 5706 eabd 19e5 95bd 8d25 a93c
00000270: 9de3 abbd ed58 083e 4e4b 99bc 7e13 7b3c
00000280: 04c0 74bd fee0 f3ba 6bfb bebc 9cbd 41bd
00000290: 43bb 4c3d e650 e93d bcf8 2fbd c8e1 ab3d
000002a0: 0243 f4bd 5162 1ebd 6033 bd3d cef4 84bd
000002b0: 51cd f23d 826c 0abb 5ee0 bd3a 9637 efbc
000002c0: 2c4c 543d 3ee6 9abd 945c 2fbd a264 793d
000002d0: e0d2 b73d cf73 b5bd b874 95bc 0545 ad3d
000002e0: 1a0e 7f3b 1c14 543d e6ed 863b 2bbc 833d
000002f0: ed96 9a3d 5626 ef3d 8374 b23d a97a bebd
00000300: 355b 1cbe 6b6d 03bb 713a 943c d4f1 3d3d
00000310: 9b65 4ebd 0b9c 35bb c7d5 febc 975e 43bc
00000320: 0fb1 39bd 52d9 47bc 3303 ae3d 8be5 cf3d
00000330: 3fe5 76bd c3a0 6b3d 921d c5bb 9a6e f0bc
00000340: 667d 863c b887 7c3d b447 333d 3537 d8bd
00000350: 12fe 3ebd 43a1 323d 5995 833c b2c9 f9bd
00000360: 02d0 d7bb 6fdd bcbd 290b bf3c 9c54 85bd
00000370: eabb eebc 0996 643d dce8 bc3d 6eec 8c3d
00000380: 3e8c 90bd 62e2 883b bd25 debc eb8e ed3c
00000390: c3d6 243e b4db 4c3e 1c14 a33d 2697 613d
000003a0: f7e0 40bd 2369 aa3d 0763 083e 809b 9abd
000003b0: 7fbe 1fbe eaee 74bd 8560 c93d b2a4 26bd
000003c0: 227b 063e 353a 4cbd f173 293e fe77 5dbc
000003d0: 58ab 633b 10f5 483c 5f19 2c3d c065 81bb
000003e0: 09ec 89bc 00ad 12be be77 d93d d4a8 4fbb
000003f0: 9842 e03d 68f0 81bd 5c7a 78bd cd1c 853c
-0.04318462 0.06754195 -0.07939892 -0.035985615 -0.097791724 -0.05267791 0.037987076 -0.07707072
-0.1274781 -0.090025604 -0.13514318 -0.05588044 -0.13815847 0.07936801 -0.004057598 -0.044736095
0.12097741 -0.15396516 -0.06611717 0.058639027 0.02102402 0.018281372 0.02294006 -0.07212459
0.06625503 0.1302974 -0.021916976 -0.0037512009 0.04402385 0.0035986323 -0.051459584 -0.032265317
0.030687267 -0.029397845 -0.0083089685 -0.028426098 -0.002837592 -0.09674842 0.023733743 0.0729265
0.07989001 0.13646378 -0.08296242 0.006039141 -0.17635353 0.098374166 -0.057291273 -0.11245983
0.062911436 0.06389643 -0.013886903 -0.0021655366 0.0031076213 -0.034169905 -0.20102422 -0.088610776
-0.07313556 0.15129769 -0.038942233 -0.07543466 -0.11364275 0.019841243 -0.06419542 -0.105955005
0.052904636 0.04469363 -0.064486675 -0.04994788 -0.070410274 -0.048788108 -0.040669404 -0.03268813
-0.14312719 -0.051318042 0.051650643 -0.00797194 0.17098103 0.072592065 -0.026553145 -0.011137599
-0.03908585 -0.0009127793 0.02619142 0.02243899 0.16201805 -0.043934926 0.0403938 0.05664645
-0.09618202 -0.064551115 0.034135416 -0.0015761701 -0.09189608 -0.0067034694 -0.032448005 0.036173925
0.063296825 -0.024806036 0.0051526143 0.028763248 -0.04390705 0.0748034 0.063595004 0.1339186
-0.042683322 0.10277959 -0.039674588 -0.15059559 -0.03084508 0.114618525 -0.0875943 0.0791415
-0.124102496 0.0012887083 0.014937475 -0.018734584 0.059613585 0.023167431 -0.041256703 -0.04514067
0.036795367 0.06946768 -0.028629646 -0.15314338 -0.07667421 -0.009005073 -0.12725842 0.12659647
-0.06555492 -0.025306202 0.01668813 -0.1993974 -0.09627546 0.06039928 0.0005709498 0.051384013
0.10208358 0.079961695 -0.016381074 -0.016279852 -0.009708183 0.05433377 -0.00025030095 -0.019619823
-0.03659272 0.06463859 0.01934723 -0.0023413664 -0.054961547 0.053412788 0.0004743798 -0.026166018
0.010291799 -0.114269905 -0.073190875 0.020647788 -0.08393023 0.13315172 -0.018712666 0.0153244715
-0.059753433 -0.0018606482 -0.023313245 -0.047299966 0.049983274 0.11392383 -0.04296182 0.08392674
-0.11926843 -0.03866798 0.09238315 -0.06492005 0.11855567 -0.0021121805 0.0014486422 -0.02920131
0.051830456 -0.075634465 -0.0428129 0.060886987 0.08975768 -0.08859979 -0.018244132 0.0846043
0.0038918317 0.05177699 0.004117715 0.064323746 0.07548318 0.11677234 0.08713629 -0.09300739
-0.15269168 -0.0020054232 0.018094273 0.046373203 -0.050389867 -0.0027711417 -0.031107796 -0.011924407
-0.04533487 -0.012197809 0.08496704 0.10151204 -0.06027722 0.05752636 -0.006015488 -0.029349614
0.016417217 0.06165287 0.043769553 -0.10557405 -0.04662902 0.043610822 0.016062425 -0.121966735
-0.0065860758 -0.092219226 0.023320751 -0.065102786 -0.029142339 0.055807147 0.09224102 0.06881033
-0.07057999 0.0041773776 -0.027117604 0.028998813 0.1609755 0.20005685 0.0796282 0.055075787
-0.047089543 0.083208345 0.13319026 -0.075491905 -0.15600012 -0.05979816 0.09832863 -0.04068441
0.13132909 -0.049860198 0.16548134 -0.013517378 0.003473958 0.012265459 0.042016383 -0.003948897
-0.016836183 -0.14323807 0.10618542 -0.0031686323 0.10950202 -0.06344682 -0.060663566 0.016249085
