results/PushBlockCollab_POCA_RND/PushBlockCollab/PushBlockCollab-14499982.onnx (onnx, 643240 bytes, 12 tensors)

network_body.observation_encoder.processors.0.conv_layers.0.weight f4 [16, 6, 8, 8]
000000 39 91 34 bd 67 7d 3a bd dc 66 89 3d c2 08 fa bd
       -0.044083808 -0.04552975 0.06709072 -0.12208702
000010 5c 86 c6 bc 07 52 db bd 03 66 a6 bd 6c 37 4a bd
       -0.02423399 -0.10709005 -0.08124926 -0.04936926
000020 b3 1e 7e 3d 27 70 87 3b ac 61 da bc 0a d4 c4 bd
       0.062040996 0.0041332426 -0.026657902 -0.09610756
000030 dd d3 83 bd ae ce d7 bc 6d c3 40 bb 2e cf 16 bb
       -0.06436894 -0.02634367 -0.0029413358 -0.0023011672
000040 02 eb 84 3c f8 41 c1 3c 8f 51 c7 bd 92 5f 36 be
       0.016225342 0.023591027 -0.09732353 -0.17809895
000050 92 19 f4 bb d9 ef 54 bd af 26 29 3d f7 df b6 bb
       -0.0074493373 -0.05198655 0.041296657 -0.005580898
000060 d8 5f a9 3d 72 6f 8c bd 6b 0c d7 bb 50 c0 61 3c
       0.08270234 -0.06857194 -0.0065627596 0.013778761
000070 5b d3 e8 3c d6 05 7f 3b 89 08 3d 3d c9 83 23 bd
       0.028421095 0.003891339 0.046150718 -0.039920602
000080 28 ec 08 3d b2 3d 85 3d b4 56 d9 3c ce 7d ba 3c
       0.03342834 0.06505908 0.026530601 0.022765066
000090 41 83 bf 3d 53 0d 45 bd 0e 4e 49 3d a4 8c 7f bd
       0.093512066 -0.04810841 0.049146704 -0.062389985
0000a0 ee 4a 13 bd 03 4b b8 bd 42 25 61 bc fb 11 9d bb
       -0.03596013 -0.08998682 -0.013741793 -0.004793403
0000b0 de 19 fd bd d1 a4 9f bd 31 e1 47 3d 76 c1 a4 3d
       -0.123584494 -0.07795108 0.048798744 0.08044712
0000c0 59 e8 e7 3c 9a 65 2f 3d 7b 22 4d bc df 28 99 3d
       0.028309034 0.042821504 -0.012520428 0.07478499
0000d0 7d a6 94 bd 8d 9d 22 bd 09 e1 54 bc 1e 48 26 bc
       -0.072583176 -0.039701033 -0.012993106 -0.01014903
0000e0 b2 90 9e bc 6a 8f 12 3c b6 c7 d1 bc a8 79 a0 bc
       -0.019356105 0.008945325 -0.025607925 -0.01958926
0000f0 ce 96 01 be 38 02 20 be b6 a7 68 bc c9 c7 8f bd
       -0.12655184 -0.15625846 -0.014200142 -0.07020528
000100 f6 c8 34 bd 61 6c ed 3d 68 8e fa 3b cf b1 dc 3d
       -0.044136964 0.11592937 0.0076463707 0.10776102
000110 a6 d1 ce bc cd c6 ab 3c 9f f0 95 3d f2 a8 e7 3d
       -0.025246453 0.020968819 0.073212855 0.11311521
000120 02 a4 9e bb 5a 0e 48 3d 76 70 78 3d ef 47 11 3e
       -0.0048413286 0.04884181 0.060654126 0.14187597
000130 df f5 a2 bc f8 11 29 3e cb 4e 40 3c 64 15 de 3d
       -0.019892631 0.16510761 0.011737536 0.10843924
000140 44 08 d1 bd 70 40 d9 bc e8 dc b2 3d 77 81 b1 3d
       -0.10206655 -0.026519984 0.08733541 0.086672716
000150 b3 f1 da 3d 16 73 f0 3d 6e 22 43 3e 7f 37 80 3d
       0.10690632 0.11740701 0.19056103 0.06260585
000160 80 e9 d2 bd 6b 82 67 3b 4c ae 51 3e 6c dd a0 3d
       -0.10298443 0.0035325538 0.20476645 0.07854733
000170 e7 2f b9 3c 29 a3 64 3d 96 65 97 3d f9 92 2c be
       0.02260585 0.055819664 0.07392423 -0.1685294
000180 e5 63 3d 3c ec b7 03 3c 43 0e 8d 3d 5d 80 4d 3d
       0.011559461 0.008039456 0.06887486 0.050171245
000190 b3 08 2f bd fd e9 02 bd de ab 37 bc 38 3f 4c 3c
       -0.042732906 -0.03196143 -0.01121041 0.012466244
0001a0 78 40 8a 3d b1 36 bd ba ed fd 0f bd 59 8f 70 3c
       0.06750578 -0.0014435855 -0.035154272 0.014682614
0001b0 2c fe e2 bc 44 ef b3 3c 27 83 f6 3d 6c 96 06 3c
       -0.02770909 0.021964677 0.12036734 0.008214574
0001c0 97 64 5a bc 18 88 11 3e fc 05 93 3d c9 de 60 39
       -0.013329647 0.14212072 0.07178876 0.00021445299
0001d0 9f f3 47 3d 99 22 8d 3d 2b 02 36 3e 7f 04 f2 3d
       0.04881632 0.068913646 0.17774265 0.11817264
0001e0 c2 7e c9 bb 7f 5d 86 bc a1 cf 00 bd 57 ec 42 3d
       -0.006149144 -0.016402004 -0.03144801 0.047588672
0001f0 6d 86 1b 3e 34 17 60 3d bb dc 03 3e ff 31 40 3e
       0.15187998 0.05470963 0.1287717 0.18769072
000200 39 95 b4 3d 98 b8 93 3c 99 66 cb bc bc b0 7e bc
       0.088175245 0.018032357 -0.024829196 -0.015545066
000210 1a bf 02 3d f5 fe 5b 3b 47 ee 83 3d c8 f9 5d 3c
       0.03192053 0.0033568714 0.06441932 0.013548322
000220 c8 85 3c 3c 3e 63 68 bc 3b 8d 29 3d b4 36 d2 ba
       0.011506505 -0.014183817 0.041394453 -0.0016038031
000230 87 be b0 3d 2d 8f bc 3d 7a b6 75 bc 6a 0c 85 3b
       0.0863009 0.09206996 -0.014997119 0.0040603178
000240 02 ac 0d 3c 21 45 45 3d 39 e3 a7 3d 01 6f b3 3d
       0.008646967 0.04816163 0.08197636 0.08761407
000250 80 9b 04 3d 75 07 55 3d e5 7b 23 3d e9 21 bb 3c
       0.03237486 0.052009065 0.039913077 0.022843318
000260 7f c6 51 3d 59 0d cc 3c da 18 a9 3b 00 57 92 3d
       0.05121469 0.024908708 0.0051604332 0.071455
000270 b2 87 bd 3d df a8 f7 3c 94 71 4d bc 1e af 68 3c
       0.092543975 0.030231891 -0.012539286 0.014201907
000280 de 8a 68 bc 14 46 9d bc ef ba b8 3b 32 0c 98 3c
       -0.014193265 -0.019198455 0.0056375186 0.018560503
000290 ef ed 90 3d 20 bd 24 3d 7d d4 99 3c 4e 3d 82 bc
       0.07076632 0.040219426 0.01877808 -0.015898373
0002a0 0d 8b bb bc 39 85 9a bd 6a c7 18 3d 35 6d 9b bd
       -0.022893453 -0.075449415 0.03729955 -0.07589189
0002b0 82 8d 5e bc 57 8c 17 3d 1e 2e a9 bd fd db f4 3c
       -0.013583543 0.036999073 -0.08260749 0.029890055
0002c0 f0 21 fc bc 91 2f 0e be 21 f7 6c bd 8d bb 49 3c
       -0.030777901 -0.13885333 -0.057852868 0.012312782
0002d0 06 97 b0 bc 1a 3e 0e bd 23 fd 80 bd cb 8f 0f 3a
       -0.021556389 -0.034727193 -0.06298282 0.0005476444
0002e0 72 69 a1 bd 27 87 af bd 7a bf cb bb 34 97 9b bd
       -0.0788144 -0.085707 -0.006217894 -0.07597199
0002f0 d1 66 8b bd ac 6e dc 3c 46 88 57 bd 84 1e 8d 3d
       -0.0680672 0.026908241 -0.052620195 0.06890586
000300 b9 07 58 be 4e 51 a3 bd be d2 10 bd b8 0a ae bd
       -0.21096696 -0.07974492 -0.03535723 -0.08498138
000310 d8 78 9e be b5 ff 10 be 8e 68 2b 3c 7c ca 41 3d
       -0.3095157 -0.14160044 0.0104619395 0.047312245
000320 c2 26 29 3e 4a 72 9f 3d 38 10 31 3d 26 ab 9e 3c
       0.16518691 0.07785471 0.043228358 0.01936872
000330 40 34 b4 bd ef de ab bd a3 10 b8 bd 29 31 75 bd
       -0.087990284 -0.083921306 -0.08987548 -0.059861336
000340 f9 1b 5e 3e 4b b1 82 3e e4 94 25 3e 8f 73 bf 3d
       0.21690358 0.2552589 0.16170079 0.09348213
000350 16 ef ff 3d 37 9d c1 3d fc 46 88 bd e0 db 74 bd
       0.12496774 0.094538145 -0.06654164 -0.05978
000360 91 a6 bf 3d dc af 0b 3d 82 f8 6f 3c a5 dc 02 3e
       0.09357942 0.03410326 0.014646651 0.12779482
000370 1e d8 13 3e e1 58 cf 3d 5b 81 e2 bb 57 38 fa 3c
       0.14437911 0.10124374 -0.006912393 0.030544443
000380 72 53 1f 3d 4a c4 4e bc d8 f3 11 3e c3 c2 eb 3d
       0.03889794 -0.012620041 0.14253175 0.11511757
000390 ec d4 06 3e b8 ab 67 3d f0 5c 17 3e bd 58 1f 3d
       0.13167161 0.056560248 0.14781547 0.038902987
0003a0 92 02 6a 3e b6 4c 77 3e 7f 78 76 3e 4c 7c 76 3e
       0.22852543 0.24150357 0.24069403 0.24070853
0003b0 9c d1 27 3e fe bf 2a 3e 32 d8 1f 3d 30 79 95 3c
       0.16388553 0.16674802 0.03902454 0.018246263
0003c0 2d 9c 8c 3e c8 65 23 3e e6 94 0d 3e eb d4 3d 3e
       0.27462903 0.15956795 0.13826331 0.18538253
0003d0 83 9d a0 3d 53 2e 88 3d f2 7b 43 3d 82 c3 0b be
       0.07842543 0.06649461 0.047725625 -0.13648799
0003e0 47 db 11 3e fd d5 ed 3c 05 03 cf 3d 11 e7 1f 3e
       0.14243804 0.029032702 0.10107998 0.15615489
0003f0 d7 e9 8e 3d 0d 56 53 3d 64 37 07 3e 8b 00 3c be
       0.06978195 0.051595736 0.13204724 -0.18359582

network_body.observation_encoder.processors.0.conv_layers.0.bias f4 [16]
000000 ea 46 27 bd 64 e1 1b bc 65 56 9c bd d2 02 9c ba
       -0.040839113 -0.0095141865 -0.07633666 -0.0011902696
000010 4f df bb bc 13 da 41 bd 4b dc f2 bd d8 15 ca bd
       -0.02293363 -0.047327112 -0.11858424 -0.098674476
000020 3f a8 a9 bc ed 9e 69 bd 03 cc f6 bc 81 bf f5 bc
       -0.020710109 -0.05703633 -0.030126577 -0.029998543
000030 e1 e8 23 bd 3d 17 22 3c 9b 3e 4b 3c 1a 65 5e 3c
       -0.040017013 0.009893236 0.012405063 0.013573909

network_body.observation_encoder.processors.0.conv_layers.2.weight f4 [32, 16, 4, 4]
000000 b2 89 d3 bd 77 1c 2f be 34 a7 81 3c 65 2d 3e ba
       -0.10328998 -0.17100702 0.015826799 -0.0007254689
000010 34 32 2c bd 2a da 44 be 54 62 81 3d 05 e9 4c 3d
       -0.042040065 -0.19223848 0.06317583 0.050026912
000020 d0 ff 04 bd 32 5c 88 bd c5 49 28 3e b3 ad 1a bc
       -0.032470524 -0.0665821 0.16434391 -0.009440827
000030 de 59 7d bd a1 00 90 3d a3 9d 2b 3e fb 02 b1 3c
       -0.061853282 0.0703137 0.16759352 0.021607867
000040 52 d1 7e bd e4 c3 2e bd c6 2a 0a 3c 54 2a 51 be
       -0.062211342 -0.042667285 0.00843305 -0.20426303
000050 a8 d7 9a 3d 1f b0 e9 bc ef 5b 5a bd 8d a8 a6 3c
       0.075606644 -0.028526364 -0.05331033 0.020344043
000060 a7 76 19 3d ce d8 f8 bd dd 6d 81 bd c9 93 0e 3e
       0.03746667 -0.12150727 -0.06319783 0.13923563
000070 f2 13 a0 3d 2f c7 a0 bc a7 af e6 bd 57 c2 8e 3d
       0.07816304 -0.019626228 -0.11263972 0.06970661
000080 0c 5c 11 bd d7 56 09 3c db 64 bc 3d 3f 3f 43 3d
       -0.035488173 0.008382521 0.09198924 0.047667738
000090 f7 e8 a6 bd ee d1 c5 bd 18 4f d9 3d a8 05 3d 3d
       -0.08149903 -0.096591815 0.10610789 0.046147972
0000a0 3f 0b c0 3d bc 69 ce bc 2b 31 de 3d 12 ef 0d 3d
       0.09377145 -0.025196902 0.10849222 0.034651823
0000b0 c7 01 1f 3d 6c bc 70 3c 37 c8 61 3d a2 8d e9 3c
       0.038820054 0.014693361 0.05512258 0.028509919
0000c0 4e f3 f6 bd ac 35 86 3d ea a7 d4 3d 1e fd a5 bd
       -0.120581254 0.06553206 0.103835896 -0.08104919
0000d0 e2 85 47 3b 83 89 d3 3d 36 b4 0c 3e dc 3d 6b 3d
       0.003044479 0.10328963 0.1374062 0.05743204
0000e0 6f 92 ed bd bf 48 c1 3d 67 d3 0b 3e 8b f1 c6 bd
       -0.116001956 0.09437703 0.13654862 -0.097140394
0000f0 49 71 18 3e 10 bb b9 3d 59 97 a9 bc 1d 7c ac 3d
       0.14886965 0.090688825 -0.020702051 0.0842211
000100 43 b8 6a bd b5 2e dc 3d f5 db df 3d 15 0a 79 bc
       -0.057304632 0.10751096 0.10930625 -0.015200158
000110 e7 ab 62 bd 72 f9 bc 3c 6c ce d7 3c 58 dc c4 bc
       -0.05533972 0.023068164 0.026343547 -0.02403085
000120 76 38 3a 3d 66 25 f0 bd cd b5 ed 3c 68 26 a6 3d
       0.045464 -0.11725883 0.029017353 0.08112794
000130 ad b9 ba bd cd d5 55 bd 18 02 03 3d 28 04 ea 3d
       -0.09117446 -0.05220585 0.03198442 0.11426574
000140 56 34 22 bd c0 6d 11 bd 01 00 74 3d 29 ec 8f bd
       -0.039600693 -0.035505056 0.059570316 -0.07027466
000150 fd ab b9 bd f4 74 1c be 2c 2a c3 39 05 0e 3b b9
       -0.09066007 -0.15278989 0.0003722472 -0.00017838932
000160 1a d2 23 be 8c 99 f1 bd c0 a9 cc 3c 66 87 0f be
       -0.15998116 -0.11796865 0.024983287 -0.14016494
000170 c2 bb 96 3d 21 b2 d6 3c 1c ef 24 3d b8 97 66 bd
       0.07360031 0.026207985 0.040267095 -0.056297034
000180 b1 9d 9c 3c f8 a8 60 bd 3d c9 1a 3b 25 97 b1 3d
       0.019118162 -0.05484864 0.0023618483 0.08671407
000190 c2 29 57 3d fb 80 1f 3d 33 f5 93 bc 9b fd 2b bc
       0.052530058 0.038941365 -0.018061256 -0.010497476
0001a0 68 4e b2 3d c5 37 a1 bd e3 77 2b 3d 66 11 cb 3d
       0.08706361 -0.07871965 0.04186238 0.09915428
0001b0 46 e5 92 3d 4f 2d 18 3d 26 95 bd 3d 07 84 09 3d
       0.07172637 0.037152585 0.092569634 0.033573177
0001c0 b2 95 86 3d e2 2c ae 3c 73 e8 42 3c 78 0f a2 3d
       0.06571521 0.021261636 0.0118962405 0.07913107
0001d0 ac 36 e1 3b 6c 6e f7 3c 7c 9c ce 3d 9c 87 ae 3d
       0.0068729725 0.03020402 0.10088441 0.08521959
0001e0 e2 63 8d 3c e6 7f ae bd 68 01 c2 3c 3e 96 13 3e
       0.017259542 -0.085204884 0.023682311 0.14412782
0001f0 72 96 94 3a d4 d2 0a 3c 86 37 ae 3c 8e 89 9c bd
       0.001133634 0.008473117 0.02126671 -0.07643424
000200 0e cf 26 bd d5 9e 72 bd 1f 10 5d 3d 8a a3 6c bc
       -0.040724806 -0.059233505 0.053970452 -0.014443288
000210 61 7b 0f be 8a 74 5e be 26 34 6d bc 46 03 ee bd
       -0.14011909 -0.21724144 -0.014477765 -0.11621718
000220 36 f0 c6 3b d6 40 84 bc f1 aa 67 3d 51 4f 88 3d
       0.006071116 -0.016144197 0.056559507 0.066557534
000230 0e d3 34 3d 1e 36 8f bc 41 60 c5 3d a4 24 97 bd
       0.04414659 -0.01748186 0.096374996 -0.073800355
000240 0d 26 7e bd e3 70 bf 3c 45 93 02 3d ab 61 c0 bb
       -0.062048007 0.023369258 0.03187873 -0.005871018
000250 79 69 9a bc 73 4a bf 3d 4a 30 14 3e 21 16 92 3d
       -0.018849121 0.09340372 0.14471546 0.07133127
000260 4d 0e bb 3b d6 d2 44 bd 62 16 05 bd eb 6f 3c 3e
       0.005708492 -0.04805263 -0.03249205 0.18402068
000270 26 49 55 bc ed f0 74 3d 3a 80 88 3d c3 4a f7 bc
       -0.013017928 0.059800077 0.06665082 -0.030187016
000280 94 89 df 3b 21 33 a4 bd 0b 27 e5 bc 79 86 ae 3d
       0.0068218205 -0.080175646 -0.027972719 0.085217424
000290 98 f0 08 bd bc 64 9a bd 5a ac 13 3d cc 5c 38 3e
       -0.033432573 -0.07538745 0.03605304 0.18004149
0002a0 e3 b0 51 bd 3f 63 15 be f5 69 1f bd 7a 00 07 3e
       -0.051194083 -0.1458864 -0.038919408 0.13183776
0002b0 ef 36 aa bd 5f 20 93 3d 9f 83 74 39 48 e0 59 3d
       -0.08311259 0.07183909 0.00023318686 0.053192407
0002c0 bf b5 fa bd e7 27 1e be b4 90 22 3d 28 2c 57 bd
       -0.122416966 -0.15444909 0.03968878 -0.052532345
0002d0 49 4f a2 bd 61 9e 9e bd 02 29 db bd 5c c0 8b bd
       -0.07925279 -0.07745052 -0.10701181 -0.06823799
0002e0 bb 52 ed 3d fb 21 f9 bc 4a dd 2e be 3c 36 09 bd
       0.11588045 -0.030411711 -0.17076603 -0.033498988
0002f0 2e 6b 89 bc 47 2a a4 bd af 11 c0 3d ac 63 9c 3d
       -0.01677474 -0.08015876 0.09378373 0.076361984
000300 88 cf ce bd ee 9e 0c bd 7c 5b 5d bd 32 54 03 bd
       -0.10098177 -0.034331255 -0.054042324 -0.032062717
000310 a0 02 00 be 04 35 55 be 6e 81 19 3c df 50 91 3d
       -0.12501001 -0.20821005 0.009369237 0.07095503
000320 57 2c 0b bd f2 d5 3f bd 36 fe 0d 3d e2 09 51 3d
       -0.033977833 -0.046834894 0.034666263 0.051034816
000330 9b 62 a0 3d e3 20 8e bc 75 99 24 3d e8 3b 36 bd
       0.078313075 -0.017349666 0.04018541 -0.044490725
000340 33 43 4f be 02 c9 93 3d ec 00 0e 3c ea 78 50 bc
       -0.20240478 0.072160736 0.008667212 -0.012724141
000350 6f 0e 15 be 1d e2 c3 3d e4 9a d1 3b 21 de 39 bc
       -0.14556287 0.09564612 0.006396638 -0.011344464
000360 16 4b 44 bd 21 b5 df 3d 7f 52 09 3b 4a 57 55 3c
       -0.04792317 0.109232195 0.0020953713 0.0130213
000370 91 7a 2d bd 54 d2 92 3b 16 be 3b 3d 43 b0 b5 bc
       -0.042353217 0.0044806395 0.045835577 -0.022178775
000380 51 0c a8 bc f1 d1 6d bd 99 f2 3c 3d 11 88 a6 3d
       -0.020513685 -0.058061544 0.046129797 0.08131421
000390 f0 c6 66 bc 89 58 d3 bb 01 c9 2f 3e 80 1f 67 3d
       -0.014085516 -0.006449763 0.1716652 0.056426525
0003a0 34 83 46 3d 20 20 13 3d 66 d4 14 3d cd 4f 48 3d
       0.04846497 0.03591931 0.03633537 0.04890423
0003b0 9b 61 c7 3c 3e a5 07 3e 44 ff 01 3d 17 27 d2 3c
       0.024338534 0.13246629 0.03173758 0.025653405
0003c0 26 71 f3 bd 4d bc 74 bc b5 e2 d3 bd 11 3e db bd
       -0.11886816 -0.0149374725 -0.10345975 -0.107051976
0003d0 05 77 e0 bd bf 87 60 be d3 06 7c 3c 0d 45 50 3d
       -0.10960201 -0.21926783 0.015382486 0.050847102
0003e0 57 31 92 3c fd 10 0c bc f5 f7 19 3d 49 f7 48 bd
       0.017845793 -0.008548972 0.037589986 -0.049063955
0003f0 50 c2 2b 3d 8e c9 c5 bd 46 4c c1 3b 82 80 39 bd
       0.041933358 -0.09657584 0.005898985 -0.04528857

network_body.observation_encoder.processors.0.conv_layers.2.bias f4 [32]
000000 5b 31 8a bd 91 cb d9 bd d0 91 3f bd 4f f0 05 bd
       -0.06747695 -0.1063453 -0.046769917 -0.03269988
000010 50 ed 51 bd e5 34 cb ba ed a3 82 3d 37 92 60 3c
       -0.05125171 -0.0015503435 0.063789226 0.013706735
000020 54 b4 87 3d 7a 18 12 3d 21 b2 fc bc 8d 7d 39 bd
       0.06626192 0.035667874 -0.030846657 -0.04528575
000030 05 50 04 3d ba d1 06 bd d6 da d8 3c 42 3b 95 3d
       0.032302875 -0.032914855 0.026471537 0.07286693
000040 95 99 2d bd cd 34 7d 3d eb 60 38 bc 41 d0 9a 3c
       -0.042382795 0.061817933 -0.011253576 0.018898131
000050 87 fb f3 3c 60 ca c9 bc a5 dd 82 3c a0 19 52 bc
       0.029783024 -0.024632633 0.015974829 -0.012823492
000060 65 b0 6c 3d f3 ca 35 bd 40 26 3b bd b2 1c 8a bd
       0.05778541 -0.044383 -0.045690775 -0.067437544
000070 e0 62 f1 3c b7 51 03 bb e0 62 7d 3d 74 d9 23 bd
       0.029466093 -0.002003772 0.061861873 -0.0400023

network_body.observation_encoder.processors.0.dense.0.weight f4 [256, 32]
000000 41 10 6c 3e f2 75 a7 3e 8d 3d c6 3d 8f f1 71 3e
       0.23053075 0.32707173 0.09679709 0.23627304
000010 dc 65 3e be 94 0d aa be 8c a5 c6 3e 4b 02 e2 be
       -0.18593544 -0.33213484 0.38798177 -0.44142374
000020 c5 24 45 3e 36 4e b8 3e fc d5 d3 3e 30 4f 7f 3e
       0.19252308 0.3599717 0.41374195 0.24932551
000030 b0 cd ee be 84 46 92 3c 47 90 f6 3c 41 4c a0 3e
       -0.46641302 0.01785589 0.030098094 0.31308177
000040 db 3a 17 3c db 29 b3 bd f7 1b 1e 3e 7f 8d a9 be
       0.009230341 -0.08748218 0.15440355 -0.33115765
000050 da c9 aa be 5d b7 ab be c7 fc 4b be 17 94 81 bd
       -0.33357126 -0.33538333 -0.19920646 -0.06327074
000060 39 f7 e1 3e c8 88 d8 bd f9 1d c1 be 66 9c 33 3e
       0.44133928 -0.10572964 -0.3771818 0.1754013
000070 06 4b 86 3e 62 c3 9c 3d bf e3 8b be 79 3c 90 bd
       0.26229113 0.07654454 -0.27322194 -0.07042784
000080 e8 c7 02 be a6 19 6c 3e 25 5c 53 be 5c eb f4 bd
       -0.1277157 0.23056659 -0.20640619 -0.11958954
000090 44 39 39 bf 41 a7 e5 3d 28 4d 4e 3e a5 e8 2e bc
       -0.72353005 0.11213542 0.2014662 -0.010675584
0000a0 95 eb fd bd b1 7f 2a 3f af 61 0e be 81 12 3f be
       -0.12398449 0.6660109 -0.13904451 -0.18659402
0000b0 dc 64 eb 3e 9c 56 05 be 5e ff b8 3e f2 2e 17 3e
       0.45975387 -0.1302132 0.3613233 0.14764002
0000c0 b8 48 80 3e 26 ad ca 3e 03 a3 d9 be 6d 04 c2 be
       0.2505548 0.39585227 -0.4250718 -0.37894002
0000d0 22 50 ab 3d b8 b4 b7 3e 6d 05 b0 3e 00 d8 0a be
       0.083648935 0.35880065 0.3437914 -0.1355896
0000e0 d1 b0 15 be 6b 49 84 3d 36 10 e7 3e fe a5 4d 3e
       -0.14618231 0.06459316 0.45129555 0.20082852
0000f0 eb 51 5a be 97 4a 07 3e 9e bc 2a 3d 34 48 3b bd
       -0.21320312 0.13212048 0.041683786 -0.045723155
000100 e5 4b 4c 3d c6 25 bd 3e 19 bc d5 3e fa bf 00 3e
       0.049877066 0.3694288 0.4174507 0.12573233
000110 53 fc 93 3d d2 ce 4e bf 85 3a 6d 3d 8b 41 35 3f
       0.072258614 -0.8078433 0.057917137 0.70803136
000120 e2 49 22 3f 7b 07 82 bb 86 64 c7 3d 13 ef f4 be
       0.63393986 -0.003968177 0.0973597 -0.4783865
000130 0f 77 27 be 68 09 1a 3e fd 37 5e 3e cc a6 ff bd
       -0.16354011 0.1504265 0.21701045 -0.12482986
000140 81 de ea 3b d2 64 00 3e 90 68 83 3e 12 c4 ed 3e
       0.007167638 0.1253846 0.25665712 0.46438652
000150 0e d8 88 be 96 5b 93 be e0 e3 32 3e bc 16 7f bb
       -0.26727337 -0.28780812 0.1746974 -0.0038923463
000160 70 b3 27 be e0 60 95 3c 3c 2a 7a bc db 07 43 3b
       -0.16377044 0.01823467 -0.0152688585 0.002975932
000170 fd 96 82 bc e4 d2 c6 3c 52 37 c0 bc e5 00 23 bd
       -0.015941137 0.024270482 -0.023463879 -0.039795775
000180 d8 0c bc 3e 15 99 58 bd 09 60 03 be c9 42 8f be
       0.3672855 -0.052880365 -0.12829603 -0.2798064
000190 4f 63 e2 be 45 55 d7 3d e5 88 ba 3c 74 39 9c 3e
       -0.4421639 0.10514311 0.022770355 0.30512583
0001a0 12 15 09 be 44 50 8d 3e 58 c0 b8 be 8c 72 cd bc
       -0.13386944 0.276003 -0.36084247 -0.025079034
0001b0 4c d7 42 be 55 80 de 3d 9c e3 ef bc 27 97 48 bd
       -0.19027442 0.10864321 -0.029283337 -0.048972275
0001c0 92 3d b1 be cf 71 ab 3e e7 4f 44 be 67 14 78 3e
       -0.34617287 0.33485267 -0.19171105 0.24226533
0001d0 f8 91 ec bd 57 61 f5 bc 20 f3 e8 be 63 48 80 be
       -0.11551279 -0.029953642 -0.4549799 -0.25055227
0001e0 bc ce 3e 3d 86 af f9 be 34 b0 19 bf 78 90 2e 3f
       0.046583876 -0.48766726 -0.6003449 0.6818919
0001f0 e9 b7 b6 3d 54 dd b8 3e 73 e9 9e 3e c0 e3 1f 3e
       0.08921797 0.3610636 0.31037483 0.15614223
000200 2c 9d 5b be 85 6d 2a 3f fb 05 cb 3e 46 6a e7 3e
       -0.21446675 0.66573364 0.39653 0.45198268
000210 5c a8 0d bf aa 92 50 bd 51 e1 00 bf d3 1a e2 be
       -0.5533502 -0.05092112 -0.50343806 -0.4416109
000220 8e 90 08 3e d4 8c 10 bd 20 e4 11 3d 4a d3 1b 3e
       0.13336393 -0.035290554 0.035617948 0.15217319
000230 1a 89 d2 bc 09 49 c2 3e de 3f a0 3d d0 b8 c7 3b
       -0.02570014 0.37946346 0.07824682 0.0060950294
000240 17 35 37 3e 35 18 e0 3d 0b 58 f3 3d 75 ce ae 3e
       0.17891346 0.10942117 0.11882027 0.3414189
000250 11 2e 65 be a0 0d 73 3e 0e d4 3d be 4a dd 26 3e
       -0.22380854 0.23735666 -0.18537924 0.16295353
000260 47 d7 5e be 19 85 19 3b f8 01 d0 be 12 8d 3b 3f
       -0.2176181 0.002342528 -0.40626502 0.7326213
000270 79 26 01 3e 41 52 4d 3e 7e 1a b0 be 6d 5b a9 3d
       0.12612332 0.20050909 -0.34395212 0.08269391
000280 b9 2e b9 3d f9 e3 9e bc 87 f5 06 3d f3 4c eb 3d
       0.09042115 -0.019395815 0.032948997 0.11489286
000290 67 41 34 3d d0 70 c4 3e 6b 8e 8f 3e 8c ec fb bd
       0.044007685 0.3836732 0.28038344 -0.12300977
0002a0 4f bb c0 3e 73 49 84 3b df 9c dc bc 2c c2 0d 3e
       0.37642905 0.004037076 -0.02693027 0.13843602
0002b0 ec ef 85 3d 26 f1 7c 3e 90 58 d1 be e4 30 85 bd
       0.06539902 0.24701366 -0.4088788 -0.06503466
0002c0 1b 22 86 be 04 17 16 3e 8b b5 b5 3e e8 21 fa 3e
       -0.26197895 0.14657217 0.3549007 0.48853993
0002d0 95 0f 7e 3d a5 38 fc bd af 1d cd be 91 d0 8f be
       0.06202658 -0.123154916 -0.4006171 -0.2808881
0002e0 8a f9 74 3e 32 e2 1e 3e c4 d0 b7 be 9e 3e 68 be
       0.23923317 0.15515974 -0.35901463 -0.22680137
0002f0 ad 4a f6 bd 8e 82 10 3e 17 e3 a5 3b 5d 46 74 3d
       -0.12025962 0.14112303 0.0050624716 0.059637416
000300 51 b3 2e 3e fa 08 58 bd d8 0b 69 3d 9e 9e 3b be
       0.17060591 -0.052742936 0.05689606 -0.18322226
000310 5c 62 dd 3d 17 4a 82 be 73 1d 35 be f5 d7 ed 3e
       0.10809776 -0.2544715 -0.17687015 0.46453825
000320 3e ea a2 3e 65 3c 05 3e 03 9b 69 3e 6d 3f 8f be
       0.31819338 0.1301132 0.22813039 -0.27978078
000330 90 74 2a 3e a8 96 39 be c1 36 93 be bd 01 70 3e
       0.16646028 -0.18123877 -0.2875271 0.23438163
000340 fa 84 de 3c 46 39 13 bd d5 df b0 3d 22 8f 6b 3e
       0.027163018 -0.035943292 0.086364426 0.2300382
000350 aa 8f 19 3d 93 98 1f 3e 1b f5 38 3c 68 5c 5e be
       0.037490524 0.15585546 0.011288906 -0.21714938
000360 4c 5e 3f 3e fb ae f5 bc eb 7e a6 3e 5d c2 ab be
       0.18688315 -0.029990664 0.32518706 -0.33546725
000370 57 9b 02 3f a6 41 dc 3d 3a ea a7 3e f8 6e 68 bd
       0.5101828 0.10754709 0.32795888 -0.056746453
000380 35 48 10 be 5c 30 b3 be 8d 40 46 bb a1 d1 b1 3d
       -0.14090045 -0.34997833 -0.0030250878 0.08682562
000390 fc 8e 26 3e 48 6b 1d 3e 54 9e a6 be 9d d7 ba 3c
       0.16265482 0.15372956 -0.3254267 0.02280789
0003a0 3a 4e 97 be c5 60 3a be c9 19 41 3e 8a 1b 0c be
       -0.2955187 -0.18200977 0.18857493 -0.1368238
0003b0 72 cd 3b be ac aa c0 3d 7b cd 9f 3d 40 73 fc 3c
       -0.1834009 0.09407553 0.07802864 0.030816674
0003c0 68 f5 13 3e aa a6 e9 bc 38 b7 c8 3e e2 7a 38 3e
       0.14449084 -0.028521854 0.39202285 0.18015626
0003d0 fa b0 b5 bd b5 d9 0c 3f 3f 78 2d 3d e7 43 67 3e
       -0.08871646 0.55019695 0.042351004 0.22584496
0003e0 ea 0c d3 bd bd 02 ef bd f1 78 f5 be 55 be 9f 3e
       -0.103051975 -0.11670444 -0.47943833 0.311999
0003f0 d9 8e 82 3e c3 f9 2b be 7f b8 a7 be de 49 65 3d
       0.2549961 -0.16794495 -0.32757947 0.05597865

network_body.observation_encoder.processors.0.dense.0.bias f4 [256]
000000 cb 2d ab 3b f4 18 b6 3c 52 a4 96 bd ee cc bc 3d
       0.005223965 0.022228695 -0.0735556 0.09218775
000010 7c 42 1f bd 98 58 52 3d 6e 55 8f 3d 47 26 18 3d
       -0.038881764 0.05135402 0.06998716 0.03714588
000020 db e4 80 bd d7 e1 dc 3c f3 6a 58 bb c6 aa c2 3d
       -0.06293651 0.026963158 -0.003302273 0.09505229
000030 a1 69 76 3d cb df b9 3c df d6 ea bc 20 8b 35 3d
       0.06015933 0.02268972 -0.028666912 0.044322133
000040 d0 88 19 bd 82 b1 b5 3d 00 02 65 bc 31 74 20 3d
       -0.03748399 0.088717476 -0.013977528 0.03917331
000050 c6 81 26 bd e8 3f 71 3d 23 2a 07 bb 82 c5 7f bc
       -0.040651105 0.058898836 -0.002062448 -0.015611054
000060 28 b1 7b bc bf ec 9a 3d e9 2a a2 3d 65 1f ab 3d
       -0.015362062 0.07564687 0.07918341 0.083555974
000070 0e 02 54 bd 3f ca 77 3c cf 1b bc bc 82 a3 4a 3d
       -0.051759772 0.015123903 -0.022962479 0.04947234
000080 f8 e4 c6 bd c3 82 9d 3d 4b 8a 2c bc 80 9d 83 3d
       -0.09711641 0.076909564 -0.0105310185 0.06426525
000090 40 2b 6a bd fd ee d4 3c ee c1 8f 3d 1a 56 0c 3e
       -0.057170153 0.025992865 0.07019411 0.1370472
0000a0 65 77 03 bd a7 42 5c bc e6 c5 f1 3c 9f 5c 2c bd
       -0.032096285 -0.0134436255 0.02951331 -0.042080518
0000b0 90 c2 7c 3c d1 72 74 bd e2 1e 8a 3c 87 14 a3 3d
       0.015427247 -0.05967981 0.01686043 0.079629
0000c0 e7 14 7e bb 8b 2d 96 bc 57 36 91 3d 3c 69 ab 3d
       -0.0038769783 -0.018332263 0.07090443 0.08369681
0000d0 45 89 5f 3d 2e dd a6 3c b0 61 36 bc 4c 48 47 3d
       0.05457427 0.020369139 -0.011131689 0.048652932
0000e0 b1 b6 31 3c 73 bd 82 3c b1 fe 39 3d a9 b9 9a 3d
       0.01084678 0.015959477 0.04540891 0.07554943
0000f0 91 e3 34 3c b6 38 99 3d b5 ea bf 3c da 5d 64 bd
       0.011040584 0.0748152 0.023427347 -0.055753566
000100 89 e6 18 bc a1 2c ae 3c 2e 8f 42 3c 4d 73 f8 3c
       -0.009332308 0.021261515 0.011874957 0.030328417
000110 d4 93 e9 3d a4 25 fc ba 6a b5 2c bd 5e 7d 18 3d
       0.11405149 -0.0019237292 -0.042165197 0.037228934
000120 53 8e c6 3c cf 4c 84 3d 84 5e aa bb da 8b 8e bc
       0.024237787 0.064599626 -0.0051992554 -0.01740067
000130 ae 4a 12 bc a9 9a 8f bd cd 65 1e 3c 36 6b a5 3d
       -0.008928938 -0.07011921 0.009667826 0.080770895
000140 89 2e 82 bc 53 ca 36 3d e0 6c 5e bd e1 16 1d 3d
       -0.01589133 0.044626545 -0.05430305 0.038351897
000150 a5 5c 8e bd 84 87 f6 38 32 c0 57 3d 04 6a b4 3d
       -0.06951264 0.00011755436 0.052673526 0.088092834
000160 e0 7a f0 3d d4 99 4f 3d 01 83 c6 3b e4 85 66 bd
       0.117421865 0.05068381 0.0060580974 -0.05628003
000170 16 49 fd 3c 43 ac 92 bd 3e 23 41 3c 5c 3b b2 bc
       0.03091864 -0.071617626 0.011788188 -0.02175682
000180 ed 8a 29 3d bc a3 69 bd 7c 1f 54 3d dc 91 1c 3d
       0.041392256 -0.057040915 0.05178784 0.03822504
000190 80 b1 e0 3d 15 f8 cf 3d e1 58 24 bc 13 91 4b 3d
       0.109713554 0.1015474 -0.010030956 0.0496989
0001a0 22 84 8b 3d 10 0a 60 bd 2a 2b 12 3d 8a f0 f2 3b
       0.06812312 -0.054697096 0.035685696 0.0074139284
0001b0 c7 43 88 3d 86 54 cb bc cf 5f 1a 3d 39 6c 9e bd
       0.066535525 -0.024820577 0.037689026 -0.077354856
0001c0 8c a1 1d 3d 20 65 fd bd 10 68 86 3c 25 22 57 bd
       0.03848414 -0.12372804 0.016407043 -0.052522797
0001d0 47 80 09 bd 3f 9c ca 3b 6e c1 e4 bc ae e3 23 bc
       -0.0335696 0.0061831768 -0.027924266 -0.010003014
0001e0 fc f9 18 be c3 29 fb bb 36 f1 fd 3b 0c b9 c4 3d
       -0.14939111 -0.0076648905 0.007749702 0.096056074
0001f0 f8 e1 ce bb 66 3d e1 3b 82 06 f6 bb 51 5d 3a 3c
       -0.0063135587 0.0068737743 -0.0075081 0.011374787
000200 08 ce a0 bd bc 2f 97 3d 9b 28 12 3d 4e 5d d0 3d
       -0.07851797 0.073821515 0.035683256 0.101740465
000210 5f c7 c7 3d 84 39 e9 3d d8 45 b1 3d b5 4b b5 3b
       0.09754824 0.11387923 0.086559 0.0055327066
000220 fb 78 12 3d f4 fd a3 bc fc e2 c9 3c ff 71 25 3c
       0.035759907 -0.020018555 0.024644367 0.01009798
000230 27 aa 09 3d d0 24 63 3d 0e cc 33 3d 75 3c f7 3c
       0.033609536 0.05545503 0.043895774 0.030180195
000240 89 d4 39 bd b9 39 73 bd 16 05 08 3e aa 38 61 3d
       -0.045368705 -0.05938122 0.1328319 0.05498568
000250 a6 55 fd bc 18 ac 02 bd 75 1e bd bc 71 c7 8e bd
       -0.03092463 -0.031902403 -0.023085812 -0.06971634
000260 c8 c9 49 3d 39 7c 32 3d 5f 71 72 3d dd 75 a0 3d
       0.0492647 0.0435755 0.05919015 0.07834981
000270 6c f0 f7 3c 30 12 b6 bd a8 64 8f 3d 4a b4 66 3d
       0.03026601 -0.08890188 0.070016205 0.05632428
000280 46 e5 5c 3d 49 14 a1 3c 0e f9 75 3c 3a f4 b3 bd
       0.05392959 0.019662993 0.015012993 -0.08786817
000290 bf 12 65 bd eb f1 4a 3d 35 28 05 bd 03 7b cf 3c
       -0.05592608 0.049547117 -0.032509048 0.025327211
0002a0 4c 32 5a 3d 69 7c 16 3c 54 59 34 3b 31 78 38 bb
       0.053270623 0.009184935 0.0027519064 -0.0028147812
0002b0 d6 37 80 3b fb a6 a8 3d ff 84 e8 3d b9 9a 1c 3d
       0.003912906 0.08234974 0.11353492 0.038233493
0002c0 d6 7b c8 3c 2d 6d f3 3b 2c 96 b4 bb 3f d0 ad 3d
       0.024473112 0.0074287863 -0.005511066 0.084869854
0002d0 00 36 d7 bc bb e2 84 bd 6b ca fe 3d ce f4 98 bd
       -0.026270866 -0.06488558 0.12440952 -0.07468568
0002e0 c0 06 b5 bc 55 c3 aa bc 20 66 9c 3d 43 e0 c0 bc
       -0.022097945 -0.020845095 0.07636666 -0.023544436
0002f0 04 32 e0 bc e3 8e b6 3d ec 5c 86 3d f7 82 30 bd
       -0.0273676 0.08913972 0.06560692 -0.043093648
000300 e5 ec 14 3d 55 93 94 bb 6e a9 80 bd f4 84 1f 3d
       0.036358733 -0.004534165 -0.06282316 0.038945153
000310 fc 43 42 3d b7 3a b6 3d a4 fc 6c 3d b3 69 8e 3c
       0.047428116 0.08897918 0.057858124 0.017384386
000320 26 6d 5f bd d1 98 f2 3c d4 bc 1f 3d d3 04 cf ba
       -0.05454745 0.029613884 0.03899844 -0.0015794284
000330 75 4c a3 3d b5 1e 9d bc 37 0d 0c bd 96 40 2b 3d
       0.079735674 -0.019179681 -0.03419229 0.04180964
000340 b6 cb b5 3d 35 83 d8 3c bc 2e 4f 3d a3 d9 c7 3c
       0.088767454 0.026429752 0.05058168 0.02439577
000350 56 81 55 bc 3e 53 52 bc 90 2d 79 3d 69 c0 18 3e
       -0.013031324 -0.012837229 0.060834467 0.14917149
000360 3f 35 4d 3d 7e fa 5b 3d bd a8 36 3c 6d 58 16 bd
       0.050099608 0.053705685 0.011148629 -0.036705423
000370 e9 0d 03 bd ac 57 d7 3c d7 21 49 3d bc cf c3 3c
       -0.031995688 0.026286922 0.049104538 0.023902766
000380 92 49 ae 3d 59 2d 39 bd 88 9c 33 bd ce 27 e7 bc
       0.08510126 -0.045209263 -0.04385045 -0.028217223
000390 0c 13 aa bd 47 94 2a 3e ea c8 26 bc f8 b0 b4 bd
       -0.08304414 0.16658126 -0.010179738 -0.088228166
0003a0 e2 50 77 bc 95 b8 a5 3c 68 2a f1 bc 88 a1 90 3d
       -0.015094968 0.020229617 -0.029439166 0.0706206
0003b0 2e a4 82 3d 2c 7d 79 3d f8 98 81 3d 60 10 54 3d
       0.06378971 0.06091039 0.063280046 0.05177343
0003c0 58 f1 d8 3c f4 54 46 bd 19 ad f9 3d 00 3f 1f 3d
       0.02648227 -0.04842086 0.12191219 0.03887844
0003d0 76 e5 19 3d f0 1b 74 3c 2b 0c a8 3d 1b 1f a1 bd
       0.037572347 0.014899239 0.08205446 -0.07867261
0003e0 45 94 6a 3a bf 8e 48 bc da 69 f8 3c 89 30 da 3d
       0.00089484855 -0.012241065 0.030323911 0.106537886
0003f0 24 cc 4b 3c 9d fc 79 3d b3 9d de 3d 48 2a d7 3c
       0.012438808 0.061031926 0.108699225 0.026265278

network_body._body_endoder.seq_layers.0.weight f4 [256, 266]
000000 1c a6 4c 3c 1b 70 f3 3b 89 36 91 bc 74 ae bb bd
       0.012490775 0.0074291355 -0.0177262 -0.09164134
000010 31 01 cb 3b 60 85 5a be aa d7 6c bd c4 f7 d5 3c
       0.0061952104 -0.21339941 -0.05782286 0.02611912
000020 3b a3 b6 bd 24 0e cc 3d 01 65 c0 3c 0f da 45 bc
       -0.089178525 0.099636346 0.023485662 -0.012075915
000030 3e 52 36 be dc c5 0d 3e 6c 7d f0 bc a0 a2 f1 3c
       -0.1780481 0.13845009 -0.02935668 0.029496491
000040 d0 10 6f be 30 19 0b bd 97 d7 49 bd 9d a7 9e bd
       -0.23346257 -0.033959568 -0.049277868 -0.077468134
000050 5d 4d 62 bd 74 44 23 3d 19 97 03 bd 6d 50 1c bd
       -0.05524956 0.039860204 -0.03212652 -0.038162638
000060 ac 17 aa bc dd 97 4e 3d 5c c3 a4 3c 21 58 0c 3d
       -0.02076324 0.050437797 0.020112686 0.034263734
000070 51 fc 71 3b 22 1e b7 bd 31 95 70 bd a0 a3 ae 3d
       0.0036924074 -0.08941294 -0.05873603 0.08527303
000080 09 7e 85 bd fd 82 33 3e 8d a0 26 3d 5d f9 f1 3d
       -0.0651818 0.17530437 0.040680457 0.118151404
000090 da 19 06 3e 5e 53 0b 3e eb 14 bd bd ab 5b c7 3c
       0.13095799 0.13606021 -0.092325054 0.024335703
0000a0 9c 1a 1a bc fe df e3 3d fb 95 88 bd d1 20 ff bd
       -0.009405758 0.111267075 -0.066692315 -0.12457431
0000b0 13 84 76 bd 05 4c dc 3b 2f a2 5a 3c bd 1e 89 3d
       -0.06018455 0.0067229294 0.013344332 0.06695316
0000c0 65 51 df bc 6b cd e0 bc 85 72 d3 bd 2f d7 22 bd
       -0.027260492 -0.0274417 -0.10324577 -0.039755996
0000d0 51 ba af 3d 6e 0a 52 be 36 19 cc 3d b0 90 af bd
       0.08580459 -0.20511791 0.09965746 -0.08572519
0000e0 d4 e5 e0 3d 17 08 88 bd fd 67 82 3d 85 31 14 3d
       0.10981336 -0.06642168 0.063674904 0.036180038
0000f0 c8 84 b6 bd f9 47 c2 3d 39 12 6a 3b 54 54 fc 3c
       -0.08912045 0.09486384 0.0035716428 0.03080193
000100 17 fa 2d 3e 37 02 f5 3d e0 e7 c2 3d 4a cc 90 be
       0.16989933 0.11963313 0.09516883 -0.2828086
000110 80 4b 75 be de 56 bc 3d ec 91 cb 3d ea f0 46 be
       -0.23954582 0.09196256 0.09939942 -0.19427839
000120 7f 88 e8 bd d3 3c 59 3a 26 91 4f 3d ac 45 ac bd
       -0.113541596 0.00082869566 0.050675534 -0.08411726
000130 37 05 09 3e c9 84 97 3d 6a 75 8c bd 72 0d 02 be
       0.13380896 0.07398374 -0.068583325 -0.12700441
000140 87 94 37 3e ed 9b 68 bc ab 1a 39 3e db cf 7f ba
       0.17927752 -0.014197332 0.1807658 -0.0009758451
000150 cb 2a 77 bd db ff 89 3c 3a e1 43 3d 51 6d 4e 3b
       -0.060343545 0.016845634 0.047822215 0.0031498263
000160 11 f1 1f bd 71 75 c6 bd c7 d0 9c 3d a2 43 0e bd
       -0.03904826 -0.09690369 0.076570086 -0.03473247
000170 b9 cb 5d 3e ec b1 2a bc 68 8e 50 3d 46 44 20 3d
       0.21659745 -0.010418396 0.05091706 0.03912761
000180 ce 62 1a bd c8 59 97 bc 71 a8 b4 bc 41 36 b0 3c
       -0.037691884 -0.018475428 -0.022052975 0.021510245
000190 78 e0 03 3e 54 77 8b 3d e8 58 a3 3d b1 f1 63 be
       0.12878597 0.068098694 0.07975942 -0.22260167
0001a0 65 7a d2 3d b0 a6 c0 bd 9e 7c 3d 3e 7e 10 57 bd
       0.10277251 -0.09406793 0.18504569 -0.052505963
0001b0 f5 b4 76 bd 81 55 ba 3d df 13 d8 3d b1 f6 ab 3d
       -0.060231168 0.0909834 0.10550665 0.08396662
0001c0 b3 a7 9c 3d 5b 8d 35 bc 69 54 f1 3d 84 6c bc 3d
       0.076491736 -0.011081065 0.11783678 0.09200385
0001d0 0b 5d 2c 3d fd 1d 01 3b c3 09 91 bb 55 0a b8 bd
       0.04208092 0.0019701712 -0.0044262125 -0.08986346
0001e0 f2 c3 9d bd 2c 0f 6c bd 46 40 03 be 17 32 42 be
       -0.07703389 -0.057631657 -0.12817487 -0.1896442
0001f0 88 57 93 3c 48 16 aa 3d 84 65 77 3e 51 0d b7 bc
       0.017986074 0.08305031 0.24159819 -0.022345217
000200 12 f2 c7 3c 62 ca a8 be cd 0f 7d 3c 98 92 ef 3d
       0.02440742 -0.32966906 0.015445662 0.116978824
000210 a8 a4 17 39 74 d3 c6 bc 41 6e 37 3e e4 75 c9 bc
       0.00014461821 -0.02427075 0.17913152 -0.024592347
000220 0e 0d 39 bd 24 c0 c5 bd d2 f2 c7 bc d4 19 56 3e
       -0.045178466 -0.096557885 -0.024407778 0.2090829
000230 9a e3 d8 3d d4 4f ef bd 1b f5 94 be 6f 15 03 3e
       0.105902866 -0.11685148 -0.2909325 0.12801145
000240 0c cf 3a be ab a0 2b bd fa 27 35 3e 72 7b 67 be
       -0.18243045 -0.04190127 0.17691031 -0.22605684
000250 0f 09 96 3d 23 ce b4 bd 8d 7c 69 3d f0 be 89 bd
       0.073259465 -0.0882838 0.057003547 -0.067258716
000260 4f ce 7d bd 35 29 18 3d 0a 21 2b bd fa ad a7 bd
       -0.06196433 0.037148673 -0.041779555 -0.0818748
000270 8d 5d 81 3c 21 bc f0 bb 36 8b 77 bd 0c a7 18 be
       0.015791679 -0.0073466455 -0.060435496 -0.14907473
000280 99 38 0f bc 7f e7 1b bd c1 5d c5 bd b4 89 02 be
       -0.008741521 -0.03806257 -0.09637023 -0.12747842
000290 10 0a 26 bc 4d 25 83 3d 5f f7 98 3d 0c 3f eb bd
       -0.010134235 0.06403599 0.07469057 -0.114866346
0002a0 4a 0f 07 be 49 f2 f3 3d d8 f8 52 bd ba 5a 06 be
       -0.13189426 0.119114466 -0.051506847 -0.13120547
0002b0 db 77 3b be 9e 53 21 3d dc 74 95 bd 96 57 33 bd
       -0.1830744 0.039386384 -0.0729768 -0.0437847
0002c0 dc 5a bf bd c8 5d 21 bd ac b4 a6 bd cb 07 1d 3c
       -0.09343502 -0.039396077 -0.08139929 0.0095843775
0002d0 cf 89 f0 bd e3 fa 81 3c 92 12 12 3e bc 8a e8 3c
       -0.11745035 0.015866702 0.14264897 0.028386466
0002e0 b5 70 5c 3d 92 d4 5e 3d 63 87 84 3d 76 fc 21 3e
       0.053818423 0.05440194 0.064711355 0.15818962
0002f0 49 b7 78 be 3e 34 75 bd 3f 5e d1 3c 40 db e4 bd
       -0.24288668 -0.059864275 0.025557635 -0.11174631
000300 af 6b a0 bb 65 ae 7e bd 5a bf 69 3d 2d 50 05 bd
       -0.0048956494 -0.062178034 0.057067253 -0.032547165
000310 bb 07 54 be 4b a9 e5 3d 87 c9 41 3d 51 bb 4a bc
       -0.20706074 0.11213931 0.047311332 -0.012373761
000320 42 7a 7e 3c e5 35 93 bc a0 65 bf bc 76 9c 0e bd
       0.015532078 -0.017970035 -0.023363888 -0.03481718
000330 a6 75 42 bd e1 d8 12 bd 37 46 50 bb a4 66 83 be
       -0.04747548 -0.035851363 -0.0031780133 -0.25664246
000340 49 7d 86 be 6f 68 30 3d ac da 9e bd 6b cd 4e be
       -0.2626746 0.043068346 -0.07756552 -0.20195548
000350 9f 60 59 3d 79 cd 85 be 28 75 74 3d ba d8 43 3e
       0.05307066 -0.26133326 0.05968204 0.19125643
000360 71 19 1d be fa a8 3c 3d a3 ef c7 3d c8 2c 19 bd
       -0.15341736 0.046059586 0.09762504 -0.037396222
000370 13 27 01 bd ed a6 61 3d 35 e5 ef bc cf 0f da 3c
       -0.031531405 0.055090833 -0.0292841 0.026618866
000380 0a 53 99 bd 25 cd 0e bd cf 46 56 3d 0b b8 35 bd
       -0.074865416 -0.03486361 0.052313622 -0.04436497
000390 be 9d 65 bd 00 ba d9 3d 72 25 f7 3d f0 24 59 3c
       -0.056058638 0.1063118 0.12067689 0.0132534355
0003a0 e1 c1 9f bd 63 b2 79 3d 06 9e 98 bd 46 76 c8 3c
       -0.07800651 0.06096114 -0.074520156 0.02447046
0003b0 b8 42 52 3e 9e b6 38 3d 1b d7 5f bd 14 21 2b 3e
       0.20533264 0.045096032 -0.0546485 0.16711837
0003c0 d5 4a 03 be 68 7f 88 bd 43 4c f0 3c 75 35 e7 bd
       -0.12821515 -0.06664926 0.02933324 -0.11289493
0003d0 b7 5a 93 3d eb 78 e1 bd c0 7b 2f be 21 cc be bd
       0.07195037 -0.110093914 -0.1713705 -0.09316278
0003e0 06 5c 4e 3d e2 63 41 bc e8 80 aa 3d 23 33 d8 3c
       0.05038073 -0.011803599 0.08325368 0.026391571
0003f0 24 51 cc 3c 33 7f 8f bd 4b 61 54 be 59 0b 12 be
       0.024941035 -0.07006683 -0.2074024 -0.14262141

network_body._body_endoder.seq_layers.0.bias f4 [256]
000000 9c 3a 84 3c d2 35 03 3d 1f 08 04 bd f0 58 38 3d
       0.016141228 0.03203375 -0.032234307 0.045006692
000010 64 70 c9 3c d2 6a a5 3c 57 d8 9a 3c a0 a7 8c 3d
       0.024589725 0.020192537 0.018901987 0.068679094
000020 41 2e ac bb ac 9a 71 bd 14 f0 f8 bc b9 0c 9d 3d
       -0.0052545373 -0.058985397 -0.030387916 0.07668442
000030 80 ad c9 bb 25 01 8a bc 94 2e 99 3b 86 01 c4 3c
       -0.006154716 -0.016846249 0.004674742 0.023926508
000040 01 53 3f 3d 40 1e 85 3c a9 20 06 bd 52 33 c6 3c
       0.046710018 0.016249776 -0.03274599 0.024194393
000050 86 31 23 3c ca d3 21 3d 61 bd a4 b9 25 ef 9f 3c
       0.009960538 0.03950862 -0.00031421616 0.019523213
000060 a1 a1 17 bb 3b 31 dc 3c 00 2e 7c bd fb 90 08 3d
       -0.002313711 0.026878944 -0.061567307 0.03334139
000070 27 c7 49 bd 00 e1 60 3c 0c bc 6b 3d b7 29 7b bc
       -0.049262192 0.013725519 0.057552382 -0.01532977
000080 2f fe 73 bb 49 50 3b bc f6 54 ee 3c 7d c7 77 bc
       -0.0037230363 -0.011432716 0.029093247 -0.015123245
000090 3a a5 51 3b 65 f2 36 bd 45 fd 36 3d 40 f7 a2 3b
       0.0031989352 -0.04466476 0.04467513 0.004973322
0000a0 73 7c 3c 3d 99 30 b2 3c af fb 22 bb a3 44 b6 3c
       0.04601712 0.021751689 -0.0024869253 0.022249525
0000b0 80 1c 0b bc 0c f9 62 3c 8e 78 8d bd ca b2 80 3c
       -0.008490682 0.013853323 -0.069077596 0.015710253
0000c0 f7 44 13 bc 10 6a 28 3d db b8 e8 3d fa b7 4b bd
       -0.0089886105 0.041116774 0.113633834 -0.049736
0000d0 39 6a 03 bd b6 1e 5f 3c 82 6b d2 3c 56 b5 fc bc
       -0.032083724 0.013618162 0.02568603 -0.030848186
0000e0 79 12 b0 3c 31 50 81 ba 18 67 a9 3c 38 b3 0e 3d
       0.021493183 -0.0009865818 0.020679042 0.034838885
0000f0 71 05 cd bb 74 59 58 bc f9 da 95 3c 7d b8 e6 39
       -0.006256752 -0.013204921 0.01829289 0.00044006473
000100 10 ff be bb a2 90 8e bc a1 e3 8e 3c e1 3e b4 3c
       -0.0058287457 -0.01740295 0.017442526 0.02200264
000110 de cf 75 3d 67 b2 3b 3c 99 f1 0b 3c c6 b6 07 bc
       0.06001269 0.011456109 0.008541488 -0.008283323
000120 c7 3e 2f 3c 5e b2 de 3b b2 74 27 bc 2f b7 32 3d
       0.01069612 0.0067961654 -0.010220693 0.04363173
000130 b0 df 24 bd 44 e5 56 3d ca 7f 9e 3c a0 0e ae 3c
       -0.040252388 0.05246474 0.019348044 0.021247208
000140 a7 80 55 bd e0 15 ce 3b 72 14 09 3d 3e 31 b0 3b
       -0.052124646 0.006289229 0.033466764 0.005376964
000150 8d 8d 8d 3c 51 60 fc bc 7d fb 17 3d 5d e6 84 3c
       0.01727941 -0.030807646 0.037105072 0.016223127
000160 e6 38 eb 3c 5f df 9a bc 12 85 ea bc ea 73 0c 3d
       0.028713655 -0.01890534 -0.028627906 0.03429023
000170 61 89 9e bb c6 d1 06 bd 56 1e 6a bd c5 03 55 bc
       -0.004838154 -0.0329149 -0.057157837 -0.013001387
000180 2a 71 44 bc 9a 7a b5 3c 98 b0 89 bc 01 6b 19 3d
       -0.011989871 0.022153188 -0.01680784 0.037455563
000190 78 6d 47 3c 70 34 1d bb 50 e7 d5 3c 77 40 88 3b
       0.0121720955 -0.0023987554 0.026111275 0.0041580754
0001a0 f9 7f a8 bc b7 92 2d 3c a4 7b 6a 3d 83 2f 90 3c
       -0.020568835 0.010594062 0.05724682 0.01760078
0001b0 a6 10 0e 3d 51 88 4d 3d 94 08 40 bb 4d b3 43 bd
       0.034683846 0.05017883 -0.0029301988 -0.047778416
0001c0 bd d2 20 bd 81 aa ce 3b 37 d0 7c bc 4e 85 8f 3d
       -0.039263476 0.0063069467 -0.015430502 0.07007848
0001d0 0a 5c e5 3c 53 ca 74 3d cb af fb bc 8a f8 7a 3c
       0.02799799 0.059763264 -0.030723473 0.015318045
0001e0 be 4c 1e 3b 2e 82 94 3a 58 e1 da 3b d8 d9 83 bd
       0.0024154629 0.00113303 0.006679695 -0.06438035
0001f0 0a f2 81 3c b2 3f 91 3d d8 cc b1 3b 08 be e1 3c
       0.015862484 0.07092227 0.0054260306 0.027556434
000200 03 e1 ae bc 0e 26 86 3d 99 46 26 3d e1 cc 13 bd
       -0.021347528 0.06550227 0.04059467 -0.03608406
000210 9d 2c 43 bb d3 f0 e7 3c 83 ad 41 3d 58 eb dd 3b
       -0.002978123 0.028313076 0.047284614 0.00677244
000220 97 88 af 3b 8d d5 69 3d ee 25 c6 bc 49 0b 78 bd
       0.005356859 0.057088424 -0.024188008 -0.060557637
000230 f3 89 8f 3b bc 69 17 bc c1 42 c6 bc 10 1a 68 bb
       0.0043804585 -0.009241518 -0.024201753 -0.0035415925
000240 6c 9e 5f 3c dc e8 3d bd 95 4b da 3c 18 6a 68 bb
       0.013648611 -0.04636465 0.026647368 -0.0035463627
000250 71 0d 11 3d ea 34 2c 3d 8d a8 4a 3d 99 8d 80 3c
       0.03541321 0.04204265 0.04947715 0.015692519
000260 fe b3 89 3b 08 87 a0 3c 13 7d 2d 3c 6f 1a 45 39
       0.004202365 0.019595638 0.010588902 0.00018797231
000270 ed e3 43 ba 26 40 76 3d 54 60 9f 3c fc 5d 12 3d
       -0.0007472623 0.06011977 0.019455113 0.03573416
000280 6f ca 47 bd 76 dc 9c bc 26 8a 84 3b ee f7 ab bc
       -0.04877704 -0.019148093 0.004044789 -0.020992246
000290 dc 1d 25 3c d7 1f 8c 3c cf 5b 75 bd 8a 35 af 3b
       0.01007792 0.017105026 -0.05990201 0.0053469585
0002a0 94 8e 0b 3d 4f 07 83 3b f2 96 14 3d 84 32 94 bd
       0.03407152 0.003998674 0.036276765 -0.072361976
0002b0 af 8f dc 3c 77 0d 83 3c a0 1c 39 bd 17 15 a5 3c
       0.026923982 0.015997631 -0.045193315 0.020151658
0002c0 60 54 dc bc 2f 40 7d 3d 57 b7 9e bd 69 6d 30 3c
       -0.026895702 0.06182879 -0.07749813 0.010768273
0002d0 35 d0 2e 3d 9f aa 76 3c 2c 4a 7c 3d 86 d9 63 3d
       0.04267903 0.015055328 0.061594173 0.05562737
0002e0 5e e0 1e bc d6 00 1e 3c 41 82 58 bd e7 56 32 3d
       -0.009697048 0.009643754 -0.052858595 0.043539908
0002f0 1a 1f 55 3c 17 ea 22 3d d8 da 9e bc e1 34 2f 3d
       0.0130079035 0.039774027 -0.019391462 0.04277504
000300 7c f1 17 3c 1e f2 83 3c 4a 4f 6a 3c 58 54 61 bc
       0.009273883 0.016106661 0.014301131 -0.013753019
000310 64 65 56 bc d0 91 59 3d e4 d0 ad bb 7e 51 27 3d
       -0.013085697 0.053117573 -0.0053044427 0.0408492
000320 56 82 a1 3c 76 6b d3 3c 38 48 02 3d dc 0c 71 3d
       0.01971547 0.025808077 0.031807154 0.058850154
000330 25 e1 5c bd c2 db 71 3d c6 5a ed bc 76 87 4d bc
       -0.053925652 0.059047468 -0.028973948 -0.012544503
000340 15 53 12 3d 46 a5 0e 3d 22 ef 39 3c bf b5 dd 3c
       0.035723764 0.034825586 0.011348518 0.027064202
000350 13 a8 7f 3c 9d 7d 19 3d c3 23 ba bc fb 9e 61 bd
       0.015604037 0.03747331 -0.02272213 -0.055083256
000360 92 35 88 bc d4 f2 32 bc 39 aa 4c bd 4e ac 84 3d
       -0.016627107 -0.010922153 -0.049967024 0.06478177
000370 a5 93 e8 bb 01 14 a7 3c c8 22 d4 3c be 7f fe bb
       -0.0070976787 0.02039528 0.025895491 -0.007766693
000380 9c 30 91 3c 65 12 53 bc ed ac 36 3c f6 84 2c 3d
       0.017723374 -0.012882804 0.011149627 0.04211899
000390 27 7c 16 3d 28 9d 40 3c 6b 0f 13 3c 99 6d b5 bc
       0.036739495 0.011756219 0.008975844 -0.022146987
0003a0 95 6a 61 3d 48 d8 2f ba 3a eb 5a 3d bf 8a b2 bc
       0.055033285 -0.00067079486 0.053446986 -0.021794675
0003b0 b0 6c f1 3c dc b4 f7 3c 96 5d 92 bb 59 9d 8a 3d
       0.029470772 0.030237608 -0.0044667227 0.06768293
0003c0 07 86 41 3d 29 ae 3d 3b 2f 36 64 3c 0b 78 10 bc
       0.04724696 0.002894292 0.013928934 -0.008817683
0003d0 03 b8 88 3c b1 0e e9 ba ab 68 3d 3d 1a 95 44 3d
       0.016689306 -0.0017780868 0.046242397 0.047993757
0003e0 8b 29 03 3a a1 19 4b 3c ed be 32 3d 68 7b 15 3d
       0.0005003444 0.012396247 0.043639112 0.036494642
0003f0 35 c0 74 3d dd ed 04 bd e9 0e 0f bc 96 2d 40 3d
       0.059753615 -0.032453407 -0.008731582 0.046918474
