results/PushBlockCollab_POCA_RND/PushBlockCollab/PushBlockCollab-5499962.onnx (onnx, 643240 bytes, 12 tensors)

network_body.observation_encoder.processors.0.conv_layers.0.weight f4 [16, 6, 8, 8]
00000000: ef91 433c febd b1bc 1f0c 5b3a 15dc bcbd
00000010: 2d6d 53bd b2e1 0fbe 50a5 10bd ef91 923c
00000020: 4c13 a33d 1e3f 893d da33 6fbb c825 3ebd
00000030: e64e 9abd 3f85 81bd 92c8 cb39 5e96 b93d
00000040: 1056 c63c 5eeb 963c 5f28 7bbd 1c1b a9bd
00000050: c076 223d da37 46bd 51b3 9e3d e44c bc3c
00000060: 939d 663d 5c87 9dbd 6ea5 05bd 2554 2abd
00000070: 0526 b83c d0d8 02bd 1271 3e3d 56fe 923d
00000080: 3479 17bc 18cc 67bc 5c43 c9bd 1137 aabb
00000090: a487 d83c 157f c0bc f0ff 133d 1989 d6bc
000000a0: e3ce 873b 5903 f5bc f9f8 653d c2cc 273d
000000b0: 7476 a4bd 9912 febb b57f f9bb e569 733d
000000c0: 5f0e db3c 7aff a43d b206 973d de5b cc3d
000000d0: 1001 a8bd 2026 613d ad7b 39bc 7cc7 253b
000000e0: fc65 4d3c 687f 213d 5fd4 1d3d cab5 eb3c
000000f0: a694 bcbd b8eb f2bd d161 15bd fea8 84bd
00000100: 61d0 2cbd 7fd5 e43d 49d3 3a3d 5180 943d
00000110: 5717 12bd 6f87 6cbc 9094 533c 6f42 5f3d
00000120: e63f 72bc e677 903c a499 3b3d cda0 843d
00000130: 35bb 35bd 2195 423d 7013 943c cabb b53d
00000140: ffaa 97bd 0dcc f1bc e23c 133d d68f 073d
00000150: 6384 d63c 5dd3 9a3c b0eb 9e3d a26c 703d
00000160: d563 bbbb a75a 3c3d 181f 593d eb0b 363d
00000170: a53e a0bc 4fbf c13c 202a 02bd 1569 cbbd
00000180: 851f 9d3c 8b31 7f3d 5674 cf3d ab98 773c
00000190: 59eb 70bb 1c4b dcbc 9fc1 023d 08e7 2e3d
000001a0: bb9b 913d ce0a fabc 0158 e5bc 1128 93bd
000001b0: 24f7 bcbd 7208 5bbd 637a 683d 1ec7 5e3d
000001c0: c37e 1abd 0be4 093e 6bd8 bf3d 8b97 9d3c
000001d0: 0068 03bd aed5 57bd 6446 4e3d 8078 cf3d
000001e0: 2857 9d3b ac04 25bc 4391 143d 0e44 2c3b
000001f0: 7bc7 983d b28a 143d ad75 bf3d 4ade be3d
00000200: f9b2 2ebc 02e1 c73b 0525 d43b 834f f83c
00000210: 3c06 043d 48d1 4fbc fe0d 503c d381 883c
00000220: e5ac 1fbd c306 bfba 1285 6e3d 3ba3 3b3c
00000230: 77f1 843d b34f 173d 4a9f 39bd 47fa bbbc
00000240: 135e 65bd 55bf 8b3d 383d c43d 7719 873d
00000250: d7ec 6b3c 2f05 da3b 6d28 333d 8c58 b9bc
00000260: aa3c 9f3c a4c1 e73c aa4d e43c 68e9 a83d
00000270: 89e2 4a3d 7a69 c03c 524a cbbb 940a 17bd
00000280: 5ade e93c 3f96 b53b 3d9e ee3c fe42 fe3c
00000290: fa97 8e3d 34ea 533d 28c9 083d f9f4 023c
000002a0: 74a0 fbbb 9b28 86bc 0f93 683d 1612 3dbd
000002b0: 93b2 7abc 4f91 5e3d 75af d4bc b977 1b3c
000002c0: 0b6d fe3b e76b 9bbd 318c 4cbd db8b 353d
000002d0: 44a4 b53c fda2 7e3c f3c2 a7bc 7c9c 703b
000002e0: 5a66 fbbc fe55 cdbc dc4e 5b3d 6e43 cabb
000002f0: e130 98bc b8df 813d 248a 97bc 0ad9 a13d
00000300: e2c8 0bbe c730 1fbd f579 ec3c 614c febc
00000310: ee4f debd e681 97bc b67b 9c3d dcf2 823d
00000320: 745e 503d 4a23 483c e221 cabc 1009 a4bc
00000330: d251 48bd bc55 5bbd 361e 0e3d 29de 92bc
00000340: c2cb 063e 1dee e33d 6ce9 c53d 7920 ad3b
00000350: 3925 8f3c ea78 8a3d 544c 61bc da2d 8a3c
00000360: e308 ff3d 3fac 4dbb 6001 453d 721b d53d
00000370: b16d c63d 4b87 f73c 532b 263b 4840 c43d
00000380: 7ccd 0e3e e98d 8d3d ae82 843d 599e b33d
00000390: 588d 9d3d aaab c63c fbca ab3d 2133 f43c
000003a0: 292b 0b3e b1c7 083e 4a90 933d 370b 103e
000003b0: 37f2 c33d 5e68 603d 07cc 1bbd fb02 02bb
000003c0: 2a94 4b3e 1612 c63d 99e5 083d 58cb 093e
000003d0: e423 d13d c05e debc 1505 123b a81a afbd
000003e0: 6dff 443e 3c00 833d edfd 8c3d 0269 1b3e
000003f0: 244a b23d 4db3 3e3d 156c a63d c936 8dbd
0.011936649 -0.02169704 0.0008355993 -0.09221665 -0.05161779 -0.1405094 -0.035313904 0.017891852
0.07962665 0.06701492 -0.0036499412 -0.04642275 -0.0753458 -0.06324243 0.00038868614 0.090618834
0.02421096 0.018422779 -0.061317798 -0.08257124 0.03966403 -0.048393108 0.07749046 0.022985883
0.05630262 -0.076918334 -0.03262847 -0.041584153 0.022479067 -0.03194505 0.04649455 0.07177417
-0.009245206 -0.014147781 -0.09827301 -0.0051945527 0.026431866 -0.023498097 0.036132753 -0.02618842
0.004144536 -0.029908823 0.056145642 0.040966757 -0.08030406 -0.007753682 -0.007614101 0.05942716
0.026740251 0.08056541 0.07374324 0.0997846 -0.08203328 0.054968 -0.0113209905 0.0025295904
0.012536522 0.039428145 0.03853261 0.028773207 -0.0920804 -0.11861366 -0.036470238 -0.06477545
-0.042190913 0.11173534 0.045611653 0.07251037 -0.03566679 -0.014436587 0.012913838 0.054506715
-0.014785742 0.017635297 0.04580082 0.06475983 -0.044367988 0.0475055 0.018075675 0.088737085
-0.07405662 -0.029516244 0.035946734 0.033096157 0.026186174 0.018899614 0.077597976 0.05869735
-0.005718688 0.04598489 0.05300817 0.04444496 -0.019561121 0.023650793 -0.031778455 -0.09932152
0.019180069 0.062303107 0.10129611 0.0151120825 -0.0036761372 -0.026891284 0.031922933 0.042700797
0.07109781 -0.03052273 -0.027996065 -0.071853764 -0.09226826 -0.05347485 0.056757342 0.05438911
-0.037718546 0.13465898 0.0936745 0.0192373 -0.032081604 -0.052694015 0.0503601 0.101304054
0.0048016496 -0.010071915 0.036271345 0.002628568 0.07459923 0.036265083 0.09348617 0.09319742
-0.010662788 0.006099821 0.0064741396 0.030311352 0.032232508 -0.012684174 0.0126986485 0.016663468
-0.038983244 -0.0014574159 0.058232374 0.011452491 0.06491368 0.03694124 -0.045317926 -0.02294649
-0.05599792 0.06823603 0.09581989 0.06596654 0.014399729 0.00665345 0.043739725 -0.02262523
0.019438107 0.028290577 0.027869064 0.08247644 0.049532447 0.023487795 -0.006203928 -0.036875322
0.028548408 0.0055415924 0.029128188 0.031037804 0.06962581 0.051737025 0.033394963 0.007992976
-0.0076790396 -0.016376784 0.05678087 -0.046159826 -0.0153013645 0.054337796 -0.02596257 0.009488993
0.007764464 -0.0758894 -0.049938384 0.04432283 0.022173055 0.015541789 -0.020478701 0.0036714366
-0.030688453 -0.025065418 0.053542003 -0.006172589 -0.018577995 0.06341499 -0.018498488 0.07902725
-0.1365085 -0.038864877 0.028866747 -0.03104228 -0.10855089 -0.018494558 0.076407835 0.06393978
0.050871328 0.012215445 -0.02467436 -0.020023853 -0.048906155 -0.05354856 0.03469678 -0.0179282
0.13163665 0.11129401 0.09663662 0.005283412 0.017473804 0.06761344 -0.013751108 0.016867567
0.12452867 -0.0031383184 0.048097014 0.104056254 0.09688891 0.03021588 0.0025355413 0.09582573
0.13945574 0.06911833 0.06470238 0.08770437 0.07692975 0.024251778 0.08388325 0.029809536
0.13590683 0.13357426 0.07205255 0.14066778 0.09567683 0.054787032 -0.038036373 -0.0019838202
0.19880739 0.09671418 0.033422086 0.13456476 0.10211924 -0.02714479 0.002228086 -0.08550006
0.19238062 0.06396529 0.0688437 0.15176776 0.087055475 0.046557713 0.08126084 -0.06895215

network_body.observation_encoder.processors.0.conv_layers.0.bias f4 [16]
00000000: 1f57 dabc 8a33 1c3d fe45 36bd 83b0 1c3c
00000010: 6f53 23bd 260e 0ebd a2e1 39bd cb91 2b3c
00000020: 280e d9bc 9d77 0dbd 5ffa 8abc ede0 8fbc
00000030: 3860 3dbd 5bcf 8bbb ef90 293d 3681 c03c
-0.02665287 0.03813509 -0.044500344 0.009563568 -0.03987449 -0.03468146 -0.045381196 0.0104717715
-0.026496008 -0.0345379 -0.01696509 -0.017563308 -0.04623434 -0.004266662 0.041397985 0.023499113

network_body.observation_encoder.processors.0.conv_layers.2.weight f4 [32, 16, 4, 4]
00000000: f253 a7bd 8c9a 30be d382 68bb 3cc7 2f3d
00000010: aac5 9c3c 93df 12be c9a4 0c3c 916b 8a3d
00000020: 9b27 c1bc a3bc f8bc b678 bb3d b435 003d
00000030: e2da 00bd ae52 7a3d 6950 fb3d 0c17 563d
00000040: ad65 5ebc e0c1 0cbc f69e a03d 2337 1cbd
00000050: 12dd e93d 8704 c3bc 7c6c c23c cd53 07bd
00000060: 1a92 5e3d a2e6 043d 44a5 b23c f50b fb3c
00000070: 2c8b ea3d 1e2e 803d 2b23 49bd a3c6 a53c
00000080: 3f57 48bc 0345 84bc 640f b73d 7777 983d
00000090: a1b1 c5bb 5c43 8dbd a6ed 933d dcd1 a73d
000000a0: 8d8b 863b 27bd a53d 6492 993d 4993 a13b
000000b0: d0e4 9b3a 22cd 8e3d 56eb 343d 9629 a43a
000000c0: 671a a8bd 2eeb b23c 3c6f f53d a64d 6bbc
000000d0: 312f 4f3d a017 413a e885 c73d 1a64 763d
000000e0: 237c 7dbd f584 eb3d b8a0 d73d 4404 a5bd
000000f0: 63d3 343d a5ee ac3d 4d28 9b3c a608 c03d
00000100: ea36 8dbc 3ac2 e23c 1a12 043e fa0a 113d
00000110: 4813 2ebc 2e2d a93c 16b5 d53c e8e5 ea3b
00000120: e79a 5b3d f25d 77bc 3ab4 513d d7c0 bc3d
00000130: 1f0b 73bd d37c 033c b1a8 933d 65d7 963d
00000140: deed 60ba 842a 97bc 9637 903d 9aea 91bd
00000150: e97d 8bbd 7c42 47bc ebe7 73bc 2e65 d73b
00000160: 8fea e7bd a19d 60bd df15 07bb c4d3 b9bd
00000170: 6846 033d 66f6 e43d b372 cf3c 9da4 7f3c
00000180: 2b1a 083c 4ef8 7f3c 0139 c23c c9eb a93d
00000190: 9740 433c d5b5 a5bb bcdf 6f3c 12dc 4bbc
000001a0: 70e0 b33d 2b8c a0bc 5727 393d c864 153d
000001b0: ba36 0f3d f6af 943d 6c4b ab3d c3e5 653d
000001c0: b958 b53d 62a9 853d 4f62 d23c afe2 e13d
000001d0: df42 413d 68c3 f2bb 9a15 003e 6a1a bf3d
000001e0: d5bd b03d 513f d2bb 5c05 063d 5a35 0d3e
000001f0: 7654 72bc 6dfe ee3c 0ac5 813c 445f 4bbd
00000200: ecdb 0bbd ef99 cd3a 6488 4f3d 1515 323b
00000210: bede 1dbd ff25 c1bd e374 4a3c a103 c1bd
00000220: 110e 043d 55d1 de3c 045b 0fba 939f 683d
00000230: c338 9d3c 7178 a83c 4772 093e d22c b1bc
00000240: ef11 6fbd a2de 4c3d bfbf 3c3d fae2 853d
00000250: d2ff 173b efc2 ce3d 5caf 203e 217a d03d
00000260: 85d1 ff3d a554 293d 3bbc 903d be00 0e3e
00000270: 3c6c 683d 4883 b43d 2c26 973d f8b8 f63c
00000280: 9702 703c 046a fabc 98d1 9fbc 3978 eb3d
00000290: 702e f13c 1786 7d3c cfe0 b23c 2bc8 ab3d
000002a0: a97f 653c 3885 dfbc 1dc3 e53c dfcd 8d3d
000002b0: cd5b 72bd 1044 583d a298 423d dc2a f13d
000002c0: 2e80 fcbd 36b7 dabd dbfe dabc e991 863d
000002d0: bab3 21bd aee7 febc 9ba0 84bd 2516 31bd
000002e0: 35cb 6a3d 0d5f ab3d 0b85 a3bd 79d6 65bd
000002f0: cf83 8ebb b05f febc b066 963d 07b0 6c3d
00000300: 2783 7ebd e8a6 8cbc 0ea1 71bd dee3 41bd
00000310: c003 9fbd a78d 97bd 6b0a 2e3d a1ee 2c3d
00000320: 9ed6 a2bc 08d7 443b db51 8f3c 0440 143b
00000330: eb73 853d e211 0d3d 2572 853d 8abc 10bd
00000340: aa8e 9fbd ac25 be3d 2af8 b33d 3b80 a43d
00000350: 5f53 6ebd 54e7 873d 6392 203c 805a 793b
00000360: a90d a2bc 8026 7f3d cd87 7abb b5b8 a33d
00000370: c4d5 0dbd 0aaf 0d3d b94c ae3c 54ad 3bbb
00000380: fee1 33bb 6709 3bbd 317a bd3d 937b d93d
00000390: ff9b a8bc 7989 8c3d ce41 b63d ea40 7f3d
000003a0: 11ea c13c 0f58 7a3d 661d e33d e237 293d
000003b0: 1860 d03c 1412 1f3d 36fb 18bb 5f55 533d
000003c0: b0cd 67bd 200f 983c b283 9abd 0c8c 0abd
000003d0: c0c6 7bbd 15cc afbd 9275 66bc 398b af3c
000003e0: 8619 babb 741f 7f3b d4db 1e3c 85de 2fbd
000003f0: 5c02 5cbc 2c10 0bbd 0f1a 493d 7228 a53c
-0.08170308 -0.17246455 -0.0035478368 0.042914614 0.019137222 -0.143431 0.00858421 0.06758798
-0.023578456 -0.030363386 0.09153883 0.031301215 -0.031458743 0.061114006 0.122711964 0.052268073
-0.013574046 -0.008591145 0.078428194 -0.03813852 0.11419119 -0.02380587 0.02373337 -0.033038903
0.054338552 0.03244651 0.02180732 0.03064535 0.11452326 0.06258796 -0.049105804 0.020236319
-0.012227832 -0.016146189 0.089384824 0.07444661 -0.006033138 -0.068976134 0.07223062 0.081943244
0.004105991 0.080927186 0.07498625 0.004930888 0.0011893753 0.0697272 0.044169746 0.0012524601
-0.08208161 0.021840658 0.11984107 -0.014361775 0.050582115 0.0007365886 0.097423375 0.060154058
-0.061885964 0.11499969 0.105287015 -0.08057454 0.044146907 0.08443955 0.018940115 0.093766496
-0.0172381 0.027680505 0.1289753 0.03541086 -0.010624714 0.020651426 0.026087325 0.0071685202
0.053614523 -0.015098082 0.051197268 0.09216469 -0.059336778 0.008025366 0.0720991 0.07365302
-0.0008580367 -0.01845289 0.07041852 -0.07124825 -0.06811125 -0.012161847 -0.0148868365 0.006573341
-0.113240354 -0.054837827 -0.0020612401 -0.09073594 0.032049567 0.11179809 0.025323248 0.015603212
0.00830702 0.015623165 0.023708822 0.082969256 0.011917255 -0.0050570765 0.014640745 -0.012442606
0.087830424 -0.019598087 0.045203533 0.036473066 0.0349643 0.072601244 0.08363995 0.05612732
0.08854813 0.06526448 0.025681643 0.110295646 0.047182914 -0.007408548 0.1250824 0.0933121
0.086299576 -0.0064162393 0.032719955 0.13789883 -0.014790645 0.029174054 0.015841026 -0.0496514
-0.03414528 0.0015686135 0.05066718 0.002717321 -0.0385425 -0.09431075 0.0123569695 -0.0942452
0.032239977 0.027199427 -0.00054685795 0.056792807 0.019192105 0.020565243 0.134225 -0.021627817
-0.058366712 0.050017007 0.0460813 0.06537433 0.0023193252 0.100957744 0.15691894 0.10179544
0.124911346 0.04134049 0.07067152 0.1386747 0.056743845 0.088141024 0.073803276 0.030117497
0.014649055 -0.03056813 -0.019509122 0.1149754 0.029441088 0.015473864 0.021835713 0.083877884
0.014007487 -0.027285203 0.028047139 0.069240324 -0.05916958 0.052799284 0.047508843 0.11775753
-0.12329136 -0.10679476 -0.026732853 0.06570799 -0.03947804 -0.031116333 -0.064759456 -0.04323401
0.0573227 0.08367739 -0.0798436 -0.05611274 -0.004349209 -0.031051487 0.07343805 0.05778506
-0.062136795 -0.01716943 -0.058991484 -0.04733645 -0.07764387 -0.07400065 0.042490404 0.04221976
-0.019877728 0.0030035395 0.017495086 0.0022621164 0.0651625 0.034440883 0.06515912 -0.035336055
-0.07790883 0.09284529 0.08787568 0.080322705 -0.058184978 0.06635919 0.009800526 0.0038048327
-0.019781904 0.062292576 -0.0038227916 0.079942144 -0.03462769 0.03459076 0.021276819 -0.0028637247
-0.0027447934 -0.045663264 0.09251822 0.10619273 -0.020582197 0.06862158 0.0889927 0.062317766
0.023671182 0.061119135 0.11089592 0.04131306 0.025436446 0.0388356 -0.0023343093 0.051595088
-0.056592643 0.0185619 -0.0754465 -0.033824965 -0.06146884 -0.085838474 -0.014066117 0.021428691
-0.005679312 0.003892866 0.009695966 -0.04293682 -0.013428297 -0.03395097 0.049097117 0.020160887

network_body.observation_encoder.processors.0.conv_layers.2.bias f4 [32]
00000000: 15aa 8abc e227 7abc 4de1 ec3b 2f0a 5ebc
00000010: 42ba 80bd ec17 113d 3d79 3b3d 34c1 79bc
00000020: 789e 9c3d 6391 0d3d 00eb 26bd 35ff 4abd
00000030: 8716 39bb abdb e5bc 9ded d53c 4702 a23d
00000040: b968 4ebd d8c8 8b3d 28fd 1cbd 9f23 3e3d
00000050: 5be6 803c 54c5 0fbd ce43 12bc 7fb8 17bd
00000060: 2d84 223d 0ac7 76bc 876a 98bd 0e8e 97bd
00000070: d6b9 4c3d 296a ba3c d569 893d 822b 77bc
-0.016926805 -0.015268298 0.0072290064 -0.013552233 -0.06285526 0.035423204 0.04576992 -0.015243817
0.07647413 0.03456248 -0.040751457 -0.04955979 -0.0028242187 -0.028058847 0.02611428 0.079105906
-0.05039284 0.06825417 -0.038327366 0.04642069 0.015734842 -0.035100296 -0.008927299 -0.037041184
0.039676834 -0.015062103 -0.074421935 -0.07400142 0.049981914 0.0227557 0.06709639 -0.015086057

network_body.observation_encoder.processors.0.dense.0.weight f4 [256, 32]
00000000: 0cad 253e b860 973e 964f b33d e1f9 2d3e
00000010: a269 a3be 6957 acbe adea c43e e637 d3be
00000020: 69ac c23d bafb c43e 6152 db3e 0224 783e
00000030: 1059 efbe 4f36 1e3d be4b 98bd 6f5e 8b3e
00000040: f120 503d 1536 14be 20f7 ad3d 1698 c7be
00000050: cc37 98be 6e42 bcbe 32ad 04be c497 6f3d
00000060: 1070 d63e c8ff d5bd 0d24 99be f78c 503e
00000070: 82c1 6a3e 44f9 fc3c 0a44 9bbe 7f22 ddbd
00000080: d39d 10be 1dcb 253e 63d5 8dbe ca6e 59be
00000090: 189a 36bf 12cd a33d 3f98 1f3e c7dd b43d
000000a0: 63c4 2fbe 45ed 113f b9a0 30be 6f6e 40be
000000b0: d855 e23e 93b5 d4bd 0520 b23e b494 aa3d
000000c0: 2258 723e 7353 ae3e 14c0 b9be 1e91 e0be
000000d0: 3d23 8d3d e63d a63e b7f1 b73e 4e75 38be
000000e0: d4a4 d9bd db01 3f3d fad8 bc3e a958 803e
000000f0: 2c13 37be 4627 c43d 3ad0 593d ed43 cdbd
00000100: d5de 223d a637 c73e f4a3 e03e 7cde 913d
00000110: cc7f 92ba 2612 3ebf 3056 923d 3450 383f
00000120: 740a 223f c2bb 1f3d 526e b73c c9c4 debe
00000130: e0be f6bd abf5 153e 02bb 573e 8bf8 b8bd
00000140: 9cb1 113d 02f7 2e3e d96d 743e 1363 d93e
00000150: 9d94 85be 48c7 81be f7ab 223e 71cf 8fbc
00000160: b02d 2ebe c5c9 143d cb82 0f3c 1584 46bd
00000170: f779 62bd 99dd c43c bb3a 99bd 75d9 60bb
00000180: f605 ac3e db0a 91bd bdc7 68be d414 a7be
00000190: 8950 ffbe c473 0c3e d145 0ebd 0b02 983e
000001a0: 574b 48be cebe 8d3e dabd d1be bdd3 d7bc
000001b0: bc53 19be 212b a33c 44bb bfbc 48cd 2bbd
000001c0: a4c9 91be 0efd 9a3e bd9c 29be e719 5a3e
000001d0: dcf0 aebd feaa fbbc 41f0 e5be 3b5b 3bbe
000001e0: 6848 5a3c ae4f e1be 7804 f2be 497e 163f
000001f0: 29f1 913d 9967 b83e 6924 9b3e 922a a13d
00000200: fc50 54be d705 223f a515 cf3e e8e6 dc3e
00000210: 743e 17bf 9030 fdbc d52a 04bf fa4a c2be
00000220: f8a5 343e bd65 4fbd f540 9cbc 9f5e 4e3e
00000230: f766 32bd f71c b63e 8d25 513d 9e57 2e3c
00000240: dfb8 323e d8e0 c63d 4591 003e 4ada ae3e
00000250: 200c 74be 1168 463e 5df5 4abe 4f14 3d3e
00000260: 1d77 83be 2b1f 413c df5e c6be 1b11 353f
00000270: f94d 073e db61 293e 12db bfbe 39ff a23d
00000280: e3ed a73d fc55 3b3c ef6e e93c b235 e93d
00000290: 0257 7abc 0860 d23e d341 993e 7fd1 eebd
000002a0: d15c b63e 9d09 4f3d 33ba 18bc 1860 113e
000002b0: 4284 b73d 0cb9 4a3e 4b97 d9be 31c2 3bbd
000002c0: d493 88be 2ee9 413e fcd8 ab3e e73b fd3e
000002d0: 44ea 413d f3dc 15be 2bc9 d0be da7f 87be
000002e0: bf4b 523e 242c 343e 1851 89be 1b9c 7ebe
000002f0: 2b59 03be 8fd9 1d3e 3008 fa3b 5966 733d
00000300: 6740 323e b0a1 49bd 9610 943c bab7 4abe
00000310: 46bb 183d 5819 81be 1a8a 69be 3b1b df3e
00000320: c2ba 8f3e cf32 483e e1c0 283e 3dc1 90be
00000330: 8a1d 103e 32d3 56be 1bcf b6be e6dd 653e
00000340: c5a9 153d aaa7 6fbd 8026 3f3b 2cdd 323e
00000350: a84e 963d 3265 f63d 2d4e 8b3c 463d 29be
00000360: 3af2 023e 2329 eebc 21c4 9f3e 67be aebe
00000370: 2a0a 003f 4540 c93d 1673 873e 0125 c5bd
00000380: 9961 0dbe 84d4 a2be 293c 053c 78c6 073e
00000390: b4dc 593e 8940 0e3e d47c 9fbe 44c8 883b
000003a0: a164 54be c99d 01be 6ce3 303e 0df1 06bd
000003b0: dbef 3cbe 63d3 b93d 1da6 f53d b9d0 513d
000003c0: 129f e33d 41c8 ee39 18b3 cf3e e90b 873e
000003d0: 6a42 09be c40f 0a3f 758c 81bc 633f 1d3e
000003e0: 481c 14be 46de b2bd 9561 0abf e0b3 873e
000003f0: ae62 353e d593 21be cc1d 95be 441f 843d
0.16179293 0.29565978 0.08755414 0.16989852 -0.3191653 -0.3366044 0.38460293 -0.41253585
0.09505541 0.38473302 0.42836288 0.24232486 -0.46747637 0.03862601 -0.07436322 0.27220485
0.050812665 -0.14473756 0.08494401 -0.3898322 -0.2973007 -0.36769432 -0.12956694 0.058494344
0.41882372 -0.10449177 -0.29910317 0.20366274 0.2292538 0.030880578 -0.30325347 -0.10797595
-0.14122705 0.16190763 -0.27701864 -0.21233669 -0.7132888 0.079980984 0.15585421 0.08831363
-0.1716476 0.5700267 -0.17248811 -0.18792127 0.4420612 -0.10386195 0.34790054 0.08329144
0.23666432 0.34048042 -0.36279356 -0.43860716 0.06891487 0.324691 0.359266 -0.18013498
-0.106271416 0.04663263 0.3688429 0.25067642 -0.17878407 0.09577803 0.053177096 -0.100227214
0.03976329 0.38909644 0.43875086 0.07122514 -0.0011177002 -0.7424644 0.07145345 0.7199738
0.632972 0.03899742 0.022391472 -0.4350951 -0.12048125 0.14644496 0.21067432 -0.09031781
0.035569772 0.17086414 0.23870029 0.424584 -0.26089945 -0.25347352 0.15885912 -0.01755497
-0.17009616 0.036325235 0.008759211 -0.048465807 -0.055292096 0.024031447 -0.07481905 -0.0034309302
0.33598298 -0.07082149 -0.22732444 -0.32633078 -0.4986613 0.13716036 -0.03473455 0.2968906
-0.1955999 0.27684635 -0.40965158 -0.026346082 -0.14973348 0.019918026 -0.023404725 -0.04194382
-0.28474152 0.3027119 -0.16563697 0.21298943 -0.08542034 -0.030721184 -0.44909862 -0.1829652
0.013322927 -0.44006103 -0.47269034 0.58786446 0.07126076 0.3601654 0.30301216 0.07869448
-0.20734018 0.6329016 0.404462 0.43144917 -0.5907967 -0.030906945 -0.51627856 -0.37947828
0.17641437 -0.050634135 -0.019073943 0.20153283 -0.043555226 0.35568973 0.0510612 0.010641007
0.17453335 0.09710854 0.12555416 0.34150916 -0.2383275 0.19375636 -0.19820161 0.18464778
-0.25676814 0.011787216 -0.38744256 0.70729226 0.13213338 0.16541235 -0.37471825 0.07958836
0.0819967 0.0114340745 0.02849528 0.11387195 -0.015279533 0.4108889 0.29933032 -0.11661052
0.35617688 0.050546277 -0.009321737 0.14196813 0.08960773 0.19797152 -0.4249824 -0.045839492
-0.26675284 0.18936607 0.33563983 0.49459764 0.047342554 -0.14635067 -0.4077848 -0.2646473
0.20536707 0.17594963 -0.26819682 -0.24864237 -0.12826984 0.15415023 0.0076303706 0.05942378
0.1740738 -0.049226463 0.018074315 -0.19796649 0.037287973 -0.25214648 -0.22806588 0.43575463
0.28072172 0.19550632 0.16479827 -0.2827243 0.14073768 -0.20979002 -0.35704884 0.22447929
0.036538858 -0.058509506 0.0029167235 0.17467183 0.07339221 0.1203102 0.01700505 -0.1652728
0.12787715 -0.02907235 0.31204322 -0.3412964 0.5001551 0.098267116 0.2645499 -0.096261986
-0.13806762 -0.31802762 0.008132019 0.13259304 0.21275598 0.13891806 -0.31149924 0.004174264
-0.20741512 -0.12657847 0.17274255 -0.032944728 -0.18450873 0.09073522 0.11994574 0.051224444
0.11114325 0.00045544098 0.40566325 0.26376274 -0.13404241 0.53930306 -0.015814045 0.15356211
-0.14463913 -0.087338015 -0.5405515 0.2650442 0.17713425 -0.1577905 -0.29124296 0.06451276

network_body.observation_encoder.processors.0.dense.0.bias f4 [256]
00000000: 0ab3 f43b e691 88bc 3439 dabc 251f aa3d
00000010: 11e2 053c 5bf5 963d ef12 663d 7f2e c33c
00000020: efea d5ba b461 f3bc 6185 bebb a882 713d
00000030: 0712 063d 7635 ff3c b201 30bd eca9 34bc
00000040: 1b9c 57ba c701 9b3d a20f 403c dcac 463d
00000050: 52d1 eebb c080 5c3b dd16 933d 5acb 543c
00000060: 2ac3 1abc 5470 d93c a364 e83c e5be 603d
00000070: 558d c23c e8b3 83bc b86c 2a3c 2ce9 a23d
00000080: ee8f 20bd 6523 573d ce52 c53c 6381 643d
00000090: 38b9 42bd a8aa 1c3d 5981 1c3d 26d3 f93b
000000a0: 906b cdbc eced 833c 27e6 f7bc bfc7 1b3c
000000b0: 28e5 4c3d 97eb f3bc 70eb 943b 4dd4 3b3d
000000c0: 0e31 3c3d baf8 2cbc c441 7a3d bcfb 733d
000000d0: 0993 6b3d 60b7 f33c a85f aa3c fbde 583d
000000e0: 1c90 ac3b b192 433d 2afe 083d 40a4 723d
000000f0: f5b3 133d 610b e13c 5cc1 323d f14e 35bd
00000100: 8040 9bbd 5c9a 7c3c fb2c 11bb b8c0 813d
00000110: bd36 473d c0b6 fcba 334f babc 919b 303d
00000120: fd08 d0bc 5010 593d fb44 1a3b 457f c13c
00000130: 1fe7 8f3b d538 3dbb 3799 9b3c 739c b63d
00000140: ebb6 60bb 3b53 743b 3386 25bd 9104 2b3d
00000150: 1bd2 11bd c855 6b3c e514 da3c 7fbe 323d
00000160: d43a 843d b02f 363c 900f ab3c 6867 073c
00000170: d0d3 093c a107 8dbc 8a23 f3bb 6fa4 14bc
00000180: ec5a b93b 28d4 be3b 3e83 18bc ed91 283d
00000190: b72f 903d fca3 263d d286 5e3c 474e 843d
000001a0: 1a18 473c bbac bebc d952 c73c dc76 f33c
000001b0: 1cde 8b3d 1551 59bc a695 3a3d 3c54 b7bb
000001c0: 42ca 913c 00d0 48bd e922 513c 831a fabb
000001d0: 929a 7b3c fffd 833c 4e0d 0ebb 09b1 103c
000001e0: 64c9 6fbd 8828 4cbb db47 123c 8da9 5a3d
000001f0: b8d3 013d cdc8 733c 5b80 93bc 3093 183d
00000200: 921c 6ebc b331 843d 27f0 013d e177 eb3d
00000210: ca28 a13d 76e3 ea3d 6c25 873d 6067 f839
00000220: 45c7 073d 37cf f33a 3b18 ce3c 1d77 37bc
00000230: f79a 1d3c 8d5f 703d 7577 a93d e671 ebba
00000240: d589 a6bc 979b 453b db68 b83d 1bb9 463d
00000250: ecf8 cabc 710e 44bb 2e22 92bc 7708 4bbc
00000260: 6bca 5e3d e3ee 2d3d 8c4b 273d e99e 9d3d
00000270: 05e7 3e3c 0e4c b7bc 23de 4b3d ced8 1b3d
00000280: 6113 983c a540 af3c a26e 0fbc 1243 57bc
00000290: 2d48 e0bc 45f5 9b3c f35c e7bc 9a65 0f3d
000002a0: 2117 883c 390a 48bc 5cc5 1e3d ea8e 363c
000002b0: 3074 973d 25bd 353c c7a6 133d 495a 2d3d
000002c0: e356 e93c 14db ef3c b702 603d 232e 6f3d
000002d0: f0f9 133d 4eae 54bc 3801 ad3d f97a 07bc
000002e0: 5ae8 1dbc e3f1 003c 876f 523d 2b6a a2bc
000002f0: 90c5 de3c 23fa 443d 2a68 193c 8f2f 07bd
00000300: d1f6 13bb d636 603b 0424 31bc b02e 4a3d
00000310: be76 8f3d b124 553c 0912 1e3d bc28 02bd
00000320: ed7f 993c d508 a43c 6ed8 b03c 2ad3 40bd
00000330: 852c 643d e5d4 973c 7fe0 1cbd 88a9 493d
00000340: 9a6a 9b3d 2987 9e3d 3d76 863d 5a19 d93c
00000350: 5e4c a43c faa4 293d 1418 3c3d 6135 743d
00000360: b0a2 d93c dcb5 d43c 7bfa 823c 8f03 a7bb
00000370: 75c3 abba 78a2 ee3c 30bf 923d 4c4e cb3a
00000380: cf22 7a3d fab1 23bd bc11 7fbc 1e4c 24bb
00000390: 236a 59bc 9ff1 b53d b085 c73b 23a4 4fbd
000003a0: 82e1 69b9 9d6d 853c f575 0c3d 8d29 823d
000003b0: 8a82 0d3d 317d 033d 7f96 943d bb9e 113d
000003c0: 387e b63c d647 363c 6ddc ac3d 9f22 fb3c
000003d0: e879 a83c 4e43 263d d953 bf3d 04be 03bd
000003e0: 95d4 5c3c cd50 9b3a cb65 3cbc 17a7 803d
000003f0: e7f8 b4bc ebfa 863c b86a 193d fd0d 4c3d
0.007467632 -0.016671132 -0.026638605 0.083067216 0.008171574 0.073710166 0.0561704 0.023825882
-0.0016320626 -0.029709674 -0.00581424 0.058962494 0.032732036 0.031153422 -0.042970367 -0.011026841
-0.00082248606 0.075686984 0.011722477 0.048504695 -0.0072881365 0.0033646077 0.07182095 0.012987936
-0.009445945 0.02654282 0.0283683 0.05486955 0.023749033 -0.016076997 0.010401897 0.0795463
-0.039199762 0.05252399 0.024087336 0.055787455 -0.04753992 0.038248688 0.038209293 0.007624048
-0.025075704 0.01610466 -0.030261112 0.009508072 0.050023228 -0.029775424 0.004544668 0.045856763
0.04594522 -0.010557348 0.061097875 0.059566244 0.05751327 0.029750526 0.020797566 0.052947026
0.0052662026 0.047747318 0.033445515 0.059238672 0.036060292 0.027471246 0.043641433 -0.044264738
-0.07580662 0.0154176615 -0.0022152055 0.06335586 0.048636187 -0.0019280538 -0.022742843 0.04311711
-0.025394911 0.052994072 0.002353965 0.023620257 0.0043915655 -0.0028872986 0.018993957 0.08916559
-0.0034288715 0.0037281055 -0.040411185 0.0417524 -0.035600763 0.014363714 0.026621291 0.043638702
0.06456533 0.011119768 0.020881444 0.0082644 0.008412316 -0.017215552 -0.007420008 -0.009072407
0.0056565907 0.005823631 -0.009308634 0.04115479 0.07040351 0.04068373 0.013581948 0.06460243
0.012151742 -0.023275724 0.024331497 0.029719763 0.068294734 -0.01326396 0.045552872 -0.0055947583
0.01779664 -0.04902649 0.012764671 -0.007632555 0.015356677 0.016112326 -0.002167541 0.008831271
-0.05854167 -0.0031152088 0.0089282645 0.053384352 0.03169605 0.014879418 -0.01800554 0.037249744
-0.014533179 0.06454792 0.031723168 0.114974745 0.07869108 0.11469166 0.065989345 0.00047379266
0.033149023 0.0018601184 0.025158038 -0.011197832 0.009619466 0.058684874 0.08274738 -0.0017963022
-0.020329395 0.0030152553 0.090043746 0.048516374 -0.024776898 -0.0029915834 -0.017838564 -0.012392155
0.05439226 0.04246415 0.04084353 0.07696325 0.011651759 -0.022375133 0.049772393 0.038048558
0.018563928 0.02139313 -0.008754404 -0.013138549 -0.027378166 0.019037852 -0.028242564 0.035009004
0.016612591 -0.0122094685 0.038762435 0.011142472 0.07395208 0.011092459 0.036047723 0.04232243
0.028483814 0.02927927 0.05469009 0.05839361 0.03612703 -0.012981011 0.08447498 -0.008269065
-0.009637916 0.00787017 0.051375892 -0.019826015 0.027193815 0.04809011 0.009363214 -0.03300434
-0.0022577534 0.0034212372 -0.010811809 0.04936093 0.0700507 0.013009236 0.03859142 -0.03177713
0.018737758 0.020023743 0.021587577 -0.04707638 0.05570652 0.018534133 -0.038300034 0.049233943
0.07588692 0.077406235 0.06565521 0.026501346 0.020055946 0.0414171 0.0459214 0.05962122
0.026566833 0.025965624 0.015988579 -0.0050968598 -0.0013104515 0.029130206 0.07165372 0.0015511005
0.061068352 -0.039964654 -0.015568193 -0.0025069783 -0.013269934 0.08883976 0.006088935 -0.050693642
-0.0002230462 0.01628762 0.03429218 0.063555814 0.03454832 0.032101814 0.07255267 0.035551768
0.022276983 0.011125525 0.084404804 0.030656157 0.020565942 0.04059153 0.093421645 -0.032163635
0.013478418 0.0011849642 -0.011498879 0.0628187 -0.022091342 0.016477069 0.03745529 0.049818028

network_body._body_endoder.seq_layers.0.weight f4 [256, 266]
00000000: 67b7 3f3c 1017 18bd 3e22 893c e964 bdbd
00000010: 2d87 143d c705 3ebe 1a15 a9bd ec0e 37bd
00000020: b414 bcbd 50a6 113e df15 fe3d 2e42 5ebd
00000030: 7602 fcbd 0381 cc3d 005e 96bd fcae b43c
00000040: 1ce0 1bbe 1ca0 0e3c ec69 e3bc 9c49 3cbd
00000050: 3f7e 86bd 9e3e 6abc f653 99bd 1d84 153b
00000060: a638 4fbc c250 773d 68d0 e03b 3f90 753c
00000070: a37b c83c bd18 02bd d04b b4bc 77db d93d
00000080: 81da eabc bd6e 0f3e a842 b23b 1ba9 ef3d
00000090: bf7f c23d 55fe c33d 5206 40bd c9d7 4cbb
000000a0: ddf4 48bd 8e80 a73c 49f0 42bd 6990 2dbe
000000b0: 9790 bf3c 313a 21bd 97c5 f53c cf71 823d
000000c0: 74af e4bc 270a 963c 15b6 01be 9ebf e2bc
000000d0: 9a3c 953d 8b7f 1ebe c9b3 b83d a18e 23bd
000000e0: 50de a339 5796 59bd 8333 c43c d43e ba3c
000000f0: cdd1 ebbd 00fb 7c3d 84e1 cfbc ee3d 813c
00000100: 9a1c b53d 1e51 e83d b420 363d 94c9 5ebe
00000110: 578a 18be 9d8a 89bc ef32 893d 575c 1ebe
00000120: cb1a e7bd 9fce 10bd 0f5e 983d 63bc 98bd
00000130: 5d56 cf3d 9481 903d 4179 bdbd 0f41 ecbd
00000140: 5ec7 173e 3609 47bd e5b9 213e 3a5a 9cbb
00000150: dff8 3fbc 10a7 63ba b26f 373d e44a 59bb
00000160: 35a4 a5bb f582 95bd 56d1 783d f439 27bd
00000170: 9c9f 303e a865 e1bc da87 273d c4a7 66bb
00000180: 1795 9fbd 21b3 acbc 6544 6dbc 0cd2 eabc
00000190: 63e7 d53d f7f9 e83c b0d4 143d 69e2 36be
000001a0: b706 783d 1941 27bd 3bbe 1d3e 3541 a5bd
000001b0: 98d3 a0bd 90b3 a53c 72fc cf3d 2d19 e43d
000001c0: a23a b23d 56b9 8abb bdb1 a73d e247 9e3d
000001d0: ea36 9f3d 0eab 95bc 6c74 123c efd2 76bd
000001e0: 943d 8bbd bf65 1d3d d404 84bd 982d febd
000001f0: 95e6 113d 1d79 5f3d cabc 1c3e 7d2e e03b
00000200: b498 813d 6900 99be c386 8b3b b63d d73d
00000210: 35f8 34bd 9b7b 46bd 36a9 093e b21d ef3c
00000220: 1485 e1bb 3604 b1bd e4e7 a0bd 8733 1f3e
00000230: f95c 4b3c e120 eabd d4d5 82be 54a4 593d
00000240: 2660 39be 11a4 23bd 946f c13d aed8 91bd
00000250: 3159 143e 2772 31bd b7b9 83bb f9dd 413c
00000260: 1a9b 88bd f2d9 e03c ff84 51bd cb4b f9bd
00000270: 74ef debc b5a5 013d ff51 4ebd 3849 11be
00000280: 186c d53c 88e2 2bbd fea1 06be 0e6f 12be
00000290: 75cf 25bc c76b c63c a1e3 9d3d 36f2 babd
000002a0: 4573 fcbd ee04 033e 4664 55bd 3591 8cbd
000002b0: 163a f3bd 7dab 2d3c 43eb e6ba 8cae 5cbc
000002c0: 8945 3ebe 153c 21bd adfc 88bd e6d4 b1b9
000002d0: fa5b e7bd 3e49 3f3c 3d64 8f3d 8a22 abbc
000002e0: 1b59 2abb 1ddd 983d 3318 4e3d 0616 c93d
000002f0: b0e4 47be de2c 53bd 277e 66bd 19f2 76bd
00000300: 3adb 3c3c 8c75 71bd c1bd 7d3d ffb1 c0bd
00000310: a59b 14be ec16 8c3d a8c7 373d 2bd2 753d
00000320: a980 163d 3d34 11bd a563 c4bc 186c 6ebc
00000330: a35a 92bd a2cb 8abd f7ee 083d 0fdf 41be
00000340: ea15 77be dea9 a33c f6df 7ebd 7eca 36be
00000350: a595 01bb 5984 3fbe 4124 ef3c d280 293e
00000360: 96af d6bd a5aa b8bc 26c7 e63d db15 81bc
00000370: a59d 5e3b 4872 843d d238 16bc 6227 28bd
00000380: 06dd c1bd be46 7c3c 19b2 d93b df15 05bd
00000390: 478f adbd dd87 403d 84e4 043d 28c4 1dbc
000003a0: 61a2 97bd f846 733d 84b7 d9bd 1228 e43b
000003b0: 12da 2a3e 83df 863d 3242 4bbd 2220 073e
000003c0: 1973 c4bc 5896 76bd 9fc2 963d e99a bfbd
000003d0: db4b b5bc 3c2f f7bd 8842 01be ff1b 4dbd
000003e0: d9a6 103d f8e2 9b3d 70c4 b73b 5352 3bbc
000003f0: 9e58 243d a6e4 633c eb97 08be 7a56 c7bd
0.011701441 -0.03713137 0.01673996 -0.09247763 0.036261726 -0.18556891 -0.08255978 -0.044691965
-0.09183636 0.142236 0.12406515 -0.054262333 -0.12305157 0.099855445 -0.07342148 0.022056095
-0.1522221 0.008705165 -0.027760468 -0.045968637 -0.06567048 -0.014297156 -0.074867174 0.0022814341
-0.012647783 0.06037975 0.0068607815 0.014988004 0.024473017 -0.031761874 -0.022008806 0.10637563
-0.028668644 0.14007087 0.005440075 0.11702176 0.09497022 0.09569994 -0.046881028 -0.0031256548
-0.049061645 0.020447042 -0.047592435 -0.1694962 0.023384375 -0.039362136 0.030001445 0.063693635
-0.027915694 0.018315388 -0.12667115 -0.02767926 0.072869495 -0.15478341 0.09018666 -0.039930943
0.00031255418 -0.05312189 0.023950344 0.022735037 -0.11514626 0.06176281 -0.025376089 0.0157766
0.08843346 0.11343597 0.044464782 -0.21756583 -0.14896522 -0.016789729 0.06699168 -0.15464912
-0.11284407 -0.0353533 0.07439815 -0.07457807 0.10123894 0.07055965 -0.09251643 -0.115358464
0.14822146 -0.04859277 0.1579357 -0.004771498 -0.01171705 -0.0008684257 0.044784255 -0.003315621
-0.0050549754 -0.07300369 0.060746513 -0.040826753 0.17248386 -0.027514294 0.040901043 -0.003519521
-0.077921085 -0.021081509 -0.014481639 -0.028664611 0.10444524 0.028439505 0.036335647 -0.17859806
0.06055328 -0.040833566 0.15404598 -0.08069078 -0.07852858 0.020227224 0.10155572 0.111376144
0.087025896 -0.0042335195 0.08188198 0.07728554 0.07774146 -0.018270042 0.00893889 -0.060259756
-0.067988545 0.03842711 -0.064462334 -0.1241104 0.03562029 0.054558862 0.15306392 0.0068414793
0.06327954 -0.29883125 0.004258008 0.10509817 -0.04418202 -0.048457723 0.13443455 0.029188965
-0.006882319 -0.08643381 -0.078567296 0.15547 0.012412303 -0.114320524 -0.25553763 0.05313523
-0.18103084 -0.039951388 0.0944511 -0.071214065 0.14487149 -0.043321755 -0.0040199417 0.011832708
-0.06670208 0.027447674 -0.051152226 -0.121726595 -0.02721379 0.03165217 -0.050371166 -0.14188087
0.02605252 -0.041964084 -0.13147733 -0.14300177 -0.010120262 0.024221314 0.077094324 -0.09128229
-0.123266734 0.1279485 -0.05209758 -0.068636335 -0.118763134 0.010599968 -0.0017617721 -0.01346935
-0.18581213 -0.03936394 -0.06688819 -0.00033918692 -0.1129684 0.011675177 0.07001541 -0.020890493
-0.0025993052 0.07464049 0.050316047 0.09818654 -0.19520831 -0.05155646 -0.056272652 -0.060289476
0.011526877 -0.058949992 0.06194854 -0.0940895 -0.14512499 0.068403095 0.04486814 0.060014885
0.036743794 -0.03545021 -0.023973295 -0.014552139 -0.07146194 -0.06777121 0.03343102 -0.18932746
-0.24129453 0.01997846 -0.062225305 -0.17850682 -0.0019773033 -0.1870283 0.029192092 0.16553047
-0.10482709 -0.022542307 0.11268453 -0.015757492 0.0033968475 0.0646711 -0.00916882 -0.041053183
-0.09465985 0.015397726 0.0066435453 -0.03249156 -0.084745936 0.04700457 0.032444492 -0.009629287
-0.07404018 0.059393853 -0.10630706 0.0069627846 0.1668475 0.065856 -0.049623676 0.13195851
-0.023980664 -0.060201973 0.0736134 -0.09355719 -0.022130897 -0.12069556 -0.12623036 -0.050075527
0.03531537 0.0761165 0.005608134 -0.011433202 0.040123574 0.0139094945 -0.13339202 -0.09733291

network_body._body_endoder.seq_layers.0.bias f4 [256]
00000000: 6f74 d5bc d1c5 f73b 2102 adbc 7355 053d
00000010: 7841 a03c 9d38 493b b0c1 81bc 4459 1e3c
00000020: 025f bdbc 392d 0abd c421 45bd db4d 133d
00000030: 23c3 d33b b1ae 8a3b d7c3 eabb 3f0c 6a3c
00000040: 72bf 0c3c 9cea 6abc 9393 98bc f09c 523b
00000050: 4187 993c fb68 25bb 4e80 a33c b92e ce3c
00000060: fd0b 1a3d c725 2f3c c4b1 97bc 513d 1c3d
00000070: 0cda 06bd 5902 9f3c 312e fb3b 1457 e53b
00000080: 17a2 dd3b 253d 44bc 0d01 903c 3565 d8bb
00000090: b7d9 9fbc 39a2 0dbd 853e 923c 58aa 2a3c
000000a0: ebe6 963c 4002 9d3c dcc5 12bd 12ef df3c
000000b0: b437 88bc 43a6 56bc 8513 8fbc 33e3 ffbc
000000c0: 5725 49bb b3fd 86bb 0c48 e43c 07ee 49bc
000000d0: d9d4 f139 c998 533c a5e2 d3ba 491c 32bc
000000e0: 55c0 0e3b 864e a63c de55 ce3b 5637 09bd
000000f0: f385 1fbc b35a f8ba 4c3f 7dbc b2da 7e3b
00000100: 577e d9bb 2ca6 003c 6279 b7bc 8c47 2b3c
00000110: cc8a 5cbc d44c 0b3c 43f8 3f3c 171a 263c
00000120: 0156 2e3c 2f2f 4dbc c810 ca3b a053 463d
00000130: 016d 9fbc 7e4b 553c e819 97bc 22dd af3b
00000140: aa3b afbc 3bd8 29bd a115 d53c 1d09 91bc
00000150: a1bb 44bb 3b20 88bc 0765 333d c06c 1fbc
00000160: a9cc a13c 8ce5 ca3c bac5 9fbc e363 21bc
00000170: 711d b7bc bacd 3f3b aaa8 12bd 5dd4 0abc
00000180: 8ba2 a03c fb8c 223c dc5c 01bd 7a29 303d
00000190: 55ab 8abc e230 18bd 5805 c23c 4806 9e3c
000001a0: 2a2c efbc 1e5d d9bc be1d 2ebc e70e 70bc
000001b0: 3204 dc3b beed e23c cead 80bc 06f5 49bc
000001c0: a757 b8bc 1801 143c d00a 2dbd 8bda 343d
000001d0: 39dd df3c 82f7 713c bd1b 0fbd fb13 9fbb
000001e0: d23c bdbc 8a20 de3a 0978 cfbc b428 0bbd
000001f0: 0944 233c 1b14 cd3c 3917 e9bc a417 ec3c
00000200: 7544 7ebc 4f9c b43c 9658 72bc 5d01 acbc
00000210: 00fb bd3b 9256 173b 05a0 383d 8d39 903c
00000220: 5e78 ab3b cef6 083d f70c 86bc 80d8 09bd
00000230: 02b9 773b c1ec 383c 5407 48bc bc8b 833c
00000240: 661d fb3c 2a7b eabc 94cd 843c eb30 58bc
00000250: 26f6 e33c aa25 cc3c be5b 263d a9f4 9b3c
00000260: 0ac0 543b c0b6 e93b ac8f 18bc f018 9dbc
00000270: 649f b2bb 1945 f23b d32a e23c d6a4 873b
00000280: a182 b1bc 67a8 8a3b 8b13 703c eb5f 22bc
00000290: 274a 58bc f9a9 a33c 7aff 40bd 802e 86bb
000002a0: 95aa b03c 4d15 e23c 78b9 083c b7ed f7bc
000002b0: 8701 d33c b666 73ba fc1c debc 015d 60bb
000002c0: f46a 98bc 37b4 013d 4049 1abd 8a44 3abc
000002d0: 967f e33c 5d05 563c 1338 633c 1580 7c3c
000002e0: 5e51 6a3a 8f54 113d af94 04bd f066 503d
000002f0: 814e 163c 93a0 e63c c2db 46bc e8ff 9939
00000300: f8f7 a13c e03d a9bc 8bd0 87bc c0ec a13b
00000310: 68f2 13bd b9ea 3b3d 1177 dc3b 44ac 183d
00000320: b255 783c fcd6 363d 7500 b43c 38a2 143d
00000330: 0c24 1ebd 93bd 523d 7c1c b7bc 2d1f 70bc
00000340: 7305 9f3c 2d54 5c3c 2659 bebc 86da 76bc
00000350: df40 203c dc0e cbbc 7400 10bd f4d2 f7bc
00000360: ffe9 dd3c a01d 2eba 9174 04bd b27b febb
00000370: a42e 0ebc d0fb 3b3b 227b 8c3c f0ca 483c
00000380: a3cd 61bc 38c6 4dbc 546f 06bd 7d00 dcbb
00000390: dd33 89bb d5ec d93c c357 e23b 72b5 3abc
000003a0: 5536 8dba 0c58 bd3b f50a b03b efdd c0bb
000003b0: 18f8 e0bb 638b c43c 8141 98bc c927 363c
000003c0: 3181 e83c 2eee 8b3c 968c 6f3c bcef 073b
000003d0: b93a e239 6cce 23bc f8dc 33bd f270 113d
000003e0: f1a9 fd3b 8cfe 943c 0dc0 a43c 2d84 03bb
000003f0: c4c4 2cbd 0cd8 8dbc eab1 29bc acff ff3c
-0.026056496 0.0075614234 -0.02111918 0.032552194 0.019562468 0.003070391 -0.015839428 0.009664837
-0.023116592 -0.033734534 -0.048127905 0.03596292 0.006462471 0.0042322506 -0.007164459 0.014285146
0.008590566 -0.014338162 -0.018625056 0.0032137 0.018741252 -0.0025239575 0.019958641 0.025168763
0.03760909 0.010690159 -0.018517382 0.038144413 -0.03292279 0.0194103 0.0076654186 0.006998906
0.0067637074 -0.011977469 0.017578626 -0.0066038617 -0.019512994 -0.034578536 0.017852077 0.01041659
0.018420657 0.019166112 -0.035833225 0.027335677 -0.016628124 -0.013101163 -0.017465362 -0.031236267
-0.0030692422 -0.004119599 0.027866386 -0.012324817 0.00046125686 0.012914845 -0.0016165568 -0.0108710015
0.002178212 0.020301115 0.0062968573 -0.033500038 -0.009736526 -0.0018947929 -0.015456986 0.0038887677
-0.0066373753 0.007852118 -0.022396747 0.01045407 -0.013460826 0.008502204 0.011716905 0.010138056
0.010640622 -0.0125234565 0.0061665513 0.048419595 -0.019461157 0.013018487 -0.01844497 0.0053669373
-0.021390755 -0.04146598 0.02601129 -0.01770454 -0.0030019062 -0.016616931 0.04379752 -0.009730518
0.01975091 0.02476766 -0.019503463 -0.009850475 -0.022352906 0.002926691 -0.03580538 -0.008473483
0.019608757 0.009921308 -0.0315827 0.043008305 -0.0169274 -0.037155993 0.023684189 0.019290105
-0.029195864 -0.02653366 -0.010627208 -0.0146519905 0.0067143673 0.027701255 -0.015707877 -0.012326485
-0.022502733 0.009033464 -0.04224664 0.04415373 0.027327167 0.014768483 -0.034938563 -0.004854677
-0.02310029 0.0016946953 -0.025325792 -0.033974364 0.009964951 0.025034001 -0.028453456 0.028819866
-0.015519251 0.02204719 -0.014791628 -0.020996744 0.005797744 0.0023092371 0.04507448 0.017605567
0.0052328547 0.033438496 -0.016363604 -0.033653736 0.0037799482 0.011286915 -0.012208778 0.016057841
0.030653667 -0.028623182 0.016211309 -0.013195257 0.027827334 0.024920303 0.040614836 0.019037561
0.0032463097 0.007132381 -0.009311598 -0.01917693 -0.0054511297 0.007393491 0.02760831 0.004139523
-0.021668734 0.004231501 0.014653097 -0.009910564 -0.013201273 0.01997851 -0.04711864 -0.0040948987
0.021565715 0.027598048 0.008345 -0.030264718 0.025757564 -0.00092850195 -0.02711343 -0.0034235122
-0.018605687 0.031666007 -0.037667513 -0.01136888 0.027770799 0.013062802 0.01386835 0.0154113965
0.0008938516 0.035481032 -0.03236836 0.05087942 0.00917399 0.02815274 -0.012137355 0.000293731
0.019771561 -0.020659387 -0.016578933 0.004941553 -0.03611985 0.045878146 0.006728061 0.03727366
0.01515715 0.04463862 0.021972874 0.036287516 -0.038608596 0.051450323 -0.02235245 -0.01465587
0.019411778 0.013447803 -0.023235869 -0.0150667485 0.0097810915 -0.024787359 -0.035156682 -0.030251957
0.027089117 -0.0006641988 -0.03233773 -0.0077662105 -0.008678112 0.0028684027 0.017148558 0.012255415
-0.013781938 -0.012559466 -0.032821015 -0.0067139254 -0.004187091 0.026602188 0.0069074347 -0.011395799
-0.0010773638 0.0057783183 0.0053724 -0.0058858315 -0.0068655126 0.023992246 -0.018585922 0.011117884
0.028381916 0.017081346 0.014620921 0.0020742258 0.0004314983 -0.009997945 -0.043911904 0.035508104
0.007741206 0.018187784 0.020111108 -0.0020067797 -0.042179838 -0.017314933 -0.010357359 0.031249844

network_body._body_endoder.seq_layers.2.weight f4 [256, 256]
00000000: f4d7 26bd a23a a23d b5a8 9ebd 4d77 c8bc
00000010: c8f9 0bbe 7584 88bd 8c04 713d dcba 98bd
00000020: eb64 cbbd dcaa d3bd 7e07 05be f90d 90bd
00000030: 1e2f 1dbe b55c e23d b35a 7ebc 908b 76bd
00000040: 15c5 083e dc5e 17be 22cb 8cbd 1ff6 823d
00000050: 8f12 77bc 0e1a 9f3c 0e19 583c ea8e 94bd
00000060: 9f8c 8e3d fe71 0f3e e624 01bd 894e 36bc
00000070: be41 703d 81a2 6c3a d589 1abd fa68 0dbd
00000080: e3ce ee3b 03fb 9abc 3faf 90bb 4ee9 f1bc
00000090: 7176 a63a 118e a8bd b098 aa3c 0a5f 213d
000000a0: 5350 cb3d f461 043e ae8f abbd e687 6ebc
000000b0: 13db 29be cf84 e13d 7f42 81bd 8df4 c6bd
000000c0: f95f 953d d9c2 883d 3333 94bc 08aa 23bc
000000d0: c6c0 953b 59b0 75bd 092b 43be ad22 d6bd
000000e0: e54d 9bbd fe5b 263e 8b23 1fbd e8d0 82bd
000000f0: aa85 cebd d99a 133c 3e4e 35bd a42e 09be
00000100: 39af ba3d 2a42 ed3c 54f7 e3bc f37a 7dbd
00000110: cc14 5bbd 1c3e aabd 9778 81bd 6fe9 05bd
00000120: 2ab7 1fbe 38df 4ebd 961b 2a3d 3f28 a8bc
00000130: 857f 3f3e b13d 923d f527 aa3a 439d be3b
00000140: 7e9c e8bc 7cfc 483c 396c 123d 2492 053d
00000150: a407 133e f610 26bd 3705 c63c e5a8 6b3d
00000160: 6c3c b7bd 9886 95bd 4ff6 a83c f69f 8e3c
00000170: 7fc3 cabd 2127 91bb 42be 35bd 0234 543d
00000180: 3ea2 ac3d cd67 59bc 9ae9 223c 8316 e03c
00000190: 6bbd 17bd 5eba a63d 5e41 963d a32f f53d
000001a0: cbe0 fbbc ae72 f23d 13d3 e6bc 322a 01be
000001b0: 912c d5bb 9372 f13d 750a 9fbd 15c9 a63d
000001c0: c882 0abe 915c a03b 6cac bd3c 8ce4 11bd
000001d0: 500d 723d 062f 8d3c c3d8 2ebd db46 24bd
000001e0: b947 5c3d f7ca 593d b024 a53b 711a 22be
000001f0: ab84 bfbd 8659 20bc d615 f8bd 8e18 fd3d
00000200: a600 58bd dcb6 d0bc c535 173d 6c97 55be
00000210: c9d8 bcbd 91be 943d e194 85bb 07d3 5d3d
00000220: 45cc c13d 61e6 af3d d146 03bd 6237 6cbc
00000230: b87b eeba c877 5f3d 1e41 fbbc c692 e6ba
00000240: 0f71 1dbd 1d56 3c3d 3f2d e23c 653c 28b9
00000250: b929 84bd 47f0 7b3d 2ec0 8cbc c749 a8bc
00000260: bb2e 673c ffbd 0ebe ae6b 40bd cb29 4e3d
00000270: 4806 a4bd 3b6a 1c3e 9ab2 20bd 2d4f 813b
00000280: dc70 67bd 713f 0e3b 8b00 8ebc 6cdc 89bd
00000290: d080 623d 25f4 f83d 997f e2bc be79 9e3d
000002a0: 1cb6 07be 3700 81bd d23f cb3d a070 8dbd
000002b0: 6547 e83d e35e c8ba 4160 123c 19dc e2bc
000002c0: 936b 033d a082 a0bd 75f7 2fbd 495b 6d3d
000002d0: e6cb c83d f492 e6bd 15ea 9abc 34b0 c63d
000002e0: f9fc cd3b 5209 213d e931 6cbc 1a3b 723d
000002f0: efd8 b23d 4eb0 ef3d 041e a03d 1720 adbd
00000300: 1ece 2ebe b7a0 4c3c 88d6 963c e9d8 813d
00000310: 105b 16bd 1830 9e3a 269c f2bc b403 28bd
00000320: 8518 a3bd a4cd 90bc c798 c03d 4312 c83d
00000330: 9017 89bd 65a7 413d 8160 053c 6bee ac3a
00000340: b37d 023d 196f 7d3d 486a 413d 1e68 cebd
00000350: 6a14 79bd 94f8 ac3d dcf4 013d 4fb1 f5bd
00000360: 4139 74bc dc5b b5bd a6b1 983c 773e 6fbd
00000370: eb22 14bd 8fa5 8d3d 13d2 dc3d f495 a53d
00000380: eeac 8bbd 33df da3b 9fda 19bc 6ad2 873d
00000390: 0449 1a3e 6e89 4a3e 293a af3d 9e17 3c3d
000003a0: 66e3 07bd f123 c53d e39c 0b3e ebb3 6abd
000003b0: 6467 0fbe 2a27 a5bd 7531 df3d c1d7 06bd
000003c0: fd12 0a3e 9171 61bd 1ea7 463e 85ce 903b
000003d0: 96e9 333c 87f9 813b a704 6f3d a4ba 08bd
000003e0: ef9a a9bb 8c45 0bbe dc83 e73d 5c73 26bc
000003f0: 92af f63d 1bad 58bd 409c a6bd e74b 083c
-0.040733293 0.079213396 -0.07747022 -0.02447095 -0.13669503 -0.06665889 0.058842227 -0.074575156
-0.09931358 -0.10335323 -0.1299114 -0.07033915 -0.15350005 0.11052839 -0.015524554 -0.06019169
0.13356431 -0.1478228 -0.06874682 0.063946 -0.015080108 0.019421604 0.013189567 -0.07253821
0.06960415 0.14008328 -0.03152933 -0.011127123 0.058656447 0.00090269005 -0.037729103 -0.03452394
0.0072878464 -0.01891852 -0.004415422 -0.029530194 0.0012700093 -0.08230222 0.02082476 0.039397277
0.0992743 0.12927991 -0.08377014 -0.014558768 -0.16587476 0.11011659 -0.06311511 -0.09714613
0.07293696 0.06677789 -0.01809082 -0.009989269 0.0045700995 -0.05998263 -0.19059385 -0.10455833
-0.075832166 0.1624603 -0.038852256 -0.06387502 -0.10084088 0.0090090865 -0.04426407 -0.13396698
0.09115452 0.028962214 -0.027827896 -0.06188483 -0.05348663 -0.08312628 -0.06321829 -0.032693323
-0.15597215 -0.050505847 0.041530214 -0.020527003 0.18700989 0.07140673 0.0012981879 0.005817087
-0.028394934 0.012267228 0.03574774 0.032610074 0.14358383 -0.04054352 0.024172409 0.057534117
-0.089470714 -0.07301062 0.020625262 0.01741026 -0.09900569 -0.0044297134 -0.044370897 0.05180741
0.08429383 -0.013269377 0.00994339 0.027354484 -0.037045877 0.081410155 0.073366866 0.119719766
-0.030746838 0.1183828 -0.02817682 -0.12613752 -0.006505557 0.117894314 -0.077656664 0.08143822
-0.13526452 0.0048938473 0.023153506 -0.03561835 0.059094727 0.017234337 -0.04268719 -0.040106636
0.053779338 0.053172078 0.005039774 -0.15830399 -0.09351476 -0.009786969 -0.1211354 0.12358199
-0.052734993 -0.02547782 0.036916513 -0.20858544 -0.09221036 0.0726291 -0.0040765856 0.05415633
0.094627894 0.08588863 -0.032049958 -0.014417501 -0.001819483 0.05455759 -0.030670699 -0.0017591349
-0.0384379 0.04598056 0.027609466 -0.00016044227 -0.064532705 0.061508443 -0.017181482 -0.020542992
0.0141102625 -0.13939665 -0.04697769 0.050332826 -0.080090106 0.15274899 -0.039232828 0.003946206
-0.056504115 0.0021705294 -0.017334243 -0.06731495 0.055298626 0.12155942 -0.027648734 0.07738064
-0.13253063 -0.06298869 0.09924282 -0.06906247 0.113417424 -0.0015287068 0.0089340815 -0.027692841
0.032085013 -0.07837415 -0.042960603 0.057948384 0.098045155 -0.11258498 -0.018910447 0.09701577
0.00628626 0.03931553 -0.014416196 0.059138395 0.08732783 0.11703549 0.07818225 -0.08453386
-0.17070815 0.012489489 0.018412843 0.063402005 -0.036707938 0.0012068776 -0.029615473 -0.041019157
-0.07963661 -0.017676182 0.0940414 0.09769108 -0.06693947 0.04727878 0.008140684 0.0013193613
0.031858157 0.06187353 0.0472205 -0.100784525 -0.060810484 0.0844585 0.031727657 -0.119967096
-0.0149062285 -0.088554114 0.018639397 -0.05840918 -0.036166113 0.069163434 0.10782256 0.08085242
-0.06820093 0.0066794395 -0.009390502 0.0663193 0.15066916 0.19778988 0.08556015 0.04592096
-0.03317585 0.09625996 0.13634066 -0.05730049 -0.14004284 -0.080641106 0.10898105 -0.032920603
0.13483806 -0.055039946 0.19399688 0.0044191503 0.010980984 0.0039665136 0.058354046 -0.03338112
-0.00517594 -0.13600749 0.11304447 -0.01015934 0.12045206 -0.05289946 -0.08135271 0.008318878
