results/PushBlockCollab_POCA_RND/PushBlockCollab/PushBlockCollab-3499936.onnx (onnx, 643240 bytes, 12 tensors)

network_body.observation_encoder.processors.0.conv_layers.0.weight f4 [16, 6, 8, 8]
00000000: 8988 fc3c d4d8 62bc f364 bdbc faa6 e8bd
00000010: 73d7 53bd 6427 48bd 8e70 d4bb 7869 db3b
00000020: b796 a93d 012a 793d 586a 453b 429b aabd
00000030: 7b94 c4bd 625b 16bd 5534 a6ba 3f5f 983d
00000040: c19d 3d3d ef53 cb3c b9d7 8abd 6c8c 6dbd
00000050: 2f9c cd3c 2152 55bd 5db3 fd3c fec4 3b3b
00000060: 5e2b 963d f1ed f3bc 91e2 f0bc 11a1 0abd
00000070: 02e2 1c3c 7442 b2bd 8d7c 26bc a065 4d3d
00000080: dc7a 983c 06eb d9bb 2e7e c8bc 6034 dbbc
00000090: a11f ad3c 4488 dfbc d35b 843c 04fb dcbc
000000a0: 0aff 0f3d 6596 23bc 7469 9e3d f09a 2f3d
000000b0: 3106 2abd 6a7d db3b 4a5b 2b3c 1bb0 4a3d
000000c0: dbaf 5d3d f2b1 c03d 5247 303d 9f15 d83d
000000d0: 6f9c f5bc 43f5 193d 7fe0 8e3c 952d 86bc
000000e0: 4c19 e63c d5e8 b13c 0eff 0f3d 50b2 623d
000000f0: b21f 30bd 3739 a1bd 95f2 dbbc b8f5 0abd
00000100: 9d18 87bd 8076 bc3d 2ad7 8d3d c208 543d
00000110: 5e69 313d 3431 e33c a2eb 7f3d b9a3 a43c
00000120: 7ee5 1dbd e825 c239 9439 693d a8f5 313d
00000130: a542 9abc ffd6 c13d 2ee9 963c 21dd 363d
00000140: 22fc 94bd 11d1 bdbc 73e3 063c a001 b23c
00000150: 2134 4cbb 4599 033d 1dd4 873d 1d0f 3c3c
00000160: 399b 8dbc 85ed afbb de42 963c 7f32 8f3d
00000170: 20ac e0bc dbbd 113d 3623 26bd 980f 03be
00000180: b3be 02bd 1861 403d 25e2 473d 1f6d a2bc
00000190: 01d8 6dbd 5e72 35bd 749b 9f3d 6019 643d
000001a0: 28e4 e83c 2d45 50bd f585 0cbd ba11 5abd
000001b0: f57f a7bd 6d57 92bc b82f 823b cf45 26bc
000001c0: a183 9bbd 54a4 ea3d 00b6 f13d 9f93 1b3d
000001d0: 8864 18bd 819d 64bd db48 bebc e7fd 9f3d
000001e0: 8cbc ecbc 08a2 d2bb 645e 343d a714 f43c
000001f0: 8675 ab3d 1269 73bc 6e00 423b e9f5 b93d
00000200: e95f 2bbb 6b4e 18bc 274d b13c 5534 493d
00000210: a64f 5b3d e334 c4bc 9a48 1e3b e65d 573c
00000220: bf20 07bd c3a2 12bc 5814 a93c 3dc0 af3c
00000230: c87e 8a3d dbd3 3b3d 8839 2dbd ad21 53bc
00000240: afdc 38bd 4079 363d 66da a83d 2147 373d
00000250: be5d a83c 30b8 9d3b f7f4 6f3d 7a7c 23bc
00000260: 704d be3b b40c 4f3c 2a4d 033d 41b4 a03d
00000270: 5e1f 2c3d 68a4 083d e475 ce3c 076a d0bc
00000280: 4fb5 f63c 8e8f 223c 1193 be3c 889f 0f3d
00000290: 0b44 803d c0ba 103d 36d8 2c3d d532 453c
000002a0: 162c 283c e516 7ebb 38de 8a3d 6d80 35bd
000002b0: 6f0e 02bd 4b3b 223d 7a34 e9bc e1cb b83c
000002c0: f9c9 1a3d d9ed 80bd 07e4 49bd 0f64 373d
000002d0: bbf0 143c 7643 bf3c 8a9f a0bc 9d16 3a3c
000002e0: 1d27 6bbc 8381 26bb 22e5 873d f9be 573c
000002f0: ad57 573a 7c01 353d 1129 15bc 15bc 393d
00000300: d207 a6bd dad9 40bd c39c 543b 798b 2d3c
00000310: ab20 253c cfcb bdbc ed4f 1b3d 3c82 5a3d
00000320: 8c8b c83c 70b0 5cbc 924f 71bd 4888 2d3b
00000330: 2101 033c d720 41bd 9a2b ce3c ce8e 213d
00000340: 2716 a73d d344 d03d e52c 083d d427 d8bc
00000350: 9dc3 2a3d 0c9c e03c e091 28bd 0585 f83c
00000360: 4642 fb3d 7c41 2ebd 922b cdbc 758a 593d
00000370: 1b91 ef3d 3723 c43c db1b 3abc 6368 643d
00000380: 2a9e a13d f258 883b 9284 353d e721 a43d
00000390: ae86 953d 3ec9 453d d8b6 3c3d 91e3 0d3c
000003a0: 9c1d 013d c6fd 273d 36c9 1f3d 1384 053e
000003b0: cf2c d43d a991 0e3d 855a c3bc c8da e13c
000003c0: 18f5 1d3e ecbe 1f3d a6eb de3b 3410 f93d
000003d0: 2a58 a93d 149c b7bc ae4e 03bd 0efb 9cbd
000003e0: e008 373e 147b d93c c3e9 6c3c 6af1 b53d
000003f0: e5e2 bc3d 65bc 463d 3ad5 bd3c af17 c2bd
0.030826824 -0.013845641 -0.023119425 -0.11359973 -0.05171914 -0.04886569 -0.006483144 0.0066959225
0.082807 0.060831074 0.00301232 -0.08330394 -0.09598633 -0.036708243 -0.0012680391 0.07440042
0.046293024 0.024820296 -0.06779427 -0.057995245 0.025098888 -0.052080277 0.030969316 0.0028651352
0.073324904 -0.029776545 -0.02940491 -0.03384501 0.009575369 -0.08704081 -0.010161531 0.050145745
0.018613271 -0.0066503314 -0.02447423 -0.026758373 0.021133246 -0.027286656 0.016157066 -0.026975162
0.035155334 -0.009984587 0.07734957 0.04287237 -0.04150981 0.0066983 0.010458777 0.049484354
0.054122787 0.094089404 0.043036766 0.10550999 -0.02998182 0.037587415 0.017441032 -0.016379157
0.028088234 0.021717468 0.03515535 0.055345833 -0.042998977 -0.07872241 -0.02684907 -0.033925742
-0.065964915 0.092022896 0.06925805 0.051766165 0.043313377 0.027733423 0.062480576 0.0200976
-0.03854894 0.00037030806 0.056939676 0.043447167 -0.018830607 0.094648354 0.018421736 0.04464448
-0.07274653 -0.02317098 0.008232939 0.02172929 -0.0031159 0.03212859 0.06632254 0.011478213
-0.01728593 -0.0053688907 0.018342432 0.06992053 -0.027425826 0.03558145 -0.040560924 -0.12798917
-0.031920146 0.046967596 0.048799653 -0.019827424 -0.058067326 -0.044298522 0.07793322 0.055688262
0.028429106 -0.05084722 -0.03430744 -0.05323956 -0.08178703 -0.017863953 0.0039729737 -0.01014848
-0.075934656 0.11457124 0.11802292 0.03798258 -0.03720525 -0.05581427 -0.0232281 0.078121
-0.0288985 -0.006428007 0.04403533 0.029795004 0.08372025 -0.014856594 0.0029602307 0.09080107
-0.0026149696 -0.00929604 0.021643234 0.049122173 0.053542756 -0.023951 0.002415216 0.013144946
-0.032990213 -0.008949938 0.020639583 0.021453971 0.06762463 0.045856338 -0.042291194 -0.012886447
-0.045132335 0.044549227 0.08244781 0.04474557 0.020552512 0.0048132166 0.058583226 -0.009978408
0.005807571 0.012637306 0.03205601 0.07846881 0.0420221 0.033359915 0.025202699 -0.025441183
0.030115752 0.009921921 0.023263486 0.03506425 0.06262978 0.03533435 0.042198382 0.012036045
0.010264417 -0.003877097 0.06780666 -0.04431193 -0.031752046 0.039607327 -0.028467406 0.022558155
0.037790272 -0.06295366 -0.04928973 0.044773158 0.009090598 0.023347598 -0.019607324 0.0113579305
-0.014352587 -0.0025406785 0.066355005 0.01316809 0.0008214664 0.04419087 -0.009104029 0.045345385
-0.0810696 -0.04708276 0.003244207 0.010592335 0.010078589 -0.023168473 0.03791802 0.053346857
0.024480604 -0.0134698 -0.058913775 0.0026478935 0.007995875 -0.04715046 0.025167275 0.03944283
0.08158522 0.10169377 0.03324594 -0.026386179 0.041690458 0.027418159 -0.041154742 0.030336866
0.122685 -0.04254292 -0.02504519 0.05311056 0.116975985 0.023942573 -0.01135918 0.055763613
0.078914955 0.0041609937 0.044315882 0.08014279 0.07301079 0.048287623 0.04607281 0.008660213
0.03152238 0.0410135 0.03901025 0.13038664 0.10360109 0.03480688 -0.023846874 0.027570143
0.15425527 0.039000437 0.006802994 0.121612936 0.08268769 -0.022413291 -0.032057457 -0.076650724
0.1787448 0.026547946 0.01446003 0.08883937 0.09222964 0.04851951 0.023172963 -0.094771735

network_body.observation_encoder.processors.0.conv_layers.0.bias f4 [16]
00000000: 6426 aabb 76e9 1c3d 9da5 41bd a0be 0b3d
00000010: b66b 8fbc e85f fdbb a74b bcbc 77fb ea3c
00000020: 92e7 07bc 9a4f 0bbd 3763 fdbb 84a4 a63b
00000030: a796 56b9 8603 723c 69ea 193d 1f5d 103c
-0.005192565 0.038308583 -0.04727708 0.03411734 -0.017507415 -0.00773238 -0.022985293 0.02868436
-0.008294957 -0.03401146 -0.0077327746 0.0050855298 -0.00020464753 0.014771348 0.037577067 0.008811264

network_body.observation_encoder.processors.0.conv_layers.2.weight f4 [32, 16, 4, 4]
00000000: 52ca 08bd 97c2 13be 9576 263c 5441 223d
00000010: d302 233d fd2a f4bd bce1 aa3c 8851 6c3d
00000020: 4ca3 0dbd 89b4 cfbb acb6 a43d 6442 4d3d
00000030: b1fb 54bd 2df6 8f3d eef5 e13d dcc6 343c
00000040: cf45 b4bc a7ef 2abd 1b9a 703d 043d 4cbd
00000050: e1e4 a13d 8215 44bd 00f8 f73c 6133 fcbb
00000060: 9864 6dba df3a 0a3c 2a2a 1b3c 01c5 803c
00000070: 451d b53d 0626 7d3d c530 cbbc 4e41 a53c
00000080: b822 093c 1bb9 e6bc 6ade 893d bad3 4a3d
00000090: a75f f53c 3f12 bdbd 7fb2 863d b053 723d
000000a0: bca7 563c 895f 913d 09c5 903d a945 43bc
000000b0: 0aaa 8bbc 14c6 563d 2a80 003d 6155 fc3c
000000c0: 1c6d c2bd 812a 133d 0a61 c03d 64e9 fabc
000000d0: e0f9 553d 243a 5eba add4 993d 32a5 553d
000000e0: fef6 f1bc 666d db3d e403 b03d d88d 65bd
000000f0: a12f 963c 9d08 db3d 9d16 b53c 29c9 983d
00000100: f353 48bd d6ec 37bb 242f c03d c91d ce3c
00000110: de87 0d3b f663 0dbc ce10 cc3c 8aa8 8abc
00000120: 21ec 9f3d 6f87 3cbd b637 443d 23ad 973d
00000130: d822 8fbd 9e7d 043d deca 833d d3ac 893c
00000140: ff86 c73c 5ca7 ca3b 232a b93d 7238 5fbd
00000150: 3f83 48bd f29a 11bb 2a84 53bc 00ad 173c
00000160: 1549 dcbd fdad 11bd a897 d43b 4704 cbbd
00000170: d933 c83c b850 e23d 92df 083c 99a1 9db9
00000180: 2ed8 7e3c 62d7 e4bb 4827 e63c b299 953c
00000190: 5308 93bc 6fb5 10bd 847e 0b3c 039b 3abc
000001a0: 3100 053d 00e1 9fbb 4a4f 733d 9844 433b
000001b0: 1c5a 253d 8f64 883d 275a c43d c4eb 2b3d
000001c0: 3f98 8e3d f292 4f3c 2f17 353c b592 6f3d
000001d0: 4c4c ea3c e1dc 48bd 3636 f43d 8fa5 963d
000001e0: 693e 983d cd65 d3bc b72c 413d 80d6 e03d
000001f0: 0e3c 5fbc 41f6 393a fe58 5d3d 085d 9fbd
00000200: 5789 a5bc b15e 4b3c 0f89 833d 099d d63b
00000210: a45a babb 83dc c9bd 6d33 b73b 1586 d3bd
00000220: f5ae 293d 429b 8cba 91f1 fc3b fc09 f13c
00000230: 92ae 863c b338 df3b 3756 d53d d9ac 78bd
00000240: 965d 8bbd 469e 8b3c fa82 7c3c c17a 65bb
00000250: 1580 45bd d7e1 2e3d f6df 223e 9e3b a33d
00000260: 6822 d23d 61a8 3d3d 08fd b73d b71c e43d
00000270: 8048 2e3d 5f52 593d 04c3 9d3d d9de 383c
00000280: a862 dfbc 048e a7bd 0aaa 02bd 6db4 9b3d
00000290: d760 1dbb d1ca 23bc 5dfc 783d 7d1d 883d
000002a0: 1479 9e3c 9a6d 2abd c5f8 753d 7cf7 c23c
000002b0: f3f8 43bd 9aa1 1c3d a94f 233d 60af bf3d
000002c0: cec1 c3bd 031e bfbd bff4 e2bb 2d62 8b3d
000002d0: 8692 00bd b26c ebbb d836 25bd 69b9 9dbc
000002e0: 7536 803d f581 c93d a932 7fbd c5a0 88bd
000002f0: aff7 f4bc 7f70 34bc 69e1 803d 5d23 483d
00000300: a6a0 36bd edf1 88bc 7440 f7bc ad08 2fbd
00000310: 0444 8bbd 3972 a2bd 0ca9 e33c 6e69 3c3d
00000320: 1a0f acbc 7b86 b43c bbf1 d33c 04c3 04bc
00000330: 1536 143d 8351 033c e5f5 593d 1215 3abd
00000340: 218c 89bd deec 2e3d 826a 1e3d 2f10 493d
00000350: edea 823b 4b6e 4c3d 3dd5 f73b 26a6 3b3c
00000360: 067a 823a 43be b23c c83d 033c e24e e43d
00000370: a9bb 4bba 7d53 3a3c a3c6 f93c 682e 743c
00000380: 349c 36bc 3668 38bd fa70 433d 1de0 a73d
00000390: 2288 d7bc d1a0 4c3d 638e 603d d6fe 493d
000003a0: f5fa be3c 790d 913d a224 dd3d cb0b d23c
000003b0: 9c3c 32bd 38cb 4f3c 0277 03bb 50ab 4e3d
000003c0: e7f3 57bd c8e8 27b9 5ee9 03bd 79b9 68bc
000003d0: 285a e2bc 6059 adbd 5063 c43b 119c 873c
000003e0: 273e f13b 1df1 1b3c 018c 8f3c 1217 58bd
000003f0: 5898 51bd be93 5ebd ba14 1a3d a1bf 943d
-0.033396073 -0.14429699 0.010160108 0.039613083 0.039797615 -0.11922262 0.020859592 0.05769494
-0.03457956 -0.00633866 0.080426544 0.050112143 -0.051997844 0.07029376 0.110332355 0.01103374
-0.022005944 -0.041732457 0.058740716 -0.049862877 0.07904983 -0.047872074 0.030269623 -0.0076965545
-0.0009055822 0.0084368875 0.009470502 0.015718939 0.08843473 0.06180384 -0.024803529 0.020172741
0.008370094 -0.028164437 0.06731875 0.049518324 0.029952837 -0.09231996 0.06577014 0.059161842
0.013101514 0.070983 0.070688315 -0.011918464 -0.017048854 0.052434996 0.031372227 0.03080243
-0.09493467 0.035929207 0.09393509 -0.030628867 0.052240252 -0.00084772916 0.07511268 0.052159496
-0.02953672 0.107142255 0.08594492 -0.056043476 0.018333258 0.10695002 0.02210551 0.07460243
-0.048908185 -0.002806475 0.09383991 0.025160687 0.0021595876 -0.00862979 0.024910357 -0.016926069
0.0780871 -0.046027597 0.047904693 0.0740607 -0.06989068 0.03234636 0.06435178 0.016806042
0.024356363 0.0061845016 0.0904124 -0.05449719 -0.04895329 -0.0022217599 -0.012909928 0.009257555
-0.10756127 -0.03556632 0.0064878054 -0.09912925 0.024438785 0.11050552 0.008354085 -0.00030065773
0.015554471 -0.0069836834 0.028094903 0.018261764 -0.017948305 -0.03532928 0.00851405 -0.011389497
0.032470886 -0.004879117 0.059401788 0.0029795524 0.040369138 0.06659805 0.09587508 0.04197289
0.069626324 0.012669312 0.011052891 0.05848952 0.028600834 -0.04903877 0.119244024 0.073557965
0.07433779 -0.025805378 0.047161784 0.10978413 -0.013625158 0.00070938846 0.054039948 -0.07781416
-0.02020709 0.012412713 0.06422626 0.006549482 -0.0056870747 -0.098565124 0.005590847 -0.103283085
0.041426618 -0.0010727423 0.0077192266 0.029423706 0.016440663 0.006812179 0.10416835 -0.060711715
-0.068049595 0.017043244 0.015412087 -0.0035015794 -0.04821785 0.042695846 0.15905747 0.079703555
0.10260469 0.046303157 0.08983809 0.111382894 0.04254961 0.05305707 0.07703212 0.0112836
-0.027268723 -0.08181384 -0.031900443 0.07602773 -0.002401402 -0.009997086 0.060787547 0.066462494
0.019344844 -0.04160843 0.0600517 0.02379965 -0.04784484 0.038240053 0.03987089 0.09359622
-0.0955845 -0.09331896 -0.0069261487 0.06805835 -0.031389736 -0.0071845884 -0.040335506 -0.01925345
0.06260387 0.098392405 -0.062304173 -0.06671289 -0.029903261 -0.011013149 0.062929936 0.04886185
-0.0445868 -0.016716922 -0.0301821 -0.042732883 -0.06800082 -0.079319425 0.027790569 0.045998983
-0.021003295 0.022036782 0.025872102 -0.008103136 0.03618439 0.008015039 0.05321302 -0.04543025
-0.067161806 0.042706363 0.038675793 0.0490877 0.0039952905 0.04990987 0.007563262 0.011453187
0.0009954579 0.02181924 0.008010335 0.11147858 -0.0007771799 0.011372444 0.030490225 0.014903642
-0.01114564 -0.04502126 0.047715165 0.08197043 -0.02631003 0.049958054 0.05482329 0.049315296
0.023313025 0.07082648 0.10798003 0.025640389 -0.043514833 0.0126827285 -0.0020059948 0.050456345
-0.052722838 -0.00016013079 -0.03220498 -0.014204376 -0.02763088 -0.084643126 0.0059932843 0.01655391
0.0073621455 0.009517935 0.017522814 -0.052756377 -0.051170677 -0.054340117 0.037617423 0.07263113

network_body.observation_encoder.processors.0.conv_layers.2.bias f4 [32]
00000000: 24ab 03bc ae60 cfbc 2e33 b13c 0af1 1abd
00000010: 7a07 96bd 5d02 093d 69b2 793d b0ad 06bd
00000020: 0d1e 953d 8bfa e53c 763f 28bd 2666 64bd
00000030: 4038 02bd fa2b 10bd 47fd a43c 07b5 973d
00000040: cbad 6abd 8fd3 873d b79e 2abd aaee 303d
00000050: 84dc 6e3c 7c98 6fbd 17e1 06bc 1d95 0abd
00000060: 973d 1a3d ccf8 1bbd 45b4 80bd a2af a2bd
00000070: ed13 383d 82de 8e3c 0c04 623d 3073 71bc
-0.008036409 -0.025314655 0.02163085 -0.03782753 -0.07325645 0.03344952 0.06096116 -0.032880485
0.07281122 0.02807357 -0.041076146 -0.05576148 -0.031791925 -0.03519819 0.020140303 0.07407575
-0.05729465 0.066321485 -0.04165527 0.043196358 0.014578942 -0.05849503 -0.008232377 -0.03383361
0.037656393 -0.038079068 -0.06284384 -0.079436556 0.044940878 0.017440084 0.05517964 -0.0147369355

network_body.observation_encoder.processors.0.dense.0.weight f4 [256, 32]
00000000: 826f 3a3e 27d2 8c3e ca3f b63d 6a66 153e
00000010: 56b8 a2be 5a59 b3be 2052 c63e 3892 c6be
00000020: fa11 ac3d e83f d33e 801f dd3e a6a5 803e
00000030: 15d1 eabe f8a0 273d 6d00 bbbd 889e 843e
00000040: 2250 a03d 070b 20be fc58 aa3d 3435 c9be
00000050: 5251 92be c5cb bdbe 1e60 f1bd 2224 bf3d
00000060: 2b2e d13e 9b1f 5fbd 0a50 9cbe 0c33 753e
00000070: ac80 6c3e fb38 df3c 7e5d a6be 0b86 d4bd
00000080: b6a7 e8bd 9663 3d3e 6e89 84be 058a 53be
00000090: 8732 3fbf 0b8a 433d 1add 153e d57e c03d
000000a0: b6a7 51be 0cd2 093f 7b2f 33be 5702 4ebe
000000b0: e3bf d43e 0aad a2bd e6fa ae3e 2069 783d
000000c0: 25d2 803e 70c9 a43e 3af7 bfbe 75d0 ebbe
000000d0: f37a ac3d 642e 933e 9015 c03e 32f7 24be
000000e0: 2901 e0bd 69e2 2c3d a0c4 bb3e 790d 8d3e
000000f0: 1359 37be afe7 c13d ebee 4c3d 69ef c7bd
00000100: 9cf7 9e3c f4b5 c33e ab41 e33e 203f 913d
00000110: a8ec c5bc efc4 37bf a64a a33d 3a84 393f
00000120: 7a0c 223f a8dc 653d 4614 a73c 91b2 dabe
00000130: 58ad c4bd e450 1c3e 3898 663e e8de d7bd
00000140: 3701 4a3d af52 323e fd32 703e 7b02 db3e
00000150: 1fa3 79be 1995 88be d5a5 373e 0a44 85bc
00000160: 2ae2 2dbe a5db 363d 33dd 533c 46de 70bd
00000170: b049 4abd fac3 d83c d349 cdbd 3c1e 363c
00000180: e17d 9e3e 64da a6bd dd7a 7ebe d36d abbe
00000190: a001 f8be 0962 0b3e f5fa 0dbd 2294 a33e
000001a0: 4798 58be a0df 883e 6645 e2be 7514 d1bc
000001b0: cda5 2dbe caec 443b 4021 8ebd 03e0 69bd
000001c0: b8ec 92be ef90 8e3e 6956 25be 1ca1 473e
000001d0: 0700 60bd 6a81 1e3c a539 dcbe 71f7 28be
000001e0: 45be 25bc a95e dabe 0925 fabe 3b6c 213f
000001f0: 641b c53d 084b ba3e 7a0e 813e 877d 8f3d
00000200: 0915 62be 9dfd 1e3f a80c cc3e 6269 d33e
00000210: c821 1dbf 01a7 b7bc a11c 05bf 5ea7 c8be
00000220: 750b 343e 752b d3bc 6a02 0dbd 0412 493e
00000230: 3cb5 adbc 1187 b73e 7790 6e3d db65 a4b8
00000240: 1607 3f3e 0e12 b83d f7b6 f83d b02a ae3e
00000250: 5e65 79be b1d3 143e 5f66 4bbe 0299 283e
00000260: bb5e 81be 075d d13c 2c7b c1be 14f8 253f
00000270: 9452 f93d e40b 2a3e 8282 b7be 8feb a23d
00000280: ce12 a23d 1dfa d13a ab19 c83c 836c f13d
00000290: 8208 5cbc fabd d63e b8c6 993e 204a f7bd
000002a0: 8bd4 b53e d15a 833d e9a0 50bc bdd5 093e
000002b0: 9c0a c33d cb83 3d3e 8b52 e2be 6119 7dbd
000002c0: b28c 91be c21f 423e f786 a63e d11f f43e
000002d0: cb18 2a3d 8ed6 cdbd bfc0 d0be 85f7 87be
000002e0: 6518 463e 110b 2f3e 58e8 89be 3428 67be
000002f0: 8b28 0abe 34a6 123e 68c8 75bd a79d 6b3d
00000300: c0d6 3e3e 0c81 a1bd a820 eb3c eb2f 6abe
00000310: 4671 1c3d 4f3d 81be 488b 72be f448 d13e
00000320: d542 7b3e 1b53 4b3e aa5c 0c3e 6458 a4be
00000330: 2ec6 f33d 82f0 6abe 3991 c0be 5783 553e
00000340: a4be 973c be8c 96bd 6380 6cbc 0c0e fd3d
00000350: b89c 723d 7061 af3d b1b0 c83b 0adb 3bbe
00000360: 8c88 ea3d c585 aabd a02b ac3e 7959 acbe
00000370: fe5d f13e abe6 a13d 7b3a 6e3e df36 02be
00000380: d5a9 16be 13f1 a1be 770c 9dba 513b ea3d
00000390: 7f25 443e 4f62 123e a137 8dbe 8fc8 953b
000003a0: 4fdf 54be 04d0 c1bd 2664 283e 22f1 86bc
000003b0: 488d 34be 9eda b33d 8460 f23d dd97 763d
000003c0: ca22 ee3d dd4d 8abb 4c96 ca3e 164a 9a3e
000003d0: c3e9 cdbd b1bb f73e 3321 cdbb 1bb9 323e
000003e0: 2aca dbbd de26 8cbd 7845 0cbf 3ad0 5c3e
000003f0: c319 4a3e bbe0 0bbe 20b2 84be 1065 6f3d
0.182066 0.27504084 0.088988855 0.14589849 -0.31781262 -0.35029107 0.3873453 -0.3878343
0.08401866 0.41259694 0.43188095 0.2512638 -0.45862642 0.040924996 -0.091309406 0.259022
0.07827784 -0.15629207 0.08317754 -0.39298403 -0.28577667 -0.37069526 -0.11785911 0.09333064
0.40855536 -0.0544735 -0.30529815 0.23945254 0.2309596 0.02724885 -0.32493204 -0.10377129
-0.11360113 0.1849502 -0.258861 -0.20658119 -0.74686474 0.04773907 0.14635125 0.09399191
-0.20474133 0.5383613 -0.17498581 -0.2011808 0.41552648 -0.07943161 0.34175795 0.06064713
0.25160328 0.32184935 -0.37493306 -0.46057478 0.08421888 0.2874633 0.3751645 -0.16109923
-0.10937721 0.04220811 0.3667345 0.2754934 -0.17905073 0.09468018 0.050032537 -0.09762461
0.019405179 0.38224757 0.44386038 0.07092118 -0.024160698 -0.7178487 0.079732224 0.72467387
0.6330029 0.056118637 0.02039541 -0.4271436 -0.09603375 0.15265232 0.22519004 -0.10540563
0.049317565 0.17414354 0.2345695 0.4277533 -0.24378632 -0.26676252 0.17934354 -0.016267795
-0.16980806 0.044643063 0.012931156 -0.058805726 -0.04938668 0.026460636 -0.100238465 0.011115607
0.30955413 -0.081471235 -0.24851556 -0.33482227 -0.4843874 0.13611616 -0.03466316 0.31948954
-0.21151839 0.26733112 -0.44193572 -0.02552245 -0.16957779 0.0030048364 -0.06939936 -0.0570984
-0.28696227 0.2784495 -0.16146244 0.19495052 -0.054687526 0.009674409 -0.4301273 -0.16500641
-0.010116165 -0.42650345 -0.4885638 0.6305577 0.09624365 0.3638537 0.25206357 0.07006364
-0.22078337 0.62105733 0.39853406 0.41291338 -0.6137967 -0.0224185 -0.5199681 -0.3919019
0.17582496 -0.025777558 -0.03442613 0.19635779 -0.021204583 0.35845235 0.05824324 -7.8391015e-05
0.18655047 0.08987819 0.12144273 0.34016943 -0.24355075 0.14533879 -0.1986327 0.16464618
-0.25267586 0.025557054 -0.37789285 0.6483166 0.12173954 0.16606098 -0.35841757 0.079550855
0.07913743 0.0016019974 0.024426302 0.11788275 -0.013429763 0.41941816 0.30034423 -0.12074685
0.3551372 0.06413806 -0.0127336765 0.13460441 0.09523508 0.18507306 -0.442036 -0.06179178
-0.28427655 0.18957427 0.32524845 0.47680524 0.04152755 -0.10050689 -0.40772054 -0.2655603
0.19345243 0.17094065 -0.26935077 -0.2257393 -0.13492028 0.14321214 -0.060005575 0.057523396
0.18636608 -0.07885942 0.028702095 -0.22869842 0.038193963 -0.25242087 -0.23685944 0.4087597
0.24537213 0.19855921 0.13707224 -0.32098687 0.11903034 -0.22943309 -0.37610796 0.20850883
0.018523522 -0.07351063 -0.014434907 0.12356195 0.05923149 0.085635066 0.006124579 -0.18345276
0.114518255 -0.08326296 0.33627033 -0.33662012 0.47142023 0.079053245 0.23264496 -0.12716244
-0.14713223 -0.31629238 -0.0011981864 0.11437095 0.19154929 0.14295314 -0.27581504 0.0045710276
-0.2078831 -0.09463504 0.16444454 -0.016472403 -0.1763202 0.08781932 0.11834815 0.06020342
0.11627729 -0.004220708 0.39567792 0.30134648 -0.10054352 0.48385385 -0.006260061 0.17453425
-0.10731919 -0.06843351 -0.547935 0.21563807 0.1973639 -0.13659947 -0.2591715 0.05844599

network_body.observation_encoder.processors.0.dense.0.bias f4 [256]
00000000: ec04 ab3c eabb 11bd f1a8 97bc 8563 a03d
00000010: af2c 523b 7a99 963d bddf 263d 04b9 0d3d
00000020: 6992 06bc eb13 0bbc 80a8 13bc d462 8c3c
00000030: 07b5 ed3c a8fc b3bb 06a6 05bd da04 47bc
00000040: ca7b 843c fe42 043d 6d89 34bb cd18 1d3c
00000050: 12fa 8ebb e51c 27bc cf87 973d 122a a43c
00000060: 72f7 3c3b d584 e83c dc06 f53b 8b6d f63c
00000070: 3f79 913b 5d7e eabc f091 85bc f54f c23d
00000080: fcf5 e7bc 6bbf 6d3d b348 363c c6b6 4a3d
00000090: 1423 03bd 1e8b 523d 22f5 c13c 3e18 0c3d
000000a0: 4986 1bbc 0708 b43c 15d4 83bc bb86 293b
000000b0: 3a31 633d 6e6e a23c 19f9 3a3d 3bcb fb3c
000000c0: d1ab 0b3d 22b1 81bc cf64 713d 9f3a 1c3d
000000d0: 29ac 333d 8b16 ed3c 1aa7 963c 92f0 753c
000000e0: 0114 603c 59cb 1d3d 1c6c 0e3d 80d1 4f3d
000000f0: 6a5e 483d f06b 033c 0ffa c63c 2ca8 e3bc
00000100: f951 3dbd fdff 413c f1ed 153d 5659 893d
00000110: f044 263d 58e3 673a 4629 80bc 7abe 573d
00000120: b280 a8ba 1f4d 693d df2e 073b 73ee ce3c
00000130: ee5b c03c 8c20 4eba 5124 c83c a851 833d
00000140: d3d0 83ba 5d09 bd3c 2de3 19bd 8ef8 083d
00000150: a03a 7dbc 5de3 f83b 7542 a03b 3e1a 053d
00000160: bdf8 673a ad45 7f3c 20b3 803c b516 6d3c
00000170: f0f2 863c 080f 28bc 5a45 0dbc 1ff2 b6bb
00000180: 0519 4a3b 3ecf eb3a 48fd 0fbc 875a 673c
00000190: a79a 953d d0a6 c03c 2bdc 5f3c 2f12 923d
000001a0: cadc 83bc 8807 45bc 3e5e 873c f183 a23c
000001b0: 2efb 6c3d 86b2 ccbc 8663 293d 172f 57bc
000001c0: eba1 413d 24c0 06bd fe02 38bb 5534 58bc
000001d0: 87b2 3b3d 37dd 823c 8f27 97bb 51f8 8bbb
000001e0: 5c08 01bd e49b aebc c0c4 a23c 7ab1 483d
000001f0: 92ba 323c 1c4b 123c 90f5 c03b bfcc 133d
00000200: a89d 38bc e498 913d 0323 4a3b fe47 b43d
00000210: 681a 723d ba09 fe3d f064 8f3d ff4a 92bc
00000220: 1645 3a3d 7530 8cbc baa7 8a3c 3269 a1bc
00000230: 850d 7dba d7c0 183d e50f 983d cf31 30bd
00000240: b8e9 be3b 34ec 5a3b 8b5c 963d 3de2 9d3c
00000250: a06d 5ebc 9c2c e13b 9585 3bbc 9922 2e3b
00000260: 2189 253d acd7 c13c 498e 1e3d 1d69 a13d
00000270: 724e cc3b 2cd6 07bd 98d0 693d c06c 1b3d
00000280: 3a0f 903c ee36 cb3c 808c 5ebc fc17 3abc
00000290: 127f fabc 5afa c73c c85f f1bb c61f 283d
000002a0: 93bb a73c bb18 d6bb 11d3 2a3d f50f 8a3c
000002b0: c255 ac3d 5adb 103c 7122 6c3c cb69 f13c
000002c0: 41de 1d3d 0493 f03c 3c3a 943d ad14 4c3d
000002d0: 5e2c ad3c 446f 303c 4605 bb3d 4f63 49bc
000002e0: 7942 01bd e2e9 7ebb b4a9 3f3d d2c3 99bc
000002f0: 44a9 023d 989a 4b3d d710 cebc c016 4ebc
00000300: a65e 65bc 44e4 953c 992d 9cbc 8475 243d
00000310: 68c1 913d 167a 213b 273a 1d3d abc9 d5bc
00000320: d98b 603c fee4 5cbc cb02 093d aa80 04bc
00000330: 149b 2f3d 4c6b 073c 4af9 0ebd d929 0a3d
00000340: 8a90 5c3d c006 913d aeca 633d 73ad cf3a
00000350: 1e5e cf3c 5b5e 563d 2c79 613d 477c 523d
00000360: efcc 103d e3a1 a23c 6c78 98bb 436d 73bc
00000370: 6e65 f939 5a49 b43c 1f84 453d 8961 4a3c
00000380: 7698 443d 1183 a1bc c6ca cfbc 4580 d6bb
00000390: a29a f9bc 0ba8 a93d 3670 aa3c d2df 50bd
000003a0: f4bb 703c b5bb 0d3c 1ece 223d d3b3 a53d
000003b0: 97f7 113d cdf8 df3c c861 8e3d 11c7 533c
000003c0: 5b9b 003d a2d8 123c 68d1 073d 1661 213c
000003d0: 1c4c e33c 8f69 853d db8f a63d d5db 4ebd
000003e0: ac91 723c 89b1 0d3c bbff b53b 176a 463d
000003f0: 6fe7 d9bb 1541 153c c5aa 2f3d 8808 8b3c
0.02087637 -0.0355796 -0.018513175 0.07831482 0.003207009 0.07353492 0.040740717 0.034600273
-0.008213618 -0.0084886355 -0.0090123415 0.017136969 0.029016985 -0.0054927655 -0.032629035 -0.012147153
0.016172308 0.03229045 -0.0027547732 0.0095884325 -0.004363307 -0.01019976 0.0739895 0.020039592
0.0028834012 0.028383652 0.0074776243 0.030081531 0.0044395025 -0.028624708 -0.01630494 0.09487907
-0.028315537 0.05804388 0.011125731 0.049490713 -0.032015875 0.051402204 0.023676459 0.034202807
-0.009492465 0.021976484 -0.01609234 0.002586766 0.055466868 0.019828048 0.045647714 0.030736556
0.034099404 -0.015831534 0.05893403 0.038141843 0.043865357 0.028941413 0.018390227 0.01501097
0.013676644 0.038524006 0.03477107 0.050736904 0.048918165 0.00802134 0.02428916 -0.027790152
-0.046220753 0.0118408175 0.03660387 0.067064926 0.040593088 0.00088458275 -0.01564468 0.052671887
-0.0012855737 0.056958314 0.0020627303 0.025260186 0.023481335 -0.0007863126 0.02443138 0.06412059
-0.0010056741 0.023075754 -0.037570167 0.033440165 -0.015455872 0.007595463 0.004890735 0.03249573
0.00088490156 0.015580577 0.015710413 0.014470746 0.016473264 -0.01025749 -0.008622492 -0.0055830623
0.0030837667 0.001799084 -0.008788414 0.0141207045 0.07304888 0.023517042 0.013663332 0.071323745
-0.016096491 -0.012025721 0.01652443 0.019838305 0.05785673 -0.02498747 0.04135468 -0.013133786
0.047273558 -0.032898083 -0.0028077955 -0.013196071 0.045824554 0.015974624 -0.00461287 -0.004271545
-0.031502113 -0.021314569 0.019869208 0.04899738 0.01090874 0.00892904 0.0058886483 0.036083933
-0.011268057 0.0710924 0.0030843623 0.08802794 0.059107214 0.12404199 0.07001674 -0.017858027
0.04547604 -0.01711295 0.016925681 -0.019703481 -0.00096531986 0.03729328 0.07424907 -0.04301625
0.0058262013 0.0033404948 0.0734187 0.019272918 -0.013575941 0.006871773 -0.011445423 0.0026570915
0.04041398 0.02366241 0.038709912 0.07881377 0.0062349373 -0.033163235 0.057083696 0.03794551
0.017585386 0.024806466 -0.0135833025 -0.011358257 -0.03057817 0.02441137 -0.0073661543 0.041045927
0.020475185 -0.00653371 0.041705195 0.016853312 0.084147945 0.00884136 0.014412508 0.029469391
0.038542036 0.029366978 0.0723767 0.049824405 0.02113932 0.010768715 0.09131865 -0.012291743
-0.031557534 -0.003889673 0.0467927 -0.018770132 0.031899706 0.04970798 -0.025154514 -0.012578666
-0.013999617 0.018297322 -0.019064711 0.040151134 0.071169674 0.002463942 0.038385537 -0.02609714
0.013705217 -0.01348233 0.03344993 -0.0080873165 0.042872503 0.008265328 -0.03490571 0.033731315
0.05384878 0.070813656 0.055613212 0.0015844539 0.025313433 0.052336078 0.0550472 0.05138805
0.03535169 0.019852584 -0.0046530273 -0.014857593 0.00047568552 0.022007633 0.048221704 0.012352356
0.04799696 -0.019715818 -0.025365245 -0.0065460526 -0.030469242 0.08284005 0.02080546 -0.0509947
0.014693249 0.00865071 0.03974735 0.080909394 0.03563651 0.027340317 0.06952244 0.012925879
0.03139816 0.008962782 0.03315869 0.009849807 0.027746253 0.06514274 0.08132907 -0.050502617
0.014805239 0.008648285 0.005554167 0.04844102 -0.0066499035 0.009109755 0.042887468 0.016971841

network_body._body_endoder.seq_layers.0.weight f4 [256, 266]
00000000: 3c19 b23c e365 38bd ec41 db3c 8cf6 9bbd
00000010: 7b57 523d da9d 16be 72c8 c2bd 3ecf 0ebd
00000020: dd59 98bd 454c f63d 589d 023e ae4c 11be
00000030: 186d c6bd 789b d53d 9d09 b3bd ec4a e03c
00000040: a7e4 10be a35a 443d 946e b1bc ffc3 23bd
00000050: 7c28 76bd 0ffe f6bc dbe8 56bd c30b 853c
00000060: 4211 8bbc ee67 4f3d 97a7 fcba 54c5 8e3b
00000070: 44f9 113d 93d2 cabc f791 3abd 86cc ca3d
00000080: 2825 52bc 7cb1 043e eb48 d23c 4109 f93d
00000090: 6c10 b13d 0302 ca3d a29b 62bd 4909 933b
000000a0: 64eb 25bd 2007 e53c 9a7c 86bd 1344 27be
000000b0: 54ee e83c de28 61bd 7fdc b03c 4196 753d
000000c0: 04c7 a9bc 0605 183a 2189 14be 62d6 20bd
000000d0: 5b24 a43d 4bda 09be 351d ce3d 06fc dcbc
000000e0: 6fbc 2fbc 4926 07bd d41f 98ba e46e 2b3c
000000f0: e529 c8bd beef 8f3d f0f7 febc a5bf ca3c
00000100: eab2 613d 29c8 ea3d 7fa1 f13c 6195 39be
00000110: 54fd f5bd 23ce d5bc 6383 783d 445e 01be
00000120: b04b fabd f75a 0cbd 1555 943d c51d c0bd
00000130: 194b dc3d 6ffa aa3d 9c1f 93bd c092 f3bd
00000140: f2d9 123e b515 81bd 46c2 283e f62c 8b3b
00000150: c19f 94bc 30c9 603c dfb7 863d 7c73 6dbc
00000160: ce29 9aba 9827 b4bd 6dbc 813d 67b5 e2bc
00000170: b19e 1b3e 1ed0 a2bc 1283 2f3d 12ca 0e3c
00000180: c197 b8bd f2f5 e1bb 45ee d4bc a339 37bd
00000190: 83ba ac3d df68 203d f96a 243d 9bf8 eebd
000001a0: 032c 153d 40a7 1dbd 7bce 0b3e 6896 a0bd
000001b0: 051d 23bd 6d25 493c 0bca cf3d 1a7c f93d
000001c0: ac07 d43d 99c1 343b 4439 c23d 14f9 cf3d
000001d0: 09b1 b73d 7cd9 ecbc fa88 8b3c 8b20 54bd
000001e0: 503b 53bd 478c 353d fca7 23bd 2a3c 03be
000001f0: ab3d 723d 041b 383d 2d8e 183e ab99 2d3d
00000200: 1d8f 3a3d 5e37 91be 9dd3 ed3b cf8a e03d
00000210: cc3a dabc 87ca 1dbd 9d3c d83d 4475 0c3c
00000220: b097 68bc 9877 8cbd 516d bbbd a5e2 273e
00000230: f19f a5bb 0081 78bd 1b98 59be 8d36 463d
00000240: c098 1dbe ac94 16bd d176 8e3d 71a8 3fbd
00000250: a63d 213e ce8f 2dbd b5c7 83bc deb9 b4bb
00000260: fbe0 3cbd 94b0 043d 9906 1dbd f941 86bd
00000270: 8e94 debc 4be5 d33c a747 14bd e6a6 ebbd
00000280: 8bff 193d 9a1b 2abd 749e 1bbe 41d9 f1bd
00000290: bca7 5dbb a2e0 443c 7d68 5c3d 13ef 8bbd
000002a0: 3f38 ebbd d4c8 0c3e f29c 0fbd c82f 4bbd
000002b0: f375 cebd 22dd 123c 5b3b 0dbd 5a4b f73c
000002c0: 2678 38be 7865 9dbc f32d 4dbd 199c e4bb
000002d0: 2d78 d4bd 8c15 233c 85f8 723d dd9e 8bbc
000002e0: 54ce 9b3c 34b3 cd3d abbb 203d 870c c73d
000002f0: c06e 38be efb3 8cbd ef34 68bd 9526 35bd
00000300: cc3b 223c 181e b0bd bc78 963d 3573 c5bd
00000310: 6fd1 d6bd 1180 373d ffdf d03c 8d7e 273d
00000320: b51f 4e3d 142c 5abd ba77 c6bc adb1 a6bc
00000330: 008a 7dbd e44e 83bd 721b 4f3d 223e 28be
00000340: 380a 4abe c613 8dbb 7fae 82bd 9826 17be
00000350: a05c ce3b d746 04be 9a1a b73c 59b8 0e3e
00000360: 6a87 a8bd c5ec 45bd 2c76 e13d 2ddd e7bc
00000370: e21f 03bd 048d 8c3d 3b26 89bc 1826 0fbd
00000380: bf72 46bd 1535 013d 397f 4e3c e69c ddbc
00000390: 6c04 9cbd 35a4 e73c 28fc 6c3c d764 0ebc
000003a0: a1e1 23bd 0785 8f3d aad9 ddbd 0d42 2cbc
000003b0: d0ce 283e 652a 583d 57e3 12bd eb9f e53d
000003c0: 8969 38bd 157a 2cbd 98b7 a23d d936 a5bd
000003d0: 9922 e7bc 1a44 e6bd b84a 94bd 18f6 80bd
000003e0: ca4e 363d 3b11 ce3d 3c7f 84bb a243 cb3c
000003f0: 48b1 943c 7467 bc3c 6c80 1ebe d360 a8bd
0.021740548 -0.04501904 0.026764832 -0.076153845 0.05135296 -0.14708653 -0.09510888 -0.03486561
-0.07439015 0.12026266 0.12755334 -0.14189407 -0.09688777 0.10430044 -0.08742068 0.027379476
-0.14149724 0.047938 -0.021659173 -0.03998184 -0.060097203 -0.030150441 -0.052468162 0.01624096
-0.016976003 0.050636224 -0.001927602 0.0043570194 0.03563811 -0.024758613 -0.04554936 0.09902291
-0.012826242 0.1295833 0.025669536 0.12159968 0.0864571 0.09863665 -0.055324204 0.004487191
-0.04050769 0.027957499 -0.065667346 -0.16334562 0.028433956 -0.054970615 0.021589516 0.059957746
-0.02072478 0.00057990884 -0.14505436 -0.03926695 0.08014747 -0.13462178 0.100641645 -0.026975643
-0.010726078 -0.032995496 -0.0011606165 0.01046345 -0.09773616 0.07028149 -0.031124085 0.024749586
0.055102266 0.11463959 0.029495953 -0.1812339 -0.12011209 -0.02609927 0.060672175 -0.12633616
-0.122214675 -0.03426644 0.072427906 -0.09380678 0.10756511 0.08348548 -0.071837634 -0.11893225
0.14340952 -0.063029684 0.1648036 0.004247303 -0.018142583 0.013719842 0.065780394 -0.014492866
-0.0011761726 -0.087966144 0.063347675 -0.02767439 0.15197255 -0.019874629 0.042849608 0.0087151695
-0.0901332 -0.006895774 -0.025992522 -0.0447327 0.08434012 0.039162513 0.04014108 -0.116685115
0.036418926 -0.03848958 0.13652985 -0.07841188 -0.039822597 0.012276989 0.101459585 0.121818736
0.10353026 0.0027581214 0.09483579 0.1015493 0.08969314 -0.028912298 0.017033089 -0.051788848
-0.051570237 0.044323232 -0.039955124 -0.1281592 0.059140842 0.04494764 0.14897986 0.042382877
0.04554664 -0.28362554 0.0072578923 0.10963976 -0.026639365 -0.038523223 0.10558436 0.00857288
-0.014196321 -0.06858748 -0.0915171 0.16395052 -0.005054467 -0.0606699 -0.2124943 0.048391867
-0.15390301 -0.03676288 0.06956256 -0.046791498 0.15746173 -0.04237347 -0.016086439 -0.005515321
-0.046112996 0.03239496 -0.03833637 -0.06555552 -0.027170446 0.025866171 -0.036201145 -0.11506443
0.03759722 -0.04153023 -0.15197164 -0.11809016 -0.0033821901 0.012016447 0.053810585 -0.06832709
-0.114853375 0.13748485 -0.035061784 -0.049606115 -0.10081091 0.008963855 -0.034480434 0.030187298
-0.18014583 -0.019213423 -0.05009265 -0.006976616 -0.10374484 0.009953868 0.059319038 -0.017043525
0.019019283 0.10043946 0.039241474 0.09719186 -0.18010998 -0.06870257 -0.056691106 -0.044226248
0.009901952 -0.0859949 0.07347247 -0.096411146 -0.10489165 0.044799868 0.025497435 0.040892173
0.050323207 -0.053264692 -0.024227012 -0.020348394 -0.061899185 -0.064115316 0.050563283 -0.16429952
-0.1973046 -0.0043053357 -0.06380939 -0.14760816 0.006297663 -0.12917648 0.022351552 0.1393751
-0.08228953 -0.048321504 0.110088676 -0.028303707 -0.032012828 0.06862834 -0.016741863 -0.03494844
-0.048449274 0.031544764 0.012603574 -0.027052354 -0.07618031 0.028276542 0.014464416 -0.008691034
-0.0400101 0.07007795 -0.10832532 -0.010513795 0.16485143 0.052774806 -0.03586134 0.112121426
-0.04502252 -0.042108614 0.07945174 -0.08067102 -0.02821474 -0.11243458 -0.07240814 -0.06296939
0.044508733 0.1006188 -0.004043488 0.024812523 0.01815094 0.022998549 -0.15478677 -0.08221593

network_body._body_endoder.seq_layers.0.bias f4 [256]
00000000: 1f50 8bbc e49a 583c 8f48 82bc b4ed 163c
00000010: 32f2 173b 5713 1e3b ff33 e1bc 6218 ee3c
00000020: 0131 e8bc a043 f2bc 6ddb 02bd ca6f 063d
00000030: 79ab 0bbc 1e56 90bb 05fe 283c 8061 bc3b
00000040: 4f1c d13c 7c4a c9bc ddb7 8cbc 2297 cb3c
00000050: c6ea 963c 8a47 6e3c 4603 f03c ccec 073d
00000060: 46ec ea3c 76a2 833c 3951 afbc acb5 be3c
00000070: 6c31 d8bc 9c1b 783c 3abc 543c c4eb ae3c
00000080: 5e88 c5bb ec69 99bc 0d2e 003d 69ba 2c3b
00000090: c59c ffbc 8f05 7ebd 0812 063d 3c61 2b3c
000000a0: 00d9 ae3b a849 c53c b771 dcbc 107a a63c
000000b0: b6d9 b4bc b280 febb 2ff0 5fbb a71a 0fbd
000000c0: 2400 e0bc d1f3 1b3c 1009 273d 59a9 7fbc
000000d0: b029 ab3a af9a d53b 07ce a339 aa9f 4bbc
000000e0: a4e8 21bc 1d04 d43c 9f6e 293c 3a15 9abc
000000f0: 9b93 b1bc c4ad 973a 085b 8ebc 9caa febb
00000100: 93b0 84bc 77de 6a3c 0ae5 93bc 4242 af3a
00000110: 91e1 27bc 8f62 fd3a b7d8 313b 333c 783c
00000120: f3b4 ed3b 5d38 cdbc f4ed d5bb 84a8 263d
00000130: fb08 79bc 9d79 de3c f8aa 81bc 64c1 793c
00000140: f35c 96bc bb1b 99bc bb33 fe3c d2ca bbbc
00000150: 85c3 403a 1e80 a8bc 3a23 1b3d fe3d 4cbc
00000160: c719 e43b 947c b13c 400a 59bc 48fb 93bc
00000170: 214e f5bb d4ae c9ba f821 ebbc c513 e13b
00000180: 4fbd b23c 9ac9 403c d8a7 d8bc 097f 003d
00000190: baf4 bbbc eb30 c7bc d0cb 613b b6dc 323c
000001a0: 46a4 09bd 63db 71bc 07e2 0e3c 3b46 d2bc
000001b0: 1e0e 52bc 32f2 ac3c c48b a6bc b26a 603a
000001c0: ef62 cbbc 844d 043c 376c 47bd 4cfd c93c
000001d0: be92 963c 8a89 823c 4062 cfbc 94c1 b5bc
000001e0: 988f bcbb 93e7 62ba 6d2f bdbc 7f41 f1bc
000001f0: c3be 48ba e96e 233d 64a1 f4bc cc58 1a3d
00000200: e850 87bc 3d78 c63c f765 8cbc 2bd4 c4bc
00000210: ee23 a9bb ee45 0c3c 36b5 ec3c 89ec 493c
00000220: baf2 a9bc da53 363d aee1 45bc fa88 92bc
00000230: 1454 243c e167 933c f7e1 b3bc 91b5 ce3b
00000240: fd81 063d a09e b2bc af29 87ba 35ef c9bc
00000250: 563d 953c 1c06 a03c 6cab 383d 9619 7e3c
00000260: 7e24 a03b 5b65 cdba fd10 9fbc 30e2 30bc
00000270: 51e4 38bc 8a28 2fbb 88a7 e83c 6430 e9bc
00000280: 723c b4bc 096e 1f3b e062 113c 44ec 05ba
00000290: 2f67 b9bc f697 fb3c 085e 31bd 615d 243b
000002a0: f62c 7d3b e53c f33c c871 853c 29e5 79bc
000002b0: d139 023d 4b10 fb3b 2738 a9bc b9b6 47ba
000002c0: 68e2 51bc 8838 093d 39c9 f6bc b578 1a3c
000002d0: 1121 d73c 82f8 303c 5879 f43c 198c 983c
000002e0: ccbb 87bb 027e df3c 9d28 19bd 3b52 293d
000002f0: 2bdf 2abc 53d6 113d 9e6f 5dbc 2cac 943c
00000300: fd66 083c 3dba d7bc 83d6 6abc 1bcf 073c
00000310: af6e 3dbd 76e6 043d c8fc abbb c853 c03c
00000320: cd5e fb3b 63e0 e83c fd0e d03c f53e 093d
00000330: e5f9 24bd 2b87 163d cd98 cbbc dd85 063a
00000340: 4b24 413c 644e 163c 03b0 5ebc 9f98 43bc
00000350: 8149 a43b 0db4 dbbc 6b1f 38bd 12b8 17bd
00000360: 8e83 c43c fcef c23b a21b d0bc d269 cf3b
00000370: 755f 89bb cc22 f73b a395 cd3c c774 953c
00000380: c140 d3bc ddd7 8e3a 458a d9bb 2631 d0bb
00000390: 7377 233c 794f a73c e73c 583c b782 da3b
000003a0: c863 e1bb 4a1f 4fbc 7b0a a53c db34 2cbb
000003b0: ee26 09bb aaa1 823c dec0 e7bc 245f 973c
000003c0: 989a 043d 8f56 e93c db9a 903c d7c4 88bc
000003d0: 0bd6 65bc 4f1f 99bb 3403 4dbd a85c 7f3c
000003e0: 35ca 68bc 84a8 fe3b 52dc a63c 9933 8abc
000003f0: 32aa 45bd 91df d8bc 2402 91bc e2fd f93c
-0.017005978 0.013220523 -0.01590374 0.009211946 0.002318513 0.0024120414 -0.027490614 0.029064361
-0.02834368 -0.029573262 -0.031947542 0.032821454 -0.008524769 -0.004404797 0.010314469 0.0057489276
0.025526194 -0.02457165 -0.017177517 0.02485234 0.018422496 0.014543423 0.029298436 0.03318481
0.028677117 0.016068678 -0.021401035 0.023279987 -0.026390754 0.015143301 0.01298433 0.021352656
-0.006028219 -0.018727265 0.031293917 0.0026356226 -0.031202683 -0.06201702 0.03273204 0.010460194
0.005335927 0.024082974 -0.026909692 0.020321876 -0.022076469 -0.0077668065 -0.003417026 -0.034937527
-0.027343817 0.00951858 0.040780127 -0.0156043405 0.0013058688 0.006518684 0.00031243285 -0.012428204
-0.009882126 0.025880868 0.0103413155 -0.01880895 -0.02167683 0.0011572172 -0.017377391 -0.007771803
-0.016197478 0.014335266 -0.01805355 0.0013371187 -0.01024665 0.0019331741 0.0027137229 0.015151071
0.007254237 -0.02505129 -0.0065286104 0.040688053 -0.015199895 0.0271576 -0.015828595 0.015243862
-0.018354869 -0.01868998 0.031030526 -0.02292386 0.00073533534 -0.020568904 0.03787539 -0.012465952
0.0069610807 0.021665849 -0.013247073 -0.018064156 -0.0074861203 -0.0015387186 -0.028702721 0.006868812
0.021818785 0.011766816 -0.026447222 0.03137115 -0.022943843 -0.024315318 0.0034453757 0.010916879
-0.03360393 -0.0147617785 0.008720881 -0.025668254 -0.012820749 0.021111581 -0.020330317 0.0008560821
-0.024827449 0.008075122 -0.048687186 0.024656914 0.018380519 0.015934724 -0.025315404 -0.022187032
-0.0057544224 -0.0008655723 -0.023093903 -0.029450176 -0.000765782 0.039900694 -0.029862113 0.03768234
-0.016518071 0.024227256 -0.017138464 -0.02402695 -0.005161754 0.008561594 0.028895002 0.012324461
-0.020745624 0.04451356 -0.012077732 -0.017887581 0.010029811 0.01799387 -0.021958334 0.0063082655
0.03283881 -0.021804154 -0.0010312105 -0.024650196 0.018217724 0.019534163 0.045085356 0.01550903
0.0048871627 -0.0015670465 -0.01941728 -0.010796115 -0.011284904 -0.0026727044 0.028400198 -0.028465457
-0.022001479 0.002432706 0.008873671 -0.00051087537 -0.02263221 0.030712109 -0.043302566 0.0025080072
0.0038631535 0.029692123 0.016289607 -0.01525239 0.03179342 0.0076618544 -0.020656658 -0.00076184754
-0.012810327 0.033501178 -0.030125247 0.009428193 0.026260884 0.010801436 0.029843017 0.018621491
-0.00414226 0.027281765 -0.037392247 0.041338187 -0.010429184 0.035604786 -0.013515381 0.018148504
0.008325336 -0.026333923 -0.01433337 0.008289124 -0.046248134 0.032446347 -0.0052486397 0.02347745
0.0076712132 0.028427308 0.025397772 0.033507306 -0.04027738 0.03675 -0.024853135 0.00051316415
0.011788438 0.009173963 -0.013591769 -0.011938243 0.005013645 -0.026819253 -0.044951838 -0.037040778
0.023988511 0.0059490185 -0.025403801 0.0063297534 -0.0041922876 0.00754199 0.025095766 0.01824416
-0.025787713 0.0010898073 -0.0066387975 -0.006353515 0.009977209 0.020423638 0.013198114 0.0066684145
-0.00687835 -0.012641737 0.020146599 -0.0026276622 -0.0020927745 0.015946228 -0.028290208 0.018477984
0.032373995 0.028483657 0.017651966 -0.016695423 -0.014028083 -0.0046729217 -0.050051883 0.015586056
-0.014208366 0.0077715535 0.020368729 -0.016870307 -0.048258014 -0.026473792 -0.017701216 0.030516569

network_body._body_endoder.seq_layers.2.weight f4 [256, 256]
00000000: f7ec 56bd c004 823d 301c 70bd 2a9b 2cbd
00000010: 4be2 b4bd 0c51 3fbd 8e2a aa3c 76fd a0bd
00000020: 8d68 16be 021c cfbd 8de5 edbd 8e3f 84bd
00000030: b324 0abe c768 983d 4ee5 8bbb 549d 42bd
00000040: 1e63 e63d c78f 30be 1d49 79bd 90d6 643d
00000050: 1e20 f93c a3aa 823c f593 d93c 74c4 8abd
00000060: 6871 8d3d d06e fa3d 7baf 36bc 0d9f 30bc
00000070: 011b f13c f3ce bfbb f4bf 5fbd 368b cfbc
00000080: 7751 dd3c db3b 19bd 73ed 2ebc 50ec c5bc
00000090: cbaf 85bc 4830 d2bd f40f b73c 30ad 9c3d
000000a0: 1d9e 7e3d 99cc 083e e749 b7bd 359e bb3b
000000b0: 56b0 3dbe c0d2 b73d 29ce 4dbd 0257 fcbd
000000c0: 7e39 573d a518 7e3d 29a4 4ebc 87da 9c3b
000000d0: 3f70 223c b45f 18bd bbc4 5cbe 91e4 c0bd
000000e0: 9e20 afbd 2bb7 173e f633 1cbd bcd3 acbd
000000f0: 4b6e fabd 8273 b83c cdcb b2bd 8aea edbd
00000100: 113e 233d 740d 3b3d 773f 87bd 93d5 4cbd
00000110: 024d a2bd e0aa 1bbd 77e7 2cbd 62a6 debc
00000120: cd62 09be b434 8abd 4c4b 2b3d 7a1a c1bb
00000130: 8cd2 263e 28b7 943d 8dcd 37bd 8395 4bbc
00000140: 69c1 cdbc 15ad efbb 5f44 d43c 9c15 a13c
00000150: 5200 1b3e 09aa 52bd 4c2d 1f3d 9ccd 723d
00000160: 9375 c1bd 748d 7dbd c73c 1f3d 0b75 8dbc
00000170: 80d8 bfbd c7ec 1dbc 7820 ffbc 8c8c 013d
00000180: d4e2 5b3d db61 d7bc 58a4 9f39 6af8 a53c
00000190: c57e 7bbd 157e 863d 4f7f 753d 04af 083e
000001a0: 6b2c 41bd c443 bd3d e783 1ebd 8ac7 28be
000001b0: 3ef0 16bd ca7f d53d 62e4 bebd acef b33d
000001c0: 78fa efbd 375c 19bb 3155 0f3b b7a9 6fbc
000001d0: d84b 343d f387 d33c a96d 11bd ef38 59bd
000001e0: a289 043d 326b 753d e326 44bd 117e 0abe
000001f0: b938 afbd 6b3d 3dbc d1dc 0bbe 9c5f 073e
00000200: ff4e 96bd b5e1 b5bc 62b7 223c cabb 3dbe
00000210: 31bb d9bd ff7a 773d 0094 15bc 73f1 323d
00000220: c536 ea3d 2276 9a3d 2abb 57bc 01ff 12bc
00000230: c42f 03bc c78a 643d b71c 9ebb 7478 07bd
00000240: 9417 2bbd 5707 8c3d 0a6d d53c 7ca8 82bc
00000250: ba01 35bd 209f 603d 9645 3abb 522b f3bc
00000260: cb61 093c 121d d9bd 54b0 b2bd a827 ef3b
00000270: 2e17 c5bd c3bb 073e 44a1 97bc 43cb 5a3c
00000280: b74e 80bd 4bb7 c8ba 8a88 09bd d2d8 34bd
00000290: dcc3 f23c 0601 dd3d 1186 4cbd d4cd 9e3d
000002a0: 92b0 dcbd 3d83 04bd b88d bf3d 48bb 72bd
000002b0: cbb9 f03d cf24 ac3b 8c5f 29bc 4c5e e2bc
000002c0: 0b5f 643d 4874 a1bd 7889 03bd fa27 6e3d
000002d0: 0d27 aa3d 86e4 b8bd 3003 b0bc 1803 aa3d
000002e0: 5dee aa39 a417 483d 938a 933c 59da 6e3d
000002f0: 6305 973d 012d e53d b951 a83d cfc2 bfbd
00000300: 9516 23be fcb3 69bc 006b 09bb 61d8 213d
00000310: 2f5f 59bd 9cbd e6bb 6452 cdbc b4e5 97bb
00000320: 6e5a 19bd ea61 8dbc ea01 b03d d943 d63d
00000330: 1df0 55bd 0f7f 683d 0cf8 72bc 8364 febc
00000340: d418 103c 1b3d 7a3d bf5a 233d 9cfa 04be
00000350: ceb1 1fbd 3ea9 e73c 70f7 093c 2ef7 f6bd
00000360: fb61 3ebc d942 d3bd d3bc 103d f712 82bd
00000370: 049d f9bc 92a9 463d f23c a23d e9ef 7a3d
00000380: 1838 abbd 3246 1f3c 0115 fdbc cd07 563c
00000390: 29dc 1f3e cbeb 423e 803b a53d d4ef 803d
000003a0: d0f1 7dbd 82eb a13d d729 013e 70e3 babd
000003b0: bd58 2bbe 01af 64bd 0d84 a43d 62c2 35bd
000003c0: 588a 083e 352f 48bd ba7c 1e3e 82ca 8cbc
000003d0: 7aae 4ebc 767b cb3a c1f5 1a3d da47 523c
000003e0: 2065 b7bc eeff 1abe d048 d23d 3bf8 6ebb
000003f0: 045c d93d 5db1 9bbd 9af8 91bd 933a 883c
-0.05247208 0.06348562 -0.05862063 -0.042140163 -0.088322245 -0.04670815 0.020772245 -0.07860844
-0.1468832 -0.10112764 -0.11616049 -0.064574346 -0.13490562 0.0744186 -0.0042692786 -0.04751332
0.11249374 -0.17242347 -0.060860742 0.055868685 0.030410822 0.015950507 0.02655981 -0.06775752
0.06906396 0.12228167 -0.011150236 -0.010780108 0.029431822 -0.0058535277 -0.05462642 -0.025334936
0.027016385 -0.0374106 -0.0106767295 -0.024160534 -0.016319176 -0.10263115 0.022346474 0.076502204
0.062162507 0.13359298 -0.08949643 0.005725647 -0.18524298 0.08975744 -0.050245438 -0.12321283
0.052545063 0.06203522 -0.012612381 0.0047867927 0.009914457 -0.037200645 -0.21559422 -0.094185956
-0.08551143 0.14815967 -0.03813549 -0.084388226 -0.12228068 0.022516016 -0.08730278 -0.116170004
0.039854113 0.045667127 -0.06603902 -0.050008368 -0.07924844 -0.038004756 -0.04221293 -0.027178947
-0.13416596 -0.067483336 0.041819856 -0.005893049 0.16291255 0.07261497 -0.044873763 -0.012425783
-0.02511664 -0.007314334 0.025911508 0.019663624 0.15136841 -0.05143169 0.038861558 0.059278116
-0.09446254 -0.06190248 0.03887632 -0.017267724 -0.09367466 -0.009638972 -0.031143412 0.031628177
0.053683117 -0.026291778 0.0003044929 0.020260055 -0.061400194 0.06567017 0.059935864 0.13348013
-0.0471615 0.09241441 -0.03870001 -0.16482368 -0.036850207 0.104247645 -0.09320904 0.08785948
-0.11717695 -0.0023400912 0.0021870846 -0.0146278655 0.044017643 0.025821662 -0.03550497 -0.05303281
0.03235782 0.059916683 -0.047888648 -0.13524653 -0.08555741 -0.011550288 -0.13658454 0.13220066
-0.07339286 -0.022202352 0.009931417 -0.18528667 -0.10631407 0.060420033 -0.009129524 0.043687295
0.11436228 0.07542063 -0.013167182 -0.0089719305 -0.008006994 0.05579641 -0.0048252004 -0.033073857
-0.041770533 0.068373375 0.02605297 -0.01594948 -0.0441911 0.054839253 -0.0028422824 -0.029683743
0.008385132 -0.10601248 -0.08725038 0.0072984286 -0.09623562 0.13255219 -0.018509515 0.013354125
-0.06265014 -0.0015313415 -0.03357748 -0.04415209 0.029634409 0.10791211 -0.049932543 0.07754102
-0.107758656 -0.03235172 0.093532026 -0.059260637 0.11754187 0.0052534114 -0.010337722 -0.027632855
0.055754703 -0.07883507 -0.032113522 0.058143593 0.083082296 -0.090279624 -0.021485895 0.08301371
0.0003260252 0.04885067 0.018010413 0.0583137 0.07374074 0.111902244 0.08218712 -0.09363329
-0.15926583 -0.014264103 -0.0020968318 0.039512996 -0.05306929 -0.007041646 -0.025063701 -0.004635537
-0.037439756 -0.017258603 0.08594115 0.1046216 -0.052230943 0.056761798 -0.014829647 -0.031053787
0.008794982 0.06109343 0.039881464 -0.12986225 -0.038987927 0.028278943 0.00842081 -0.120588645
-0.01162004 -0.103154846 0.035336327 -0.063512735 -0.030470379 0.04850156 0.07921781 0.061263952
-0.083603084 0.009721326 -0.030893805 0.013063383 0.15611328 0.1903526 0.08067989 0.062957436
-0.06199819 0.07906248 0.12613617 -0.091254115 -0.1673307 -0.05583096 0.08032999 -0.04437483
0.13334024 -0.048873145 0.15477267 -0.017186407 -0.012614841 0.0015524465 0.037832025 0.012834514
-0.022387087 -0.15136692 0.10267794 -0.0036463875 0.10613254 -0.07602189 -0.07127495 0.016629493
