results/PushBlockCollab_POCA_RND/PushBlockCollab/PushBlockCollab-4999962.onnx (onnx, 643240 bytes, 12 tensors)

network_body.observation_encoder.processors.0.conv_layers.0.weight f4 [16, 6, 8, 8]
00000000: 299b 323d 22d2 8fbb 5f0e 473b e7c8 dabd
00000010: 8f82 59bd a5d8 f2bd fed8 b3bc 0a19 ae39
00000020: e9c8 9f3d 7dec 863d de27 8fba d355 64bd
00000030: 3945 abbd 2d6d 7dbd 3504 ae3b 0512 9f3d
00000040: ec62 1b3d d4b3 283c 0f64 49bd eea4 bebd
00000050: 9e36 143d 1b43 2fbd 8eff 803d faeb 1a3c
00000060: 4296 8b3d 30d4 8fbd f38a fdbc 2c19 7bbc
00000070: d3bb fd3b 2111 33bd 0169 f33b 0731 8e3d
00000080: d3a0 5b3b 4690 b1ba 247e a0bd f8ee 5fbc
00000090: c613 3b3c 6d7e 59bd 878e dc3c 3669 f3bc
000000a0: 770f 3a3c c8c4 c4bc 4e37 8e3d e028 063d
000000b0: bf6c a1bd a8eb b8bc 9f5b 44bc 8370 8c3d
000000c0: 7a62 213d 2fd9 ae3d e0cc a53d 2109 033e
000000d0: 81a8 afbd 5723 ff3c 1cec 3bbc 2f0c 18bc
000000e0: e546 573c 06e6 373d d093 2a3d eba8 3f3d
000000f0: 3d8e d3bd e112 0cbe 4ba1 05bd 8932 62bd
00000100: 914e 32bd 8831 db3d 53e8 2c3d 8501 893d
00000110: c9e7 a1bc 3854 5fbc 6521 0f3b cd26 5c3d
00000120: c79c b8bc 5337 b03c c1f0 633d 6b98 2b3d
00000130: e7f6 88bd 6252 7c3d 0e42 963c d8ba 6f3d
00000140: 35c7 73bd 0c5d 9ebc 4eed ad3c f98f 9c3c
00000150: 1b97 1fbc f8ab 6e3c bf7d 8f3d 9ebd 1c3d
00000160: de8e 4fbc 16b4 623c 4120 113d 86d8 163d
00000170: ccfe 1bbd 63be 463a 2336 57bd 4932 d0bd
00000180: 28f6 ffba 2663 5a3d 4bf5 ba3d cd5a f33b
00000190: d8aa 84bb 8b4f b4bc df0e 623d 6a95 4e3d
000001a0: 7f57 803d f4ab 12bd cacd 08bd 52e6 84bd
000001b0: ab16 9ebd ca5a 27bd ca43 b83c 69c7 343d
000001c0: fd32 89bd 16f8 063e d0b7 bf3d 3973 4b3d
000001d0: e293 dcbc 836e 36bd 27cc 123d e7a0 573d
000001e0: 1eea bebc 5915 fb3a 2e4d 2a3d 4cc0 d83c
000001f0: ae4b cd3d 2178 9b3c 92ba ab3d ae8d b33d
00000200: ee09 ebbb 4362 0039 cced ca3b ec08 173d
00000210: 4d86 223d 6e4d 94bc ac65 473b 755b 3d3c
00000220: 1e71 f2bc 1893 0abc 0b8a 563d 04d4 8d3c
00000230: 6d46 883d 82fe 1b3d 398f 82bd e20b 9dbc
00000240: 0f11 4fbd e300 823d 6c85 b33d 9efa 783d
00000250: 57d4 863c 275c 203a e976 363d a50f 47bc
00000260: 8d64 993c 282d a93c 2218 963c 3936 873d
00000270: d450 2d3d 9a0a c73c 8d5f 163b 1e07 0fbd
00000280: e0db 093d d94d d4bb 08ee 7e3c 640f bb3c
00000290: 3f87 753d a726 253d cda6 f43c ceb9 553b
000002a0: bbbd 24bc efca ddbc 15e7 5c3d f2f0 50bd
000002b0: 7d70 babc 0578 2a3d 64d2 c8bc becb cf39
000002c0: b3f5 643a c009 a9bd cd9b 81bd 5639 d03c
000002d0: e8d2 393c ad68 e03b 9773 e7bc 1884 c9bb
000002e0: cebc 04bd 929a 13bd 9a81 4d3d 64a6 79bc
000002f0: ba6a b8bc 8583 613d c13a 08bd 1be2 753d
00000300: 996a efbd 2e8c 2abd e564 063d d827 babc
00000310: 95f8 9bbd c870 d6bc 60b6 aa3d e183 9f3d
00000320: f349 2d3d 651d bd3a 3187 05bd a5ea b2bc
00000330: 43da 1bbd 6844 7cbd e54f 483d f967 803c
00000340: 4c59 e23d 0f63 b03d 5afb b03d 70ef 78bb
00000350: 48f4 043d 1fe2 833d 4e66 3fbc 35a6 fc3c
00000360: 4379 fe3d a569 1cbc 2173 273d 2ac2 e23d
00000370: a375 e53d b299 d23c 03e2 093b adc2 b43d
00000380: b3de 0c3e c5e3 6b3d 4281 953d 8838 a93d
00000390: 917a a33d e526 003d 604c 713d 78eb d83b
000003a0: 8084 f03d aa2a ee3d 7680 4e3d 7a20 023e
000003b0: eda9 bf3d fd77 113d 094f 2ebd 7bbc b6ba
000003c0: 4c69 553e bd31 ca3d 490a d23c 821c fd3d
000003d0: 8460 c63d e2dc 17bd e257 ad3a b761 8bbd
000003e0: fbd5 5a3e e2d3 9a3d 1543 703d c8d2 093e
000003f0: 40c0 9d3d d880 573d 27b5 a93d eb0e 76bd
0.043605004 -0.0043890635 0.0030373556 -0.1068285 -0.053103026 -0.11857728 -0.021954056 0.00033206522
0.078019924 0.06588075 -0.0010921916 -0.05574591 -0.083628125 -0.061871696 0.00531056 0.07767109
0.037936136 0.010296781 -0.04916769 -0.093088016 0.0361849 -0.042788606 0.06298743 0.009455675
0.06815769 -0.070228934 -0.030950045 -0.015325826 0.0077433377 -0.043717507 0.007428289 0.06942945
0.0033512607 -0.0013547025 -0.078365594 -0.013667814 0.011418289 -0.053099085 0.026923431 -0.029713254
0.011356226 -0.024019614 0.06944142 0.032753825 -0.0788207 -0.022573307 -0.011984735 0.068573974
0.039400555 0.08537518 0.080957174 0.12796451 -0.085770614 0.031144781 -0.011469867 -0.009280249
0.013139461 0.0448971 0.04164487 0.046791952 -0.10329864 -0.13679077 -0.032624524 -0.055223975
-0.043531958 0.10702807 0.04221375 0.06689743 -0.019763844 -0.013630919 0.0021839973 0.05374794
-0.022535695 0.021510756 0.055649523 0.041893404 -0.06687718 0.061602004 0.018342044 0.058527797
-0.05951615 -0.019331478 0.02123132 0.01911162 -0.009740616 0.014567368 0.07006406 0.03826677
-0.01266834 0.013836881 0.03543115 0.036827587 -0.03808479 0.00075814704 -0.052541863 -0.10165841
-0.0019528316 0.05331721 0.09128817 0.007426596 -0.0040486865 -0.022010585 0.055189963 0.05043546
0.062666886 -0.03580852 -0.03339938 -0.064892426 -0.07719167 -0.040858068 0.022493262 0.044135485
-0.06699178 0.13180575 0.09361231 0.04967043 -0.026925985 -0.044538986 0.035839226 0.052643683
-0.023304995 0.0019156142 0.04157751 0.026458882 0.100242004 0.01897818 0.08385195 0.08767258
-0.0071728146 0.00012243637 0.0061928984 0.036873743 0.03967886 -0.018103328 0.0030425591 0.01155745
-0.029594954 -0.008457921 0.05237774 0.017313011 0.06654058 0.038084514 -0.06374974 -0.019170705
-0.050553378 0.063478254 0.087656826 0.060785882 0.016458673 0.00061172474 0.044546995 -0.012149726
0.018724704 0.020651415 0.018322054 0.06602139 0.04231341 0.024297047 0.0022945136 -0.034918897
0.033656955 -0.0064790067 0.015559681 0.022834487 0.059943434 0.040320065 0.029864693 0.003261197
-0.010055001 -0.027074305 0.053931314 -0.051011033 -0.022758717 0.041618366 -0.024514385 0.00039633916
0.0008734122 -0.08253813 -0.06328545 0.025417965 0.011341788 0.006848416 -0.02825336 -0.00614978
-0.03240662 -0.03603608 0.050172426 -0.0152374245 -0.022511829 0.055057067 -0.033259157 0.060030084
-0.11690254 -0.041637592 0.032811064 -0.022724077 -0.07615773 -0.026176825 0.083355665 0.07788826
0.04230685 0.0014428316 -0.03259963 -0.021840403 -0.038049947 -0.061588675 0.04890432 0.015674578
0.11052188 0.08612644 0.086416915 -0.0037984513 0.032459527 0.064396136 -0.011682106 0.030840972
0.124254726 -0.009546672 0.04088128 0.1107219 0.11204078 0.025708053 0.0021039254 0.08826194
0.13756828 0.057590265 0.073000446 0.082627356 0.07982362 0.031287093 0.058910728 0.006619867
0.11744022 0.11629231 0.05041548 0.12707701 0.09358583 0.03551482 -0.042555843 -0.001394167
0.20840949 0.09872768 0.02563967 0.12358953 0.09686378 -0.037075885 0.0013225044 -0.06805747
0.2137069 0.07559945 0.058657724 0.13459313 0.077026844 0.05261311 0.08286505 -0.06007282

network_body.observation_encoder.processors.0.conv_layers.0.bias f4 [16]
00000000: c2a6 b6bc 9c38 0b3d 05bf 17bd d109 593c
00000010: 9c77 1fbd 6e05 bcbc 440c 15bd 4ae0 573b
00000020: 7ad6 b1bc 28ef 09bd 28b5 06bd 18a0 1cbc
00000030: 1620 1ebd 59d7 24ba 94e9 3d3d 79bb d23c
-0.022296313 0.033989534 -0.037047405 0.013246969 -0.038932428 -0.022951808 -0.03638865 0.0032940083
-0.021708716 -0.033675343 -0.032887608 -0.009559654 -0.03860482 -0.0006288193 0.046365336 0.02572416

network_body.observation_encoder.processors.0.conv_layers.2.weight f4 [32, 16, 4, 4]
00000000: dd49 9cbd 19d3 31be 0183 0ebb 0dd6 533d
00000010: f623 723c 46c0 05be f184 503c 2b1c b13d
00000020: 5965 e3bc ac1c 6cbc 251c c13d 52e4 e03c
00000030: 42e4 17bd 604d 843d 8fb9 fd3d 7a4a 103d
00000040: d060 32bd 7b63 29bc 1ce1 bd3d 6532 c7bc
00000050: e383 ce3d 4bfc 1fbd f295 483d 56dd afbc
00000060: 63ab 273d 2bc6 6f3c 1369 213c 9849 cd3c
00000070: 3cd0 df3d 45bc 653d 57bf 32bd e7c4 233c
00000080: 3819 3abb 29b2 52bc 72c8 c33d c1ae 983d
00000090: 9b6c 2a3c 54ea 97bd d516 983d 9ef6 aa3d
000000a0: abe3 503c 8285 9f3d a581 9a3d aacd f43a
000000b0: 17cf 433c 9c03 9b3d 3f75 2d3d cca5 043c
000000c0: 10dc aabd c2f4 d83c a0db 023e 1159 91bc
000000d0: 4dd4 1a3d 0ff7 c5bb 2b99 b53d d878 7f3d
000000e0: ded0 38bd 99ef 003e 5f4a c03d 1297 a8bd
000000f0: 332f df3c 5380 973d 8730 b83c e2e5 983d
00000100: b552 bbbc 1e0c ab3c e930 e43d c782 213d
00000110: d625 5ebc b367 99ba 7d14 d33c fdfc bb3c
00000120: 9151 673d 6bf7 f7bc 8925 4a3d d362 af3d
00000130: 28ed 90bd 1f87 37bb b99b 743d 3765 583d
00000140: 76fe c9bb e678 86bc fea2 ba3d cc87 53bd
00000150: 86ee 66bd 35de b6bb 62d0 22bc 02ac 8a3c
00000160: b0c4 d3bd f0b0 3dbd 242b 5839 7bfc b1bd
00000170: 0507 1a3d 7032 de3d 8e4a be3c b297 143d
00000180: 7429 973c 1fa0 973b b703 013d baee 863d
00000190: ac53 843b c64a babc 508d db3c 970f 92b9
000001a0: 4a41 a13d fab6 cbbc 7c55 3c3d 1e2c 1b3d
000001b0: ab05 2b3d 476e a83d 34db a73d 7810 f43c
000001c0: 9835 c63d c5f8 603d 60ed 9f3c 58e8 cd3d
000001d0: d960 0c3d 3861 b6bc e6d3 013e 149e b73d
000001e0: 4383 a03d 993e bcbc 8b1a 2a3d ddbf 003e
000001f0: 9a68 cebc 16ef ba3c a7a8 423c eeb5 8cbd
00000200: 0a75 30bd cfb7 c73b f779 793d 7a01 663c
00000210: acdf f5bc 4df8 c1bd 5b5d 9d3c 3fb7 b1bd
00000220: fa63 ff3c 2cb5 423c b318 e53b 5f92 7b3d
00000230: 4e28 a93c b2db d23c d149 0b3e bd67 cabc
00000240: 4069 31bd 6c1a 0c3d aecc 033d 19ee 573d
00000250: 54e0 81bc 0b7b c43d c91d 243e 7978 be3d
00000260: 07c2 f73d 433f 233d f34d 8a3d 51bd fb3d
00000270: fe01 883d 9531 a83d b4c9 873d baa7 003c
00000280: e8eb 4bbb 2683 6bbd 143d 01bd 6bc1 023e
00000290: 02ff 833c a2f7 8e3b 7427 f83c 7a2e b93d
000002a0: ddc8 cd3b 4eaa d4bc 7b2d 323c 1149 833d
000002b0: bfe3 51bd 3c6b 3f3d 6075 073d 6cec da3d
000002c0: 14dd f8bd c360 fabd 9418 89bb 0891 a23d
000002d0: 22de 44bd 417d 25bd a95a 49bd c1fa b4bc
000002e0: 041b 793d f750 c43d 19d0 95bd 82cf 34bd
000002f0: cd10 07bc 5402 b4bc 2427 973d 263f 853d
00000300: ca99 9dbd ac6a c6bc 6848 27bd 86a9 f6bc
00000310: c90a 90bd aabe 9dbd 706a 443d ca98 623d
00000320: 5c31 b0bc 1a3e 6339 2543 843c d2ba c03b
00000330: e776 593d 905f da3c 8f3e 943d 722b a4bc
00000340: 1a62 a1bd 6158 b43d b77e bc3d c9f9 803d
00000350: b7d4 39bd 41d6 853d 2a7b 913c dfa9 843c
00000360: 1801 d6bc 1368 253d 8494 a2bb a16e bc3d
00000370: 332b 02bd 0647 383d c816 453c 2a41 083b
00000380: 3a38 e9bb 76de 7ebd 96b1 8b3d e6b2 d23d
00000390: 2daf 85bc 80d9 633d a843 b43d 0fc0 453d
000003a0: ce2a 633c fe16 863d 6bc0 e63d a036 f83c
000003b0: 54de e63c 7967 c23c c5b2 92bb 5cc4 d03c
000003c0: 7f85 78bd 2dce 613c 28c9 48bd b847 76bc
000003d0: e1f2 24bd eb1c adbd 5cf7 b9bb 0957 bf3c
000003e0: 26a7 d43b 4959 503c 5011 553c dc19 2dbd
000003f0: 6c36 c6bc 88f4 23bd 19d0 7c3d 166c fd3c
-0.07631276 -0.17365684 -0.0021745565 0.051717807 0.014779082 -0.13061628 0.012727008 0.08647951
-0.027758287 -0.014411133 0.09429196 0.027452622 -0.037082918 0.064600706 0.12388908 0.035227276
-0.04354936 -0.010338659 0.09271452 -0.024316022 0.10083749 -0.039058965 0.048971124 -0.021467846
0.04093493 0.014634649 0.009851712 0.025059506 0.109283894 0.05608775 -0.043639507 0.009995676
-0.002839638 -0.0128598595 0.09559716 0.07455207 0.01040187 -0.074177414 0.0742623 0.0834782
0.012749593 0.077891365 0.07544259 0.0018677015 0.01195123 0.07569048 0.042348143 0.00809617
-0.08342755 0.026483897 0.12779093 -0.017742665 0.037800122 -0.0060414146 0.08867105 0.062371105
-0.045121066 0.12591399 0.09389185 -0.082319394 0.027244186 0.07397523 0.022484077 0.07465722
-0.022866586 0.020879801 0.11142141 0.03943136 -0.0135588255 -0.0011703878 0.025766606 0.022947783
0.056474272 -0.030269345 0.049352203 0.08563771 -0.07076484 -0.0028004122 0.05971882 0.0528309
-0.0061643673 -0.01641507 0.091131195 -0.051643178 -0.056379817 -0.0055806884 -0.009937378 0.016927723
-0.103402495 -0.04631132 0.00020615436 -0.08690735 0.03760435 0.10849464 0.02322891 0.03627748
0.018452384 0.004627242 0.031497683 0.06588502 0.004038295 -0.022740733 0.026800781 -0.00027858905
0.07873781 -0.024867523 0.04597996 0.03788387 0.041753452 0.08224159 0.081961066 0.02979301
0.09678191 0.054924745 0.019522369 0.10054082 0.03427205 -0.022263154 0.12678489 0.08965698
0.07837536 -0.022979068 0.04152922 0.1257319 -0.025196362 0.022819083 0.01188103 -0.06870638
-0.043080367 0.0060949097 0.06090733 0.014038438 -0.030013882 -0.09471188 0.019209554 -0.086775295
0.031175602 0.011884015 0.0069914698 0.061418887 0.020649102 0.025739525 0.13602377 -0.02470767
-0.043313265 0.034204885 0.03217762 0.052717302 -0.015854038 0.09593781 0.16026987 0.09300322
0.12097555 0.039855253 0.06753149 0.122919686 0.06641005 0.08212582 0.06630269 0.007852489
-0.0031115953 -0.05749812 -0.03155239 0.12769096 0.016112808 0.004363016 0.03029225 0.09042068
0.0062800483 -0.025960114 0.010875101 0.06410421 -0.051242586 0.046733126 0.033070922 0.10689625
-0.12151542 -0.12225487 -0.004183838 0.07937819 -0.048063405 -0.040402655 -0.049158726 -0.022092225
0.06081678 0.09585755 -0.07315082 -0.044143207 -0.008243752 -0.021973766 0.07380512 0.06506185
-0.076953486 -0.024220787 -0.040840536 -0.030110132 -0.07033307 -0.07702382 0.04795307 0.055321492
-0.021507911 0.00021671542 0.016145298 0.0058816457 0.05309191 0.026656896 0.072384946 -0.020040248
-0.078800395 0.088059194 0.092038564 0.06297643 -0.045368876 0.06535006 0.017758925 0.016194282
-0.026123568 0.040382456 -0.004961552 0.09200788 -0.03177948 0.04498961 0.012029357 0.0020790794
-0.0071172984 -0.062223874 0.06820981 0.102880284 -0.016318882 0.055627346 0.08801967 0.048278864
0.013865186 0.06547354 0.112671696 0.030299485 0.028182186 0.02373098 -0.0044768774 0.025484256
-0.060674187 0.013782066 -0.049019963 -0.0150317475 -0.04027069 -0.08452781 -0.0056752395 0.023356931
0.006489652 0.0127166 0.013004616 -0.04226099 -0.024195872 -0.040028125 0.061721895 0.030935328

network_body.observation_encoder.processors.0.conv_layers.2.bias f4 [32]
00000000: 917a 8ebc 4841 e0bc 3bbb 1e3c 1e76 01bd
00000010: 1747 99bd 03b6 103d e2da 483d 905e 86bc
00000020: 5bec 9b3d 58e5 1e3d 2bb2 21bd 7580 4dbd
00000030: e4e2 19bc c3d3 c0bc 0ce7 fc3c ee3a a03d
00000040: f0c3 4abd f210 8b3d 9f00 17bd 70fa 453d
00000050: 15b9 7f3c 7c2b 11bd b70f 0cbc 06a3 05bd
00000060: 3518 253d 6c18 aebc 212d 94bd 5c11 9abd
00000070: bf73 503d a868 a83c 085b 943d 2448 0cbc
-0.017392429 -0.027374879 0.009688194 -0.031606786 -0.074842624 0.03532983 0.049036868 -0.016402513
0.076134406 0.038792938 -0.039476555 -0.050171334 -0.009392474 -0.023538476 0.03087189 0.0782374
-0.049503267 0.067903414 -0.036865827 0.04833454 0.015608092 -0.03544186 -0.008548669 -0.032626174
0.04030629 -0.02125188 -0.0723517 -0.07522842 0.050891634 0.020557716 0.07243925 -0.008562122

network_body.observation_encoder.processors.0.dense.0.weight f4 [256, 32]
00000000: 972a 1d3e fee9 933e 8aa2 aa3d 4086 2f3e
00000010: d836 a6be 212d b0be c483 c13e 6886 d5be
00000020: 451e a53d 794b c63e 0743 d83e cfad 703e
00000030: fffa efbe 93dc f23c f373 acbd c863 863e
00000040: 9e16 453d c936 1ebe 2f16 b43d 10a8 ccbe
00000050: ddba 9bbe a909 c1be 659b 0dbe c9af 803d
00000060: ae8e d43e c2c0 cfbd 0a48 94be 12cc 5a3e
00000070: b86e 613e 1ece c03c 4b53 a2be 0dc1 e8bd
00000080: a640 19be 7f51 233e 2839 92be 395b 62be
00000090: decd 38bf c08f 823d 26b9 1f3e c519 aa3d
000000a0: 3f4d 3dbe 2d27 0f3f 18a8 3bbe c329 43be
000000b0: b667 dc3e 737c d2bd b248 ac3e 4f12 943d
000000c0: 0d10 753e 9127 a73e 7f38 b7be be0d e3be
000000d0: 2d2f 9a3d 9232 a43e 8856 b63e 1608 32be
000000e0: cef0 debd eb14 373d 6d5f bf3e 05c6 7f3e
000000f0: 3657 31be bd27 c03d c9d0 5a3d 4fc6 e1bd
00000100: 15b6 383d 4d9c c43e 4bca e23e 045d 8c3d
00000110: c2b3 a5bb 42a2 3bbf 6b97 8e3d 3239 383f
00000120: ac5a 223f f951 183d 61e8 653c 8043 e1be
00000130: e710 e0bd a036 1c3e 6d0f 5d3e 3a25 b7bd
00000140: 7a58 2c3d aa19 293e 5059 6d3e c622 d83e
00000150: acaf 81be 5aa6 7abe 98a9 2b3e 2b2a 5bbc
00000160: 3d29 3abe 961a 1b3d 28e3 033c 7487 61bd
00000170: 93df 6bbd d57c c03c ece5 b3bd 1457 713b
00000180: 6a6d ab3e 037f 84bd a9da 6abe 3a78 a0be
00000190: 9a4b fdbe 719e 103e cf98 06bd 3ffc 9e3e
000001a0: 223f 48be fccb 8c3e ad6c d3be 616d bebc
000001b0: 64a3 1fbe cbdd c13c 35f1 f3bc d30d 31bd
000001c0: 5481 8ebe cf5a 9a3e ec05 29be c16a 563e
000001d0: afea 8ebd 394f f5bc 6d8c debe 6204 2dbe
000001e0: 552c 363c 3792 dcbe 2e75 f5be f602 1f3f
000001f0: daae aa3d 7e14 bd3e 1eb9 943e 50c0 a33d
00000200: f618 58be 8398 213f d855 d13e 1608 d33e
00000210: e156 1abf 4a5f b2bc 7f47 02bf 522e c3be
00000220: 3304 363e 3cb8 0bbd a7d6 d0bc 5ac7 543e
00000230: 9ac9 0fbd b622 ba3e 96f5 6c3d eb51 773c
00000240: 1e46 3d3e a3bc c93d 022c 033e b8b0 b03e
00000250: 7638 6bbe 6807 473e 3cab 43be 6f5b 403e
00000260: c1ab 85be b285 a43c 70ed c8be a7fa 2f3f
00000270: 1efd 0b3e bc3a 2f3e 8317 bcbe f1d1 b53d
00000280: 6b33 ad3d 8094 563c 6673 ef3c 6025 ed3d
00000290: 7f4f 36bc 22b1 d53e 3537 983e 7b6b efbd
000002a0: 518a b73e 5620 603d 5ee9 18bc 6689 043e
000002b0: b8cf c53d ec59 4a3e ba18 dbbe b97a 1bbd
000002c0: aa7e 8abe 7c8c 443e ff0d a73e 8feb fc3e
000002d0: d6ff 403d a117 12be cdd2 cfbe 1e75 86be
000002e0: f9a0 553e 74f8 323e 890b 89be 5faf 72be
000002f0: f0ed 04be 15ce 1c3e cee6 3fb9 41ca 753d
00000300: 57cb 393e f8f6 47bd f552 ad3c 219d 47be
00000310: 1cb2 2b3d 4b94 7dbe b568 6cbe 3200 de3e
00000320: 893b 903e b999 473e 325f 233e b7ee 92be
00000330: 2213 103e d99a 57be f295 b4be 37ce 6b3e
00000340: 4da7 0f3d 31c5 85bd a8c1 afbb e9a1 313e
00000350: efe7 9d3d beb6 f33d 52d2 793c 5232 27be
00000360: c75f fa3d d692 f6bc d2ed 9e3e 1397 abbe
00000370: 54d2 ff3e d81b cd3d cf73 803e 7259 c3bd
00000380: dcab 02be 241f 9fbe cdde 2f3c 799b 113e
00000390: a1c4 4c3e c08c 0f3e 7dfd 9abe 9bde 333c
000003a0: 04f4 58be 8c46 ffbd 034c 2f3e cffd 81bc
000003b0: c98f 42be a876 c43d 9e25 f83d ec36 693d
000003c0: be99 f53d 9d37 b6bb 5a42 d23e 8be7 873e
000003d0: 4b38 febd 644d 083f 60b4 44bb ed2f 1f3e
000003e0: caeb 0ebe d976 aabd e3f8 0bbf 1015 873e
000003f0: 03a2 373e 949f 1bbe 87cf 91be e1db 8a3d
0.15348278 0.2888946 0.08331783 0.17141056 -0.32463717 -0.3440943 0.37795842 -0.41704106
0.08062414 0.38729456 0.42238638 0.23503803 -0.46871182 0.029646194 -0.08420553 0.26248002
0.048117273 -0.15450586 0.08793294 -0.39971972 -0.30416003 -0.37702683 -0.1382881 0.06283528
0.41515106 -0.101441875 -0.2896121 0.21366909 0.22014892 0.023535784 -0.31704172 -0.113649465
-0.14966068 0.15949057 -0.28559232 -0.22105111 -0.7218913 0.063750744 0.15597972 0.083056964
-0.18486498 0.5591915 -0.18325841 -0.190589 0.43047875 -0.10277643 0.33649212 0.072300546
0.23931904 0.32647374 -0.3578529 -0.44346422 0.07528529 0.32069832 0.35612893 -0.17385897
-0.108857736 0.044697683 0.37377492 0.24977882 -0.17318425 0.093825795 0.05342177 -0.110241525
0.045095522 0.38400498 0.44294962 0.06853679 -0.005056829 -0.7329446 0.069624744 0.71962273
0.63419604 0.03718755 0.014032454 -0.4399681 -0.10940724 0.15255213 0.21587916 -0.08942647
0.042076565 0.16513696 0.23178601 0.4221403 -0.2532934 -0.2447752 0.16763914 -0.013376753
-0.18179794 0.03786715 0.008049764 -0.05506082 -0.057586264 0.023497025 -0.087840885 0.0036825584
0.33481914 -0.06469538 -0.22934975 -0.31341726 -0.49471742 0.1412294 -0.032860573 0.31051823
-0.19555333 0.27499378 -0.4129385 -0.023245515 -0.15589672 0.02366533 -0.029778102 -0.043226074
-0.27833045 0.30147406 -0.16506165 0.20939161 -0.06978356 -0.029945003 -0.4346651 -0.16896203
0.011118968 -0.43080303 -0.47940964 0.62113893 0.083341315 0.36929697 0.29047483 0.07995665
-0.21103272 0.6312334 0.40885806 0.41217107 -0.60288817 -0.021773953 -0.50890344 -0.38121277
0.1777504 -0.034111246 -0.02549298 0.20779172 -0.03510437 0.36354607 0.057851397 0.015095214
0.18483779 0.09850433 0.12809756 0.34509826 -0.22970757 0.19436419 -0.1910829 0.18784879
-0.261076 0.020083282 -0.3924365 0.6874184 0.13670775 0.17112249 -0.36736688 0.08877934
0.08457073 0.013096929 0.029229831 0.11579394 -0.011127352 0.41736704 0.2972962 -0.11690422
0.35847715 0.054718338 -0.009332983 0.12943038 0.0965876 0.19760865 -0.42792302 -0.037958834
-0.27049762 0.19194216 0.32627866 0.49398467 0.047118984 -0.14266826 -0.40590516 -0.26261228
0.20862187 0.1747759 -0.26766613 -0.23699711 -0.12981391 0.15312989 -0.00018301161 0.060007337
0.18143974 -0.048819512 0.021157721 -0.19493534 0.041917905 -0.247636 -0.23086818 0.43359524
0.28170422 0.19492234 0.15954283 -0.2869775 0.14069799 -0.21055163 -0.3527065 0.23027883
0.03507166 -0.06531752 -0.005363662 0.1734692 0.077102534 0.1190009 0.015247898 -0.1632779
0.12225299 -0.030099314 0.31040817 -0.33513698 0.49965155 0.100150764 0.25088355 -0.09538545
-0.12760872 -0.31078446 0.010734272 0.14219464 0.19996883 0.14018536 -0.3027152 0.010978366
-0.21186835 -0.124646276 0.1711884 -0.015868096 -0.19000162 0.095929444 0.1211655 0.056937143
0.119922146 -0.005560829 0.41066247 0.2654384 -0.12413081 0.5324309 -0.0030014738 0.15545626
-0.13957134 -0.0832345 -0.54676646 0.26383257 0.17932896 -0.15197593 -0.28478643 0.0678022

network_body.observation_encoder.processors.0.dense.0.bias f4 [256]
00000000: 3e43 f2ba 5293 b6bc cabf e1bc 8d06 ad3d
00000010: be4a 873c 25b1 953d 54f2 5e3d 093c e23c
00000020: bb1a b2ba 3bcc c5bc 19ee 983b 2c0d 8c3a
00000030: f3f3 da3c 7625 c53c 3b9c 0ebd f7b7 d1bb
00000040: 902a 90bb e9b0 b23d 2cdc 8b3c ad95 313d
00000050: 9d81 3fbc 9a19 b2bc 2a05 923d edf7 8a3c
00000060: a677 63bc fce1 123d d1a8 0a3c a101 5f3d
00000070: 1c0c 553c e4f0 b4bc 45fb bc3b 0434 ad3d
00000080: e7e7 14bd 8a9e 3d3d d01d b13c 97af 643d
00000090: 1413 23bd 268b 3b3d eeae 1b3d 30be 023c
000000a0: 8982 94bc 38c1 923c 36ff fdbc 6333 e53b
000000b0: bf57 713d 6368 a3bb d320 b33c d8d7 2a3d
000000c0: 91b8 383d 501c 4eba 711e 793d 0a50 3d3d
000000d0: 02fa 753d ccc9 053d 27cf 923c a9ca 583d
000000e0: 72e7 1b3c f602 463d e5c0 c43c 7d1a 7d3d
000000f0: b59c 2f3d a872 843c c459 093d 0165 37bd
00000100: 3e07 80bd a0a7 833c d4cf 913c fd1c 803d
00000110: d8f2 633d 7b22 38bb f3c6 93bc fb86 313d
00000120: 43d6 bebc e2b0 5c3d f62d 853b f332 de3c
00000130: 4862 1e3c 4772 25bb 2a9d a93c 630f a83d
00000140: a5d0 8abb 38fa 2b3c 97a3 04bd 6a94 2b3d
00000150: 29de eabc 5cc5 803c a2ef a53c 69f7 253d
00000160: 1cad 8c3d 9b0b ef3b 5c84 e33c 5aa8 2e3c
00000170: 590a 073c 9868 29bc 2d6b 2ebc 96e8 e1bb
00000180: 6ce0 213c 56c5 1d3b c968 85bc c248 1d3d
00000190: 4a56 8e3d e71f 103d 6f44 3a3c 9ea4 823d
000001a0: 8b53 ce3c 2d13 c3bc bde0 f33c 7536 ed3c
000001b0: 36b0 8d3d 68d3 74bc 6d89 2f3d e6f6 17bc
000001c0: 810c cc3c 25e2 3cbd cf90 2c3c 5354 62bc
000001d0: d213 b33c 3cd4 1c3c 4175 a3ba c840 523b
000001e0: 00a1 17bd f10e e7bb ae03 923c b4ed 3b3d
000001f0: 4ee6 e53c 6c41 9a3c e0ce 5fbc b899 323d
00000200: 2036 43bc c1bf 803d 8031 b33c d038 e93d
00000210: 06c2 913d 2769 f33d d11b 783d 2f97 d0bc
00000220: d9a1 1a3d 0547 313b 0813 a63c 98b6 c9bc
00000230: 6c26 f43b e934 883d 0751 b03d e49d c2bc
00000240: e6e7 9a38 a018 2f3b 0549 ac3d 4766 0f3d
00000250: d9b6 15bc 1c07 383b eeb2 4bbc 038f babb
00000260: 32b0 3e3d bc94 c93c cdb0 263d 1090 a43d
00000270: 4abd a13b 4b4e 27bd a509 493d 78e1 183d
00000280: 60c9 253c 7387 cd3c f0f6 083c 1a69 33bc
00000290: 68ca afbc fc75 2a3c eadf 06bd 0a88 113d
000002a0: d291 b03c cb2e 31bc 430b 363d b00e ee3b
000002b0: dd24 993d 3f40 2e3c a624 3a3d cb5b 3e3d
000002c0: a7dc 723c 8ff8 d93c 3771 823d 1f27 7a3d
000002d0: fc81 f23c 946b 9abb b614 b83d 37fc 03bc
000002e0: 940f 29bc 7d6e 1d3c e33b 383d 9b79 4cbc
000002f0: dccb f63c 34ff 2c3d 6a41 073c 6a26 eabc
00000300: ac3c 8cbc 3f3e 473c 211e 3dbc 241a 4d3d
00000310: ad67 8d3d 37e2 a43c 34e5 2d3d 59f0 08bd
00000320: c65a ec3b 8845 6a3c 2708 c43c 26f1 fcbc
00000330: 463e 593d 3258 023d ba62 1cbd 35fb 463d
00000340: 922f 683d 9f61 b43d 4ed1 793d 9438 af3c
00000350: 8306 af3c 0447 3b3d 4ba8 833d 3626 8f3d
00000360: 88d3 fa3c 909f 8c3c 2dea 1f3c 650d 87bc
00000370: c158 ff3b e3fe 003d e12a 963d 17e2 703c
00000380: 4b1f 743d 9687 a7bc a9a2 f4bc 4934 b43b
00000390: 4030 89bc 3272 973d 1676 1d3c 9c08 50bd
000003a0: 6de4 e83b b2a4 953c c410 2c3d eba6 953d
000003b0: 45e8 043d d5fe eb3c 8aee 923d cd9f 0a3d
000003c0: 5ad3 cb3c 51b2 823c 5f11 763d 0acf c53c
000003d0: bc28 c33c 4c66 213d 4a21 c03d dd03 33bd
000003e0: f274 a13c 99d0 9d3b 922c bebb 17bb 733d
000003f0: 56c7 a7bc 4d45 593c a9b0 0b3d 8b03 363d
-0.0018483174 -0.022287045 -0.027557272 0.08448515 0.016515132 0.07309178 0.05443032 0.027616518
-0.0013588289 -0.024145236 0.0046670553 0.0010685078 0.026727652 0.024065714 -0.03481696 -0.006400104
-0.004399605 0.08725149 0.01707276 0.043355633 -0.011688617 -0.021740723 0.07129891 0.016963923
-0.013883507 0.035860047 0.0084631005 0.054444913 0.013003375 -0.022087522 0.0057672583 0.08457187
-0.03635397 0.046293773 0.021620661 0.055831518 -0.039813116 0.045787 0.038008623 0.007979915
-0.01812865 0.0179144 -0.031005483 0.006994651 0.05892157 -0.004986809 0.021866238 0.04170975
0.04509789 -0.0007862495 0.060820047 0.04621891 0.06005288 0.03266315 0.017921044 0.052927647
0.00951563 0.048342668 0.02401776 0.06179284 0.042874057 0.016167954 0.033532873 -0.04477406
-0.06251381 0.01607114 0.017799295 0.06255529 0.055651516 -0.0028096724 -0.018039202 0.043341618
-0.023295527 0.053879626 0.004064317 0.027123904 0.009666987 -0.0025245117 0.020704824 0.0820606
-0.004236298 0.0104966685 -0.032382574 0.041889586 -0.028670387 0.015719108 0.020255867 0.04051915
0.068689555 0.0072950847 0.027773075 0.010660255 0.008242213 -0.0103398785 -0.01064567 -0.0068941815
0.0098801665 0.002407392 -0.016285317 0.038399465 0.06950052 0.035186674 0.011368855 0.063790545
0.02518632 -0.023812855 0.02977025 0.028956631 0.06918375 -0.014942981 0.04285567 -0.009275174
0.024908306 -0.046114106 0.010532572 -0.01381405 0.021860037 0.009572085 -0.0012470857 0.003208207
-0.037018776 -0.0070513417 0.01782402 0.04588099 0.02806392 0.018830024 -0.013660163 0.04360363
-0.01191476 0.06286574 0.02187419 0.11387789 0.07117085 0.118852906 0.060573403 -0.025462715
0.037752006 0.0027050388 0.020272747 -0.0246232 0.0074508693 0.06650717 0.08609205 -0.023756929
7.386487e-05 0.0026717559 0.08412365 0.03500965 -0.009137833 0.002808041 -0.012432797 -0.005693318
0.04655475 0.024607055 0.040695954 0.0803529 0.004935895 -0.04084615 0.049081463 0.0373244
0.010118812 0.025089001 0.008359656 -0.010950351 -0.02145882 0.010404106 -0.032928385 0.035530128
0.021553908 -0.010814379 0.044444334 0.0072649345 0.07477734 0.010635435 0.045445107 0.04647426
0.014823115 0.02660778 0.0636925 0.061072465 0.029602997 -0.0047125313 0.08988325 -0.008055738
-0.0103186555 0.009608862 0.044978987 -0.012480165 0.030126505 0.04223557 0.008255342 -0.02858277
-0.017118774 0.012160837 -0.011542828 0.050073758 0.0690454 0.020127399 0.042454913 -0.03343234
0.0072129695 0.014298804 0.023929669 -0.030876707 0.053037904 0.03182239 -0.03818009 0.048579413
0.05668599 0.08807682 0.060990624 0.021389283 0.02136541 0.045722023 0.06428584 0.0698971
0.030618444 0.01716593 0.009760422 -0.01648588 0.0077925627 0.03149308 0.07332397 0.0147023415
0.059600156 -0.020450395 -0.029862719 0.005499397 -0.01674664 0.07394828 0.009610673 -0.05078946
0.0071073086 0.01826701 0.042008176 0.07307228 0.032448072 0.028808037 0.07174404 0.033843804
0.024881054 0.015954169 0.06007516 0.024146575 0.023823135 0.0394042 0.093813494 -0.043704856
0.019709084 0.0048161265 -0.005803653 0.059504595 -0.020480793 0.0132611515 0.034104023 0.044436973

network_body._body_endoder.seq_layers.0.weight f4 [256, 266]
00000000: 7cce 9f3c ec04 05bd 44d4 933c 990c d3bd
00000010: 0804 173d 493f 38be cf97 b6bd 7ebf 40bd
00000020: ed31 b8bd b268 003e 9b91 f13d db7f e8bd
00000030: be68 f7bd f279 d03d 3753 89bd 33ba a03c
00000040: 8aee 1fbe ca9a 8ebc c75a c7bc cca1 50bd
00000050: 9394 6bbd d746 9fbc efff 91bd 6606 d83a
00000060: 34ab 61bc 82e1 813d f1a3 013b 5078 343b
00000070: 110c 0b3d ef5a 34bd e54d dabc 28ce bb3d
00000080: 2e41 ddbc e2cd 0e3e 41f6 3e3c d931 ef3d
00000090: b770 c33d 6602 c43d 2a2c 5ebd b2a2 2d3b
000000a0: 98f7 38bd c1bd ab3c 0082 53bd 3ec9 28be
000000b0: 4660 b43c dcbc 50bd 3863 e73c 43bb 763d
000000c0: c754 f8bc 728a 4ebb 4d3e 08be 66ee 11bd
000000d0: 4d4a 993d d291 18be 5786 9c3d bf9a 66bd
000000e0: e0d8 2fba dfb8 3dbd 1ed2 573c c221 a73c
000000f0: a396 eabd 1cea 853d bff7 d7bc f58a a73c
00000100: 0fe5 c13d fff0 e03d 758b 313d 6c80 5dbe
00000110: 74e2 17be 5446 bcbc a2d6 923d 1370 1cbe
00000120: 6b83 dabd 54a8 14bd 8aeb 983d 3d5c aebd
00000130: 7f76 d63d f4b8 a63d 21f8 b9bd a5dd e2bd
00000140: 7ffd 163e f55f 40bd d4b9 1e3e aafd 243b
00000150: eac2 81bc 2db4 1f3a 9ab7 553d f02d debb
00000160: 2ea0 08bc 5c9b 98bd d921 7a3d f09c 1bbd
00000170: 4d3f 323e 0a49 01bd 0662 2e3d a626 ea3a
00000180: 08ae 9ebd 9638 90bc 17d4 4cbc 2a96 1fbd
00000190: 9375 da3d 6fd5 b33c 67b6 0f3d f2b9 31be
000001a0: 0d87 553d 1ef4 e7bc e843 213e 196d aabd
000001b0: f481 9cbd 0027 953c 4a38 d43d ef19 eb3d
000001c0: b678 bc3d afeb bcb8 c306 b63d d06e b33d
000001d0: 609e 9e3d 8e94 c5bc 3e32 0c3c 5607 74bd
000001e0: c229 84bd 53b4 d03c dee4 74bd c9d4 08be
000001f0: e2de 3c3d a982 573d 017e 1e3e bea8 513c
00000200: 2e8b 5e3d a937 98be 6564 ef3b be96 d03d
00000210: cb04 46bd 9de4 4dbd a1a8 013e 66eb 793c
00000220: b0ef 943a f6cd aebd 5e4a 9cbd cd03 263e
00000230: af20 413c 5c15 e1bd 12b5 84be decc 573d
00000240: b370 3bbe a883 26bd 4a8c b63d 97d8 93bd
00000250: 4f71 103e 40f3 39bd 2aee e1bb f1bc a33c
00000260: d7de 64bd dcb3 063d 816a 44bd ceea fcbd
00000270: e340 debc f105 0a3d 1f30 49bd 0e39 11be
00000280: bf97 ec3c ab23 47bd ecd5 13be e195 0dbe
00000290: ca4e 05bc e3e6 953c 0cc7 8f3d cbfd b5bd
000002a0: 6a36 01be 49ad 083e 0973 4fbd ae3d 8dbd
000002b0: 4bd8 f6bd 97e8 643b 25ef 533b e53b 81bc
000002c0: 4d3f 48be f351 1bbd ef36 8bbd a184 49bc
000002d0: 3231 e1bd d5d9 553c b69a 8c3d 287d bebc
000002e0: 8fb8 a6bb fd38 a83d a660 3a3d 9fe8 d93d
000002f0: 672e 48be 28b3 61bd b85c 49bd 31a0 76bd
00000300: f610 513c dc74 9cbd 2b74 823d ebfd d3bd
00000310: 2248 11be 5880 843d bd1c 453d 9fca 4d3d
00000320: b4f0 243d 7d28 11bd de81 e7bc 0a7b 72bc
00000330: 5b6b 83bd d52c b0bd 4466 da3c a5a1 3cbe
00000340: 04aa 62be 3778 053d 985a aabd c4da 35be
00000350: 217a 303b 6db9 38be 225b 053c eef6 233e
00000360: 186d ccbd d551 d2bc 1760 e13d 2adc a5bc
00000370: 149b 48bc 9b74 833d 3f2b 5cbc 97e3 32bd
00000380: 3c9d c2bd c4c7 963c 4a24 bcbb b233 febc
00000390: 8572 a6bd 30a7 e93c 572b eb3c 40b3 49bc
000003a0: e36d 71bd ac8f 5f3d fbe8 f5bd b49d 193c
000003b0: 4db9 2f3e 9b6e 723d c97e 55bd 4f0b 0c3e
000003c0: f240 e6bc 91b8 69bd b79c a43d 426a a9bd
000003d0: 4685 adbc c930 d8bd dadd f5bd 6948 8ebd
000003e0: 7b85 373d 6d91 9b3d ea60 a73b 89cc 96bc
000003f0: a2c8 283d 7d90 323c 823f 19be b541 c3bd
0.01950764 -0.032475397 0.018045552 -0.10305137 0.03686908 -0.17992891 -0.08915674 -0.04705762
-0.089938976 0.12539938 0.1179535 -0.113525115 -0.12080525 0.10179509 -0.06705325 0.019620037
-0.15618339 -0.017407794 -0.024335278 -0.05093555 -0.05751474 -0.019442959 -0.071288936 0.0016481399
-0.013773728 0.0634184 0.0019781555 0.0027537532 0.033947054 -0.044032034 -0.026648471 0.091701806
-0.02700862 0.13945726 0.011655391 0.116794296 0.09542983 0.0957077 -0.054241337 0.002649468
-0.045158 0.020964505 -0.05163765 -0.16483018 0.022018563 -0.05096136 0.028245553 0.06023718
-0.030313862 -0.0031515625 -0.13305016 -0.035627745 0.07484875 -0.14899376 0.07642811 -0.05629992
-0.0006708037 -0.046318885 0.013172654 0.02040184 -0.11454513 0.065387934 -0.026363252 0.020452002
0.094675176 0.10983466 0.043345887 -0.2163102 -0.14832479 -0.022982754 0.07169844 -0.15277128
-0.10669597 -0.036293343 0.074668005 -0.08513687 0.1047182 0.08140746 -0.0908053 -0.110774316
0.14745139 -0.04696651 0.15500575 0.002517561 -0.015840013 0.0006092217 0.05217705 -0.0067803785
-0.008338971 -0.074515074 0.061067436 -0.037991464 0.1740696 -0.031563796 0.04257395 0.0017864301
-0.077480376 -0.017605107 -0.012501738 -0.038961567 0.10666957 0.021952359 0.03508606 -0.17356089
0.052130748 -0.028314646 0.1574856 -0.0832159 -0.07641974 0.018207073 0.10362299 0.11479556
0.09202711 -9.008438e-05 0.088880084 0.0876137 0.077450514 -0.024118688 0.008556901 -0.05957731
-0.06453277 0.02547661 -0.059788577 -0.13362421 0.046110995 0.05261484 0.15477754 0.012796579
0.05433195 -0.29729965 0.007305669 0.10185002 -0.048344415 -0.05026685 0.12661983 0.015253877
0.0011362936 -0.08535378 -0.07631372 0.16212387 0.0117875775 -0.10990402 -0.25919396 0.05268561
-0.1830471 -0.0406529 0.08913477 -0.072190456 0.14105724 -0.045397997 -0.0068948464 0.019987555
-0.05587658 0.03288637 -0.047953133 -0.12349473 -0.02713055 0.033697072 -0.049118157 -0.14181921
0.028880952 -0.048618 -0.14437073 -0.13826706 -0.008136461 0.018298572 0.07020387 -0.08886298
-0.12618414 0.13347353 -0.050646815 -0.0689653 -0.12052973 0.0034928673 0.0032338586 -0.01577563
-0.19555397 -0.03791995 -0.06797587 -0.012299688 -0.109957114 0.0130524235 0.06865446 -0.023253039
-0.005087919 0.08213995 0.045502327 0.10640072 -0.19548951 -0.055102497 -0.04916069 -0.060211364
0.012760391 -0.07639477 0.063698135 -0.103511654 -0.14187673 0.06469792 0.04812311 0.050242063
0.040268615 -0.035439003 -0.028260168 -0.014799843 -0.06416961 -0.08602301 0.026660092 -0.18421037
-0.22135168 0.03258535 -0.08318061 -0.17759234 0.0026928263 -0.18039484 0.008139404 0.16012165
-0.099817455 -0.025673786 0.11004656 -0.020246584 -0.012244005 0.06418725 -0.013438045 -0.043674078
-0.09502646 0.018405803 -0.0057416307 -0.03103051 -0.081273116 0.028522104 0.02870719 -0.012310803
-0.058942687 0.054580376 -0.12007328 0.009375978 0.1716053 0.059187513 -0.052122865 0.13676189
-0.02810714 -0.057060782 0.080377035 -0.0827222 -0.021181714 -0.1055618 -0.120052055 -0.06947405
0.04480503 0.07596097 0.0051079886 -0.018408077 0.041206963 0.0108987065 -0.14965633 -0.09534017

network_body._body_endoder.seq_layers.0.bias f4 [256]
00000000: b126 d6bc f373 463c dd52 83bc c5c3 f13c
00000010: 1f41 2f3c dd73 933b e14e c6bc b8fc 333c
00000020: c30b 00bd c204 f8bc 5627 13bd adce 403d
00000030: f1a3 aa3b 8c3e e73b 0d7b 0fbc f2a0 343c
00000040: 5994 0e3c 0dea 83bc 2921 44bc 028f 123c
00000050: d8f6 8c3c b0d7 023b e920 b63c 3acd aa3c
00000060: f817 0c3d 3c6f a83c 124e 75bc de72 043d
00000070: 4de9 e5bc af4d 913c 0269 be3b 0940 203c
00000080: 5aaa 3c3b 044d 48bc 2029 953c 7fc7 30bc
00000090: ac48 b0bc 1fea 39bd 95f5 663c 1346 973b
000000a0: 7a21 bc3b 0be6 493c 6c25 0cbd 9866 ab3c
000000b0: 55af 6bbc 91b7 eabb 519f 63bc 5c93 f3bc
000000c0: dc87 c1ba b730 1e3b 8082 153d f502 49bc
000000d0: e5ba c6bb 855c 373c cfe7 a6ba 1ff0 1bbc
000000e0: f1bc 13ba 7d1a b83c 3717 ba3b 3dad f0bc
000000f0: 5366 05bc 20ce 74b7 f9ca 90bc eb23 0c3b
00000100: ec4b c3bb 1b12 173c 4965 86bc 355e ef3b
00000110: 130f 6fbc 4d06 eb3b 0e07 093c 9c1d 2a3c
00000120: 354f 1c3c 6098 a3bc 3006 a3ba 3912 343d
00000130: 3ee6 bfbc cd43 aa3c cbeb bebc a947 6f3a
00000140: 240a b6bc cb27 11bd 414e db3c 4579 c3bc
00000150: 7ab0 80ba 020a 93bc 7082 363d d6a7 d2bb
00000160: 47fe d03c 189a c03c e521 96bc 2b1c 8cbc
00000170: 6dbf b7bc 6b77 cf3a 027b f8bc b359 0c3a
00000180: 481c bb3c 496c 9a3c ed90 f2bc 22f4 213d
00000190: 72d6 afbc 010f 06bd 5adc 303c fa54 4c3c
000001a0: 8a42 e6bc c0a6 cfbc e375 bebb 4fd9 8fbc
000001b0: 33e6 613a dd29 1e3d 6252 2bbc d251 15bc
000001c0: bd3a aebc 6966 c63b 30cf 08bd 81a9 1f3d
000001d0: 828d c83c b07c 843c 39c8 00bd 5209 12bc
000001e0: c71a 99bc bfc2 3a3b c71f 04bd 82b9 eebc
000001f0: 8a83 163c 208f c83c d7d5 02bd 2b73 e33c
00000200: 7f1e 97ba 3ec7 a93c 6da2 3bbc 2955 88bc
00000210: 6c34 653b d482 aa3a a5ba 2f3d 8298 6b3c
00000220: 2206 943b 57ab 0e3d 0cb7 55bc 53a4 0bbd
00000230: 7fdc 9d3b 924c 773c 4451 46bc 6e1f 323c
00000240: 9f35 f93c 988a d2bc 3145 b83c 7b75 02bc
00000250: 871a d13c a0ed a93c 9dd9 213d ba43 763c
00000260: 05a1 3d3b 311c f63b 5a86 44bc bf25 b7bc
00000270: da77 06bc 7f4e 0c3c 70db c13c 1333 d4ba
00000280: dff8 9ebc 0819 883a 9f04 543c af7d 1abc
00000290: b0be 86bc de4e b13c 99ef 42bd 98ec e8ba
000002a0: 13fc 9d3c ef00 c13c a762 ab3b 9a22 b5bc
000002b0: 6d8d b53c 1745 efb7 5ba8 cabc cbef a2bb
000002c0: 1414 72bc e69f 143d 72e5 0abd 4fd3 97bb
000002d0: a943 e53c 4880 4d3c 5e32 413c 0780 713c
000002e0: d9f0 ebb9 37e1 e53c 4fda e2bc 5bbf 4f3d
000002f0: f4e2 3a3b 11d9 c33c 38a2 0cbc c7a6 88b9
00000300: 7a03 6c3c 135a d5bc 68f9 8fbc 6760 223c
00000310: dbc5 1abd 2635 533d d44d ad3b e272 073d
00000320: 9a8b 3b3c 6946 113d 05b5 b13c 104b 0e3d
00000330: 0ca9 0ebd b753 423d 9157 97bc 9cde 40bc
00000340: 633b 413c 3831 343c 4f21 cabc cd54 3cbc
00000350: 880f dd3b c103 d0bc d211 1ebd c6c0 c9bc
00000360: 145d a23c a766 fd3a 7ffe d5bc 149e 2ebb
00000370: 3d9e b9bb 78c0 793b e51c e03c aa2b 783c
00000380: 44dc a1bc 0075 30bc d055 e8bc e19f 82bc
00000390: 4c4a 9f3a d71d bf3c 4809 a83b 8862 fbbb
000003a0: 2818 b5bb 3d49 753c a647 383b 68f9 bdba
000003b0: 008e cf3a 1d66 9e3c cdc5 99bc 7927 4c3c
000003c0: 865a d63c 3d49 913c 481a 5a3c 4799 c4bb
000003d0: 7ea1 8bba 77c0 c9bb 6b42 3abd 5079 003d
000003e0: 314d ea3b b7a5 b23c 1acd 4f3c d578 3ebb
000003f0: 7c2a 21bd 697b babc 5981 12bc 0ece bb3c
-0.026141496 0.012112605 -0.016030723 0.029512295 0.010696678 0.004499896 -0.024207534 0.010985546
-0.031261217 -0.030275706 -0.035926186 0.0470721 0.0052075316 0.0070570167 -0.008757365 0.0110247005
0.008702361 -0.016102815 -0.011970797 0.0089452285 0.017207548 0.0019964986 0.02223249 0.020849813
0.034202546 0.020560853 -0.014972227 0.03233611 -0.028065348 0.017737238 0.0058108578 0.009780892
0.002878806 -0.012225393 0.018208086 -0.010789751 -0.021519028 -0.04538929 0.014096637 0.004616508
0.0057412954 0.012322913 -0.034215376 0.020922944 -0.014385064 -0.007162996 -0.013892964 -0.029733352
-0.0014765221 0.0024137923 0.036501408 -0.012268771 -0.00606476 0.011191492 -0.0012733879 -0.009517699
-0.00056357594 0.022473568 0.005679037 -0.029379481 -0.008142072 -1.45915255e-05 -0.01767491 0.0021383713
-0.0059599783 0.009220625 -0.016405718 0.0073049315 -0.014590996 0.007172382 0.008363498 0.010383036
0.009540369 -0.019970119 -0.0012437757 0.04396269 -0.023425218 0.020784283 -0.023305794 0.00091278047
-0.022221632 -0.03543834 0.026770713 -0.023861537 -0.0009818219 -0.017949108 0.04455799 -0.006428699
0.025511874 0.023510978 -0.018326709 -0.017103275 -0.022430146 0.0015828436 -0.030332092 0.00053539424
0.022840634 0.018850463 -0.029610122 0.039539464 -0.02146456 -0.032729153 0.010794723 0.012471432
-0.0281079 -0.025348067 -0.005812393 -0.017559675 0.0008617371 0.038614143 -0.010456653 -0.009113746
-0.021268243 0.0060546887 -0.033400714 0.03898001 0.024481539 0.016172737 -0.031440947 -0.008913355
-0.018689526 0.0028497425 -0.032256868 -0.029141191 0.009186635 0.02448231 -0.031942215 0.027764877
-0.0011529474 0.020724889 -0.0114523 -0.01664217 0.0034973873 0.001300896 0.042902607 0.014379622
0.0045173327 0.03483137 -0.01304413 -0.03409226 0.004817545 0.015093939 -0.012104336 0.010871751
0.030421076 -0.025700852 0.02249393 -0.00796258 0.025525345 0.020743191 0.039514173 0.015030796
0.0028935086 0.007510685 -0.0119949225 -0.022356866 -0.008207286 0.008563637 0.023664206 -0.0016189538
-0.01940578 0.0010383436 0.012940555 -0.009429379 -0.016448349 0.021644052 -0.04759178 -0.0017770706
0.019285237 0.023560015 0.005230266 -0.022111226 0.022162164 -2.8523193e-05 -0.024738481 -0.004972433
-0.014775295 0.036285304 -0.033910222 -0.0046333442 0.027986364 0.012542792 0.011791794 0.014739997
-0.00045002138 0.028061492 -0.027691988 0.0507196 0.0028516622 0.023907216 -0.008583598 -0.000260642
0.014405126 -0.026043927 -0.01757498 0.009910679 -0.037786346 0.05156436 0.005288819 0.033068545
0.011446858 0.03546754 0.021692762 0.034739554 -0.034829184 0.047443118 -0.018474372 -0.011771824
0.011793944 0.010998063 -0.024674086 -0.011494827 0.0067462362 -0.025392415 -0.038591214 -0.024628054
0.019819774 0.0019332961 -0.02612233 -0.0026644515 -0.0056646154 0.0038109105 0.027357528 0.015147129
-0.019758351 -0.0107700825 -0.028361231 -0.015945377 0.001215288 0.023329658 0.0051280595 -0.007671658
-0.0055265613 0.014971075 0.0028118878 -0.0014493885 0.0015835166 0.0193358 -0.018771077 0.012460583
0.026166212 0.017735118 0.01331193 -0.0059997174 -0.0010652987 -0.006156977 -0.045473497 0.031365693
0.007150315 0.021807535 0.012683177 -0.002906372 -0.039347157 -0.022763925 -0.008941972 0.022925403

network_body._body_endoder.seq_layers.2.weight f4 [256, 256]
00000000: c45e 32bd 98be 953d a97e a8bd e8db 14bd
00000010: 1d5f e8bd b3e6 6dbd fe01 503d 31b5 99bd
00000020: f5be e3bd 21a8 bdbd 2b79 08be 58ce 76bd
00000030: a090 1bbe 0567 c93d ac25 d0bb d7e3 5cbd
00000040: 5555 053e 0f39 1bbe 2b7f 88bd 9a09 833d
00000050: 0b14 ee3b 0a3f 973c 494c 843c 4950 9bbd
00000060: d323 813d 1024 093e 8519 0cbd 19d4 89bc
00000070: 8f67 723d 8b0a 85bb 30a6 40bd ccaa 17bd
00000080: f3b3 043c 0630 ebbc 6148 c0bb c60f 09bd
00000090: e52f c7bb 4c1a b2bd d204 c63c 8b16 703d
000000a0: 62bb b33d 8f26 073e ff9b a8bd 26ca aabb
000000b0: 0267 33be e0e7 de3d 141c 85bd e695 d1bd
000000c0: 61c0 883d 1707 7a3d d919 7fbc c532 43bc
000000d0: bd1b 8a39 e028 4abd e47f 46be d452 c5bd
000000e0: fed0 a8bd b6ee 1e3e 9baf 33bd d2a7 8abd
000000f0: 6e31 e9bd 3ccd 633c 8d3c 3bbd 48f6 04be
00000100: e8f3 953d 4222 133d 65f4 24bd 8d08 87bd
00000110: a7f3 61bd 4bfa 7fbd ceda 65bd 497f 09bd
00000120: 49b4 15be 48dd 47bd 80d2 143d 9d27 85bc
00000130: e7d7 393e 1a00 933d efa6 eebb 0d5e ed3b
00000140: 9fbd 16bd 6e1e 8f3b 6c0e ff3c b994 ff3c
00000150: 250e 153e 9c2c 39bd fe5c 043d 48c1 5e3d
00000160: 84c7 d7bd 56f4 95bd 0693 003d 7cc6 1f3c
00000170: 9fe4 b5bd b0ca 81bb c33d 29bd eabe 353d
00000180: c0ea 993d e898 9fbc 6dd7 3f3c dbc3 8a3c
00000190: fdee 14bd 003c a33d b330 923d 0a9a f33d
000001a0: e3a5 11bd 8781 db3d f98d 0abd 4d44 0cbe
000001b0: 4c1a b5bc 7342 ed3d 413f a9bd 8925 9a3d
000001c0: 6fce 07be 4d1c fabb e7e6 a83c 4621 30bd
000001d0: aeed 5b3d f0a8 cb3c c7fe 35bd 8dec 24bd
000001e0: 3995 533d 77eb 5a3d 5b70 abbb 977c 25be
000001f0: b521 ccbd 4b0d 0fbc 9c3e ffbd d991 f63d
00000200: dedc 77bd 551d a8bc 872a de3c 99ca 58be
00000210: e4bc c9bd 52f6 803d 12e0 08bc ec8e 173d
00000220: 503a c73d a8b1 ab3d 81d1 b9bc 3c4a a9bc
00000230: 2604 f6bb daf1 513d d45d c2bc 07bb 46bc
00000240: 441b 1abd 952d 673d 4be2 393c 8a84 e8bb
00000250: 63c6 6bbd 6664 5e3d aeb6 32bc f4ec 9abc
00000260: 633c 8e3c befe fbbd fcd1 62bd 5439 193d
00000270: 3c6e b7bd e139 113e 7c5a f9bc 3e75 9a3c
00000280: 2dca 5cbd dd14 babb fdc5 1abd dd29 5ebd
00000290: 847f 6a3d aa77 f23d 70c3 0dbd 848d 903d
000002a0: 8b88 13be 3164 45bd a110 b73d 6f0d 90bd
000002b0: ebe1 f03d 687c 01bc 5aaf 053c 3f76 bbbc
000002c0: 0f91 323d f251 a3bd 7d70 47bd ac1e 733d
000002d0: 4c43 b93d 0ed4 cebd d869 93bc 1863 b13d
000002e0: 03c8 48b9 bda1 313d 3c9d 5bbc 4ee7 623d
000002f0: d4b1 9e3d a319 ee3d 3683 ad3d d7ca abbd
00000300: af03 31be fee9 aa3b fd07 8a3c 82f7 6e3d
00000310: 592c 31bd 7b5c 79bb 9dfb 14bd a6e6 d6bc
00000320: 392c 7bbd 13be a8bc 2e10 b13d 36e3 ce3d
00000330: f906 8ebd cce4 4b3d c8c9 2bbb 9afa 1cbc
00000340: f851 4a3c b8f8 813d a531 483d 61db dcbd
00000350: f3f5 60bd e89f 913d 580b d73c e5ff f6bd
00000360: 8009 a8bc 1923 b4bd eeda 6e3c 2530 83bd
00000370: 8e22 07bd afa7 8c3d b577 cc3d 345c 983d
00000380: 4e18 92bd bd86 b33a 4ead 0fbc 37b0 553d
00000390: 60d9 1e3e f611 443e 5371 9e3d 51db 553d
000003a0: ef16 35bd 4514 b53d 393b 0d3e fae7 93bd
000003b0: aa86 1abe 9cdf 94bd 3218 cc3d a96e 0fbd
000003c0: b197 043e ffca 58bd 8288 3a3e 3832 8cbb
000003d0: c503 8d3b e216 6c3b 0734 5b3d b336 02bd
000003e0: 3001 56bc 69ef 21be bb67 e43d c37a 88bb
000003f0: ff1f ec3d d935 6fbd 9ab8 a5bd 570c 4d3c
-0.043547407 0.073117435 -0.082272835 -0.03634253 -0.113462664 -0.05808134 0.05078315 -0.07505263
-0.111204065 -0.09260584 -0.13327472 -0.06025538 -0.15191889 0.098341025 -0.006352147 -0.053928223
0.13020833 -0.15158485 -0.0666488 0.06398316 0.007265573 0.018462677 0.016149657 -0.075836726
0.06305661 0.13392663 -0.034204025 -0.016824769 0.059180792 -0.0040600947 -0.04703349 -0.03702812
0.008099544 -0.028709423 -0.0058680032 -0.03346231 -0.0060787075 -0.08696422 0.02417222 0.05861525
0.08775975 0.13198303 -0.08232879 -0.0052120863 -0.17519763 0.108840704 -0.06499496 -0.10233669
0.06677318 0.061041918 -0.015570127 -0.01191396 0.00026342078 -0.049355388 -0.19384724 -0.09634939
-0.08242987 0.15520748 -0.043868642 -0.067702904 -0.11386381 0.013903912 -0.045712043 -0.12984574
0.07321912 0.035921343 -0.040272135 -0.06593428 -0.055164006 -0.062494557 -0.05611687 -0.033568654
-0.14619555 -0.048795015 0.03633356 -0.01625424 0.18148766 0.07177754 -0.0072830836 0.0072438777
-0.03680193 0.004367641 0.031134807 0.031198846 0.14556177 -0.04520856 0.032315247 0.054383546
-0.105361015 -0.07321994 0.031390212 0.009751912 -0.08881497 -0.00396093 -0.041318666 0.044371523
0.07515478 -0.019482091 0.011709076 0.016939094 -0.03636073 0.079704285 0.07138195 0.11894615
-0.035558593 0.10718065 -0.033826802 -0.1369793 -0.022107266 0.1158494 -0.08264018 0.075266905
-0.13262342 -0.0076327682 0.020617915 -0.043000482 0.053693466 0.02486083 -0.044432428 -0.040264655
0.05165598 0.053447213 -0.0052318997 -0.16160809 -0.099673666 -0.008731197 -0.12463114 0.12039537
-0.06051337 -0.0205218 0.027119888 -0.21171035 -0.09850481 0.06296982 -0.008354204 0.037001535
0.09727919 0.083834946 -0.022682907 -0.02066528 -0.0075078188 0.05125604 -0.023726381 -0.012129552
-0.03762366 0.056439955 0.011345456 -0.007095878 -0.057562243 0.054294966 -0.010907812 -0.018911816
0.017362779 -0.123044476 -0.055376038 0.037408188 -0.089565724 0.14182235 -0.030438654 0.018854734
-0.053903747 -0.0056787566 -0.037786473 -0.054239143 0.057250515 0.1183923 -0.03461021 0.07058242
-0.14407556 -0.048191253 0.089387186 -0.07033812 0.117618404 -0.007903196 0.008159483 -0.022883533
0.04359537 -0.07974614 -0.04869126 0.059355423 0.09046039 -0.1009904 -0.017994806 0.08661479
-0.00019147996 0.043367136 -0.013404187 0.05539637 0.07748762 0.116259836 0.08472292 -0.08388298
-0.17286561 0.0052158823 0.016849512 0.05834151 -0.043255184 -0.0038049507 -0.03637277 -0.026233029
-0.06132147 -0.020598447 0.08645664 0.10101931 -0.06934924 0.049778745 -0.00262128 -0.009581232
0.012348644 0.063462675 0.04887547 -0.10784031 -0.054922055 0.07110578 0.026250526 -0.12060527
-0.020512342 -0.08795757 0.014578564 -0.06405667 -0.03299194 0.068679206 0.0998377 0.07439461
-0.07133542 0.0013696771 -0.008769346 0.052170005 0.1551261 0.19147477 0.07736459 0.05221111
-0.044211324 0.08841757 0.13792123 -0.072219804 -0.15090433 -0.072692126 0.099655524 -0.035017643
0.1294849 -0.052927967 0.18216136 -0.0042784475 0.004303428 0.0036024381 0.053516414 -0.031790446
-0.013061807 -0.15813984 0.111525975 -0.004165025 0.1152954 -0.058400963 -0.080918506 0.012515149
