results/PushBlockCollab_POCA_RND/PushBlockCollab/PushBlockCollab-12999968.onnx (onnx, 643240 bytes, 12 tensors)

network_body.observation_encoder.processors.0.conv_layers.0.weight f4 [16, 6, 8, 8]
000000 0d 8b 31 bd fc 26 aa bd d1 f2 9a 3c 80 64 dc bd
       -0.0433455 -0.08308217 0.018914612 -0.10761356
000010 72 08 0b bc aa f6 0a be ed 4e 9e bd 43 10 e2 bc
       -0.0084859 -0.13570657 -0.07729898 -0.027595645
000020 72 38 ac 3d a2 45 3d 3c 49 19 7e bd 55 1f d9 bd
       0.084092036 0.011552246 -0.062035833 -0.10601679
000030 72 07 d8 bd 08 89 5f bd ef 83 8a bc 4f b6 aa 3c
       -0.10548295 -0.054574043 -0.016908614 0.020838885
000040 b0 05 0b 3d ee 43 0a 3d bf 05 7a bd d1 ce fe bd
       0.03394097 0.03375619 -0.061040636 -0.12441791
000050 e2 98 d5 bc e9 70 d5 bd ad 68 ff 3c 31 7a 0e 3c
       -0.026073877 -0.104219265 0.031177843 0.008696125
000060 81 ac 78 3d 14 0b 84 bd b5 43 f3 bc 61 3d e0 bb
       0.060711388 -0.064474255 -0.029695371 -0.0068432544
000070 e1 af c6 3b 1d ad 8d bc db c5 85 3d 86 8f 54 bc
       0.006063447 -0.01729446 0.065318786 -0.012973672
000080 9d dd 56 3c 55 94 e9 3c cd c9 c8 3a 55 91 37 3c
       0.01311436 0.028513113 0.001531893 0.011204083
000090 96 61 b6 3d eb f0 58 bc a5 58 0c 3d bc 6f 6e bd
       0.08905332 -0.013241033 0.034264226 -0.058212027
0000a0 77 6e 46 bd 0c 4a bc bd 5e a7 68 bb 9f eb 1d 3d
       -0.04844519 -0.09193811 -0.003550015 0.038554784
0000b0 2e d8 63 bd 39 45 5b bd b2 3f de 3c 03 62 de 3d
       -0.055626087 -0.053532813 0.027129982 0.10858538
0000c0 24 94 23 3d f1 88 48 3d 40 9a 4f 3c a9 17 93 3d
       0.0399362 0.048958723 0.012671053 0.07182247
0000d0 83 54 a5 bd d5 68 14 bd 35 1c 4a bd c0 eb 4f bc
       -0.0807276 -0.036232788 -0.049343307 -0.0126904845
0000e0 92 fa d3 bc e8 93 26 3c c5 cb 3d bd 35 16 47 ba
       -0.025876317 0.0101671 -0.046336908 -0.00075945567
0000f0 4c b5 e9 bd 77 2f 3a be d9 45 46 bd a6 0f 60 bd
       -0.11411533 -0.18182169 -0.048406456 -0.054702424
000100 d7 74 88 bd 33 54 9f 3d 03 75 2f bb 90 15 01 3e
       -0.066629104 0.077797316 -0.0026772625 0.12605882
000110 8a a3 60 bd 3a f4 bb 3c 0a e3 99 3d 89 8d 83 3d
       -0.054843463 0.022943605 0.075140074 0.0642348
000120 97 65 90 3c eb 43 35 3d 85 ff a9 3d 58 c9 0a 3e
       0.017626567 0.044254225 0.083006896 0.13553369
000130 f6 6b 9d bd ff 30 3c 3e 02 0e ee 3c dc f3 06 3e
       -0.076866075 0.18378066 0.029059414 0.13178962
000140 b9 3c 74 bd be 17 60 bb 23 93 b0 3d 09 9f 65 3d
       -0.059628222 -0.003419384 0.08621814 0.05605987
000150 c0 b6 90 3d 3e 15 d3 3d b2 75 4d 3e f4 0f 17 3d
       0.07066107 0.10306786 0.20064428 0.03688045
000160 bf 70 ca bd 6e 44 ad bb 9e 92 4d 3e c8 1d e1 3d
       -0.09884786 -0.0052876985 0.20075461 0.109920084
000170 dd 4a b5 3c c0 cb 7f 3d 3b 7c 65 3d de 60 36 be
       0.022130424 0.06245017 0.05602668 -0.1781039
000180 db ec bb bb 4e 76 ae 3b 5e f9 df 3d 84 3e 42 3d
       -0.0057350225 0.0053241616 0.10936235 0.0474229
000190 03 49 a1 bc 25 ea 86 bc ce 1b 11 3a da 45 8b bb
       -0.019688135 -0.01646907 0.0005535454 -0.0042502703
0001a0 7e 0b 88 3d 47 b2 f9 3b 55 97 ec 3b e1 30 af bc
       0.06642817 0.0076201293 0.0072201886 -0.021385612
0001b0 27 57 7b bc 1e a0 80 3b 04 4e a9 3d aa 2a e0 bc
       -0.015340603 0.0039253375 0.082668334 -0.027364094
0001c0 75 0e 43 bb 18 35 37 3e 4d a9 ad 3d 20 9e 94 bc
       -0.0029763256 0.17891347 0.08479557 -0.018141806
0001d0 34 d7 c8 3c 4b 58 f5 3b eb 38 fb 3d 5d 88 c5 3d
       0.02451668 0.007487332 0.122667156 0.0964515
0001e0 9d 7e df 3c d7 c4 e8 3c 67 7c 5d bc c7 ee 58 3c
       0.027282054 0.028414173 -0.013518429 0.013240523
0001f0 58 45 f0 3d 13 92 0c 3d 14 9b fc 3d bc 97 4d 3e
       0.11731976 0.034318995 0.12334266 0.20077413
000200 0f e7 35 3d 3a 41 60 3b 25 0e af bc 33 7f a9 bc
       0.044409808 0.0034218566 -0.02136905 -0.020690536
000210 d8 24 9c 3c 45 db bd 3b 8d b0 71 3d 57 b2 9e 3b
       0.019060537 0.005793961 0.059006263 0.004843037
000220 84 61 5e bd cc e9 9b bc ce 80 22 3d 3f 0c 01 3c
       -0.054292217 -0.019032381 0.03967362 0.007876455
000230 ea 6a 9f 3d e8 af a5 3d 0b 4b ad bc 19 6f 91 b9
       0.07784064 0.08090192 -0.021153947 -0.0002773933
000240 53 d9 40 bc c3 13 84 3d f3 01 a7 3d 33 ac bd 3d
       -0.011770564 0.06449082 0.08154669 0.0926136
000250 a6 8b fd 3c d2 4f 40 3d 34 ac 0c 3d 9c 00 9e 3b
       0.030950379 0.046951123 0.034343913 0.00482185
000260 aa 7a 5f 3d 79 38 aa 3c 88 b1 34 3c 66 60 85 3d
       0.05456034 0.020778881 0.011028655 0.06512527
000270 3f 06 ac 3d 10 34 f5 3c 38 55 f8 bc 4a fe 2c bc
       0.08399629 0.029932052 -0.030314073 -0.010558674
000280 2b b5 d4 3b 3d 2d e3 bc 33 f2 92 3b e6 78 97 3c
       0.0064913235 -0.027731532 0.004484439 0.018490266
000290 63 57 92 3d 33 9f 0b 3d e1 e7 7a 3c 7c c4 00 bd
       0.07145574 0.03408737 0.015314073 -0.031437382
0002a0 85 bf 90 bc 76 e8 88 bd c3 36 10 3d 80 ab 95 bd
       -0.017669449 -0.066849634 0.035208475 -0.07308102
0002b0 ce 8e 9d bc 8b f4 03 3d f4 2b a8 bd 53 8f 9f 3a
       -0.019233134 0.032215636 -0.082115084 0.0012173451
0002c0 6c e1 02 bd fd 67 ef bd da 46 8b bd cd 19 b3 3c
       -0.03195326 -0.11689756 -0.06800623 0.021862889
0002d0 d3 3d 9d bc 79 c5 21 bd be d3 64 bd 52 9c 87 bc
       -0.01919452 -0.039494965 -0.055865996 -0.016554032
0002e0 13 5a 87 bd 10 38 b5 bd 28 7f 8d bb 1a 97 8d bd
       -0.06608977 -0.08848584 -0.0043181367 -0.06913586
0002f0 a2 82 98 bd 12 98 b3 3c a9 9f 41 bd c9 a1 85 3d
       -0.07446791 0.021923099 -0.047271404 0.06524999
000300 3b e9 44 be 7d e6 5a bd d6 5d 03 bd 78 eb 1d be
       -0.19229595 -0.053442467 -0.03207191 -0.15421855
000310 4c 1c 8f be 3d 56 bf bd 6d a9 fd 3c ba b9 03 3c
       -0.27951276 -0.093426205 0.030964578 0.008039886
000320 cb 89 f2 3d e3 c7 68 3d c1 37 05 bc bc a8 c4 bc
       0.11842688 0.05683125 -0.008130969 -0.02400624
000330 cf de 99 bd 22 78 a8 bd 42 18 9e bd 73 b0 c2 bd
       -0.075132005 -0.082260385 -0.077194706 -0.09506311
000340 f9 9a 56 3e 0a 87 73 3e a5 45 23 3e 54 e7 51 3d
       0.20957555 0.23781982 0.15944536 0.051246002
000350 b0 9e e5 3d fd 7b ca 3d 20 42 39 bd fc 70 60 bd
       0.11211908 0.0988693 -0.045229077 -0.05479525
000360 cb 79 1a 3e cd dc 89 3d 5e 2a 41 3d 7f e2 cd 3d
       0.15085523 0.067315675 0.047159545 0.10052966
000370 1b 53 e6 3d 43 95 c3 3d 0e 1d 89 3c eb aa 79 3d
       0.1124632 0.09549954 0.016737487 0.060954016
000380 87 20 c2 3d 1b 95 4f 3d a7 5a 07 3e 55 26 86 3d
       0.0947886 0.050679307 0.13218175 0.0655028
000390 d4 5a bd 3d fa a6 ca 3c 0f d5 03 3e d8 bb 04 3d
       0.0924584 0.024737824 0.12874244 0.032405704
0003a0 5d 87 40 3e 25 98 7c 3e 5a b8 82 3e 4d f0 75 3e
       0.18801637 0.24667414 0.25531274 0.24017449
0003b0 85 7d 1e 3e e0 c5 2b 3e bb 73 62 3d 51 3e dc 3c
       0.1547757 0.16774702 0.05528615 0.026885184
0003c0 dc ae 83 3e 17 d7 32 3e a1 18 21 3e ce ed 6a 3e
       0.25719345 0.17464863 0.15732051 0.22942278
0003d0 e5 cd 11 3e 13 f8 d2 3d b5 36 86 3d cf 33 cf bd
       0.14238699 0.10301223 0.06553403 -0.101173036
0003e0 f6 ce 33 3e 97 bd fc 3c 83 b2 e2 3d 9a 76 45 3e
       0.17559418 0.030852122 0.11069205 0.19283524
0003f0 28 56 b8 3d d4 2e 25 3d 1f 96 0b 3e 37 46 3e be
       0.09000808 0.040327862 0.13631485 -0.18581472

network_body.observation_encoder.processors.0.conv_layers.0.bias f4 [16]
000000 fe 1d 31 bd cb f7 21 3c 14 7c 91 bd c8 41 59 bc
       -0.043241493 0.009885739 -0.07103744 -0.013260312
000010 87 b5 9b bc 62 f4 70 bd d4 f0 01 be da 4a 84 bd
       -0.019007457 -0.05882681 -0.12689525 -0.06459589
000020 c1 1c f1 bc 7d f5 4e bd a4 88 cb bc 34 8e 8f bc
       -0.029432656 -0.050527085 -0.024845429 -0.017523862
000030 36 17 23 bd 10 f3 7c 39 83 6d fd 3c a3 bd d6 3c
       -0.039817058 0.0002412314 0.030936008 0.026213473

network_body.observation_encoder.processors.0.conv_layers.2.weight f4 [32, 16, 4, 4]
000000 b2 c7 b7 bd 81 b9 4f be de 72 c3 3b 52 05 4c 3c
       -0.08973636 -0.20285608 0.005964621 0.01245244
000010 01 1e 87 bc b8 d0 3f be 29 b8 78 3d 69 75 84 3d
       -0.0164938 -0.18731964 0.060722504 0.06467707
000020 0e 4f 6f 3b 6d ae 28 bd 59 05 2f 3e a7 96 05 3c
       0.0036515626 -0.04118197 0.17091884 0.008153594
000030 43 59 04 bd f0 e4 8a 3d 0d c0 1e 3e 9c ad 0b 3c
       -0.03231169 0.067819476 0.15502949 0.008525278
000040 78 5a 53 bd fd a7 44 bd a9 eb 86 3b a2 6a 4e be
       -0.05159995 -0.04801177 0.0041174483 -0.20157865
000050 8e 60 cb 3d e9 1d df bc c5 2c b0 bc 58 15 4f 3c
       0.09930526 -0.027235942 -0.021505723 0.012639366
000060 71 df 4f 3d 02 3d a7 bd 3b dd 14 bd 3f 97 21 3e
       0.0507502 -0.08165933 -0.036343794 0.15780352
000070 51 9c c4 3d ad 82 55 bc 82 04 e3 bd ea 6f 8b 3d
       0.096001275 -0.013031644 -0.11084844 0.06808455
000080 68 57 f5 bc 85 11 0c bc 42 1c ee 3d b1 53 68 3d
       -0.029948905 -0.008549099 0.116264835 0.05672044
000090 51 5c 96 bd 5a 38 a1 bd 78 a1 00 3e 34 ea 65 3d
       -0.07341827 -0.07872076 0.12561595 0.056131557
0000a0 91 10 b0 3d c5 6c 3f bb 3b dc c5 3d 7d 74 91 3c
       0.0859691 -0.0029209119 0.09661146 0.017755741
0000b0 35 dc 99 3c be 47 85 3d 83 f8 61 3d cf 92 62 3d
       0.01878176 0.06507824 0.05516864 0.05531579
0000c0 da b7 f6 bd a7 20 8c 3d 33 9e 10 3e 89 9a bc bd
       -0.12046786 0.068421654 0.14122848 -0.09209163
0000d0 9c 2b 97 3c b1 7c b7 3d eb 57 06 3e 38 9d b3 3d
       0.018453412 0.0895933 0.13119476 0.087702215
0000e0 13 e9 a8 bd b7 e6 b6 3d 09 fb 12 3e 99 cc 91 bd
       -0.082475804 0.08930724 0.14353575 -0.07119102
0000f0 41 d5 e4 3d 92 22 a3 3d a5 32 cd 3b 30 7d ba 3d
       0.111734875 0.07965578 0.006262141 0.09105909
000100 de fd aa bd 30 ba b4 3d 7d 46 fc 3d 87 01 bb 3c
       -0.083492026 0.08824575 0.12318132 0.022827877
000110 a1 23 42 bd 63 ca b8 3c 99 66 3f 3d b5 60 b6 39
       -0.04739726 0.022557443 0.046728704 0.00034785797
000120 f6 29 81 3d cc d9 c9 bd 6a cc 19 3d 1d c0 d7 3d
       0.063068315 -0.098559946 0.03754846 0.105346896
000130 62 c3 b9 bd 8f 1e 47 bd d5 67 11 3c 3b d8 01 3e
       -0.090704694 -0.048613127 0.008874853 0.12680142
000140 7a 3a 28 bd c4 cf 66 bc 19 14 8f 3d 5a 13 af bd
       -0.041071393 -0.014087621 0.06986255 -0.08548613
000150 a8 67 90 bd f8 4b f0 bd 86 a2 a7 3b 10 8d 03 bc
       -0.07051021 -0.1173324 0.00511581 -0.008029237
000160 df da ff bd 28 6c dd bd fe b8 84 3d d5 f2 12 be
       -0.12492918 -0.10811645 0.06480597 -0.14350446
000170 a8 06 bf 3d 08 d0 2e 3d db 6b 2f 3d c1 6f c3 bc
       0.093274415 0.042678863 0.04282747 -0.023857
000180 b3 7b 2f 3c 35 49 03 bd cc b4 81 3b 9c 39 9b 3d
       0.010710645 -0.032052238 0.0039583202 0.075793475
000190 20 37 3b 3d 30 81 1e 3d 5a 48 3f bc 6f 71 a7 bb
       0.04570687 0.03869742 -0.011674965 -0.005109958
0001a0 8c 47 a6 3d e9 8f 18 bd 0b af 1b 3d 67 be e4 3d
       0.08119115 -0.03724662 0.03800873 0.11169129
0001b0 9e f0 60 3d fe 31 65 3c ae 6b db 3d ac bd 20 3d
       0.05491697 0.01398897 0.10713898 0.039243385
0001c0 b7 af 6c 3d 8d a3 d1 3c 98 5d 2a 3c 70 8a c5 3d
       0.057784762 0.025590682 0.010398291 0.096455455
0001d0 ab 0a d5 3c da f0 c4 3c 1c 0c ff 3d 0e f0 c9 3d
       0.026006063 0.024040628 0.124534816 0.0986024
0001e0 8f ee dd 3c 9d 46 ec bc 55 a8 a8 3c db 78 3a 3e
       0.027091293 -0.028842265 0.02058808 0.18210165
0001f0 79 8e 10 bc 53 f0 a3 bc 12 6a 97 3c 9d 3f 53 bd
       -0.008823031 -0.020012056 0.018483195 -0.05157434
000200 f0 17 ce bb 91 d3 55 bd 63 ec a9 3d bb 11 50 bb
       -0.0062894747 -0.05220372 0.0829704 -0.003174885
000210 c3 8f ea bd 6e da 5f be 0d 44 a9 3c 90 c6 bb bd
       -0.114532016 -0.21860668 0.020662332 -0.09168732
000220 34 72 11 3d 8c da 12 bc f9 a7 8b 3d df 57 98 3d
       0.035509303 -0.008963238 0.068191476 0.07438635
000230 75 9c 8f 3d 45 07 cc bc 42 b6 e8 3d 73 ec 81 bd
       0.07012264 -0.02490581 0.11362888 -0.06343927
000240 aa cf ab bd a6 18 5f 3d 64 b6 f0 3c 40 88 f2 3c
       -0.08389218 0.054466866 0.029383846 0.029605985
000250 49 58 3b bc 95 4b cf 3d b2 35 1e 3e f7 f3 a0 3d
       -0.011434623 0.10121838 0.1545017 0.078590326
000260 6e 33 f5 3c 33 c7 14 bd ec b4 d9 bb 1b 81 41 3e
       0.02993175 -0.036322784 -0.006643882 0.18896906
000270 c8 ce b5 3b bb 8b 5a 3d a0 17 b4 3d 27 d3 fc bc
       0.005548332 0.053355914 0.087935686 -0.030862404
000280 d5 ee 45 3a 6c e6 ad bd 34 2d 90 bc a1 99 bd 3d
       0.00075505424 -0.08491215 -0.01759968 0.09257818
000290 c2 08 d5 bc d4 39 65 bd 83 33 fa 3c 2e 1f 1c 3e
       -0.026005153 -0.055963352 0.03054214 0.15246269
0002a0 eb cf 88 bc 9b 37 10 be 50 c1 2d 3c 61 a4 02 3e
       -0.016700706 -0.14083712 0.010605171 0.12758018
0002b0 33 54 bd bd ab ec 76 3d be ba a6 3c e5 43 8f 3d
       -0.09244575 0.060284298 0.020352717 0.06995372
0002c0 9e 4d 05 be af 3d 0b be b2 52 e4 3c 10 af 08 bd
       -0.1301789 -0.13597749 0.027871463 -0.033370078
0002d0 0f 3c 88 bd 8b fc 2b bd 86 cf b3 bd 05 be 97 bd
       -0.0665208 -0.04198889 -0.08779816 -0.0740929
0002e0 74 f8 0c 3e 61 95 ee bc 23 77 21 be 00 79 41 bd
       0.13766652 -0.029123964 -0.15768103 -0.047234535
0002f0 05 6f 42 3c a8 e9 8c bd 32 18 aa 3d 48 da c0 3d
       0.011867289 -0.06880504 0.08305396 0.09416634
000300 78 91 9d bd dc 7a 8c bc ee 7e 76 bd 5c 91 21 bd
       -0.076937616 -0.017148428 -0.060179643 -0.039445266
000310 97 ee f1 bd 99 93 32 be a4 5f 39 3c df 6e 83 3d
       -0.118130855 -0.17439117 0.011314306 0.06417631
000320 a2 95 c5 bc 49 25 af bc 94 35 38 3d b4 87 8e 3c
       -0.024119202 -0.021380084 0.04497297 0.017398693
000330 e7 36 dc 3d d4 cb b0 bc 9e 7a 42 3d a8 64 0d bd
       0.10752659 -0.021581568 0.047480218 -0.03451982
000340 73 35 44 be bc 72 c0 3d 71 af dd 3c 74 7b b4 bc
       -0.19161014 0.09396884 0.027061196 -0.022031523
000350 58 dc 0f be 5f 89 a9 3d 09 4d a5 3c 9f a8 00 3b
       -0.14048898 0.082781546 0.020178335 0.0019631756
000360 01 26 50 bd e2 16 ff 3d f8 1e 66 bc f7 b7 09 3d
       -0.050817493 0.124555364 -0.014045469 0.03362271
000370 a5 aa 29 bd 0d b6 43 3c ed 85 e5 3c e8 a6 4d 3c
       -0.041422505 0.01194526 0.028017962 0.012552001
000380 a6 db fe 3b 92 97 74 bd 6d 77 81 3d 9d fa d5 3d
       0.007777649 -0.05971486 0.06321607 0.10448191
000390 1f ae db 3c a8 12 5c 3c 1d bd 25 3e a1 8b 9a 3d
       0.026816426 0.013432182 0.16185422 0.07546163
0003a0 68 54 44 3d d4 28 eb 3c 1c 70 6b 3d b2 03 ac 3d
       0.04793206 0.028705992 0.057479963 0.08399142
0003b0 70 97 ed 3c d0 e4 15 3e 1e d7 4f 3d 72 68 1d 3c
       0.029002875 0.14638066 0.05074226 0.009607421
0003c0 70 fd f4 bd f3 7f 1d bc 97 c4 a2 bd c8 04 9f bd
       -0.11962402 -0.009613025 -0.07947653 -0.07764584
0003d0 f6 33 e0 bd 19 7d 42 be 8a 92 a6 3b 6d f9 3a 3d
       -0.10947411 -0.18993033 0.005083387 0.045648027
0003e0 59 4b b1 3c 0e 57 0d 3c 38 4d 37 3d ff 42 38 bd
       0.021642374 0.0086267125 0.044751376 -0.044985767
0003f0 3c 1a 47 3d 48 11 86 bd 0e 9d 7e 3b 52 c2 61 bd
       0.048609003 -0.06546265 0.0038850936 -0.05511696

network_body.observation_encoder.processors.0.conv_layers.2.bias f4 [32]
000000 e4 94 4e bd fe 22 e1 bd aa b4 19 bd 63 34 39 bd
       -0.050434962 -0.10993002 -0.03752581 -0.045215975
000010 94 90 80 bd fc d7 c2 3c dd f4 76 3d 44 a9 af b9
       -0.06277576 0.02378463 0.060292114 -0.00033504714
000020 fd 3f 8a 3d 30 fd e4 3c 52 d3 12 bd 90 8c 2d bd
       0.06750486 0.02795276 -0.035846062 -0.04237038
000030 49 c2 cd 3c 41 fd 03 bd 67 88 b6 3c d1 ee a5 3d
       0.025117056 -0.032223944 0.022281839 0.08102191
000040 9a aa 31 bd 63 a2 91 3d fb d1 66 bc 6f 29 e5 3c
       -0.04337559 0.07111051 -0.014088149 0.027973859
000050 b3 7b f0 3c 0f 4d 9a bc b3 e1 36 3c 08 3e 03 bd
       0.02935586 -0.018835573 0.011162209 -0.03204158
000060 9e 7a 3b 3d 6e 95 f7 bc 3c b1 32 bd 62 20 b9 bd
       0.045771234 -0.03022262 -0.043626055 -0.0903938
000070 fa f5 07 3d ce 37 1d 3c c8 26 99 3d 88 3d 3e bd
       0.033193566 0.009595824 0.074781 -0.0464454

network_body.observation_encoder.processors.0.dense.0.weight f4 [256, 32]
000000 26 a1 59 3e d5 a4 94 3e f5 19 97 3d 9b 17 73 3e
       0.2125288 0.29032007 0.07377998 0.23739474
000010 f8 a2 6a be eb 87 bb be 0e d0 ca 3e 2e 62 df be
       -0.2291373 -0.36627135 0.39611858 -0.43629593
000020 e6 b2 09 3e b2 f1 ca 3e 0f a4 c6 3e 6f cb 6a 3e
       0.1344715 0.39637524 0.38797042 0.22929166
000030 12 a5 ed be 60 91 34 3d 25 ea 94 bc be 10 99 3e
       -0.46415 0.044083953 -0.018178055 0.29895586
000040 05 63 9e 3c 6a e3 e4 bd 9c 9d 00 3e 61 17 b0 be
       0.019334326 -0.11176188 0.12560123 -0.34392837
000050 d5 b6 9f be 7a 15 a2 be 3d ef 45 be e5 d7 c8 3b
       -0.31194177 -0.3165701 -0.19329543 0.0061292523
000060 95 74 e3 3e 85 7b ed bd a8 6d ba be a2 92 34 3e
       0.44424883 -0.11595825 -0.36411786 0.17634061
000070 a0 47 81 3e 7c bb 90 3d e1 51 7b be 34 0a f7 bd
       0.25249958 0.0706701 -0.24542953 -0.12062493
000080 0f cf 1f be 3d 8b 61 3e 07 95 57 be be df e2 bd
       -0.1560633 0.22025771 -0.21052943 -0.11077832
000090 3a fb 34 bf f0 ce f4 3d 1a b1 4c 3e fb 39 d1 bc
       -0.7069584 0.11953533 0.19989434 -0.025540343
0000a0 6f 00 c4 bd 0f 63 1e 3f 7f 8a e1 bd 8d ed 48 be
       -0.09570395 0.618699 -0.11012744 -0.19621868
0000b0 bd 73 ee 3e 9d b8 e3 bd 4d 8d c0 3e 43 53 28 3e
       0.46572676 -0.111191966 0.37607804 0.16438012
0000c0 58 cb 85 3e 38 89 c9 3e 8c f2 d4 be aa aa c2 be
       0.261317 0.39362502 -0.415913 -0.3802083
0000d0 07 84 cd 3d ed 1c bb 3e 97 44 a4 3e 67 ac eb bd
       0.10034948 0.36545506 0.3208358 -0.115074925
0000e0 59 8d 12 be c6 04 72 3d 68 4b df 3e 88 76 3f 3e
       -0.14311732 0.059086584 0.43612218 0.1869756
0000f0 ac 8d 38 be dd 6a 0f 3e 56 e6 0c 3d d4 d7 c7 bc
       -0.18022794 0.14005609 0.034399353 -0.024394907
000100 59 26 44 3d 60 01 c2 3e 29 bb ce 3e 77 69 df 3d
       0.047888134 0.37891674 0.40377167 0.10908788
000110 a9 22 9c 3d 35 7d 4f bf 67 49 42 3d a5 e7 37 3f
       0.076237984 -0.81050426 0.047433283 0.71837837
000120 a8 5f 24 3f 6b 9d e7 3c be b3 af 3d ad 00 f1 be
       0.6420846 0.028273305 0.08579205 -0.47070828
000130 04 5e 1d be 27 54 1c 3e 16 1f 55 3e a5 a8 05 be
       -0.15367895 0.15266477 0.2081264 -0.13052614
000140 97 44 cb 3c 77 02 f6 3d e5 b4 7c 3e c8 56 f0 3e
       0.02481298 0.12012189 0.24678381 0.4694121
000150 b1 6f 79 be ae 0b 96 be b8 ee 3c 3e 09 4d f4 3c
       -0.24359013 -0.29305786 0.18450439 0.02982189
000160 e8 f3 e5 bd e5 e2 e9 3c 04 1c 44 bc ce c9 cd bc
       -0.11228162 0.028550575 -0.01196957 -0.025120642
000170 b8 67 67 bb c6 99 e9 3c fe 75 78 bc 7c a2 cf bc
       -0.0035309624 0.028515708 -0.01516485 -0.025346033
000180 4d c7 be 3e 0f 10 c4 bd eb c5 2d be 51 f2 90 be
       0.3726143 -0.095733754 -0.16970031 -0.28309873
000190 e4 f4 fe be 1b d9 a1 3d 3b b2 96 bb 5a da 97 3e
       -0.49796212 0.07902738 -0.0045988834 0.29658777
0001a0 48 da 43 be 47 8c 9c 3e 54 e3 bb be f8 e5 76 bd
       -0.19126236 0.30575773 -0.36696875 -0.06027791
0001b0 89 fa 3d be 57 8a 95 3d 62 a7 81 bd df eb 34 bd
       -0.18552603 0.07301777 -0.06330754 -0.044170257
0001c0 12 03 bd be 8a a0 9a 3e 5c d5 55 be 1b 21 5a 3e
       -0.36916405 0.30200607 -0.20882171 0.21301691
0001d0 cc 22 02 be 5b 42 48 bd 0b 0c e8 be 1c 77 62 be
       -0.12708586 -0.048891407 -0.45321688 -0.22115749
0001e0 09 b4 33 3d 86 9a 07 bf 84 e3 16 bf a0 fd 2e 3f
       0.043872867 -0.5297016 -0.5894091 0.6835575
0001f0 23 4b 4d 3d e9 ed a4 3e 97 66 a2 3e 26 a8 9a 3d
       0.050120484 0.3221276 0.31718895 0.07551603
000200 52 a9 47 be 32 f0 29 3f f7 f9 ca 3e 1a 65 d7 3e
       -0.19498184 0.66382134 0.39643833 0.42069322
000210 ef 05 0e bf 0b f6 11 bd 6d 00 06 bf 15 cd e5 be
       -0.55477804 -0.035635035 -0.523444 -0.44883028
000220 c4 f3 15 3e 29 69 36 bd 44 42 26 3d ea 80 27 3e
       0.1464377 -0.044533882 0.04059054 0.1635777
000230 8b 40 a2 bc 9b c2 c5 3e f4 cd b2 3d 5f 82 0e 3c
       -0.019806167 0.38625035 0.08730689 0.008698075
000240 9d ce 44 3e 9f 4a d9 3d 0e 1c d7 3d f0 7d b0 3e
       0.19219442 0.10609936 0.10503398 0.34471083
000250 b1 d9 68 be 6a d1 71 3e 36 4b 35 be 2e 40 3a 3e
       -0.22739293 0.23615041 -0.17704472 0.18188545
000260 f7 9a 3f be 74 09 1c 3c ae 08 ca be 32 ac 39 3f
       -0.18711458 0.009523738 -0.39459747 0.72528374
000270 e6 f5 03 3e 69 28 4b 3e 2c 47 ac be be e0 b3 3d
       0.12886772 0.19839634 -0.3364805 0.087831005
000280 55 36 df 3d ff 27 83 bc d7 94 0f 3d e6 48 1b 3e
       0.10899035 -0.016010283 0.035054054 0.15164527
000290 d4 82 fd 3c b9 0e c6 3e 5c 50 94 3e d3 c2 cd bd
       0.030946173 0.38683107 0.2896756 -0.100469254
0002a0 43 f8 ac 3e ad 13 63 3d 10 80 75 bd 33 56 14 3e
       0.3378316 0.055438686 -0.059936583 0.14486007
0002b0 d2 9a 80 3d 44 70 6b 3e 70 c0 d6 be 28 92 9d bd
       0.0627953 0.22992045 -0.41943693 -0.07693893
0002c0 8b b2 86 be 17 94 1c 3e f6 ee b6 3e 13 7e fe 3e
       -0.26308092 0.15290867 0.35729188 0.49705562
0002d0 ac fb 8d 3d 0f dd 0c be 47 34 c7 be 3f 36 89 be
       0.06932768 -0.13756202 -0.38907072 -0.267992
0002e0 68 21 81 3e 68 11 28 3e 9b 6c b9 be 75 d4 51 be
       0.252208 0.1641289 -0.36215672 -0.20491202
0002f0 a3 31 f4 bd da cd 13 3e 30 0c 28 3d 60 ba 7a 3d
       -0.1192353 0.14433995 0.041027248 0.061212897
000300 d0 07 4c 3e b9 c8 2a bd 90 7a 2e 3d 61 e2 39 be
       0.19924855 -0.04169533 0.042597353 -0.18152763
000310 be 70 c1 3d 2a e9 81 be 84 6c 3b be 6c 8c ee 3e
       0.09445332 -0.25373203 -0.18303114 0.46591508
000320 70 90 91 3e 01 26 22 3e 8b 3f 4b 3e e3 3e 91 be
       0.2843051 0.1583481 0.19848458 -0.2836829
000330 d7 71 2d 3e e3 ff 36 be 52 60 ac be 01 91 66 3e
       0.16937958 -0.1787105 -0.33667237 0.22516252
000340 86 27 07 3d 2d d9 6f bd 11 bd 82 3d 99 f8 63 3e
       0.032996677 -0.058556724 0.06383718 0.22262801
000350 d8 39 73 3d 72 12 0c 3e ec 90 b1 3c 52 cb 54 be
       0.059381336 0.13678911 0.02167555 -0.20780686
000360 da 5b 53 3e fd 44 da bc 5e 66 ad 3e 61 e8 a6 be
       0.20640507 -0.026644224 0.33867162 -0.32599166
000370 b0 2e 04 3f 66 d2 db 3d 1e 21 af 3e 91 6c 95 bd
       0.5163374 0.1073349 0.34204954 -0.07296098
000380 54 0f 2d be 50 13 bb be 6e 30 23 3c f5 e1 9f 3d
       -0.16900378 -0.36538172 0.009960277 0.0780677
000390 77 7b ff 3d e1 98 18 3e 58 00 ae be d2 5c 6c ba
       0.12474721 0.14902069 -0.33984637 -0.0009016517
0003a0 53 03 8d be 19 55 32 be eb 72 3d 3e aa 1b ec bd
       -0.275416 -0.17415275 0.18500869 -0.11528714
0003b0 f1 bd 37 be 15 65 c7 3d ad fb a9 3d 2f 09 38 3c
       -0.1794355 0.09736077 0.082999565 0.011232658
0003c0 86 68 09 3e 09 77 66 bc 5a e3 c7 3e 09 eb 40 3e
       0.13418779 -0.014066466 0.39040643 0.18839659
0003d0 bf 76 f1 bd bf 57 06 3f 19 7f 56 3d 84 95 3d 3e
       -0.11790227 0.5247764 0.052367304 0.18514067
0003e0 eb 1f f6 bd 7a ca f6 bd 6c df fa be 5d cc 90 3e
       -0.120178066 -0.12050338 -0.48998582 0.28280917
0003f0 12 b4 57 3e c3 1b 4c be 1d 88 9e be 41 64 88 3d
       0.21064785 -0.19932465 -0.3096322 0.06659747

network_body.observation_encoder.processors.0.dense.0.bias f4 [256]
000000 ff 02 d7 3c 1e ff 8e 3c aa 29 82 bd ec bb 9b 3d
       0.026246546 0.017455634 -0.06355603 0.07604203
000010 e8 bd d9 bc 9a 28 68 3d 2f 59 89 3d cd f2 04 3d
       -0.026579812 0.056679346 0.067064635 0.032458115
000020 a6 70 72 bd 37 07 6d 3c 52 ac e3 bb 9b e4 d5 3d
       -0.05918946 0.014467052 -0.0069480324 0.10443994
000030 1e 0b 7a 3d 2e 26 db 3c 7e 1b 62 bd ba 56 72 3d
       0.06104576 0.026751604 -0.055202 0.05916474
000040 49 de ef bc 5f d1 e7 3d 18 51 9c bc f0 a7 3a 3d
       -0.029280799 0.11319231 -0.019081637 0.045570314
000050 d0 6d 54 bd e7 f1 4a 3d d1 49 a1 3b 3c 60 c5 bc
       -0.051862538 0.049547102 0.0049221297 -0.02409374
000060 4c 34 6f bc 79 ee ad 3d 3b e6 ab 3d e4 c9 b1 3d
       -0.014599871 0.08492751 0.08393522 0.08681086
000070 d3 37 15 bd d2 2b a1 3c 9f 63 ca bc f5 ca e8 3c
       -0.03643019 0.019674215 -0.024705706 0.02841709
000080 93 56 b1 bd 3f 93 8d 3d 25 aa 8f 3c 2e e5 94 3d
       -0.08659091 0.069128506 0.017537186 0.07270275
000090 d3 3b 01 bd d7 9d 00 3d b6 5a 9d 3d 08 18 02 3e
       -0.031551193 0.031400528 0.07683317 0.1270448
0000a0 81 0a 39 bd 68 ec 58 3a 1c f3 ee 3c 82 a7 ed bc
       -0.045176033 0.00082749734 0.029168658 -0.029010538
0000b0 82 a4 3b 3d 3b 32 7d bd c4 17 a8 3c 91 5e 72 3d
       0.045811184 -0.06181548 0.020519145 0.059172217
0000c0 d3 8c 19 3c 9c 7c 25 bd 2b 96 a1 3d e8 af 6c 3d
       0.009371954 -0.04040204 0.078899704 0.057784945
0000d0 52 4d 6f 3d 29 59 e2 3c 31 5a 8e 3b c4 56 8e 3d
       0.058423348 0.027630406 0.0043442477 0.06950143
0000e0 90 b0 93 3c d9 48 5f 3c 5c 23 3d 3d 5b a9 84 3d
       0.018028527 0.013628208 0.0461763 0.064776145
0000f0 80 b8 6a bc 60 c9 90 3d cd 8c 28 3d 2b 1c 3a bd
       -0.014326215 0.07069659 0.041149903 -0.04543702
000100 95 82 c2 bc d7 3b dc 3c 2e 45 45 bd e0 14 39 3d
       -0.023743907 0.026884003 -0.048161678 0.045185924
000110 b6 28 0a 3e 06 50 26 3b fe 07 ed bc 52 06 18 3d
       0.13492092 0.0025377288 -0.028934475 0.037115403
000120 12 f4 cf 3c e7 76 86 3d 5d 7d 19 3c ef 80 07 bd
       0.025384936 0.065656476 0.009368268 -0.033081945
000130 7f 6b 30 bb 06 ca 69 bd cd 38 8f 3c 5e b5 94 3d
       -0.0026919541 -0.05707743 0.01748314 0.072611555
000140 33 a6 88 bb 06 04 c2 3c 78 94 85 bd 3a 51 1c 3d
       -0.004170203 0.02368356 -0.06522459 0.0381634
000150 8e 28 99 bd 07 28 08 bb 3a be 68 3d 0d 74 ac 3d
       -0.07478438 -0.0020775811 0.05682204 0.084205724
000160 ab ab e6 3d 1d c4 80 3d 0d ca 7d 3c cf b4 84 bd
       0.11263212 0.06287406 0.015490067 -0.06479799
000170 05 74 4c 3d 6f 90 75 bd 69 b2 52 3c 30 24 4d bc
       0.049915332 -0.059952196 0.012859919 -0.012520835
000180 58 c5 dc 3c fa 25 57 bd 86 aa 3b 3d 4c a7 ac 3c
       0.02694957 -0.05252645 0.04581692 0.021075867
000190 d3 19 c0 3d ec bf e5 3d 4f cb b9 bc 3d b2 68 3d
       0.093799256 0.11218247 -0.022679953 0.056810606
0001a0 07 9d 76 3d bc 7c 41 bd a6 1e 2d 3d bd 8c 8d 3c
       0.060208347 -0.047238097 0.042265557 0.017279023
0001b0 73 9f 89 3d 5c a9 ac bc de e0 20 3d 8e b9 81 bd
       0.06719866 -0.02107685 0.03927695 -0.0633422
0001c0 ed 50 e4 3c 2d d5 d9 bd 91 49 c6 3c 78 66 60 bd
       0.02787062 -0.10636363 0.024205001 -0.05478522
0001d0 44 ba 16 bd 3e 9d 71 3c f2 5d e3 bc a8 a5 1f bc
       -0.03679873 0.014746962 -0.027754758 -0.009744085
0001e0 b3 66 08 be c1 60 99 bc 04 51 5c bc 25 d9 c6 3d
       -0.13320427 -0.018722894 -0.01344705 0.09709386
0001f0 1f 04 13 bb e3 8f 5a bb ba 08 06 bc fd 27 31 3c
       -0.0022432876 -0.0033349923 -0.0081807915 0.010812757
000200 f3 87 a2 bd 2e 64 92 3d 56 4c 92 3c 13 2e d1 3d
       -0.079360865 0.07148014 0.017858665 0.10213866
000210 54 38 db 3d bf a9 ca 3d 6c 32 b4 3d ca 22 4e 3b
       0.10704103 0.09895658 0.0879868 0.0031453841
000220 54 53 10 3d 36 63 0b bd 86 47 15 3d ed e0 88 3c
       0.035235718 -0.03403016 0.036445163 0.016708815
000230 f8 be 0a 3d 0f 25 41 3d e5 db df 3c 5b 2a 3c 3b
       0.03387353 0.047154482 0.027326534 0.002871177
000240 76 c2 5f bd 71 aa f5 bc 68 cc fc 3d 2f 1d 81 3d
       -0.05462881 -0.0299885 0.12343675 0.063043945
000250 ff bb bd bc 7d 5d 95 bc 03 2f 07 bc e4 f1 2a bd
       -0.023160933 -0.018233055 -0.008250955 -0.04173459
000260 87 7f 3d 3d be 20 41 3d 5f b0 97 3d c6 54 9f 3d
       0.046264198 0.047150366 0.07406687 0.07779841
000270 f6 ec 1d 3d 4a d1 76 bd 20 7c 64 3d 7a b0 3f 3d
       0.03855606 -0.060258187 0.055782437 0.04679916
000280 1c 97 84 3d a5 5c de 3c ad 74 f1 3a c5 fe 89 bd
       0.06474134 0.027143786 0.0018421613 -0.067380466
000290 12 89 39 bd 99 ff 52 3d bf e6 64 bd cc 86 0e 3d
       -0.045296736 0.05151329 -0.05588412 0.03479652
0002a0 fd a6 2e 3d 62 46 88 3a 5b 3a 2b ba 0e e5 7e bb
       0.04263972 0.0010396952 -0.0006531828 -0.0038893851
0002b0 ef 27 fa 3c d1 13 94 3d 7d 4c 1b 3e 1b 91 11 3d
       0.03053662 0.07230342 0.15165897 0.035538774
0002c0 90 af 0c 3c 40 20 a8 3c 87 a0 c9 bb cf 71 aa 3d
       0.008586779 0.02052319 -0.0061531696 0.083224885
0002d0 51 d2 18 bd fe 5b 9a bd 94 16 db 3d 2f a3 28 bd
       -0.03730995 -0.07537077 0.10697666 -0.04117125
0002e0 49 fa a2 bc 4b ef c9 bc 50 eb a2 3d cd 0d cc bc
       -0.019894736 -0.024650237 0.079550385 -0.024908924
0002f0 ae b4 00 bc 34 ae a3 3d ee 27 84 3d 1f 4e 60 bd
       -0.007855577 0.07992211 0.064529285 -0.054762002
000300 65 78 1a 3d d5 dc 90 38 90 88 47 bd 7b a7 2c 3d
       0.037712473 6.907588e-05 -0.04871422 0.04215191
000310 ec c1 69 3d 0c 50 a2 3d 2c a9 37 3d 86 6c ce 3c
       0.057069704 0.07925424 0.04483907 0.025198232
000320 5a d1 1e bd e3 3b 56 3d 50 15 3c 3d 57 2f a7 bc
       -0.038773872 0.052303206 0.045918763 -0.020408316
000330 ca 8e b2 3d d2 57 1f bd de ee a4 ba 5e 50 22 3d
       0.08718641 -0.03890211 -0.0012583395 0.039627425
000340 1a b9 ae 3d 1d 58 a7 3b 1d 63 68 3d 96 17 cc 3c
       0.08531399 0.0051069395 0.056735147 0.02491359
000350 e2 ff 3b bb e7 02 c4 3b 08 fa 2b 3d c8 95 11 3e
       -0.0028686454 0.0059817913 0.041986495 0.14217293
000360 30 0b 3e 3d 70 11 6e 3d 35 c9 8b 3c 5d ae fb bc
       0.046397388 0.0581221 0.017063716 -0.030722791
000370 0f f9 41 bd b2 88 dd 3c 66 d0 54 3d 54 28 94 3c
       -0.04735666 0.02704272 0.051956557 0.018085636
000380 f2 67 a2 3d 4b 2b 99 bd 1c 53 77 bd 5d 60 ce bc
       0.07929982 -0.074789606 -0.060381994 -0.025192434
000390 37 c4 89 bd cd f3 29 3e 77 f3 17 3b 8d 20 d0 bd
       -0.06726878 0.16596909 0.0023185888 -0.101624586
0003a0 62 8c b5 bc 09 22 ce bb 00 c3 1d bc fb f5 52 3d
       -0.022161666 -0.0062906784 -0.009629011 0.051504117
0003b0 57 98 31 3d a6 b7 66 3d 5a 58 84 3d 21 7b 47 3d
       0.043358173 0.056327485 0.06462164 0.04870141
0003c0 ea f7 a1 3c e1 b7 18 bd e1 5b df 3d f3 a9 13 3d
       0.019771535 -0.037284736 0.109061964 0.036050748
0003d0 07 23 19 3d c4 69 59 3a 8b f6 82 3d 36 e1 65 bd
       0.03738692 0.00082936534 0.063946806 -0.05612298
0003e0 e2 67 f5 3b 85 04 98 3b 59 2e b4 3c bc fa b3 3d
       0.0074891904 0.0046392106 0.021994757 0.08788058
0003f0 00 8b 39 bc 3a 6f 7c 3d fb 48 b6 3d fc 37 0e 3d
       -0.011324644 0.06162951 0.08900639 0.03472136

network_body._body_endoder.seq_layers.0.weight f4 [256, 266]
000000 b8 b8 c1 3c b1 cb db 3c 4d 61 1b bb 1d 30 d0 bd
       0.023647651 0.026830526 -0.0023709119 -0.10165427
000010 16 77 17 3d 7a d1 57 be 69 0d 4a bd 83 48 c6 3c
       0.036978804 -0.21076003 -0.049329195 0.024204498
000020 d6 62 7c bd 68 e7 ae 3d 4f ad 13 3d 0e c5 4f ba
       -0.061617695 0.08540231 0.03605395 -0.0007925787
000030 65 28 31 be 0a 76 0a 3e 92 dc 9f bd af f4 47 3d
       -0.17300566 0.13521591 -0.07805742 0.048817333
000040 fe ae 5d be fc af bd bc f0 9e 92 bd 6d d1 59 bd
       -0.21648785 -0.023155205 -0.07159221 -0.05317824
000050 05 4b 9b bd 3c 6d 37 3d 0b 6f 16 bd b3 52 87 ba
       -0.07582668 0.04478191 -0.036726993 -0.0010324329
000060 83 eb 10 bc c0 75 92 3d 09 4a 65 3d 21 a0 22 3d
       -0.008845213 0.07151365 0.05597881 0.039703492
000070 54 8f 89 bc 8e 87 5f bd b8 6b 30 bd 7b 76 a5 3d
       -0.016791977 -0.054572634 -0.04307148 0.08079239
000080 71 05 0c bd 1f 73 2e 3e 11 22 33 3d ed 85 07 3e
       -0.034184877 0.17036103 0.04373366 0.13234682
000090 c6 74 0c 3e 1f be 0e 3e e0 59 c7 bd 2b 09 3a 3d
       0.1371642 0.13939713 -0.09733939 0.0454189
0000a0 47 c8 9c bc 8f 39 d2 3d 1d 6b 5b bd 6c 85 0e be
       -0.019138468 0.10264885 -0.053568948 -0.13918084
0000b0 2f 8e 51 bd 7c e9 1b bd 3c 89 68 3b e8 77 58 3d
       -0.051160987 -0.038064465 0.0035482189 0.052848727
0000c0 46 30 41 bc a3 aa ab bc 97 f5 ba bd 27 ec 99 bc
       -0.011791294 -0.02095539 -0.09128874 -0.018789364
0000d0 8a 48 b0 3d 92 f5 34 be d9 27 d0 3d ca 55 a5 bd
       0.08607586 -0.17671803 0.1016385 -0.080730036
0000e0 76 d5 87 3d bb fb 54 bd 52 c2 8e 3d bf 90 df 3c
       0.06632511 -0.05199788 0.069706574 0.0272907
0000f0 b0 89 ad bd 5d 90 e9 3d 33 6b 24 3b fe 09 50 3d
       -0.084735274 0.11404488 0.002508831 0.05079078
000100 01 20 13 3e c9 37 04 3e 60 d6 ea 3d 62 14 84 be
       0.14367677 0.12911905 0.1146667 -0.257968
000110 61 dc 57 be 1c f9 68 3d c8 e7 e0 3d e8 a2 31 be
       -0.21080162 0.056878194 0.10981709 -0.173473
000120 01 3c d6 bd e7 85 4b 3b 23 2f a1 3d 00 11 b5 bd
       -0.104606636 0.0031055154 0.07870319 -0.08841133
000130 5a 14 18 3e 44 d6 86 3d 23 05 88 bd 81 d4 03 be
       0.14851514 0.06583837 -0.06641605 -0.12874033
000140 91 68 34 3e 9d 68 19 bc 64 f9 4c 3e 2a e2 fc 3b
       0.17618014 -0.009363321 0.2001701 0.0077173905
000150 31 39 80 bd 90 e0 ab 3c 1d ce 65 3d f5 75 85 bb
       -0.062609084 0.020981103 0.056104768 -0.0040728995
000160 8e 61 e3 bc 3e 8b fe bc d9 81 b3 3d 8d 90 23 bc
       -0.027756479 -0.031072255 0.08765001 -0.009983194
000170 81 66 51 3e ab 18 95 3a cc 0a 82 3d b5 91 1b 3d
       0.20449258 0.001137515 0.063497156 0.037980754
000180 1e 28 2d bd 96 f7 9a bc b0 19 bb bc 68 af 87 3b
       -0.042274587 -0.018916886 -0.022839397 0.004140783
000190 31 9e e3 3d a3 38 6b 3d 8d f9 8d 3d 7c 63 54 be
       0.11114157 0.05742706 0.06932364 -0.20741075
0001a0 e3 a8 e1 3d a4 25 4c bd 9d c9 2a 3e d1 0d 3d bd
       0.11018541 -0.049840584 0.16678472 -0.046155754
0001b0 f8 08 5f bd 0c 56 93 3d 1f 03 eb 3d a9 8f a2 3d
       -0.054451913 0.071941465 0.11475205 0.07937557
0001c0 cb 34 c9 3d 20 75 47 bc a1 b0 e2 3d 8a db de 3d
       0.098245226 -0.012173921 0.110688455 0.108817175
0001d0 fe 7e 61 3d ea 42 8f ba 41 25 82 3c dc a7 94 bd
       0.05505275 -0.0010929976 0.015886905 -0.07258579
0001e0 54 17 82 bd b9 56 1a bd 82 6b bb bd f3 24 3c be
       -0.06352106 -0.03768036 -0.09151365 -0.1837347
0001f0 7e f2 d2 3c cf 15 99 3d 1a 5e 66 3e ef 06 8b bc
       0.025750395 0.07474863 0.22496834 -0.01697108
000200 45 c1 9b 3c 8d 9c a5 be 45 4c 83 3c ca fc eb 3d
       0.019013057 -0.32346 0.01602758 0.11522825
000210 ef 7a 8c bc ca 74 c6 bc 2a 1b 37 3e 58 d3 29 3c
       -0.017148463 -0.024225611 0.17881456 0.01036533
000220 61 17 7d bd 3f c4 9b bd 44 27 3d bd 6f 42 5e 3e
       -0.061789874 -0.0760579 -0.046180025 0.2170503
000230 54 53 c7 3d bd fc d8 bd 59 16 8b be dc 0b f5 3d
       0.097326905 -0.10595081 -0.27165487 0.119651526
000240 ce 01 45 be e4 c4 1a bd 83 ca 2e 3e df d9 29 be
       -0.1923897 -0.037785426 0.1706944 -0.16587017
000250 85 3d f1 3d 2d 52 88 bd 69 16 26 3d ba bb 94 bd
       0.11779312 -0.06656299 0.040548716 -0.072623685
000260 60 df 73 bd 16 3f 22 3d 73 41 34 bd 09 64 93 bd
       -0.0595392 0.039610945 -0.04400773 -0.071968146
000270 dc 24 a5 3c 8d 57 15 3d 98 0b 73 bd 58 42 11 be
       0.020159177 0.036460448 -0.05933723 -0.14185464
000280 d3 bb b3 3c 72 20 30 bd b1 af 93 bd e9 0a 0a be
       0.021940148 -0.042999692 -0.07211245 -0.13480724
000290 21 b2 1b bc a3 4f 7a 3d 49 59 89 3d e0 2b ba bd
       -0.009502918 0.061111104 0.06706483 -0.090904
0002a0 1e d5 e6 bd d0 78 f7 3d 3a 6c ff bc 99 63 e1 bd
       -0.11271118 0.1208359 -0.031179536 -0.11005325
0002b0 2b 23 19 be 35 5f 79 3d 5b 12 13 bd 46 96 d6 bc
       -0.14954822 0.060881812 -0.035906177 -0.026194703
0002c0 5f 28 9a bd 09 a3 ea ba 25 ab c1 bd 59 f7 eb 3a
       -0.075272314 -0.0017901371 -0.09456471 0.0018002792
0002d0 b6 48 ed bd fa 1c 50 3c b9 26 fa 3d 61 22 76 3c
       -0.11586134 0.012702221 0.12214417 0.015022845
0002e0 94 c0 9a 3d 82 5f 94 3d ed e8 93 3d a1 c2 0a 3e
       0.075562626 0.07244779 0.072221614 0.13550808
0002f0 27 72 3f be af 9a 7b bd cb f1 ea 3c 8e 88 c5 bd
       -0.1869589 -0.061426815 0.028679749 -0.09645186
000300 c9 65 80 3c 18 bd 3e bd 24 14 aa 3d 85 06 2a bd
       0.015673535 -0.046567053 0.08304623 -0.041510124
000310 f2 49 23 be 1b 58 e0 3d 61 3d 86 3d 61 3a 8c 3c
       -0.15946177 0.10954305 0.06554676 0.017117681
000320 7d 02 1d 3d 67 9a 65 bb 04 33 92 bc 17 d6 63 3c
       0.03833245 -0.0035034658 -0.017846592 0.013906023
000330 a8 0d 13 bd ff 34 58 bc f8 d5 ea bc 0f b7 6e be
       -0.035901695 -0.013196229 -0.028666481 -0.23312019
000340 f8 ce 79 be bc 03 8d 3c 82 22 6f bd 5a a3 3f be
       -0.24395359 0.017213695 -0.05838252 -0.18714657
000350 45 75 18 3d 63 a1 77 be 17 4d ad 3d b0 dc 58 3e
       0.037221212 -0.24182658 0.08461969 0.21177936
000360 be 78 20 be ac 9b 2b 3d 1c b6 e6 3d f3 03 d6 bc
       -0.1567106 0.041896507 0.11265203 -0.02612493
000370 50 28 9a 3c 14 c2 67 3d ac 4a 25 bb 31 9b c6 3c
       0.01881805 0.05658157 -0.002522151 0.024243923
000380 0c 5d 83 bd b6 4c 74 bc 7a e0 11 3d 92 b5 21 bd
       -0.06414232 -0.014910867 0.03561447 -0.0394798
000390 ea 09 86 bd e6 0e d5 3d 59 31 c7 3d 58 29 e7 3b
       -0.0654486 0.10403232 0.09726209 0.007054489
0003a0 cc a8 88 bd aa e4 aa 3d 58 77 8b bd 7d d5 39 3c
       -0.066728204 0.083443955 -0.068098724 0.0113424035
0003b0 67 82 47 3e 6e 1c 5c 3d 8c 6e 4d bd d0 80 20 3e
       0.19483338 0.05373805 -0.050154254 0.15674138
0003c0 5e e9 bf bd 48 ae 2f bd 4e 85 75 3d 80 d7 cd bd
       -0.09370683 -0.042890817 0.059941582 -0.10050869
0003d0 be 9f 6d 3d ff 66 77 bd 02 56 07 be 48 7a d4 bd
       0.05801367 -0.06040096 -0.13216403 -0.10374886
0003e0 98 44 70 3d 4c da 1d bc 0a 89 7c 3d 37 cf 0a 3d
       0.058659166 -0.009634566 0.061654128 0.03388902
0003f0 09 a1 36 3d 8b f8 3e bd b1 be 3a be 36 dc 03 be
       0.04458717 -0.046623748 -0.18236805 -0.12876973

network_body._body_endoder.seq_layers.0.bias f4 [256]
000000 9f 39 ca 3c 30 4f 8c 3c 4f 41 b4 bc c7 a6 1f 3d
       0.024685679 0.017127603 -0.022003798 0.03897741
000010 0f bf 48 3c bd 59 a8 3c a3 c0 9a 3c 48 7f 72 3d
       0.012252583 0.020550603 0.018890684 0.059203416
000020 21 46 a1 3b 1e 94 88 bd cc ae f8 bc ad bf 86 3d
       0.00492169 -0.06668876 -0.030356787 0.06579528
000030 62 d5 76 b9 24 01 6f bc 02 f9 ee 3a ee e0 d1 3c
       -0.0002353988 -0.014587674 0.0018232169 0.02561995
000040 74 b5 2a 3d 86 ca 72 3b 23 14 fe bc 32 19 01 3d
       0.041676953 0.0037046983 -0.031015461 0.03151817
000050 3d 42 86 3c 9d 06 17 3d 0e f2 0d bc c5 99 7d 3c
       0.016389007 0.03687154 -0.008663667 0.015478556
000060 31 e1 0c 3a fd 4f 72 3c 30 28 15 bd 83 b4 29 3d
       0.00053741323 0.0147895785 -0.03641528 0.041431915
000070 d3 db da bc 91 b2 89 3c 7b 97 64 3d bd ed 6e bb
       -0.026716148 0.01680878 0.055808526 -0.003645762
000080 ac 8d 9c bb 4d 68 19 bc 2b 68 cc 3c ce e5 9b bc
       -0.004777631 -0.009363246 0.024952015 -0.019030478
000090 53 2f 4e 3b 7c 21 23 bd a0 18 2e 3d a7 3f 11 3c
       0.0031461313 -0.039826855 0.042503953 0.008865274
0000a0 bc cd 30 3d 46 f9 f8 3c 1d dc 19 bc c5 56 dd 3c
       0.043164954 0.0303923 -0.009390858 0.027018914
0000b0 e6 ed 2f bc 2b 5d 63 3c 4f 84 81 bd 56 d2 21 3d
       -0.010737872 0.013877193 -0.06324064 0.039507233
0000c0 f6 e1 79 bc 88 a7 de 3c 42 a4 cb 3d d3 8c 43 bd
       -0.015251627 0.027179495 0.09943439 -0.047741722
0000d0 9d 69 c9 bc 13 1b 1a 3b 9f f0 d0 3c f5 5d 76 bc
       -0.024586493 0.0023514673 0.025505362 -0.01503705
0000e0 0a 6a 0b bb b1 13 5a bb 1b 4c 7c 3c 15 fa bc 3c
       -0.002127292 -0.0033275897 0.015399004 0.023068467
0000f0 2b 97 92 bc f3 4d 9c bc 62 ef ad 3c 33 31 9e 3b
       -0.017894348 -0.019080138 0.02123231 0.0048276423
000100 06 76 34 3c 9c 68 86 bc a8 c0 be 3c ca b0 1c b9
       0.011014467 -0.016407304 0.023285225 -0.00014943178
000110 97 af fa 3c 20 68 6e 3c c5 19 2e 3c 1c 18 ed bb
       0.030601306 0.0145511925 0.010626261 -0.00723554
000120 48 6c 75 3b ff a3 e1 3b 21 f6 ae bb 98 b8 39 3d
       0.0037448574 0.006886005 -0.0053393994 0.045342058
000130 72 e5 be bc 2a 7a 24 3d 0d 33 78 3c 8e 6b ca 3c
       -0.023302767 0.040155567 0.01514889 0.02470949
000140 f2 7b 4f bd bc 44 99 bb c8 d1 19 3d bd 87 af bb
       -0.050655313 -0.004677383 0.03755358 -0.0053567574
000150 47 1f 86 3c af 94 8f bc d0 e3 04 3d 08 9a 3b 3c
       0.016372336 -0.017526953 0.03244382 0.011450298
000160 b8 4b ea 3c 8b bc 24 bc fd 27 bf bb bb 83 a4 3c
       0.028600559 -0.010054718 -0.0058336244 0.020082345
000170 ea b9 76 bc b6 31 c9 bc 80 59 3e bd 6f b1 2a bc
       -0.015058974 -0.024559837 -0.046472073 -0.01041828
000180 bb f4 22 bc d0 12 02 3d ad 90 9c bc 44 07 42 3d
       -0.009946044 0.031756222 -0.019111956 0.04737021
000190 f2 94 bd 3a 74 44 a6 bc 71 25 fa 3c bb 3a ff 3b
       0.0014463945 -0.020296313 0.030535432 0.0077889836
0001a0 d6 a6 8e bc f2 50 4e 3c f9 f5 fd 3c 26 c3 3e 3c
       -0.017413538 0.012592541 0.031001078 0.011643207
0001b0 93 0d 05 3d 39 47 40 3d 7d a1 1e b9 eb c7 1e bd
       0.03248365 0.046942923 -0.00015128213 -0.038764875
0001c0 ec 99 1d bd 3e 73 10 bc f7 3d 92 bc 4a 8d 7e 3d
       -0.03847687 -0.008816538 -0.017851813 0.062146463
0001d0 f9 03 01 3d fa 1e 64 3d 18 13 0f bd f2 04 4f 3c
       0.03149793 0.055693604 -0.03493032 0.012635456
0001e0 4a d8 b3 bb 98 d1 ad 3b 5a ed e0 3b 4d 63 50 bd
       -0.00548843 0.0053045265 0.006864232 -0.05087595
0001f0 34 59 cb 3b 4e e8 8b 3d cd c0 ab 3a 81 61 ff 3c
       0.006205702 0.06831418 0.0013103724 0.031174423
000200 d8 d5 81 bc bf c0 37 3d 58 01 03 3d 0d b9 d7 bc
       -0.015849039 0.04486155 0.031983703 -0.026333356
000210 a6 98 90 3a ea c1 89 3c 28 e7 35 3d f5 61 97 3b
       0.0011031821 0.016816098 0.0444099 0.0046198317
000220 45 b1 47 3b f3 75 5a 3d 91 cd 85 bc 90 47 6c bd
       0.003047065 0.05333514 -0.016333373 -0.057685435
000230 d7 bb b2 3a 6a ba 19 3b 57 69 43 bc 1a d7 b4 3a
       0.0013636303 0.0023457059 -0.01192697 0.0013797015
000240 7c 9a 97 3c 5e 99 ab bc 66 33 e3 3c 55 27 ff 39
       0.018506281 -0.020947155 0.02773447 0.00048666695
000250 c3 75 ee 3c c1 04 13 3d 77 c5 49 3d 9e be af 3c
       0.029108888 0.035893206 0.049260583 0.021453198
000260 06 6b 9e 3b 76 bc e1 3b 7c 59 e9 3b e3 64 90 3c
       0.0048345355 0.0068889214 0.007121263 0.017626232
000270 c2 79 69 3b af d8 88 3d 95 18 b8 3c 49 28 1a 3d
       0.0035625552 0.06681954 0.02247266 0.037636075
000280 dc 6d 01 bd 05 a0 d7 bc e5 ae f4 3b 7a 67 6e bc
       -0.03159891 -0.02632142 0.007467138 -0.014551038
000290 3c fa 50 3c 15 0f d9 3c 51 71 91 bd 00 c1 6c ba
       0.012754973 0.02649645 -0.071016915 -0.0009031445
0002a0 d1 eb da 3c a5 fa 3f 3c 53 6b 0e 3d 54 3b 6d bd
       0.026723774 0.011717473 0.03477032 -0.057917908
0002b0 bc 98 0c 3d 58 56 57 3c 68 a9 cf bc fb be 8a 3c
       0.034325346 0.013143145 -0.025349334 0.01693677
0002c0 2e 6b dd bc 62 9a 29 3d e0 80 93 bd f6 44 84 3c
       -0.027028646 0.041406997 -0.07202315 0.016146164
0002d0 4a 80 1e 3d f2 87 95 3a 65 63 65 3d 48 d1 3b 3d
       0.038696565 0.0011408313 0.056002993 0.045853883
0002e0 d3 72 83 bc f2 e4 74 3c f7 f9 55 bd ef de 59 3d
       -0.016045963 0.014947163 -0.05224034 0.05319112
0002f0 2a 75 1e 3c db f3 4f 3d 74 5a 94 bc 6e 86 e5 3c
       0.009671489 0.050769668 -0.018109538 0.028018203
000300 26 ae 02 3c 97 e1 8e 3a a9 c7 13 3c 3a 7e 1f bb
       0.007976091 0.0010900971 0.009019771 -0.0024336712
000310 35 1f 16 bd e9 f0 46 3d 11 b6 c2 ba 74 95 25 3d
       -0.036650855 0.048569594 -0.0014855285 0.040425733
000320 fa 06 96 3c a7 1e 1f 3d bc fb bc 3c 54 cc 21 3d
       0.018313874 0.03884759 0.023069255 0.039501503
000330 c7 cf 4d bd 10 2b 59 3d c2 c3 c8 bc 7e ca 6c bc
       -0.05024698 0.053019583 -0.024507407 -0.014452575
000340 25 8c 04 3d 18 e4 0d 3d 58 51 40 3b 1b fd 13 3d
       0.032360215 0.034641355 0.002934536 0.036130052
000350 b4 70 e8 38 a0 d6 f6 3c ad 10 92 bc 53 b9 2f bd
       0.00011083615 0.030131638 -0.017830217 -0.04290135
000360 90 3e ad bc b5 db 0f 3b c8 b3 56 bd c7 2e 14 3d
       -0.021147996 0.0021951024 -0.052417547 0.036177423
000370 4f 55 22 bc de 73 01 3d 81 84 ab 3c 15 4a fd bb
       -0.0099080345 0.03160464 0.020937206 -0.0077297785
000380 8f 5a 5c 3c df 12 9e bc 28 0f f2 bb da 91 2d 3d
       0.013449325 -0.019296108 -0.0073870607 0.042375423
000390 63 f7 d2 3c 7b 4e b0 3c 6e bf 1d 3b c1 8e e8 bb
       0.025752729 0.021521797 0.00240704 -0.0070970957
0003a0 9f 30 42 3d ff 06 99 3b 89 b8 52 3d c9 3f 49 bc
       0.04740965 0.0046700235 0.051445518 -0.012283274
0003b0 ff 64 bf 3c 56 d7 d5 3c 27 55 45 ba bb 55 45 3d
       0.023363588 0.026103657 -0.00075276423 0.048177462
0003c0 50 d6 3e 3d 87 70 37 3c 9e 6d 49 3c a4 26 30 3c
       0.046591103 0.011196262 0.012294201 0.0107514
0003d0 b6 4c ed 3b 15 c6 50 bb 1b 6b 00 3c 09 86 3a 3d
       0.0072418107 -0.0031856347 0.007838036 0.045537982
0003e0 ef 53 32 3c 59 1d 4a 3c 62 ac 48 3d 49 fc 0f 3d
       0.010884269 0.012336099 0.048992522 0.035152707
0003f0 a6 a8 d7 3c e6 42 00 bc 96 47 af ba 1d ee 17 3d
       0.026325535 -0.00782845 -0.0013372775 0.037092317
