results/PushBlockCollab_POCA_RND/PushBlockCollab/PushBlockCollab-13999958.onnx (onnx, 643240 bytes, 12 tensors)

network_body.observation_encoder.processors.0.conv_layers.0.weight f4 [16, 6, 8, 8]
000000 4d 2e 1c bd 25 40 54 bd b1 52 55 3d 67 b6 f6 bd
       -0.038130093 -0.051818985 0.052080814 -0.12046509
000010 57 7e 66 bc de 9c 00 be 1a 44 b6 bd 1f c8 20 bd
       -0.014068208 -0.1255984 -0.08899708 -0.03925335
000020 8c 18 9a 3d 8c 34 42 3c f1 3e 5d bd a0 42 d8 bd
       0.07524213 0.011853348 -0.054015104 -0.10559583
000030 27 85 af bd 20 a3 33 bd d3 d4 37 bb 62 e4 e2 ba
       -0.08570319 -0.04385674 -0.0028050437 -0.0017310495
000040 f0 d9 eb 3c 63 6e 8e 3c 21 b1 bd bd 30 3b 12 be
       0.028790444 0.01738662 -0.092623 -0.1428039
000050 52 0c dc bc 36 df a2 bd 6f f6 de 3c 1b 1d 25 bc
       -0.026861344 -0.0795273 0.027217118 -0.01007774
000060 e8 cd 99 3d 5a 9b 7e bd 84 f6 52 bc 6b d1 6c 3c
       0.075099766 -0.062159874 -0.012876157 0.014454226
000070 69 3f 80 3b c1 df b3 bc 3e 88 f9 3c a1 db df bc
       0.003913809 -0.02195728 0.030460473 -0.027326407
000080 37 8e fb 3c 84 f2 1b 3d e7 23 80 3c 80 1f a6 3c
       0.030707462 0.038073078 0.01564212 0.020278692
000090 83 4e a3 3d 7e f7 0b bd 14 ab 07 3d f8 5a 91 bd
       0.07973959 -0.034171574 0.033122137 -0.07097429
0000a0 8f d4 48 bd 89 ce dc bd 70 f8 ea bc d6 8b c9 3b
       -0.049030837 -0.10781581 -0.028682917 0.006150703
0000b0 d7 8e b1 bd 79 96 7f bd 2b 18 c5 3c 10 b5 9b 3d
       -0.08669823 -0.06239936 0.024059376 0.07602894
0000c0 25 85 17 3d 93 5d 28 3d 0b 21 18 bc d1 4e 86 3d
       0.03699221 0.041104864 -0.009285222 0.06558002
0000d0 1d eb bf bd a0 91 22 bd ce 51 3f bd 38 46 8e bc
       -0.09371016 -0.03968966 -0.046708874 -0.017367467
0000e0 98 4d b8 bc 17 69 00 3c 98 a5 d1 bc c4 64 f5 bb
       -0.022497937 0.007837555 -0.025591657 -0.007488819
0000f0 9b f2 d2 bd f0 b9 28 be 57 ea 0e bd 33 33 a2 bd
       -0.103001796 -0.1647718 -0.034891453 -0.07919922
000100 f5 2d 29 bd 10 22 f8 3d db 09 66 3b 92 fa ca 3d
       -0.041303594 0.12115872 0.003510109 0.09911074
000110 e0 1a 05 bd 0d 4a 10 3b 98 25 74 3d b5 f5 fe 3d
       -0.032496333 0.0022016794 0.059606165 0.12449209
000120 89 93 1f 3c 1e 18 64 3d a3 28 9a 3d a7 81 18 3e
       0.009739765 0.055687062 0.07527282 0.14893208
000130 85 9d 3f bd 58 1a 1f 3e a7 58 9b 3b 6d a7 0a 3e
       -0.04678108 0.15537393 0.004740793 0.1354043
000140 b8 c7 8b bd 86 68 9b bc 4c 0d b5 3d fe b7 8f 3d
       -0.06825203 -0.01897074 0.08840427 0.070175156
000150 b3 6f cc 3d 12 84 d6 3d bf d4 4d 3e 85 23 8f 3d
       0.099822424 0.10474409 0.20100687 0.06989197
000160 23 fa b1 bd 83 84 e3 3b df ab 55 3e 96 d1 b4 3d
       -0.08690288 0.006943287 0.20866345 0.08829038
000170 10 7b e5 3c cc 90 68 3d 4b 97 59 3d 4f a9 23 be
       0.028012782 0.056778714 0.0531228 -0.15982555
000180 a2 37 68 3c a5 90 cb 3c b7 00 b1 3d e2 05 3c 3d
       0.01417342 0.024849245 0.086427145 0.045904048
000190 a6 9f e7 bc db be e0 bc b9 1f cb bc 54 57 d3 bb
       -0.028274368 -0.027434757 -0.0247954 -0.0064496193
0001a0 39 4f 96 3d 61 68 3f 3c ac 47 80 bc 27 89 97 bc
       0.07339329 0.011682601 -0.015659176 -0.018498017
0001b0 c0 7e 09 bc 07 e1 bc 3c f0 d1 d2 3d 7d f0 42 bc
       -0.008392036 0.02305652 0.10293949 -0.011898157
0001c0 4b 53 28 bc 2b 63 1f 3e 0b b5 af 3d bb a5 6a 3b
       -0.010273765 0.15565173 0.08579453 0.003580435
0001d0 eb 79 62 3d f4 83 85 3d d7 f7 25 3e 51 d6 f2 3d
       0.05529205 0.06519309 0.16207825 0.11857284
0001e0 61 d7 3f 3c 00 fc d3 bb 47 e8 08 bd b8 56 3d 3d
       0.011709065 -0.0064692497 -0.033424642 0.04622528
0001f0 e1 15 1c 3e 58 c4 23 3d 7b 35 db 3d 25 98 3c 3e
       0.15242721 0.03998217 0.1070356 0.18417414
000200 9a bb 9a 3d 18 ea 0b 3c 83 66 e8 bc 81 35 b7 bc
       0.075553134 0.008539699 -0.028369194 -0.02236438
000210 f5 64 87 3c 4f 1c 90 bb ec e6 7e 3d d6 5c 5e 3b
       0.016527632 -0.004397906 0.062231943 0.0033929846
000220 1d b7 88 bc c1 e8 97 bc a3 d9 0e 3d 78 64 44 bb
       -0.016688878 -0.018543603 0.034875523 -0.002996711
000230 c8 9f 8e 3d 57 ca a9 3d 0b 3d ab bc c1 90 0f ba
       0.069640696 0.082905464 -0.020903131 -0.0005476587
000240 89 66 39 bc 60 19 6f 3d 96 60 a2 3d a3 a8 ab 3d
       -0.01131595 0.05837381 0.079285786 0.08381774
000250 93 61 99 3c 70 2a 2d 3d 6d 09 08 3d e7 03 89 3c
       0.018723285 0.0422768 0.033212114 0.016725494
000260 f8 a1 44 3d 96 38 ad 3c 9e 6b d4 3b d2 51 6e 3d
       0.048006028 0.021145146 0.0064825555 0.0581835
000270 97 88 98 3d 2b d1 bc 3c b7 fd af bc 0f 91 30 bb
       0.074479274 0.023048958 -0.021483285 -0.002694193
000280 21 90 5f bc 9a 53 9d bc df 60 94 3a df dc 3d 3c
       -0.013645203 -0.019204903 0.0011320374 0.011588304
000290 2c f5 5e 3d e1 3b de 3c 2e 3c 70 3c d5 e2 c9 bc
       0.054433033 0.027128162 0.014662785 -0.024644295
0002a0 48 e3 7f bc ca 01 86 bd ae 3c 0c 3d 50 28 ac bd
       -0.015618153 -0.0654331 0.034237556 -0.084061265
0002b0 45 ef 0e bd 00 1a de 3c 2f 6c ab bd eb 5c 97 3c
       -0.034896154 0.027112007 -0.08370244 0.018476924
0002c0 7f bd 08 bd b5 f7 02 be 7b 3e 87 bd 02 40 b9 3b
       -0.033383843 -0.12789805 -0.06603714 0.0056533823
0002d0 bf a5 07 bd 3f e4 41 bd 2a 80 74 bd 4f 67 07 bc
       -0.033117052 -0.047336813 -0.05969254 -0.008264377
0002e0 cb 54 93 bd 80 22 ad bd d7 65 a7 bc 27 71 b3 bd
       -0.07193907 -0.08453846 -0.020434303 -0.087618165
0002f0 d3 1c a6 bd bf 78 a2 3c 8e a7 5e bd d8 dc 82 3d
       -0.081109665 0.019832967 -0.05435901 0.06389779
000300 7b 0e 57 be ab a9 84 bd 91 c6 fa bc 39 3c c1 bd
       -0.21001618 -0.06477674 -0.030612262 -0.09435315
000310 85 d4 91 be 32 6c 07 be 00 5d e3 39 36 dc ff 3c
       -0.28482452 -0.13224867 0.00043366104 0.031232934
000320 b0 20 16 3e 6a d3 80 3d ca 19 18 3d d4 35 9a 3c
       0.14660907 0.06290324 0.03713397 0.018824495
000330 a0 49 c4 bd 64 c9 ad bd 24 4c bf bd da d7 92 bd
       -0.09584355 -0.08485678 -0.093406945 -0.07170077
000340 a9 9b 57 3e 88 18 74 3e 4a 53 31 3e dd 14 ba 3d
       0.21055473 0.23837483 0.17316929 0.090860106
000350 3a 2f f7 3d 47 c1 b6 3d 62 9e 82 bd bf f5 6b bd
       0.120695546 0.089235835 -0.063778654 -0.05760741
000360 10 c4 d0 3d 97 54 48 3d 33 61 22 3d f6 b5 f6 3d
       0.10193646 0.048908796 0.039643478 0.12046425
000370 64 4f 10 3e 35 ee f4 3d 03 04 ab bb c2 cd f5 3c
       0.14092785 0.11959497 -0.005218984 0.03000534
000380 bc 3d 0d 3d 1b 11 3b ba 0c fa 14 3e 26 28 c8 3d
       0.034482703 -0.0007136033 0.1454851 0.09773283
000390 9e 71 e4 3d 38 b5 3b 3d 9b 9d fc 3d 98 4e e6 3c
       0.11154483 0.04582712 0.12334748 0.028113648
0003a0 94 e6 49 3e 69 ba 79 3e aa d0 82 3e 31 91 7f 3e
       0.19716865 0.24387516 0.25549823 0.2495773
0003b0 63 0c 05 3e df 85 0d 3e c4 b4 f5 3c d8 d9 e1 3c
       0.12993006 0.13820599 0.029993422 0.027569696
0003c0 ff bf 8b 3e 18 69 36 3e a5 2e 1b 3e b6 08 57 3e
       0.2729492 0.17813528 0.15154512 0.20999417
0003d0 53 04 ce 3d eb ed 82 3d f9 f6 81 3d e6 59 c6 bd
       0.100594185 0.063930355 0.063459344 -0.096851155
0003e0 fa 2b 2b 3e 94 fe 35 3d 9b aa d3 3d dd 5b 39 3e
       0.16715994 0.044432238 0.10335275 0.1810145
0003f0 bd 38 a6 3d 84 6c 27 3d f2 b9 0a 3e 48 de 29 be
       0.08116291 0.040874973 0.13547495 -0.165887

network_body.observation_encoder.processors.0.conv_layers.0.bias f4 [16]
000000 f2 97 43 bd 21 f1 af bb 02 80 9c bd fc 06 af bb
       -0.04775233 -0.005369321 -0.07641603 -0.005341409
000010 5d 83 b3 bc 6a 19 38 bd 55 77 02 be 6f 27 a9 bd
       -0.021913225 -0.04494611 -0.12740834 -0.082594745
000020 91 71 bd bc 10 09 3e bd 74 e7 e1 bc e2 8f b3 bc
       -0.023125442 -0.04639536 -0.027576186 -0.021919195
000030 e4 f0 13 bd d3 01 6d 3b 39 2d a6 3c ec c7 98 3c
       -0.036118403 0.0036164417 0.020285236 0.018650018

network_body.observation_encoder.processors.0.conv_layers.2.weight f4 [32, 16, 4, 4]
000000 26 6c b1 bd 3c cc 45 be 12 5f 4e bc 0c 2c 4e bb
       -0.08663206 -0.1931619 -0.012595909 -0.003145936
000010 6a b8 53 bd 0f 2c 4d be 87 3e 57 3d d4 b2 2c 3d
       -0.051689543 -0.20036338 0.052549865 0.04216273
000020 03 65 09 bd a0 d5 64 bd 23 27 2a 3e 83 fd 83 bc
       -0.033543598 -0.05586779 0.16616492 -0.016112095
000030 d6 fe 40 bd e0 95 87 3d 64 11 21 3e 96 58 b5 bb
       -0.04711803 0.06620383 0.1572929 -0.005534242
000040 1a 62 4a bd 4f a2 5f bd 16 27 31 3c 81 29 4f be
       -0.049409963 -0.05459815 0.0108125415 -0.20230676
000050 bc e1 b2 3d 95 82 1f bd 6d d8 11 bd 19 e6 bf ba
       0.08734462 -0.038942892 -0.03560679 -0.0014640718
000060 d5 b8 25 3d ac 59 e3 bd 37 42 59 bd 97 6e 12 3e
       0.040459473 -0.11101088 -0.053041663 0.14299999
000070 c5 a0 93 3d 9e da 02 3b b5 36 d6 bd 79 c3 b4 3d
       0.07208399 0.0019966732 -0.10459653 0.08826346
000080 2a 6a ee bc b8 b0 8f bb 55 b7 ce 3d c5 36 5a 3d
       -0.029103357 -0.00438508 0.100935616 0.05327489
000090 e5 7c 9e bd a4 5a d9 bd 0f c5 e4 3d 60 10 37 3d
       -0.077386655 -0.106129915 0.111703984 0.04469335
0000a0 13 3d bb 3d 75 fa 3e bc 43 d6 c3 3d 71 e7 9f 3c
       0.09142508 -0.011656393 0.095623516 0.01951954
0000b0 bc 30 ff 3c 99 54 26 3d 3c bf 89 3d 2b 76 f1 3c
       0.031151168 0.040608022 0.06725928 0.029475292
0000c0 74 75 d4 bd a1 b4 81 3d 6e d1 da 3d d4 35 a7 bd
       -0.10373965 0.0633328 0.10684477 -0.08164564
0000d0 14 b7 3f 3b b5 92 ba 3d 36 d5 ff 3d e4 57 90 3d
       0.002925341 0.091100134 0.12491839 0.07048014
0000e0 f8 65 e1 bd b4 05 b8 3d 59 80 fd 3d 8d 65 98 bd
       -0.11005777 0.08985463 0.12377996 -0.07441244
0000f0 43 c5 07 3e 27 f5 bb 3d 4f 7a 95 bc 07 a6 a7 3d
       0.13258843 0.091776185 -0.018246798 0.08185964
000100 7e 25 5a bd f5 34 ce 3d c6 e5 e6 3d 3e 63 b4 bc
       -0.05325841 0.100686945 0.112742946 -0.022019979
000110 63 33 76 bd cd a3 e5 3c 34 27 10 3d c7 f0 5c bd
       -0.0601076 0.028032208 0.035193637 -0.05394056
000120 b2 69 43 3d 0b b8 e2 bd f4 5f fe 3c 03 7a 69 3d
       0.04770822 -0.1107026 0.031051613 0.057001125
000130 7b 87 ab bd d1 95 18 bd 23 a2 18 3d 6d 7f d9 3d
       -0.0837545 -0.03725225 0.037264 0.10620008
000140 3b 6f cb bc 06 74 b6 bc 7d 02 24 3d 49 97 94 bd
       -0.024833312 -0.022272121 0.040041436 -0.07255418
000150 bc 70 d2 bd 37 13 08 be 0f 51 a7 bc 29 ac a0 bb
       -0.102754086 -0.1328858 -0.020424394 -0.0049033356
000160 0e 1e 22 be 6a fe f7 bd a2 d7 b7 3c 1b 5c 13 be
       -0.15831777 -0.121090725 0.022441689 -0.14390604
000170 4c 8b c1 3d 2e b8 1d 3d b7 84 1d 3d ac 0a 22 bd
       0.09450397 0.038505726 0.038456645 -0.03956096
000180 9f bd 9f 3c 07 06 22 bd 18 1d 04 bc 43 d1 91 3d
       0.019499598 -0.03955653 -0.008063577 0.07119992
000190 ed b1 3b 3d 93 3c c3 3c ef c0 1d bc 05 6d 69 bc
       0.04582398 0.023832595 -0.0096285185 -0.014247184
0001a0 18 4f aa 3d 2f ec ae bd f9 33 27 3d eb 5d d4 3d
       0.08315867 -0.08541142 0.04082105 0.10369476
0001b0 a8 73 82 3d b8 d4 0e 3d ed 9d 85 3d 78 ea 50 3d
       0.06369716 0.034870833 0.065242626 0.051004857
0001c0 28 6a 85 3d 2c 34 f0 3c c1 31 4d bb 2b 37 c5 3d
       0.06514388 0.029321752 -0.0031310173 0.09629663
0001d0 cf 16 27 3c 8b b6 a6 3c bc f6 fd 3d a3 cd b2 3d
       0.010198309 0.020350715 0.124005765 0.08730628
0001e0 25 46 9f 3c 1e f3 a2 bd dc 3c 9b 3c ff 8a 13 3e
       0.019442627 -0.07956527 0.018949918 0.14408492
0001f0 02 10 6d 3b 11 61 fb bb 33 ca ec 3b 80 e3 b3 bd
       0.0036172871 -0.0076714833 0.0072262525 -0.087836266
000200 f9 58 18 bd 09 cb 54 bd f0 bc 94 3d e7 4a eb bb
       -0.037194226 -0.051951442 0.072625995 -0.00718056
000210 1c cb 17 be 6b 4c 60 be a4 59 71 ba 61 0b f2 bd
       -0.14823574 -0.21904151 -0.0009206778 -0.118185766
000220 75 e9 56 3c b8 d9 5c bc 9e a9 8c 3d e8 a1 39 3d
       0.013117184 -0.013479643 0.068682894 0.04532042
000230 d0 c2 73 3d 7c 59 6e bc 06 70 dd 3d 44 31 91 bd
       0.05951196 -0.014547702 0.108123824 -0.07089475
000240 2d 54 88 bd c6 4f 19 3d c0 ff a2 3c 76 26 63 bc
       -0.0665668 0.037429594 0.019897342 -0.01386415
000250 eb 7e 50 bc 07 0b bd 3d 9b 11 0f 3e a7 e9 a2 3d
       -0.012725572 0.09230619 0.1397156 0.07954722
000260 93 6a 25 3c 9a ad 12 bd 45 3c 9a bc 05 bb 43 3e
       0.01009621 -0.03581009 -0.018827567 0.19114311
000270 d5 a2 9e bc 0c 06 82 3d 8e d6 6f 3d 5d 30 cc bc
       -0.019364754 0.063488096 0.058554225 -0.024925405
000280 f8 82 53 3c a9 f6 90 bd 77 e0 2c bd ba 11 ac 3d
       0.012909643 -0.07078297 -0.042206254 0.084018186
000290 3e a5 fb bc c7 05 9a bd 51 66 e7 3c 3e 53 2f 3e
       -0.030718442 -0.07520633 0.02824703 0.17121598
0002a0 48 7d 29 bd 32 19 0d be 76 16 13 bd 20 be 02 3e
       -0.041379243 -0.13779142 -0.035910092 0.1276784
0002b0 b3 d3 98 bd 76 19 8c 3d bd 0e 07 ba d2 6d 4a 3d
       -0.074622534 0.06840794 -0.00051520375 0.04942114
0002c0 69 c7 fd bd fb 8f 19 be 6b 4c fa 3c db 97 67 bd
       -0.1239155 -0.1499633 0.030554017 -0.056541305
0002d0 03 55 ae bd 0a 45 97 bd f4 6f e3 bd 96 98 9d bd
       -0.085123084 -0.07386215 -0.11105338 -0.07695119
0002e0 75 9f f7 3d b2 e2 b6 bc 5b 03 24 be d3 bc 6a bd
       0.12090961 -0.022324894 -0.16016905 -0.057308983
0002f0 d1 17 76 b5 87 54 71 bd b8 97 d9 3d 4c 8b ba 3d
       -9.16768e-07 -0.058918502 0.10624641 0.091086
000300 1f f2 b2 bd 2d 0e 37 bd 2b 89 69 bd b3 72 1e bd
       -0.08737587 -0.044691253 -0.05701558 -0.038683604
000310 e4 b5 f9 bd 57 17 4b be b2 51 a8 bc dd 55 9b 3d
       -0.12192896 -0.19833122 -0.020546768 0.075847365
000320 84 ec 09 bd a0 00 1c bd 75 0d a7 3c 4c 01 1b 3d
       -0.033672825 -0.038086534 0.020392159 0.037843034
000330 7b bb c7 3d 9d e3 e0 bb 50 27 38 3d cd 68 b5 bc
       0.09752556 -0.006863071 0.044959366 -0.0221447
000340 bc 26 4e be 9e 60 a4 3d b4 8b ab 3b 7c e6 a8 bc
       -0.20131963 0.08026241 0.00523516 -0.020617716
000350 63 8f 07 be 2f 26 cb 3d ea 9b 15 3c 4c a1 26 bc
       -0.13238291 0.09919392 0.009131411 -0.010170292
000360 79 aa 52 bd 01 9a eb 3d 4b df 12 bc 1d fc 84 3c
       -0.051432107 0.11503983 -0.00896437 0.016233498
000370 27 d8 01 bd a3 bb 44 3c de f6 1b 3d 41 d3 78 bc
       -0.03170028 0.012007627 0.038077228 -0.015187086
000380 ea b9 18 bc 1c f4 52 bd c3 7f e4 3c 61 39 ab 3d
       -0.009321669 -0.051502332 0.027892953 0.083605535
000390 dd a6 97 bc 07 84 1b bb 72 0f 18 3e 6c ad 8d 3d
       -0.018512184 -0.0023729817 0.14849642 0.06917843
0003a0 ae 52 3f 3d 4c 57 20 3d af d4 08 3d 32 57 72 3d
       0.04670971 0.039145753 0.033405956 0.059165187
0003b0 bf b2 97 3b 6c 16 19 3e 77 bd 1c 3d cd 21 8e 3c
       0.0046294625 0.1494996 0.038266625 0.017350102
0003c0 fa 25 03 be e1 9d 97 bc b7 f3 d0 bd fc c5 c0 bd
       -0.12807456 -0.0185079 -0.10202735 -0.094127625
0003d0 2d a3 d5 bd ee 26 55 be 37 cc 76 3c fd c7 21 3d
       -0.10431514 -0.20815632 0.015063337 0.039497364
0003e0 aa ee ae 3c 18 83 4e bc 69 bc 2b 3d d3 dd 68 bd
       0.021354038 -0.012604497 0.04192773 -0.056852173
0003f0 a0 5b 39 3d cf ec 84 bd 81 27 fe 3b c7 a6 53 bd
       0.045253396 -0.0649048 0.007756174 -0.051672723

network_body.observation_encoder.processors.0.conv_layers.2.bias f4 [32]
000000 fe ed 87 bd 9f 45 e3 bd b4 88 36 bd 02 8e f1 bc
       -0.0663719 -0.110972635 -0.044563964 -0.02948666
000010 d5 23 46 bd 4c 91 e6 3b d6 1b 76 3d be dd aa 3a
       -0.048374016 0.0070363637 0.06008514 0.0013036055
000020 df 49 91 3d 1d b4 05 3d af 36 c0 bc f0 3d 2b bd
       0.07094168 0.032642473 -0.023463575 -0.041807115
000030 60 89 06 3d 93 7c e7 bc 7c cd c9 3c be 71 92 3d
       0.032845855 -0.028257644 0.024634115 0.07150601
000040 16 38 34 bd bf 09 8a 3d 89 8c 11 bc de 05 b3 3c
       -0.0439988 0.0674014 -0.008883604 0.021853384
000050 93 2b fd 3c bf 6e b2 bc 81 13 50 3c 75 d3 27 bc
       0.030904567 -0.021781323 0.012699963 -0.010243286
000060 c6 79 80 3d ec 0b 17 bd 62 ac 32 bd b2 1b 95 bd
       0.062732264 -0.036876604 -0.04362143 -0.07280673
000070 3e f9 03 3d da d0 be ba 8f 23 96 3d fa 77 33 bd
       0.032220118 -0.0014558092 0.07331001 -0.04381559

network_body.observation_encoder.processors.0.dense.0.weight f4 [256, 32]
000000 e2 38 5e 3e bb 23 a3 3e ff 69 cb 3d 10 ac 83 3e
       0.21701387 0.31863198 0.099323265 0.2571721
000010 12 4b 4e be e9 5c b2 be 65 f8 c7 3e 01 c5 e1 be
       -0.20145825 -0.3483651 0.39056697 -0.44095615
000020 69 d3 15 3e 3f e6 bb 3e fc c0 c3 3e ec 36 84 3e
       0.14631428 0.366991 0.38233173 0.25823152
000030 8b ba f3 be 55 94 c6 3c d8 35 43 3c f6 b9 a3 3e
       -0.47603258 0.024240652 0.011914693 0.31977814
000040 f7 e8 95 3a 41 e0 b9 bd cf c1 f5 3d db 8d b3 be
       0.0011437227 -0.09075976 0.11999857 -0.35069165
000050 44 44 a6 be 45 e2 a7 be 7c 07 4d be 85 20 65 bd
       -0.32473958 -0.32789817 -0.20022386 -0.055939216
000060 77 52 e6 3e 9a f6 fd bd be df b2 be d1 b0 40 3e
       0.4498479 -0.12400551 -0.34936327 0.1881745
000070 ff 7f 6e 3e 15 e8 a7 3d f3 c9 77 be 4a b7 ba bd
       0.23291014 0.08198563 -0.24198131 -0.09116991
000080 39 c8 17 be ce 0e 5c 3e 10 00 56 be cc 21 f1 bd
       -0.14822473 0.21490023 -0.20898461 -0.11774024
000090 8a 8b 3a bf c2 fb f0 3d 95 61 47 3e bf 7f b9 bc
       -0.7286917 0.11766769 0.19470818 -0.022643922
0000a0 27 b8 e1 bd ff 6f 27 3f bc ca 02 be 99 fb 41 be
       -0.110214524 0.6540527 -0.1277265 -0.18943633
0000b0 b9 ba eb 3e bc 3b ee bd cf 9b bb 3e f2 de 0f 3e
       0.46040896 -0.11632487 0.3664231 0.1404989
0000c0 78 35 85 3e c6 71 ca 3e 50 37 d2 be 4f d7 c1 be
       0.26017356 0.39539927 -0.41057825 -0.3785958
0000d0 d7 60 b6 3d 0e 4c bb 3e 9b 4b a6 3e dd 83 f8 bd
       0.089051895 0.36581463 0.32479557 -0.12134526
0000e0 f5 aa 0d be 22 35 85 3d ee 8a d9 3e 16 be 45 3e
       -0.13834746 0.06504275 0.42488807 0.19310793
0000f0 5f 1c 4a be a9 3d 0b 3e f0 7e 1f 3d 7a 29 20 bd
       -0.19737385 0.1359774 0.038939416 -0.039102055
000100 a9 3c 3d 3d a3 db b8 3e f7 38 cd 3e 7f 78 aa 3d
       0.04620043 0.3610507 0.40082523 0.08323764
000110 35 d4 9a 3d 87 f2 52 bf 4a 48 45 3d 74 72 32 3f
       0.075600065 -0.8240132 0.048164643 0.6970589
000120 1a 4d 22 3f cc 3d 0a 3c 27 90 dd 3d f0 b3 fc be
       0.633989 0.008437585 0.108185105 -0.4935603
000130 b7 c5 20 be be b9 1f 3e 2c a0 5b 3e bc f2 04 be
       -0.15700422 0.15598199 0.2144782 -0.12983221
000140 7c bc a1 3c a1 4f ea 3d 8b 50 83 3e 51 8f ea 3e
       0.019743197 0.11440969 0.25647387 0.45812467
000150 3e 0a 85 be 7b f7 8d be ad 8d 30 3e e5 bb fb 3b
       -0.25984377 -0.27727875 0.17241545 0.007682311
000160 12 16 2f be d2 13 9f 3c c6 9e 7e bb 07 04 9c bc
       -0.17098263 0.01941863 -0.003885196 -0.01904489
000170 b8 79 6f bc ff 9c c6 3c bb fb 89 bc 91 bd e9 bc
       -0.014616422 0.024244783 -0.016843667 -0.028532775
000180 28 66 b1 3e b9 7e 9d bd 34 5d 15 be 42 cc 92 be
       0.34648252 -0.07690186 -0.14586335 -0.2867146
000190 8f 81 ef be 8c c9 c9 3d 0f d4 ba 3a 37 df 97 3e
       -0.46778533 0.09852895 0.0014253872 0.29662487
0001a0 b7 f2 17 be 76 0e 92 3e fa 78 c0 be 43 3d 28 bd
       -0.14838682 0.28526658 -0.37592298 -0.04107405
0001b0 cd ea 52 be 4a d4 ad 3d 45 5d 42 bd bb d4 3a bd
       -0.20597382 0.084877566 -0.04745223 -0.04561303
0001c0 2a cc b5 be 57 93 a6 3e 03 4f 4a be c2 ea 6f 3e
       -0.35507327 0.32534286 -0.19756703 0.23429397
0001d0 c3 33 0b be 62 1f 30 bd e5 94 f2 be b3 d9 83 be
       -0.13593964 -0.04299868 -0.47379223 -0.2575203
0001e0 68 49 0d 3d b7 5f fc be 97 c7 19 bf 0c c0 28 3f
       0.034493834 -0.49291775 -0.60070175 0.6591804
0001f0 8e 88 7b 3d d2 d3 ae 3e 94 e2 9a 3e 41 93 10 3e
       0.061409526 0.3414598 0.3025099 0.14118673
000200 64 73 5d be 41 37 29 3f 69 b3 c6 3e 96 15 df 3e
       -0.2162605 0.66099936 0.38808754 0.43571156
000210 db a6 0d bf 2e ac 53 bd 1b 6e 03 bf 19 3f df be
       -0.55332726 -0.051677875 -0.5133988 -0.43602827
000220 c5 06 0c 3e 7c 97 b0 bc f9 57 c3 3c 45 34 1e 3e
       0.13674457 -0.021556608 0.02384566 0.15449627
000230 4a b0 cd bc 66 f0 bf 3e 79 d1 8c 3d 90 3d 58 bb
       -0.025108475 0.37488097 0.06875891 -0.0032995678
000240 c3 56 32 3e f1 f5 c7 3d 67 5c eb 3d 8b 85 af 3e
       0.1741591 0.097637065 0.11492234 0.34281573
000250 2e 35 66 be 43 12 79 3e 71 c4 3c be a5 ec 26 3e
       -0.22481224 0.24323373 -0.18434311 0.1630121
000260 62 cd 5e be 56 d8 e4 3b 19 e5 d3 be ce 1c 3a 3f
       -0.21758035 0.006983797 -0.41385725 0.727002
000270 46 10 05 3e b2 02 4a 3e c8 7a ac be 3b 70 a7 3d
       0.12994489 0.1972759 -0.33687425 0.08175703
000280 d6 b3 bb 3d 06 fc b8 bc 1c 89 13 3d a7 da f7 3d
       0.0916516 -0.022581112 0.03601943 0.121022515
000290 20 9c 02 3d b8 51 c4 3e 8c 54 90 3e 5a bd ed bd
       0.031887174 0.38343596 0.28189504 -0.116083816
0002a0 a0 c7 b6 3e ce 26 a1 3b 96 f9 38 bd 6f 1c 10 3e
       0.35699177 0.004917956 -0.0451599 0.14073347
0002b0 6c 60 8a 3d b1 eb 6f 3e ed 9d d4 be c5 e1 8f bd
       0.06756672 0.23429753 -0.41526738 -0.07025484
0002c0 f1 07 85 be 4f 2b 17 3e c7 eb b3 3e cf 29 fd 3e
       -0.2598262 0.14762615 0.3514082 0.4944596
0002d0 db d0 83 3d 5c 80 0b be cc 2d ca be 3a 60 8d be
       0.064363204 -0.13623184 -0.39488065 -0.27612478
0002e0 ed 72 7d 3e 29 ec 20 3e 7d fa b3 be 72 96 65 be
       0.24750872 0.15715088 -0.35152045 -0.22420672
0002f0 78 a4 fc bd e3 f2 0d 3e 41 94 53 3c a5 cb 81 3d
       -0.123360574 0.13862185 0.012913764 0.0633767
000300 20 33 35 3e de e1 42 bd 51 5f 4f 3d 85 57 3e be
       0.17695284 -0.047578685 0.05062801 -0.18588074
000310 0b f5 cc 3d e3 74 83 be 22 18 3a be 28 3d ee 3e
       0.10007676 -0.25675115 -0.18173268 0.46531034
000320 4a a1 99 3e 1b 3a 17 3e 67 64 63 3e 4f 3e 8e be
       0.30005866 0.14768259 0.22206269 -0.27781913
000330 76 ea 27 3e ab c7 40 be c8 c8 9b be 23 7d 6f 3e
       0.16398033 -0.18826167 -0.3042662 0.2338758
000340 dc dc 16 3d ba 03 33 bd b3 93 96 3d d7 f1 66 3e
       0.03683172 -0.043704726 0.0735239 0.22553192
000350 5b 31 48 3d b1 cf 0d 3e 6a af b8 3c d1 7d 53 be
       0.048875194 0.13848759 0.022544581 -0.20653464
000360 68 91 40 3e a3 98 94 bc 8c 3a ad 3e 43 26 a6 be
       0.18805468 -0.01813919 0.3383373 -0.32451066
000370 2b 1d 04 3f 20 72 e1 3d 05 c0 a6 3e 7f 30 60 bd
       0.51607007 0.11008096 0.32568374 -0.05473375
000380 03 7f 24 be 1e f6 b4 be ac 26 00 bc 38 96 73 3d
       -0.16064076 -0.35344023 -0.00782172 0.05946943
000390 b0 99 10 3e b6 94 16 3e 5b ab a8 be ef 67 94 3b
       0.14121127 0.14705166 -0.32943234 0.0045289914
0003a0 66 18 96 be b2 91 43 be 3b dc 33 3e ff aa ff bd
       -0.2931549 -0.19098547 0.1756448 -0.12483787
0003b0 aa 81 31 be 0d 61 a7 3d 2b a8 98 3d 54 b6 5a 3c
       -0.17334619 0.08172808 0.074539505 0.0133491345
0003c0 21 35 0d 3e 27 af c7 bc ee 81 c7 3e f2 23 36 3e
       0.13789798 -0.024375511 0.38966316 0.1778715
0003d0 f1 0d c8 bd d2 19 0e 3f 2e fc fd 3c d7 74 64 3e
       -0.09768284 0.5550815 0.031004038 0.22310196
0003e0 7b b6 dd bd c6 4e e4 bd fc 94 fc be a6 cb 93 3e
       -0.10825821 -0.11147837 -0.49332416 0.2886631
0003f0 b8 7c 79 3e ba cd 31 be 2d 63 9b be 64 e0 6a 3d
       0.24363983 -0.17363635 -0.30349103 0.0573429

network_body.observation_encoder.processors.0.dense.0.bias f4 [256]
000000 b1 f8 0c 3c b2 fc 90 3c 23 d3 93 bd 50 c7 9e 3d
       0.0086042145 0.01769862 -0.072180055 0.077528596
000010 b2 6b 18 bd 22 6f 54 3d ab f3 8c 3d 9c 7c 0b 3d
       -0.03721208 0.051863797 0.068824135 0.034054384
000020 a3 66 73 bd 3d e6 96 3c 1c f7 25 bb 32 b2 c8 3d
       -0.059424054 0.018420333 -0.002532429 0.09799613
000030 f2 e7 97 3d e2 c1 cd 3c 4a df cf bc b7 05 60 3d
       0.07417287 0.025116865 -0.025375027 0.05469295
000040 b1 cc 25 bd f9 5f ce 3d fb 28 81 bc 1c 5c 28 3d
       -0.040478412 0.10076899 -0.015766611 0.041103467
000050 61 2e 3e bd da 2a 64 3d f3 64 13 bc 13 9a 92 bc
       -0.04643095 0.05570493 -0.008996236 -0.017895734
000060 77 d2 37 bb 64 93 b1 3d 32 c7 a5 3d c2 1d b1 3d
       -0.002804903 0.08670691 0.08094634 0.08648254
000070 47 a3 20 bd 66 4a 50 3c 92 0b 1e bc 64 62 18 3d
       -0.039218213 0.0127130505 -0.009646313 0.037203208
000080 db 54 b5 bd 88 ed a0 3d a9 bc 5d 3c a1 f7 8e 3d
       -0.088540755 0.078578055 0.01353375 0.06980825
000090 eb e4 53 bd 09 e7 d6 3c 33 0d 7e 3d a7 8a 04 3e
       -0.051731985 0.026233213 0.062024307 0.12943517
0000a0 6b 00 1b bd 29 98 12 bc ee 87 cd 3c 63 99 24 bd
       -0.037842195 -0.008947411 0.02508923 -0.040185343
0000b0 66 78 02 3d 88 bd 5f bd 7d 8d ad 3c 17 6c 87 3d
       0.031853102 -0.05462411 0.021185631 0.066124134
0000c0 76 6c 37 bc 16 7d d1 bc 66 c8 80 3d 17 3b a5 3d
       -0.011195293 -0.025572341 0.06288223 0.08067911
0000d0 da 7e 6e 3d 7e 8b 03 3d 47 8b c3 3a fa c5 5b 3d
       0.058226444 0.032115452 0.0014918827 0.053655602
0000e0 b8 2d a0 3c d5 3d 91 3c 22 34 36 3d 55 31 81 3d
       0.01955305 0.01772968 0.04448331 0.063082375
0000f0 6e 6d 29 3b d2 6b 9e 3d c8 b9 a2 3c f1 4c 5b bd
       0.0025852579 0.07735409 0.019863978 -0.053540174
000100 2d b6 35 bc ab 5b ea 3c b0 53 91 bc e7 d3 2e 3d
       -0.011090797 0.028608164 -0.0177401 0.042682555
000110 50 7b e9 3d 04 1c eb bb 4b c9 3e bd b9 26 04 3d
       0.11400473 -0.0071749706 -0.046578687 0.03226349
000120 01 21 a7 3c df a7 83 3d 33 0a 76 bb ea 90 f6 bc
       0.02040148 0.06428503 -0.00375427 -0.030098397
000130 2e 85 1f bc 37 e9 8a bd a0 f4 69 3c da 8e a3 3d
       -0.009736342 -0.067827635 0.014279515 0.07986231
000140 0d 05 35 bc 18 81 02 3d 86 fc 7e bd 2d 6f 1c 3d
       -0.0110485675 0.031861395 -0.062252544 0.038191963
000150 d9 c4 a7 bd 49 02 07 3a 8e e5 5b 3d 94 70 ba 3d
       -0.081918426 0.0005150182 0.053685717 0.09103504
000160 be d3 07 3e b7 4e 8c 3d cb 37 f5 3b 09 57 6d bd
       0.13264367 0.06850951 0.0074834577 -0.05794433
000170 07 12 1e 3d 41 72 75 bd 54 29 de 3b 4b 97 95 bc
       0.03859141 -0.059923414 0.006779829 -0.018260619
000180 80 78 33 3d c1 98 86 bd ac ce 54 3d 0c b6 ca 3c
       0.04381609 -0.06572104 0.05195491 0.02474501
000190 ac a5 e3 3d 9e 65 df 3d ed 8a 98 bb a4 7e 48 3d
       0.11115584 0.10908054 -0.004655233 0.0489489
0001a0 63 b2 63 3d fa 8b 91 bd a2 dd 16 3d 44 15 03 3b
       0.055590045 -0.071067765 0.03683246 0.002000169
0001b0 c7 54 90 3d 2e 45 ad bc b3 56 32 3d f6 68 9c bd
       0.0704742 -0.021151152 0.043539714 -0.07637207
0001c0 87 65 1a 3d 35 57 f6 bd 61 a0 ce 3c d9 1e 62 bd
       0.03769448 -0.12028352 0.025222959 -0.0552052
0001d0 68 ef 0d bd 2f 96 7d 3c 74 3a e3 bc dc 0d 0a bc
       -0.034652144 0.015477701 -0.027737834 -0.008426156
0001e0 2e 8c 18 be db 99 4e bc 34 d4 0a bb b0 73 ac 3d
       -0.14897224 -0.012609924 -0.0021183612 0.08420503
0001f0 c1 f3 f0 bb 98 ba d1 bb 1d bc 13 bb fb 81 0a 3c
       -0.0073532765 -0.0064004175 -0.0022542544 0.008453841
000200 cf 2e 97 bd a6 f0 ac 3d 8c db 0b 3d 81 c2 d1 3d
       -0.07381975 0.084443375 0.034144923 0.10242177
000210 37 89 d1 3d 0a 8d e1 3d 9f d2 b8 3d ae 4e c7 3a
       0.1023125 0.11013229 0.09024548 0.0015205943
000220 08 d7 0c 3d c1 c2 07 bd 81 e0 bd 3c 67 76 48 3c
       0.034384757 -0.033144716 0.02317834 0.012235261
000230 65 d5 1f 3d ed bd 5c 3d 26 be 83 3c ab 30 04 3c
       0.03902187 0.053892065 0.01608188 0.008068244
000240 62 c7 55 bd 71 6b 5f bd d0 25 0a 3e 4d b8 67 3d
       -0.0521921 -0.054545823 0.13490987 0.056572247
000250 2b 9c e0 bc be 43 bc bc 9e f5 e6 bc c4 bc 90 bd
       -0.027418217 -0.02298152 -0.028193291 -0.07067254
000260 87 58 57 3d 5c 0e 1c 3d f5 31 8f 3d 26 d7 a4 3d
       0.05257466 0.03809963 0.069919504 0.08048849
000270 92 2e e1 3c 56 11 88 bd 8c 83 8b 3d d5 64 49 3d
       0.027488027 -0.066439316 0.068122 0.049168427
000280 09 62 7c 3d b4 cb db 3c 4f c3 8e bb 23 e1 b1 bd
       0.06161693 0.026830532 -0.0043567787 -0.086855195
000290 13 20 73 bd ed 34 56 3d 2c 63 22 bd 97 43 ec 3c
       -0.05935676 0.052296568 -0.03964536 0.028840823
0002a0 8f 60 57 3d 37 80 62 3c f5 10 fb bb eb fd bd 3a
       0.05258232 0.013824514 -0.0076619335 0.0014495229
0002b0 de f2 a5 3c c7 b9 9a 3d ea 3b f9 3d 47 25 23 3d
       0.02025741 0.075549655 0.12169631 0.039830472
0002c0 f6 ba 88 3c 4c 51 91 3c 1d c3 82 bc 75 a3 b3 3d
       0.016690712 0.01773896 -0.015962178 0.08771411
0002d0 6f 02 11 bd 89 29 94 bd b1 06 01 3e 64 1b 88 bd
       -0.03540271 -0.07234485 0.12600209 -0.06645849
0002e0 34 bf 76 bc 9d 78 bb bc 52 65 aa 3d d9 64 a9 bc
       -0.015060235 -0.022884661 0.083201066 -0.02067797
0002f0 d0 35 48 bc 1a 03 b2 3d d1 fb 86 3d 3e 3e 36 bd
       -0.012219861 0.08691998 0.06590999 -0.044492953
000300 17 07 0e 3d 55 4f 9b bb 73 04 56 bd ce fe 31 3d
       0.03467473 -0.0047396817 -0.052250337 0.04345589
000310 71 e1 54 3d a4 6c af 3d 80 a5 52 3d 6a 98 f5 3c
       0.05197281 0.085656434 0.051427364 0.029979903
000320 e0 d2 4c bd 6d 4a 1f 3d 91 ff 18 3d 28 e9 da bc
       -0.050005794 0.038889337 0.037353102 -0.026722506
000330 c4 ed b2 3d 79 2c a4 bc 9b c5 8b bc 82 61 36 3d
       0.087367564 -0.020040737 -0.017061999 0.044526584
000340 46 65 bb 3d af f7 d4 3c 27 9c 4a 3d 0f 69 b5 3c
       0.09150176 0.025997011 0.049465325 0.022144822
000350 c2 f0 1a bc b5 85 43 bc 81 2f 85 3d 11 59 14 3e
       -0.009456815 -0.011933734 0.06503201 0.14487101
000360 57 ee 40 3d c8 60 65 3d 46 75 92 3c 6b 22 08 bd
       0.0471023 0.0560005 0.017878186 -0.03323595
000370 2e 56 e7 bc 28 85 e4 3c cf a1 4a 3d cd 8d c4 3c
       -0.028239336 0.027895525 0.04947072 0.023993397
000380 34 ac b7 3d 69 fb 5f bd 07 bf 45 bd 5e bf cb bc
       0.08968392 -0.054683123 -0.04827788 -0.024871524
000390 bb 78 a6 bd c5 b1 2f 3e 38 c0 b3 bb c9 ff c4 bd
       -0.08128496 0.17157657 -0.0054855607 -0.096191
0003a0 62 11 71 bc 10 62 8c 3c d1 7f 6a bc 74 f9 97 3d
       -0.014713617 0.017136604 -0.0143127 0.07420626
0003b0 a8 c0 65 3d f2 c7 72 3d 34 0e 71 3d 91 70 56 3d
       0.056091934 0.059272714 0.058851436 0.052353445
0003c0 a4 ff 20 3d c5 fa 37 bd 78 30 f2 3d 0f 70 1b 3d
       0.039306298 -0.044916887 0.11825651 0.037948664
0003d0 60 ae 15 3d 7e 39 b5 3c c6 58 a8 3d 33 74 8d bd
       0.03654325 0.022122141 0.08220057 -0.06906929
0003e0 1b 97 9a 3b 99 7b db bb 8d 62 12 3d c4 e8 c8 3d
       0.00471772 -0.0066980836 0.035738517 0.098100215
0003f0 f5 a2 31 3b db 1c 73 3d 46 38 e9 3d 67 d0 fe 3c
       0.0027105187 0.05935369 0.113876864 0.031105233

network_body._body_endoder.seq_layers.0.weight f4 [256, 266]
000000 f5 9c ba 3c e2 fd d2 3c 2e 1b 5a bc 03 85 b9 bd
       0.022779921 0.025755826 -0.013312144 -0.09058573
000010 d1 b7 d7 3c 17 bf 59 be 6c 71 60 bd b1 7c f1 3c
       0.026332768 -0.21264301 -0.054795668 0.029478403
000020 70 5c 90 bd 23 55 bc 3d 18 73 fe 3c 21 b0 8d ba
       -0.07048881 0.09195926 0.03106074 -0.0010809937
000030 0c a1 2a be 60 90 10 3e bc d8 bf bc da 9d 2d 3d
       -0.16662997 0.14117575 -0.023418777 0.042386867
000040 30 45 6f be a8 38 0f bd d7 ae 67 bd 2b 99 85 bd
       -0.23366237 -0.03496614 -0.056563225 -0.06523355
000050 48 55 58 bd f3 5b 41 3d b5 25 12 bd c9 b7 be bc
       -0.052815706 0.04720683 -0.03568049 -0.023280995
000060 c9 a1 b6 bc 16 f2 37 3d c0 9c 62 3d d8 77 06 3d
       -0.022293942 0.044908606 0.05532527 0.032829136
000070 18 c3 bd 3a 88 68 8d bd 02 89 57 bd 21 7e ab 3d
       0.0014477698 -0.069047034 -0.052620895 0.083736666
000080 ad 94 37 bd 98 8e 34 3e 30 3b 18 3d 75 62 05 3e
       -0.044819523 0.1763252 0.03716582 0.1302584
000090 05 be 0a 3e c9 da 13 3e ea 79 aa bd 24 b4 02 3d
       0.13549049 0.14438929 -0.083240345 0.031910077
0000a0 c9 21 16 bc ca 0d de 3d c7 30 62 bd ea 1a 00 be
       -0.009163328 0.10842474 -0.0552223 -0.12510267
0000b0 a1 0d 5d bd e4 2c 6e 3b 86 69 ea 3b 5e 6a 72 3d
       -0.053968076 0.0036342675 0.0071536927 0.05918347
0000c0 2f 5f 01 bd 76 23 d4 bc 98 6c ce bd d6 75 0d bd
       -0.031584915 -0.025895815 -0.10079306 -0.034536205
0000d0 34 dd c1 3d 14 17 3f be a2 80 d5 3d 78 6b b9 bd
       0.09466019 -0.18661147 0.104249254 -0.09053701
0000e0 d7 9b c5 3d 8b 8e 56 bd 6a da 90 3d be d2 03 3d
       0.09648865 -0.052382033 0.07072909 0.0321834
0000f0 52 53 b8 bd b1 51 d4 3d 73 f0 9d 3b 17 e1 46 3d
       -0.09000267 0.10367144 0.0048199235 0.048554506
000100 f1 d5 27 3e 42 47 01 3e 29 75 d0 3d a9 02 8d be
       0.16390206 0.12624839 0.101785965 -0.27541092
000110 43 36 60 be 60 85 aa 3d ed 0f e1 3d 9a 7a 3f be
       -0.21895699 0.083262205 0.10989366 -0.18699113
000120 6a 20 ea bd b7 13 93 ba 88 2d 6e 3d 16 6e b9 bd
       -0.11431964 -0.0011221085 0.05814889 -0.090542
000130 67 d2 0d 3e 93 97 aa 3d 5e 51 86 bd 91 9d fa bd
       0.13849793 0.08329692 -0.06558488 -0.12237085
000140 e2 0c 41 3e 7c 7b 71 bc e4 49 46 3e c8 72 46 3c
       0.1885257 -0.014738914 0.19364125 0.012112327
000150 ed 65 5b bd cc d2 d9 3c d2 08 87 3d 01 c5 42 3b
       -0.053564 0.026589774 0.06593479 0.0029719474
000160 38 d4 b7 bc da 0b 57 bd 7a f3 b7 3d d8 f7 8c bc
       -0.022440061 -0.052501537 0.08981986 -0.017208025
000170 25 a5 61 3e 62 4f 8b 3a ef 4c 88 3d 14 54 4f 3d
       0.22035654 0.0010628516 0.06655299 0.050617293
000180 de 98 01 bd ed 7b 91 bc 62 43 80 bc be ef c1 3c
       -0.031639926 -0.017759288 -0.01565713 0.023673888
000190 64 3a 02 3e f3 48 9b 3d e4 2a ac 3d 09 32 61 be
       0.12717587 0.07582273 0.08406618 -0.21991743
0001a0 39 c2 ec 3d 39 1f a5 bd f1 30 3c 3e 2c 0c 49 bd
       0.115604825 -0.08062596 0.18378045 -0.049083874
0001b0 54 ca 59 bd d5 e2 c7 3d a6 dc e8 3d 65 fc 94 3d
       -0.05317147 0.09760062 0.1137021 0.07274703
0001c0 00 bb b9 3d cf f5 d3 bb b6 0a f7 3d ab 5c dd 3d
       0.090688705 -0.0064685117 0.1206259 0.10808691
0001d0 d1 de 35 3d af 1c d8 3b 65 97 11 3c 9f c7 a2 bd
       0.044401947 0.006595216 0.008886193 -0.07948231
0001e0 10 a7 85 bd 4d 56 6d bd 38 fe ec bd 8c b9 3d be
       -0.06526005 -0.05794363 -0.11571926 -0.18527812
0001f0 f2 3f c7 3c ae ca b4 3d 2b 63 7a 3e a2 34 5b bc
       0.024322484 0.088277206 0.24451892 -0.013379248
000200 0d 75 00 3d dc f7 a6 be 12 24 46 3c d2 2c e8 3d
       0.03136163 -0.32610977 0.012093561 0.11336674
000210 6d 11 95 bb 58 76 e8 bc 91 8e 3d 3e b1 42 c8 bb
       -0.0045491965 -0.028376743 0.18511416 -0.006111466
000220 d3 3f 5d bd 41 07 a5 bd 0c 1d e3 bc 1a 47 66 3e
       -0.054015946 -0.08058024 -0.027723812 0.2248806
000230 a8 59 df 3d 2a 20 f6 bd 28 8a 8d be c0 73 f2 3d
       0.109057724 -0.120178536 -0.27644467 0.11838484
000240 0a 8e 38 be 48 b5 0b bd d6 61 3b 3e 8b 3f 45 be
       -0.18022934 -0.03410843 0.1829904 -0.19262521
000250 c1 1d c2 3d d6 f0 99 bd 15 a5 85 3d ce 70 85 bd
       0.09478331 -0.07516639 0.065256275 -0.065156564
000260 f6 ee 68 bd 13 e2 75 3d 84 e0 11 bd 35 d6 a3 bd
       -0.056868516 0.060030054 -0.035614505 -0.07999841
000270 a7 ba 98 3c 8d f5 fe 3c dd 6b 7f bd be 5e 0f be
       0.01864369 0.031122947 -0.062358726 -0.14000985
000280 86 2b e7 3b eb a9 1f bd 26 86 bb bd f8 09 0a be
       0.007054749 -0.038980406 -0.09156446 -0.13480365
000290 57 61 7d bb 51 11 8c 3d bc 95 aa 3d 0f e7 d9 bd
       -0.0038662755 0.0683924 0.08329341 -0.10639774
0002a0 4f e7 02 be 5e b2 03 3e 39 bc 27 bd 78 f5 ea bd
       -0.1278355 0.1286101 -0.040950987 -0.11472601
0002b0 f4 f8 2d be 3e e2 5f 3d 66 3b 47 bd 77 11 cf bc
       -0.169895 0.05465912 -0.04864063 -0.025276883
0002c0 18 89 ba bd d7 be 82 bc 7c 3a be bd 63 d3 09 3c
       -0.0910818 -0.01596014 -0.09288499 0.008412215
0002d0 b0 d8 cc bd ed d6 8a 3c f3 48 13 3e d0 b8 be 3c
       -0.10002267 0.016948188 0.14383297 0.023281485
0002e0 81 5d 88 3d 34 3c 92 3d 12 f0 7e 3d 9b 0a 1f 3e
       0.066584595 0.07140389 0.062240668 0.1553139
0002f0 de a0 62 be 46 ea 7f bd 30 9c 26 3d 62 9e e4 bd
       -0.22131678 -0.06247928 0.040676296 -0.111630216
000300 b3 d6 5b 3c 91 31 43 bd ab fc 9a 3d ff cf 07 bd
       0.0134178875 -0.047654692 0.07567724 -0.033157345
000310 16 ac 3e be 62 16 fd 3d 27 88 61 3d eb 39 f0 ba
       -0.18620333 0.12357785 0.055061486 -0.0018327808
000320 fa ca ef 3c 0d b9 15 bc e8 d8 e3 bc 78 26 e6 bb
       0.029271591 -0.009138358 -0.02781339 -0.007023629
000330 86 e3 26 bd b9 a7 dd bc e3 90 7e bc 97 b6 7a be
       -0.040744327 -0.027057515 -0.015537473 -0.24483715
000340 d0 db 80 be 0b fa 1e 3d 96 4d a0 bd 2b 99 4c be
       -0.25167704 0.03881268 -0.07827298 -0.19980304
000350 d2 14 79 3d 9f d8 86 be b7 a0 af 3d 06 75 4c 3e
       0.06081087 -0.26337144 0.08575576 0.19966516
000360 c3 c9 21 be 7c 35 34 3d 88 e4 db 3d 69 e6 bb bc
       -0.15799622 0.04399632 0.10736948 -0.022937017
000370 2f 86 57 bc 2e 62 75 3d 1f a0 ee bc e6 ba 13 3d
       -0.01315455 0.059908085 -0.029129086 0.036066912
000380 b8 81 81 bd 2c 57 43 bc 99 23 80 3d 8b e5 34 bd
       -0.0632357 -0.011922639 0.0625679 -0.04416422
000390 0f 9b 46 bd a1 60 d0 3d df 65 e5 3d 12 8f b3 3c
       -0.04848772 0.101746805 0.11201071 0.021918807
0003a0 04 be 8b bd 44 a1 a7 3d 92 f7 a1 bd 04 45 ba 3c
       -0.06823352 0.08185056 -0.079085484 0.022737987
0003b0 5c 0f 52 3e 3d 7b 36 3d 2b 0d 54 bd 66 9c 2f 3e
       0.20513672 0.044551123 -0.05177037 0.17149505
0003c0 84 6d 08 be eb 62 46 bd 0b 1c 28 3d 5d 24 c1 bd
       -0.13323027 -0.04843418 0.04104237 -0.09430764
0003d0 92 bd 9b 3d fc d4 e4 bd 22 5c 2c be 19 ca c8 bd
       0.07604517 -0.11173436 -0.16832021 -0.09804172
0003e0 3b ba 86 3d 12 71 09 bc 38 16 aa 3d 12 24 28 3d
       0.065784894 -0.0083887745 0.08305019 0.041050024
0003f0 b1 f2 dd 3c 15 57 68 bd 2b ec 4d be 7d f4 0a be
       0.027093263 -0.056723673 -0.20109622 -0.13569827

network_body._body_endoder.seq_layers.0.bias f4 [256]
000000 bc fe d6 3c 6b 3c c8 3c 24 3a e7 bc b3 45 34 3d
       0.026244514 0.024442872 -0.028225966 0.044011783
000010 f9 51 ac 3c be 33 80 3c 1b fe a4 3c 19 fd 86 3d
       0.021035181 0.015649673 0.020140698 0.06591243
000020 23 3a 1e 3b e7 6f 77 bd 19 15 08 bd 6a 28 98 3d
       0.002414354 -0.060409453 -0.033223245 0.07429583
000030 5a 94 cd ba 79 0e 8e bc a3 bd 5a 3c ba e4 c9 3c
       -0.0015684471 -0.017340885 0.013350877 0.024645198
000040 89 dc 2f 3d 4c 0b 54 3c 52 cb 0f bd da 36 05 3d
       0.042934928 0.0129421465 -0.03510601 0.032523014
000050 a4 c6 75 3c 86 11 19 3d df 31 50 bb 24 ba 8f 3c
       0.015000973 0.037370227 -0.0031768007 0.017544813
000060 d4 80 4b b9 3c 59 ad 3c ac 89 51 bd cb 76 12 3d
       -0.00019407581 0.021160714 -0.051156685 0.03575782
000070 77 3d 32 bd 5a 5f 92 3c b9 29 69 3d 3f f1 c6 bb
       -0.04351565 0.017867733 0.056924555 -0.0060712392
000080 1f ed 06 bb 9e c9 84 bb 34 48 c3 3c ce a7 97 bc
       -0.0020588113 -0.004052355 0.02383814 -0.018512633
000090 9b cb c6 3b b3 5e 44 bd dd 79 15 3d f8 1b e7 3b
       0.006066752 -0.047941875 0.03649317 0.0070528947
0000a0 08 61 4e 3d 9e ba c2 3c 83 23 0f bb e8 2d c9 3c
       0.050385505 0.023770627 -0.0021841235 0.024558023
0000b0 85 a0 31 bc 87 4d c0 3b 6b 4a 8e bd 67 81 e1 3c
       -0.0108414935 0.005868617 -0.06947788 0.027527524
0000c0 a1 b7 3a bc bf 05 1a 3d 5d 66 dc 3d f2 80 54 bd
       -0.01139632 0.037603136 0.10761712 -0.051880784
0000d0 47 c5 01 bd 92 08 e1 3b dd e8 ff 3c 9a d3 c3 bc
       -0.03168228 0.0068674767 0.031238968 -0.02390461
0000e0 a5 7b 58 3c 5c 16 a3 bb c9 a8 80 3c eb e9 0a 3d
       0.013213073 -0.0049770307 0.015705483 0.033914488
0000f0 cc 43 68 bc a7 9e 9f bc 09 b8 d4 3c 65 fa c8 3b
       -0.01417632 -0.019484831 0.025966661 0.006133365
000100 13 7b 35 3b 64 40 3f bc e5 3c b9 3c c8 1e 80 3c
       0.0027691766 -0.011673067 0.022612045 0.015639678
000110 ec 8b 20 3d 86 cb 85 3c ad 09 e9 3b 17 92 12 bc
       0.03919594 0.0163324 0.007111749 -0.008945963
000120 ba 0e be 3b b6 bf 3d 3c 29 d2 26 bc 18 7a 37 3d
       0.0058000954 0.011581352 -0.010181942 0.044794172
000130 ff db 03 bd 4c fc 4c 3d f2 09 ab 3c 69 91 f4 3c
       -0.032192226 0.050045297 0.020878766 0.029854493
000140 d4 ab 52 bd 0d a2 09 3b 17 73 20 3d 71 7f db ba
       -0.0514334 0.002100113 0.03917226 -0.0016746355
000150 a8 77 74 3c 55 4c b8 bc 08 39 24 3d fc 27 98 3c
       0.014921106 -0.022497335 0.04009345 0.018573754
000160 b0 2d e9 3c 3c 10 84 bc b9 c4 a4 bc 28 19 b8 3c
       0.028464168 -0.016121022 -0.020113336 0.022472933
000170 e2 ec 47 bc cc 90 da bc 6d 3f 48 bd 5b a2 0a bc
       -0.012202473 -0.026680373 -0.048888613 -0.00846156
000180 5a e7 98 bc 73 11 e2 3c 25 c7 af bc e1 fc 18 3d
       -0.018665005 0.027596211 -0.021457264 0.03735054
000190 d1 81 83 3c 8e 71 a4 bb 99 43 9d 3c 6f 4b 90 3b
       0.016053112 -0.0050184196 0.019197272 0.0044035236
0001a0 5f 24 90 bc 30 22 4a 3b 5b ad 25 3d aa 5b 59 3c
       -0.017595468 0.0030843131 0.040448528 0.013266483
0001b0 d2 9f e3 3c 2a 2b 46 3d 95 93 c7 3a 15 ce 2c bd
       0.02778617 0.04838101 0.0015226478 -0.042188723
0001c0 7e 1b 2c bd 17 0c b8 3b a9 d3 79 bc 74 a3 88 3d
       -0.042018406 0.0056166756 -0.015248218 0.06671801
0001d0 4f 89 d5 3c 5c 8b 78 3d 09 12 12 bd 72 3d 7f 3c
       0.02606645 0.06067978 -0.03566173 0.015578615
0001e0 19 31 e9 bb 5d 62 16 bb 51 ef 12 3c a7 7e 75 bd
       -0.0071164486 -0.0022946813 0.00896819 -0.05993524
0001f0 5a ce 7d 3c cc 4a 95 3d d6 e6 af 3b 1e d6 d8 3c
       0.015491093 0.07289657 0.005368094 0.026469287
000200 38 89 8c bc 92 f6 5e 3d 42 a6 f9 3c d7 5b 10 bd
       -0.017155275 0.054434367 0.030474786 -0.035243835
000210 f6 61 16 3b cf 4d dc 3c 63 f0 3d 3d 23 68 37 3c
       0.0022946573 0.02689257 0.04637183 0.011194262
000220 f3 76 53 bb 77 22 6e 3d 20 58 46 bc 36 a8 70 bd
       -0.0032266944 0.058138337 -0.012105972 -0.05875417
000230 cf 0e 25 3c 66 1f 06 bc 92 1a c4 bc a7 e6 29 3c
       0.010074331 -0.008186197 -0.023938451 0.010369933
000240 5d 5e 6f 3c bf 24 0a bd d9 32 da 3c 50 ea 82 bb
       0.0146099 -0.03372645 0.026635574 -0.0039952174
000250 1d 74 a7 3c 3b b7 26 3d d8 8e 56 3d 8e e5 e5 3c
       0.02044111 0.040702086 0.05238232 0.028063562
000260 71 50 81 39 d3 6e 88 3c 67 f6 ce 3a b2 f1 58 3b
       0.0002466473 0.016654408 0.0015789986 0.0033103046
000270 f4 8e aa ba 67 66 8f 3d 4b 1e b5 3c 2f 82 15 3d
       -0.0013012574 0.070019536 0.022109171 0.036501106
000280 7c 5f 3f bd dc 6b 90 bc da 29 e0 3b 0f ce 29 bc
       -0.04672192 -0.017629556 0.0068409266 -0.01036407
000290 03 38 90 3c 17 4c 99 3c 0c b4 80 bd 4b f5 21 3b
       0.017604833 0.01871304 -0.06284341 0.0024712856
0002a0 57 a9 00 3d 3f 85 1d 3c c7 50 12 3d 68 7c 8a bd
       0.031411495 0.009614288 0.035721567 -0.0676201
0002b0 87 e6 03 3d 8a 0a 8c 3c c1 e3 12 bd 4c cd fd 3c
       0.03220227 0.01709487 -0.035861734 0.030981682
0002c0 d1 ef 46 bc 06 86 4d 3d aa c4 9b bd 86 83 04 3c
       -0.012142138 0.050176643 -0.0760587 0.008087998
0002d0 34 d3 3e 3d 81 a2 36 3b f2 e4 60 3d b6 e6 54 3d
       0.046588138 0.0027867856 0.05490584 0.051977836
0002e0 18 7e 2c bc 59 30 8d 3c df 49 47 bd 73 19 53 3d
       -0.01052811 0.017234968 -0.048654433 0.051537942
0002f0 08 87 4a 3c b6 c1 29 3d 64 7a a9 bc e8 92 14 3d
       0.0123612955 0.041444503 -0.020688243 0.036272913
000300 67 9e fd 3b 90 4c 14 3c bc 87 8e 3c 27 ec 11 bc
       0.0077398303 0.009051457 0.017398708 -0.008906401
000310 d5 f0 7b bc 97 72 46 3d 51 0a bb bb fb 61 2c 3d
       -0.015377243 0.048449125 -0.005708017 0.04208563
000320 06 02 bb 3c 15 e6 0c 3d 60 f7 e9 3c 2c 65 34 3d
       0.022828113 0.03439911 0.02856034 0.044041798
000330 f7 cb 5f bd 14 23 5c 3d 2d c8 a6 bc 6d c0 6b bc
       -0.054637875 0.05374439 -0.020359123 -0.01438914
000340 28 5d 10 3d cd b9 fd 3c 17 3d 9e 3b 75 d6 04 3d
       0.03524509 0.030972386 0.00482906 0.032431085
000350 a3 a9 02 3b a6 78 d4 3c 20 c2 1d bc d0 4b 55 bd
       0.0019937537 0.025936436 -0.009628803 -0.052074254
000360 1d a6 21 bc b1 c5 39 bb 8f 30 59 bd b6 f8 54 3d
       -0.009866265 -0.0028346593 -0.053024825 0.051995
000370 ca 0b 80 bb 67 52 c2 3c cf 80 c0 3c 4c 06 f7 bb
       -0.0039076554 0.023720933 0.02349892 -0.0075385924
000380 1d b0 af 3c 67 4d 62 bc c7 e6 2d ba ba e0 30 3d
       0.021446282 -0.0138123995 -0.0006633815 0.043183066
000390 1f 12 f7 3c f5 c3 aa 3c 72 61 af 3b a2 71 72 bc
       0.030160008 0.020845393 0.0053521926 -0.0147976
0003a0 63 28 53 3d 9a 2d 24 bb 63 d8 3c 3d e3 ef 97 bc
       0.051552188 -0.0025051595 0.0461048 -0.018547004
0003b0 d5 36 e7 3c af e3 e1 3c 90 12 91 bb 9f ac 88 3d
       0.028224388 0.027574388 -0.0044272617 0.0667355
0003c0 f7 f5 58 3d dd 18 07 3c 2e 1b 8e 3c 23 ee 79 3b
       0.052968945 0.008245674 0.017346945 0.0038136325
0003d0 12 cd 5c 3c 80 c3 7d ba 95 70 0c 3d df d7 3d 3d
       0.013476627 -0.0009680316 0.034287054 0.04634845
0003e0 96 5b ef 3b 6f db 5c 3c b8 31 33 3d 41 93 e6 3c
       0.007304619 0.013480051 0.043748587 0.028146388
0003f0 58 b6 42 3d d7 72 86 bc d6 dd b9 bb bb 03 34 3d
       0.047537178 -0.016412182 -0.005672197 0.04394887
