results/PushBlockCollab_POCA_RND/PushBlockCollab/PushBlockCollab-12780221.onnx (onnx, 643240 bytes, 12 tensors)

network_body.observation_encoder.processors.0.conv_layers.0.weight f4 [16, 6, 8, 8]
00000000: 8e1d 20bd 92af a6bd 37ed 8e3c c45d e1bd
00000010: a3c1 79bc 27ac 01be 1d23 91bd 92ce 2bbd
00000020: 1960 ac3d 8983 be3c e95e 3fbd 7e47 c9bd
00000030: 940b e7bd dbf3 46bd 5f3d ebbb a9f3 ab3c
00000040: 7a9d 153d 24c5 173d cdc4 86bd e372 01be
00000050: cac0 24bd e3d9 e2bd 3602 323d f605 953c
00000060: 4cc7 863d 1a39 5cbd 9838 f5bc ff21 7dbc
00000070: 21fe 1cbc 1fb2 d0bc 7448 843d 6bd4 483a
00000080: c560 9c3c 1a08 013d 70de 1fbb 13f4 113b
00000090: ba20 943d a269 62bc e4d6 193d c008 69bd
000000a0: e0f1 24bd 1b0f c6bd 7be5 37bc b692 fd3c
000000b0: dfdd 73bd e52f 5fbd d416 f93c 2828 eb3d
000000c0: 982b 263d 00e8 1f3d dbd3 333b 65c6 903d
000000d0: f902 a2bd 6e75 aebc d8af 0cbd 8ed2 0fbc
000000e0: 87ca e9bc 65c9 5d3b 6c90 4cbd 8ac7 f7ba
000000f0: 44d8 edbd a09e 3abe 785d 47bd b1e0 0abd
00000100: d920 92bd 4273 a73d 95a6 36bc 38ca de3d
00000110: f570 8cbd 2352 aa3c 1848 8e3d 100d 8b3d
00000120: 6915 7b3c 159d 363d b2eb 993d 5dd1 fe3d
00000130: 7645 c9bd 67da 303e 439c e13c 1e2e 0c3e
00000140: 675b 87bd 075c 44bb d1f3 c03d 89d6 833d
00000150: 1b48 8e3d 9672 b23d 171b 4b3e dda3 303d
00000160: f2f3 c4bd 911e 5f3c 8b61 583e f214 e13d
00000170: 822f eb3c beb0 903d 391f 623d 5cd1 38be
00000180: b163 8b3c a0d8 d53c bc9e f23d bb12 273d
00000190: 045a fbbc 1c7a 9dbc dd9a 183c f4f5 98bb
000001a0: 7c44 863d 4c1a a53b 6500 23bc cfcd 22bd
000001b0: 7f7f 51bc 78f0 d8ba 0bb6 9c3d 30e0 e7bc
000001c0: 85ed 403b 7309 363e 976c af3d 2118 b6bc
000001d0: daeb ca3c 223c e93b 99e7 e33d 9c49 b23d
000001e0: 37d2 363d 7dbe 443d b145 f03b 1d39 093c
000001f0: f4ca df3d 2554 133d 14c1 023e d2e8 453e
00000200: 99f5 003d 2c8d 87bb 2d2b c1bc 6e30 aabc
00000210: 927c 983c 41d4 cd3b bf09 803d 02c8 ac3c
00000220: b2d6 86bd f0bf ddbc 5ceb 263d 0115 823b
00000230: f426 a33d 6366 ab3d 97f8 69bc 96f7 3b3c
00000240: 4037 b3bc 8f4c 723d cb92 a53d c1a1 b33d
00000250: 09dc f33c 6cca 5b3d e75e 1e3d 1eb5 143c
00000260: 349c 0b3d a7a7 983c cd29 903b 13ef 843d
00000270: 33fc a83d f33d 113d baa6 b3bc 3937 3bbc
00000280: 5b3f 19bc 040b 08bd 8d6a d5ba 1f1d a43c
00000290: b5cb 963d 9949 1c3d bcf8 ae3c 8f30 bcbc
000002a0: 6bda f5bc e918 90bd 3038 0b3d e10c 94bd
000002b0: 197d 6fbc 038c 153d bf01 9bbd 6584 cd3b
000002c0: a817 1fbd a2dd 01be 27f5 89bd deba b53c
000002d0: 140b 80bc 5468 18bd a2b3 63bd 64c9 29bc
000002e0: aec7 89bd d5fc c6bd b156 62bb b412 88bd
000002f0: 67f9 91bd 535d be3c 9db9 37bd 1310 8b3d
00000300: ba33 48be 926d 67bd 3ae3 cbbc 7379 1abe
00000310: 1294 94be dc2e d0bd dee0 0a3d 99e8 903b
00000320: ce84 f83d f4a7 6c3d c057 74ba c9ef b3bc
00000330: bdb4 95bd 8a1b adbd 19a6 8dbd 8b3c cfbd
00000340: 5daa 623e 7eab 743e b86b 173e f898 2e3d
00000350: d5b9 023e 855f e93d f59d 09bd bf39 44bd
00000360: 9eb9 313e 8181 ad3d 789f 103d b395 d53d
00000370: b336 013e b18e e43d c68a a03c c54d 683d
00000380: 3c26 cd3d 3cd7 773d b9fd 103e 2456 963d
00000390: 9d2c c73d 6e5f 103d 2cda 053e a7c9 0d3d
000003a0: 23e9 333e f672 793e e9c1 853e bc48 783e
000003b0: e0ad 143e 409b 323e f416 8a3d 623b 213d
000003c0: 517c 833e f26c 353e 5743 213e 5e0a 5d3e
000003d0: 94f2 fd3d 32aa c53d b873 993d a2e6 d8bd
000003e0: 5670 433e c0db d03c be63 e33d 35f5 423e
000003f0: 3e77 bf3d 73da 063d 071e f93d 5297 33be
-0.039090686 -0.08138956 0.017447097 -0.110042125 -0.0152439205 -0.12663327 -0.070867755 -0.041945048
0.08416767 0.02325608 -0.046721373 -0.09828089 -0.11281505 -0.048572402 -0.007178947 0.02099021
0.036527134 0.037053242 -0.065805055 -0.12641482 -0.04022292 -0.11076715 0.04345914 0.018191319
0.065809816 -0.053765394 -0.029934213 -0.01545 -0.009582073 -0.02547556 0.06459132 0.0007661047
0.019089112 0.031501867 -0.0024394058 0.0022270724 0.072328046 -0.01381913 0.03755845 -0.05689311
-0.040269732 -0.0967085 -0.011224146 0.030953746 -0.059537765 -0.054489035 0.030406393 0.114822686
0.040568918 0.03903961 0.0027439508 0.07069091 -0.07910723 -0.02129623 -0.034347385 -0.0087782275
-0.028538955 0.0033841964 -0.04994242 -0.0018904072 -0.11613515 -0.18224573 -0.048673123 -0.03390569
-0.071351714 0.081762806 -0.011148115 0.10878414 -0.06857482 0.020791119 0.069473445 0.06789601
0.015324929 0.0445834 0.075156584 0.124422766 -0.09827702 0.17270814 0.027540332 0.13689467
-0.066092305 -0.002996208 0.09421504 0.06437404 0.06947347 0.08713262 0.19834553 0.043125022
-0.096168414 0.013618127 0.2113096 0.10990323 0.028709177 0.07064961 0.055205557 -0.18048614
0.01701531 0.026104271 0.118466824 0.040789347 -0.030682571 -0.019223265 0.009314266 -0.004667992
0.06556031 0.005038535 -0.0099488245 -0.039747056 -0.012786745 -0.0016551157 0.076519094 -0.028305143
0.0029438448 0.17777042 0.08565634 -0.022228302 0.024770666 0.007117764 0.11128158 0.08705446
0.04463407 0.048033226 0.0073325266 0.008375433 0.10927382 0.03596892 0.12768966 0.19327095
0.03148422 -0.004136702 -0.023580158 -0.020775046 0.018614087 0.006281406 0.06251859 0.021091465
-0.06583919 -0.027069062 0.0407518 0.003969789 0.07966414 0.08369138 -0.01428046 0.011472603
-0.021876931 0.059155043 0.08084639 0.087710865 0.029768007 0.05365984 0.038664725 0.009076385
0.034084514 0.01863463 0.0043995143 0.06490912 0.08251228 0.03545947 -0.021930087 -0.01142674
-0.009353484 -0.03321363 -0.0016282365 0.020033417 0.07363073 0.038156126 0.02135884 -0.022972373
-0.030011376 -0.07036001 0.03398913 -0.07229019 -0.014617228 0.03651048 -0.075686924 0.006271886
-0.03884092 -0.12682202 -0.06736212 0.022183832 -0.015630282 -0.03720887 -0.055591233 -0.010362957
-0.06727539 -0.09716193 -0.0034536535 -0.06644192 -0.07127648 0.02323786 -0.04485475 0.06790175
-0.19550982 -0.05650098 -0.024888624 -0.15085392 -0.2901922 -0.10165188 0.033905856 0.004422259
0.121347055 0.05777736 -0.0009320937 -0.021964924 -0.07309864 -0.08452518 -0.06916446 -0.101189695
0.22135301 0.23893544 0.14787185 0.04262635 0.12766202 0.11395172 -0.033597905 -0.047906633
0.17355964 0.084719665 0.03530833 0.104289435 0.12618522 0.11160029 0.019597422 0.05671479
0.10017058 0.060507998 0.14159288 0.07340649 0.09725306 0.03524726 0.13071507 0.03461614
0.17569403 0.2436026 0.26124504 0.24246496 0.14519453 0.17442036 0.06742659 0.039363272
0.25680783 0.1771734 0.15748344 0.21585986 0.12399784 0.09651603 0.07492775 -0.10590865
0.19085822 0.02549541 0.11103009 0.19038852 0.093489155 0.032923173 0.121639304 -0.17538193

network_body.observation_encoder.processors.0.conv_layers.0.bias f4 [16]
00000000: 26c4 1dbd e84c 3b3b 93e8 85bd bfff 65bc
00000010: 714b 80bc 3de7 68bd 32e1 05be 5a49 83bd
00000020: 671e a6bc d0b3 64bd 63d4 efbc d89e 37bc
00000030: 8a9d 2cbd 1d41 51bb 07d5 cb3c bded ef3c
-0.03851714 0.0028579775 -0.06538501 -0.014038025 -0.015660973 -0.05686115 -0.13074186 -0.06410475
-0.020278169 -0.055835545 -0.029276079 -0.011207305 -0.04214243 -0.003192968 0.024881853 0.029288167

network_body.observation_encoder.processors.0.conv_layers.2.weight f4 [32, 16, 4, 4]
00000000: 8792 b0bd fc3d 60be 8344 e7b9 416b 023c
00000010: ef0b 14bc 5f83 3cbe 3639 533d 416c 813d
00000020: a384 50bb 9cac 59bd 88ee 253e 2266 e03b
00000030: 1edb 0cbd 4e9b 823d 84cf 173e 78a4 333c
00000040: d89c 62bd a394 8abd 28f1 a93b d9f6 4dbe
00000050: a574 c93d 94fc 20bd fd2e 84bc 0f93 783c
00000060: 4a4f 623d c190 8fbd 2048 0cbd c060 163e
00000070: c1c0 ce3d fd46 3fbc deda ccbd e06c 7d3d
00000080: b078 dbbc 6863 7cbb cc6d fa3d 0aae 933d
00000090: dbb7 b2bd a1c5 bebd ccc8 003e cb97 763d
000000a0: b1ac b43d 82ed be3b 337b d13d e5ee a93c
000000b0: e2c5 8f3c c285 843d d657 523d 18be 803d
000000c0: a4c8 e7bd d27c 863d 4fc8 0d3e deb3 9abd
000000d0: 1053 313c 90c4 a43d f516 123e 1e7f ba3d
000000e0: 3611 82bd 2c30 cb3d a074 123e 4c94 89bd
000000f0: 93c2 d23d c969 9d3d d299 f83b de42 c33d
00000100: 7263 88bd 297d 943d 8e2f 003e 902f cc3c
00000110: 86ff 41bd 6673 783c 51a2 4f3d b70d c73b
00000120: 77d8 7d3d 80a8 c3bd 1af6 f73c 7d7b d23d
00000130: 8502 a4bd 7378 41bd 8b56 073c a5c7 fe3d
00000140: c5bf 24bd 23e5 bfbb 72c1 933d 348f b6bd
00000150: 12c3 a5bd ae93 e3bd 19d8 e2bb d5a5 14bc
00000160: eca4 05be e520 e9bd 235b 473d 05fb 0ebe
00000170: 28f9 b33d 0eb0 393d 08a0 f83c 048e abbc
00000180: 5e9f 903c 59af 02bd 7d95 6fbb 0fc4 993d
00000190: 6c18 4f3d 6c46 b03c 8d74 13bb 9838 1d3c
000001a0: 9a0f 933d 6571 36bd a948 393d 9123 c93d
000001b0: 4b29 3d3d 00a9 b33c dd54 e43d f528 223d
000001c0: 1f36 8b3d 60f0 813c b59d 323c 2ec9 d43d
000001d0: 7e9c 963c 3130 c73c b928 ee3d 9031 e33d
000001e0: fa6d f03c d67b 21bd ecaf 9d3c 2f30 413e
000001f0: 379a 94bc e356 77bc 94e9 7d3c 5645 72bd
00000200: 9580 5abb 4567 fbbc 880b b83d e5b0 2f39
00000210: 91ef edbd cacf 56be 86d6 fb3b e8f6 c4bd
00000220: 68d6 133d bfdf 123b 6197 823d bf54 8e3d
00000230: a34d 873d 9ae7 a3bc be15 dd3d 0f32 81bd
00000240: fb7c acbd 2083 6b3d 7313 f13c f445 ca3c
00000250: 3e1b 8abc 2458 aa3d 231a 233e ab8a b53d
00000260: ae69 0b3d 8b83 0bbd d12e 24bc 9a5a 313e
00000270: eecf 173c c212 303d c699 bb3d e747 f1bc
00000280: 0694 253c 4d8b c9bd 05d8 72bc 677e c33d
00000290: bf77 26bd e581 69bd d226 cf3c e90e 123e
000002a0: 8aea 24bc efe1 0dbe 7434 783a d74a 0c3e
000002b0: 527b aabd c974 663d 0c95 d13c 3caa 943d
000002c0: 66ed fbbd ddd1 eebd dbd0 7d3c f200 1fbd
000002d0: 3a05 a1bd 1487 80bd 71d1 babd adff 97bd
000002e0: 8758 103e e4a8 c1bc 581a 25be a259 66bd
000002f0: afe1 523b 1006 8dbd 0864 a93d a152 ac3d
00000300: 0262 9abd 8c5b 92bc c1a5 81bd 58bf 26bd
00000310: 70ab f1bd 7adb 30be 75e8 053c 4981 683d
00000320: af54 e6bc 14f9 d2bc 3499 183d 7133 9c3b
00000330: af54 e83d 42d8 96bc 8354 313d f213 19bd
00000340: 4247 3bbe 22a0 ae3d 8a65 ff3c c06c 8cbc
00000350: 859b 07be a370 b23d 14c2 723c 9641 003c
00000360: 70ae 33bd 95b3 f43d 04d6 5dbc ee25 163d
00000370: bd7e 40bd fd75 c03b a46a ac3c 4239 ac3b
00000380: fb70 b13c 5690 50bd 479a 993d 938e d63d
00000390: bc6f 903c cb64 013c c7b7 2f3e fb0e 9b3d
000003a0: a209 053d 7716 133d 17c8 3f3d b663 9b3d
000003b0: 4aa0 0e3d 21c2 1c3e 5efd 5a3d 97dd 203c
000003c0: 6d0d e5bd b4bb 90bc f67b 97bd 77c5 b3bd
000003d0: d7d7 cfbd a88f 46be e913 813a 176c 1e3d
000003e0: 378e 3c3c 4688 063b 589f c43c fe32 18bd
000003f0: 4650 643d f473 78bd 9f49 31bb b161 5cbd
-0.08621698 -0.21898645 -0.000441108 0.007960142 -0.009036048 -0.18409489 0.051568232 0.06319476
-0.003181734 -0.05314313 0.16204274 0.0068481127 -0.034388654 0.06377278 0.14825255 0.010964505
-0.05532536 -0.067666315 0.005186219 -0.20113696 0.09836701 -0.039303377 -0.016135687 0.01517178
0.055251397 -0.070100315 -0.03424847 0.14685345 0.10095359 -0.01167464 -0.10002683 0.06187141
-0.026790947 -0.00385114 0.12227973 0.0721093 -0.08726474 -0.093150385 0.12576598 0.060203355
0.08822001 0.005826653 0.102285765 0.020743797 0.017550413 0.06470825 0.051353298 0.062862575
-0.11317566 0.06566776 0.13845943 -0.07553838 0.010823026 0.08045304 0.1426657 0.09106277
-0.06350939 0.099212974 0.14302301 -0.067177385 0.10291018 0.076861925 0.007586696 0.09534238
-0.06659593 0.07250435 0.1251814 0.024925023 -0.047362827 0.015164232 0.050691906 0.006074633
0.061974015 -0.09553623 0.030268718 0.1027746 -0.08008293 -0.04723401 0.00826038 0.12440423
-0.04022195 -0.0058561726 0.07214631 -0.089140326 -0.08093847 -0.11112152 -0.0069227335 -0.009072741
-0.13051194 -0.11383227 0.0486709 -0.13962944 0.08787757 0.045333914 0.030349746 -0.020941742
0.017654117 -0.031905506 -0.0036557608 0.07508098 0.0505604 0.021517955 -0.002249989 0.0095960125
0.0718071 -0.044541735 0.04523531 0.09821237 0.04618196 0.021931171 0.11148999 0.03958984
0.06797432 0.01586169 0.010901858 0.103899345 0.018385168 0.024314972 0.11628861 0.11093438
0.029349316 -0.03942474 0.019248925 0.18866037 -0.018139942 -0.015096399 0.015497584 -0.059148155
-0.00333408 -0.030688891 0.089865744 0.00016755199 -0.11617959 -0.20977703 0.0076854853 -0.09617406
0.036093146 0.0022411195 0.063765295 0.06949758 0.06606605 -0.020007897 0.107951626 -0.06308376
-0.08422276 0.057498097 0.02942822 0.02469156 -0.016858693 0.08317593 0.15927939 0.088643394
0.03403633 -0.034060996 -0.0100209275 0.17319718 0.009265883 0.04298664 0.09160189 -0.029453231
0.010106092 -0.09841023 -0.014822011 0.09545594 -0.040641543 -0.057008643 0.025287066 0.142635
-0.010065684 -0.13855718 0.00094682653 0.13700424 -0.08324303 0.05626372 0.025583766 0.07259032
-0.123011395 -0.11661122 0.01549169 -0.03881926 -0.07862325 -0.06275764 -0.09121979 -0.07421813
0.1409627 -0.023640104 -0.1612333 -0.056237824 0.0032177975 -0.06885922 0.082710326 0.08414198
-0.07538225 -0.017865919 -0.06330443 -0.040709823 -0.11800277 -0.17271224 0.008173098 0.05676392
-0.028116552 -0.025753535 0.03725548 0.0047668745 0.11344277 -0.018413667 0.043293487 -0.037372537
-0.18288901 0.08526637 0.031176347 -0.0171417 -0.1324292 0.0871289 0.01481678 0.007828137
-0.04386753 0.11948315 -0.013539795 0.036657266 -0.046995867 0.0058734403 0.021046944 0.005255849
0.021660319 -0.0509189 0.07500129 0.104764126 0.017631404 0.007897566 0.17159949 0.07571217
0.03247989 0.035910096 0.04682168 0.07587378 0.034820832 0.1530843 0.053464286 0.009818456
-0.111842014 -0.017667629 -0.073966905 -0.08777898 -0.1014859 -0.19390738 0.0009847853 0.0386773
0.011508516 0.0020528003 0.024001762 -0.037158005 0.055740617 -0.060657457 -0.0027051938 -0.053804103

network_body.observation_encoder.processors.0.conv_layers.2.bias f4 [32]
00000000: 0eae 54bd fda8 cebd b469 25bd 894c 4cbd
00000010: d5f8 7ebd 23aa dd3c 001d 853d 9d91 a5bb
00000020: 723e 933d b152 ff3c cdd3 28bd 6268 24bd
00000030: 908f d03c 7e53 0fbd 8f43 c53c 5b2e a43d
00000040: 0468 32bd 9e25 9a3d bae5 50bc af69 db3c
00000050: 3782 fb3c e163 48bc 890b 2b3c 9d70 dfbc
00000060: 68f4 3b3d 1b75 01bd 6876 34bd cfcb b2bd
00000070: 537c f83c 286a 823b c81d 803d 4c0d 3fbd
-0.051923804 -0.10090826 -0.04038401 -0.049877677 -0.062249023 0.027058667 0.06499672 -0.005052759
0.07189645 0.03116736 -0.041217614 -0.04013861 0.025459081 -0.034991734 0.024080066 0.08016654
-0.04355623 0.07526706 -0.012750084 0.026783792 0.03070174 -0.012230844 0.010439762 -0.027275378
0.04588738 -0.03160582 -0.044058233 -0.0873028 0.03033272 0.00397994 0.0625568 -0.04664354

network_body.observation_encoder.processors.0.dense.0.weight f4 [256, 32]
00000000: 33ae 5b3e fc75 9a3e fc5a ac3d 35b4 773e
00000010: c496 62be 0715 b5be 4a4a cf3e 4181 d9be
00000020: 248e 143e dded cb3e 99cd c73e 519e 6d3e
00000030: 1193 e6be 1126 323d 84f1 66bc c2d2 9d3e
00000040: e6ae e13c 7850 d2bd 6d3c 0b3e efdd aabe
00000050: 53e3 9abe af06 a2be 187e 40be fb36 1e3c
00000060: b643 e33e 6e38 dcbd c2a5 b8be fe3a 2f3e
00000070: 10be 873e fd65 a23d 89dd 79be 7550 f1bd
00000080: 7435 1cbe c06b 603e 59ba 58be 1518 fcbd
00000090: 85d6 35bf 2bf2 ff3d 6d49 4f3e 7b60 d9bc
000000a0: 33ae cabd b4bc 1d3f e728 e6bd ecf5 49be
000000b0: 5869 f33e 0526 eabd ad40 c13e 40ab 233e
000000c0: ca60 833e 8178 ca3e a0ee d3be ae82 c2be
000000d0: 80db c63d 379c b83e 8607 a03e 2ece d0bd
000000e0: fa58 10be 3698 6e3d ce9c df3e 6a45 403e
000000f0: b118 37be 9a88 0d3e e0d5 063d 57d0 04bd
00000100: 5e62 543d 8cde c83e bbfe d43e aaf1 cd3d
00000110: 7f74 b63d 11b5 4cbf ad5e 5e3d 69a4 393f
00000120: ec76 253f 8a0d 073d f88d 963d fe26 eabe
00000130: fec0 15be 4e78 233e 9c62 613e 469b f1bd
00000140: cb3a 253d 713f 063e 9e4c 833e 0112 f33e
00000150: 9ffb 74be 6b8b 8fbe 6b10 3f3e ee9b 9d3c
00000160: a7b5 e4bd 6cde 263d c983 acbb 499a ecbc
00000170: 6d6d 2dbb df2d 213d 8a88 67bb 1b38 eabb
00000180: 0d3f c03e f336 aabd 7527 2dbe ecb4 8cbe
00000190: 3c3c fdbe ebec b03d a682 d5b7 906a 9c3e
000001a0: 2087 46be b515 9e3e 680b bcbe ef88 83bd
000001b0: 3cbf 40be 5690 953d fb28 90bd 7924 0abd
000001c0: 6d83 b7be d1be 993e 1413 5cbe 4345 523e
000001d0: 9779 e8bd bbe4 34bd 5461 e9be 3e80 62be
000001e0: d4a8 2e3d e229 08bf 0c5f 1abf 7503 2d3f
000001f0: 81e2 743d 42b6 a93e 907d a83e 0f66 8f3d
00000200: 002d 46be 5c09 293f be78 cb3e b477 d63e
00000210: f4c1 0bbf f4ec e7bc d8d0 05bf df01 e2be
00000220: 3a55 1b3e 7864 49bd c8a5 0d3d c707 2a3e
00000230: f97a 96bc f048 ca3e 61c6 b03d 6efd c1bb
00000240: 82c5 463e 1ed5 de3d 9942 e93d 813f ad3e
00000250: 399a 69be da8d 6c3e 229a 3cbe 6395 3d3e
00000260: 0ed3 3abe fe80 e73b 71e3 c9be 159c 3b3f
00000270: ad48 053e b6aa 473e 0500 adbe 20c2 b03d
00000280: 0dd6 e23d 77de b2bc 90ab 073d a26f 203e
00000290: 14a7 f53c 25ef c63e 3e40 933e 9330 ccbd
000002a0: d3da ac3e 527d 773d e3ae 57bd 55ac 133e
000002b0: 55df 793d 46ed 663e caf9 d7be 3af8 9ebd
000002c0: e128 86be a8c5 1f3e 8e8f b53e df68 fc3e
000002d0: db42 8a3d 88e0 0fbe 40d2 c8be 22e3 8abe
000002e0: b31c 7f3e 08be 2a3e 54c7 b8be 20ed 58be
000002f0: dc16 edbd 6e96 0f3e 86dc 2b3d 6e36 883d
00000300: bf66 503e e693 edbc 652b 473d 5fda 32be
00000310: 1e4e c73d b8b3 80be c7e1 3abe 82e3 f13e
00000320: bd39 953e 99d0 273e 72a3 4b3e c980 8cbe
00000330: 9106 323e c978 39be a1ff a4be a634 6a3e
00000340: 9f43 233d c1a1 56bd e768 8c3d 0412 673e
00000350: 495a 773d 95a2 163e fc72 c13c 10e3 59be
00000360: fbaf 4f3e 43f7 78bc 5174 ab3e 7fed aabe
00000370: 9129 043f 763e e43d 6848 a63e a360 75bd
00000380: 0c76 1ebe 5971 babe a53d c03c 7ddd 9c3d
00000390: 1da4 013e 6c6b 243e 8fb6 afbe 077f 7abb
000003a0: 6ee3 8abe fcad 38be 1196 353e 8385 e2bd
000003b0: 1d69 33be 7c76 d53d 0e88 b83d cb9e 2a3c
000003c0: 37c6 0e3e 749b 04bc 41e4 ca3e e285 443e
000003d0: 2e07 febd 0430 083f f94a 463d 2a31 2e3e
000003e0: db01 d6bd 435c e2bd 33f7 fbbe 34e6 903e
000003f0: e9b6 473e ca95 42be 3df9 9cbe e913 a43d
0.2145317 0.3016814 0.084157914 0.24189837 -0.22127825 -0.35367605 0.40486366 -0.42481425
0.14507347 0.39829913 0.39024046 0.23204924 -0.45034078 0.043493334 -0.014095668 0.30824858
0.027549218 -0.102692544 0.1359727 -0.33372447 -0.3025156 -0.31645724 -0.18798101 0.009656663
0.44387597 -0.107529506 -0.36063963 0.17112347 0.26512194 0.07929609 -0.24400915 -0.11782924
-0.15254766 0.21916103 -0.21164836 -0.12309281 -0.71030456 0.12497362 0.20242853 -0.026535263
-0.09896507 0.61616063 -0.1123827 -0.19722718 0.47541308 -0.11433033 0.37744656 0.15983295
0.25659782 0.39545062 -0.41392994 -0.37990326 0.09709835 0.36056682 0.3125574 -0.10195576
-0.14096442 0.05825063 0.4367432 0.1877648 -0.17880513 0.1382164 0.03291881 -0.03242525
0.051851623 0.3923229 0.41600594 0.100558594 0.089089386 -0.79963785 0.05428951 0.72516495
0.64634585 0.032971896 0.07351297 -0.45732874 -0.14624402 0.15963861 0.22010273 -0.11797194
0.040339272 0.13110138 0.25644392 0.47474673 -0.23924111 -0.28036055 0.18658607 0.019239392
-0.1116746 0.04073946 -0.0052647335 -0.028882163 -0.0026462928 0.039350387 -0.0035329186 -0.0071478016
0.37548104 -0.08311262 -0.16909583 -0.27481782 -0.49460018 0.086389385 -2.5452417e-05 0.3055005
-0.19387484 0.30875936 -0.36727452 -0.064226024 -0.1882295 0.073029205 -0.070390664 -0.03372619
-0.35842457 0.30028394 -0.21491653 0.20534234 -0.113513164 -0.044163447 -0.45582068 -0.22119233
0.042641476 -0.5318891 -0.6030128 0.675834 0.059786323 0.33146864 0.32908297 0.07001888
-0.19353104 0.66029906 0.39740556 0.418882 -0.54592824 -0.02831123 -0.52271795 -0.44142053
0.1516923 -0.04916808 0.03458193 0.1660453 -0.018369185 0.39508772 0.08631588 -0.0059201038
0.19411281 0.10880493 0.113896556 0.33837512 -0.22812738 0.23100987 -0.18418172 0.18514018
-0.18244573 0.0070649376 -0.39431337 0.7328504 0.13016005 0.19498715 -0.33789077 0.086307764
0.11075983 -0.021834595 0.0331226 0.15667585 0.029986896 0.38854328 0.2875995 -0.09970202
0.337607 0.06042225 -0.05265702 0.14421208 0.061004 0.2255145 -0.4218276 -0.07762189
-0.26203063 0.15602744 0.35461086 0.4929876 0.06751033 -0.14050496 -0.39222908 -0.27126414
0.24913292 0.16674054 -0.36089575 -0.21184206 -0.11576626 0.14022228 0.041958354 0.06651007
0.20351695 -0.029001188 0.04862537 -0.17466114 0.097316965 -0.25137115 -0.1825019 0.47243887
0.29145613 0.16388167 0.19886568 -0.27442005 0.17385317 -0.18112482 -0.3222628 0.22871646
0.03985941 -0.052400354 0.06855946 0.22565466 0.060388837 0.14710458 0.0236144 -0.21278024
0.20281975 -0.015195671 0.3348718 -0.3338432 0.51625925 0.11144726 0.32477117 -0.059906613
-0.15474719 -0.36414602 0.023466894 0.07659433 0.1266026 0.16056603 -0.3431897 -0.0038222687
-0.2712664 -0.1803512 0.17733027 -0.110606216 -0.17520566 0.1042299 0.09010325 0.010413836
0.139428 -0.008093704 0.3962727 0.19191697 -0.12403713 0.53198266 0.048411343 0.17010942
-0.10449573 -0.11052754 -0.49212036 0.2830063 0.19503368 -0.19002452 -0.30658904 0.0801161

network_body.observation_encoder.processors.0.dense.0.bias f4 [256]
00000000: 20c7 0c3d 9e85 813c ab0e 5bbd dd5c a43d
00000010: 9862 d4bc 7ecf 643d 517e 8e3d d6da fa3c
00000020: 0871 59bd 719f a03c 85af 89bc 307e e23d
00000030: 0a61 723d 29b1 c83c b05a 5dbd e3c7 773d
00000040: 0258 d0bc ae77 f53d 8793 97bc 777f 4b3d
00000050: 3674 3bbd e37b 553d 6cb5 a63c 8db4 c6bc
00000060: 0d62 b6bb 280f 943d f15e a33d 57da b03d
00000070: bfa9 d2bc c615 363c de01 9ebc f171 2c3d
00000080: 7c56 adbd fab5 993d e774 f13c f1d1 9a3d
00000090: d0e7 e4bc 985b 053d e0af 983d f1bf 023e
000000a0: c137 2bbd f2ad 853a 71dd fb3c 9d64 cabc
000000b0: 6b11 2b3d a4cc 5dbd ac97 ab3c 6bd0 663d
000000c0: 08ea 7b3c 72ca fabc 50e9 9b3d e991 453d
000000d0: 68b8 753d 1fd7 ef3c 280e d0bb 105f 8f3d
000000e0: 304a 8d3c bfc7 6d3c 895a 3b3d d5bd 813d
000000f0: ebb9 56bc 100d 933d 666a 2c3d a8d9 32bd
00000100: 602d d9bc a1b7 ab3c b4c9 40bd 9a9c 323d
00000110: e4bf 0c3e d6c7 50bc 5f8f efbc 756b 1c3d
00000120: 50e4 843c 0ea2 883d 4328 3d3a 4e0e febc
00000130: 69d2 2cbc 35e6 63bd 30d2 8e3c e6f7 973d
00000140: c0d4 aabb e3d8 ed3c 8298 87bd f470 243d
00000150: 5310 9ebd dd35 73bc 00d4 553d b7a7 a33d
00000160: f094 c53d 3164 713d f157 5b3c 8029 75bd
00000170: 3f52 473d 712f 79bd 3648 443c c255 50bc
00000180: 5575 d63c 1d3a 52bd 9b52 343d 4acf 0c3d
00000190: 22fc c83d 2732 e53d 3030 cdbc aae9 593d
000001a0: 9beb 723d 8222 38bd 0cd2 233d f12a 7d3c
000001b0: 15a4 913d cd87 59bc 2082 343d c273 61bd
000001c0: 1330 c93c a10e dcbd 869c c83c 19a5 73bd
000001d0: 9aa8 10bd 326d 9c3c 8a5a febc 384e e9bb
000001e0: d669 06be ef30 9cbc ed3d 5dbc 0b80 c53d
000001f0: 83e0 15bb e941 dbba a810 38bc e61d 5e3c
00000200: 21a3 9abd e0b7 883d a8e2 8e3c 6521 d73d
00000210: 7e5c ce3d 6a2e c53d 6297 ac3d 60c9 39bb
00000220: 8a6f f33c a7cc f8bc 9f4b 143d 5f13 9b3c
00000230: 3f2b 0d3d 0323 433d 495e db3c 852d 303c
00000240: 538f 89bd 8ec1 e2bc 1bd2 f53d ec5e 7c3d
00000250: b517 f7bc 6fad b8bc 9b34 21bc 3250 3fbd
00000260: 2239 243d cd47 3c3d f506 9b3d f17d a53d
00000270: 3e29 1d3d 50bd 7bbd 3a56 793d cdbe 4f3d
00000280: b3e9 823d 5137 c53c d774 e5bb 62aa 85bd
00000290: 168d 48bd 0557 663d f089 70bd 55a4 1a3d
000002a0: e5f0 223d 25a6 ca3b b336 0cbb 19e3 82bb
000002b0: 32ab 0b3d eaa0 aa3d 0fa1 1c3e 1566 003d
000002c0: 8512 29bb 3a03 843c 9518 4fbb 6dd4 ae3d
000002d0: 4f9d 02bd 97aa 8bbd 1e29 d83d 0bae 2fbd
000002e0: 7ff3 89bc b3f5 9cbc 53a9 a93d 6321 95bc
000002f0: ebdd a2bb dacb b23d 78d0 863d 37d6 65bd
00000300: 0f02 303d f555 ab3b d6a9 3fbd ccf4 353d
00000310: 108b 783d dcbc a53d 1b9b 323d e142 7a3b
00000320: 9634 2cbd 2cae 3f3d 0d42 323d 008d b6bc
00000330: 8e3c a93d 5273 12bd 823c a43a 3a1b 223d
00000340: 03ff b63d 760e ef3b 33b6 643d b6d3 9b3c
00000350: 56b0 0cbc b2ee 023c b2ca 303d b962 183e
00000360: fa42 3c3d 3095 813d 7eac 813c 02e7 e2bc
00000370: 48bd 2dbd 6ca4 ed3c 0f24 3b3d fc68 8e3c
00000380: 42b9 a73d 68b3 8cbd 2012 65bd 1ba2 a2bc
00000390: 4da2 88bd 01b3 2c3e d0ee 503b 7658 d3bd
000003a0: de99 81bc 7305 65bc 1226 bbba f21a 4c3d
000003b0: 00b3 563d 603c 5e3d 377d 863d 4cbd 4c3d
000003c0: dbbb e83c ae8c 17bd 3c20 e33d e508 1a3d
000003d0: af70 1e3d f984 353c 2858 8c3d 9971 56bd
000003e0: eadd 9b3b 30c7 263b 9490 e53c 6a41 b33d
000003f0: 7719 74bc f680 773d 4861 b33d 2491 293d
0.034369588 0.015810784 -0.053480785 0.08025525 -0.02592592 0.055861942 0.06957687 0.030621927
-0.05308631 0.019607278 -0.016807327 0.110592246 0.059174575 0.024498539 -0.054041564 0.06049336
-0.02543259 0.11985718 -0.018502964 0.049682107 -0.045765124 0.0521201 0.02035018 -0.024256015
-0.005565888 0.07229453 0.07977093 0.08635395 -0.025715707 0.01111359 -0.019288 0.04210085
-0.08463761 0.075054124 0.029474689 0.075595744 -0.027942568 0.032558054 0.074554205 0.12768532
-0.041801218 0.0010198934 0.03074524 -0.02470618 0.041764658 -0.05415024 0.020946346 0.056351107
0.015375622 -0.030614112 0.0761286 0.048234854 0.059990317 0.029277382 -0.006349344 0.070005536
0.01724729 0.014512955 0.045740638 0.06335036 -0.01310585 0.07180226 0.042093657 -0.043664604
-0.026510894 0.020961585 -0.04706736 0.04360638 0.13745075 -0.012742957 -0.02924317 0.038188417
0.01622215 0.066715345 0.00072157773 -0.03101268 -0.010548213 -0.055639464 0.01743421 0.0742033
-0.00521335 0.029034084 -0.066208854 0.040146783 -0.07717957 -0.014844385 0.052204132 0.079909734
0.09647548 0.05893344 0.013387666 -0.05985403 0.04866242 -0.06083626 0.011980107 -0.012715759
0.026178995 -0.051324952 0.04402409 0.034377374 0.098137155 0.111912064 -0.025047392 0.053201355
0.059306722 -0.044954784 0.03999524 0.015452133 0.07111374 -0.013277006 0.04406941 -0.055042036
0.024559056 -0.10744978 0.024488699 -0.05948362 -0.03531704 0.019095037 -0.031049032 -0.00711992
-0.1312631 -0.019066302 -0.013503534 0.09643563 -0.0022869415 -0.0016728017 -0.01123444 0.013556933
-0.075506456 0.066756964 0.017442062 0.105044164 0.10076235 0.096279934 0.084273115 -0.0028348789
0.029716272 -0.030371023 0.03620493 0.018930135 0.03446507 0.04764081 0.026778357 0.01075304
-0.0671679 -0.027680185 0.12002965 0.061613962 -0.030162672 -0.022543637 -0.009839202 -0.04670734
0.04009355 0.045966912 0.07569686 0.08080662 0.03836941 -0.06145984 0.060873248 0.05071907
0.06392231 0.024074228 -0.007002454 -0.065266386 -0.048962675 0.056235332 -0.058725297 0.037754375
0.039780516 0.0061843568 -0.0021394908 -0.0039943573 0.03409881 0.08331473 0.15295814 0.031347353
-0.0025798392 0.01611482 -0.0031600345 0.08536611 -0.031888302 -0.06819647 0.105547175 -0.04289059
-0.01683974 -0.019160127 0.08284249 -0.018204397 -0.0049703023 0.08730288 0.06582731 -0.056112494
0.042970713 0.0052287527 -0.046792828 0.04442291 0.060679495 0.08092663 0.04360495 0.0038186836
-0.042042337 0.046796963 0.043520022 -0.02228403 0.08263503 -0.03575451 0.001253024 0.039576747
0.089353584 0.007295425 0.05583782 0.01902185 -0.008586964 0.00799148 0.043162055 0.1488141
0.04596231 0.063272834 0.015829321 -0.027698044 -0.04241684 0.029009067 0.045688685 0.017384045
0.08189632 -0.068701565 -0.05592549 -0.019852689 -0.066715814 0.1686516 0.0031880625 -0.10319607
-0.01582044 -0.01397835 -0.0014278314 0.049830385 0.0524168 0.054256797 0.065668516 0.049985215
0.028409889 -0.036999397 0.110901326 0.03760614 0.038681682 0.011079066 0.06852752 -0.05235443
0.004756679 0.0025448315 0.028023042 0.08752711 -0.014898649 0.06042572 0.08758789 0.041398183

network_body._body_endoder.seq_layers.0.weight f4 [256, 266]
00000000: 50fa fa3c 5d3e 813c 3914 dc3b 7567 e4bd
00000010: 4eef fb3c c9c5 56be 2147 3fbd 0220 b03c
00000020: a544 95bd 5e70 c13d 3b25 173d 77d0 b2ba
00000030: 2d47 40be f5eb 073e 9533 89bd 2d80 5b3d
00000040: 39f3 4dbe 42d5 c7bc d335 92bd a9c4 89bd
00000050: 20fa a3bd 2fab 3b3d 3cc9 1ebd 5c4a 2c3c
00000060: 0e9b cab8 5d68 843d 3e63 473d afea 2d3d
00000070: 520f dabc ab5b 6bbd 8fe9 81bd a38b 9e3d
00000080: c183 2cbd b5ea 2f3e 02ed 173d be55 043e
00000090: eb78 0b3e 9dbf 073e a910 b3bd 15e0 673d
000000a0: 710f 6abc 699f c43d cdb8 35bd 5157 20be
000000b0: 5052 1ebd 9d2d eebc 3e80 fdbb e826 5e3d
000000c0: d343 35bc ba83 87bc 7838 a5bd 2571 19bc
000000d0: cf2b b03d a797 40be e520 ce3d fae1 b0bd
000000e0: 949a 823d 9a7f 81bd a277 8d3d 80ec f73c
000000f0: f635 bebd 6398 e03d 76ca d5bb 2e63 0d3d
00000100: ced9 0e3e 721f 0d3e 4b52 e73d eda4 80be
00000110: 966a 5cbe 05cd 123d 2abf da3d 547e 2dbe
00000120: 2f0c cdbd 922d f0bb a87a af3d 8213 b0bd
00000130: 6f67 093e eb92 6b3d 1182 93bd d7f7 09be
00000140: 114e 323e 66bb b4bb 7ef3 373e 8993 debb
00000150: aad5 87bd 3ced 4e3c 64e6 2a3d ce24 c5bb
00000160: cd47 45bd 97e0 efbc 6758 ac3d 6631 72bc
00000170: 1fa6 4f3e 0f95 2fbc 5c5d 583d 4366 c13c
00000180: b2e4 1ebd 9e26 ccbc 368f a7bc 50e6 3aba
00000190: a7ec ef3d 8edd 603d 7570 813d 7005 54be
000001a0: 13ac dc3d 013b 4bbd d083 2b3e 8670 4fbd
000001b0: fb7c 91bd 0879 8f3d 5be0 e73d 33e0 a83d
000001c0: 6970 af3d 3e90 13bc fa8d d63d e811 c73d
000001d0: d271 823d f3bd 023b 8304 8f3c 640e 9ebd
000001e0: 5afd 8ebd ab1b d4bc 3220 cfbd 00e2 35be
000001f0: 25ad 223c f3e3 913d bc62 663e cb8a c0bc
00000200: ac94 773c 0fcc a6be 897d 2b3c 292d f63d
00000210: 13f5 45bc c1f9 aabc 6406 343e 6199 d13b
00000220: 67ec 79bd c3d4 98bd 3152 43bd 5e45 4d3e
00000230: 7675 bb3d 4ef1 f2bd 381c 87be b13e fd3d
00000240: 7005 46be ab48 16bd 818b 303e b0ca 22be
00000250: 4736 e83d ec45 7fbd 9a04 ea3c 464c acbd
00000260: 81a4 8dbd ad15 c63c d6ed 32bd c327 9abd
00000270: b08c f73b 5fd7 d03c d2de 62bd 8cc5 06be
00000280: 3cb5 473c bc4e 3abd e140 a4bd b0f8 0bbe
00000290: 1c7d 46bc 0789 833d b278 6d3d 7e1e b9bd
000002a0: 7c9b cebd ec51 e13d 2bf6 1bbd 47fc eabd
000002b0: c683 14be 3f1e 823d 373d 07bd b909 f8bc
000002c0: 2b91 8dbd adba 37bc a720 ccbd f0c6 2a3b
000002d0: 12d0 09be 09ae 6c3c a225 013e 8d93 183b
000002e0: f868 813d bd08 713d 1f83 a43d 7ccc 053e
000002f0: e9d5 3ebe bd0b 64bd e6f5 7c3c c007 c4bd
00000300: 486d 403c 588c 3ebd 5767 8a3d 3bd5 2abd
00000310: 512c 1bbe 4512 e33d 74db 983d 275c 833c
00000320: 8c47 193d fa67 03bc 24a1 0abd 60c8 033c
00000330: ca5d 1cbd 4c66 92bc ba6e e7bc 7b4d 76be
00000340: 7c5a 81be 0c08 633c 88a9 45bd 4a7e 3dbe
00000350: a37f ba3c 3cc3 7cbe 4144 a43d b98b 513e
00000360: 27c6 24be fdfc 393d 0783 ec3d b361 b5bc
00000370: f170 d7ba 6baa 673d 9992 403b 6958 043c
00000380: cc7b 83bd 029c 06bd a785 003d d167 1fbd
00000390: 12a0 95bd a110 da3d 36f5 c63d 6506 953b
000003a0: 00b5 aabd 0a99 a03d 00e1 84bd a582 c63c
000003b0: d67d 473e 979a 6b3d 7a36 27bd 67a6 223e
000003c0: 0b5b aebd 2deb 73bd a0b3 453d 2bdd e7bd
000003d0: 04b9 4e3d 2a84 6bbd 4bbf 14be fbf9 cebd
000003e0: 5cd0 573d 593c 8fbc 4687 853d 0e9c dd3c
000003f0: ec74 413d acfd 7bbd 37ba 37be a0ab 0ebe
0.030636936 0.015776807 0.006716278 -0.11152545 0.030753758 -0.20973887 -0.046698693 0.021499638
-0.072884835 0.094452605 0.03690074 -0.001364245 -0.18777151 0.13273604 -0.066992916 0.053589035
-0.20112313 -0.024393681 -0.071391724 -0.06726963 -0.08006692 0.04581755 -0.03876613 0.0105157755
-9.660992e-05 0.06465218 0.04867863 0.04246014 -0.026618633 -0.05746047 -0.06343376 0.07741477
-0.042117838 0.17179377 0.037091263 0.12923333 0.13620345 0.13256688 -0.08743412 0.056610186
-0.014285908 0.096007176 -0.044365693 -0.15658309 -0.038652718 -0.029074484 -0.007736235 0.054236323
-0.011063534 -0.016542304 -0.08067411 -0.009365355 0.08602106 -0.18807851 0.10064868 -0.086368516
0.0637714 -0.06323166 0.06907584 0.03026414 -0.09287636 0.109665655 -0.0065243794 0.034518413
0.13950273 0.13781527 0.11294993 -0.25125828 -0.21525034 0.035840053 0.10680993 -0.16942722
-0.100120895 -0.007329651 0.08568317 -0.08597471 0.13418363 0.05751316 -0.072025426 -0.1347345
0.17412592 -0.0055155037 0.17963979 -0.00679249 -0.0663255 0.012629803 0.041723624 -0.0060163504
-0.048164178 -0.029281897 0.08415299 -0.014782285 0.20278214 -0.010716691 0.05282341 0.023608332
-0.03879232 -0.024920758 -0.02045403 -0.0007129656 0.1171506 0.05489879 0.063202776 -0.20705199
0.10775008 -0.049616817 0.16749501 -0.05064442 -0.07103916 0.07005507 0.11322089 0.082458876
0.085663624 -0.009006558 0.10476299 0.09720212 0.06369366 0.0019949644 0.017458206 -0.077175885
-0.06981917 -0.0258921 -0.10113563 -0.17761993 0.009928976 0.07123556 0.22498602 -0.023503682
0.01511113 -0.3257756 0.010466942 0.12020332 -0.012082356 -0.020871045 0.17580563 0.006396458
-0.061016466 -0.07462456 -0.047685806 0.20045993 0.09153263 -0.118624315 -0.26388717 0.12365473
-0.19338012 -0.036690395 0.17240717 -0.15897632 0.113384776 -0.062322542 0.028566647 -0.084129855
-0.06916142 0.024180258 -0.04368385 -0.07527115 0.007554613 0.025493322 -0.05538828 -0.13161296
0.012189206 -0.045485243 -0.08020187 -0.13669086 -0.012114789 0.0642262 0.057976432 -0.09039019
-0.1008825 0.110019535 -0.03807656 -0.11473899 -0.14503393 0.06353425 -0.033017363 -0.030278074
-0.06912454 -0.011213941 -0.099671654 0.0026058517 -0.13458279 0.01444579 0.12612012 0.0023281306
0.06318849 0.058846224 0.08032822 0.13066286 -0.18636288 -0.055675257 0.015439486 -0.09571791
0.011744805 -0.04652056 0.06757992 -0.04170726 -0.15153624 0.11087469 0.07463732 0.016035153
0.037421748 -0.008020395 -0.033845082 0.008043379 -0.03817538 -0.017871045 -0.02825104 -0.24052994
-0.25264347 0.013856899 -0.04825738 -0.18505207 0.02276594 -0.24683851 0.08020831 0.20463456
-0.16091214 0.045407284 0.11548429 -0.022141313 -0.0016436857 0.056559008 0.0029384254 0.008077719
-0.06420097 -0.032863624 0.03137746 -0.038917366 -0.073059216 0.10647703 0.09714739 0.0045478814
-0.08335304 0.0784169 -0.06488228 0.024232218 0.19481596 0.057520475 -0.040823437 0.1588379
-0.08513459 -0.059550453 0.048267007 -0.11321481 0.050469413 -0.05749909 -0.14526097 -0.10106274
0.05268894 -0.01748483 0.06519942 0.027051952 0.047230646 -0.061521217 -0.17942129 -0.13932657

network_body._body_endoder.seq_layers.0.bias f4 [256]
00000000: e16d a93c f36e ad3c b373 a0bc 458f 353d
00000010: 45b1 823c ece1 d23c 014d a93c c6c6 723d
00000020: 1fe0 923b 7139 7cbd 35af 1dbd 699a 863d
00000030: a125 1a3b c21c 5ebc 2efc 1d3c bb96 e43c
00000040: 5992 213d 83a2 873b ec19 f5bc 0979 163d
00000050: 86f5 813c b7c8 153d 3182 d2b9 8f30 703c
00000060: c7da 453b 4b00 933c ee3d 11bd 4ad8 2b3d
00000070: 161b d5bc 3061 963c e4f5 5d3d 1b7d 5cbb
00000080: 815d 78ba b2f8 d7bb abdc d93c 1073 91bc
00000090: 57f3 843b 3a03 29bd cceb 3b3d bc20 5b3c
000000a0: 0673 3d3d 246f ea3c e273 e6bb 90b0 fc3c
000000b0: 2b6d 50bc 0f46 843c 25e4 7dbd 4ad5 013d
000000c0: 3c9a 52bc cc6a cb3c 8292 ca3d 5f91 41bd
000000d0: a80d bcbc c054 e539 d144 ea3c 603f 43bc
000000e0: 9d24 78bb 64e1 a439 9209 913c c368 a33c
000000f0: 3493 61bc 68d9 6bbc bbb3 a23c 9f2b 083c
00000100: 64b4 943b 1b57 3cbc 5a36 af3c c5a4 ed3b
00000110: 0d11 f73c 68e6 2a3c 2fc0 3a3c 60dc 60b7
00000120: 1520 163c 43ee 033c 86ff e03a 6716 473d
00000130: 9d45 c9bc 6a54 333d 2183 7c3c 0552 a93c
00000140: 2476 5ebd 85a6 28bc ab0d 0c3d 9a75 bbbb
00000150: 7301 023c 0365 74bc a0b1 193d a292 163c
00000160: 9508 023d 7235 43bc fbec f3bb 2de1 be3c
00000170: c965 5ebc 6667 9fbc 4a6e 3abd e948 59bc
00000180: d3bf dbbb f25b ea3c a932 98bc 704d 483d
00000190: aa20 c73b c0a9 c9bc db1a 213d 330f 4f3c
000001a0: b4dd 7fbc 7b23 cc3b e625 d53c 594a 483c
000001b0: cf16 123d 982a 493d daf1 a439 5b3f 19bd
000001c0: 2da5 10bd dc0c 70bb a0fc 98bc 3801 8b3d
000001d0: b76d 173d e17b 643d d9b6 08bd 6c39 a43c
000001e0: 6acf 02bc 2f65 c13a 599f 153c df51 51bd
000001f0: b619 053c 1226 883d f094 933b f6cd f83c
00000200: d9e5 a2bc 86e8 493d d20c ce3c a4b3 b1bc
00000210: 0a32 933b fcd7 903c 9ad8 273d 03f0 153c
00000220: 7280 1d3c 0082 563d e201 7bbc 5c53 87bd
00000230: 9558 183b 16ac f83b 0f75 69bc be72 123b
00000240: ebf4 ce3c e428 bebc b452 013d 4da0 39bb
00000250: 930d 193d 8f96 103d 9e66 533d 839b 443c
00000260: 13cd 253c 9097 403c a2e7 243c 0948 7d3c
00000270: 7fc8 a23b c3df 833d 3563 db3c 4ef1 083d
00000280: 81b9 09bd 2155 95bc 3296 303c ca29 54bc
00000290: 1bbf 453c e57d e43c 115b 9abd 37b5 b63a
000002a0: a03c f23c d5c4 623c f20e 023d 2f27 67bd
000002b0: e388 293d 36bb 3d3c 18ec acbc a90a 623c
000002c0: 1f45 ecbc 5763 343d ef4e 87bd 05ed 7e3c
000002d0: 6ab8 193d 67ad 183b c98e 5c3d dcd5 393d
000002e0: d321 9cbc 32be c93c 7099 47bd e40b 3b3d
000002f0: abab 523c 90d8 453d c8e1 91bc bc8e fa3c
00000300: 9cf4 5b3c c4d5 bdba bf63 0c3c bc5f 813a
00000310: caec 34bd e7fb 513d 6fea b03b 71db 353d
00000320: 2dfa 813c c871 143d 58db ce3c 3e4b 403d
00000330: 28d1 4cbd feb3 573d 75a3 aabc f788 46bc
00000340: b0b6 243d 6391 073d 8a4d dfb9 2bb6 063d
00000350: 1f3c d43b ac08 e13c bd45 82bc c5ba 33bd
00000360: 5192 51bc 609c a83b 07f7 55bd 2d9b 0a3d
00000370: 83d5 21bc a768 003d 5a3c b43c 14d7 b5bb
00000380: 6d01 983c d4f6 94bc cffc 42bc 20f0 4f3d
00000390: 949a fc3c 86df 983c e16e 463b 90b3 19bc
000003a0: 922a 203d c86f 4a3c da03 383d ada9 0dbc
000003b0: 3090 993c e161 163d 11ce 1abb 8c27 3e3d
000003c0: a376 373d c58b 7d3c e2af 4d3c 6257 713c
000003d0: 4d5f 9c3b 25d8 09bc 5135 2e3b 1a4e 403d
000003e0: 4068 893c 99ef 6a3c 85e9 463d a1a8 fb3c
000003f0: 26b6 db3c b112 ebbb 338b 8239 492c 3b3d
0.020682277 0.021171069 -0.01958642 0.044326086 0.01595367 0.025742494 0.020666601 0.059271596
0.0044822837 -0.061578218 -0.03849717 0.0657242 0.0023520964 -0.013556661 0.009642644 0.027903905
0.03944621 0.004139246 -0.029919587 0.036736522 0.015864145 0.03656837 -0.0004015132 0.014660015
0.0030190216 0.017944476 -0.03545945 0.041954316 -0.026013892 0.01835689 0.054189578 -0.0033643905
-0.00094743824 -0.006590926 0.02659448 -0.017755061 0.0040573287 -0.041262843 0.04587917 0.013374504
0.046252273 0.02861745 -0.0070328573 0.03084591 -0.01272134 0.016146688 -0.061985154 0.03169755
-0.012854155 0.024831198 0.098912254 -0.047257777 -0.02295573 0.00043741427 0.028597267 -0.011916965
-0.003786362 0.00031448447 0.017704759 0.019947415 -0.013768006 -0.014395095 0.019861093 0.008311181
0.004538106 -0.011495377 0.021388222 0.007252308 0.030159498 0.01043091 0.011398359 -1.34027505e-05
0.009162922 0.0080524115 0.0017165996 0.04860535 -0.024569327 0.043781675 0.015412123 0.020668993
-0.054311886 -0.010293608 0.034192722 -0.0057208063 0.007934916 -0.014916661 0.037522912 0.009190233
0.031746466 -0.011914598 -0.0074440218 0.023300732 -0.013574072 -0.019458484 -0.045515336 -0.013262012
-0.006706217 0.028608296 -0.018578844 0.048901975 0.006076892 -0.024617076 0.039332252 0.012637901
-0.015616823 0.0062298155 0.026019048 0.012224757 0.035666283 0.049112886 0.0003146071 -0.037413936
-0.035313774 -0.0036628759 -0.018675148 0.06787342 0.036969867 0.055782203 -0.033377502 0.020046912
-0.007984022 0.0014754887 0.00913223 -0.05110347 0.008123806 0.06647886 0.0045038387 0.030371647
-0.01988499 0.049294017 0.025152598 -0.021692105 0.004492049 0.017681114 0.04097805 0.0091514615
0.009613143 0.05237007 -0.015320273 -0.066076964 0.0023246158 0.0075888736 -0.0142491 0.0022346224
0.02526327 -0.023212858 0.031573012 -0.0028324306 0.03736646 0.035299834 0.051611535 0.0119999675
0.010119694 0.011754885 0.010064991 0.015459069 0.0049677487 0.064391635 0.026780704 0.03343325
-0.033624176 -0.01822907 0.010777997 -0.012949416 0.012069489 0.027892062 -0.07536901 0.0013939504
0.029569924 0.013840874 0.031752534 -0.056433853 0.04139031 0.011580279 -0.021108672 0.013796487
-0.028841553 0.04404005 -0.06606852 0.01555944 0.037529387 0.0023296715 0.053847108 0.045369968
-0.019059097 0.024626825 -0.048730314 0.045665637 0.012858312 0.048302233 -0.017807856 0.03058564
0.013425019 -0.0014483263 0.008568703 0.000987045 -0.044171132 0.051265623 0.0053990404 0.04439873
0.015866363 0.036241323 0.025251076 0.046946757 -0.050004154 0.05266189 -0.020829896 -0.012117616
0.040213287 0.033097636 -0.00042591646 0.032888573 0.0064768936 0.027469955 -0.015902394 -0.04387929
-0.012791232 0.0051455945 -0.052237537 0.033839393 -0.009877565 0.031349804 0.022001434 -0.005549321
0.018555367 -0.018184103 -0.011901095 0.05076611 0.030835427 0.018661272 0.0030278491 -0.00938119
0.0391031 0.012355752 0.044925548 -0.008646411 0.018745512 0.03671444 -0.002362136 0.046424434
0.044790875 0.015475218 0.012554141 0.014730306 0.004772103 -0.008413349 0.0026582072 0.046949483
0.016773343 0.014339351 0.048562545 0.030720057 0.026820254 -0.007173859 0.00024899244 0.04569653

network_body._body_endoder.seq_layers.2.weight f4 [256, 256]
00000000: d2ba cfbd 419c ab3d 207f c3bd 907b 35bd
00000010: 8f54 54be c7cc b9bd be63 c03d 6e13 5bbd
00000020: 6663 bcbd bb8a 2ebe a6f7 f3bd c0a2 5fbd
00000030: 12f9 70be beb9 3a3e a0df 8abc 1504 98bd
00000040: fed3 353e 9e4e 20be e427 9dbd 6a3e 9a3d
00000050: f7dc a6bd 9379 803d e5ea c43c ece3 babd
00000060: a7b1 2f3d 9391 453e 99e2 02bd 569a 4fbd
00000070: 6528 183e 2b5f 89bb 4f2a 44bd 1955 56bd
00000080: 80cf bbbb f277 5d3c af9a f83c 3662 2abd
00000090: 7555 ba3c 32cf acbd 2379 e43c 1986 0abd
000000a0: 8b32 293e fce1 063e 00b1 e5bd 2f1c 61bd
000000b0: 5541 1ebe d72e 0b3e 49f7 babd 5188 d4bd
000000c0: d166 893d 744f 543d 9c92 943c 2c41 2dbd
000000d0: 58bb 7bbc 460a dabd f191 75be 1efd edbd
000000e0: 79e9 a9bd 2c67 513e 2de7 7dbd bc81 bebd
000000f0: f57d fbbd 1168 8bbc 0759 56bc 2371 14be
00000100: d645 de3d 5609 8e3b b98e 6b3d 8282 30bd
00000110: 2d49 6fbd f511 02be 223a 97bd 1e1b 1bbd
00000120: 3cb3 22be a9d2 12bc c403 a93d 152a 3bbd
00000130: f376 463e cb87 0b3e c157 843c 20fb 433d
00000140: a513 a6bc 30b8 d83c b4e1 fa3d e803 733d
00000150: ec74 e63d 9d95 41bd 4025 08bb 1691 413c
00000160: ec54 9ebc bcfb bfbd 493f eabb 214d ba3a
00000170: 571d d4bd b460 d13c 2d04 963c 1e52 df3d
00000180: b28c 1b3e cc7b 363d a490 723a 7006 4b3d
00000190: 1e1e 833c 96d0 b63d 9cf0 063e a108 c43d
000001a0: d39f 3cbd eeeb 123e c0ba e1bc 605a a3bd
000001b0: 16c6 58bc c083 323e 879a 7dbd 8855 953d
000001c0: 4281 0ebe dd96 043b e086 b23d 26be 19bd
000001d0: f551 ed3d 0710 62bb bb35 50bd a212 e2bc
000001e0: 9573 893d fc50 3b3d eed3 7d3d a24f 23be
000001f0: 33cf dcbd 1e10 273c 5ab6 0ebe 7279 d93d
00000200: b309 42bd ec21 b0bc f372 573d 65cd 5ebe
00000210: c260 aabd bd2e 543d 9724 e8bb d189 9a3d
00000220: 9d48 c93d 6954 eb3d d9d4 6dbd 9598 803c
00000230: c63e 763c 1c78 ad3d df3d 04bd 27a8 2e3b
00000240: 2a9c 19bd da7b 03bc b466 c83d 1e17 233c
00000250: c480 6dbd 356e 373d 9e51 13bb 07d6 b43c
00000260: e38d 273d e8ad 1fbe 6411 0dbd 5644 d33d
00000270: 36eb 5fbd 5f49 fa3d 5fcd 5bbd fa8e 07bc
00000280: 48c1 0ebc d907 5d3c 468e 2ebd 5e76 c2bd
00000290: 1667 813d 0f03 2a3e 19a8 43bc 58a8 ab3d
000002a0: c721 11be 770c eebd 2c98 b33d 6200 12bd
000002b0: 7001 d13d 6dfe 9cbc e85a a43d 8ad6 a3bc
000002c0: eb2b b1ba 2c30 b5bd 8e5f 89bd 6ca2 c83d
000002d0: eeef 013e 0a8b 14be e086 393c b8ae c53d
000002e0: c718 c73c 90d8 ff3c 72c5 57bc ebda 8b3d
000002f0: 28db a63d 3eb1 d33d 7206 513d 6290 72bd
00000300: 152c 6bbe 2507 f93c 6d3c 443d 4717 073e
00000310: 1bf1 d5bc 0ef8 c43b 5fb4 fbbc 550f b0bd
00000320: eb9d 0bbe dcce 363c b02d 9f3d 4b5a b43d
00000330: 69cb 80bd 82ff 513c acbc 773c e46b 3e3d
00000340: db4d 0b3d 63ca 8e3d a735 36bc 73b5 eabd
00000350: d999 46bd a214 113e 81f6 113d 6703 e2bd
00000360: aa2c f7bc 7c80 88bd 0f70 933c 97a5 72bd
00000370: 2dea 57bd f7bf be3d 2270 4e3e 058d 193e
00000380: f7ce a9bd 4581 3e3c 0b16 923c 97cc e93d
00000390: 0bab 733e 820e 583e 5415 923d ea1c 883d
000003a0: d96e 7ebc b06d d03d c262 2e3e d4c3 37bc
000003b0: 2ec4 1ebe e0ba a3bd 5f94 ef3d 70cf a13b
000003c0: 267a 1e3e 78a5 54bd cbff 8e3e 7667 183d
000003d0: 7da2 63bb 8098 00bd 58b4 893d 2293 90bd
000003e0: df35 bcbc 2d94 1ebe 4af7 143e 5d3d 02bd
000003f0: 87c3 fc3d 8617 e4bb d06b 9fbd 29a0 093d
-0.10143055 0.083794124 -0.095457315 -0.04430729 -0.20735382 -0.09072261 0.09394024 -0.053485326
-0.09198646 -0.17045109 -0.119124696 -0.05459857 -0.23532513 0.18234918 -0.016952336 -0.074226536
0.1775665 -0.1565499 -0.07673624 0.07531436 -0.081476144 0.062731884 0.024037788 -0.09125504
0.04289403 0.19293813 -0.03195438 -0.050684296 0.1485916 -0.004192253 -0.04789191 -0.05232725
-0.005731523 0.013517367 0.030347196 -0.041597567 0.022745827 -0.08437957 0.027889794 -0.03381929
0.16523187 0.13172144 -0.11215401 -0.05495852 -0.1545461 0.13592087 -0.09129197 -0.10377563
0.06709064 0.051833585 0.018136315 -0.04229848 -0.01536449 -0.10646491 -0.23981453 -0.11620544
-0.082964845 0.20449513 -0.061988045 -0.093020886 -0.12279884 -0.017017396 -0.013082749 -0.14496283
0.10853164 0.004334609 0.057509158 -0.043093212 -0.058419395 -0.12702163 -0.07384135 -0.037867658
-0.15888685 -0.008961358 0.08252671 -0.04569443 0.19381313 0.1362602 0.016155126 0.047846913
-0.02027304 0.026455015 0.12250081 0.059329897 0.1125277 -0.047261823 -0.0020774156 0.011814376
-0.019327603 -0.093741864 -0.0071486575 0.001421366 -0.10357159 0.025558807 0.018312538 0.109043345
0.1519039 0.044551656 0.00092531205 0.049566686 0.016005572 0.08926503 0.13177723 0.09571958
-0.046050858 0.14347813 -0.02755487 -0.07976222 -0.013230821 0.17433071 -0.061914947 0.072917044
-0.13916495 0.0020231523 0.087171316 -0.037534855 0.11587898 -0.0034494416 -0.05083249 -0.027596775
0.06711499 0.04573153 0.06196969 -0.15948346 -0.107817076 0.010196714 -0.13936749 0.10618867
-0.04737253 -0.02150055 0.05259986 -0.2175804 -0.08319236 0.051802386 -0.00708444 0.07545818
0.09828303 0.11490709 -0.058064315 0.015697757 0.015029615 0.08470175 -0.032285567 0.002665052
-0.037502445 -0.008025134 0.09785214 0.009954242 -0.05798413 0.044782836 -0.0022479068 0.022074712
0.040906798 -0.15593684 -0.034440413 0.103157684 -0.054667674 0.12221026 -0.053662654 -0.008273834
-0.008713074 0.013490641 -0.04261615 -0.09495233 0.0631849 0.1660273 -0.011941933 0.083817184
-0.14173041 -0.11623471 0.08769259 -0.035644896 0.10205352 -0.019164288 0.080251515 -0.019999761
-0.0013517117 -0.08847079 -0.06707679 0.097966045 0.12689182 -0.14506164 0.011323661 0.096524656
0.024303807 0.031231195 -0.013169633 0.06828865 0.081472695 0.10336541 0.051031537 -0.059219725
-0.22966035 0.030398915 0.04790919 0.13192473 -0.026115945 0.0060110157 -0.030725656 -0.08596674
-0.1363446 0.011157718 0.07772386 0.088062845 -0.062887974 0.0128172655 0.0151206665 0.04648961
0.034009796 0.06972196 -0.01112119 -0.1146039 -0.048486564 0.14168027 0.035635475 -0.11035805
-0.030172665 -0.066651314 0.01799777 -0.05923995 -0.05271356 0.09313958 0.20159963 0.14995201
-0.082914285 0.0116275 0.017832777 0.114159755 0.23795716 0.21099284 0.07132974 0.0664614
-0.015529358 0.10177171 0.1702986 -0.011216123 -0.15504524 -0.07994628 0.116982214 0.0049380586
0.15476283 -0.051915616 0.2792953 0.037208043 -0.0034734302 -0.031395435 0.06723851 -0.07059313
-0.022974906 -0.15486212 0.14547458 -0.0317968 0.123419814 -0.006960812 -0.077842355 0.033600006
