results/PushBlockCollab_POCA_RND/PushBlockCollab/PushBlockCollab-13499943.onnx (onnx, 643240 bytes, 12 tensors)

network_body.observation_encoder.processors.0.conv_layers.0.weight f4 [16, 6, 8, 8]
-0.017128786 -0.047281604 0.04638512 -0.1125145 -0.0037284535 -0.11601975 -0.07259819 -0.029439429
0.09704219 0.029539283 -0.037308995 -0.11833073 -0.10401543 -0.05769683 -0.0063879313 0.013642651
0.04503648 0.045307107 -0.073455885 -0.13289866 -0.034586444 -0.095865496 0.03753285 0.0021232183
0.07387438 -0.059527073 -0.020489918 0.001800717 -0.010000605 -0.01990464 0.055335153 -0.008305277
0.029015886 0.03982222 0.0072387955 0.0032438964 0.07707053 -0.015489734 0.046327345 -0.061802816
-0.044418838 -0.08165984 -0.031651583 0.019918755 -0.043397814 -0.050649222 0.032128565 0.08040708
0.050900154 0.05975839 0.0071533984 0.06866961 -0.084839165 -0.043218482 -0.055680513 -0.016507268
-0.016453054 0.0157045 -0.031383846 -0.00058900897 -0.10856766 -0.16622023 -0.049647063 -0.07185845
-0.05040365 0.10308128 0.003713952 0.11775144 -0.038855728 0.015926514 0.054590788 0.09088015
0.010064545 0.05533088 0.072527826 0.14508244 -0.04763081 0.17057234 0.0038175043 0.13026163
-0.06971578 -0.01095152 0.07589871 0.05847746 0.08881732 0.108095825 0.18562154 0.04618375
-0.09803361 0.0068407087 0.21146238 0.10090678 0.02394347 0.06900345 0.038266417 -0.17414422
0.0065396936 0.02266043 0.09688413 0.030399611 -0.033344314 -0.019029649 -0.028948702 -0.029751765
0.060450535 0.0039960826 -0.024485216 -0.046992745 -0.014607713 0.009757185 0.089597374 -0.037463855
-0.0033688268 0.16166253 0.08452718 -0.0052425526 0.029040195 0.03145413 0.13928103 0.09211101
0.01889736 0.0014426546 -0.01727625 0.034010775 0.14359349 0.058348134 0.110400625 0.2000046
0.05049846 0.002126796 -0.02504155 -0.018391008 0.019933293 -0.0011803631 0.05925519 -0.0016286256
-0.04566569 -0.021821966 0.035407964 0.00432343 0.07497864 0.08451957 -0.023776239 -0.0020487474
-0.023552416 0.058129217 0.078535736 0.090510845 0.02767137 0.04439456 0.030274058 0.008172999
0.040311955 0.017213346 0.011229414 0.06581173 0.08113316 0.025469452 -0.028152 -0.012253047
-0.0010939217 -0.02678942 0.010329621 0.022025106 0.06733933 0.029778447 0.010551447 -0.027797518
-0.015113515 -0.06831804 0.03502178 -0.07647051 -0.024985496 0.026398674 -0.08672474 0.019779496
-0.03344692 -0.12296901 -0.07066557 0.015950192 -0.020938862 -0.045625277 -0.059090327 -0.009277249
-0.06685021 -0.09103366 -0.020545946 -0.07763212 -0.07710822 0.0126499 -0.05239378 0.06786083
-0.19385612 -0.044258647 -0.018819883 -0.13117228 -0.29970476 -0.13065612 -0.0024793514 0.025032792
0.1391564 0.06681342 0.016350161 0.0023681622 -0.10189906 -0.10728544 -0.09295705 -0.07510511
0.21536285 0.23745933 0.16332954 0.075433575 0.11160905 0.088058606 -0.04661636 -0.06820107
0.12170199 0.06593453 0.033718076 0.116225466 0.12368817 0.11130556 0.010694338 0.036061414
0.07612079 0.029810635 0.12709264 0.08698262 0.09658559 0.026730442 0.11730409 0.027709454
0.20573573 0.24313074 0.2449476 0.2392326 0.12310442 0.13787355 0.037615746 0.034734815
0.26293215 0.18437323 0.15720701 0.19648802 0.10443096 0.067391545 0.046319358 -0.10172989
0.17201316 0.03791167 0.09663629 0.17786038 0.085868664 0.035427313 0.124154724 -0.1632529
00000000: ab51 8cbc 5baa 41bd 53fe 3d3d 016e e6bd
00000010: 1259 74bb c39b edbd 5cae 94bd f52a f1bc
00000020: 0ebe c63d 5efc f13c 51d1 18bd 6257 f2bd
00000030: 0b06 d5bd 8353 6cbd da51 d1bb 6d85 5f3c
00000040: 2c78 383d f293 393d 0a70 96bd 9616 08be
00000050: 84aa 0dbd 2155 c4bd 0cbc 193d b125 0b3b
00000060: 734b 973d a9d2 73bd 79da a7bc 0906 ec3a
00000070: 94d9 23bc 0e0f a3bc 1da7 623d db12 08bc
00000080: b9b2 ed3c a01c 233d 6b33 ed3b 8d97 543b
00000090: 27d7 9d3d a7c8 7dbc bec1 3d3d f324 7dbd
000000a0: 87f0 35bd 463d a7bd 17a5 01bd a82c a33c
000000b0: e8c1 31bd 8f75 4fbd 3e99 033d 78ac a43d
000000c0: ae7c 503d 37c5 743d 0e67 ea3b a7a2 8c3d
000000d0: 28c0 adbd dd05 31bd 4011 64bd 403a 87bc
000000e0: 8ec8 86bc b9a6 803c 598c 00bd b967 1aba
000000f0: b958 debd a335 2abe b85a 4bbd 862a 93bd
00000100: 0f74 4ebd 471c d33d c665 733b ab27 f13d
00000110: 2f27 1fbd 5278 823c 979a 5f3d 5f1f ba3d
00000120: c3e5 243c a2a2 623d 7889 943d 7e90 143e
00000130: 8618 43bd 84aa 2e3e 182f 7a3b 4e63 053e
00000140: 26c7 8ebd 016e 33bc c870 9b3d 1086 6f3d
00000150: dbe5 b53d 5861 dd3d 9313 3e3e 2c2b 3d3d
00000160: d8c5 c8bd 0628 e03b 9889 583e 37a8 ce3d
00000170: 1925 c43c ae51 8d3d 3fbd 1c3d dd52 32be
00000180: ed4a d63b 5ea2 b93c 306b c63d 9b08 f93c
00000190: 0c94 08bd 11e4 9bbc d425 edbc f9b9 f3bc
000001a0: fb9a 773d 92f1 823b 3895 c8bc 777b 40bd
000001b0: 3055 6fbc 9adc 1f3c d47e b73d b373 19bd
000001c0: 89c7 5cbb dd8a 253e 961c ad3d b8c9 abbb
000001d0: b4e5 ed3c 0cd6 003d b09f 0e3e b2a4 bc3d
000001e0: a3ce 9a3c 7517 bd3a ec86 8dbc e24e 0b3d
000001f0: 2c0a 133e 74fe 6e3d b919 e23d 02ce 4c3e
00000200: 79d7 4e3d b761 0b3b f023 cdbc bda8 96bc
00000210: 254b a33c 6ab6 9aba 92b5 723d 9b77 d5ba
00000220: f20b 3bbd fbc3 b2bc f107 113d 8fab 8d3b
00000230: 678e 993d 9918 ad3d 63c6 c2bc 4744 06bb
00000240: fff0 c0bc e718 6e3d 58d7 a03d c05d b93d
00000250: 12af e23c 12d7 353d 4d01 f83c 0be8 053c
00000260: 261e 253d 0103 8d3c 93fb 373c 4dc8 863d
00000270: 2429 a63d 50a5 d03c 069f e6bc 01c1 48bc
00000280: ec61 8fba 7c75 dbbc 923d 293c ff6d b43c
00000290: 34e9 893d eef1 f33c fadf 2c3c 9fb7 e3bc
000002a0: ad9e 77bc 54ea 8bbd ff72 0f3d 929c 9cbd
000002b0: 62ae ccbc 0842 d83c be9c b1bd 9c08 a23c
000002c0: a3ff 08bd 2dd7 fbbd 1cb9 90bd faa9 823c
000002d0: fa87 abbc 92e1 3abd b308 72bd 9aff 17bc
000002e0: c3e8 88bd db6f babd f94f a8bc 97fd 9ebd
000002f0: eaea 9dbd 8741 4f3c dc9a 56bd 9efa 8a3d
00000300: 3882 46be 8e48 35bd 282c 9abc 0752 06be
00000310: e772 99be b8ca 05be 9d7c 22bb 9211 cd3c
00000320: 047f 0e3e 79d5 883d c6f0 853c 2b33 1b3b
00000330: 74b0 d0bd 78b8 dbbd 4460 bebd b5d0 99bd
00000340: 1488 5c3e 8a28 733e dc3f 273e eb7c 9a3d
00000350: 4993 e43d 1258 b43d ccf0 3ebd 01ad 8bbd
00000360: e53e f93d af08 873d f71b 0a3d 9e07 ee3d
00000370: 3950 fd3d 2bf4 e33d 4e37 2f3c 22b5 133d
00000380: 37e5 9b3d 6f35 f43c 9324 023e f223 b23d
00000390: aace c53d cdf9 da3c 203d f03d f0fe e23c
000003a0: 63ac 523e 44f7 783e 8bd3 7a3e 64f9 743e
000003b0: 2c1e fc3d b92e 0d3e f812 1a3d 1846 0e3d
000003c0: 0b9f 863e 56cc 3c3e e0fa 203e 2834 493e
000003d0: e6df d53d 9404 8a3d 5eb9 3d3d c357 d0bd
000003e0: 3824 303e 4449 1b3d 3fe9 c53d 0821 363e
000003f0: e9db af3d 3b1c 113d d544 fe3d c52b 27be

network_body.observation_encoder.processors.0.conv_layers.0.bias f4 [16]
-0.046554435 0.0037568412 -0.07514785 -0.021632409 -0.020524051 -0.058782686 -0.13257521 -0.08503654
-0.029070964 -0.056892093 -0.021412294 -0.015220586 -0.03458925 0.003500626 0.025421645 0.015747627
00000000: ddaf 3ebd 5635 763b 1ee7 99bd 7336 b1bc
00000010: 0e22 a8bc 1dc6 70bd ccc1 07be a327 aebd
00000020: 3b26 eebc af07 69bd d668 afbc c45f 79bc
00000030: 75ad 0dbd c26a 653b 0e41 d03c 2b01 813c

network_body.observation_encoder.processors.0.conv_layers.2.weight f4 [32, 16, 4, 4]
-0.093345106 -0.20507249 -0.008842437 -7.4616564e-06 -0.029207788 -0.20289864 0.0450646 0.051855013
-0.014397486 -0.05385616 0.17035355 -0.013960542 -0.035375774 0.04545823 0.14865728 -0.014674647
-0.051009472 -0.05755932 0.00095204904 -0.20612442 0.09323317 -0.05031854 -0.036734942 -0.005902976
0.06235365 -0.09085982 -0.05788279 0.14431117 0.07632386 -0.015291175 -0.11966447 0.0829616
-0.03200032 -0.008792812 0.114150286 0.054419804 -0.07864234 -0.08384073 0.12339639 0.046832647
0.08028865 0.0011113792 0.08733486 0.0142953545 0.009100636 0.052521218 0.051983986 0.040047716
-0.12986891 0.07295309 0.12576532 -0.088795796 0.00056780706 0.10520292 0.12050084 0.08290504
-0.101409175 0.08432476 0.11969486 -0.08389 0.111579634 0.06342482 -0.0063276957 0.06576833
-0.079809375 0.078125216 0.12036455 0.0028707392 -0.05168026 0.013665826 0.0434569 -0.041144695
0.059814062 -0.10987989 0.037946347 0.076797865 -0.086197786 -0.036665957 0.017261675 0.11081508
-0.045021307 -0.021001248 0.058234535 -0.08952548 -0.095595576 -0.13570446 -0.0023243232 -0.004143717
-0.1431833 -0.12352264 0.03251714 -0.14992042 0.095783524 0.031890534 0.031136535 -0.04677249
0.0052614748 -0.040448137 0.009527068 0.07220767 0.05551525 0.029934326 -0.014731266 -0.0086846445
0.080321394 -0.058887336 0.038124792 0.09862054 0.053976424 0.015381917 0.08458876 0.0402877
0.058743082 0.032820206 0.0038109277 0.09099714 0.022863539 0.015339507 0.12872294 0.09482081
0.01909536 -0.06418167 0.0052102823 0.15080708 0.004952649 -0.019863812 0.0093035875 -0.07960951
-0.020741206 -0.066461764 0.07538977 -0.015803644 -0.13353762 -0.22491758 0.01601114 -0.10235905
0.023722967 -0.0140434895 0.06800424 0.06224379 0.06739832 -0.020197483 0.10517704 -0.07329698
-0.06704896 0.045356154 0.027816866 0.012392479 -0.0063423105 0.09067288 0.14166012 0.074535556
0.019292844 -0.038772404 -0.021423407 0.18099226 -0.009550821 0.032714862 0.06435796 -0.040789705
-0.010669603 -0.08263487 -0.02958933 0.08942596 -0.018436821 -0.0818497 0.030856466 0.16373903
-0.031767506 -0.13998616 -0.021659592 0.12257974 -0.08713824 0.04287782 0.0025161316 0.05640386
-0.12576284 -0.14923611 0.014538575 -0.049216308 -0.07965378 -0.058671426 -0.09653308 -0.08365456
0.12505156 -0.02398407 -0.15974621 -0.059705485 -0.0022568784 -0.071947426 0.07375928 0.08438018
-0.08996472 -0.036578372 -0.06824521 -0.041828062 -0.12948304 -0.19576952 0.0020185648 0.06584374
-0.028560463 -0.035156187 0.029639618 0.017754676 0.10396003 -0.02139478 0.03796361 -0.035609346
-0.19574104 0.094236165 0.016332885 -0.027686857 -0.13637775 0.08878892 0.020462671 -0.0040925876
-0.05027038 0.12532008 -0.022003103 0.013484856 -0.043422144 0.01063513 0.032464873 -0.009786032
0.007904013 -0.050701313 0.03653251 0.09530051 0.0035015035 0.010824085 0.15045118 0.076456554
0.05286143 0.017120603 0.030255435 0.04819095 0.0167416 0.12553202 0.03968856 -0.0142783355
-0.123801626 -0.022803841 -0.101698056 -0.08490467 -0.10587694 -0.20906168 0.013478093 0.043040585
0.016584687 -0.011656026 0.04540209 -0.058881823 0.040414203 -0.05717355 0.0069747097 -0.06149208
00000000: b82b bfbd 86fe 51be dedf 10bc 245f fab6
00000010: 2c45 efbc a9c4 4fbe a895 383d ec65 543d
00000020: 6fe3 6bbc 4798 5cbd 2971 2e3e c2ba 64bc
00000030: 30e6 10bd 6932 3a3d 9d39 183e ee6d 70bc
00000040: 4fef 50bd 52c3 6bbd ee92 793a 4812 53be
00000050: 08f1 be3d d01a 4ebd 6177 16bd c06d c1bb
00000060: 8a66 7f3d b714 babd 8116 6dbd 4fc6 133e
00000070: af4f 9c3d d687 7abc a512 f5bd c5e7 a93d
00000080: c412 03bd ba0f 10bc a0c7 e93d 4de7 5e3d
00000090: 3c0f a1bd b0b4 abbd 3fb7 fc3d 97d3 3f3d
000000a0: 606e a43d b3ab 913a 9edc b23d 1037 6a3c
000000b0: d51a 153c 7d20 573d 29ed 543d 1309 243d
000000c0: 5bfc 04be 6e68 953d a0c8 003e 92da b5bd
000000d0: e3d8 143a a174 d73d 25c9 f63d 1eca a93d
000000e0: 9daf cfbd 76b2 ac3d 9422 f53d 85ce abbd
000000f0: dd83 e43d dfe4 813d 8f58 cfbb 8cb1 863d
00000100: 1973 a3bd 1d00 a03d b081 f63d 0323 3c3b
00000110: aeae 53bd a1e6 5f3c ddff 313d 5787 28bd
00000120: 97ff 743d b508 e1bd a16d 1b3d 3348 9d3d
00000130: 7788 b0bd 0b2f 16bd 5b68 8d3c 04f3 e23d
00000140: 4368 38bd cf0a acbc 5687 6e3d 2359 b7bd
00000150: 9dc7 c3bd 1cf6 0abe ac53 18bb 04c8 87bb
00000160: a59e 12be 70f9 fcbd b130 053d bd84 19be
00000170: 272a c43d a69f 023d 0c12 ff3c 8394 3fbd
00000180: 7368 ac3b f2ac 25bd 6b17 1c3c 9de1 933d
00000190: f563 633d d538 f53c 685b 71bc 0a4a 0ebc
000001a0: 8b7f a43d d933 71bd be28 1c3d 91f9 c93d
000001b0: 6216 5d3d 7004 7c3c df3c ad3d b704 253d
000001c0: 969c 703d 7b6e 063d c2c0 793b b55c ba3d
000001d0: 514c bb3c 8e52 7b3c f2cf 033e 6a31 c23d
000001e0: df6d 9c3c ae71 83bd 04bb aa3b 2c6d 1a3e
000001f0: d549 a23b 6fb9 a2bc 136e 183c 500a a3bd
00000200: 76e9 a9bc 1b1d 88bd f465 9a3d a576 81bc
00000210: 16be 08be cb50 66be cb29 833c 9fa1 d1bd
00000220: ab56 c23c aa16 66bc cf45 8b3d 58f3 7e3d
00000230: 2108 8a3d 3175 a5bc 0f67 d73d ba1c 96bd
00000240: f750 89bd 60c7 393d 32e0 e33c d309 4b3c
00000250: 28d3 cfbb b4b2 b93d 5a0f 113e 19a6 983d
00000260: 070c 9e3c d0cf 1ebd 2480 afbc 0956 393e
00000270: 0c7b 1cbc 0500 063d 1bce 833d 1b13 27bd
00000280: 8fcf 2ebc 793c a9bd 5365 f2bc f524 b73d
00000290: d108 97bc d1a0 a7bd b3c6 fc3c 34ab 273e
000002a0: a51e 02bd 8858 0fbe 756f b1bc 160b fb3d
000002b0: 8975 b2bd a7a0 2f3d afe5 243b bc07 673d
000002c0: f9c7 00be 5ad1 18be 3433 6e3c 0a97 49bd
000002d0: 8521 a3bd 7351 70bd 23b3 c5bd 1553 abbd
000002e0: 840d 003e 3e7a c4bc 8394 23be bd8d 74bd
000002f0: 23e8 13bb 2c59 93bd 1b0f 973d 84cf ac3d
00000300: 6c3f b8bd 34d3 15bd 25c4 8bbd e753 2bbd
00000310: 3497 04be ce77 48be e649 043b 15d9 863d
00000320: a2f7 e9bc efff 0fbd c9ce f23c 4172 913c
00000330: ffe8 d43d 1b44 afbc bb7f 1b3d 1bdb 11bd
00000340: 5770 48be e4fe c03d 8bcc 853c 8ccf e2bc
00000350: 9ca6 0bbe f7d6 b53d 55a1 a73c 1d1b 86bb
00000360: 50e8 4dbd e853 003e da3f b4bc 96ef 5c3c
00000370: 6bdb 31bd f83e 2e3c e3f9 043d 9855 20bc
00000380: d57f 013c 2eac 4fbd 1da3 153d ea2c c33d
00000390: 7b79 653b 8157 313c e00f 1a3e 4195 9c3d
000003a0: 3a85 583d 8240 8c3c 3fda f73c e063 453d
000003b0: ae25 893c 778b 003e 7990 223d aeef 69bc
000003c0: b58b fdbd 1fcf babc 1247 d0bd 80e2 adbd
000003d0: 02d6 d8bd 4414 56be 38d3 5c3c 534b 303d
000003e0: 9cdc 873c ebf8 3ebc 8bf7 393d 112e 71bd
000003f0: 5d89 253d d02e 6abd 1b8c e43b 1fdf 7bbd

network_body.observation_encoder.processors.0.conv_layers.2.bias f4 [32]
-0.06627363 -0.10373141 -0.03604309 -0.05019844 -0.047244713 0.017952207 0.063085765 -0.002343858
0.058101833 0.03833827 -0.029700762 -0.04576617 0.022928022 -0.035441585 0.020783406 0.07770275
-0.045771804 0.07711225 -0.018021729 0.02602368 0.028179716 -0.02358517 0.0070544323 -0.02667989
0.054988526 -0.03721106 -0.046736285 -0.083644986 0.027330108 0.0012650489 0.07172861 -0.048126653
00000000: 78ba 87bd 2271 d4bd eba1 13bd e19c 4dbd
00000010: ac83 41bd 8210 933c 1c33 813d 699b 19bb
00000020: 30fc 6d3d 9708 1d3d 034f f3bc 4f75 3bbd
00000030: 8cd3 bb3c 322b 11bd f641 aa3c 9f22 9f3d
00000040: 377b 3bbd 07ed 9d3d 4ea2 93bc 9d2f d53c
00000050: 26d9 e63c b035 c1bc de28 e73b c98f dabc
00000060: a63b 613d a06a 18bd 8c6e 3fbd 104e abbd
00000070: 64e3 df3c ffcf a53a 73e6 923d 7420 45bd

network_body.observation_encoder.processors.0.dense.0.weight f4 [256, 32]
0.2111267 0.31406012 0.100145034 0.24799955 -0.20440361 -0.34546217 0.40257147 -0.449769
0.15022784 0.3804993 0.38990167 0.26105842 -0.4587574 0.042005938 0.010057406 0.31177995
0.017880397 -0.088211976 0.13021605 -0.33671725 -0.30982125 -0.3106694 -0.19710423 -0.024781374
0.44113478 -0.0969046 -0.35646638 0.20232292 0.244516 0.088594064 -0.2270097 -0.08442934
-0.15914683 0.21069738 -0.21865848 -0.11847785 -0.7275656 0.110208705 0.19202532 -0.020503217
-0.09782214 0.64050853 -0.121751964 -0.19738136 0.45993257 -0.11237727 0.36693743 0.15183242
0.2656071 0.39015874 -0.40354267 -0.37651998 0.09299177 0.37616464 0.32188228 -0.113839604
-0.14207697 0.061762217 0.43657026 0.187304 -0.1838933 0.13594824 0.045257352 -0.036640387
0.038006548 0.37151572 0.4068244 0.08587829 0.07756765 -0.80461186 0.048797514 0.7135323
0.65265244 0.023867298 0.11360797 -0.4789574 -0.14719936 0.15182045 0.21802798 -0.124693304
0.0282333 0.12362674 0.2538434 0.46759346 -0.24705327 -0.2780332 0.17754042 0.02578856
-0.14591077 0.038300212 -0.013993266 -0.023466224 -0.004119527 0.031281263 -0.009384703 -0.010141941
0.36937147 -0.074687056 -0.13893135 -0.27046546 -0.46459517 0.09437853 0.0121658975 0.29126197
-0.17005341 0.29127046 -0.38458854 -0.035950158 -0.18294676 0.07590542 -0.03963577 -0.043994166
-0.35676926 0.32643765 -0.20109329 0.24002561 -0.11531308 -0.030536951 -0.45100865 -0.22539271
0.0287653 -0.501402 -0.58889264 0.68843985 0.05892449 0.35067073 0.31167915 0.12963702
-0.20352422 0.67005056 0.3946978 0.42009005 -0.54565775 -0.045115612 -0.52115613 -0.44831
0.14145444 -0.046945363 0.032381482 0.16296023 -0.030550074 0.37496978 0.07291415 0.00053286564
0.18186232 0.10263402 0.11309958 0.34540874 -0.22521019 0.2310213 -0.18115804 0.16854213
-0.20761815 0.0070448862 -0.40128896 0.7510924 0.13147676 0.19359727 -0.33095643 0.079556845
0.105396 -0.016502408 0.04479313 0.14083195 0.033570893 0.39508703 0.29235977 -0.11274489
0.33980975 0.025506057 -0.0504471 0.14295268 0.069331326 0.23814243 -0.4161205 -0.06455197
-0.26104033 0.15154015 0.34607953 0.48727554 0.06901319 -0.1374605 -0.3955765 -0.27431685
0.2552965 0.16196385 -0.35429376 -0.19317298 -0.12785305 0.14277178 0.016997956 0.065535426
0.18197277 -0.042994145 0.051944382 -0.18294895 0.10134931 -0.24566178 -0.17927818 0.48154438
0.2989644 0.14385948 0.22379671 -0.27841213 0.16847304 -0.18038048 -0.3074304 0.22661412
0.038154732 -0.046945274 0.07902165 0.23189929 0.056617133 0.13862993 0.024053914 -0.2087673
0.2027735 -0.01301025 0.33065715 -0.32590595 0.52589864 0.119912826 0.32506704 -0.04773711
-0.1780124 -0.36118516 0.005771409 0.07935397 0.12206538 0.1571963 -0.3518471 -0.01531403
-0.27999082 -0.17123859 0.19007914 -0.115298055 -0.17670466 0.08072817 0.092070386 0.007952175
0.13312532 -0.011295564 0.39205933 0.18114504 -0.124898754 0.5318786 0.03483659 0.20151311
-0.13100383 -0.11844093 -0.48468795 0.2872005 0.2085476 -0.19166996 -0.2950079 0.06916082
00000000: 9931 583e 7dcc a03e d718 cd3d 98f3 7d3e
00000010: 2e4f 51be 6be0 b0be d91d ce3e 1f48 e6be
00000020: 54d5 193e ced0 c23e 31a1 c73e 73a9 853e
00000030: 40e2 eabe 6b0e 2c3d d1c7 243c 9fa1 9f3e
00000040: e979 923c 7ba8 b4bd 5b57 053e 3466 acbe
00000050: e4a0 9ebe 0f10 9fbe b1d5 49be 4f02 cbbc
00000060: 6bdc e13e eb75 c6bd c382 b6be bd2d 4f3e
00000070: 6762 7a3e ce70 b53d 3b75 68be 4ae9 acbd
00000080: 63f7 22be 0ec1 573e 02e8 5fbe 84a4 f2bd
00000090: bd41 3abf 1ab5 e13d 49a2 443e 5df6 a7bc
000000a0: f956 c8bd 5ef8 233f 1859 f9bd 571e 4abe
000000b0: 487c eb3e 0e26 e6bd 39df bb3e f579 1b3e
000000c0: a7fd 873e e3c2 c73e 259d cebe 3ac7 c0be
000000d0: 7872 be3d a798 c03e c1cd a43e bd24 e9bd
000000e0: a07c 11be 61fa 7c3d 2386 df3e 9fcc 3f3e
000000f0: 864e 3cbe 0436 0b3e c65f 393d 3b14 16bd
00000100: c1ac 1b3d 4f37 be3e 4a4b d03e f5e0 af3d
00000110: cadb 9e3d 0bfb 4dbf e7df 473d 0eaa 363f
00000120: 3b14 273f 5a85 c33c 4cab e83d e839 f5be
00000130: 6ebb 16be d276 1b3e ba42 5f3e 345f ffbd
00000140: 8649 e73c 0430 fd3d c3f7 813e 6968 ef3e
00000150: 88fb 7cbe 5e5a 8ebe 28cd 353e 8842 d33c
00000160: a269 15be afe0 1c3d 0344 65bc 3d3c c0bc
00000170: 19fd 86bb c820 003d 4cc2 19bc 622a 26bc
00000180: 421e bd3e 87f5 98bd 0544 0ebe 737a 8abe
00000190: 6bdf edbe 8849 c13d 7953 473c 4a20 953e
000001a0: 7b22 2ebe 6721 953e cae8 c4be 7940 13bd
000001b0: 6556 3bbe 4d74 9b3d 1e59 22bd 3a33 34bd
000001c0: 76aa b6be d622 a73e 66eb 4dbe 46c9 753e
000001d0: 4429 ecbd a128 fabc 9bea e6be 59cd 66be
000001e0: 35a5 eb3c e25b 00bf abc1 16bf 983d 303f
000001f0: ce5a 713d 1d8b b33e 6994 9f3e 91bf 043e
00000200: a768 50be 6f88 2b3f d415 ca3e 0b16 d73e
00000210: 3ab0 0bbf 26cb 38bd 7d6a 05bf e388 e5be
00000220: 6fd9 103e c849 40bd 72a2 043d 0cdf 263e
00000230: 2644 fabc 0afc bf3e 0454 953d 02b0 0b3a
00000240: 1e3a 3a3e c931 d23d c1a0 e73d 6ad9 b03e
00000250: 809d 66be d990 6c3e 7e81 39be 4f96 2c3e
00000260: da99 54be cad8 e63b bf75 cdbe 9747 403f
00000270: d8a1 063e 5d3e 463e 1f73 a9be b3ee a23d
00000280: dcd9 d73d 0f30 87bc 0079 373d 4036 103e
00000290: a281 093d d948 ca3e 2eb0 953e cbe6 e6bd
000002a0: 8bfb ad3e 14f2 d03c 9ea1 4ebd 3062 123e
000002b0: 95fd 8d3d 9cdb 733e bf0d d5be d333 84bd
000002c0: 14a7 85be 572d 1b3e 5631 b13e 2e7c f93e
000002d0: ca56 8d3d 72c2 0cbe 0189 cabe 4273 8cbe
000002e0: 39b6 823e dad9 253e fe65 b5be 23cf 45be
000002f0: e9eb 02be c432 123e 4c3f 8b3c 7037 863d
00000300: 1257 3a3e a11a 30bd a2c3 543d f856 3bbe
00000310: 3a90 cf3d c38e 7bbe b394 37be fc8c f63e
00000320: dd11 993e e64f 133e f72a 653e 098c 8ebe
00000330: 3284 2c3e a9b5 38be 8467 9dbe 880d 683e
00000340: 2348 1c3d b049 40bd 1ad6 a13d 0277 6d3e
00000350: 5ee7 673d 01f5 0d3e b70c c53c 18c7 55be
00000360: dba3 4f3e f228 55bc e54b a93e 25dd a6be
00000370: 4ba1 063f db94 f53d 306f a63e fd87 43bd
00000380: e248 36be 43ed b8be 161e bd3b 5684 a23d
00000390: 6afd f93d 11f8 203e 4e25 b4be b3e7 7abc
000003a0: f55a 8fbe 2b59 2fbe 1ba4 423e 6321 ecbd
000003b0: 11f2 34be d054 a53d 668f bc3d d749 023c
000003c0: 0152 083e 0711 39bc 00bc c83e 167e 393e
000003d0: ebca ffbd 3229 083f d0b0 0e3d 7459 4e3e
000003e0: de25 06be 2991 f2bd 0529 f8be f20b 933e
000003f0: 818d 553e 2145 44be 470b 97be 30a4 8d3d

network_body.observation_encoder.processors.0.dense.0.bias f4 [256]
0.030920994 0.016923437 -0.061406743 0.08845707 -0.036500636 0.059385996 0.06824845 0.020817552
-0.063759774 0.016085671 -0.0075358227 0.097634554 0.06586999 0.021418156 -0.024749365 0.05544827
-0.040552568 0.10982272 -0.021446351 0.045131255 -0.043040205 0.05634755 0.0028486215 -0.0101483865
-0.011448527 0.08952494 0.087910615 0.096700974 -0.043838914 0.005233985 -0.022587406 0.031170772
-0.08555301 0.07162387 0.007875198 0.06719904 -0.044532336 0.03766853 0.066476814 0.13670388
-0.047526866 0.0053814566 0.020976076 -0.040055264 0.03530721 -0.051787686 0.022777775 0.06450972
-0.008562766 -0.028295716 0.06735315 0.07078895 0.05419652 0.03163774 -0.010327806 0.067146845
0.016602604 0.019778011 0.048761684 0.060829345 -0.007845388 0.08351397 0.027921213 -0.057444334
-0.021993652 0.018845402 -0.04391727 0.037677266 0.12104839 -0.0067849476 -0.035584785 0.03725172
0.021719713 0.0680565 0.0022694645 -0.03297599 -0.0163597 -0.06647384 0.012277939 0.07295003
-0.008316816 0.019568454 -0.059958804 0.03883297 -0.06913941 0.0029509543 0.060047902 0.088013686
0.123432815 0.06570327 0.010726302 -0.06849937 0.04150628 -0.05786124 -0.0015525392 -0.020197723
0.029433282 -0.064551525 0.05370892 0.02127558 0.1048478 0.11459864 -0.026050057 0.060669333
0.06415976 -0.06403864 0.038102034 0.004992476 0.07921979 -0.01643667 0.040290356 -0.05743063
0.02651767 -0.11768111 0.038345955 -0.057481144 -0.03583042 0.006780969 -0.030924667 -0.018701639
-0.1470911 -0.018299196 -0.010001315 0.09147737 -0.005169064 -0.008823806 -0.0039676507 0.025035279
-0.06967303 0.08670305 0.031168958 0.10054261 0.112894215 0.11053341 0.0818384 0.0015088846
0.042147126 -0.03256229 0.027428115 0.012338213 0.0354207 0.060274918 0.02514331 0.00677694
-0.05862639 -0.049141746 0.12510712 0.06560041 -0.033189796 -0.020742228 -0.021614663 -0.06510189
0.057298884 0.038493797 0.07279811 0.07650182 0.031862568 -0.06617498 0.06447154 0.049850393
0.06365787 0.03290726 0.013735736 -0.0822266 -0.05908375 0.0429679 -0.03039025 0.03267261
0.049520638 -0.0013451106 -0.008805397 0.0065193414 0.026519028 0.07619316 0.12454588 0.040352836
0.021279324 0.019228576 -0.017025422 0.09047461 -0.03227731 -0.07912652 0.11305433 -0.053544108
-0.0024663548 -0.02421134 0.069820486 -0.029381897 -0.0042244117 0.08551079 0.058398787 -0.05189727
0.029744893 -0.00071862846 -0.05430513 0.042146143 0.054466665 0.089222915 0.037581522 0.039323106
-0.045624316 0.04150685 0.043796718 -0.024621664 0.07938056 -0.042532492 -0.008482918 0.039272677
0.088712655 0.01169731 0.059875567 0.023723507 -0.010103461 -0.0031250897 0.055105783 0.13952348
0.048646953 0.04967439 0.015230532 -0.02566043 -0.027632587 0.02498222 0.03856537 0.024945369
0.087397546 -0.056814104 -0.050850827 -0.022538751 -0.07342778 0.1645661 -0.0004768434 -0.09552054
-0.020735843 9.852502e-05 -0.021471575 0.054480292 0.044036623 0.06385361 0.057935882 0.048196677
0.036708284 -0.03964672 0.11391495 0.03442058 0.037403077 0.01724969 0.06434357 -0.05812429
0.009060498 0.0026655982 0.025398761 0.09546513 -0.00012830847 0.061320443 0.11143625 0.021158952
00000000: 064e fd3c 05a3 8a3c a385 7bbd fb28 b53d
00000010: b181 15bd bb3e 733d d8c5 8b3d 9289 aa3c
00000020: 7c94 82bd 19c6 833c 10ef f6bb a0f4 c73d
00000030: d8e6 863d 2175 af3c 2ebf cabc ba1d 633d
00000040: 731a 26bd bcea e03d 42b0 afbc 8ddb 383d
00000050: ed4a 30bd b0cc 663d f0af 3a3b 6b45 26bc
00000060: 9a92 3bbc da58 b73d 7b0a b43d 290b c63d
00000070: 6f90 33bd d981 ab3b 3909 b9bc d959 ff3c
00000080: 6b36 afbd 89af 923d f906 013c a69f 893d
00000090: 8a67 36bd 514a 1a3d ff24 883d 1afc 0b3e
000000a0: 88ab 42bd ee56 b03b 05d6 ab3c fd10 24bd
000000b0: 4b9e 103d 531f 54bd 7598 ba3c ac1d 843d
000000c0: d84a 0cbc 6bcc e7bc 73f0 893d ccf9 903d
000000d0: 2cfd 5d3d 9396 013d f535 29bc 4984 893d
000000e0: 2f02 883c 7f05 a23c 55ba 473d 3128 793d
000000f0: f189 00bc 5f09 ab3d 07bb e43c c04a 6bbd
00000100: 082c b4bc ac61 9a3c 98e2 33bd 7a53 1a3d
00000110: 38e8 f73d 4454 debb 5ac1 11bd 4295 183d
00000120: 8aed b13c 3561 8b3d 4cbb 143b d511 07bd
00000130: c704 86bc 7023 88bd 6929 493c d366 953d
00000140: 4143 08bc 064e a03c 5d97 75bd 520f 1f3d
00000150: f798 8dbd cc64 413b caf4 753d 8540 b43d
00000160: 58ca fc3d 708f 863d 5fbd 2f3c 6649 8cbd
00000170: 7d02 2a3d e8ff 6cbd 927e cbba b275 a5bc
00000180: 111e f13c 9733 84bd e2fd 5b3d 204a ae3c
00000190: 72ba d63d b1b2 ea3d ee66 d5bc 6880 783d
000001a0: 3166 833d b126 83bd e110 1c3d ed97 a33b
000001b0: fc3d a23d 32a6 86bc 8007 253d 613c 6bbd
000001c0: 963b d93c cb02 f1bd a610 1d3d 5971 6bbd
000001d0: ebc2 12bd e432 de3b ba55 fdbc 2e34 99bc
000001e0: 0d9f 16be 32e8 95bc 8edc 23bc 7d58 bb3d
000001f0: 4061 a9bb ba91 10bc 1103 82bb c916 cd3c
00000200: bcb0 8ebd 5e91 b13d 0b56 ff3c 49e9 cd3d
00000210: 1535 e73d 575f e23d e49a a73d c4c5 c53a
00000220: 77a2 2c3d 0960 05bd edb0 e03c 3726 4a3c
00000230: 4c15 113d d5e2 763d 58f9 cd3c 1811 de3b
00000240: 3a22 70bd db48 49bd 151c 003e 8259 863d
00000250: 06f2 07bd 9beb a9bc 3c11 b1bc 2454 85bd
00000260: 3cb2 6a3d acab 1d3d 2d17 953d fcac 9c3d
00000270: 5382 023d bf86 87bd a809 843d ed2f 4c3d
00000280: 0f5f 823d c3c9 063d da0b 613c 6b66 a8bd
00000290: cd01 72bd 1cff 2f3d f9f4 f8bc b7d3 053d
000002a0: 27d6 4a3d 6c4e b0ba 8344 10bc 33a0 d53b
000002b0: 6f3e d93c 290b 9c3d e911 ff3d 0449 253d
000002c0: fa51 ae3c 3f85 9d3c e678 8bbc c14a b93d
000002d0: 3635 04bd 160d a2bd 0789 e73d 1151 5bbd
000002e0: 91a2 21bb dc56 c6bc 0bfe 8e3d 4eb2 f0bc
000002f0: ef6c 8abb 4820 af3d 9133 6f3d 3b92 54bd
00000300: 90ab f33c 5762 3cba 0e6f 5ebd 6fa1 2c3d
00000310: 7018 5f3d 81ba b63d 15ef 193d 4411 213d
00000320: 90e0 3abd 1603 2a3d 3064 333d 5fb3 c9bc
00000330: 4692 a23d 8d36 2ebd f0fb 0abc 63dc 203d
00000340: fbae b53d 13a6 3f3c 1540 753d cd57 c23c
00000350: fd88 25bc 4ece 4cbb 9ab6 613d 3edf 0e3e
00000360: 0742 473d 6077 4b3d 7b89 793c d235 d2bc
00000370: bc5d e2bc 83a7 cc3c b9f6 1d3d 3b5a cc3c
00000380: 7cfd b23d e8b5 68bd f548 50bd 30a3 b8bc
00000390: 4e61 96bd 0484 283e d600 fab9 46a0 c3bd
000003a0: 37de a9bc 389f ce38 28e5 afbc ba26 5f3d
000003b0: bf5f 343d aec5 823d 2d4e 6d3d e169 453d
000003c0: 6d5b 163d 9964 22bd 3e4c e93d 98fc 0c3d
000003d0: f833 193d 394f 8d3c 90c6 833d bc13 6ebd
000003e0: 7c72 143c 51b1 2e3b 1011 d03c 3983 c33d
000003f0: 8b8a 06b9 252b 7b3d b038 e43d 8a55 ad3c

network_body._body_endoder.seq_layers.0.weight f4 [256, 266]
-0.0040700133 0.023022326 -0.008195366 -0.10307337 0.03223275 -0.21961963 -0.050144378 0.027783861
-0.069726475 0.08546556 0.030412499 0.0013002398 -0.18335874 0.13347398 -0.041643713 0.035788864
-0.23630515 -0.026441608 -0.07211066 -0.056511823 -0.075294115 0.04705914 -0.05621322 -0.025229312
-0.015863532 0.06913467 0.062677555 0.029676111 -0.015122085 -0.0646044 -0.03683877 0.09125242
-0.03726135 0.1678751 0.041009728 0.12953268 0.14534546 0.14229423 -0.09014856 0.03250867
-0.031230643 0.122043855 -0.049010463 -0.14665587 -0.058653664 -0.026354387 -0.0036341955 0.049225233
-0.023658367 -0.031749316 -0.100540884 -0.028982185 0.085208625 -0.19060588 0.10339274 -0.0793907
0.054907057 -0.052718453 0.078233354 0.036660563 -0.084718324 0.113761045 0.0064828033 0.051999267
0.15400079 0.12060624 0.11286079 -0.259628 -0.21432826 0.06890345 0.107888184 -0.1901657
-0.111120164 -0.00061030145 0.058055118 -0.10596531 0.13980691 0.07006967 -0.0716543 -0.13011694
0.18238898 -0.009787546 0.19036387 0.0080009075 -0.059220526 0.023736568 0.055963404 -0.0014902231
-0.026009317 -0.04156681 0.08703804 -0.018350342 0.20878617 -0.011057959 0.0658231 0.04166039
-0.036083695 -0.015381718 -0.01918071 0.018988539 0.10342918 0.072816335 0.08081349 -0.22298676
0.10715561 -0.07560381 0.17222695 -0.04813123 -0.05700639 0.06619071 0.10795067 0.07876001
0.09325846 -0.01142592 0.09997631 0.109934814 0.048613146 0.0024273447 0.0095786275 -0.0815722
-0.06661085 -0.04172381 -0.09911998 -0.18618864 0.029025476 0.085391484 0.23318632 -0.019105414
0.019720092 -0.34259278 0.010244851 0.1167955 -0.026156465 -0.03861302 0.19169976 -0.0090851905
-0.06557075 -0.08778663 -0.031582054 0.21680462 0.1013049 -0.12466903 -0.27727515 0.123841114
-0.18331958 -0.041458957 0.1751414 -0.18796158 0.10466182 -0.07543379 0.052676283 -0.07286951
-0.06082189 0.038202405 -0.046407472 -0.08475837 0.011942032 0.027435198 -0.061383303 -0.1533158
0.016959056 -0.048612595 -0.07294011 -0.13921377 -0.011848134 0.06805979 0.07562111 -0.09964276
-0.12207303 0.11022642 -0.040417884 -0.12817492 -0.18232222 0.055531006 -0.0396818 -0.030000942
-0.085420795 -0.011873739 -0.1249802 -0.0062383628 -0.11455833 0.010869776 0.12900375 0.009490972
0.07582892 0.070289016 0.06687571 0.13991958 -0.21135923 -0.06277419 0.028677505 -0.10262364
0.015016757 -0.044363122 0.0792159 -0.040002905 -0.17613368 0.113516055 0.067074195 0.0007091032
0.032903943 -0.009528712 -0.032285325 0.0021960642 -0.043437313 -0.025131572 -0.016338596 -0.23173766
-0.24695353 0.030530117 -0.06963005 -0.18731955 0.048729602 -0.26682314 0.10688374 0.19893809
-0.1616763 0.034577586 0.10971709 -0.029147051 0.0073165977 0.057251733 -0.014408256 0.035187535
-0.072642885 -0.024608368 0.053219393 -0.0460964 -0.072078876 0.10606857 0.09011076 0.008096739
-0.071781114 0.08021585 -0.07414304 0.005928453 0.19224544 0.049734324 -0.061865494 0.15980494
-0.115335666 -0.052559562 0.054537293 -0.092641614 0.06233752 -0.088326305 -0.1437535 -0.0938953
0.061933532 -0.024750208 0.064732276 0.03634551 0.032517478 -0.061113704 -0.1867791 -0.13264765
00000000: bf5d 85bb 5199 bc3c db45 06bc 2218 d3bd
00000010: 7d06 043d f8e3 60be 3164 4dbd fb9a e33c
00000020: c1cc 8ebd 9108 af3d a223 f93c cf6c aa3a
00000030: 65c2 3bbe 67ad 083e 9992 2abd 5897 123d
00000040: faf9 71be 129c d8bc c1ae 93bd f178 67bd
00000050: cd33 9abd 16c1 403d d53f 66bd b4ad cebc
00000060: 3df4 81bc 7a96 8d3d 175d 803d 511b f33c
00000070: 9fc2 77bc 504f 84bd 40e4 16bd 8ce2 ba3d
00000080: 5b9f 18bd 73e7 2b3e d1f9 273d 37a4 043e
00000090: 71d5 143e 94b5 113e cf9f b8bd d027 053d
000000a0: 68d7 ffbc 21f2 f93d 32bf 48bd f52c 16be
000000b0: d33e 70bd 28e5 d7bc af2b 6ebb 66a0 493d
000000c0: 31cf c1bc 920b 02bd 61e8 cdbd 0c6c edbc
000000d0: dc81 ae3d 302e 43be 93bf d33d 9797 a2bd
000000e0: 39e6 603d 4eef 57bd cf38 a03d 6329 163d
000000f0: cd80 adbd 8dfb e83d b26d d43b 2ffd 543d
00000100: 62b2 1d3e 6800 f73d 8f23 e73d f6ed 84be
00000110: de78 5bbe 411d 8d3d 7bf4 dc3d ccba 42be
00000120: f892 e3bd a3fc 1fba 34cb 6d3d 5704 d9bd
00000130: 8b29 0f3e b080 8f3d 7dbf 92bd 603d 05be
00000140: 2dc4 3a3e f15b 20bc bfee 423e 3d16 033c
00000150: 3991 72bd 3173 c23c e239 653d 9753 c3ba
00000160: 7e11 d5bc f641 2abd 0041 b23d 7553 96bc
00000170: 0bcc 553e 712c 35bc 43ce 863d 16a4 2a3d
00000180: 7fcc 13bd 9a03 7cbc dd20 9dbc da8d 9b3c
00000190: aed2 d33d bb20 953d 8b81 a53d a456 64be
000001a0: 6774 db3d 2cd6 9abd 435c 303e 4125 45bd
000001b0: 887f 69bd ff8e 873d 3e15 dd3d ee4c a13d
000001c0: 4bfe be3d c833 3bbc 61c0 cc3d 8125 e13d
000001d0: 941e 473d 1614 1f3b adef 1c3c 530f a7bd
000001e0: 456b 88bd 96e6 2abd 6bff cabd 3ca8 3ebe
000001f0: d6c6 ed3c bbe1 ae3d 65c8 6e3e f582 9cbc
00000200: 088c a13c 5268 afbe 05da 273c 7b32 ef3d
00000210: 1546 d6bc b028 1ebd f14c 443e 0dda 14bc
00000220: f549 86bd 7ac9 b3bd 2f5c 01bd 0802 5e3e
00000230: f278 cf3d 7a52 ffbd 02f7 8dbe 69a0 fd3d
00000240: 21b8 3bbe ded0 29bd 4458 333e 0079 40be
00000250: f058 d63d 087d 9abd 16c3 573d 9c3c 95bd
00000260: 6020 79bd 207a 1c3d c315 3ebd cc95 adbd
00000270: 83a8 433c c8bf e03c 0f6d 7bbd d1fe 1cbe
00000280: b8ed 8a3c 001e 47bd a061 95bd 0e8e 0ebe
00000290: ad1e 42bc ee62 8b3d 3edf 9a3d 8111 ccbd
000002a0: 6d01 fabd 64be e13d 398d 25bd 4940 03be
000002b0: adb2 3abe 7b74 633d 6289 22bd 89c4 f5bc
000002c0: 19f1 aebd 128a 42bc 9ef5 ffbd 2e6b ccbb
000002d0: 8f9d eabd 2517 323c 8f19 043e 0680 1b3c
000002e0: 314c 9b3d b0f3 8f3d 22f6 883d 1447 0f3e
000002f0: 8e6e 58be c18f 80bd 16ed ea3c 582c d2bd
00000300: d808 763c 1bb6 35bd f23b a23d 16da 23bd
00000310: 635c 34be 1b7b e83d 325e 893d 1ce3 393a
00000320: 49c6 063d 511e 1cbc 9e3d 04bd d8eb 0f3b
00000330: 53eb 31bd bae0 cdbc 85d8 85bc a34c 6dbe
00000340: 63e1 7cbe 4c1a fa3c 339a 8ebd b2d0 3fbe
00000350: b198 473d 0b9d 88be dde5 da3d 6db6 4b3e
00000360: 798e 25be 3aa1 0d3d 5bb3 e03d ccc5 eebc
00000370: 12c0 ef3b cb80 6a3d 9b10 6cbc ce20 103d
00000380: cbc5 94bd 7d97 c9bc 94fc 593d 94cf 3cbd
00000390: 179e 93bd 7a3a d93d fd8b b83d 2fa8 043c
000003a0: fa01 93bd 3548 a43d 4ed8 97bd 7843 c23b
000003b0: fddb 443e 38b6 4b3d ac66 7dbd e8a3 233e
000003c0: 1b35 ecbd b248 57bd 7f62 5f3d e3ba bdbd
000003d0: a155 7f3d 6ce4 b4bd 1e34 13be 2e4c c0bd
000003e0: 04ae 7d3d f3c0 cabc 5b92 843d 08df 143d
000003f0: 0c31 053d 5d52 7abd 0543 3fbe c9d4 07be

network_body._body_endoder.seq_layers.0.bias f4 [256]
0.022821432 0.027665202 -0.027940964 0.039503578 0.025746733 0.025236724 0.017115055 0.068217345
0.0017590497 -0.05909114 -0.03365115 0.06939786 -0.002532568 -0.015153316 0.007578535 0.025997449
0.046360727 0.005762225 -0.041547645 0.036225814 0.015871074 0.04205352 -0.014894458 0.015317282
0.00011441089 0.02100958 -0.048667647 0.039889026 -0.037368707 0.007960624 0.06110282 -0.008519922
-0.0028119476 -0.006034333 0.027069991 -0.019397212 0.0022404601 -0.04180434 0.040082898 0.012777182
0.047474287 0.031185953 -0.01360856 0.023040842 -0.00967981 0.012343162 -0.061401807 0.030371835
-0.014966862 0.038499393 0.11196485 -0.04935608 -0.030364674 0.004296862 0.022766216 -0.017488563
0.011274649 -0.0009999766 0.019466167 0.031057792 -0.018277125 -0.020601152 0.021306645 0.0052326694
0.005932084 -0.011074689 0.025555464 0.009412141 0.03569499 0.016599461 0.009876712 -0.0047321883
0.00429708 0.005890285 -0.0065842215 0.04506992 -0.029212458 0.052415755 0.019985242 0.013867111
-0.054234568 -0.0014839708 0.03418514 -0.005869452 0.019368486 -0.011553208 0.039764456 0.015789436
0.03184955 -0.012866778 -0.011134735 0.018023472 -0.014636547 -0.027756006 -0.055427935 -0.0068057436
-0.014772654 0.03266037 -0.023297826 0.038833488 0.0052663535 -0.016550686 0.024889888 0.005010601
-0.020264339 0.009926965 0.03948866 0.012854291 0.03003982 0.053501435 0.00044558098 -0.042815063
-0.042395413 0.001268852 -0.0064529483 0.065314196 0.034447826 0.065340295 -0.038519666 0.017486636
-0.009664789 0.008023034 0.007236313 -0.054740783 0.0076743057 0.0719329 -0.0027046876 0.028826464
-0.015186885 0.051498935 0.029876832 -0.036573447 0.00038224764 0.02337025 0.045931697 0.011889917
0.0019207171 0.06835716 -0.020539243 -0.06096911 0.0026414208 -0.0023543425 -0.02059022 -0.0013728433
0.0146680055 -0.03242942 0.032992546 -0.0033487643 0.025956687 0.041753758 0.053236462 0.014251163
0.0016973516 0.013478116 0.008956126 0.00939784 0.0030678706 0.06451572 0.024755461 0.038266968
-0.04540234 -0.025825404 0.0070284884 -0.017803716 0.013828184 0.024670193 -0.0662066 0.0030380276
0.02888646 0.01636115 0.038616482 -0.06559713 0.040536426 0.017746946 -0.030870643 0.024623482
-0.028965048 0.05259172 -0.075784124 0.016446073 0.049255483 0.0011888599 0.060259245 0.0576646
-0.012195577 0.0131981615 -0.05542793 0.046329644 0.008783151 0.051698044 -0.02014963 0.035464305
0.0032761288 0.0042710565 0.014767596 -0.0049807704 -0.028849319 0.05253458 -0.001984966 0.03890917
0.022577787 0.025110362 0.029624833 0.045104332 -0.0561279 0.05480768 -0.024048729 -0.016705574
0.038419623 0.03953034 0.0044592344 0.034841258 0.006431206 0.034765437 -0.024748618 -0.052082285
-0.024969628 0.0029135928 -0.05197135 0.05177837 -0.010932195 0.027982248 0.0274017 -0.003758857
0.014931639 -0.016660286 -0.0043801307 0.044885945 0.03305482 0.0221981 0.005988178 -0.00765577
0.053122032 0.013932757 0.058537565 -0.013776428 0.028676538 0.026611628 -0.0008818204 0.06265054
0.06073217 0.014785517 0.018674968 0.0067248903 0.00933384 0.0016535486 0.027284348 0.046984185
0.0058639706 0.011307225 0.052993286 0.038547628 0.046027504 -0.013916863 -0.0048562633 0.044467863
00000000: 03f4 ba3c 22a2 e23c 73e4 e4bc 81ce 213d
00000010: d0ea d23c 3fbd ce3c df34 8c3c 89b5 8b3d
00000020: ea8f e63a 8d09 72bd cad5 09bd 7720 8e3d
00000030: 71f9 25bb 9d45 78bc 5c55 f83b 9af8 d43c
00000040: bfe4 3d3d 0cd1 bc3b dd2d 2abd 8561 143d
00000050: 0e04 823c 5040 2c3d e307 74bc 56f5 7a3c
00000060: e1ef ef38 481c ac3c ba57 47bd ad62 233d
00000070: ee0f 19bd 476d 023c f346 7a3d 2597 0bbc
00000080: a748 38bb a7bb c5bb e3c1 dd3c e7e6 9ebc
00000090: afd4 123b 073b 2bbd f72d 243d 6357 513c
000000a0: 6674 423d af79 ff3c 70f6 5ebc 26c0 bc3c
000000b0: 1198 1ebc f93a 4a3c 7680 7bbd 5bce f83c
000000c0: 9237 75bc 8ab1 1d3d d44d e53d 9a29 4abd
000000d0: 56bf f8bc b1cc 8c3b 3780 ba3c 2d44 8fbc
000000e0: 4eb9 383c a611 83ba 8377 9f3c e96c fe3c
000000f0: e9b9 95bc bfc3 a8bc 468b ae3c d076 ab3b
00000100: ed61 c23b 9d72 35bc b159 d13c 6135 1a3c
00000110: e934 123d 98fb 873c efd1 213c 7910 9bbb
00000120: 85ce 8c3b 4b03 c13b 74c0 d7bb 3d9b 383d
00000130: f74e efbc e7b1 563d 17b8 a33c e132 633c
00000140: 1125 5ebd cc81 c2ba b805 0c3d 8854 c0bb
00000150: a9aa 9e3c ab49 3dbc 0ee0 223d d958 813c
00000160: ac74 023d 2ecf 52bc 776e 36bc f6a5 933c
00000170: 21ce 6fbc 9060 e3bc 6708 63bd b702 dfbb
00000180: 0009 72bc e1c6 053d 15db bebc dd0f 1f3d
00000190: 6091 ac3b 4e95 87bc e1e5 cb3c f82f a43b
000001a0: 6601 a6bc b6a4 223c dcbe 213d ce9a 523c
000001b0: 1216 f63c 5224 5b3d de9c e939 d95e 2fbd
000001c0: d0a6 2dbd 9c4f a63a 4173 d3bb 73c3 853d
000001d0: 2a19 0d3d 22d1 853d ccc6 1dbd 2240 8f3c
000001e0: 1059 1ebc 0b73 033c 981e ed3b df37 60bd
000001f0: be78 fb3b 8e51 933d 2141 31bb 7a25 ec3c
00000200: 6ad2 78bc 8cf0 523d 42c0 f43c 0ace 15bd
00000210: 6968 c839 f772 bf3c e022 3c3d edcd 423c
00000220: 92c0 fb3a d7fe 8b3d ea41 a8bc bfba 79bd
00000230: b01b 2d3b 504b 1abb d2ac a8bc faf0 b3ba
00000240: 1352 703c b6d4 04bd 3123 073d f176 5bbb
00000250: 1ea3 d43c fd05 2b3d 7a0e 5a3d b67d 693c
00000260: ab79 de3a 51d3 5c3c b7bc 123c 66f9 193c
00000270: 540e 493b d120 843d f7cb ca3c d3bd 1c3d
00000280: cef7 39bd cc8f d3bc 3c4f e63b 19d9 91bc
00000290: 9c8f 623c 2519 ca3c 5397 87bd a519 473b
000002a0: 4ca3 ec3c d207 863c 512c 1e3d ca57 86bd
000002b0: 8609 263d 0b62 913c 6ee4 fcbc 2fb7 c93c
000002c0: 1c48 edbc 6a6a 573d b534 9bbd eab9 863c
000002d0: 1ec0 493d 85d3 9b3a 66d2 763d b731 6c3d
000002e0: f5cf 47bc 1a3d 583c 6608 63bd 27c4 3d3d
000002f0: 35e7 0f3c 54c1 533d d610 a5bc 0543 113d
00000300: 52b4 563b 38f4 8b3b c9f3 713c bb35 a3bb
00000310: 6855 ecbc 802e 573d 3416 02bb 395f 1f3d
00000320: 0df5 b83c 3fb4 cd3c c7af f23c 52bf 383d
00000330: 5ee6 65bd 057e 603d d701 c5bc 21da 88bc
00000340: e55d 1d3d 91ea 213d c51e 923b b5b5 0e3d
00000350: debc d23b 3466 0e3d 9dbd cabc 3c54 55bd
00000360: 1b8d ccbc faf1 3e3b e9df 54bd 8e15 543d
00000370: f31c 33bc 073b e53c 8879 e03c 2857 76bb
00000380: d5a3 743c 277b 88bc 3387 8fbb 53da 373d
00000390: 7e64 073d cad8 b53c 7a38 c43b 41dd fabb
000003a0: 7d96 593d 3846 643c 16c5 6f3d 87b6 61bc
000003b0: 0feb ea3c a100 da3c f729 67ba ed4e 803d
000003c0: 4cc2 783d f43e 723c 3ffc 983c 785c dc3b
000003d0: f6ec 183c e2bb d83a 6d83 df3c 7d72 403d
000003e0: 8d26 c03b f041 393c 7d0f 593d 1ee4 1d3d
000003f0: 5687 3c3d 8e03 64bc 4a21 9fbb ef23 363d

network_body._body_endoder.seq_layers.2.weight f4 [256, 256]
-0.1120171 0.0871714 -0.09521102 -0.05127911 -0.20579658 -0.082361616 0.09079039 -0.056097914
-0.0897314 -0.17405899 -0.11705142 -0.054213908 -0.2486298 0.17599969 -0.025070392 -0.069000155
0.16979994 -0.17570847 -0.064176895 0.06550881 -0.06721411 0.057837516 0.02989491 -0.086755544
0.04452785 0.19725522 -0.026158957 -0.028771305 0.13817087 0.0013709124 -0.054445982 -0.04641534
-0.036656078 0.013213587 0.02441164 -0.038991466 0.013016567 -0.08995199 0.019034615 -0.027661096
0.1599376 0.12127462 -0.10249562 -0.06471799 -0.15349174 0.13151073 -0.096753195 -0.14132752
0.0531655 0.067063 0.02560177 -0.044337753 -0.010063617 -0.11553162 -0.24347825 -0.11299361
-0.09090989 0.20039688 -0.056418296 -0.096080266 -0.125998 -0.02075807 -0.015408836 -0.18220493
0.09249288 0.00813587 0.06763719 -0.05123441 -0.04464472 -0.1301343 -0.08270436 -0.049989842
-0.15737084 -0.012441881 0.09213762 -0.0465556 0.19245994 0.1474458 0.025131028 0.05559645
-0.013140012 0.014914896 0.12966059 0.07051781 0.09996095 -0.057635956 0.015035911 0.015643373
-0.023089532 -0.09111197 0.007515281 -0.009526255 -0.100148335 0.023828136 0.0050293133 0.11958453
0.1336739 0.05130748 0.018007282 0.055852942 0.012654964 0.07870297 0.11860925 0.088987514
-0.041568276 0.14296302 -0.015875408 -0.080547154 -0.02302087 0.18578692 -0.06108152 0.078623906
-0.14237306 -0.0027569348 0.031746488 -0.038950656 0.12676851 0.010586107 -0.043148834 -0.035312742
0.082163826 0.019073313 0.04968683 -0.16473086 -0.12419932 0.006582891 -0.15416169 0.11061282
-0.060306124 -0.026143365 0.06363847 -0.21370898 -0.09258876 0.056021582 0.0050119897 0.07384255
0.10124083 0.12012488 -0.053472966 0.011431084 0.021753198 0.08481804 -0.044755563 0.005289895
-0.042963196 0.0013769899 0.09966441 0.0007955016 -0.058200542 0.05407133 0.011461098 0.02365694
0.044223912 -0.15674049 -0.025420297 0.10591205 -0.073885344 0.11695783 -0.06111013 -0.020629207
-0.008555923 0.01743762 -0.0578908 -0.09117226 0.05332755 0.15331976 -0.013710088 0.08083952
-0.14632088 -0.105086096 0.0868873 -0.04052276 0.09420003 -0.0208587 0.06511742 -0.014764076
0.00058330066 -0.075800225 -0.070474416 0.10167985 0.13175477 -0.14883101 0.009272619 0.10147866
0.01144849 0.02664437 -0.020562064 0.07048471 0.0784281 0.101748124 0.061802536 -0.06313839
-0.23595282 0.029748518 0.044041272 0.11720626 -0.030363299 0.014564506 -0.035405304 -0.08117989
-0.13956033 0.014040736 0.083133094 0.08594669 -0.06712831 0.022341331 0.0029021506 0.05403798
0.021896355 0.07360062 -0.010031667 -0.13970338 -0.04422844 0.143808 0.036492527 -0.11459097
-0.037025213 -0.07250185 0.021329537 -0.050348524 -0.046308186 0.09620851 0.21497637 0.13985068
-0.095117964 0.017811198 0.027083071 0.111916415 0.24766459 0.22320344 0.07670028 0.07421185
-0.007955397 0.099981755 0.16649215 -0.029378423 -0.14073695 -0.08969398 0.0731079 0.006988699
0.15986478 -0.06153584 0.28202772 0.035814203 -0.02332159 -0.048165064 0.051248856 -0.06815249
-0.03340145 -0.15934207 0.13442509 -0.043334454 0.11133997 -0.014712775 -0.11477856 0.019614378
00000000: 3969 e5bd eb86 b23d fffd c2bd 0b0a 52bd
00000010: 57bc 52be 35ad a8bd 50f0 b93d edc6 65bd
00000020: 19c5 b7bd 853c 32be a8b8 efbd 670f 5ebd
00000030: cf98 7ebe 4339 343e 6c60 cdbc f44f 8dbd
00000040: 09e0 2d3e ecec 33be 2d6f 83bd 7c29 863d
00000050: 8da7 89bd 08e7 6c3d 2ce6 f43c e4ac b1bd
00000060: d662 363d 46fd 493e 4f4b d6bc cdb1 ebbc
00000070: aa7c 0d3e 30b0 b33a c002 5fbd 031e 3ebd
00000080: af24 16bd cd7d 583c ebfa c73c 84b5 1fbd
00000090: 7043 553c c038 b8bd 7bee 9b3c 8699 e2bc
000000a0: afc6 233e d45e f83d 39e9 d1bd de8a 84bd
000000b0: f02c 1dbe c0aa 063e 8a26 c6bd 29b8 10be
000000c0: 11c4 593d 5358 893d ceba d13c 819b 35bd
000000d0: dee1 24bc d89b ecbd 5d52 79be 3269 e7bd
000000e0: f72e babd d734 4d3e df16 67bd bbc5 c4bd
000000f0: 9f05 01be d40c aabc 5875 7cbc ee93 3abe
00000100: e86c bd3d 504c 053c 5e85 8a3d 2cdb 51bd
00000110: 62dd 36bd ed41 05be e760 a9bd 26c2 4cbd
00000120: d225 21be 08d9 4bbc a6b2 bc3d 16b1 3ebd
00000130: 3814 453e 08fc 163e 96df cd3c 1ab9 633d
00000140: 3449 57bc 9c5d 743c bfc5 043e a46b 903d
00000150: 54b8 cc3d ae13 6cbd 2f59 763c 8826 803c
00000160: 4226 bdbc ea98 babd bf42 f63b 0214 1cbc
00000170: 921a cdbd 3933 c33c f0cc a43b bce8 f43d
00000180: d0e1 083e cb27 523d 0284 933c 0ec6 643d
00000190: c456 4f3c 062f a13d 68e9 f23d 163f b63d
000001a0: 7f43 2abd e664 123e 250d 82bc e8f5 a4bd
000001b0: 4396 bcbc ed3e 3e3e 9e30 7abd 9205 a13d
000001c0: 3eca 11be b1ad 34bb 9b08 023d b98a 1fbd
000001d0: 9bcf 013e 5a71 2d3c d5bc 30bd 18a4 10bd
000001e0: 8245 a83d a33f 9c3c 6b84 4b3d 35af 28be
000001f0: 375c febd 4bb5 d73b 90dc 1dbe f988 e23d
00000200: 8e03 77bd 9c2a d6bc e354 823d 87d6 5abe
00000210: 2d9f bdbd e376 653d 9e3b a43b c33a 973d
00000220: 5a57 cf3d 0804 f63d 7806 5bbd 7149 3b3c
00000230: c333 b23c 15b5 ad3d 9c51 37bd db56 ad3b
00000240: 2dfa 2fbd 1d7c b43a db1c cc3d 3589 503a
00000250: b163 6ebd e679 5d3d 54c7 3b3c 33cc c13c
00000260: 2224 353d 9480 20be 3a3e d0bc 6be8 d83d
00000270: 3351 97bd 9687 ef3d 9e4e 7abd 95fe a8bc
00000280: 242e 0cbc 57d9 8e3c e71e 6dbd 86b8 babd
00000290: fd6d 5a3d dbff 1c3e 47a0 60bc 318f a53d
000002a0: 24d5 15be 6137 d7bd f8f1 b13d 32fb 25bd
000002b0: f2eb c03d dddf aabc 485c 853d 06e5 71bc
000002c0: a5e8 183a 263d 9bbd e454 90bd 863d d03d
000002d0: b9ea 063e 2867 18be 2fec 173c 0bd4 cf3d
000002e0: 7392 3b3c 4b45 da3c c671 a8bc 4a5a 903d
000002f0: e99e a03d 5261 d03d a824 7d3d b34e 81bd
00000300: 9e9d 71be 2ab3 f33c 9f64 343d d609 f03d
00000310: 74bc f8bc f79f 6e3c 2705 11bd a441 a6bd
00000320: e7e8 0ebe 1d0b 663c af41 aa3d d104 b03d
00000330: 917a 89bd 2b05 b73c 0232 3e3b ee56 5d3d
00000340: fc5f b33c ecbb 963d dc5b 24bc 670e 0fbe
00000350: e128 35bd 6842 133e 3079 153d acae eabd
00000360: c0a7 17bd da7b 94bd 48bb ae3c 413a 4ebd
00000370: a7ad 3dbd f808 c53d c422 5c3e 0435 0f3e
00000380: 35cd c2bd cae8 913c 51dd dd3c 6f34 e53d
00000390: c99b 7d3e 718f 643e 0915 9d3d 62fc 973d
000003a0: 5a57 02bc 3cc3 cc3d eb7c 2a3e 05ab f0bc
000003b0: 591d 10be 7ab1 b7bd 98b9 953d 7501 e53b
000003c0: 98b3 233e 010d 7cbd f065 903e eab1 123d
000003d0: eb0c bfbc bb48 45bd 52ea 513d 8893 8bbd
000003e0: f5cf 08bd 912a 23be bba6 093e 787f 31bd
000003f0: 3606 e43d da0d 71bc 0611 ebbd 55ae a03c
