results/PushBlockCollab_PPO/PushBlockCollab/PushBlockCollab-2999968.onnx (onnx, 643240 bytes, 12 tensors)

network_body.observation_encoder.processors.0.conv_layers.0.weight f4 [16, 6, 8, 8]
000000 83 38 fb bc 93 f2 92 bb 67 d5 a5 3d fe e8 1b 3d
       -0.030666595 -0.0044844835 0.08097344 0.038063996
000010 93 1d 97 3d d6 63 5a bd 71 57 77 bd f8 19 84 3c
       0.07378688 -0.053317867 -0.060386125 0.016125664
000020 8d 3d fb bb 1b d3 9f bc a9 d2 8c 3d 07 75 13 3d
       -0.0076672495 -0.019509843 0.06876118 0.036000278
000030 54 51 6b 3d 3b 75 66 3d 1b 5d dd 3c 0a 8d 72 bd
       0.057450607 0.056264143 0.027021935 -0.059216537
000040 33 61 b1 3d 31 48 59 3d f9 9e b7 3d 85 ec 13 bd
       0.086611174 0.053047363 0.089658685 -0.036114234
000050 8c 1b 8f 3c 34 a9 3a bd 52 a8 81 bc cb fe 4f 3c
       0.01746919 -0.04557152 -0.015827332 0.012695025
000060 2a 10 a9 3c 5f d1 30 bc 4d 50 4b 3c 7a 87 ad bc
       0.02063759 -0.010792105 0.012409282 -0.021182764
000070 78 fc 1c bd 93 45 0f bd 43 3c e4 bc 12 ab ea bd
       -0.03832671 -0.03497846 -0.027860766 -0.1145841
000080 49 93 a3 3d 2c ed 06 3c 29 08 0a bd 3b b8 a8 bc
       0.07987077 0.008235257 -0.03369919 -0.02059566
000090 ea 64 6a 3d 5a 51 2d bd dd 0a 47 bd 90 e4 3e 3d
       0.057225145 -0.04231391 -0.048594344 0.046604693
0000a0 7c 00 3e bd 81 b7 8c 3c bb 64 8b 3c e6 29 7d 3d
       -0.04638718 0.017177345 0.017015805 0.061807536
0000b0 07 ca b6 bc ca c0 88 3d 9d 21 c3 bc 3e 45 03 bd
       -0.022313131 0.066773966 -0.023819739 -0.032048456
0000c0 61 30 ad bc 13 53 a9 bc be c7 28 3c 36 27 e7 bc
       -0.021141233 -0.020669496 0.0103015285 -0.02821694
0000d0 5f cc 41 bc 87 07 f4 bc b1 8e d1 3d 13 4c ed bd
       -0.011828511 -0.029788746 0.10232294 -0.11586776
0000e0 d8 14 11 bd 35 4a 64 bd 78 0e 9e bd 0b cc 99 3d
       -0.03542027 -0.05573483 -0.077176034 0.07509621
0000f0 15 42 44 bd 40 52 35 bd f3 0c 1e 3c 62 cc b8 bd
       -0.047914583 -0.044267893 0.009646642 -0.09023358
000100 ce 7c ae bc 6b 9c 4d bd 06 e1 90 bd 4e 2b 9c bd
       -0.021299746 -0.050198 -0.0707417 -0.07625447
000110 01 b5 04 bd 4e c9 df 3d 81 c3 55 3d 95 ff 02 3d
       -0.03239918 0.10927068 0.0521884 0.031982023
000120 94 78 10 3d ed 35 80 bd fd 21 5b bc 8f 60 14 3d
       0.035271242 -0.062602855 -0.013374803 0.036224898
000130 5a 53 03 be 99 77 21 3c c5 2e 87 3d db f1 98 3d
       -0.12824765 0.009855174 0.066007175 0.07468005
000140 a6 53 3e 3c 52 e7 89 3d 89 09 23 3c 57 aa f1 bc
       0.011616623 0.06733574 0.009951004 -0.02950017
000150 52 a6 9e bb 63 87 a8 bd 3f 23 84 3d 17 7f 55 bc
       -0.0048416043 -0.08228948 0.06452035 -0.013030789
000160 bf dd cc 3c c6 ed fa bc 32 e7 0f bd 9f 79 bc bb
       0.02500808 -0.030630957 -0.035132594 -0.005751803
000170 2f d9 0b bc a1 cf 6a bd 1e 73 10 bd e8 a9 cf bd
       -0.008535667 -0.057326917 -0.035266034 -0.10139829
000180 a8 cd f7 bd 16 6e b1 3c cd cb ba bd b1 03 ad 3c
       -0.12099773 0.021658938 -0.09120903 0.021119924
000190 fd cb 75 bd d8 8b d8 bd ea 74 57 bc b7 96 48 3b
       -0.06000899 -0.10573548 -0.013150433 0.0030607411
0001a0 4e 5c 65 3c 64 dc 69 3d 4b 31 e5 3c 21 7a 1c bc
       0.013999058 0.057094947 0.027977606 -0.009550602
0001b0 f9 39 79 bd e8 3c 23 bd 65 68 dd bc 60 ad ae 3d
       -0.060846303 -0.039853007 -0.027027318 0.085291624
0001c0 33 12 28 bd 9f 83 0d 3c d0 04 8f bd da 73 11 3d
       -0.04103298 0.008637338 -0.0698334 0.035510875
0001d0 e6 63 34 bd 93 73 5c bd 1a ed 3d bd ff c5 25 3c
       -0.044040583 -0.053821158 -0.046368696 0.010118007
0001e0 8b 65 07 bd cc 9b 5d bd fe 5c 91 bb 72 23 d2 3d
       -0.033055823 -0.054103658 -0.0044361344 0.10260667
0001f0 df 65 2c 3d 53 f4 7d bc 94 25 99 bd 60 a8 8c bd
       0.04208934 -0.015500146 -0.074778706 -0.068680525
000200 ba d4 a9 3d f0 f2 de 3c b3 e7 21 bd b8 27 1f bc
       0.082925275 0.027215451 -0.039527606 -0.0097140595
000210 cf 82 d5 38 c6 7b 8d bd 5e fb 01 bd e5 c4 28 bd
       0.000101809965 -0.069083735 -0.031733863 -0.0412034
000220 38 89 03 bd 5a 90 e5 3c d0 83 c3 3c ae b2 12 bc
       -0.032113284 0.028022934 0.023866564 -0.008953733
000230 c8 29 13 3d 5e 40 a3 bd d3 64 d3 bc c2 07 96 bc
       0.035928518 -0.079712614 -0.025804913 -0.018314246
000240 54 3d 76 3c 67 0b 5f 3c 56 bf 0a bd a3 c3 4f 3d
       0.01502927 0.013613558 -0.03387388 0.050723683
000250 1b 8f 1a 3b 20 8f e9 3c bc 32 83 bd 37 54 82 bc
       0.0023583833 0.02851063 -0.06406161 -0.015909297
000260 b0 15 a2 3c ae 03 8b bc 09 b8 48 3d d7 af 19 3c
       0.019785732 -0.016969528 0.049003635 0.009380302
000270 67 93 2f bd ad 9f 8c bc 80 35 10 bd f4 14 f7 3c
       -0.042865183 -0.017165983 -0.03520727 0.030161358
000280 ed 22 ba 3c e0 bc ac 3d 4c 67 d3 3c 82 bb 94 3c
       0.022721732 0.084344625 0.025806092 0.018155817
000290 dd ab a2 3c 77 26 b1 bc e5 d1 0e 3d c8 f4 bc bc
       0.019857341 -0.021624787 0.03486814 -0.02306594
0002a0 28 98 b9 3c 39 52 9c 3d e9 6d 79 bc a7 ea 9c bb
       0.022655562 0.0763287 -0.0152239585 -0.004788715
0002b0 22 e7 05 3d f9 0e 3c bc 25 07 cb 3b 77 dd db bc
       0.03269113 -0.011478179 0.00619592 -0.026839001
0002c0 17 23 e1 bc 02 43 da bc 47 29 bc b9 e3 99 dd 3c
       -0.027482552 -0.02664328 -0.00035888908 0.027050918
0002d0 d5 3a 88 3c af 98 48 bc e4 de 32 bd 34 7e 92 3d
       0.016629616 -0.012243434 -0.043669596 0.071529776
0002e0 4f 27 8d 3b 27 f8 0d 3d 2f f4 0b 3d f6 ac b5 bb
       0.0043076645 0.034660485 0.03416842 -0.0055443
0002f0 75 5f 89 3d 32 50 ad 3c 8f ae 3b bc 58 46 d3 bc
       0.0670766 0.021156404 -0.011455192 -0.025790378
000300 15 d8 29 3c 26 75 04 be 71 ea e2 bd 68 d7 39 bb
       0.010366459 -0.12935314 -0.110798724 -0.0028357152
000310 79 38 08 bc e1 db 9c 3d c3 8b 3b 3d 63 0c 0e bc
       -0.008314245 0.07659126 0.045787584 -0.008669945
000320 c5 f9 8e bd 27 64 99 bd 98 e0 b7 bd 5f ef d1 bd
       -0.069812335 -0.07489806 -0.08978385 -0.102507345
000330 d9 e4 12 3d 9a 4d 8d 3d 29 07 7d 3d 17 09 8e bd
       0.035862777 0.06899567 0.061774407 -0.069353275
000340 7a 84 7a 3c 9a 3a a4 bd 7d ed 04 3c b9 d4 98 3b
       0.015290374 -0.0801899 0.008113262 0.0046640304
000350 91 97 6a 3d 7e 54 75 3d 1c 49 37 bd 1d 9e 33 3d
       0.05727345 0.05989503 -0.044747457 0.04385196
000360 21 e8 63 bc 6a 69 08 bd cd 6d 04 bd f5 94 0d bd
       -0.013910324 -0.033303656 -0.032331277 -0.034565885
000370 ed 97 03 ba dd 3d 07 bd 17 f7 cb bc 62 d0 01 3e
       -0.0005019892 -0.03301798 -0.024898095 0.12677148
000380 94 43 8a bb 38 c4 f1 3c 29 6c bb bc c1 df 14 3d
       -0.0042194817 0.02951251 -0.022878723 0.0363462
000390 9a 2e 01 3e ad d2 26 bd 08 b9 5d 3d 91 bb 8b 3c
       0.12615433 -0.04072826 0.054131538 0.017057212
0003a0 cc 12 5f bd b8 a9 4b bd db 5b a1 3b 7e 27 4c bc
       -0.054461285 -0.049722403 0.00492428 -0.012460588
0003b0 5a 1e 88 bb 0c e5 ef 3b fd 68 73 bd cb b1 80 bb
       -0.004154009 0.0073210057 -0.059426297 -0.0039274446
0003c0 70 2f 9f 3c e1 0e 7c 3c e7 3e af 3c 78 05 62 bd
       0.0194318 0.015384407 0.021392299 -0.055180997
0003d0 58 fb 85 3c 6e 1a 89 bb 9a 53 95 bb 68 96 80 bd
       0.016355202 -0.004184059 -0.004557085 -0.06278688
0003e0 a9 cc 91 bb c7 2a 8c 3d 6f 31 03 3d 74 7e d7 bb
       -0.004449446 0.06844097 0.032029565 -0.0065763537
0003f0 b9 da 9f bc 3a 05 36 bd 2d e5 08 bd b5 55 90 3c
       -0.019513475 -0.04443858 -0.033421684 0.017618993

network_body.observation_encoder.processors.0.conv_layers.0.bias f4 [16]
000000 e6 a9 3c bd 8e 53 09 3d bc 62 28 bc 5f 60 92 bb
       -0.046060465 0.03352695 -0.010277446 -0.0044670547
000010 1d 7c f9 3a ab b9 bb 3c a7 48 38 3c c8 e7 d5 3a
       0.0019034181 0.022915682 0.01124779 0.0016319687
000020 9e ba 37 3c e1 46 da bb 9d a0 07 bd 4b 4a 06 bd
       0.011213927 -0.0066612815 -0.033112157 -0.032785695
000030 76 82 05 3c 2e c7 c7 bc e4 cf 05 bd b2 9b 0f bd
       0.00814878 -0.024386968 -0.032668963 -0.035060592

network_body.observation_encoder.processors.0.conv_layers.2.weight f4 [32, 16, 4, 4]
000000 5a 6c 61 3c 51 69 0e bc 8a aa 54 3d 13 d5 d1 3d
       0.013758743 -0.008692102 0.05192045 0.10245719
000010 5b 35 ac bd 99 2e 39 3c 8a b3 ab 3d e0 bc 94 bb
       -0.08408614 0.011302614 0.08383854 -0.004539117
000020 37 a0 d4 3d 44 8b 07 3d 02 16 06 3d 44 2b 2f 3c
       0.10382121 0.0330918 0.032735832 0.010691468
000030 c7 bd 8d 3d fa ef e3 3d 84 80 43 3c c5 b8 5b bd
       0.06920963 0.11129756 0.011932496 -0.053643007
000040 9a 25 14 bd 37 f2 81 bd 8e 7a b0 bd 49 50 a6 3d
       -0.036168672 -0.06345027 -0.086171255 0.08120782
000050 d1 2a a4 3d 77 8a 0c bd 83 71 9b bd b2 c1 35 bc
       0.08015979 -0.034311738 -0.0759001 -0.011093544
000060 14 a0 a0 3d 83 ae 35 3d 5e a7 7b 3c 9e 48 6c 3d
       0.078430325 0.04435588 0.015359728 0.05768644
000070 d6 c1 68 3d e4 36 00 3d d8 5e 80 3d 44 64 0c 3d
       0.05682548 0.031302348 0.0626809 0.03427531
000080 51 fd a9 3d 3a e4 2e bd 7f 01 85 bd 26 54 a5 3c
       0.083002694 -0.042698123 -0.06494426 0.020181727
000090 31 0a 31 3d 9b 15 10 3d 46 ed 23 bd 74 47 69 bd
       0.04322261 0.035176855 -0.040021203 -0.05695291
0000a0 36 ae 8d 3d dd 13 18 3d f6 b7 b0 bd 0f b5 5d 3d
       0.06917994 0.037128318 -0.08628838 0.05412775
0000b0 a2 02 d6 3d 65 fb a8 3c 03 d1 20 3b b8 10 e1 3d
       0.10449721 0.020627687 0.0024538643 0.10989517
0000c0 65 80 de bd 1c fd 42 3c b6 b0 53 3d 72 f8 c0 3a
       -0.10864333 0.011901166 0.051682197 0.001472248
0000d0 ee 10 71 3d b8 35 8d bd 11 df 73 3c ab 48 64 bd
       0.058854036 -0.06895012 0.014884726 -0.055733364
0000e0 3e b6 d9 3d d2 1d bd 3a 26 d9 45 bd f6 31 10 bd
       0.10630463 0.0014428443 -0.048302792 -0.035203896
0000f0 f3 d8 a2 3c 7b 5f 2d bc 71 3c 86 3c 6b ea a4 bc
       0.01987884 -0.010581846 0.016386243 -0.02013131
000100 34 10 06 3c 46 a8 eb bc 35 98 af 3d 71 fd 06 bd
       0.008182574 -0.028766762 0.08573953 -0.032956544
000110 51 da 3c bd 0c 0c 21 3d 07 44 c4 bc 7d 70 12 3d
       -0.04610664 0.03931813 -0.02395822 0.03575181
000120 00 fc c1 3d 87 89 c7 bc cc a7 4d bc b8 19 dc bd
       0.09471893 -0.02435757 -0.012552213 -0.10747093
000130 ea 65 a4 bb 01 9b a7 3b dd 8c b0 3d 33 d7 fc 3c
       -0.005017032 0.0051149135 0.086206175 0.030864334
000140 6b 96 06 3d cb d1 2d 3d 99 81 fc bb e7 b6 86 bd
       0.032858294 0.042436402 -0.007705879 -0.065778546
000150 c5 b9 7a 3d 84 84 17 bd 33 a4 d4 bd 09 50 12 3d
       0.06121232 -0.03699161 -0.10382881 0.03572086
000160 18 a4 96 3d bf e6 9a bc ec 88 80 bd 77 c3 ba 3b
       0.07355517 -0.018908856 -0.06276116 0.0056995708
000170 77 75 16 bd 3e 5b 6d 3b 96 16 96 3d d3 22 6e 3d
       -0.036733117 0.0036217715 0.07328527 0.05813868
000180 bb 60 96 3c de 4b b6 3c 82 80 de 3c e8 7f 62 bc
       0.018356672 0.022252973 0.027160887 -0.013824441
000190 7b c6 ac bd ce a2 4a 3d a7 59 ac bd 19 e9 3e bc
       -0.08436295 0.04947167 -0.08415537 -0.0116522545
0001a0 dc 2d e5 3d 10 9a 8b 3d 55 36 59 bd 47 8f 6c bd
       0.111903876 0.068164945 -0.05303033 -0.057753827
0001b0 63 54 cc 3d 42 e6 d5 bc 2f 10 94 3d aa f2 82 3a
       0.09977033 -0.026110772 0.07229649 0.0009990532
0001c0 67 dc bb 3c ba ea 5d bd 59 16 f0 bc 50 ad c7 bc
       0.022932244 -0.05417893 -0.029307531 -0.024374634
0001d0 4c 83 0e bd a7 31 ac bd 67 07 d8 bd e5 3d e3 bc
       -0.034793183 -0.08407908 -0.10548287 -0.027739475
0001e0 6a d3 f0 3d 3d 5d 07 bc 9a 8c df bc 4d cb b4 3c
       0.11759074 -0.008261976 -0.027288724 0.022069598
0001f0 d5 99 5d 3d 55 85 2a 3d a6 c2 0f 3d 13 29 a1 3d
       0.054101784 0.04163106 0.03509774 0.078691624
000200 69 a6 4b 3d b1 28 86 bd 8e 1b 8e bd 1a d3 f8 bc
       0.049719248 -0.0655073 -0.069388494 -0.030374099
000210 ec fd 2e bd 73 7b 80 bc 53 9d a5 bc 1d 58 9c bc
       -0.042722628 -0.015683865 -0.02021662 -0.019084984
000220 2c f8 59 bd fb 7a e4 3d a1 45 a7 3d c6 50 8e bd
       -0.05321519 0.11156269 0.081675775 -0.06949
000230 8a af 19 3e d2 0e d8 bd 43 ab 86 3b d3 0d ba 3d
       0.15008369 -0.10549702 0.0041097715 0.09084668
000240 1c 7f 1d bb 1e 15 19 3d ba 55 1f 3d 90 d9 30 3d
       -0.0024032062 0.037373655 0.038900115 0.043176234
000250 88 df 91 bd 19 36 aa bc 4f 4a ba bb 76 c1 58 3d
       -0.07122713 -0.020777749 -0.005685128 0.052918874
000260 ac 0c 18 3d ed af 00 3e ca ad cd bc 9c d4 80 3d
       0.03712146 0.1256711 -0.025107283 0.06290552
000270 eb e5 80 bb c4 ea c4 bc d7 13 0b bd f2 9d 50 bd
       -0.0039336584 -0.024037726 -0.033954468 -0.05093188
000280 83 c6 99 bd 08 52 46 bd e6 c8 af bb 60 b4 aa 3c
       -0.07508566 -0.048418075 -0.005364525 0.020837963
000290 fa ca 11 3e c1 47 5a 3d b0 83 2e bd af 75 f0 bc
       0.14237586 0.053291086 -0.042606056 -0.02935299
0002a0 a4 c1 23 3d 7b e4 db 3b 2e 91 2b bd 5b 4c a7 bd
       0.039979592 0.0067105866 -0.0418865 -0.081688605
0002b0 5e a7 8c 3c 33 63 b9 3b 9f cd 92 bb 9b a4 80 bd
       0.01716965 0.0056575774 -0.0044800784 -0.06281396
0002c0 ff 8d 22 3d e2 f8 02 bd 3c 16 25 bd 22 3b 01 bd
       0.0396862 -0.031975634 -0.040304407 -0.031550534
0002d0 fc c8 c7 3b b7 6b 50 bd 97 b7 be 3c 61 53 97 3d
       0.0060969573 -0.050883975 0.023280902 0.0738895
0002e0 b5 d9 31 3d fd ae 54 bd d5 bf 03 bc a6 12 90 bd
       0.043420512 -0.051924694 -0.008041342 -0.07034807
0002f0 08 3d c2 3d 03 cd 83 3d 3e 2b f8 3c 0c e0 8b 3c
       0.09484297 0.06435587 0.030294057 0.017074607
000300 b9 cf 37 bd fb 17 c4 bc a4 de 47 bd b1 ff 64 3d
       -0.044875834 -0.023937216 -0.04879631 0.05590791
000310 53 7e a3 bc b5 fb 77 bc 63 c0 77 3c b3 2b 88 3c
       -0.019957697 -0.015135695 0.015121552 0.0166224
000320 9a 6a f5 3d 08 11 41 bd 1f fb d2 bd e8 5c 63 bd
       0.11983223 -0.047135383 -0.10301804 -0.055508524
000330 ef f0 a9 3d a5 5c 7f 3d 04 c4 f5 3c 12 e7 a7 bd
       0.082979076 0.062344212 0.030000694 -0.0819837
000340 2e aa 0c be 10 55 09 3d dc bc eb bc eb e7 01 3d
       -0.13736793 0.033528388 -0.028776579 0.031715315
000350 8f 94 8e 3d 5e 54 92 3d 17 45 04 bd f7 72 16 bd
       0.06961929 0.07144998 -0.03229245 -0.036730733
000360 dc 5f 8c 3d 09 7c 17 3d 91 7f 28 bd 46 1d a7 3d
       0.06854221 0.036983524 -0.04113728 0.0815988
000370 4c 5c 3b 3c e0 00 94 3c 09 d8 6a 3d 82 47 8e 3d
       0.0114355795 0.018066823 0.057334933 0.06947233
000380 24 ba 39 3d cf 72 b9 3a 22 79 75 3c b2 2c 25 bc
       0.045343533 0.0014148596 0.014982494 -0.010081457
000390 ad 82 e1 3c 43 ae a6 3c c0 ca 39 3d a6 38 b3 bd
       0.027528131 0.020346766 0.045359373 -0.08751039
0003a0 25 f3 3f 3d 5e d1 49 3d b7 27 53 bc 31 eb fa 3c
       0.04686274 0.049271934 -0.012887887 0.030629726
0003b0 8d 13 9b 3d c4 8a 1b bd 12 7e 2d bd 4c 45 97 bd
       0.075720884 -0.037974134 -0.04235656 -0.07386264
0003c0 32 36 b1 3c d6 c5 e3 bb 9e c7 a4 bc bd 46 39 3c
       0.021632288 -0.006951074 -0.020114716 0.011308369
0003d0 dd bb 80 3d e2 d6 8a bb 01 d6 b7 bd 9a 2a 01 b6
       0.06285832 -0.004237042 -0.08976365 -1.9247295e-06
0003e0 4b 5d 4b bc ea 48 70 bd b6 81 8f bc 6f 8a bb bb
       -0.0124123795 -0.058663286 -0.017517906 -0.0057232897
0003f0 7a e7 79 3d 17 24 76 bc 2a 8b fc b9 cd c2 91 3c
       0.06101177 -0.015023253 -0.0004816887 0.017793084

network_body.observation_encoder.processors.0.conv_layers.2.bias f4 [32]
000000 af f0 ad bc 74 c4 94 3d 16 cc 7a 3d cf 3f 24 bd
       -0.021232931 0.07264033 0.061229788 -0.040099915
000010 bf bf 31 bd 3d 1a 75 bc c6 73 1b bd 51 8e 82 3d
       -0.043395754 -0.014959869 -0.037952207 0.06374801
000020 22 49 11 bd d7 94 a5 3b cb ea 55 bd 05 87 07 3d
       -0.035470136 0.0050531435 -0.05222587 0.03308775
000030 0e ff a7 bc 27 10 50 3d 92 5d de bc 6b be a3 bc
       -0.020507362 0.050796654 -0.027144227 -0.01998826
000040 27 4c 69 bc 39 51 1a bc 46 7f 8c 3d f2 fc c4 3c
       -0.014239348 -0.009418779 0.06860213 0.024046395
000050 c5 73 00 3c 5a b9 c2 3b 54 36 1e 3d 84 e2 5d 3d
       0.007840102 0.005942506 0.03862603 0.0541711
000060 0b db 35 3d 89 b9 20 3d 8f 24 1d 3d d9 33 2a bd
       0.04439835 0.03923944 0.038364943 -0.041553352
000070 f8 c1 aa bc cc 2f 4e bd fd 84 c1 bc 78 20 a9 3c
       -0.020844445 -0.05033855 -0.023622984 0.020645365

network_body.observation_encoder.processors.0.dense.0.weight f4 [256, 32]
000000 24 e6 99 3c 41 c4 9c 3e 0c 78 c3 3e 17 34 cf 3e
       0.018786497 0.3061848 0.38177526 0.4046943
000010 15 08 04 be 32 cf 80 be 43 40 53 3c 47 fa 16 bd
       -0.12893708 -0.25158077 0.012893739 -0.036859777
000020 59 a8 e7 3e 66 a2 b0 3e aa a4 b3 bc 9c 16 a7 be
       0.45245627 0.344989 -0.021929104 -0.32634437
000030 fb c0 cd 3d 6f c1 e5 bd 3f 96 ca 3d 22 30 c7 be
       0.10046574 -0.11218535 0.098919384 -0.3890391
000040 ac 08 45 be 1d 9d 75 3b 78 87 3c 3e 99 63 c2 bc
       -0.1924159 0.003747768 0.18411052 -0.023729132
000050 58 2a b0 be b9 88 71 be 53 3b 7c 3e 72 ec 31 be
       -0.34407306 -0.23587312 0.24632005 -0.17375353
000060 85 f6 fd 3c e6 f2 60 3e d9 72 7f 3e 4a 95 89 be
       0.031001339 0.21967658 0.24946155 -0.2687171
000070 7e 75 bb bc 0f 5d 50 be f4 0b c5 bd 33 95 e0 3e
       -0.022883173 -0.20347999 -0.096214205 0.4386383
000080 e8 58 c8 be 6c ed 40 bd 22 c0 c5 bd fb d5 06 3d
       -0.3913033 -0.047101423 -0.09655787 0.03291891
000090 be 65 66 be 98 fa c1 3c ec 32 43 3e ae 90 6a 3e
       -0.22499749 0.023679063 0.19062394 0.22906753
0000a0 4a 29 58 3c be 3c f1 bd 6f d5 3e be 37 09 f0 3c
       0.013193438 -0.11779164 -0.18636106 0.029301269
0000b0 54 ef b1 3d 92 28 36 be dd de 8c 3c 16 b6 a2 3e
       0.08688226 -0.17788914 0.017196113 0.31779546
0000c0 fd 45 a8 3e e7 74 fe 3d 21 bf 34 bd a4 20 8e bd
       0.32865897 0.12424641 -0.044127587 -0.069398195
0000d0 74 f5 e0 be 82 36 c9 3d a5 f8 84 be a7 fc aa 3e
       -0.43937266 0.0982485 -0.2597095 0.33395883
0000e0 7c b2 32 be d1 a2 c3 3d f2 0a 87 be 79 35 16 be
       -0.17450899 0.09552539 -0.26375538 -0.14668836
0000f0 28 df 81 3e 7b e1 a3 3e 6f 45 cf 3e 7e 54 7e 3d
       0.25365567 0.32007965 0.4048266 0.062092297
000100 d2 9b d9 3d c0 5a 49 be 4e b6 9d bc 83 a7 76 be
       0.106254235 -0.19663525 -0.019251969 -0.24087338
000110 73 a6 27 be c6 d5 97 bd f2 a4 92 3e b3 8b a9 bd
       -0.16372089 -0.07413821 0.28641468 -0.08278599
000120 f4 a3 09 3c c8 b7 dc bd 1d 9a b0 bd be a9 cb bd
       0.008400906 -0.10777241 -0.08623145 -0.09944485
000130 ad ab 87 be 23 67 5f bc 83 66 b0 bd 4a 7e 04 ba
       -0.26498166 -0.01363543 -0.086133026 -0.0005054219
000140 74 74 e4 3e 69 40 64 be 1e 22 0d 3f e3 d0 f6 3d
       0.44620097 -0.22290196 0.55130184 0.12051561
000150 04 32 e7 bd 6d 66 bf bc 35 3f df bd 06 3a 20 3d
       -0.112888366 -0.02336427 -0.10900728 0.039117835
000160 d2 2c bf be 79 bd 24 3e 5d 3c a1 be e7 f8 46 be
       -0.37338883 0.16087903 -0.31491366 -0.19430886
000170 fc c0 a9 3e eb c4 20 3e e2 c2 bb bd e3 7c 1a 3d
       0.33155048 0.15700118 -0.0916803 0.037716758
000180 53 e0 2d bd 93 55 9b 3e 84 b3 04 bf 02 3b fe bd
       -0.04245026 0.30338725 -0.5183642 -0.124135986
000190 96 b5 8c be 28 01 b6 3d 27 92 8a be 19 8c a8 3e
       -0.2748229 0.08886939 -0.2706463 0.32919386
0001a0 1b cc 86 be 2b cd 05 be 55 22 e7 bc 9c f1 42 be
       -0.26327595 -0.13066547 -0.028214613 -0.19037479
0001b0 45 a0 a7 bd cd 17 51 be 1e 44 65 3d 0c 36 8f bc
       -0.08184866 -0.20419236 0.055973165 -0.017481826
0001c0 d4 ac fa 3e 98 7d c9 bd b0 c1 9e 3e f0 c4 7a 3d
       0.48959982 -0.09838408 0.31007147 0.06122297
0001d0 7f 42 40 3d e1 8d e2 be 5d 1e 03 be 51 02 7e 3e
       0.046938416 -0.4424887 -0.12804551 0.24805571
0001e0 89 a6 94 3e 04 04 e2 bd a1 ce b7 be cb 37 64 be
       0.29033306 -0.11035922 -0.35899833 -0.22286908
0001f0 b1 4b aa 3e 5a d6 68 bb 5a bd 15 be 37 36 93 3e
       0.33260873 -0.0035528154 -0.14623013 0.287523
000200 eb a1 e1 3e db 4c 98 be b0 28 c3 bd 26 97 6a be
       0.44068846 -0.29746136 -0.09529245 -0.22909221
000210 c2 3c 0f 3e 68 c5 de 3d 06 f4 24 be 53 d3 ad be
       0.13988021 0.10877496 -0.16108713 -0.3395029
000220 43 0e 82 be cc 8f 0a 3e f3 bb e2 3d 92 1e 00 be
       -0.25401506 0.13531417 0.11071005 -0.12511662
000230 29 84 77 be 12 92 89 be 40 46 0a bf 82 0e 14 3f
       -0.24171509 -0.26869255 -0.54013443 0.5783464
000240 c4 38 af bd 40 ce 6e be 13 97 03 bd f3 c3 03 3f
       -0.08555749 -0.23320866 -0.032126497 0.5147087
000250 8e f7 29 be 7a 96 4a 3d 77 0a ed 3d 85 91 25 3e
       -0.16598341 0.049459912 0.11574262 0.16168793
000260 97 96 6f 3e 2b 0a cb bd ed e7 69 be 0e 3a ba bc
       0.23397289 -0.09914049 -0.22842379 -0.02273276
000270 4d c5 9c 3e 93 cd dd 3d 33 3c b8 be 12 d9 dd bc
       0.3061928 0.10830226 -0.35983428 -0.027081046
000280 dd 78 c2 be bd 92 a7 3e 3e e5 46 be 9c eb 23 be
       -0.37982836 0.3272914 -0.19423386 -0.16007847
000290 12 fb fa bd 18 a6 b1 3d 09 77 92 be d7 b4 58 3e
       -0.12254919 0.08674258 -0.28606442 0.21162735
0002a0 b4 38 a0 3c 3f 95 c1 bd db 48 3d 3e 78 c7 d5 3c
       0.019558288 -0.094522946 0.18484823 0.02609609
0002b0 37 13 d9 be d4 46 d5 be 5f b5 b7 bd 58 46 e8 bc
       -0.42397472 -0.416556 -0.08970141 -0.028353855
0002c0 5f ab 06 3e 4e d5 7c 3d 48 1e 50 3e 98 58 d0 bc
       0.1315131 0.06172686 0.20324051 -0.02543287
0002d0 6b 00 32 3e 4c ba c4 bd d5 97 ad be f0 f8 04 be
       0.17382972 -0.09605846 -0.339049 -0.12985587
0002e0 90 73 bc 3d 81 b7 76 3e cc bc 3b be 04 5c 42 be
       0.09201729 0.24093439 -0.18333739 -0.18980414
0002f0 92 81 e5 3d d1 96 16 3c 32 53 ef 3d b6 82 22 bd
       0.11206354 0.009191231 0.1168579 -0.039675437
000300 fc c7 84 3c 7d 76 56 bd fc 0f 81 3e 92 6a 94 bc
       0.016208641 -0.052359093 0.25207508 -0.018117223
000310 e2 60 00 bf ba 8a 24 bd 56 3e 06 be 14 18 79 3d
       -0.5014783 -0.040171362 -0.13109717 0.06081398
000320 7b 89 ae be 9c 6a b7 be da c2 e2 3c a4 ba c4 3d
       -0.34089264 -0.35823524 0.027680803 0.096059114
000330 0f b8 0c bf f4 8f a1 bd 9c 32 f7 3d 73 4a bb bd
       -0.5496835 -0.07888785 0.120702 -0.091450594
000340 ac 13 33 3f 6c 69 97 3c 70 7e eb 3d 92 35 ca 3c
       0.6995189 0.018482886 0.114987254 0.024683747
000350 6b 82 48 bd eb 6c 05 be 7c 8a 3d be e6 6d 60 be
       -0.0489525 -0.1302983 -0.18509859 -0.21916923
000360 85 a4 de 3e d5 4e 42 be 81 9b 1e 3d a6 28 84 3d
       0.43484893 -0.18975385 0.03872252 0.064530656
000370 eb f6 d3 3d 6c 20 1a be f7 cd 85 3d 9c 6d 74 bd
       0.1034983 -0.1505143 0.06533425 -0.059674844
000380 64 8d 65 ba ac 9c 4a be 82 3b 29 be 0d 99 b9 3e
       -0.00087567256 -0.19786328 -0.16526607 0.3624958
000390 20 de 4a be 06 60 a2 3e e1 e0 d9 3e a2 08 b8 bd
       -0.19811296 0.31713885 0.4255438 -0.089860216
0003a0 b9 ef c7 3d d1 0c 93 be b8 73 d0 3d b6 c9 eb bd
       0.0976252 -0.28720716 0.101783216 -0.11513083
0003b0 33 c1 f7 3c 0a e9 85 3d 67 27 ff 3e 0b 83 de 3c
       0.030243492 0.06538589 0.4983475 0.027162096
0003c0 76 f5 0a 3e d3 4f 86 be d5 d7 8c be 4b de a3 3e
       0.13570198 -0.26232776 -0.27508417 0.32005534
0003d0 ca df d5 ba 2f bd da 3e b2 cd 17 be c2 17 36 3e
       -0.0016317305 0.4272246 -0.1482456 0.177825
0003e0 66 94 98 3e e9 c1 c8 3e 64 a3 40 be 55 84 c8 be
       0.2980072 0.39210442 -0.18812329 -0.3916346
0003f0 b8 b6 d5 3e 34 cd 35 be 2a 02 07 3e 4b c5 f5 bd
       0.41740966 -0.1775406 0.1318442 -0.12000521

network_body.observation_encoder.processors.0.dense.0.bias f4 [256]
000000 8e f1 03 bc ba e4 7c ba 1f c1 a7 3c 1e 70 58 bc
       -0.008053197 -0.000964712 0.02047783 -0.013210325
000010 87 55 11 3d 3c f5 c3 3c fc 28 31 3d 94 78 33 3c
       0.035481956 0.023920648 0.043251976 0.010954041
000020 4b f0 54 3b aa d1 bc 3b 6c 87 2f ba 4c 68 5a bc
       0.0032491859 0.0057622986 -0.00066958996 -0.01333053
000030 a7 25 b1 bc f4 cc 51 3d 36 b5 fa bc 3c 8b 89 3c
       -0.0216244 0.05122085 -0.030603986 0.016790025
000040 1c fd 2c 3d ef 4b 2e bd 03 ad 24 3c 07 6d 81 bc
       0.04223357 -0.042552885 0.010051015 -0.015799059
000050 31 65 80 3c c8 c8 72 3d bf 83 16 3c 44 8c fc 3c
       0.015673252 0.05927351 0.009186684 0.030828603
000060 52 62 fb 3c ea b6 c3 3b 0a bb 88 3d 98 e9 ff 3d
       0.030686531 0.005972733 0.066763 0.12495726
000070 bb 9a bb 3b ba 2e 19 3b 00 ea 48 3d 72 c2 b6 bc
       0.0057252324 0.0023373798 0.049051285 -0.022309516
000080 eb d8 2a 3c 37 81 8b 3d ad 41 cd 3c d3 9c d5 3c
       0.010427694 0.06811755 0.02505573 0.026075756
000090 fe 3c 09 bd ba a1 84 ba c5 bc 11 bc fc f7 09 3d
       -0.033505432 -0.0010118999 -0.008895104 0.033683762
0000a0 15 dd 5c bc fd c7 a3 3a 12 71 0e 3d 56 bc 92 bc
       -0.013480444 0.0012495514 0.0347758 -0.017912071
0000b0 43 4f 52 3d b2 c8 2a bb c1 50 87 3d f6 91 be 3d
       0.05134512 -0.0026059565 0.066071995 0.093051836
0000c0 c2 b2 81 bb 81 c2 81 bb 57 ba 3f 3d 6e fb 56 3d
       -0.003958077 -0.0039599543 0.046808567 0.052485876
0000d0 6d b4 86 3c db 93 8b 3d 72 c4 0f 3c aa 5b d2 bb
       0.016443456 0.068153106 0.008774864 -0.0064196186
0000e0 7a a1 89 bb 11 e6 3a 3d 19 e4 09 3d d6 36 40 3d
       -0.0042001577 0.045629565 0.033664797 0.046927296
0000f0 35 4f 7a 3d 42 d0 a9 bc af 7b 59 bc 10 22 bd bc
       0.061110694 -0.020729188 -0.013274117 -0.023087531
000100 67 6f 2d 3d 9f 49 23 3c 6c b6 05 3d c1 5b 99 3c
       0.04234257 0.009966283 0.032644674 0.01872051
000110 75 89 17 3c 9a 65 dc 3c 95 d2 38 3d 54 c1 6c bd
       0.009249081 0.026903916 0.0451227 -0.05780156
000120 fd bf 9f 3c 6d 80 07 bd e6 78 21 bc ac 5b a3 3c
       0.019500727 -0.03308146 -0.009855485 0.019941173
000130 10 17 d8 bc 19 c3 cc 3c 73 cc 02 3d 09 c3 0c bd
       -0.026378185 0.024995374 0.03193326 -0.034365688
000140 40 17 3c 3d 34 1b 8d 3d 47 93 5e 3d 52 8b af 3c
       0.04592061 0.06889954 0.054339673 0.021428738
000150 03 47 ba bc 40 5e bf bc 1e b0 80 bc 13 02 2b 3d
       -0.02273894 -0.023360372 -0.01570898 0.041750025
000160 57 88 15 3c 5e 18 66 3b 87 bd 1c bc d2 e1 05 bc
       0.009126744 0.0035109739 -0.009566671 -0.008171516
000170 1c 0a a6 3c b2 d9 d8 3c cf f5 0c bd 46 a2 93 bb
       0.020268492 0.026470993 -0.03441411 -0.0045054285
000180 ea e8 0a 3d 45 98 01 3d 74 5e 8b 3d f0 e4 59 3d
       0.03391353 0.031639356 0.06805125 0.053196847
000190 ff 30 e7 3c e9 81 b1 3c 55 b9 00 3d 53 2e 7f 3c
       0.028221605 0.021668391 0.031426746 0.015575009
0001a0 77 e8 14 bc e2 36 54 3c 29 04 e8 3c 33 fd 1d bc
       -0.009088627 0.012952538 0.028322296 -0.009642887
0001b0 8a b2 a4 3c 58 9f 24 3c 82 30 de 3c 9a d5 3b bc
       0.020104665 0.010047756 0.02712274 -0.011464501
0001c0 ee 95 ff 3b f0 ea 7f bb 4b 81 16 3d 7d 42 0c 3d
       0.0077998554 -0.0039049946 0.036744397 0.034243096
0001d0 5f f1 9f 3c 4d b7 9d 3d 88 77 8e 3c 13 3d 06 bd
       0.019524274 0.077009775 0.017390981 -0.03277309
0001e0 94 7a cc bb d2 b6 f7 ba 3b 47 76 3d 1e f4 d2 3b
       -0.0062401984 -0.0018899089 0.060126524 0.0064377924
0001f0 de a4 00 bb 33 24 b1 3b 03 d7 80 38 24 26 7a bc
       -0.0019629519 0.0054059266 6.143565e-05 -0.0152678825
000200 cf 28 0b 3d 75 22 c1 3c 3c 58 b3 3d 21 b3 ce bb
       0.033974465 0.023576 0.08757064 -0.006307975
000210 bb a1 ff ba bf a9 d2 bc 81 79 a0 3b 93 a8 e5 3b
       -0.0019503155 -0.025715707 0.004897297 0.007008621
000220 42 ce 2d 3d 7e c6 fe 3d d5 20 ef 3c 30 1f 8f 3c
       0.04243303 0.12440203 0.02919046 0.017470926
000230 1d 3b 9a 3c 2c 7b 8a 3d 54 82 10 3c 24 9f 55 3d
       0.018827016 0.067617744 0.008820135 0.05215372
000240 68 c5 45 3b 0a 45 5a 3b b5 a8 84 bc 7e c3 e7 3b
       0.0030177478 0.003330531 -0.016193727 0.007072865
000250 eb 7f 7e bb 87 d4 0c 3d c6 bb 87 3c 13 08 5f 3c
       -0.003883357 0.03438237 0.01656903 0.013612765
000260 24 dd da bc 1a 5f 20 bd 7b d7 67 3c 00 a9 41 3c
       -0.026716776 -0.039153196 0.014150496 0.011820078
000270 ea c2 37 3d e1 b9 33 3c 64 fa 1e 3d 24 bc aa 3c
       0.04486362 0.01096961 0.03881301 0.020841666
000280 94 f3 7a 3c 3c 07 eb 3c 63 95 0d 3d 1b e5 a9 bc
       0.015316863 0.028689973 0.034566294 -0.020739129
000290 9a d2 b0 3c c1 0b 4a bc e0 86 23 3d 5f 43 50 bc
       0.021584798 -0.012331904 0.03992355 -0.012711375
0002a0 70 85 cc 3c 22 6e ad bd c5 12 87 3c f0 92 ea 3c
       0.024965972 -0.08468272 0.016488442 0.028634518
0002b0 a7 2c 5d 3d 67 6d e6 3c 41 6f 30 bc 28 0b ec 3c
       0.053997662 0.028128339 -0.0107687125 0.028813913
0002c0 90 4c 31 3d ee cb 8e 3d 68 61 4d bd 12 91 e8 3c
       0.043285906 0.0697249 -0.050141722 0.028389487
0002d0 eb 85 15 3c 0e e1 b9 3c d5 c7 28 bd 46 b3 8f bd
       0.009126167 0.022690322 -0.0412062 -0.070166156
0002e0 48 00 b1 ba e9 44 da 3c 7d 27 3a 3d 82 a4 09 3c
       -0.0013504112 0.026644187 0.045447815 0.008401038
0002f0 57 3b 7f 3c 4c 99 ce bb 08 8d f4 3c e0 33 94 3d
       0.015578113 -0.0063048955 0.029852405 0.07236457
000300 0b c8 47 3d d2 09 06 3d 1f 4a 8d 3c a4 28 6d 3d
       0.04877476 0.03272421 0.017247258 0.057900086
000310 27 20 01 3c d6 fa 9e bc b3 47 2c 3b 3b 22 3c 3d
       0.007881201 -0.019406717 0.0026287853 0.045931082
000320 a3 2b 77 bc 16 4f 83 3d 1e ec b8 3c b1 28 89 bd
       -0.015086087 0.06411569 0.022573527 -0.066972144
000330 f2 17 94 3b 5f 5f 0d bb b2 33 c9 3c 9a 2a 13 bd
       0.004519456 -0.0021571738 0.024560783 -0.0359293
000340 c5 3b cd 3c e0 05 95 3c fe a5 54 3d 71 a6 76 3d
       0.025052914 0.018191278 0.051916115 0.060217325
000350 56 d2 f3 3c 75 9d 88 bc 27 f6 5e 3d 99 ee e0 3b
       0.029763382 -0.016676644 0.054433968 0.0068643806
000360 59 d9 98 bb 27 5a 15 3d cf 97 3e 3d 96 88 76 3b
       -0.0046645817 0.03646293 0.046531495 0.0037618033
000370 05 45 16 3c e1 ba db 3c 31 b5 34 3d 8a b8 66 3c
       0.009171729 0.02682251 0.04411811 0.0140820835
000380 85 aa 3c 3d e2 9d 93 3b 7e 0c 89 bb d3 59 1c bc
       0.046061058 0.004504905 -0.0041823974 -0.0095429
000390 a9 29 26 3d ab 14 54 3c cc 45 a6 bb b7 71 c3 bb
       0.040567074 0.012944381 -0.0050742384 -0.0059644836
0003a0 0f b3 01 3d 69 be 0e 3b cf f1 5f 3d 4d 67 3e bb
       0.031664904 0.0021780974 0.054673966 -0.0029053271
0003b0 64 da 08 3c 33 36 97 3d 2d 31 9d 3c 50 77 20 bd
       0.00835285 0.073833846 0.019188488 -0.039176285
0003c0 0b b3 1b 3c 15 49 62 3b e8 30 94 ba 8e 9a 27 3d
       0.009503136 0.0034528424 -0.0011306079 0.04091888
0003d0 26 bd 9c 3c 6a 1d 6a 3c 5c 97 67 3d de 3a 48 3d
       0.019133162 0.014289239 0.056540832 0.048884265
0003e0 d8 83 6c 3d 37 82 73 3d c8 8e a4 3b 16 6d 13 3d
       0.057742923 0.059450354 0.0050219037 0.035992704
0003f0 97 21 33 3c c1 af 15 bd d1 ef e9 3c e3 08 95 3d
       0.010933301 -0.036544565 0.028556736 0.07277086

network_body._body_endoder.seq_layers.0.weight f4 [256, 266]
000000 ee 31 be bd 96 99 01 3c d9 9e d7 3d 73 38 3b 3c
       -0.09286867 0.007910153 0.10528345 0.011427033
000010 0a 57 96 bd 80 76 5c b9 da 0f 8e 3c 16 10 3b bc
       -0.0734082 -0.0002102498 0.017341543 -0.011417409
000020 56 dc 09 3b 04 a5 0b bd 03 25 bf 3c 83 5f b1 bd
       0.0021035871 -0.034092918 0.023333078 -0.086607955
000030 a2 2f 9e bd 27 d3 5c bd 6f 1e 95 bd 31 4a cc 3d
       -0.07723929 -0.053912308 -0.07281195 0.099750884
000040 e0 0d 5b bc 94 49 3f 3b 21 ab 84 3d 6e ec e1 3c
       -0.013370007 0.0029188143 0.06477953 0.027578559
000050 87 77 e9 bb 78 ca d2 3c 1f fa d1 3d 24 1e 22 bd
       -0.0071248445 0.02573131 0.10252785 -0.039579526
000060 19 9f 61 be 95 9e c6 3b 34 6f 21 bd 77 c4 29 bd
       -0.22033347 0.006061385 -0.039412692 -0.04144713
000070 99 d3 87 bd a4 92 2d be 6b f4 e0 3d 7d e6 77 3d
       -0.06632156 -0.1695047 0.10984119 0.060522545
000080 20 7e 36 3d 1b e6 d8 bd 40 51 1d 3d 1e 23 3a be
       0.044553876 -0.10590764 0.038407564 -0.18177459
000090 f0 5f 5d 3b a7 5b 17 3d 4c a2 94 bd d7 59 9a bc
       0.0033779107 0.03695264 -0.07257518 -0.018841667
0000a0 e6 c3 80 bd 76 2b 83 3d 29 bf 2e bc 54 7e ca 3c
       -0.06287365 0.06404774 -0.010665693 0.024718441
0000b0 27 5e e6 bc eb f4 a7 3c 8a ed db bc 95 23 a4 3d
       -0.028121067 0.020502528 -0.026846666 0.08014599
0000c0 2f 80 e5 3b b0 ab 7c 3c 01 35 08 bd 17 f5 d1 bb
       0.007003806 0.015421793 -0.033253673 -0.006407391
0000d0 08 76 ad 3c bb 93 09 3e f0 48 39 be b7 46 c9 3d
       0.021174446 0.13435261 -0.1809423 0.09827941
0000e0 a2 85 23 3e 16 d3 0f 3d f4 55 90 bc 0f 49 b6 3c
       0.15968946 0.035113417 -0.01761911 0.022251634
0000f0 c5 a2 05 3e 94 7a b7 3c fa 6f ad 3d 48 bd 5d 3e
       0.13050373 0.022397317 0.084686235 0.21654236
000100 a1 25 b4 bc ef 86 79 3d 9c c9 de 3b 40 8b 65 bd
       -0.0219906 0.0609197 0.006798936 -0.056041002
000110 4f 20 40 3c 8a 40 7a bd b1 e0 3e 3c 2a fc 0d 3d
       0.011726453 -0.061096705 0.01165025 0.03466431
000120 b2 42 ec 3c 52 fc f6 3c 88 0d cf 3c 0a 1a 8f bc
       0.028840397 0.030149613 0.025275007 -0.017468471
000130 24 ef 33 bd c2 72 63 3b 24 41 29 be b6 6b b6 3d
       -0.043929234 0.0034705852 -0.16528755 0.08907263
000140 42 0e 0b 3d fc dc db 3d db 5c e7 bc 3b 4f 42 bd
       0.033949144 0.10735509 -0.02824252 -0.04743884
000150 1f 5d 49 bd fa 6f 84 bc 3a 65 ec bc f3 6f cf 3c
       -0.049161073 -0.016166676 -0.028856862 0.025321936
000160 8b e1 36 bd c5 1d a9 bd 6b d4 ff bc 9a e2 42 bd
       -0.04464869 -0.08257631 -0.031229218 -0.047579385
000170 4a 71 e7 3d 32 3c 0f 3c 2b d9 33 bd 6b 38 81 3d
       0.11300905 0.008742379 -0.04390828 0.06309589
000180 1a aa 1b be 2b 48 fd 3d a5 32 cb 3d b3 1d ce bd
       -0.15201607 0.123672806 0.09921769 -0.100642584
000190 2d c5 16 3e b7 90 b7 3d 6d 0a c3 bd 46 ff b5 3c
       0.14723654 0.08963149 -0.09523473 0.02221645
0001a0 e6 a2 92 3d 67 6c 47 3c 97 51 b1 bd 76 e6 24 bd
       0.07159977 0.012171841 -0.0865814 -0.040258847
0001b0 92 85 4c 3b 8f be b6 bd 48 7e 57 bd 5e 74 af 3c
       0.0031207544 -0.08923065 -0.052610666 0.021417793
0001c0 98 e2 0e 3e cf 72 04 bc b0 ec 25 3e ed 72 45 bc
       0.13953626 -0.008084013 0.1620357 -0.012051326
0001d0 e2 29 33 3d ae 65 2d bd 27 6d d4 bd a3 fc c8 3d
       0.043741114 -0.042333297 -0.10372382 0.09813812
0001e0 6f d6 0f 3e 3a 0e 02 bd ce 97 59 bd 87 ef 04 3e
       0.14046644 -0.03175185 -0.053123288 0.12981997
0001f0 a8 c4 70 3d fc d9 b9 bb 8c cc 85 3d 6c e0 83 bd
       0.058781296 -0.0056717377 0.06533155 -0.064392895
000200 dc 1b 0b 3d 4d d3 97 3d 3e cc ac bd 08 65 01 3d
       0.033962116 0.07413349 -0.084373936 0.03159049
000210 2c 1b 1f bd b8 97 d6 bb 97 77 f8 3c 42 e4 a1 bd
       -0.038844272 -0.006548848 0.030330462 -0.07904865
000220 b7 02 ba bd 90 5c c4 3c 11 e5 8d bd c1 ee 88 bd
       -0.09082549 0.023969918 -0.069284566 -0.06686164
000230 5a 63 ef 3d ca 31 8f 3b 89 b0 a9 bd 52 e0 00 3e
       0.11688872 0.004369949 -0.082856245 0.12585571
000240 9b c5 9c 3c 99 53 30 3d fc fc ea bd 9c c7 31 3d
       0.019137194 0.043048475 -0.11474034 0.043403253
000250 35 ff 8c be fc 9d 95 bd 06 4c 07 3e 4a ff cc 3d
       -0.27538458 -0.07305524 0.13212594 0.1000963
000260 c1 ec c8 3c 5f 5d 72 bd 02 10 17 bd 01 c8 12 3e
       0.024526956 -0.059171077 -0.0368805 0.14334108
000270 4f cd a6 bd 4e 34 49 bc 69 55 86 bd 1a f9 97 3d
       -0.08144628 -0.012280537 -0.065592594 0.07420559
000280 27 80 a9 bc da a7 6e 3d f3 61 a9 3d 75 65 31 3b
       -0.02069099 0.058265544 0.082706355 0.002706853
000290 fe 24 52 be 86 22 c7 3c 08 32 43 be e7 77 f5 bd
       -0.20521924 0.024308454 -0.19062054 -0.1198576
0002a0 7a 98 29 bd 29 68 a7 3b ba 33 c9 3c 84 b6 72 bd
       -0.04140518 0.0051088524 0.024560798 -0.05925609
0002b0 22 66 cd 3c 11 d9 95 3d 3f e6 19 be 59 d0 19 3c
       0.025073115 0.07316793 -0.15029238 0.009388053
0002c0 7d 58 ad bd 52 b5 1e bd 3a 98 48 3d a7 3e 90 bd
       -0.084641434 -0.03874714 0.0489733 -0.070432
0002d0 3d ef 28 bd 63 87 fa 3a 1d 62 5d 3d a0 3e 90 3d
       -0.04124378 0.0019113835 0.054048646 0.07043195
0002e0 e1 72 fb bd d7 97 db bd 6a a0 0d be 28 26 36 3d
       -0.12277771 -0.107223205 -0.13830724 0.044469982
0002f0 06 72 af bd a7 bc 96 3c 0a 4c 17 3d 96 d3 8b bd
       -0.0856667 0.018400503 0.03693775 -0.06827466
000300 65 85 83 3d 90 2f 68 bd d3 7b 51 bd 19 47 89 bd
       0.06421927 -0.056685984 -0.05114348 -0.06703014
000310 d5 15 19 be 06 b2 ba bb 74 4c 6e bd 14 cf 9b bb
       -0.14949735 -0.0056974916 -0.05817838 -0.0047549102
000320 76 cd 13 bd 82 22 9b 3d 7c 5f 50 bd f9 fa 66 3c
       -0.036084615 0.07574941 -0.05087231 0.0140979225
000330 0c 80 10 3e 47 0f a4 bc ca be 82 3d 1e 7e 20 3d
       0.14111346 -0.020026816 0.063840464 0.039182775
000340 94 0f 1e bd 79 48 5a bc 2f 29 91 bd 60 71 09 bd
       -0.038589075 -0.013322943 -0.07087933 -0.03355539
000350 c5 97 a9 bd 95 97 05 3e 5f 7c 58 3b 05 75 52 3c
       -0.08280901 0.13046105 0.0033033115 0.012845282
000360 ce 22 d7 bd 9c 55 75 bd 99 df 0f 3e ee bb c0 3d
       -0.10504685 -0.059896097 0.1405014 0.09410845
000370 11 0e 05 3e 18 d9 2a 3d 03 09 f0 3b cc 8c 8d bd
       0.12993647 0.041710943 0.007325293 -0.069116205
000380 99 7a f6 bd ff 4f 07 be e2 c7 ab bc f0 75 a6 bc
       -0.120351024 -0.1321411 -0.020969335 -0.020319909
000390 81 c6 1b 3d 41 7e d1 3b 8c 71 69 3d 22 0d 41 bd
       0.038031105 0.0063932245 0.056993052 -0.047131665
0003a0 b4 1e 40 bd ab b0 81 3b 18 38 67 3d 42 d5 97 bd
       -0.04690428 0.003957828 0.05644998 -0.074137226
0003b0 3b 91 56 bd 61 20 a1 3d 49 a2 c8 bd 9d 8b 4e bc
       -0.052384596 0.07867504 -0.097965784 -0.012606529
0003c0 c2 d7 01 3c fd 47 38 bd de fd c8 bb 47 93 f1 bd
       0.007924976 -0.04499053 -0.006133779 -0.11795669
0003d0 63 e6 37 bd e6 c6 f5 3b 27 91 e3 3d ad 13 ab 3d
       -0.04489745 0.007500517 0.1111167 0.08353362
0003e0 c4 d7 2a 3b f1 7d 88 bd 30 e3 08 3e c8 26 b9 3d
       0.0026068548 -0.066646464 0.13367915 0.090406
0003f0 18 c5 16 ba 9a 4b 9a 3a c2 38 a6 bd 4a 1f 95 3d
       -0.0005751415 0.0011771799 -0.081162944 0.072813585

network_body._body_endoder.seq_layers.0.bias f4 [256]
000000 98 c1 fd bb 22 85 e6 3b 0e 23 39 3c 3b 54 24 bb
       -0.0077440254 0.0070349136 0.011299862 -0.002507462
000010 68 6f f4 bb 8b 55 f4 3c 70 81 93 3a ed bb e4 3b
       -0.0074595697 0.029825946 0.0011253785 0.0069804103
000020 28 0e 91 bb 99 c3 0b bc 0d 1d 8b 3c f3 0b 17 bd
       -0.0044267364 -0.008530521 0.016981626 -0.03687663
000030 67 9d 66 3b 78 c2 c0 3b a6 f3 bb 3b ed 6a df bc
       0.0035189034 0.0058825575 0.0057358323 -0.027272666
000040 43 9e b5 3c 27 6f 56 bc c9 e6 cf 3b d1 99 f5 3b
       0.022170192 -0.013088024 0.0063446504 0.007495143
000050 cf f3 89 3b b6 80 a6 3c 02 1c 01 ba d8 c4 ac 3c
       0.0042099725 0.020325046 -0.0004925133 0.021089956
000060 44 a4 0d bc a3 5a 57 b9 fb ad ab bc 10 8a a0 ba
       -0.008645121 -0.00020537763 -0.020956984 -0.0012248177
000070 43 e0 26 bb ef d2 a7 bc 42 a2 8f bb 64 0c 5e bb
       -0.002546326 -0.020486323 -0.0043833563 -0.0033881897
000080 99 75 fc ba 23 e3 d0 3a 6d 33 13 3b 4b a1 c8 3a
       -0.0019261121 0.0015936833 0.0022461072 0.0015306858
000090 4c 3f fe 3b bc 2c 5a bc e4 18 81 bb 84 e0 2e bb
       0.0077590104 -0.01331633 -0.003939735 -0.0026684115
0000a0 aa 0e bf ba d3 3a 45 3c e1 a4 00 3d 30 39 84 3c
       -0.0014576514 0.012037951 0.03140724 0.01614055
0000b0 8c 5a f8 ba 56 02 0e 3d 72 6e 48 bc e2 6e d6 3b
       -0.0018947884 0.034670196 -0.012233363 0.00654398
0000c0 93 10 55 bd 3e 7e db 3b d9 d0 92 3c 05 8b 14 3c
       -0.05201776 0.006698399 0.017921852 0.009066348
0000d0 7e 35 29 39 c8 54 58 bb b4 9e e6 3a 3c 42 58 3b
       0.00016137023 -0.0033009518 0.0017594905 0.0032998463
0000e0 06 ab d1 3c 30 51 65 3c 10 c7 d6 3c d3 5d e7 bb
       0.025594246 0.013996407 0.026217967 -0.0070607453
0000f0 61 fc 23 3c 97 fc b3 3b 55 79 da bb 69 1b 88 3c
       0.010008902 0.0054927575 -0.006667296 0.016614633
000100 25 b6 b7 3b 2e 26 88 3a f5 56 9a 3c 01 3e 61 bb
       0.00560643 0.0010387355 0.018840292 -0.0034369233
000110 4f 86 88 3c 3e 86 30 3c e2 61 c4 ba 2b d6 bf ba
       0.016665606 0.010774193 -0.0014982785 -0.0014635971
000120 6b d7 25 3b 3e 83 c7 3b 2e f1 11 bc 7e 11 43 bc
       0.00253054 0.0060886433 -0.008907599 -0.011906026
000130 4d c4 a1 3c c1 d1 6a bc 1a 71 7d bc 40 3e 9e 3b
       0.019746924 -0.014332236 -0.01546886 0.004829198
000140 ef 39 aa 3c f5 cc 1a 3c 31 03 03 3c bd 6c 3e 3c
       0.020779578 0.00944828 0.007996366 0.011622605
000150 bf 60 1b bb 11 5b ca 3a c6 fd 40 bc 58 e1 9b bc
       -0.0023708788 0.0015438517 -0.011779254 -0.01902835
000160 dc 15 20 3d 4f cf 7a bc 7b 89 9d bc c4 1d 12 bc
       0.039083347 -0.015308215 -0.019230595 -0.0089182295
000170 f4 2e eb 3c a1 95 92 bc 44 24 d7 3a d1 f9 8f 3c
       0.028708912 -0.017893614 0.0016414006 0.017575176
000180 3e de fa bc c0 fa df 3c 96 7b 35 3b a2 85 0c ba
       -0.030623551 0.027341247 0.002769207 -0.0005360489
000190 5c 7e 0b bb ec 91 b7 3c 8c 1e 5e 3c ce 21 5a bc
       -0.0021285033 0.022408448 0.013557088 -0.013313724
0001a0 28 8e 86 bc 3f 3b 30 3c c1 55 12 3c bc 8f 3e 3c
       -0.016425207 0.010756313 0.008931578 0.011630949
0001b0 2a 94 94 3c e8 66 df 3b 79 1a 63 3c f6 63 1f bb
       0.018137056 0.0068176873 0.013861292 -0.0024321056
0001c0 ff 03 8e bb e6 09 93 3c 3e 7c 34 3c 20 e5 c1 3c
       -0.0043339725 0.017949056 0.01101595 0.023668826
0001d0 ae 74 69 3b 4a d5 da bb cc 2f 96 3c 8f 48 03 bc
       0.0035622525 -0.006678258 0.018333338 -0.008012905
0001e0 30 68 b9 b9 6c fa 05 3c b6 0a 5f 3c a8 2e 1e 3c
       -0.00035363575 0.008177381 0.0136133935 0.009654678
0001f0 0d dd 9b 3b 6a af 80 3b 0c 3e 13 bc 00 cd e2 3c
       0.004756576 0.003927161 -0.008986961 0.027685642
000200 31 e6 a1 bb ae 71 12 bd 6e 3f 00 bd c0 50 64 3b
       -0.004940771 -0.035752945 -0.03131049 0.003483817
000210 57 68 77 3c f9 f9 83 ba e5 e3 89 bc ed 0e 90 3c
       0.01510056 -0.0010069004 -0.016832301 0.017585242
000220 0f b4 94 bc de 7b 86 3c 17 1c b0 3c dd 82 33 3c
       -0.018152265 0.016416486 0.02149777 0.010956493
000230 b3 fa 53 bc f2 cd 39 bc 00 64 15 bc 51 04 10 bc
       -0.012938189 -0.011340605 -0.00911808 -0.008790092
000240 39 3f 27 bc 51 cc c0 3c 1c 9f 1c bc b0 5f 8d bc
       -0.010207945 0.023534926 -0.009559419 -0.017257541
000250 e3 a5 5e 3b 5f 0c c9 3b d9 19 f2 bb 19 d2 87 3c
       0.0033973388 0.006135508 -0.007388335 0.016579675
000260 ae bb 4d bc 34 c9 a1 3b e5 b9 c8 ba 50 93 35 bb
       -0.012556953 0.0049373154 -0.001531419 -0.0027706213
000270 9e 15 8f bc 70 e2 17 3d 66 7f 27 bc 06 78 ba 3a
       -0.017466363 0.037081182 -0.010223245 0.0014226444
000280 57 a1 e2 ba d7 16 9f 3b c7 a6 84 bc 50 88 33 3c
       -0.0017290515 0.0048550176 -0.016192807 0.010957792
000290 77 c1 41 3c 4a 0b 9f 3c 8e d5 07 3b 3b e4 03 bd
       0.011825911 0.019414563 0.0020726654 -0.03220008
0002a0 f5 41 b6 3b 40 6c 14 bc ad a1 1b 3b 50 b8 4d bb
       0.005562062 -0.009059012 0.002374749 -0.0031390376
0002b0 3e f4 e0 bb 16 45 85 bc b6 d7 a1 3c 62 a0 b4 b9
       -0.0068650534 -0.016268294 0.01975618 -0.0003445177
0002c0 0e e1 25 3c fd c9 69 3c 21 64 c7 3a f4 6b a1 bc
       0.010124458 0.014269349 0.0015212336 -0.019704796
0002d0 8f d6 9a 3b 68 14 4a bc 6b e4 d6 bc f2 4d af 3b
       0.0047252844 -0.012333967 -0.026231965 0.005349868
0002e0 d3 92 21 3c 30 39 4f bc a5 76 ba 3c 69 c5 98 bb
       0.009861666 -0.012647912 0.022761652 -0.004662205
0002f0 8d bc a7 3c ee 71 6e bc ad 76 51 3b 54 75 b4 3c
       0.02047565 -0.01455353 0.0031961605 0.022028603
000300 7e fc a1 ba bf df d3 bb 14 27 e5 bc 8a 9d 3b bc
       -0.0012358574 -0.0064658816 -0.027972735 -0.011451134
000310 82 11 20 3c 91 ab 15 3b 20 5d 8e b9 56 ff ea bb
       0.009769799 0.0022837857 -0.00027153734 -0.0071715517
000320 01 a5 6b bb 2f 88 32 3b 2b 8a 78 bc 44 b0 b2 3b
       -0.0035956504 0.0027241816 -0.015169661 0.0054531414
000330 c3 0d 90 3b dd b5 1f 3b 30 12 21 3c db 47 10 bb
       0.004396172 0.0024369874 0.009830996 -0.0022015485
000340 07 c3 00 3c d8 29 03 bb 53 9e a2 bc 89 c5 8a bb
       0.007858998 -0.0020013954 -0.019850885 -0.004234974
000350 30 ea e3 3a 67 c2 ff 3b 51 e2 11 bc a7 99 6b 3c
       0.0017388519 0.007805157 -0.008904056 0.014379895
000360 37 ae 0a 3d f4 87 0c 3c 74 5f 6c 3b 9a e1 8d 3b
       0.03385755 0.008577336 0.0036067637 0.0043298723
000370 85 55 23 3c c3 29 aa 3c 51 52 40 3b ae b9 12 bc
       0.00996912 0.020771867 0.002934594 -0.008955402
000380 d9 ea 66 3b 4a d2 c1 3b 78 a0 56 3c f8 20 36 3b
       0.0035235195 0.005914961 0.013099782 0.0027790647
000390 2b 46 16 3d 1e 09 37 bd 11 43 d1 b9 3c b9 a7 3c
       0.03668801 -0.04468643 -0.00039913555 0.020474069
0003a0 68 02 aa 3a 27 9d e2 b9 a6 b1 96 3c 18 0e 62 bc
       0.0012970688 -0.00043223167 0.018395256 -0.0137973055
0003b0 ef 39 67 bc 48 eb b8 3b c6 13 f3 3b a5 41 aa 3c
       -0.014112934 0.005643282 0.0074181287 0.020783255
0003c0 a9 3b 05 bc 6d c9 60 3c 55 74 9a 3c cd 0f 81 bc
       -0.0081319 0.013719899 0.0188543 -0.015754605
0003d0 8d 27 b2 3c a3 55 96 bc d7 fe af 3c c1 a4 b9 3c
       0.021747375 -0.018351382 0.021483822 0.022661569
0003e0 88 b1 c8 3c 16 09 3b bc 44 ce 46 3c 5e e6 a8 3b
       0.024498716 -0.0114157405 0.0121341385 0.005154415
0003f0 c3 aa fa b9 fe b9 cf 3c 10 3a 0a bc 4b 3e 2b 3c
       -0.00047810943 0.025357243 -0.008436695 0.0104518635
