results/PushBlockCollab_PPO/PushBlockCollab/PushBlockCollab-12499941.onnx (onnx, 643240 bytes, 12 tensors)

network_body.observation_encoder.processors.0.conv_layers.0.weight f4 [16, 6, 8, 8]
0	0xbc094fc0	-0.00838083
1	0xbcab3221	-0.020897927
2	0x3d80d4fb	0.06290623
3	0x3d87cb3c	0.06630561
4	0x3d8b5b48	0.0680452
5	0xbce7e94e	-0.02830949
6	0xbd17493d	-0.03693508
7	0xbc4eb538	-0.012616448
8	0x3cad6c9f	0.021169959
9	0xbdb88ab8	-0.090108335
10	0x3ca3cb40	0.019994378
11	0x3d7abacb	0.061213296
12	0x3e0f09b5	0.13968547
13	0x3db1bc87	0.08678537
14	0x3d3240e0	0.0435189
15	0xbd5a34b4	-0.053272918
16	0x3d73c96a	0.059518255
17	0xbd601dd8	-0.05471596
18	0x3cb747f0	0.02237317
19	0xbb1e500d	-0.00241566
20	0xbcbff345	-0.02343143
21	0xbd51ac57	-0.051189747
22	0xbd5c9d8b	-0.053861182
23	0xbe4539f5	-0.1926039
24	0x3bf94028	0.007606525
25	0xbd886750	-0.0666033
26	0xbe064808	-0.13113415
27	0xbd2dd0e2	-0.042435534
28	0xbd839f7a	-0.06426902
29	0xbd9959a8	-0.07487804
30	0xbd1ae3e4	-0.03781499
31	0xbe6f9b22	-0.23399022
32	0x3d024b0d	0.031809855
33	0xbd9204a6	-0.07129793
34	0xbd47e1e1	-0.0487994
35	0xbd5ac94d	-0.05341463
36	0x3c4c111b	0.01245525
37	0xbd6ebd65	-0.05828609
38	0x3ad0f247	0.0015941345
39	0xbce06718	-0.027392909
40	0xbdd88ff1	-0.1057433
41	0xbd0ece6f	-0.03486484
42	0xbd250088	-0.04028371
43	0x3d19d37f	0.037555214
44	0x3c247e48	0.010039873
45	0x3d91f238	0.07126278
46	0x3d667505	0.056263942
47	0xbd7febf7	-0.062480893
48	0xbc0dc8c3	-0.008653822
49	0x3a27bc5c	0.0006398612
50	0xbd929701	-0.07157708
51	0xbb930f0e	-0.0044878786
52	0xbcb11742	-0.021617536
53	0xbcf7e569	-0.030260758
54	0x3de10923	0.10988071
55	0xbde69a5e	-0.11259912
56	0xb86bf373	-5.6255096e-05
57	0xbd52da99	-0.051478002
58	0xbd72f085	-0.05931141
59	0x3dd5e2ee	0.10443674
60	0xbccf3870	-0.025295466
61	0xbccc6a48	-0.024953023
62	0xbd3b9371	-0.045794908
63	0xbe7ecb96	-0.2488235
64	0xbdbb8a83	-0.091572784
65	0xbcb0cd58	-0.02158229
66	0xbdb539c6	-0.0884891
67	0xbde8aa49	-0.11360604
68	0xbd3ec8ca	-0.046578206
69	0x3e07692f	0.13223718
70	0xbc47246b	-0.012154679
71	0xbaac350f	-0.0013138371
72	0xbd75c8dd	-0.06000601
73	0xbdd9788a	-0.10618694
74	0xbdf6e4e7	-0.120553784
75	0xbd2a782a	-0.041618504
76	0xbdaed349	-0.08536393
77	0x3e0f785d	0.14010759
78	0x3e1963d4	0.14979488
79	0x3cd422b8	0.025895461
80	0xbbb8003f	-0.0056152637
81	0xbd0d11bc	-0.03444074
82	0x3cdd1d69	0.026991563
83	0x3bcf7c96	0.0063319905
84	0x3d80bd34	0.06286088
85	0xbd8668c3	-0.065629505
86	0x3e50538c	0.2034437
87	0xbda37968	-0.07982141
88	0xbcf97c36	-0.030454736
89	0xbc5e5df5	-0.013572206
90	0x397fdfa3	0.00024402006
91	0x3dcb5ff1	0.09930409
92	0x3db9739d	0.090552546
93	0xbc9daa97	-0.019246383
94	0xbe0171ba	-0.1264104
95	0xbe4e0ef9	-0.20122899
96	0xbe089c92	-0.13340977
97	0x3ce0b5d9	0.027430462
98	0xbde7b603	-0.11314013
99	0xbd046f20	-0.03233254
100	0x3d47480d	0.048652697
101	0xbe169d96	-0.14708552
102	0xbbe2e6a3	-0.0069244667
103	0xbd74cf59	-0.059768055
104	0x3caf14ca	0.021372218
105	0x3d75a887	0.059975173
106	0x3c93640a	0.017992038
107	0x3c73391b	0.014845158
108	0xbd0ebaa2	-0.034845956
109	0xbdad3513	-0.08457389
110	0xbe0c5bde	-0.1370692
111	0x3ce1ba3d	0.027554626
112	0xbdb450ec	-0.08804497
113	0x3d023859	0.03179202
114	0xbda225f7	-0.079173975
115	0x3d163c62	0.03667868
116	0xbdc2ed49	-0.09517915
117	0xbda76a9e	-0.081746325
118	0xbe0f7f48	-0.14013398
119	0xbc0a7814	-0.00845148
120	0xbdf081d8	-0.11743516
121	0x3d002b11	0.03129107
122	0x3b33ab0e	0.002741519
123	0x3e05afdf	0.13055371
124	0x3d0ad9e3	0.0338992
125	0x3d8c550b	0.06852158
126	0xbe1e60b3	-0.15466575
127	0xbdeeab06	-0.11653714
128	0x3d94f1f6	0.07272713
129	0x3cffe71c	0.031238131
130	0xbd332d0b	-0.04374413
131	0xbc46834b	-0.012116264
132	0xbb783ef1	-0.0037879313
133	0xbdbb5d40	-0.091486454
134	0xbd3aab73	-0.045573663
135	0xbba6f489	-0.005095069
136	0xbd9e0bc3	-0.07717087
137	0x3d1b0e9c	0.03785573
138	0x3d0a6b5e	0.0337938
139	0xbc5906da	-0.013246262
140	0x394836e6	0.00019093938
141	0xbdeb5c89	-0.11492259
142	0xbd691d73	-0.05691285
143	0x3ca149bf	0.019688485
144	0x3bf9503e	0.0076084426
145	0x3cef05be	0.029177543
146	0xbd0caa39	-0.034342024
147	0x3b4b8716	0.003105586
148	0x3ccaf339	0.02477418
149	0x3c699211	0.014256016
150	0xbd887f7c	-0.06664941
151	0x3c5f9e04	0.013648514
152	0xbc7f1837	-0.015569738
153	0xbc33cfc9	-0.010974833
154	0x3d8d2b3c	0.06893012
155	0xbc9214ea	-0.017832238
156	0xbd830d4e	-0.06399022
157	0x3bee6498	0.0072751753
158	0x3bee7eaa	0.007278283
159	0x3c1532f7	0.009106389
160	0x3c16599e	0.00917664
161	0x3dd8c7a0	0.105849504
162	0x3bd1059d	0.006378843
163	0xbba760a6	-0.005107957
164	0x3ce5829e	0.028016385
165	0xbc5ede46	-0.013602799
166	0xbb4f986b	-0.0031676542
167	0xbc267377	-0.010159365
168	0x3cb95c5e	0.022627052
169	0x3d9c27ff	0.07624816
170	0xbd225907	-0.039635684
171	0xbc800490	-0.015627176
172	0xbd11e27b	-0.03561638
173	0xbc99d45a	-0.018778015
174	0xbd3e8698	-0.046515077
175	0xbd578eb2	-0.05262632
176	0xbd1c5da9	-0.03817526
177	0xbd33f1c7	-0.04393175
178	0x3bb14688	0.0054100193
179	0xb7d5da43	-2.5493215e-05
180	0xbb5eac87	-0.0033977346
181	0xbd252138	-0.040314883
182	0xbd36039e	-0.044437043
183	0x3c8e5944	0.01737655
184	0xbbe1c348	-0.0068897344
185	0x3d65a56e	0.05606597
186	0x3c50581f	0.012716322
187	0xbd4cf106	-0.050034545
188	0x3d3396b1	0.043844882
189	0x3bf11178	0.0073568188
190	0xbcccc977	-0.02499841
191	0xbd3e0cdf	-0.046398994
192	0xbc9fb299	-0.019494342
193	0xbe01fa8d	-0.12693234
194	0xbd7256f8	-0.05916497
195	0x3d06c615	0.03290375
196	0xbd192476	-0.037388287
197	0x3d1d2b22	0.038371213
198	0x3d260b52	0.04053814
199	0xbc76f4a9	-0.01507298
200	0x3d4a6019	0.049408052
201	0xbde0461b	-0.109508716
202	0xbd101b56	-0.03518232
203	0xbdc8c4af	-0.098031394
204	0xbc4bdf3a	-0.012443358
205	0x3c8e1b3e	0.017346974
206	0xbd5b2b3c	-0.05350803
207	0xbcf9cead	-0.030494059
208	0x3df22efc	0.11825368
209	0xbd9b125c	-0.07571861
210	0xbb13b108	-0.0022535939
211	0x3db13742	0.08653118
212	0x3e2a2375	0.16615088
213	0x3d076a98	0.03306064
214	0xbd950589	-0.07276446
215	0x3e018652	0.12648895
216	0xbc80ffca	-0.01574697
217	0xbcec08cf	-0.028812794
218	0x3d5de715	0.054175455
219	0xbd02400d	-0.031799365
220	0xbc1bde62	-0.009513469
221	0x3d0a660a	0.03378872
222	0xbddf7528	-0.10911018
223	0x3da0db82	0.07854368
224	0x3c2542e0	0.010086745
225	0x3cfd5a27	0.030926777
226	0x3c227bb2	0.009917187
227	0x3dc24024	0.0948489
228	0x3e2104b3	0.15724449
229	0xbda77c2c	-0.08177981
230	0x3c788d50	0.01517041
231	0x3cce3bb0	0.025174946
232	0xbcbcfb3d	-0.023069018
233	0x3c64f0e2	0.013973447
234	0x3dff6b70	0.12471664
235	0x3ccfb358	0.025354072
236	0x3de8240e	0.11335002
237	0xbc1b7767	-0.009488917
238	0xbd538555	-0.051640827
239	0x3da597c4	0.080855876
240	0x3d65064d	0.055914212
241	0xbd1ce70d	-0.038306285
242	0x3dcd2a82	0.10017873
243	0x3c6e4a74	0.014544118
244	0x3e2bea36	0.16788563
245	0x3e14beff	0.14525984
246	0x3af0029c	0.0018311325
247	0xbd53cd25	-0.051709313
248	0x3cb5111c	0.022102885
249	0xbd5c1ea6	-0.053740166
250	0x3d44f0c3	0.04808117
251	0x3db91aee	0.090383396
252	0x3e3c58d9	0.18393268
253	0x3de0d5d2	0.10978283
254	0x3cea9aab	0.028638205
255	0x3df2cd76	0.11855595

network_body.observation_encoder.processors.0.conv_layers.0.bias f4 [16]
0	0xbddf5129	-0.10904152
1	0xbd05a024	-0.032623425
2	0xbcf41631	-0.029795738
3	0xbd85426d	-0.0650681
4	0xbc77c615	-0.01512291
5	0x3d895b3d	0.067068554
6	0xbd418ef6	-0.04725548
7	0xbc8691ea	-0.016427
8	0x3d64bac8	0.05584219
9	0xbce7fe99	-0.028319644
10	0xbd8e84e7	-0.06958943
11	0xbaf7bffd	-0.0018901821
12	0xbd28f5a2	-0.04124988
13	0xbcc20442	-0.02368367
14	0xbd48f0c9	-0.049057756
15	0xbd866db5	-0.06563894

network_body.observation_encoder.processors.0.conv_layers.2.weight f4 [32, 16, 4, 4]
0	0x3cd0f37a	0.025506724
1	0xbd50d1ad	-0.050981212
2	0x3d6ae443	0.057346594
3	0x3db9623c	0.0905194
4	0xbdbc13af	-0.09183442
5	0xbb9dfcf0	-0.0048214123
6	0x3de58d82	0.11208631
7	0xbc098ced	-0.008395416
8	0x3e31e342	0.17371848
9	0xbcda072a	-0.026614744
10	0x3ce94fae	0.028480377
11	0x398d959d	0.00027005086
12	0x3c488957	0.012239776
13	0x3dcc6c66	0.09981613
14	0xbcc726ba	-0.024310458
15	0xbda10d85	-0.07863907
16	0xbc28311d	-0.010265616
17	0xbe30fb3e	-0.17283341
18	0xbe1ece1d	-0.15508313
19	0x3de28815	0.11061112
20	0x3d90fa96	0.070790455
21	0xbd5407b4	-0.05176516
22	0xbdbbc926	-0.091692254
23	0xbddfc429	-0.109260865
24	0x3d40ae9f	0.04704153
25	0xbcc33ba3	-0.023832148
26	0xbcc6c59d	-0.024264151
27	0x3d5ff41b	0.054676156
28	0x3da514ce	0.08060609
29	0x3d19a2af	0.037508663
30	0x3c89117a	0.016731966
31	0x3ca5e724	0.020251818
32	0x3da99f48	0.082823336
33	0xbc85edc4	-0.016348727
34	0xbe3d1d00	-0.18468094
35	0xbd749ffe	-0.059722893
36	0x3dc309d6	0.095233604
37	0x3b5b8005	0.0033493054
38	0xbc86dbba	-0.016462196
39	0xbdfa42e6	-0.12219791
40	0x3d8d3a07	0.068958335
41	0x3d2d4e87	0.042311218
42	0xbe12ec49	-0.14347948
43	0xbb946958	-0.0045291595
44	0x3e2ae1eb	0.16687743
45	0xbc6ab47d	-0.014325258
46	0xbd576260	-0.052584052
47	0x3d514153	0.05108769
48	0xbdb81ee1	-0.08990265
49	0x3d10d7d8	0.035362095
50	0xb9a7789d	-0.00031942586
51	0xbe0a414a	-0.13501468
52	0x3e0107ee	0.12600681
53	0xbde274f4	-0.11057463
54	0xbd2ebd4f	-0.042661007
55	0xbdcb7e88	-0.09936243
56	0x3dbc993c	0.09208915
57	0x3ca2fc91	0.019895824
58	0x3ccf04fe	0.025270935
59	0x3c1c46a7	0.009538329
60	0x3d5db424	0.054126874
61	0xbc9ab9af	-0.018887369
62	0x3d876bb2	0.06612338
63	0xbc128eb0	-0.008945152
64	0x3c6119c6	0.013739055
65	0xbcf7ee56	-0.030265015
66	0x3d1fb12a	0.038987316
67	0xbdbbaa92	-0.09163393
68	0xbd66d37e	-0.05635404
69	0xbd02bef0	-0.031920373
70	0xbd4767fb	-0.048683148
71	0x3ac10d9e	0.001472879
72	0x3dcb5d00	0.09929848
73	0xbcf5024d	-0.029908324
74	0x3d993a44	0.074818164
75	0xbe2d146d	-0.16902323
76	0x3da6accb	0.081384264
77	0x3cdafe3d	0.026732558
78	0x3c9cef68	0.019157127
79	0x3e094798	0.13406217
80	0x3d970315	0.07373635
81	0xbd3f2417	-0.046665277
82	0xbd635bbf	-0.055507418
83	0xbdb6377c	-0.088973016
84	0x3dd2887b	0.10279938
85	0xbd9ce415	-0.07660691
86	0xbe1c28d8	-0.15249956
87	0x3c2a786b	0.010404686
88	0x3df1a9f5	0.11799995
89	0xbd94b948	-0.07261902
90	0xbdc28c57	-0.09499424
91	0xbd800616	-0.06251161
92	0xbc946774	-0.018115737
93	0x3d575290	0.052568972
94	0x3ccf9946	0.025341641
95	0x3d4dee3e	0.050276034
96	0x3d1ac0a0	0.037781358
97	0x3c11ec07	0.008906371
98	0x3d2dc47d	0.042423714
99	0x3d72c72b	0.059271973
100	0xbd99dd69	-0.07512934
101	0xbcac16c3	-0.021006947
102	0xbe3ea702	-0.18618396
103	0xbd5c529d	-0.053789724
104	0x3daa9bcb	0.083304964
105	0xb77444ac	-1.4559522e-05
106	0x3d418a58	0.047251076
107	0xbda0f3fd	-0.07859037
108	0x3e22e160	0.15906286
109	0x3ceab7a2	0.028652016
110	0xbd3be538	-0.045872897
111	0xbd1d6284	-0.03842403
112	0x3bc87655	0.006117622
113	0xbdaf7e95	-0.085690655
114	0xbd988da3	-0.0744889
115	0xbd2af04b	-0.041733067
116	0xbcf461c5	-0.029831776
117	0xbdc76173	-0.09735384
118	0xbddb5b0d	-0.10710726
119	0xbd812230	-0.06305349
120	0x3e08b662	0.13350824
121	0x3d166a6e	0.036722593
122	0xbd31d4e7	-0.04341593
123	0x3c81fa5b	0.01586645
124	0xbc896774	-0.016772963
125	0x3d81d76a	0.06339915
126	0xbcbe6b60	-0.02324456
127	0x3dcbe5c8	0.09955937
128	0x3d782bc5	0.060588617
129	0xbccdd64b	-0.025126597
130	0xbdac15b8	-0.0840258
131	0xbd8be06d	-0.06829915
132	0xbdb110e2	-0.08645798
133	0xbd2a6bc2	-0.041606672
134	0xbd84ce5c	-0.064846724
135	0x3c1245df	0.008927791
136	0xbdf7f3a5	-0.121070184
137	0x3d40b9f7	0.04705235
138	0x3d94542b	0.07242616
139	0xbcebe20a	-0.028794307
140	0x3de5367e	0.11192034
141	0xbe078fa5	-0.1323839
142	0xbc8d8d95	-0.017279426
143	0x3d94be60	0.07262874
144	0xbdaf93ba	-0.085730985
145	0x3da4264e	0.080151185
146	0x3c37ddfc	0.011222359
147	0x3cd993d3	0.026559746
148	0xbd9a061e	-0.07520698
149	0xbcad1372	-0.021127436
150	0xbbcb2ba4	-0.0062002707
151	0xbb0b79a5	-0.0021282223
152	0x3d907d3f	0.07055139
153	0x3dbaae68	0.091152966
154	0xbd652e05	-0.05595209
155	0xbcb723c3	-0.02235592
156	0xbd72595d	-0.059167255
157	0xbcf6725c	-0.030083828
158	0xbd6c8f10	-0.057753623
159	0x3bbf6a18	0.005841505
160	0xbd843b52	-0.06456627
161	0xbe031244	-0.12799937
162	0xbcc42631	-0.023943992
163	0xbd51b039	-0.05119345
164	0x3dcdafe8	0.10043317
165	0x3d6bbd7f	0.057553764
166	0xbc5e99d7	-0.013586483
167	0xbdc38efc	-0.095487565
168	0x3c873c5c	0.016508274
169	0x3d98f425	0.07468442
170	0xbce25a51	-0.027630957
171	0xbcf652ac	-0.030068718
172	0x3ca791bd	0.020455236
173	0x3c88b21e	0.016686495
174	0xbbbd65ce	-0.0057799583
175	0xbcf47b5e	-0.029843982
176	0x3cdb8293	0.026795661
177	0xbd90aa1c	-0.07063696
178	0xbda75c40	-0.08171892
179	0xbdf57cb4	-0.11986676
180	0xbd522e9d	-0.051313985
181	0xbda96a5c	-0.082722396
182	0x3c4cfc61	0.012511344
183	0xbcb7c88f	-0.022434501
184	0x3d269ce1	0.040676955
185	0xbe19dc3e	-0.15025422
186	0xbd0d0292	-0.03442628
187	0xbdbb6e15	-0.09151856
188	0x3d9f2575	0.07770816
189	0x3da96cce	0.08272706
190	0x3d76d014	0.060257033
191	0x3c2b8364	0.010468338
192	0xbc913b3d	-0.017728442
193	0xbd8ef94c	-0.06981143
194	0xbd07c3b7	-0.033145633
195	0x3d880bae	0.06642853
196	0xbc812031	-0.01576242
197	0xbd8c36f6	-0.068464205
198	0x3d823209	0.063572
199	0x3c627bd9	0.013823473
200	0x3e30b5fd	0.17256923
201	0xbcffad5a	-0.03121059
202	0xbd857dfb	-0.065181695
203	0xbdbb8130	-0.091555
204	0x3e18fcf1	0.1494024
205	0x3dbe6031	0.09295691
206	0x3b8102cc	0.003937101
207	0xbd9f55ea	-0.07780059
208	0xbe3da159	-0.1851858
209	0x3d0520b2	0.032501884
210	0xbd02860a	-0.03186611
211	0xbd003ba9	-0.031306896
212	0xbc814926	-0.01578195
213	0x3d4b7c0b	0.049678843
214	0xbc7599f7	-0.014990321
215	0xba735d16	-0.0009283585
216	0x3da87922	0.08226229
217	0xbc5c714a	-0.013454745
218	0xbd304522	-0.04303468
219	0x3d2fc21c	0.042909727
220	0x3ca45354	0.020059265
221	0x3c9825bb	0.018572679
222	0x3cc41592	0.023936067
223	0x3d8c6708	0.06855589
224	0x3e0642d7	0.13111435
225	0x3d221a97	0.03957614
226	0x3d779fa8	0.060454994
227	0xbdfe1ad3	-0.1240746
228	0x3ded03f0	0.11573017
229	0x3cbf1aba	0.023328174
230	0xbcb603d4	-0.022218622
231	0xbd44572e	-0.047934704
232	0x3d5bc713	0.05365665
233	0x3d9716ca	0.073773935
234	0x3c11b7a7	0.008893884
235	0xbdddeaf7	-0.108358316
236	0x3df81d3c	0.12114951
237	0x3d00d0c7	0.031449106
238	0xbd5f39fa	-0.05449865
239	0xbe2e0fb9	-0.16998185
240	0x3d27a9af	0.040933307
241	0x3cd8394e	0.026394513
242	0xbde16d4a	-0.11007173
243	0xbd0940b6	-0.03350898
244	0x3db5a61c	0.088695735
245	0x3b2879d3	0.0025707379
246	0xbdedc417	-0.11609667
247	0xbcd08ee1	-0.025458755
248	0x3c9b39be	0.018948432
249	0xbdbae2dc	-0.09125301
250	0xbcc5ebd8	-0.02416031
251	0xbc55a85d	-0.013040629
252	0x3d4d7702	0.050162323
253	0x3aeb1980	0.0017936677
254	0x3c2adeff	0.010429143
255	0x3dbca0bb	0.092103444

network_body.observation_encoder.processors.0.conv_layers.2.bias f4 [32]
0	0xbd387da1	-0.045041684
1	0x3d9d41c0	0.076785564
2	0x3da5c578	0.08094305
3	0xbd67e844	-0.05661799
4	0xbd234a7e	-0.039865963
5	0xbd199514	-0.037495688
6	0xbc2e8ec1	-0.010654152
7	0x3c407c4e	0.011748387
8	0xbd3f6b95	-0.046733458
9	0xbc51ea4c	-0.012812208
10	0xbd860b6a	-0.06545146
11	0x3cf77dcd	0.030211354
12	0x3d142ce3	0.03617562
13	0x3d0de68b	0.03464369
14	0xbca1ccbd	-0.019750947
15	0xbd8a7801	-0.0676117
16	0xbcef37ac	-0.029201351
17	0xbd038197	-0.03210601
18	0x3d93fc70	0.07225883
19	0x3d22a2b1	0.039705936
20	0xbbc48400	-0.005997181
21	0x3d0175c3	0.031606447
22	0x3cb1d130	0.021706194
23	0x3d91dc71	0.07122124
24	0x3d871746	0.06596236
25	0x3d92c716	0.07166879
26	0x3d359c40	0.044338465
27	0xbcb1a567	-0.021685315
28	0x3a579039	0.000822309
29	0xbd59ca5b	-0.053171497
30	0xbce34b44	-0.02774585
31	0x3d2b8b3c	0.04188083

network_body.observation_encoder.processors.0.dense.0.weight f4 [256, 32]
0	0x3ccd613a	0.025070775
1	0x3e9cdfef	0.30639598
2	0x3ebffff9	0.3749998
3	0x3ec80a4f	0.39070365
4	0xbd928e5d	-0.0715606
5	0xbe5df502	-0.21675494
6	0x3c6877e5	0.014188741
7	0xbda30315	-0.07959572
8	0x3edfccee	0.43711036
9	0x3eb5cedd	0.35509387
10	0xbd9261ec	-0.07147583
11	0xbebe41af	-0.37159488
12	0x3e1a35b3	0.15059547
13	0xbe548956	-0.20755515
14	0x3e02305e	0.12713763
15	0xbeae7246	-0.3407156
16	0xbe751d7a	-0.23937026
17	0xbbf9936a	-0.00761645
18	0x3e279504	0.16365439
19	0xbd1a3ddf	-0.03765666
20	0xbec42837	-0.38311931
21	0xbe1b607c	-0.15173525
22	0x3e92e89a	0.28693086
23	0xbe0db2d2	-0.13837746
24	0x3e2bc50f	0.1677439
25	0x3e8b3908	0.2719195
26	0x3e8b92bb	0.27260384
27	0xbe7f4828	-0.24929869
28	0xbc29db77	-0.010367266
29	0xbe29d861	-0.16586448
30	0xbc974034	-0.018463232
31	0x3eec4c23	0.46151838
32	0xbedcd84c	-0.4313377
33	0xbcb19ad3	-0.021680271
34	0xbdb79d9c	-0.089656085
35	0x3d4b568d	0.049643088
36	0xbe0c4f89	-0.13702215
37	0x3d9859ea	0.07439025
38	0x3e880213	0.26564083
39	0x3e6d46d5	0.23171552
40	0x3d8d2f21	0.06893755
41	0xbdcf3bd3	-0.101188324
42	0xbe8bea11	-0.27327016
43	0x3c991b10	0.018689662
44	0xbbc21d17	-0.005923878
45	0xbdacc16d	-0.084353305
46	0xbbdd3c48	-0.006751571
47	0x3ebb7f34	0.36620486
48	0x3eae703d	0.34070006
49	0x3e061b01	0.13096239
50	0xbc276132	-0.010216044
51	0xbbabb9db	-0.0052406616
52	0xbecb9f78	-0.39770103
53	0x3cbafef1	0.022826644
54	0xbea788b3	-0.3272148
55	0x3eb4783b	0.3524798
56	0xbe846e7b	-0.2586554
57	0x3de17bb7	0.11009925
58	0xbe8ee891	-0.2791181
59	0xbe052fb7	-0.13006483
60	0x3e8d7c38	0.27633834
61	0x3eab2a6c	0.33430803
62	0x3f0246cd	0.50889283
63	0x3d7918b2	0.060814567
64	0x3dfc3352	0.12314476
65	0xbe224d04	-0.15849692
66	0x3d4d1725	0.0500709
67	0xbe463d6d	-0.1935937
68	0xbdbd0268	-0.092289746
69	0xbe062baa	-0.13102594
70	0x3e9d5895	0.30731645
71	0xbcabb0e7	-0.020958377
72	0x3dbc2e72	0.09188546
73	0xbcb341dc	-0.02188199
74	0xbdae01f6	-0.08496468
75	0xbdc414cf	-0.095742814
76	0xbeab0594	-0.33402693
77	0xbd4e8cc2	-0.050427206
78	0xbc841fe3	-0.016128486
79	0x3d22c826	0.039741658
80	0x3f03862e	0.51376617
81	0xbe1eb4b2	-0.15498617
82	0x3f1a2ddc	0.60226226
83	0x3e16ac24	0.14714104
84	0xbd28810a	-0.041138686
85	0xbdfbaf99	-0.12289352
86	0xbe5d147e	-0.21589848
87	0x3d562cca	0.052288808
88	0xbeb167f2	-0.34649616
89	0x3e3754e5	0.17903478
90	0xbeb18a2d	-0.34675732
91	0xbe2aa3a0	-0.1666398
92	0x3ed0365a	0.40666467
93	0x3e5de53d	0.21669479
94	0x3d243baf	0.04009598
95	0x3b9b3c1d	0.0047373907
96	0xbd41ee8d	-0.04734664
97	0x3eb44e85	0.35216156
98	0xbef32bd7	-0.47494385
99	0xbe11e36c	-0.14246911
100	0xbeb60ec2	-0.35558134
101	0x3dc399be	0.09550808
102	0xbeb53fc0	-0.354002
103	0x3eb53e70	0.353992
104	0xbe486652	-0.19570282
105	0xbd603e3f	-0.054746863
106	0xbdefc6e3	-0.117078565
107	0xbddffdb9	-0.10937066
108	0xbe2ed173	-0.17072086
109	0xbe1abc4b	-0.1511089
110	0xbaa82149	-0.0012827303
111	0xbd2028fa	-0.03910158
112	0x3efc220c	0.49244726
113	0xbdf37691	-0.11887849
114	0x3ec0187d	0.37518683
115	0x3d9eb318	0.07749003
116	0x3c67c309	0.014145621
117	0xbecb541c	-0.39712608
118	0xbe531ca0	-0.20616388
119	0x3e82833a	0.25490743
120	0x3ec4e41a	0.38455278
121	0xbd63ee5a	-0.05564723
122	0xbebee124	-0.37281144
123	0xbe4b2e78	-0.19841945
124	0x3eccbfce	0.39990085
125	0xbc68d675	-0.014211287
126	0xbe0ebbb4	-0.1393879
127	0x3e861729	0.26189545
128	0x3ee42cbf	0.4456539
129	0xbe9ec6a7	-0.31010935
130	0xbd9d53a0	-0.07681966
131	0xbe4ab5d9	-0.19795932
132	0x3e34afca	0.17645183
133	0x3e09aba9	0.1344439
134	0xbdcb2e94	-0.099209934
135	0xbed0f689	-0.4081309
136	0xbeb57177	-0.3543813
137	0x3ca4e593	0.020129
138	0x3df47c7d	0.11937807
139	0xbe343bcc	-0.17600936
140	0xbe8392ca	-0.2569793
141	0xbe70247e	-0.2345142
142	0xbf19fbea	-0.60150015
143	0x3f18830d	0.5957497
144	0xbda359ec	-0.079761356
145	0xbe488eee	-0.19585773
146	0xbd80af55	-0.06283442
147	0x3f0afd3b	0.5429265
148	0xbe3b7ca3	-0.18309264
149	0x3dcfa5ef	0.10139071
150	0x3e0bfb40	0.13670063
151	0x3e7c017f	0.24609946
152	0x3e9c1e49	0.30491856
153	0xbda697a0	-0.08134389
154	0xbe8930e1	-0.26795104
155	0x3cec6c2e	0.028860178
156	0x3ea49747	0.32146665
157	0x3dc17fba	0.0944819
158	0xbeae6bbc	-0.3406657
159	0xbdd77856	-0.10520999
160	0xbec770ef	-0.3895335
161	0x3eabec87	0.33578894
162	0xbe14bcf1	-0.145252
163	0xbe3a2328	-0.18177474
164	0xbe06b5f8	-0.13155353
165	0x3da25ad9	0.07927484
166	0xbea5c9b4	-0.3238045
167	0x3e5684b4	0.2094906
168	0x3d5268ce	0.05136948
169	0xbd8b1016	-0.067901775
170	0x3e4c10c3	0.19928269
171	0x3cc7a0d7	0.024368687
172	0xbef55e56	-0.47923535
173	0xbec916a7	-0.39275095
174	0xbdf45f0c	-0.11932191
175	0xbcfbc478	-0.030733332
176	0x3e27f63c	0.16402525
177	0x3dd0aa0b	0.10188683
178	0x3e833338	0.25625014
179	0x3a7812ef	0.00094632705
180	0x3e5c9261	0.21540214
181	0xbe2e1f4f	-0.17004131
182	0xbedb884d	-0.42877427
183	0xbdada8f7	-0.08479493
184	0x3dee87cf	0.11646997
185	0x3e9e82ff	0.30959317
186	0xbe4d1f3d	-0.20031448
187	0xbe88c19a	-0.26710206
188	0x3e1abc3c	0.15110868
189	0x3d5f8e54	0.054579094
190	0x3e544f41	0.20733358
191	0xbd6ffc99	-0.058590505
192	0x3daa04b4	0.08301678
193	0xbc381864	-0.011236284
194	0x3e8f3ba0	0.27975178
195	0xbc1bdafd	-0.00951266
196	0xbecb1f3d	-0.3967227
197	0xbdaf15ed	-0.08549104
198	0xbe452761	-0.19253303
199	0x3dcd534d	0.10025654
200	0xbea10fb9	-0.31457308
201	0xbe9870be	-0.29773515
202	0x3d6b2cd7	0.05741581
203	0x3dace836	0.08442728
204	0xbf11579c	-0.56774306
205	0xbd9d2b02	-0.07674219
206	0x3e20d905	0.15707786
207	0x3c9b31a6	0.018944573
208	0x3f409b3c	0.7523687
209	0x3da70c77	0.08156674
210	0x3e457a20	0.19284868
211	0x3c9dfc38	0.019285306
212	0x3bf2ae02	0.0074059973
213	0xbe361755	-0.17782338
214	0xbe7eb80b	-0.24874894
215	0xbe2bd317	-0.16779743
216	0x3ee32006	0.4436037
217	0xbe560030	-0.20898509
218	0x3bc1e8d0	0.005917646
219	0x3bf718fd	0.0075408206
220	0x3e1440d1	0.1447785
221	0xbd65fcce	-0.056149296
222	0x3dcf4721	0.10120989
223	0xbd0b472a	-0.034003414
224	0xbd8b6e79	-0.0680818
225	0xbe75f894	-0.24020606
226	0xbe7a25f4	-0.2442854
227	0x3e9efe9c	0.31053627
228	0xbe7ee494	-0.24891883
229	0x3ea89750	0.32927942
230	0x3ee5da50	0.44893122
231	0xbe06f9c3	-0.13181214
232	0x3d92b92d	0.07164226
233	0xbe97417a	-0.29542142
234	0x3d913363	0.07089879
235	0xbe01da03	-0.12680821
236	0x3bb31880	0.005465567
237	0x3d7681ee	0.060182504
238	0x3ef34da7	0.47520182
239	0x3da92682	0.08259298
240	0x3deecc80	0.11660099
241	0xbe85f38b	-0.2616237
242	0xbec5b284	-0.3861276
243	0x3e91f71c	0.28508842
244	0x3d771d14	0.060330465
245	0x3ec77350	0.38955164
246	0xbe38a0a5	-0.18030031
247	0x3e1087e3	0.14114337
248	0x3e9ac8ab	0.30231223
249	0x3ea10505	0.31449142
250	0xbe6a46fe	-0.22878644
251	0xbecf08eb	-0.4043649
252	0x3ec70def	0.38877818
253	0xbe3cea9c	-0.18448871
254	0x3e07d79c	0.13265842
255	0xbdb8c81d	-0.090225436

network_body.observation_encoder.processors.0.dense.0.bias f4 [256]
0	0x3b111696	0.0022138706
1	0x3d7607d6	0.060066067
2	0x3da74c04	0.08168796
3	0x3d2beb18	0.04197225
4	0x3d88c670	0.06678474
5	0x3d90fcec	0.07079491
6	0x3dac7f52	0.08422722
7	0xbcf24de1	-0.029578151
8	0x3cbfc771	0.02341053
9	0x3d3b8858	0.045784324
10	0x3d03a304	0.032137886
11	0x3c2d9077	0.010593525
12	0xbd200235	-0.039064605
13	0x3db4ccde	0.08828138
14	0xbdabcc6f	-0.08388602
15	0x3bf4fc03	0.007476331
16	0x3d856dc8	0.0651508
17	0xbda12f48	-0.07870346
18	0xbd006634	-0.03134747
19	0xbcd48d1e	-0.025946196
20	0x3db057e0	0.08610511
21	0x3dac7053	0.08419862
22	0x3d06de2f	0.032926735
23	0x3d23259b	0.039830785
24	0x3d1d5149	0.038407598
25	0xbaea108e	-0.0017857717
26	0x3da2f23a	0.07956357
27	0x3e234a7e	0.15946385
28	0x3ca67ab2	0.020322178
29	0x3b43d8c4	0.002988384
30	0x3d7c197f	0.061547752
31	0x3c498a3e	0.012301026
32	0x3c91c555	0.01779429
33	0x3da6ee6f	0.08150946
34	0x3b631cda	0.0034654648
35	0x3c1d3b73	0.009596693
36	0xbdce19b1	-0.10063494
37	0x3cbc74c3	0.023004895
38	0xbd626d0f	-0.055279788
39	0xbbc8e146	-0.0061303703
40	0xbbb8a9ce	-0.0056354767
41	0x3d6014a0	0.05470717
42	0x3cb11947	0.021618498
43	0xbc4b2367	-0.012398577
44	0x3d5a41fe	0.05328559
45	0xbd089711	-0.033347193
46	0x3dd494c4	0.10379937
47	0x3ddbffc9	0.107421465
48	0xbca28386	-0.019838106
49	0xbcb106bf	-0.021609662
50	0x3cfbe231	0.030747505
51	0x3d1f9193	0.03895719
52	0x3d08117e	0.033219807
53	0x3d4df4e0	0.05028236
54	0xbce1e003	-0.027572637
55	0xbd625f3d	-0.055266608
56	0xbad6a3d3	-0.0016375728
57	0x3d9c31fa	0.0762672
58	0x3c74285d	0.0149022015
59	0x3d978470	0.07398307
60	0x3da4af5b	0.08041259
61	0xbba2540d	-0.0049538673
62	0x3ca0f178	0.019646391
63	0x3caaa9a0	0.020832837
64	0x3d90b72b	0.070661865
65	0xbc0b97af	-0.008520051
66	0x3d123d06	0.035702728
67	0x3cc105e4	0.02356238
68	0x3c93fdf3	0.018065428
69	0x3d12bab5	0.03582259
70	0x3dacd6c0	0.08439398
71	0xbd96515d	-0.073397376
72	0x3d7cff45	0.06176688
73	0x3d1de797	0.03855094
74	0x3ca3e471	0.02000639
75	0x3cc04672	0.023471091
76	0xbd217009	-0.039413486
77	0xbb96976f	-0.004595689
78	0x3cee5f74	0.02909825
79	0xbd9cd979	-0.07658667
80	0x3c39192d	0.011297506
81	0x3d9b1318	0.07572001
82	0x3d5a2882	0.053261288
83	0xbd8790a4	-0.06619385
84	0xbb283dbe	-0.0025671567
85	0xbd5d0fec	-0.053970262
86	0xbc0082a7	-0.00784365
87	0x3ca70f01	0.020392897
88	0x3c839a7d	0.016064877
89	0xbc143454	-0.009045679
90	0xbd5579ae	-0.052117996
91	0xbcac86e4	-0.021060415
92	0x3cd67c70	0.026182383
93	0x3d12e8c2	0.035866506
94	0xbdd8e763	-0.105910085
95	0xbbc3dbb5	-0.005977119
96	0x3d2f8d85	0.042859573
97	0x3d7dedf7	0.06199452
98	0x3dcf9b02	0.10136987
99	0x3dd4873f	0.10377359
100	0x3ca85fa7	0.020553423
101	0x3d6c5418	0.057697386
102	0xbb556eca	-0.0032567256
103	0x3cc16d74	0.023611762
104	0xbcc6b5af	-0.024256555
105	0x3ca6b72c	0.020351015
106	0x3db9bbaf	0.09069001
107	0xbcba07c9	-0.02270879
108	0x3d92c146	0.0716577
109	0x3d5b83cd	0.053592492
110	0x3bfe9d62	0.0077702263
111	0x3d6682eb	0.056277197
112	0x3cbb923a	0.022896875
113	0x3c7f0867	0.015565968
114	0x3d8cd82c	0.06877169
115	0x3dac8501	0.08423806
116	0xbb455671	-0.0030111338
117	0x3df8b3e8	0.121436894
118	0x3d3d7c1e	0.046260945
119	0xbd47477b	-0.048652153
120	0xbc69fc58	-0.014281355
121	0xbbabcb56	-0.0052427454
122	0x3db39e47	0.087704234
123	0x3ce8e481	0.028429272
124	0x3b83ef4a	0.004026328
125	0xbb5d857e	-0.0033801491
126	0xbc54ae5d	-0.012981025
127	0xbcab35fa	-0.020899761
128	0xbc18da86	-0.009329444
129	0x3b193fd9	0.0023384003
130	0x3dc1b082	0.09457494
131	0xba9da173	-0.0012026265
132	0x3c1c3421	0.009533913
133	0xbd3689b5	-0.04456492
134	0xbb895f63	-0.004192279
135	0x3d3afcd6	0.04565128
136	0x3d81965e	0.063275084
137	0x3e223ffb	0.15844719
138	0xbcf7a0f2	-0.030228112
139	0x3c205a6e	0.009787185
140	0x3c1f6781	0.009729267
141	0x3e11fb23	0.14255957
142	0xbc507b5f	-0.012724726
143	0x3d4a7736	0.049430095
144	0x3cc72d4a	0.024313588
145	0xba3b6b8f	-0.00071495114
146	0xbd368dad	-0.044568706
147	0xbcc5dff9	-0.02415465
148	0x3c2cbb8e	0.010542763
149	0x3d929b93	0.0715858
150	0x3d4726cb	0.04862098
151	0x3cae0f63	0.021247571
152	0xbcd5491e	-0.026035842
153	0x3a1f37e6	0.0006073698
154	0x3b42ae2b	0.0029705863
155	0x3d249a57	0.040186252
156	0x3d1689ca	0.0367525
157	0x3cec5930	0.028851122
158	0x3bb75527	0.0055948677
159	0x3c3e2fea	0.011608103
160	0x3db47a3e	0.08812378
161	0x3cef9138	0.02924405
162	0x3d8638d3	0.06553807
163	0xbd2d18d9	-0.042260025
164	0x3c895cc8	0.016767874
165	0xbcade82b	-0.02122887
166	0x3d74b2c4	0.059740797
167	0xbca6dd78	-0.020369276
168	0x3ce0d64f	0.02744594
169	0xbe1c28c9	-0.15249933
170	0x3cce6d1e	0.025198516
171	0x3d69cb52	0.057078667
172	0x3d616b12	0.05503375
173	0x3a83c071	0.0010051859
174	0xbb9bf4dc	-0.004759414
175	0x3d281a5c	0.041040763
176	0x3d9578ce	0.07298432
177	0x3dd8656c	0.1056622
178	0xbdaa0e1f	-0.08303475
179	0x3bf8f11a	0.007597101
180	0x3d119c64	0.035549536
181	0x3d8f4e1a	0.069973186
182	0xbd1ac25d	-0.037783016
183	0xbdb601ab	-0.08887037
184	0xbcbb6e64	-0.022879787
185	0x3ab2c319	0.0013638466
186	0x3d732c04	0.05936815
187	0xbb28204e	-0.002565402
188	0x3d4c9c6b	0.04995386
189	0x3c1c2e6f	0.009532555
190	0xbc404fef	-0.011737808
191	0x3dc1e070	0.09466636
192	0x3b8383c9	0.0040135127
193	0x3d83bade	0.064321265
194	0x3ca9fd25	0.020750592
195	0x3d6d2e99	0.057905767
196	0x3c96f548	0.018427506
197	0x3d833801	0.06407166
198	0xbc0109b6	-0.00787585
199	0x3d95509f	0.07290768
200	0x3d933f7a	0.071898416
201	0x3dd496e9	0.10380346
202	0xbd2a0656	-0.04150995
203	0xbd5042a5	-0.050844807
204	0x3cbb2d1c	0.022848658
205	0x3bf99108	0.007616166
206	0x3c095c1c	0.008383777
207	0xbd8c9e7a	-0.068661645
208	0x3c6f9695	0.014623304
209	0x3dd535e5	0.1041067
210	0x3da9ace8	0.082849324
211	0x3dc7d868	0.09758073
212	0x3d697bab	0.057002705
213	0xbd7593ed	-0.059955526
214	0x3ccddca4	0.025129624
215	0x3ca12858	0.019672558
216	0xbd9d306b	-0.076752506
217	0x3d92605b	0.071472846
218	0x3d06b0c1	0.03288341
219	0x3d200e54	0.039076164
220	0xbd21074f	-0.03931361
221	0x3cda902a	0.02668007
222	0x3d5aaeb5	0.05338927
223	0x3cc5a14f	0.02412477
224	0x3db45de6	0.08806972
225	0x3ace9bdd	0.0015763004
226	0xbcd665cb	-0.026171586
227	0x3b50a074	0.0031833919
228	0x3d048abd	0.032358874
229	0x3d272fb2	0.04081697
230	0xbc937e58	-0.018004581
231	0xbcd15edd	-0.02555793
232	0x3d90f9b8	0.0707888
233	0x3b8d2d2d	0.004308364
234	0x3bd3d864	0.0064650048
235	0x3ce1eb06	0.027577888
236	0xbc289ebb	-0.010291751
237	0x3dac56e5	0.08415011
238	0x3c9ecd2f	0.019384949
239	0xbbf3d17a	-0.007440743
240	0xbcd972f8	-0.02654408
241	0x3cb8160a	0.022471447
242	0xbc9dac92	-0.019247327
243	0x3cdaa86a	0.026691634
244	0x3d45f829	0.048332367
245	0xbd44421c	-0.04791461
246	0x3d546df5	0.051862676
247	0x3d749c76	0.059719525
248	0x3da08a03	0.07838824
249	0x3dd7f66c	0.10545048
250	0xbc0826dd	-0.008310047
251	0x3c817e81	0.015807392
252	0x3d3372d6	0.043810688
253	0xbcf7139e	-0.030160721
254	0x3d1c8138	0.03820917
255	0x3d9aee3a	0.07564969

network_body._body_endoder.seq_layers.0.weight f4 [256, 266]
0	0xbd4b4199	-0.049623106
1	0x3d1219dc	0.035669193
2	0x3da26975	0.079302706
3	0x3a185254	0.00058106077
4	0xbe100375	-0.14063819
5	0x3cd52507	0.026018633
6	0x3ad562cf	0.0016280058
7	0xbd5307ed	-0.05152123
8	0xbd58445f	-0.05279958
9	0x3d615313	0.055010866
10	0x3d460f08	0.04835418
11	0xbe26edc0	-0.16301632
12	0xbe1d276b	-0.15347068
13	0xbd25d75e	-0.040488593
14	0xbd9b691d	-0.07588408
15	0x3dee558f	0.11637413
16	0xbc3797cc	-0.011205625
17	0xbd9799ce	-0.07402383
18	0x3df6bba2	0.12047507
19	0x3da7fef4	0.08202925
20	0xbe3aeda8	-0.18254721
21	0xbd021826	-0.03176131
22	0x3dddc215	0.10828034
23	0xbd76acb8	-0.06022331
24	0xbe2b600c	-0.16735858
25	0xbd3ef1ce	-0.04661732
26	0xbe318e66	-0.17339477
27	0xba929798	-0.0011184094
28	0xbdfcf486	-0.12351327
29	0xbe219758	-0.1578039
30	0x3ddedcad	0.10881934
31	0x3d550ec4	0.052016035
32	0x3da30df2	0.07961644
33	0xbda7d491	-0.08194841
34	0x3da08833	0.07838478
35	0xbe60a67b	-0.21938507
36	0xbd3c2d6f	-0.045941766
37	0x3c103c53	0.008803445
38	0xbde65783	-0.1124716
39	0xbd6bbb3e	-0.057551615
40	0xbdad2e1c	-0.0845606
41	0xbdaf07ef	-0.08546435
42	0xbdb0d62d	-0.08634601
43	0x3bda7fe8	0.0066680796
44	0xbc10b9cd	-0.008833361
45	0xbd3908e5	-0.045174498
46	0xbc7fc49c	-0.01561084
47	0x3dd0a832	0.10188331
48	0xba9b9947	-0.0011871242
49	0xbd21c098	-0.039490312
50	0xbd64bf75	-0.05584665
51	0xbd79ba35	-0.060968596
52	0xbdf484aa	-0.11939366
53	0x3de868a1	0.113480814
54	0xbe32a21f	-0.17444657
55	0x3d2c0ba5	0.042003293
56	0x3dfd813f	0.12378167
57	0x3d452ac5	0.04813649
58	0xbe1420dc	-0.1446566
59	0xbca68e02	-0.020331386
60	0x3df9b08c	0.12191877
61	0xbc530905	-0.012880568
62	0x3da19ad0	0.07890856
63	0x3e56b101	0.20965959
64	0xbd8fd119	-0.07022304
65	0x3d613702	0.0549841
66	0xbcf20597	-0.029543681
67	0xbe18a476	-0.14906487
68	0x3b91d4b2	0.004450404
69	0xbdefcb6a	-0.1170872
70	0xbd238b84	-0.039927974
71	0xb9f1df79	-0.00046133602
72	0x3c6e335d	0.014538613
73	0x3cd1063d	0.02551567
74	0xbd36c74c	-0.044623658
75	0x3e10d135	0.14142306
76	0xbd9fc8e6	-0.0780199
77	0x3cb807da	0.022464681
78	0xbe42caa9	-0.19022621
79	0x3d910dcb	0.07082709
80	0x3cb10098	0.021606728
81	0x3dc5dc32	0.096611395
82	0xbd77bd3e	-0.06048321
83	0xbc3c315b	-0.011486377
84	0xbce7012c	-0.028198801
85	0xbcdc9253	-0.026925242
86	0xbd867aa0	-0.065663576
87	0xbca17d9a	-0.019713212
88	0xbd98b731	-0.07456816
89	0xbd937b12	-0.07201208
90	0xbcd6370f	-0.0261493
91	0xbd0a9c78	-0.033840626
92	0x3e0749a6	0.13211688
93	0x3ca281b4	0.019837238
94	0xbd0f2b11	-0.03495318
95	0xbbf9088c	-0.007599896
96	0xbe5d3698	-0.21602857
97	0x3e09a398	0.13441312
98	0x3d061ddf	0.03274333
99	0xbdc7e474	-0.09760371
100	0x3e442d9b	0.19158022
101	0x3df8ca30	0.12147939
102	0xbe2960d9	-0.1654085
103	0x3d4638a1	0.04839385
104	0x3d9ff343	0.0781007
105	0x3d82536e	0.06363569
106	0xbe549471	-0.20759751
107	0xbd6821ce	-0.056672864
108	0x3d3ce25c	0.04611431
109	0xbdf0bc47	-0.11754661
110	0x3d531c0e	0.051540427
111	0xbd465f99	-0.048431013
112	0x3de174ae	0.11008583
113	0xbbfae808	-0.007657055
114	0x3e09eb5a	0.13468686
115	0xba9d8985	-0.0012019133
116	0x3bb25ad9	0.005442959
117	0x3b9d9ec5	0.0048101866
118	0xbe2bd7d2	-0.16781548
119	0x3db5f48a	0.08884533
120	0x3e107378	0.14106548
121	0xbd670ccd	-0.056408692
122	0xbd940c48	-0.07228905
123	0x3e00c5b7	0.12575422
124	0x3d0dd860	0.03463018
125	0x3c95663d	0.018237228
126	0x3ca6e9e6	0.020375203
127	0xbd997392	-0.074927464
128	0xbcf86e8b	-0.030326148
129	0x3cab6c05	0.020925531
130	0xbe1867fe	-0.1488342
131	0xbd2efce9	-0.042721663
132	0xbdb5cbdb	-0.08876773
133	0xbd8635c4	-0.06553224
134	0x3bee0dfd	0.007264851
135	0xbe048cde	-0.12944362
136	0xbe08972d	-0.13338919
137	0x3b83cbfe	0.0040221205
138	0xbde087af	-0.109633796
139	0xbe09453b	-0.13405316
140	0x3de2de3e	0.110775456
141	0xbc994592	-0.018709932
142	0xbd9d7a33	-0.07689323
143	0x3db80bd1	0.08986629
144	0x3d076321	0.03305352
145	0xba8d50c0	-0.0010781512
146	0xbe2fd222	-0.17170003
147	0xbcd776bd	-0.026301736
148	0xbeacf2c5	-0.33778968
149	0xbdf4b0e3	-0.11947801
150	0x3e3a69af	0.18204378
151	0x3d56a1f6	0.05240055
152	0xbd56b5e8	-0.052419573
153	0xbdf306fa	-0.11866565
154	0xbd4832ae	-0.048876457
155	0x3e31b443	0.1735392
156	0xbdfe18a6	-0.12407045
157	0xbd85d179	-0.06534094
158	0xbd633af6	-0.05547615
159	0x3cfbd162	0.03073949
160	0xbcd606bf	-0.026126264
161	0x3d87d542	0.066324726
162	0x3d6ed340	0.058306932
163	0xbcc3af2e	-0.023887243
164	0xbe5e8e63	-0.21734004
165	0x3d7bd5a1	0.06148303
166	0xbe7c8f68	-0.2466408
167	0xbe4aad55	-0.19792683
168	0xbde655cf	-0.112468354
169	0x3d6e9b11	0.05825335
170	0xbc9fb39b	-0.019494822
171	0xbe2e8b9a	-0.17045441
172	0x3d1dd9b9	0.038537715
173	0x3d56d70c	0.05245118
174	0xbe1cadab	-0.15300624
175	0xbbbf942c	-0.005846521
176	0x3c436699	0.011926317
177	0x3c9eb5a1	0.019373717
178	0x3ccd95ca	0.025095839
179	0xbd7231e8	-0.059129626
180	0x3c503c52	0.012709694
181	0x3cf620a2	0.030044857
182	0x3d29053c	0.041264758
183	0x3d047e87	0.03234723
184	0xbe4db6a6	-0.20089206
185	0xbe28d697	-0.1648811
186	0xbe299716	-0.16561541
187	0x3d333369	0.0437502
188	0xbe303d62	-0.17210916
189	0xbc15e31d	-0.009148386
190	0x3d3f0694	0.046637133
191	0xbd97b74f	-0.0740801
192	0xbc0d7dab	-0.008635919
193	0xbda4130a	-0.08011444
194	0xbd3325e9	-0.043737326
195	0xbdab347b	-0.08359619
196	0xbdda1d24	-0.106500894
197	0x3aabc3a3	0.0013104569
198	0xbda82f2c	-0.08212122
199	0x3c0ab3ea	0.008465746
200	0x3d1d7c85	0.03844883
201	0x3d86644b	0.06562098
202	0xbd399b6a	-0.04531423
203	0xbd4d2066	-0.050079726
204	0x3e0433eb	0.1291043
205	0xbdc68d76	-0.0969495
206	0x3d242058	0.040069908
207	0x3d4bc7f5	0.04975124
208	0xbd1953b0	-0.037433326
209	0xbe84d28f	-0.25941893
210	0xbca0d371	-0.019632073
211	0x3bae1737	0.005312826
212	0xbdc80041	-0.097656734
213	0x3de0f57f	0.10984325
214	0xbc890fe5	-0.016731212
215	0xbd65baf5	-0.0560865
216	0xbd61647d	-0.055027474
217	0xbe0fb113	-0.14032392
218	0x3db62bef	0.088950984
219	0x3d7aa3b7	0.061191287
220	0x3d8c7487	0.06858163
221	0x3d0edf5d	0.034880985
222	0x3d4367c9	0.0477064
223	0xbc981a58	-0.01856725
224	0xbdabd7b8	-0.083907545
225	0xbdb03056	-0.08602969
226	0xbcad2923	-0.02113778
227	0xbcf85bdf	-0.030317245
228	0x3ddeec02	0.10884859
229	0xbb588f34	-0.003304434
230	0x3d37c6b9	0.04486725
231	0xbdac5bbc	-0.084159344
232	0xbd88d832	-0.06681861
233	0xb9ac1c39	-0.00032827424
234	0x3d4bc68e	0.049749903
235	0xbe80e75b	-0.2517651
236	0xbd3be4a0	-0.04587233
237	0x3d46d16f	0.048539575
238	0xbd922806	-0.0713654
239	0xbd896310	-0.06708348
240	0xbcdb9da3	-0.026808565
241	0xbd7e47f2	-0.06208033
242	0xbd723a8d	-0.05913787
243	0xbe27aa96	-0.16373667
244	0xbe476c3e	-0.19474885
245	0x3d605a25	0.05477347
246	0x3d8d4d75	0.068995394
247	0x3d333953	0.04375584
248	0x3be8d992	0.0071060145
249	0xbde131cb	-0.109958254
250	0x3df0187b	0.11723419
251	0x3d27cf5c	0.040969238
252	0x3d1982c6	0.03747823
253	0x3c43fe67	0.01196251
254	0xbe18e4ab	-0.1493098
255	0x3d0a8bbd	0.03382467

network_body._body_endoder.seq_layers.0.bias f4 [256]
0	0xbd0ca126	-0.03433337
1	0xbb29e72c	-0.0025925143
2	0x3b8f1129	0.0043660593
3	0xbb93729d	-0.004499747
4	0x3ca4be9a	0.020110417
5	0x3cdea471	0.027178021
6	0x3a604e5a	0.0008556597
7	0x3ccb7e0c	0.024840377
8	0x3ccfc28a	0.025361318
9	0xbc13f50b	-0.009030591
10	0x3d11bea9	0.03558222
11	0xbd14343b	-0.036182623
12	0x3c90f4e0	0.01769489
13	0x3c1538ef	0.009107812
14	0x3a0bf3d1	0.00053387607
15	0xbd17230a	-0.03689865
16	0x3d1ec509	0.038762126
17	0xbcc0e1ff	-0.023545263
18	0x3c9c718a	0.019097108
19	0x3bc1ef93	0.005918452
20	0x3cd44f3f	0.025916694
21	0x3c4403af	0.011963769
22	0x3c6a618a	0.014305482
23	0xbc43efdc	-0.011959042
24	0xbc3fdead	-0.011710805
25	0x3c3c6a7e	0.011499999
26	0xbc85b373	-0.01632092
27	0xbc081974	-0.00830685
28	0x3b6ac237	0.0035821327
29	0x3c881ab3	0.016614294
30	0xbb85d70a	-0.0040844725
31	0xbc5a5783	-0.0133265285
32	0xb9f93321	-0.00047531075
33	0x3b0ae065	0.0021190878
34	0x3aabd112	0.0013108572
35	0x3b00b018	0.001963621
36	0x3c07a732	0.008279609
37	0xbcb58740	-0.022159219
38	0xbb5ec799	-0.0033993481
39	0xbc8642fc	-0.016389363
40	0xbc801d45	-0.015638957
41	0xbcb1eab2	-0.021718357
42	0x3a881bf7	0.0010384311
43	0x3d4869db	0.048929077
44	0x3c4f7d7e	0.012664197
45	0x3cd6db63	0.026227659
46	0xbb2e8894	-0.00266317
47	0x3c976f3f	0.018485663
48	0xbe1a8ba1	-0.15092327
49	0x3bee48fa	0.007271883
50	0x3c88c9d2	0.016697798
51	0x3c6d5407	0.014485366
52	0x3ceb8f03	0.028754717
53	0x3c28e407	0.010308272
54	0xbcbfc55e	-0.023409542
55	0x3c5bee3d	0.0134235
56	0x3cfd99de	0.030957159
57	0x3ca4c733	0.020114517
58	0x3b70714e	0.0036688629
59	0xbc44dfbf	-0.012016236
60	0x3b747dd3	0.0037306442
61	0xbbf829bf	-0.007573336
62	0xbb402be2	-0.0029323031
63	0x3cb06f97	0.021537585
64	0xbbca479d	-0.0061730877
65	0xbc647229	-0.0139432335
66	0x3ca2de7e	0.019881483
67	0xbbb54bdd	-0.0055327252
68	0x3d0eaf3e	0.034835093
69	0x3c995552	0.018717442
70	0x3ce18b32	0.027532194
71	0xbd0680f3	-0.03283782
72	0x3c1dd2b9	0.00963276
73	0x3babd10f	0.0052434276
74	0xbca3387b	-0.019924393
75	0xbc89af43	-0.016807204
76	0x3d3186a8	0.04334131
77	0xbcaf4308	-0.021394268
78	0xbc8285bc	-0.01593291
79	0x3bbf5ba8	0.0058397837
80	0x3cc6e162	0.024277393
81	0x3bcf684e	0.0063295728
82	0x3c84b458	0.016199276
83	0xbb564fd2	-0.0032701385
84	0xbc696dcc	-0.014247369
85	0xbb9f78b9	-0.004866686
86	0xbc07187d	-0.008245585
87	0x3bac35a1	0.0052554165
88	0x3cecaf8d	0.028892303
89	0xbc754be5	-0.014971708
90	0xbcb91878	-0.022594675
91	0x3c9b1984	0.018933065
92	0x3d06d51b	0.032918077
93	0xbc98d3ee	-0.018655743
94	0x3c013a07	0.00788737
95	0x3cb884ca	0.022524256
96	0x3c96c496	0.018404286
97	0x3ccdb709	0.025111692
98	0x3cadd120	0.021217883
99	0xbc64779e	-0.013944535
100	0xbc52ef34	-0.012874413
101	0x3c78cfed	0.015186292
102	0xbc3316ba	-0.010930711
103	0x3cb93e17	0.022612615
104	0xba6be6f4	-0.0008998953
105	0x3d0e1816	0.03469094
106	0x3c7a7b0d	0.015288127
107	0x3d679cc0	0.056545973
108	0x3c95d91c	0.018292002
109	0xbb3d1203	-0.0028849847
110	0x3cef3184	0.029198416
111	0x3b0fd094	0.002194439
112	0xbbcc1dc6	-0.006229135
113	0x3d3a80b9	0.045532916
114	0xbc0a1db7	-0.008429936
115	0x3ce40fd3	0.027839577
116	0x3c81bd9c	0.015837483
117	0xbb43ed63	-0.0029896132
118	0x3c8ecada	0.017430712
119	0xbc439b08	-0.011938818
120	0x38eb1baf	0.0001121083
121	0x3d0016ad	0.031271625
122	0x3b99c3dd	0.004692538
123	0x3cdb929d	0.02680331
124	0x3c9d76e3	0.019221729
125	0x3ca27002	0.0198288
126	0xbc547377	-0.012966982
127	0x3d19519a	0.037431337
128	0xbc9eb61d	-0.019373948
129	0xbd0d8329	-0.034548912
130	0xbd006f6a	-0.031356253
131	0x3bfab767	0.007651258
132	0x3cacaf10	0.02107957
133	0xbcfc6dc7	-0.030814065
134	0xbc35ab18	-0.011088155
135	0xbc07cf93	-0.008289236
136	0xbcc747ff	-0.024326323
137	0x3c07aeef	0.0082814535
138	0xb80cd0bb	-3.3572996e-05
139	0x3cff3107	0.031151308
140	0xbcb7d9de	-0.022442754
141	0xbc1e12a0	-0.009647995
142	0xbc0abda4	-0.008468065
143	0xbbd402d0	-0.006470062
144	0xbc9535ce	-0.018214133
145	0x3cc626cd	0.024188424
146	0xbc09cb58	-0.008410297
147	0xbc8e82fd	-0.017396444
148	0xbc8176aa	-0.015803654
149	0x3c4b5ce0	0.01241228
150	0x3aaf3797	0.0013368007
151	0x3ccd5755	0.025066057
152	0xbc011084	-0.007877473
153	0x3bc40685	0.0059822225
154	0xbc18290e	-0.009287132
155	0xbbed2a0f	-0.00723768
156	0xbb7efbf6	-0.0038907505
157	0x3d3f79a8	0.04674688
158	0xbc91dd61	-0.017805757
159	0xbc2d0c96	-0.010562083
160	0xbc791411	-0.015202538
161	0xbbc8db51	-0.00612966
162	0x3ccd92b6	0.025094371
163	0x3cdb4de6	0.026770543
164	0x3d00cc10	0.03144461
165	0x3cf8c7eb	0.030368766
166	0x3cebe76b	0.028796872
167	0xbd8d0953	-0.06886544
168	0x3c13319b	0.008983995
169	0xbc385391	-0.0112503925
170	0xbc94ed51	-0.018179568
171	0xbccab78f	-0.02474573
172	0x3b4e8473	0.0031512051
173	0xbc360859	-0.011110389
174	0x3d146ca8	0.036236435
175	0x3cd21bf0	0.025648087
176	0xbb36761a	-0.002784139
177	0x3bec8bd6	0.007218818
178	0xbc5d2688	-0.013497956
179	0xbd1961c0	-0.037446737
180	0x3c3debf2	0.011591898
181	0x3546b235	7.4020073e-07
182	0x3cc9204b	0.024551531
183	0x3bf31451	0.0074181934
184	0x3c4f8553	0.012666064
185	0xbb5d3498	-0.0033753272
186	0x3b239237	0.0024958977
187	0x3c231a74	0.009955037
188	0x3ca405db	0.020022323
189	0xbc3227e2	-0.010873767
190	0x3c1d1c5b	0.00958928
191	0x3d089a1c	0.033350095
192	0xbca9a5a9	-0.020708876
193	0xbba13291	-0.004919358
194	0xbcb42880	-0.021991968
195	0xbc0fc7c5	-0.008775656
196	0x3c4c2498	0.0124598965
197	0x3b83f738	0.0040272735
198	0xbc4b8af1	-0.012423263
199	0x3b9ea851	0.004841842
200	0xbc331264	-0.010929678
201	0xbb3a9abd	-0.002847358
202	0xbcbe4fba	-0.023231376
203	0x3c88edbf	0.016714929
204	0xbb862ad0	-0.004094459
205	0x3cc57f70	0.024108618
206	0x3b94b5a8	0.0045382567
207	0x3c2be048	0.010490485
208	0x3cabb5bf	0.020960687
209	0x3b494cc1	0.0030715915
210	0xbcf02b26	-0.02931745
211	0xbbedbe9e	-0.0072553894
212	0x3b0f46ce	0.0021862271
213	0x3c8cb8a1	0.017177882
214	0xbca11921	-0.019665303
215	0x3ce80b13	0.028325593
216	0x3d22d706	0.039755844
217	0x3afa8102	0.0019111934
218	0xbb9a2456	-0.0047040386
219	0x3b9aefe3	0.0047283038
220	0x3c18e2a1	0.009331376
221	0x3c25bcb1	0.010115788
222	0xbc0628e9	-0.008188465
223	0xbc9777ca	-0.018489737
224	0x3c2c6fea	0.010524729
225	0x3ca578fa	0.020199288
226	0x3c86d1b7	0.016457422
227	0xbb9705e0	-0.0046088547
228	0x3d416c2e	0.04722231
229	0xbd39e5fd	-0.04538535
230	0x3c06014c	0.00817902
231	0x3d15b2ff	0.036547657
232	0x3c8e34f6	0.017359238
233	0x3cc37271	0.02385828
234	0x3c89238f	0.016740588
235	0xbcc2a2d9	-0.023759292
236	0xbc85e2af	-0.016343443
237	0x3ac01e3b	0.0014657447
238	0x3d1ad455	0.03780015
239	0x3cf2102c	0.029548727
240	0x3cd12788	0.025531545
241	0xbb8eb7f0	-0.004355423
242	0x3cb7e52c	0.022448145
243	0xbcfb0cfe	-0.030645844
244	0x3bf9d40a	0.007624154
245	0xbcb3e7f5	-0.021961192
246	0x3c6bb724	0.014386926
247	0x3c7d82e0	0.015473098
248	0x3ba5cf3c	0.0050601047
249	0xbd054156	-0.032533012
250	0x3b5251d3	0.0032092228
251	0x3c6fa1c9	0.014625975
252	0x3c2c4ff8	0.010517113
253	0xb9110224	-0.00013829075
254	0x3cdadae2	0.0267157
255	0x3bef9370	0.007311277

network_body._body_endoder.seq_layers.2.weight f4 [256, 256]
0	0xbde492d9	-0.111608215
1	0xbdbb9d98	-0.09160918
2	0x3c2df87f	0.010618328
3	0x3d6b3a2a	0.057428516
4	0xbdb96534	-0.09052506
5	0x3e124693	0.14284734
6	0xbddc92ca	-0.10770185
7	0x3d3b8a26	0.045786045
8	0xbd83fd7b	-0.06444832
9	0xbdfd0089	-0.12353618
10	0x3d9cbf11	0.076536305
11	0x3cd0fd9b	0.025511554
12	0x3e0d9ac2	0.13828567
13	0xbc32cc2c	-0.010912936
14	0xbc45244a	-0.012032578
15	0xbd89fd1e	-0.067377314
16	0x3d327611	0.04356963
17	0xbcf4a062	-0.029861633
18	0xbd9ff30b	-0.07810029
19	0x3d6a33b1	0.057178203
20	0x3dad07f9	0.08448786
21	0x3bb3dd3f	0.005489021
22	0x3be64c2f	0.0070281248
23	0xbcfbefe5	-0.030754039
24	0x3c0b5a35	0.008505394
25	0xbcbc35b8	-0.022974834
26	0xbcbb2b84	-0.022847898
27	0x3e002a58	0.12516153
28	0x3d6a0315	0.057131846
29	0x3d4201c8	0.04736498
30	0x3cc093b1	0.023507925
31	0x3ce7feb7	0.0283197
32	0x3cc7cb1e	0.024388846
33	0x3d28ae7e	0.041182034
34	0xbe34973e	-0.1763582
35	0x3d0b9c15	0.0340844
36	0x3db2eaee	0.087362155
37	0x3d372642	0.04471422
38	0x3d0b0204	0.03393747
39	0xbdda2c91	-0.106530316
40	0x3d7a09a2	0.061044343
41	0xbe4b24dc	-0.1983828
42	0xbdd5f1df	-0.10446524
43	0x3db0bb2b	0.086294495
44	0xbd220357	-0.039553966
45	0x3d86e8ab	0.06587347
46	0xbe5f748d	-0.21821804
47	0xbc59c68b	-0.013291965
48	0xbdae6905	-0.08516125
49	0x3e41bc50	0.18919492
50	0xbdd88ce5	-0.105737485
51	0x3e375706	0.1790429
52	0x3ca064b3	0.019579267
53	0x3cb81811	0.022472413
54	0x3b244fd5	0.0025071998
55	0xbcd27e9f	-0.025695143
56	0x3cf4beaa	0.029876072
57	0x3d659f4b	0.056060117
58	0xbd769b07	-0.06020644
59	0xbd02998c	-0.031884715
60	0x3e0c8353	0.13721971
61	0xbce9484f	-0.028476862
62	0xbe015442	-0.12629798
63	0x3e1e3747	0.15450774
64	0x3e261776	0.16219887
65	0xbd145b54	-0.03621991
66	0x3d641e9e	0.05569326
67	0xbd62a71b	-0.055335145
68	0xbcf145b1	-0.029452177
69	0xbe54e3ff	-0.20790099
70	0x3daf668a	0.0856448
71	0xbe207ed2	-0.15673378
72	0x3dd6a035	0.10479776
73	0x3e3693e5	0.17829855
74	0xbc331b31	-0.010931776
75	0xbd36632f	-0.044528183
76	0x3c025636	0.007955125
77	0x3cf9c988	0.030491605
78	0x3e325cab	0.17418163
79	0x3e55be9d	0.20873494
80	0x3dd21be7	0.10259228
81	0x3b86594d	0.004100001
82	0xbd50b585	-0.05095436
83	0x3d4453e3	0.047931563
84	0x3db199b5	0.086718954
85	0xbdbcc555	-0.092173256
86	0x3e290656	0.16506323
87	0xbd98c795	-0.07459942
88	0x3e2459ab	0.1604983
89	0xbdb30213	-0.0874063
90	0xbd30251e	-0.043004148
91	0xbd272500	-0.04080677
92	0xbd896306	-0.0670834
93	0xbde68639	-0.1125607
94	0xbb048e1a	-0.00202263
95	0xbd191585	-0.03737404
96	0x3bceee9b	0.006315065
97	0x3d14dc5d	0.036342967
98	0x3d5a5849	0.05330685
99	0x3dcd1f14	0.10015693
100	0xbd8ef729	-0.06980736
101	0xbdb05171	-0.08609284
102	0xbd2c2046	-0.042022966
103	0xbd8e5e98	-0.06951636
104	0x3d59044d	0.052982617
105	0x3e7e8ccc	0.24858397
106	0xbe1aec0f	-0.15129112
107	0xbc546e82	-0.0129658
108	0x3da97df2	0.08275975
109	0xbe13ffe0	-0.14453077
110	0xbd31962c	-0.043356106
111	0xbda4d332	-0.08048095
112	0x3e25ba6e	0.16184399
113	0x3e67b12b	0.22626178
114	0x3d22c740	0.0397408
115	0xbe2e7884	-0.1703816
116	0x3ca36a79	0.019948231
117	0x3dbdc332	0.09265746
118	0x3c6441fb	0.013931747
119	0xbdab7a29	-0.083729096
120	0xbd8444e8	-0.06458455
121	0x3baf4e41	0.0053499048
122	0x3de35a62	0.111012235
123	0x3dbbb456	0.09165256
124	0xbc0662d7	-0.008202276
125	0x3d7c7a5b	0.061640125
126	0x3c617148	0.0137599185
127	0x3e019d50	0.12657666
128	0xbc2aa26c	-0.010414701
129	0xbd31cff2	-0.043411203
130	0xba9e0af6	-0.001205771
131	0xbdc29f9f	-0.095031016
132	0x3e0e0312	0.13868359
133	0xbe1105a5	-0.1416231
134	0xbc00ef31	-0.007869528
135	0x3d24c7b6	0.04022952
136	0x3b9c18d5	0.0047637024
137	0xbd1c4fe4	-0.038162127
138	0xbddc0fca	-0.10745199
139	0x3dac8c10	0.08425152
140	0xbddb481f	-0.107071154
141	0xbe43d278	-0.19123256
142	0x3dbae1e5	0.09125117
143	0xbcc60dc8	-0.024176493
144	0x3dabfd30	0.08397901
145	0xbcdbf395	-0.026849547
146	0xbe13e735	-0.14443667
147	0x3cf4bf78	0.029876456
148	0x3d56d96f	0.052453455
149	0x3e2ec50a	0.17067352
150	0x3c414ca0	0.011798054
151	0x3e07cf50	0.13262677
152	0x3b75b2b3	0.0037490546
153	0xbdc5b9e1	-0.09654594
154	0x3d047c52	0.032345124
155	0x3d4e684f	0.050392445
156	0x3dd5cf8a	0.104399756
157	0x3e13003b	0.14355557
158	0xbe35551f	-0.17708252
159	0xbe0a3173	-0.13495426
160	0x3d747608	0.059682876
161	0x3e353f76	0.1769999
162	0xbd19de1d	-0.03756534
163	0x3ce04cbb	0.027380338
164	0xbd5252d4	-0.051348522
165	0x3c7241eb	0.014786224
166	0x3d2d6333	0.042330932
167	0xbe04014f	-0.12891124
168	0x3d3b6b99	0.04575691
169	0xbc543a5c	-0.012953367
170	0xbdd1e0e5	-0.10247973
171	0xbd4866f1	-0.048926298
172	0xbbf0cad9	-0.0073484
173	0xbd64570b	-0.055747073
174	0x3dadee9c	0.08492777
175	0xbc8b9f5b	-0.01704376
176	0x3cb44143	0.022003775
177	0xbe1ce6b4	-0.15322381
178	0x3df98539	0.12183613
179	0x3c1deaae	0.0096384715
180	0xbd139592	-0.036031313
181	0xbc550ab9	-0.013003045
182	0xbdcda8b8	-0.10041946
183	0x3cd22090	0.025650293
184	0x3b77c4a4	0.0037806416
185	0xbdcc990c	-0.09990129
186	0x3e50e5d6	0.20400175
187	0x3d9423b7	0.072333746
188	0x3d045343	0.032305967
189	0xbe1b92cd	-0.15192719
190	0x3cf4ff5b	0.02990692
191	0x3dd9d160	0.10635638
192	0x3d05aacf	0.0326336
193	0xbe3d160f	-0.18465446
194	0xbe2ad926	-0.16684398
195	0xbd97ce2e	-0.074123725
196	0xbe3b3f50	-0.1828587
197	0xbc904fbd	-0.017616147
198	0xbdb4d0dc	-0.08828899
199	0x3cc0ded3	0.02354375
200	0xbe71bdbb	-0.23607533
201	0xbd3a7c2e	-0.045528583
202	0x38f3885f	0.00011612544
203	0x3e13e690	0.14443421
204	0xbe2f889e	-0.17141959
205	0xbd7ca4df	-0.06168067
206	0x3d53ec54	0.051739052
207	0xbe22d8a8	-0.1590296
208	0xbde374d4	-0.111062676
209	0xbd34c6ce	-0.044134907
210	0x3df665d7	0.12031143
211	0xbde0236b	-0.109442554
212	0x3dacfeaa	0.08447011
213	0xbc9c0cbc	-0.019049041
214	0x3c04e553	0.008111316
215	0xbc87c07a	-0.016571272
216	0x3e7ea988	0.24869359
217	0x3ddb5e36	0.10711329
218	0x3e034380	0.12818718
219	0x3cfd2dee	0.03090569
220	0x3e480320	0.19532442
221	0xbe6e787b	-0.23288147
222	0x3db0fc81	0.08641911
223	0x3d3bdd83	0.045865547
224	0x3e0d8d61	0.13823463
225	0x3cf23510	0.029566318
226	0x3dcf48e3	0.10121324
227	0x3d8c2fba	0.068450406
228	0x3e52172c	0.20516652
229	0xbdd8a84b	-0.10578974
230	0xbbb8d57f	-0.005640685
231	0x3d7ddc8b	0.061977904
232	0x3ce2449b	0.027620604
233	0x3d9c1030	0.07620275
234	0xbc2b2405	-0.010445599
235	0xbc7f1481	-0.015568853
236	0xbe0eee8b	-0.13958184
237	0xbd525a94	-0.051355913
238	0xbcf6b8e0	-0.030117452
239	0x3e2dd6d5	0.16976483
240	0x3cd821f5	0.02638338
241	0x3c4c507e	0.012470363
242	0xbe161e0a	-0.14659896
243	0xbdaff4fd	-0.0859165
244	0xbda4b16a	-0.080416515
245	0xbd9bbab2	-0.07603969
246	0x3dc9a43b	0.098457776
247	0xbd2e079a	-0.04248772
248	0x3d39ddfb	0.045377713
249	0xbe07c9d0	-0.13260579
250	0xbda859a0	-0.082202196
251	0xbd0757c8	-0.0330427
252	0xbdf8e549	-0.12153108
253	0x3ddf54f6	0.10904877
254	0x3c8fe77d	0.017566437
255	0x3c8eae31	0.017417045
