results/PushBlockCollab_PPO/PushBlockCollab/PushBlockCollab-13999984.onnx (onnx, 643240 bytes, 12 tensors)

network_body.observation_encoder.processors.0.conv_layers.0.weight f4 [16, 6, 8, 8]
00000000: 39e3 b53c 69fc 55bd 943b a63d 4176 b23d
00000010: 2b60 c53d 4e55 8f3b 61a4 6abd 5abc 9bbc
00000020: 5834 a03b ff8f ccbd 4e85 573d 2a54 b93d
00000030: 0c0d 203e b682 ca3d 84af 2d3d 3711 73bd
00000040: 0ccf ac3c b3af 68bd ea88 8e3d 5ad5 c13c
00000050: aeaa 52bc ce7f 77bd 6425 52bd 5a14 4ebe
00000060: 5ab3 53bb a100 3cbd d6f4 d0bd 6cbd 32bd
00000070: f4b0 93bd 9ba1 98bd daf6 13bd 7a51 7bbe
00000080: ac70 f33c 9105 01bd c989 e6bc f10c 2abd
00000090: 5b9d 45bc 6068 21bd 6772 493c f180 59bd
000000a0: daee 9bbd 410c 13bc f138 a1bc 6390 7e3d
000000b0: 4d2b 913c 4468 b03d 972d 873d b65a d9bd
000000c0: eca2 443c c98a c63c 0147 9cbd 818a d8bb
000000d0: 6632 efbc 74d0 9bbb d6d4 d93d ecb1 03be
000000e0: 7ab5 023d fc6c 5cbd 12b4 97bd 0bd1 c33d
000000f0: 2e12 89bc 2655 21bc c3a8 d4bc b6ff 8ebe
00000100: a336 9cbd f226 d53b d355 48bd 0fe8 99bd
00000110: b6a8 37bd 780a 1d3e b338 21bc a057 27bb
00000120: b1b1 17bd 00cc bcbd 36d1 fdbd 2f91 5abd
00000130: a73b c5bd 864a 303e 36e2 133e d7d0 643d
00000140: c1dd ecb8 c40d 4cbc 1c13 383a f6e1 8bbc
00000150: d897 753d da10 9fbc 1be5 753e 3718 84bd
00000160: 6df8 cabd f604 09bd 0034 93bb b4e2 a63d
00000170: 02da 8c3d 0305 12bc 76e6 dbbd bbfc 60be
00000180: 8a5c 2fbe 8caa 913c 5968 c3bd 161b 03bd
00000190: 2c9c 423c 5921 39be 9883 e8bc 0350 b3bd
000001a0: 5082 ce3c 86d9 703d abb9 613d c97f 3f3c
000001b0: 4112 bdbb de36 95bd 035e 13be b9a2 103b
000001c0: 0076 f1bd 3d64 843d 1bc6 07bd 2823 a83c
000001d0: 0874 86bd 2e29 9dbd 054c 1ebe 4fc3 0dbd
000001e0: 6331 ddbd e7ac 433d fed7 fa38 f1b6 fb3d
000001f0: d1bf 563d db1b dd3d 5596 3fbe f907 03be
00000200: 48d9 843d c68e 3c3d d38a 35bd 6e3c c0bc
00000210: 9e9c 7bbc bc62 0ebe 0b67 71bd 7c89 a9bb
00000220: 34d7 8fbd ff20 393d 8a06 fa3c 82fa 97bc
00000230: 4695 81ba b2fe 05be 02ad 4ebd 4055 013d
00000240: cf3e dd3b 6436 133d 6fec 32bd b070 cf3b
00000250: 1934 a33b 0c2b 873c f64a 36bd 370b c73c
00000260: 29a5 56bc 33ee 05bc cf72 833d 5acc 94bb
00000270: e06b 83bd 8b56 2a3c 3a3c e63c 4e39 cb3c
00000280: 3bc3 8d3c 5497 d23d f10d 47bb f953 6abb
00000290: f042 403d 463d 2ebc b82b 833c 972c 4e3c
000002a0: 23e1 c83c 09d0 973d 68dc 17bd b976 09bd
000002b0: 2a7a d9bc 8362 adbc e6e1 1abc 0479 d2bc
000002c0: 236d 37bd 1f84 3bbd 811a 1eb7 2f34 803c
000002d0: ca9c c43b 9066 23bd 0841 91bb 3b88 1d3d
000002e0: 1ce3 31bc 31cf 623d 6d09 e23c 8244 4fbd
000002f0: dd3f 613d 136e dc3c d351 4d3c 012f d6bc
00000300: 7626 5cbc ba33 01be 0c11 c9bc 5f0f cd3c
00000310: c0a1 1ebd b94f 953d 9b4a 4f3d aa08 97bb
00000320: c334 2e3d b481 b7bd e6ad 3fbd 7364 aebd
00000330: 39cb 9c3c 232d 0d3d c673 10bd 8681 d8bc
00000340: ab97 e43d 7a6b 85bd 52ac 2cbd 6ca4 eb3d
00000350: 9d6a 5c3e 5219 2d3d 1a77 aabd 4853 123e
00000360: 430f 4fbc 4aee 1e3c fbe8 163d be1f 00bd
00000370: 2685 023c d7d8 533d 3e76 adbd ae83 de3d
00000380: a532 6c3c 0014 2f3d 54b5 b1bb c595 a23d
00000390: a154 1c3e 0fbb 2dbd bfad 0e3d 7db0 ca3c
000003a0: 6eb6 cc3b 839f d0bb cd79 bc3d 9a35 cdbc
000003b0: fc8c ad3d 2772 5f3c 9381 3dbd 5868 da3d
000003c0: e067 a23d 9fe7 57bd 7860 8a3d d124 4ebb
000003d0: 00b1 173e cffb fe3d d9a1 343c 723a 11bd
000003e0: 913d b83c ef76 92bd c76b 403b 51f5 f93d
000003f0: 6d1a 603e 959a 8b3d dcf9 08bd 272a da3d
0.022203075 -0.05224267 0.081168324 0.087139614 0.09637483 0.004374183 -0.05728567 -0.019010711
0.0048890524 -0.099884026 0.052617364 0.09049256 0.15629977 0.098882124 0.042403713 -0.05934259
0.021094821 -0.056808185 0.06959708 0.023661304 -0.012858076 -0.06042462 -0.05130519 -0.20124951
-0.0032302947 -0.045899037 -0.10202949 -0.043637678 -0.072114855 -0.07452699 -0.036124088 -0.245428
0.029716812 -0.03149945 -0.028141873 -0.041516248 -0.012061442 -0.03940618 0.012295342 -0.053101484
-0.07613917 -0.0089750895 -0.019680472 0.062149417 0.017720843 0.08613637 0.066004924 -0.10613005
0.012001734 0.0242361 -0.076307304 -0.006608308 -0.029198837 -0.004755074 0.10636298 -0.1286084
0.03191135 -0.053814873 -0.074073926 0.09561356 -0.016732302 -0.009846961 -0.025959378 -0.27929467
-0.076276086 0.006504887 -0.048909973 -0.07514965 -0.04483863 0.15336025 -0.009840178 -0.0025534406
-0.037034694 -0.092185974 -0.123934194 -0.053361114 -0.096305184 0.17215928 0.14441761 0.055863228
-0.00011294662 -0.012454454 0.00070218905 -0.01707552 0.059959263 -0.019417215 0.24013178 -0.06449931
-0.09910665 -0.033451997 -0.004492283 0.08148709 0.06877519 -0.008912328 -0.10737316 -0.21971409
-0.17125145 0.017781518 -0.09541387 -0.032008253 0.011878055 -0.18079127 -0.028383061 -0.087554954
0.025208622 0.058801197 0.055108707 0.011688181 -0.0057699983 -0.07285856 -0.14391331 0.0022069647
-0.11790085 0.064644314 -0.033147912 0.020524576 -0.065651 -0.0767387 -0.15458687 -0.03461009
-0.108004354 0.047772314 0.000119611606 0.12290753 0.052429024 0.10796329 -0.18709691 -0.1279601
0.064867556 0.046034597 -0.044321846 -0.023466315 -0.015357165 -0.13904852 -0.05893616 -0.00517386
-0.070234686 0.045197483 0.030520696 -0.018552069 -0.0009886406 -0.1308544 -0.05045796 0.03157544
0.006751872 0.035940543 -0.043682512 0.006330572 0.0049805758 0.016500019 -0.044505082 0.02429734
-0.013100901 -0.008174467 0.064183824 -0.004540962 -0.0641706 0.01039661 0.02810489 0.024807598
0.017305007 0.1028277 -0.00303733 -0.0035755618 0.046938837 -0.010634726 0.016012058 0.012583873
0.024521416 0.074127264 -0.03707543 -0.03356049 -0.02654751 -0.021165138 -0.009453272 -0.02569247
-0.044781815 -0.045780297 -9.423705e-06 0.015649883 0.006000136 -0.039892733 -0.004432801 0.038459998
-0.01085737 0.055373374 0.027592385 -0.050602444 0.054992545 0.026907956 0.012531715 -0.02614546
-0.013436904 -0.12617388 -0.024544261 0.025031744 -0.038728476 0.072905965 0.05060826 -0.004609187
0.042530786 -0.08960286 -0.0467967 -0.08515253 0.019139873 0.034466874 -0.03526666 -0.02642895
0.11161741 -0.0651464 -0.042156525 0.1150597 0.21525045 0.042260475 -0.08323498 0.14289582
-0.012637916 0.009700367 0.03684328 -0.03128027 0.007966315 0.051720466 -0.084698185 0.1086496
0.0144163715 0.042743683 -0.0054232273 0.079387225 0.15266658 -0.04241472 0.034833666 0.02474236
0.0062473333 -0.0063666715 0.09202919 -0.025049973 0.08474156 0.013638056 -0.04626615 0.10664433
0.07929969 -0.052711125 0.06756681 -0.003145505 0.14813614 0.124503724 0.011024916 -0.03545613
0.022490295 -0.07151591 0.0029361115 0.122049935 0.2188508 0.068165936 -0.03344141 0.10652571

network_body.observation_encoder.processors.0.conv_layers.0.bias f4 [16]
00000000: ada3 ddbd 1054 e3bc 1382 fdbc 771b 8bbd
00000010: 3184 f3bc e9fa 713d bc4a 33bd 8e46 80bc
00000020: 5bfd 863d 7308 00bd 5632 bfbd e7fc 5ebc
00000030: 8a45 49bd 101b 1cbb ae64 43bd 85f7 85bd
-0.10822234 -0.027750045 -0.030945813 -0.06792348 -0.02972612 0.059077177 -0.043772444 -0.015658643
0.065912925 -0.031258058 -0.09335773 -0.013610101 -0.049138583 -0.0023819841 -0.047703438 -0.06541351

network_body.observation_encoder.processors.0.conv_layers.2.weight f4 [32, 16, 4, 4]
00000000: 72fd 973c 07e2 b3bd f7ee 903d adc9 1e3d
00000010: eb2d d7bd 9d7c bbbb 8451 083e 25f6 f2bb
00000020: 6ea5 1f3e 516b 80bd 3c2a 063d 48b9 b9bc
00000030: 9e0f 853a 48d9 b43d d4f8 0fbd 6fca eebd
00000040: 1281 d33b 7923 55be 7bf5 21be 3757 e63d
00000050: 9d95 a13d cf67 95bd 9d69 b7bd 409f aabd
00000060: 9271 f83c 97a0 86bd f7af 50bd 14c2 d23c
00000070: e72f 7d3d 5670 3f3d 0f7a 4fbc 9ce7 9d3d
00000080: d13a b83d 44e6 23bd 10e3 20be 5979 b6bc
00000090: 1636 b23d 97a7 7ebc e12a 2fbd b00b ffbd
000000a0: f61b 593d 0ff2 0a3d 7b9c 35be ca99 42bc
000000b0: 4aa1 1d3e 04d0 72bc 753a 92bd 172f 193d
000000c0: 37ba a1bd abff a73c 2760 49bc 9e40 97bd
000000d0: dc95 e13d 379d 18be 7985 48bd dc3f cfbd
000000e0: a73e d93d 1360 d83c b1a1 12bc cd68 073d
000000f0: 6335 ee3c 9e87 32bd 44f2 493c 078b 5e3c
00000100: 23c9 243d 9a6a 3dbd ed6e 3fbc 99e3 cbbd
00000110: 158b 95bd 7233 c1bb 0d33 98bd 778f e0bc
00000120: 1b3f c53d e92f 31bd 84f6 0a3d 5f46 76be
00000130: c438 393d c8e0 f63c 0a58 8d3c 8c2e d13d
00000140: 92da b33d b8b2 4bbd 38bc 9ebd dd67 d4bd
00000150: 9145 d03d 3d16 bcbd f78b 3bbe c7bb ef3b
00000160: c961 c73d 1e4f c0bd 0bef 9dbd 2d06 8bbd
00000170: 7053 bdbc 429e 033d 71f3 a33c 4c3c 7a3d
00000180: 967f 883d a805 18bc 2a3c 843d 783e b43d
00000190: bab3 cdbd 7fac f8bc fe84 57be 56ad 5cbd
000001a0: 3767 7e3d 13d7 3fbd 0b0e 1e3d bcf6 c9bd
000001b0: b585 d53d 972a 4f3d ea44 a9bd a5b1 b63b
000001c0: 921f 983c dd2b 7ebd 6bd9 8bbd c5db 27bd
000001d0: 9aa4 5cbd 2e79 efbd 9330 d1bd 9589 e7bc
000001e0: b4b4 193e 8b77 ef3c 9fab 50bd eea3 443d
000001f0: 111e 96bc 775e 7b3d 1499 dcbc 47da cb3d
00000200: f0b0 1e3d 2470 69bc e8af b2bd 37cd 6cbd
00000210: b007 c8bd a658 51bd 2ba2 e7bd 9183 183b
00000220: dd51 dcbd bc42 653d 2f2a f23c 2156 c7bc
00000230: c3e9 e53d 4432 09be 79b7 65bd 6a2c 8a3d
00000240: 85c8 94bd 217e 663d f8d7 313d 1c8b 6b3d
00000250: fbae 8dbd 438e ecbc 92a8 19bd f174 5a3c
00000260: 8e4e 653d 0487 a13d ab34 b3bd 69c7 45bd
00000270: f695 97bd a0dd a3bc 7aef babd fe52 6fbb
00000280: eef7 4ebd b9e2 0fbe 9ffe d1bc fcf1 0cbd
00000290: da7b d03d 2608 333d 8ff0 dfbc 05b5 a6bd
000002a0: 4d1d 523b 29ea 9a3d 18c3 8abc 479b 6cbd
000002b0: 0a87 cd3c ffbb 973c 923c f03b 63f7 77bd
000002c0: 13b7 513d 5957 a8bd 7e4d fdbd f890 0fbe
000002d0: 4695 3ebd 4251 d7bd e9ca ce3b af20 bbbb
000002e0: 1951 173d e9d9 42be d797 0bbd d9b7 cfbd
000002f0: 90aa 863d 55c5 9e3d 5c01 7c3d 849d 373d
00000300: d323 fabb 94cf 90bd 0d99 00bd 8dd8 893d
00000310: f7d5 89bc 1a2c 88bd 3534 293d 0a2e 553d
00000320: 72c3 203e edcd 80bd 66a8 f6bd 1163 e3bd
00000330: 877d 0b3e 93c6 ca3d 804b 87bc 2593 c3bd
00000340: 07b0 47be e1cb b3bb 013f 61bc acf6 5abc
00000350: 1643 03bc c811 9538 b0b4 6abd e667 e8bb
00000360: 5149 943d ebb8 74bd 9da7 19bd ab63 a33d
00000370: f6f1 b23b 1948 4a3d f3ea 533d c678 983d
00000380: a64d f43d 4e10 0d3d 43e0 893d f81a d6bd
00000390: c0e3 043e 317f 8f3c dae6 39bc bf94 96bd
000003a0: e2d0 6f3d 754e a03d 50a5 afbc 0281 f5bd
000003b0: f5f7 f23d 2113 ec3c c46f aebd bed5 4fbe
000003c0: cd47 633d e73e 8b3c 89e0 f0bd 6de7 163c
000003d0: fb18 c73d 5d48 0ebb 7b36 14be 6286 0fbd
000003e0: 2e9f 353c 661c c2bd 9a04 8cbd 4b62 2cbd
000003f0: 489a c73c 5238 49bb c4e3 b73b e6f3 603d
0.01855347 -0.08783346 0.07076829 0.03876655 -0.10506805 -0.005721642 0.13312346 -0.0074145966
0.1559045 -0.06270469 0.03275512 -0.022671357 0.0010151749 0.088305056 -0.03514941 -0.11659705
0.0064545954 -0.20814313 -0.158163 0.11247104 0.078898646 -0.072951905 -0.08955691 -0.08331156
0.030327592 -0.06573599 -0.050949063 0.02572731 0.06181326 0.04673799 -0.012663378 0.077101916
0.08995593 -0.04001452 -0.15711617 -0.02227466 0.08701722 -0.015542886 -0.042765502 -0.12453401
0.05300518 0.03392225 -0.17735474 -0.0118774865 0.15393558 -0.014820103 -0.07140056 0.037398424
-0.07896846 0.020507654 -0.012290991 -0.073853716 0.110149115 -0.14903723 -0.048955414 -0.10119602
0.10607653 0.026413 -0.008949683 0.03305893 0.029078191 -0.043586366 0.012325827 0.013582951
0.04023088 -0.04624424 -0.011684162 -0.0995552 -0.073019184 -0.0058960253 -0.07431612 -0.02741216
0.09631177 -0.04325858 0.033926502 -0.24050282 0.04522015 0.03013648 0.017253894 0.10213956
0.08781923 -0.049730986 -0.07750744 -0.10371373 0.10169519 -0.09183929 -0.18315111 0.007316086
0.09735448 -0.093900904 -0.077116095 -0.06788287 -0.023111075 0.03213335 0.020013543 0.06109266
0.0666496 -0.009278692 0.06456788 0.088009775 -0.10044046 -0.03035569 -0.21046826 -0.053876244
0.062110152 -0.04683597 0.03858761 -0.09861514 0.10425893 0.050577726 -0.082650974 0.005575376
0.018569741 -0.06205355 -0.068285786 -0.040981073 -0.053867914 -0.11693035 -0.10214343 -0.028263846
0.15010339 0.029231807 -0.05094492 0.048007898 -0.018324884 0.061369386 -0.026928462 0.099537425
0.03874296 -0.014247928 -0.08724958 -0.057812896 -0.09767091 -0.051109932 -0.11310228 0.002327178
-0.10757802 0.055971846 0.02956113 -0.024333062 0.11226227 -0.13398081 -0.056083176 0.067467526
-0.072648086 0.05627263 0.043418854 0.057505712 -0.069181405 -0.02887643 -0.037514277 0.013333545
0.05598312 0.0788708 -0.0875028 -0.048285875 -0.0740165 -0.02000314 -0.09127708 -0.0036517973
-0.050529413 -0.14051332 -0.025634108 -0.03441046 0.10179873 0.043708943 -0.027336387 -0.081399955
0.0032060922 0.07564194 -0.016938731 -0.05776527 0.025088806 0.01852226 0.0073314393 -0.06053866
0.051199984 -0.08219785 -0.12368296 -0.14020145 -0.046529077 -0.105135456 0.00631081 -0.0057106833
0.036942575 -0.19028439 -0.034080353 -0.10142488 0.06575501 0.07752482 0.061524734 0.044827953
-0.007633665 -0.070708424 -0.03139596 0.06730757 -0.01682566 -0.06649037 0.041309554 0.05204586
0.15699556 -0.06289277 -0.12043838 -0.1110288 0.13622104 0.09901156 -0.016515493 -0.0954955
-0.19500743 -0.0054869507 -0.013747931 -0.013364475 -0.0080116 7.108186e-05 -0.057301223 -0.007092464
0.072405465 -0.059746664 -0.037513364 0.079779945 0.005460973 0.049385164 0.051737737 0.07444911
0.11928873 0.034439377 0.06732228 -0.10454363 0.12977505 0.017516704 -0.011346543 -0.0735259
0.058548816 0.078274645 -0.021441132 -0.11987497 0.118637 0.028817715 -0.08517411 -0.2029638
0.055488396 0.016997768 -0.11761577 0.00921045 0.097215615 -0.0021710612 -0.14473908 -0.035040267
0.011085315 -0.09478073 -0.06836815 -0.042085927 0.02436556 -0.0030703736 0.0056118686 0.0549201

network_body.observation_encoder.processors.0.conv_layers.2.bias f4 [32]
00000000: cc3c 40bd 6273 863d 87ec a53d b05f 0dbd
00000010: ce0f 2bbd 9bae aabc e6bc ebbb a0ce 123d
00000020: e262 47bd 85c0 a8bc c604 92bd a134 b43c
00000030: febd 563d c777 0e3d 4cae 55bc 61fb 71bd
00000040: d6c1 88bc f1ac 0fbd 1085 7e3d f351 4b3d
00000050: adcd 4bbc f370 0f3d b9a6 ae3c 60ca 8d3d
00000060: 9409 8a3d 90f5 8f3d b7db 263d 7928 c7bc
00000070: fba0 adbb ca72 81bd 3019 47bc a065 7e3d
-0.04693298 0.06564976 0.08101755 -0.034515083 -0.04176312 -0.020835212 -0.0071941493 0.035841584
-0.048678286 -0.020599613 -0.07129817 0.021997752 0.052427284 0.034782197 -0.013042044 -0.059077624
-0.01669399 -0.03507704 0.062138617 0.0496387 -0.012439174 0.035019826 0.021319734 0.069233656
0.06740108 0.07029259 0.04073688 -0.024311291 -0.0052987314 -0.063207224 -0.012152001 0.062108636

network_body.observation_encoder.processors.0.dense.0.weight f4 [256, 32]
00000000: f410 143d 583e a33e 58e7 bf3e 1e6e c53e
00000010: 4b77 9abd b65c 76be 1e71 293c 99bd c9bd
00000020: 9aba dd3e cd06 bb3e ed72 94bd b72c b7be
00000030: e904 173e b344 5ebe f6d6 103e 22fc aabe
00000040: fbed 76be a274 24bd 4374 153e 3931 dbbc
00000050: d2e0 c2be 47f1 14be 3225 9b3e 4124 10be
00000060: b801 313e 74d5 943e 81a5 863e d780 69be
00000070: fd43 c0bc 6ffc 24be aaa0 49bd 256e f63e
00000080: b754 d8be 83a4 b0bc 31a2 a7bd 3a5b 653d
00000090: 100e 2cbe 5ce6 653d a3ed 873e 56bf 693e
000000a0: 2abe 543d 3655 f5bd a185 98be 4502 093c
000000b0: e1d3 15bd dcec b3bd 4f0a 9c3b 6801 d23e
000000c0: 8c74 b43e 5445 103e 89dc e63b 821a babc
000000d0: 829c c6be 22a1 d63c 7a8c a9be 600b b33e
000000e0: 63ce 79be e969 fd3d fb8e 8dbe e127 00be
000000f0: 033a 953e 3b60 9d3e 818e 063f 4440 563d
00000100: 7ed3 ee3d 7dd9 1ebe d34e 5e3d b06e 4dbe
00000110: 0b5c c4bd 9318 24be c75e 9c3e 9517 54bc
00000120: 9a35 cc3d caef b5bc 0e4d d1bd 7909 d3bd
00000130: 2d13 babe a264 55bd 0de0 02bd 8baa 693d
00000140: 1891 023f 84d9 f5bd 0b53 1e3f fdfa 063e
00000150: 43f2 44bd 7e3c dfbd 88fc 69be 0c0d 553d
00000160: 8dd1 b0be d393 3a3e 7d71 b7be 7285 2fbe
00000170: 172d d83e 22f8 563e abcb 713d 4c9c 6ebc
00000180: 41f9 57bd db2e b13e 105c f4be 9f1d 33be
00000190: 07c8 bdbe 529b 1a3e 2fef b9be 7069 b03e
000001a0: cb46 5fbe f31f 88bd f765 dbbd c03a dbbd
000001b0: b4dd 33be 0399 33be 54a2 28bc b727 83bd
000001c0: 4d86 f83e 54e6 acbd f5d2 c83e 7a04 993d
000001d0: ecfd 95bc 9974 cbbe 6d51 49be c721 843e
000001e0: 5f54 b83e 6fe0 aabd 65ad c3be 3d8b 61be
000001f0: 80dd c53e 7373 e4bb 4a21 13be d067 8d3e
00000200: 9129 de3e 8380 96be 8787 a3bd 9936 4cbe
00000210: 4179 323e 4434 313e 16f2 bbbd aaf8 d8be
00000220: c5d6 abbe 8c06 a03d f4fb c73d 80cb 30be
00000230: 537d 79be 347b 63be 2f5f 1fbf b997 0e3f
00000240: 380a b6bd ca87 75be 5e79 83bd 9744 0d3f
00000250: 3f7d 2fbe 5124 073e ed62 1a3e e140 7f3e
00000260: 10a6 ac3e 18c4 b7bd 5d99 86be 0747 bcbb
00000270: 2d06 a83e 914b d83d 6573 a9be 3985 40bd
00000280: 363d c3be 7189 aa3e 1f28 17be 4dd1 38be
00000290: ae14 08be 9b37 eb3d 1ae5 a9be c991 553e
000002a0: 0932 773d f3f7 92bd 0014 673e 3af0 0f3d
000002b0: f885 efbe ebbd d1be 9a98 f4bd f95b 38bd
000002c0: ed01 2a3e 1331 0f3e 332b 873e 81fc 3e3b
000002d0: 4223 563e 740c 21be 728b ccbe 8957 b4bd
000002e0: 46a5 db3d 9a96 9b3e 2e42 4ebe 3dcc 91be
000002f0: 75dd 203e ee5f 853d b702 543e ec87 86bd
00000300: d1b7 ae3d 7b95 07bc 91f1 923e f8c9 dfbb
00000310: fe98 cabe 72de eabd c042 45be 11ff a93d
00000320: d840 a7be 2686 96be e666 d33d 34af be3d
00000330: 0d72 0abf ee2c edbd 917a 2a3e 70bc 1a3d
00000340: 0e84 403f d928 fc3d 2e53 573e e58e 923a
00000350: e34a 8c3c 2fb5 32be d9f8 81be c77c 1ebe
00000360: 7976 cc3e 1c0e 4bbe ed9b 1ebd fe54 173c
00000370: 7449 073e a74c 44bd 6460 ca3d c0d2 3bbd
00000380: 9eb3 4dbd f8ee 60be 4ff3 7abe e029 953e
00000390: 9c74 78be 2813 ae3e 3451 e83e c549 1dbe
000003a0: c73d 8d3d 828a 97be 8942 a13d 9ed7 dcbd
000003b0: 21f1 813a 58dd 793d 9cf1 f33e 1e97 173e
000003c0: 748c 103e fb5a 6fbe c49e c7be 523e 9a3e
000003d0: 4504 733d 1c4c c63e bfc1 3dbe 9f65 1c3e
000003e0: 4466 a73e 7953 8f3e ac73 52be dcf0 d4be
000003f0: 3be2 d73e c70d 2dbe d51d 203e d720 75bd
0.03614898 0.31883502 0.3748119 0.38560575 -0.075422846 -0.24058804 0.010341911 -0.09850616
0.43306428 0.36528626 -0.07248483 -0.35776302 0.14747967 -0.21705894 0.14144501 -0.33395487
-0.2411422 -0.040150292 0.14595132 -0.02675687 -0.3806215 -0.14545165 0.30301815 -0.1407633
0.17285812 0.29069102 0.26298144 -0.22803055 -0.02346992 -0.16111921 -0.049225487 0.4813091
-0.42252132 -0.02156282 -0.081852324 0.055995204 -0.1680224 0.05612789 0.2654849 0.22826895
0.051939167 -0.11979143 -0.2978945 0.0083623575 -0.036579017 -0.08785412 0.004761971 0.41016698
0.35245168 0.14088947 0.007045333 -0.022717718 -0.3879128 0.026199881 -0.33114988 0.34969616
-0.24395137 0.123737164 -0.27648148 -0.12515213 0.29145822 0.3073748 0.52561194 0.052307382
0.11661433 -0.15512653 0.05427439 -0.20061755 -0.09587868 -0.16025 0.3054106 -0.0129450755
0.09971161 -0.022209067 -0.10219775 -0.10304541 -0.36342755 -0.052097924 -0.031951953 0.057047408
0.51002645 -0.120043784 0.61845464 0.13181682 -0.0480826 -0.1090021 -0.2285024 0.052014396
-0.34534875 0.18220453 -0.35828772 -0.17140749 0.422219 0.20993093 0.059032124 -0.014563631
-0.05272794 0.3460606 -0.47726488 -0.17491768 -0.3706667 0.15098312 -0.36315295 0.34455442
-0.21804349 -0.06646719 -0.107128076 -0.10704565 -0.17565042 -0.17538838 -0.010292608 -0.064040594
0.48539963 -0.08442369 0.39223447 0.07471557 -0.018309556 -0.39737394 -0.19659968 0.2580702
0.3600187 -0.083435886 -0.38218227 -0.22025771 0.38645554 -0.0069717704 -0.14368168 0.27618265
0.43391088 -0.29394922 -0.07984834 -0.19942702 0.17429067 0.17305094 -0.091770336 -0.42377216
-0.33562294 0.07813749 0.09764853 -0.17265129 -0.24364214 -0.22214967 -0.62254614 0.5570026
-0.08888668 -0.2397758 -0.06419633 0.55182785 -0.17137621 0.13197447 0.150768 0.24927093
0.33720446 -0.08972949 -0.26288882 -0.005745772 0.32817212 0.10561288 -0.33095852 -0.04700205
-0.38132638 0.33307984 -0.14761399 -0.18048592 -0.13289139 0.11485215 -0.33182603 0.20856394
0.06035045 -0.07176199 0.22566223 0.035141207 -0.46781898 -0.40965208 -0.11943169 -0.045009587
0.16602297 0.13983564 0.26400146 0.0029142203 0.20911887 -0.15727407 -0.39950138 -0.088057585
0.10724883 0.30388337 -0.20142433 -0.28476134 0.15709479 0.06512438 0.2070416 -0.06568894
0.08531154 -0.008275385 0.28699926 -0.0068294965 -0.3956985 -0.11468209 -0.19263744 0.08300603
-0.3266666 -0.29399222 0.10322361 0.09310761 -0.5408028 -0.11580835 0.16648318 0.037777364
0.752015 0.123124786 0.21027824 0.0011181502 0.017125553 -0.17451929 -0.25385168 -0.15477286
0.39934137 -0.19829601 -0.03872292 0.009236572 0.13211614 -0.047924664 0.09881666 -0.045855284
-0.050220124 -0.2196616 -0.24506877 0.2913351 -0.24263233 0.3399899 0.45374453 -0.15360172
0.06896549 -0.2959786 0.07874019 -0.10783313 0.0009913781 0.061002105 0.4764527 0.1480374
0.14116079 -0.2337455 -0.38988316 0.30125672 0.059330244 0.38729942 -0.1853094 0.1527314
0.3269521 0.27993372 -0.20551938 -0.4159001 0.42164788 -0.16899787 0.1563638 -0.05984577

network_body.observation_encoder.processors.0.dense.0.bias f4 [256]
00000000: 5255 db3a 6647 423d 944c 983d f551 f73c
00000010: 5d40 a23d 713c 9a3d eca9 af3d 852a 79bc
00000020: 380d df3b 89e4 033d 4072 383d 1c80 e83c
00000030: ba90 1bbd 21dd 9b3d 668f cfbd 57df 2d3a
00000040: d3b8 943d 3116 74bd d87a 35bd bac7 d8bc
00000050: 21e1 993d ac69 b63d c1c0 2c3d b15b 353d
00000060: b9f3 cd3c d8ff a3bb 9cae 8f3d 7de2 253e
00000070: 971a 8e3c 20d6 a73c e7de 953d 2501 1d3c
00000080: c193 6abb 57b8 ae3d f8df 363b 20aa 443d
00000090: 386e dcbd a99b b43a c3a7 68bd db22 83bc
000000a0: e444 eabc 2ddb 5d3d 4bc1 8b3c 2be4 39bd
000000b0: b2f6 733d 1132 afbc e490 e73d 389b bb3d
000000c0: 3d73 10bd 3883 c9bc 91ce a13d ab3e 3c3d
000000d0: 3725 1a3d 45fa 233d e6d1 34bd 39c5 5ebd
000000e0: 3251 95bc 4ad1 bd3d d5e5 f8bb 7c5c 803d
000000f0: b971 ae3d 390a 30bc ccd7 373d 392c ba3c
00000100: 65ee 693d 72b3 7e3c c139 013d e546 c33c
00000110: fe55 af3c 7f09 a33c 97cc 933d 0179 8dbd
00000120: 5a16 4b3d 35f8 3e3d 1570 31bc f530 103d
00000130: d74a 2dbd ef18 90bc f59a 2a3d 1c91 b9bd
00000140: 3e5c 993c 090b 7c3d 32ad 7c3d a53d 32bd
00000150: 7b95 ffbb 9705 89bd e049 d6bb d959 5d3c
00000160: b90f 843c bcf5 21bc 4d0b 68bd 556b d1bb
00000170: caea b43c 0756 6a3d b0d5 e2bd b470 ad39
00000180: 49b8 4a3d ff38 b43d 1f68 ef3d a711 dd3d
00000190: 7c7a e73c 5064 5a3d 7a27 e73b 97fb f23c
000001a0: b555 42bd c58f 933c 7922 c43d cf8c 20bd
000001b0: 3530 973d 6fbe 533d 6780 40ba a2b2 413d
000001c0: e2ad 733c 9ff0 f13b 5da4 b33d 3dd6 bb3d
000001d0: 36c2 d0bc cf8d e83d 13cd 603d 18a0 6dbd
000001e0: 2ae8 bcbc 449b 00bc 3f77 b93d ea40 a73c
000001f0: ef57 d73b aaa1 013b d557 8bbc 3a82 28bd
00000200: 75ec cabc 22ef f3bc 09cf af3d 4fd7 0abc
00000210: b4de 02bc ccc8 4bbd 12e8 dbbb 8480 983c
00000220: ac52 743d 86c3 233e 2ce3 523b 5cfe 54ba
00000230: 078a 173c 96e8 133e ab52 043a eaef aa3d
00000240: 1d21 f43c 1e77 50bb 1126 75bd 29c1 42bc
00000250: 9e5a c13c 4b28 a43d 96d8 083d cb71 da3c
00000260: 25b0 d5bb bcfd 7b3c 839e f9bb 1fd3 b83c
00000270: 15b1 d23c e011 8c3b 4d21 b7ba 2a4b e83b
00000280: 218d d83d 69b1 8a3c 851d 753d 575c 5ebd
00000290: bd43 533c ea13 5abd 4490 463d a9c9 09bd
000002a0: 3b74 603c 0648 29be eb0d 3c3d 4559 633d
000002b0: f985 973d 6c76 083c 1f43 e6ba dec5 3f3d
000002c0: d391 8b3d d8c7 e03d a7a3 b9bd 184b 6fba
000002d0: c57a 783b 945a a43d 7a74 9fbc 3aba a2bd
000002e0: 09b3 09bc 2d4b 01bb 2cdd 803d b546 673c
000002f0: 4090 4e3d 104a 693b 7f0f 83bc 6396 e53d
00000300: 5028 353c 6aca 553d 4fec f63c 16b8 3c3d
00000310: 1ab5 fd3c a143 5d3d aa87 3ebb 8e35 bc3d
00000320: 9710 953d 29b7 c43d f3e3 65bd 1042 2cbd
00000330: 35e1 023d 0d67 dc3c 2e57 7e3c 26ac 8dbd
00000340: 00ae e23c 94c0 b73d 9851 c83d d758 cc3d
00000350: 5774 473d 174b 8bbd 47fa 063d 8298 dc3c
00000360: 8fc5 8abd 17e6 783d 51bf d03c bccf 2c3d
00000370: 6da0 37bd bd21 823c 43e6 593d 0ee5 e93c
00000380: 8d87 c23d b27c f8bc edf7 2fbd 3c29 deba
00000390: 1c84 063d 2df8 213d 3129 33bc a601 11bd
000003a0: 46bd 803d 0395 7539 8edb b83c 357d e53b
000003b0: 2dc1 94bb 3436 943d 4ff9 0f3d 3787 bb3b
000003c0: 033d 08bd 7039 b53c 0462 833b 376d 0c3d
000003d0: 8725 803d b352 5bbd fbfb 893d 89c3 a93d
000003e0: 8b66 853d 26fe c03d 408e 97bc 0281 de3c
000003f0: 12d0 f03c 9ccc 37bd 512a 4a3d 825a 813d
0.0016733801 0.047431372 0.07436481 0.030190447 0.079224326 0.075310595 0.08577332 -0.015207891
0.0068069957 0.03220037 0.045030832 0.0283814 -0.03797982 0.07610536 -0.10134773 0.00066327065
0.07261815 -0.059591476 -0.044306606 -0.026462425 0.07513643 0.08906874 0.042176012 0.044276897
0.02514063 -0.005004864 0.07015726 0.1619968 0.017346663 0.020487845 0.07317906 0.009582792
-0.0035793635 0.08531254 0.0027904492 0.048013806 -0.1076321 0.00137793 -0.056800615 -0.016007831
-0.028597303 0.0541641 0.017059943 -0.045383614 0.05956144 -0.021386178 0.113069326 0.09160465
-0.03526615 -0.024598703 0.079007275 0.045958202 0.037633147 0.040033597 -0.044145487 -0.054387305
-0.018227194 0.09268434 -0.0075957575 0.0626764 0.085177846 -0.010744625 0.044883534 0.022726165
0.057112116 0.015545713 0.03154922 0.023837516 0.021403309 0.019901989 0.07216757 -0.06907845
0.049581863 0.046623427 -0.010829945 0.03520294 -0.0423077 -0.017590014 0.041651685 -0.090608805
0.018720742 0.06153396 0.06168861 -0.04351582 -0.007799802 -0.06690519 -0.0065395683 0.013510191
0.016120778 -0.009885248 -0.056651402 -0.006390969 0.022084612 0.05721095 -0.11075914 0.00033081102
0.049492154 0.08799934 0.116897814 0.107943825 0.028256647 0.05331832 0.0070542665 0.029660983
-0.047445018 0.01801289 0.09576888 -0.039196786 0.07382242 0.051695284 -0.0007343352 0.0472895
0.014873 0.0073834206 0.08771584 0.09171722 -0.025483232 0.11355173 0.054883074 -0.058014005
-0.023059923 -0.007849518 0.090559475 0.020416696 0.006571762 0.0019780197 -0.017009655 -0.04113982
-0.024770955 -0.029777113 0.08584411 -0.008474185 -0.007987667 -0.04975204 -0.0067110145 0.018615969
0.059649155 0.15992555 0.0032178862 -0.00081250607 0.009249217 0.14444193 0.0005047719 0.08346541
0.029800946 -0.003180928 -0.059850756 -0.011886873 0.02360278 0.08015498 0.033409677 0.026665589
-0.006521242 0.015380319 -0.007617773 0.022561608 0.025719205 0.004274592 -0.0013971716 0.0070890384
0.10573793 0.016930299 0.059842605 -0.05428728 0.012894568 -0.053241648 0.048477426 -0.033639584
0.0136995865 -0.16531381 0.04591171 0.055505056 0.073986 0.008329015 -0.0017567611 0.04681956
0.06814923 0.10975617 -0.09064417 -0.00091283163 0.0037914973 0.08025089 -0.01946472 -0.07945676
-0.008404502 -0.0019728646 0.06292185 0.014115979 0.050430536 0.0035597123 -0.0159986 0.112103246
0.0110569745 0.05219499 0.030141978 0.046073996 0.030970145 0.054019574 -0.0029072561 0.09189902
0.07278555 0.096052475 -0.056125592 -0.04205519 0.031953055 0.026904607 0.015523715 -0.069176
0.02767086 0.08972278 0.09781188 0.09977882 0.048694935 -0.068014316 0.032953527 0.02692819
-0.067759626 0.060766306 0.025481852 0.0421903 -0.04483073 0.015885228 0.05319811 0.028551605
0.094985105 -0.030332897 -0.04296105 -0.0016949545 0.032840833 0.03954332 -0.010935114 -0.035401963
0.06286101 0.00023420532 0.02256563 0.007003451 -0.00453963 0.07236901 0.03514987 0.005722906
-0.03326131 0.022122115 0.004009487 0.034283843 0.06257158 -0.053545665 0.067375146 0.082892485
0.06513699 0.09423475 -0.018500447 0.027161125 0.02939609 -0.044872865 0.049356762 0.06316091

network_body._body_endoder.seq_layers.0.weight f4 [256, 266]
00000000: 2f84 8cbd 4bc9 463d 3179 d33d de1b 5dbc
00000010: 25fc debd 858e 433d 47e2 4fbc ccff 9cbd
00000020: 428b e1bb 862b 553d 4a05 3c3d 33b6 35be
00000030: 69e6 41be 183b f8bc c3a7 ccbd 9524 b53d
00000040: 6535 51bc 1f37 a9bd 8dcc 0a3e 8970 483d
00000050: 5819 47be 512f 8cbc 2921 c63d 4fe3 23bd
00000060: a6a0 57be 3606 39bd c280 39be 24ad a9bc
00000070: e82c 05be f7b5 0dbe ebb8 ba3d 3458 4f3d
00000080: 0646 8e3d d56d bcbd ca18 753d 5460 60be
00000090: 0212 5ebd 2a67 57b7 2f19 dbbd 7502 98bd
000000a0: 273b 95bd 1cab acbd 20ff b9bd fb3e 89bb
000000b0: 4f9d c1bc 1f9f 9cbd 4ee1 b4bc e87a 993d
000000c0: 34fa 373c 55f7 22bd adf4 74bd 91ee 92bd
000000d0: daaa 1cbe 02da cd3d 180e 2fbe d233 8f3d
000000e0: dc67 033e c841 f33c 503f 00be 29a7 6dbc
000000f0: 9a47 c63d 14ee edbc 3775 aa3d 4714 3d3e
00000100: e541 bdbd 222d 973d a492 1e3a 2715 23be
00000110: 58e7 f43b 18c9 dabd f754 8fbc 67a3 03bd
00000120: 42a4 09bb 51d8 3a3c 3670 b1bc c58e 103e
00000130: 47b8 35bd 579d 913c 8217 46be 2344 d43d
00000140: dcec fe3b e33a ba3d 3bb7 8cbd 6791 6e3c
00000150: 2840 fbbc 76e8 8ebc 2b2d 86bd cb63 81bc
00000160: 4304 6cbd cd26 80bd 1517 65bd 967b c8bc
00000170: 7a39 e23d cb78 583c 4ae6 97bd 0992 4cbc
00000180: 6c21 64be 7d39 023e cbd4 a83c c556 dbbd
00000190: d631 4b3e 9d29 ee3d ce3b 31be a088 e93c
000001a0: 394c 973d 5af7 293d f095 5ebe ee88 86bd
000001b0: f55d 4b3d 5f8d 0dbe c9eb 133d fc1b 92bd
000001c0: 9c49 093e 14e1 ef3a b103 063e 34f1 b1ba
000001d0: d64f 123c 6dad 58bb d84f 1fbe 3125 cf3d
000001e0: 9f7e 053e 9faa 36bd 7365 90bd c526 e93d
000001f0: 10b9 5b3c 71c1 943c 2c4b 343d 7863 50bd
00000200: d340 25bd fe1a 163d ad93 23be adc8 3ebd
00000210: 40d0 adbd 80df 85bd 14d3 8c3b 18f5 03be
00000220: 4f5d dabd 4f7f 783c f573 f9bd d269 e8bd
00000230: 6e08 ed3d a94b 293b 7e4f dabd 89ff 863d
00000240: 5a75 7d3c 1482 32bc e272 5dbe 5baf 32bd
00000250: cb29 a8be 47b1 10be bfc0 283e 86bb 053d
00000260: df74 2ebd 3dde f3bd 307d 80bd 3315 273e
00000270: e684 d4bd 6225 20bd 23be 93bd 6318 033d
00000280: 2127 07bc 3e52 573d 4b2a 6c3d 3fe9 08bd
00000290: e754 70be 40a8 363d 2041 84be 3ed0 52be
000002a0: 4c0c b8bd daff 733d f534 1abc a2c4 2dbe
000002b0: 7e11 063d 9714 573d 8623 38be 1567 49bc
000002c0: 6ab5 a03c 740c c83b 5533 043d 616d 3abd
000002d0: 29fc a5bb b97c c63c 7a38 863c 6b95 e03b
000002e0: 8f08 6abe 9ec1 33be 0bcb 28be bc12 083d
000002f0: e5f4 1fbe 5035 0ebd e01e 843d 406f a5bd
00000300: 936e b8bc a557 aebd 5308 77bd df33 cabd
00000310: 01b7 dfbd 7934 52bc 1121 d6bd 4b6a 323c
00000320: facc c63c 3bab 5b3d 2b61 b9bc 5ede 78bd
00000330: 5cb9 0c3e ada4 08be 6abb 823d b485 8c3d
00000340: c6d6 17bd 57bc 85be 348e e0bb e221 0d3c
00000350: eb21 afbd a914 013e 0d75 75bc 7cd8 85bd
00000360: deb2 a8bd fa75 1fbe dc2d af3d c2b4 2a3d
00000370: e84b 8b3d 9f1e 943c 2cd3 403c 318a 96bc
00000380: 7b02 e5bd 5508 aabd eeb5 fabb aa23 e8bc
00000390: d613 a33d 1224 c8bb 5496 e03c d9e2 a8bd
000003a0: 06ef a5bd ebdd 1bbc 597b 493d 4d45 92be
000003b0: 8ffc 4dbd 54be 7d3d 5d8c bfbd 1d82 dbbd
000003c0: 0d9f febc 6ad8 6abd 94c0 73bd e4bb 3ebe
000003d0: 4ee3 51be ef70 1f3d 5cd9 953c 74db 083d
000003e0: cf37 4bbc b4e9 bcbd 9da9 ec3d dcab 343d
000003f0: 58f7 783b 6c78 a03b b697 10be 3fc1 6b3d
-0.068611495 0.04853181 0.1032585 -0.013495414 -0.108879365 0.04774334 -0.012688226 -0.07665977
-0.006883056 0.05204346 0.04590348 -0.17745285 -0.18935551 -0.030301616 -0.099929355 0.08844868
-0.012769078 -0.08262467 0.13554592 0.048935447 -0.19443262 -0.017112406 0.096742935 -0.0400117
-0.21057376 -0.04517194 -0.18115523 -0.020712443 -0.13005412 -0.13838945 0.091173016 0.050621226
0.0694695 -0.09200636 0.059838094 -0.21911746 -0.054216392 -1.2839018e-05 -0.10698163 -0.07422344
-0.07286673 -0.08431074 -0.09081864 -0.004188416 -0.02363458 -0.076475374 -0.02208009 0.07494146
0.011229087 -0.039786655 -0.059803654 -0.07174409 -0.1529955 0.10051347 -0.1709522 0.06992306
0.12832588 0.029694453 -0.12524152 -0.014505186 0.09681626 -0.029044189 0.08323138 0.18464766
-0.09241084 0.07381655 0.0006049073 -0.15926038 0.0074738674 -0.10682887 -0.01749657 -0.032138254
-0.0021002446 0.011404113 -0.021659952 0.14116962 -0.044365194 0.01777522 -0.19344905 0.103645585
0.0077797007 0.09093263 -0.06870886 0.014561034 -0.03067024 -0.01744483 -0.06551584 -0.015794655
-0.05762125 -0.06257401 -0.055930216 -0.024472993 0.11046119 0.013212393 -0.07416971 -0.012485989
-0.22278374 0.12717243 0.02060928 -0.10709909 0.1984323 0.11629031 -0.1730797 0.02850753
0.07387585 0.04149566 -0.21736884 -0.06569086 0.04965015 -0.1382346 0.036113534 -0.07134244
0.13406986 0.0018301331 0.13087346 -0.0013575912 0.008930167 -0.0033062354 -0.15557802 0.101145156
0.13036583 -0.04459631 -0.070506 0.11384348 0.013410822 0.018158646 0.044017002 -0.05087611
-0.040345024 0.036646836 -0.15974303 -0.046578098 -0.08486986 -0.0653677 0.0042976234 -0.12886465
-0.106623285 0.0151670715 -0.1218032 -0.113483086 0.115738735 0.002583245 -0.10659693 0.06591708
0.015469873 -0.010895271 -0.21625856 -0.043624263 -0.32844386 -0.14130126 0.16479777 0.03264954
-0.042591926 -0.11907623 -0.062738776 0.1631668 -0.10376911 -0.03909815 -0.07214 0.03200568
-0.008249075 0.052568667 0.05765752 -0.033425566 -0.23469888 0.04459405 -0.25830936 -0.2058725
-0.089867204 0.05957017 -0.00941204 -0.1696954 0.032731526 0.05250987 -0.17982301 -0.012292643
0.019617755 0.006105 0.032275517 -0.045514468 -0.00506546 0.024229394 0.016384352 0.0068537495
-0.22854827 -0.17554328 -0.16483705 0.03322099 -0.15620764 -0.03471881 0.064512014 -0.0807786
-0.022513663 -0.085128106 -0.060310673 -0.09873175 -0.10923577 -0.012829893 -0.10455526 0.0108896
0.024267662 0.053630095 -0.022629341 -0.06075894 0.13742584 -0.13344069 0.06383403 0.06861439
-0.03707006 -0.26120254 -0.0068528894 0.008614035 -0.08551391 0.12605537 -0.01498152 -0.06535432
-0.08237241 -0.15572348 0.08553669 0.04167629 0.06801587 0.018081008 0.011769097 -0.018376442
-0.11182114 -0.083023705 -0.0076510822 -0.028337318 0.07962768 -0.0061078155 0.027415432 -0.08246393
-0.08102231 -0.009513359 0.0491899 -0.28568497 -0.050289687 0.06194909 -0.09352944 -0.107181765
-0.0310817 -0.057335295 -0.05950983 -0.18626362 -0.20496866 0.03892606 0.018292122 0.03341241
-0.0124034425 -0.09224263 0.11555789 0.04410921 0.0037989225 0.004897168 -0.14120373 0.05755734

network_body._body_endoder.seq_layers.0.bias f4 [256]
00000000: c099 36bd 0f7c 22bc d057 923b 044a 20bc
00000010: bf95 f23c b8ec ee3c d7a3 10bc a547 9e3c
00000020: 2bdf 3c3d 36bc dfbb f95e 283d 16ac 2fbd
00000030: a078 623c 328b 873c 217e b1bb bd6f ecbc
00000040: e45d 193d 2e49 32bc 5eaf ca3c c235 303c
00000050: 169e ee3c ebd9 8a3c b959 ce3c 2c0c b1bc
00000060: 41af 0cbc a592 913c 841a 98bc 175d e4ba
00000070: 0b6d 123b 180e 913c fcd4 f53b 581b a2bc
00000080: 5b35 ac3a 09fe 343b 808b 423c 3f36 423b
00000090: 5e0c 823c e881 63bc 6ece 0ebc 54a6 43bc
000000a0: 403c 4abc 0dce cabc 111d 01bc 697d 503d
000000b0: 1bd3 0d3c 0b6e c33c 74a2 3dbc c949 063d
000000c0: 82c2 0cbe 1646 303c f6e3 b33c 9508 313c
000000d0: 42b5 ed3c e201 b33c 79c0 b3bc 21ea 0c3c
000000e0: 00d6 113d 0250 d93c 72bb 163c 028a c9bc
000000f0: 35dc 933b ac9a 9bbb af57 f13a 22e0 b93c
00000100: 7a29 0bbc e36d 13bc 2ca8 ac3c c042 0dbc
00000110: a296 293d 9640 363c b333 1b3d 74ad 11bd
00000120: 074c 053d 4bbd 863b 6c4e 93bc 90a0 c7bc
00000130: 4fff 1d3d ceaf f0bb 8bb7 40bc 3a27 293c
00000140: 8294 023d acc1 de3b 3bd7 853c d0cb 88bb
00000150: 52d4 0bbc 0343 9dbb e2c3 ddbb 3251 47bb
00000160: 2460 003d 628f 5cbb 6c13 47bc c256 d93c
00000170: 7432 e43c b082 bcbc 492d ca3c ff2e 083d
00000180: f71d 0f3d cf69 c33c 13e2 fc3c adcd 1ebc
00000190: dee2 52bc 02c0 c73c 723d b0bc 2e83 b23c
000001a0: b18b 6bbb 7e31 243d ff67 8b3c f886 883d
000001b0: 55e5 b23c 15ba d9bb 8068 023d b693 d13b
000001c0: 3469 0abc eb02 6a3d bf8f 95bb 2693 a23c
000001d0: b00e ef3c c3f1 cebb 37b1 873c 5fb4 65bc
000001e0: 1103 ec3c 5487 023d c650 973b 66a5 d53c
000001f0: 7e89 873c 9076 423c a99e 4abc 7f47 143d
00000200: 9377 b3bc e98a 01bd 7899 2dbd 537b a93c
00000210: 9dcb 923c 50a4 06bd e044 7fbc 5c34 703c
00000220: 2173 99bc e01a 7aba f981 3cbc 0fbb 033d
00000230: 9859 eabc 5b8e 5dbc c636 80bc 43b1 883a
00000240: 7449 aabc cd30 733c cd6d 87bb d54a 1bbb
00000250: e1dd 92bc c6f9 8a3c 4906 983b 9a31 6c3c
00000260: 2bc4 f3bb 99f1 313c 7954 53bc 80fb 15bc
00000270: 0703 05bb e32e 453d af0e acbc eec8 2f3b
00000280: 3cff bbbb 961e febb 42dd fe3c 929c e03c
00000290: 23a8 f13c 4a5a 0c3d 1569 f63c cff7 8cbd
000002a0: 9099 403b 5354 20bb adc5 75bb ce12 04bd
000002b0: 8c56 21bb b28a c6b9 d018 2d3d 9ee1 063d
000002c0: 30b2 51bc d8fd 3d3c 71f8 37bc 2e58 14bd
000002d0: fcb0 283c 7c59 0f3b 8cb6 8c3c e527 4f3c
000002e0: 6895 b03c 6e21 b33b 7f7b 0dbb 5750 7a3c
000002f0: 8fa2 cc3c 4e87 363b 0376 a83b 3f27 183d
00000300: 926a b6bc 759d 033b 58c1 e1bc 6de2 c93b
00000310: 9895 773c d26f 433c 1e16 c6bc d2c0 e4b9
00000320: 3f07 eabb 596b 5cbb 372c bcbc 8632 a33c
00000330: 8dbb b33b c767 093d 4dfd ab3b 6511 4e3c
00000340: c07c 853c f4b9 d73a 0817 abbc ad47 e3bb
00000350: 4c21 f5bb 7830 a83c 16d8 7ebc 6c25 ff3c
00000360: 9719 323d 905e d03b 5970 d2bb f95d 843c
00000370: 4d4f 023c 4bf9 6a3c 4b81 4abc c337 edbc
00000380: dfa8 bb3b 436a d13c 01c1 553c ed4e 2bbc
00000390: caa2 5b3d 18ab 2fbd 2893 1e3b d008 0a3d
000003a0: bc5a 8a3c 0007 153d 860a 4a3c e13e 58bc
000003b0: 2d7a 94bc 8207 68bb aee2 5d3d 9b6b 0e3d
000003c0: 0689 063d 59b7 c3bb 18d6 9c3c edd6 bdbc
000003d0: 0aa3 09bb 9b0c 32bc 6649 3c3c c1c1 263c
000003e0: e162 acbb eec8 d8bc 8233 543c a56c 783c
000003f0: 5fbc 9c3c 5fdd aabb 4676 2a3d 0d03 9e3c
-0.04458022 -0.009917273 0.0044660345 -0.009783272 0.02961242 0.02916561 -0.008828125 0.019321272
0.046111267 -0.0068278564 0.041106198 -0.042888723 0.013822705 0.016545866 -0.005416647 -0.028861875
0.037443057 -0.010881705 0.024741825 0.010755004 0.029128116 0.016949615 0.025189267 -0.02161225
-0.008586706 0.01777012 -0.018567331 -0.0017422762 0.0022342827 0.017706916 0.0075021964 -0.01978843
0.001313846 0.0027617237 0.01187408 0.0029634384 0.015875038 -0.0138859525 -0.008716209 -0.011941511
-0.012343466 -0.024756456 -0.007880465 0.05090085 0.0086562885 0.023856184 -0.011574376 0.03278521
-0.13746074 0.010758897 0.021959286 0.010805269 0.029017095 0.021851484 -0.021942364 0.008600743
0.035604477 0.026527409 0.009199964 -0.02460194 0.0045123347 -0.004748663 0.0018412973 0.022689883
-0.0084937755 -0.008998367 0.021076284 -0.0086218715 0.04140342 0.011123797 0.0378911 -0.03556581
0.03254321 0.004111921 -0.01798173 -0.024368554 0.03857356 -0.0073451763 -0.01176251 0.010324294
0.03187991 0.00679799 0.016337981 -0.004174687 -0.008534508 -0.004799248 -0.006767736 -0.0030413386
0.031341687 -0.0033654799 -0.012150627 0.026530627 0.02785609 -0.023011535 0.024679797 0.033247944
0.034940686 0.023854164 0.03086952 -0.009692592 -0.012871472 0.024383549 -0.021513674 0.021791067
-0.0035941417 0.040086262 0.017017363 0.06666368 0.02183787 -0.006644497 0.03183794 0.0063957823
-0.008447934 0.05713169 -0.004564255 0.019845556 0.029181808 -0.0063154413 0.016563995 -0.014020055
0.028810056 0.03186734 0.0046177832 0.026079845 0.016545054 0.011869088 -0.012366929 0.036200996
-0.021907603 -0.031626616 -0.042382687 0.020688688 0.017919356 -0.032871544 -0.015580386 0.014660921
-0.018731656 -0.0009540748 -0.011505597 0.032160815 -0.028607175 -0.01352271 -0.015651118 0.0010428805
-0.020786978 0.014843178 -0.0041329623 -0.0023695726 -0.017928066 0.016964804 0.004639421 0.014416123
-0.0074391565 0.010860824 -0.012898558 -0.009154201 -0.0020295994 0.048140418 -0.021003095 0.0026822644
-0.0057372134 -0.007755111 0.031111363 0.027418409 0.02949912 0.034265794 0.030079404 -0.06883203
0.0029388405 -0.0024464324 -0.0037501857 -0.032244496 -0.0024618236 -0.0003786884 0.04225999 0.03293001
-0.012798831 0.011596166 -0.011228667 -0.036216907 0.010296103 0.0021873405 0.017176889 0.012643789
0.021555617 0.0054666316 -0.0021588502 0.015277944 0.024979858 0.0027851644 0.005141021 0.037146803
-0.022267614 0.0020082865 -0.027558014 0.0061610253 0.0151113495 0.0119285155 -0.024180468 -0.0004363121
-0.007141977 -0.003363332 -0.022970302 0.019921552 0.0054850043 0.033546235 0.0052487017 0.012577389
0.016294837 0.0016458617 -0.020885006 -0.0069360347 -0.007480776 0.020530924 -0.015554449 0.031145774
0.043481436 0.006358929 -0.0064220843 0.01615809 0.007953477 0.014341663 -0.012359927 -0.028957253
0.005726918 0.025563365 0.013046504 -0.010455829 0.053622045 -0.042887777 0.0024196599 0.03369981
0.016888969 0.03638363 0.012331611 -0.013198585 -0.018124664 -0.0035404866 0.054171257 0.03477059
0.03284552 -0.0059727845 0.019145057 -0.023173774 -0.002100172 -0.010867263 0.011492109 0.0101780305
-0.0052608107 -0.026462998 0.012951734 0.015162622 0.019132791 -0.005214378 0.0416167 0.019288564

network_body._body_endoder.seq_layers.2.weight f4 [256, 256]
00000000: bb3f 04be 524e bcbd 8e6d 9e3a 1e88 853d
00000010: 3754 abbd 0d12 263e 01c1 c6bd 4891 043d
00000020: f5a0 9bbd 9393 00be ff2c b93d 4179 84bc
00000030: b735 243e 0dbf 5abc 382a 29bc c068 6ebd
00000040: c7f4 213d a44b e3bc 687f 89bd a0d0 323d
00000050: b983 b83d 26e8 963c 1e60 9d3c 73b4 59bd
00000060: 292c 33bc 6a53 3dbc 83fb aebb 5509 0e3e
00000070: 6ae5 8c3d 6fe8 c13c 0f09 2e3c e0e4 233b
00000080: c969 213d efd9 213d 31f0 2bbe f56d 513d
00000090: 2327 ad3d e380 8e3d f09f 3e3d 43a8 cbbd
000000a0: 10b1 933d 9e29 4cbe d03e fdbd 991e cd3d
000000b0: 7dfd 98bc 0d7b 893d 3e46 6ebe 5c54 ecbb
000000c0: 685e 7bbd 6ba7 273e 22c2 f1bd 90e7 413e
000000d0: b973 0cba dc3a ec3c 2b92 43bc d8e9 a4bc
000000e0: b058 3e3d 5acd 9b3c bbc2 a4bc 1bfa c2bc
000000f0: c310 e63d c957 33bd b4fc edbd 1c1f 1a3e
00000100: c983 243e 4d4b 9abc b182 9c3d 1f35 76bd
00000110: 09bf 90bc cb48 69be 6d2a 8f3d 9d84 40be
00000120: e556 fa3d 8c41 383e 6ced 103c b37d b7bc
00000130: 59cc 143d 34e0 083d 40ac 473e 5260 523e
00000140: 0f84 af3d efe7 a93b d153 41bd ff47 2f3d
00000150: 9cd1 a73d fa01 75bd 3895 3b3e fc87 58bd
00000160: 0486 3a3e 7ad2 aabd 0a9d 18bd 76a9 81bd
00000170: 8536 acbd 5ceb e3bd ed50 d83b 3f94 afbc
00000180: 9ddf a9b9 5c71 0f3d 0444 283d 5994 e83d
00000190: 9829 cbbd 4128 9ebd 1ef8 46bd 6cb9 6fbd
000001a0: b121 763d a36e 7e3e 42be 21be 0ca2 8eba
000001b0: 4267 d83d fb37 08be 364b edbc a816 a3bd
000001c0: e9b1 1d3e 5cba 693e 79cf 263d e475 2ebe
000001d0: de22 bb3c d52e e33d 151e 953c 73f5 b0bd
000001e0: afcb 75bd 3731 273c 42e5 eb3d 4ac0 ba3d
000001f0: 6d69 8fbc f8cf 943d 5685 fc3c 805d 143e
00000200: 521a 45bd d5a7 acbd 356f 3b3c 7a78 babd
00000210: 7cf4 203e 201a 13be 04ee 17bc 30b3 223d
00000220: 7b1a fa3c 8ce8 28bc bb83 f0bd 6e7d 963d
00000230: a205 03be 47fb 2fbe b950 d93d f032 b5bc
00000240: ebd9 d83d 4fbf e4bc af44 02be 64fe a53c
00000250: 7d4f 783d 68c5 293e cf55 a43c 074a f43d
00000260: 61d6 963b 06cc a0bd c229 153d f439 2d3d
00000270: e454 d03d 935c 163e 08e7 29be 5b93 fcbd
00000280: b632 ab3d 5612 4d3e 183f 86bd 9dbd 0f3d
00000290: 3da7 80bd 63f6 f33c 3764 e03c 8513 28be
000002a0: 063f 913c 3fb1 1ebb c19e d8bd fd90 90bd
000002b0: a240 5b3c f7f4 66bd efdc dd3d 11d3 ccbc
000002c0: 9a99 723c 6380 17be 5f06 0f3e 5c4b 1f3c
000002d0: 4c54 ccbc 241d 933b f9e2 ebbd c6ed 5b3b
000002e0: b121 8c3c c5ce c7bd fce5 3c3e 5254 b53d
000002f0: ca53 403d dab2 15be 6cd6 523d d157 d13d
00000300: a85a 0d3d a2d7 2ebe 8aa1 26be 51eb 89bd
00000310: 1505 35be 3b93 9b3b d1c0 d7bd ff06 0f3d
00000320: bf9a 5ebe a32a 81bc a8e2 05bd cb6b 123e
00000330: 5f22 33be 7771 52bd 95f7 ab3d c916 33be
00000340: fd39 fcbd 88e0 dfbc 0010 f73d b40a bbbd
00000350: 10a9 a93d ea15 17bc ef60 223c 5da9 d4bc
00000360: 26a1 7f3e a4b1 b73d 4976 213e f0ad 103d
00000370: 88af 6b3e 4c20 8ebe 9ced 973d c98e 113d
00000380: 3903 253e bd93 c33c 6696 d93d 3ca6 b63d
00000390: dcae 623e 0af2 c9bd ab58 833b e91b b03d
000003a0: e57e 473c 9102 ab3d 7736 91bb da30 c4bc
000003b0: e208 0ebe c36b f9bc 0be9 9dbc 1eb3 3d3e
000003c0: 97d3 0f3c f19f ea3b 7d71 3ebe eb87 9ebd
000003d0: 1010 a9bd 4cae 74bd f30b e23d 0cd6 47bd
000003e0: 636e be3c c795 10be 9db9 adbd a7d4 94bc
000003f0: f4a1 efbd 1b99 c13d 15b5 a13c ac6d 0b3d
-0.12914936 -0.09194626 0.0012087093 0.06520103 -0.08365672 0.16217823 -0.09704781 0.032365113
-0.075990595 -0.12556295 0.090417854 -0.0161711 0.16036116 -0.013351214 -0.010325007 -0.058205366
0.03954008 -0.02774603 -0.06713754 0.04365599 0.09009499 0.018421244 0.019210871 -0.053150605
-0.010935822 -0.011555532 -0.005340041 0.13870747 0.06879695 0.023670403 0.010622277 0.0025008246
0.039407525 0.03951448 -0.16790845 0.051130254 0.0845473 0.06958177 0.046539247 -0.09944203
0.07211506 -0.1993775 -0.12365496 0.10015602 -0.01867556 0.06712923 -0.23268983 -0.007212205
-0.06136933 0.16372459 -0.11804606 0.1893599 -0.000535782 0.02883666 -0.011936705 -0.020131037
0.046471298 0.019018818 -0.020112386 -0.0238009 0.11233666 -0.04378489 -0.11620465 0.1505093
0.16065897 -0.018834734 0.07642115 -0.060109254 -0.017669218 -0.22781675 0.06990514 -0.18800588
0.12223605 0.17993754 0.008845668 -0.022398805 0.036327694 0.03341694 0.19499302 0.20544556
0.0857011 0.0051851193 -0.047199074 0.04279327 0.08194277 -0.059816338 0.18318641 -0.05286406
0.18215185 -0.083409265 -0.03725914 -0.0633115 -0.08408836 -0.111288756 0.006601444 -0.021432994
-0.00032400797 0.035020217 0.04108049 0.1135642 -0.09920043 -0.077225216 -0.048576467 -0.05852644
0.060090724 0.24846892 -0.15795234 -0.0010882034 0.1056657 -0.13302605 -0.028966527 -0.07963306
0.15399899 0.22824997 0.040725205 -0.17037159 0.022843774 0.11092917 0.01820282 -0.08640566
-0.0600087 0.010204605 0.11518337 0.091187075 -0.017506326 0.072662294 0.030825298 0.14488792
-0.048120804 -0.08430449 0.011440088 -0.0910501 0.15718263 -0.14365435 -0.009273056 0.039721668
0.030530205 -0.01030935 -0.117438756 0.073481426 -0.12795117 -0.17185698 0.106111 -0.022119015
0.105884396 -0.027923254 -0.12721513 0.020262904 0.06062268 0.16579211 0.020060448 0.11928182
0.0046031927 -0.078514144 0.036416776 0.042291597 0.101724416 0.14683752 -0.16592038 -0.12332793
0.08359282 0.20026526 -0.06555003 0.03509294 -0.06281898 0.029780572 0.027391536 -0.16413696
0.017730247 -0.0024214534 -0.10577155 -0.07058904 0.013382109 -0.05638596 0.10833155 -0.025002988
0.014807129 -0.1479507 0.13967274 0.009722557 -0.02494254 0.004489558 -0.11517901 0.0033558472
0.017105909 -0.09756235 0.18447107 0.088539734 0.046954907 -0.14619008 0.05147402 0.10221828
0.034510285 -0.17074445 -0.1627256 -0.06734336 -0.1767772 0.004747776 -0.10534824 0.03491878
-0.21738718 -0.015767401 -0.03268686 0.14298932 -0.1749358 -0.05137774 0.08396832 -0.1748916
-0.12315748 -0.027328745 0.12063599 -0.09132901 0.08284199 -0.009221533 0.009910806 -0.025959665
0.24963817 0.08969429 0.15767778 0.03532213 0.23016179 -0.27759016 0.07418367 0.03553656
0.1611451 0.023874158 0.10624389 0.089184254 0.22137016 -0.098606184 0.004008373 0.085990734
0.01217625 0.08350099 -0.0044315415 -0.023949075 -0.13870576 -0.030446893 -0.019276163 0.18525359
0.008778474 0.00716018 -0.1859798 -0.07740768 -0.08255017 -0.059736535 0.110374354 -0.048788115
0.023245996 -0.14119636 -0.084826685 -0.018167807 -0.11700812 0.09453031 0.019739667 0.034040138
