results/PushBlockCollab_PPO/PushBlockCollab/PushBlockCollab-5499995.onnx (onnx, 643240 bytes, 12 tensors)

network_body.observation_encoder.processors.0.conv_layers.0.weight f4 [16, 6, 8, 8]
000000 fb ab 35 bb 93 6a 1b bb 47 aa ad 3d a7 b6 4b 3d
       -0.0027720917 -0.0023714646 0.084797435 0.049734738
000010 07 b8 94 3d 2b 1b 2d bd 5e 75 5c bd 1d 9b 60 3c
       0.07261663 -0.042262238 -0.053822868 0.013708857
000020 b1 28 a7 3c d6 93 b6 bc 54 00 56 3d 81 96 32 3d
       0.020405145 -0.02228729 0.052246407 0.043600563
000030 1b 6b a4 3d 18 28 87 3d 5b 31 ca 3c e2 2b 7b bd
       0.08028241 0.06599444 0.024681738 -0.061321147
000040 ca 26 ee 3d 76 f6 58 3d c8 b5 ba 3d 83 c7 83 3c
       0.11628492 0.05296942 0.09116703 0.016086346
000050 16 ff 4c 3a cb 94 3f bd 5b e6 6e bc 23 93 14 bd
       0.0007819993 -0.04677276 -0.014581288 -0.036273133
000060 6c 78 63 3d b3 2b 5e 3c eb d9 b6 3b 09 ae ed bc
       0.055534765 0.013560223 0.005580177 -0.02901365
000070 e8 9f 7a bd 44 d5 84 bd 6f a1 a5 bd 1f 7d 40 be
       -0.061187655 -0.0648599 -0.08087432 -0.1879773
000080 e8 2f c6 3d 10 25 04 3d bd 07 55 bc cb 77 0c bd
       0.09677106 0.032261908 -0.013002333 -0.03429393
000090 4c c1 55 3d 32 ca 50 bd 16 db 87 bd a6 45 82 3c
       0.052186295 -0.05097408 -0.06633584 0.015902352
0000a0 59 b2 d1 bc f7 9c a6 3b 73 d6 96 bb 22 2f 44 3d
       -0.025597738 0.0050846296 -0.004603201 0.04789651
0000b0 32 e1 84 bc ac 50 5b 3d e5 01 a6 bc a2 9e 72 bd
       -0.016220663 0.05354373 -0.020264575 -0.059233315
0000c0 41 7d 71 bc e3 ba 1f bd b8 66 9d 3c 8d 61 83 bc
       -0.0147393355 -0.03899659 0.01921402 -0.016037727
0000d0 0b 1c 07 bb 4d ce 25 bd e8 a9 e5 3d 4f f0 d5 bd
       -0.002061608 -0.040479947 0.11214048 -0.10446226
0000e0 91 4a ef bb eb 54 79 bd 10 7c 8f bd 2e 64 b5 3d
       -0.00730259 -0.060872 -0.07006085 0.088569984
0000f0 b1 5b 7d bd de b5 7e bd 59 90 9d 3b e8 83 17 be
       -0.061855022 -0.06218516 0.0048084673 -0.14796412
000100 e3 2d 4e bd 1a 0d 49 bd c9 77 f2 bd 04 bb 9b bd
       -0.05033673 -0.04908476 -0.118392535 -0.0760403
000110 7e 3b 1e 3b b1 3d 17 3e 9e 4b c4 3c e2 9f 1c 3c
       0.0024144347 0.14769627 0.023961838 0.009559603
000120 99 b3 23 3c e4 78 b2 bd 89 59 a8 bc 0d 97 ab 3c
       0.00999155 -0.08714464 -0.020550506 0.02094605
000130 20 52 ce bd dd e2 6a 3d a7 54 97 3d db 6b 4e 3d
       -0.10074258 0.05734526 0.07389193 0.050395828
000140 6b 20 44 bc 8a e7 58 3d 98 cd 6d 3c 5e df 2a bd
       -0.01197062 0.052955188 0.014514349 -0.041716926
000150 94 2c 9c bc f1 f6 b9 bd 56 8e 0c 3e 77 68 2a bc
       -0.019064225 -0.090803035 0.13726172 -0.010400883
000160 0b 59 01 3d 50 1e d2 3c 06 2e 7a 3b ee d2 92 3c
       0.03157906 0.02564922 0.0038174405 0.017922845
000170 02 ad 7d 3c 62 ec 82 bd 3e 40 5b bd dd 7c c1 bd
       0.015483143 -0.06392743 -0.053528063 -0.09447644
000180 5d 88 b9 bd c6 64 ad 3d 18 ad bb bd 7a fc 22 3d
       -0.09059212 0.08466487 -0.091638744 0.03979156
000190 2f 19 cc bc 6f 70 24 be 73 36 6f bd a9 ee 2a bd
       -0.024914352 -0.16058515 -0.058401536 -0.04173151
0001a0 79 19 02 3c 4b a1 54 3d 90 93 62 3d 3a d0 fa 3c
       0.0079406435 0.051911633 0.055316508 0.030616868
0001b0 8e 99 ea bc 9e bb ee bd ae c8 81 bd 7c 2e 4c 3d
       -0.028637674 -0.11656879 -0.06337105 0.04984902
0001c0 3a 10 b0 bd e0 28 b4 3b a9 6f d9 bd c2 ca d6 3c
       -0.08596845 0.0054980367 -0.106170006 0.02621973
0001d0 15 7c a3 bd f5 c3 a2 bd df c6 9d bd 56 48 0b 3c
       -0.07982651 -0.07947532 -0.07703947 0.008501133
0001e0 9e 2d 91 bd 59 9a d6 bc f6 33 0a 3c 63 6b 03 3e
       -0.07088779 -0.026196646 0.00843524 0.12833934
0001f0 8d 8d 29 3d c8 a3 29 3d b0 5e bc bd 5e 60 fe bd
       0.04139476 0.04141596 -0.09197748 -0.12420724
000200 99 1c be 3d c5 b2 15 3d 8d cd 43 bd b1 1e 83 bc
       0.09282798 0.03654744 -0.04780345 -0.016005846
000210 19 c2 1f bc ee c4 b1 bd 2d 03 58 bd 77 87 cf bd
       -0.009750866 -0.086801395 -0.052737404 -0.1013326
000220 f8 76 22 bd 1c fa d4 3c 3a da ae 3c 4b 93 1a bc
       -0.03966424 0.025998168 0.021344293 -0.009434531
000230 35 5c 92 3c cc 79 ec bd 82 c0 51 bd 83 43 90 bd
       0.017866233 -0.115466684 -0.05120898 -0.07044127
000240 9b 70 42 3c d9 a4 24 3c a1 59 22 bd 64 41 83 3c
       0.011867668 0.010049068 -0.039636258 0.016022392
000250 16 9a 16 3c d4 22 91 3b f5 1a d9 bd 93 8d 0d bd
       0.00919201 0.0044292007 -0.10600845 -0.034558844
000260 33 79 5d 3c a6 69 c0 bc ec 4f 4f 3d c0 a1 a1 3a
       0.013517666 -0.023487877 0.05061333 0.001233153
000270 ab 78 57 bd 8d ea cc bc 74 60 e5 bc 41 d7 05 3d
       -0.052605312 -0.025014186 -0.028000094 0.032675985
000280 b2 a4 96 3c f1 31 9e 3d f2 7f 91 3c 20 87 9c 3b
       0.01838908 0.07724369 0.017761204 0.0047768503
000290 67 65 d2 3c 4f 2c 33 bd cf d5 2e 3d ee d6 9b bc
       0.025683118 -0.043743428 0.042684373 -0.019023385
0002a0 5a e1 b1 3c fd 81 a2 3d 57 f9 67 bc cc d5 41 bc
       0.021713901 0.079349495 -0.014158568 -0.011830758
0002b0 69 f7 ec 3c 99 92 8d bc 9e 7d 33 3c 8f bf 97 bc
       0.028926568 -0.017281817 0.010955242 -0.01852396
0002c0 8a 5f 92 bc e2 6a 53 bc df a9 b6 3b 55 ee 83 3c
       -0.017867822 -0.012903901 0.0055744494 0.016104857
0002d0 53 60 7d 3a c7 de 30 3b ce 46 f5 bc 92 31 65 3d
       0.00096655375 0.0026988254 -0.029940989 0.055955477
0002e0 15 af 07 3c 55 7d 4e 3d 65 ea 22 3d a4 d1 a2 bc
       0.008281489 0.050412495 0.039774317 -0.019875355
0002f0 3e 66 8d 3d 03 6d c5 3c d8 63 9d 3b 36 4b 03 bd
       0.06904267 0.024099832 0.004803162 -0.03205415
000300 6e e6 6e 3d 13 c6 16 be f4 2a ea bd 4f 0f 1c bb
       0.058325224 -0.14723997 -0.11433974 -0.0023812836
000310 29 15 65 bd 2a d0 8c 3d 37 93 97 3d 51 7e 9f bc
       -0.055928383 0.06875642 0.07401126 -0.019469412
000320 ef 3b 1a bc bc 38 ec bd 65 86 d7 bd 13 6d ba bd
       -0.009413703 -0.11534259 -0.105236806 -0.091028355
000330 76 39 c0 3c 7e 48 a0 3d 9c 1d 6c 3d a8 3b 1f bd
       0.0234649 0.07826327 0.057645425 -0.038875252
000340 fd 15 7f 3d c6 a7 7b bd 42 e2 0f 3c 59 f7 06 bc
       0.06227683 -0.061439298 0.008781971 -0.008237683
000350 4f 88 99 3d 46 32 7c 3d 4f 27 48 bd 50 a1 c1 3d
       0.07496702 0.061571382 -0.048865613 0.09454596
000360 4f bb 34 3d 8a eb 4e bd 20 49 4c bb 68 7f 9b bd
       0.044123944 -0.050517596 -0.0031171516 -0.0759266
000370 f7 01 a9 bc 9f d6 fb bb b6 90 43 bd c3 4f 11 3e
       -0.02063082 -0.007685497 -0.04774543 0.14190583
000380 6c 5a dd 3c 9a 0a be 3c 06 c7 63 bd b1 5f cf 3c
       0.027020656 0.023198415 -0.055609725 0.025314184
000390 2e 05 01 3e 9d ed f7 bc a0 87 6a 3d 4e 85 cf 3c
       0.12599632 -0.03026467 0.05725825 0.02533212
0003a0 c3 ac aa bc c5 b4 f0 bc 53 19 83 bb 2d 49 71 bd
       -0.020834332 -0.029383073 -0.0040008216 -0.058907676
0003b0 e4 95 dd 3c 66 49 2c 3d e5 74 59 bd 3c 5e 3d 3d
       0.027049012 0.042062186 -0.053089995 0.046232447
0003c0 36 ca b6 3d 17 92 b0 3b 9f 1b 08 3c 80 1c 0d bd
       0.089252874 0.005388509 0.008307367 -0.034451008
0003d0 96 52 a1 3d c7 62 4e 3d 7b 89 a7 bb cc 73 84 bd
       0.0787708 0.05038717 -0.0051128245 -0.06467399
0003e0 a5 db 0c 3d b2 d4 54 3d f6 b5 61 3c df 35 e5 3c
       0.034389157 0.051960655 0.013776293 0.02797979
0003f0 ac 02 c6 3c ea 08 0d 3a 4b 99 be bc 5a e7 75 3d
       0.024171196 0.00053800514 -0.023266455 0.060035087

network_body.observation_encoder.processors.0.conv_layers.0.bias f4 [16]
000000 ee a4 46 bd 8c df 5d bc 20 c4 c5 bc 25 98 33 bd
       -0.048497133 -0.013542067 -0.024141371 -0.04384627
000010 60 91 ba bc 8d 76 d4 3c 7f d6 e9 bb b7 7c 95 ba
       -0.022774398 0.025935436 -0.0071361656 -0.0011404966
000020 f4 85 33 3d 70 e7 06 bd c0 11 68 bd 55 7c bd bb
       0.04382892 -0.03293556 -0.056657553 -0.005782644
000030 f9 5e b3 bc b5 d7 e0 bc 77 39 1d bd 94 f2 ed bc
       -0.021895872 -0.027446607 -0.03838488 -0.029046334

network_body.observation_encoder.processors.0.conv_layers.2.weight f4 [32, 16, 4, 4]
000000 ce bb f3 bc 5b 0a 03 bd 97 3d 23 3d 99 a3 d9 3d
       -0.029752638 -0.031992298 0.03985366 0.10626907
000010 da cd 8d bd 81 9b 66 3b 4b 89 ce 3d ff 99 e3 bb
       -0.06924029 0.0035187902 0.1008478 -0.006945848
000020 1e bd 02 3e b3 b8 c6 3c 42 8b 1a 3d 00 5d 16 bc
       0.12767455 0.024257993 0.037730463 -0.009177446
000030 a4 6e 2b 3d 0d d5 d4 3d f4 75 6d bb 25 ae 93 bd
       0.041853562 0.10392199 -0.0036233636 -0.0721095
000040 07 1d be bc ad c1 cf bd ab 96 da bd 4a e2 b4 3d
       -0.0232072 -0.101443626 -0.10673269 0.08832224
000050 6a c9 b6 3d e2 ee 3e bd 05 34 c2 bd 3a de 32 bd
       0.089251354 -0.046614535 -0.09482578 -0.043668963
000060 b6 bd c5 3d 4b c7 51 3c 6e 8b c6 3c a6 6c 8b 3d
       0.09655325 0.012803863 0.024236407 0.068078324
000070 67 be 3e 3d 6c 25 9e 3c 16 e8 4d 3d 8e ce 77 3b
       0.0465683 0.019304954 0.050270163 0.0037812325
000080 58 81 97 3d 29 63 02 ba 64 db f8 bd 66 fb 9f 3c
       0.07397717 -0.00049738825 -0.121512204 0.019529056
000090 58 62 6e 3d 07 54 f5 3c 9e 3a 29 bd b2 99 52 bd
       0.058199257 0.029947294 -0.041315667 -0.051416107
0000a0 8f 5d 78 3d ae 7c 69 3d ab 8c c4 bd 26 86 7c 3d
       0.0606361 0.05700367 -0.09597143 0.06165137
0000b0 a6 05 c4 3d 88 f5 a2 3b 8c 55 a1 bc 47 50 86 3d
       0.0957139 0.0049731173 -0.019694112 0.065582804
0000c0 37 d5 c9 bd 47 76 a1 3c 2c 6d 53 3d b3 83 9f bc
       -0.09855121 0.01970972 0.051617786 -0.019471979
0000d0 82 ad 92 3d b2 79 ae bd 57 a8 46 3c db 3c a2 bd
       0.07162 -0.08519305 0.012125096 -0.079217635
0000e0 67 76 b5 3d 01 d9 93 3b 49 43 4f bd 49 45 11 bd
       0.08860474 0.004511953 -0.050601278 -0.035466466
0000f0 2e 51 6e 3c db 91 de bc 48 3e db 3b 21 ad 5e 39
       0.014545722 -0.027169159 0.006690774 0.00021236065
000100 4b f3 05 3c 9b db be bc 90 6c c4 3d 67 26 91 bd
       0.008175681 -0.023298075 0.09591019 -0.07087403
000110 07 63 80 bd 4f 86 1e 3c 0f 6c 0f bd 3a ca 3b 3c
       -0.06268888 0.009675576 -0.035015162 0.011461789
000120 9a 94 dd 3d 04 68 2e bd c7 8b 16 bc b9 48 06 be
       0.10819359 -0.042579666 -0.009188599 -0.13113679
000130 9f c3 87 bb b3 3c 1a bb 2b 55 95 3d 7b 8a 11 3d
       -0.004143193 -0.0023534715 0.07291635 0.035532456
000140 fe 17 11 3d 4d 82 76 bc e9 f7 3b bc 78 87 8e bd
       0.03542327 -0.015045715 -0.011472681 -0.06959432
000150 b2 c0 86 3d 77 c8 80 bd 3a 4d 0a be b6 cf 20 3d
       0.065797225 -0.06288236 -0.13506022 0.03926059
000160 3e 6e cc 3d 38 59 17 bd a1 d1 d3 bd 65 39 8c bd
       0.099819645 -0.03695032 -0.10342718 -0.06846885
000170 28 38 66 bc c8 fa b6 3a 9f ae 98 3d ca 69 1a 3c
       -0.014051475 0.0013960237 0.07455181 0.009424636
000180 0d 2c 32 3c b4 c6 df 3a 4b a1 12 3d 6c 74 b6 bb
       0.01087476 0.0017072768 0.035798352 -0.005568078
000190 28 a4 b7 bd d7 f5 4c 3c bc cd 0f be 47 2c 9e bc
       -0.08966857 0.012509785 -0.14043325 -0.019308222
0001a0 7f cb 0c 3e fb 58 72 3d 06 10 13 bb 96 83 93 bd
       0.13749503 0.05916689 -0.002243997 -0.072028324
0001b0 c9 10 ec 3d a5 7a bb bc a8 7f 74 3d 01 74 08 bd
       0.11526639 -0.02288563 0.059692055 -0.033313755
0001c0 23 c4 21 3c c2 81 2c bd 93 cc 62 bd 4a 07 68 bc
       0.009873423 -0.042115934 -0.05537088 -0.014161894
0001d0 f4 1f 60 bd c6 15 e3 bd 15 a4 04 be 8c d7 c0 bc
       -0.054717973 -0.11088137 -0.12953217 -0.02354028
0001e0 da 13 08 3e 9a 69 18 3c 5a cd 19 bd b1 2f 1e 3c
       0.13288823 0.009302521 -0.037549354 0.009654925
0001f0 03 0f 10 3d 87 d8 31 3d 2a e1 6c bb 1b 96 2b 3d
       0.035170566 0.043419387 -0.003614495 0.0418912
000200 50 57 b1 3d f9 6f 2f bd d2 da d6 bd d7 da 52 bd
       0.08659232 -0.042831395 -0.104909554 -0.051478233
000210 d1 d3 47 bd 05 ef 74 bc 9c 13 bb bc fa c2 52 bc
       -0.04878599 -0.014949565 -0.022836499 -0.012863869
000220 bf ac 9d bd a0 0e c9 3d 4b 74 de 3d 50 53 81 bd
       -0.07698964 0.098172426 0.10862025 -0.06314719
000230 65 53 0d 3e cf a9 e7 bd 84 28 b8 bc c5 47 9d 3d
       0.13801344 -0.11311685 -0.022480257 0.076797046
000240 11 5c 08 bc da 01 74 3d b6 1c c6 3c f0 4a 21 3d
       -0.008322732 0.05957208 0.024183612 0.039378107
000250 86 11 c4 bd f9 79 6d bc af 53 58 bc 88 f3 31 3d
       -0.09573655 -0.014494413 -0.0132035455 0.04344514
000260 9c ce ad 3d dd 32 ec 3d ab 79 12 bd 09 d1 e4 3c
       0.08486673 0.11533139 -0.035760563 0.027931707
000270 04 d0 15 bd 08 92 6f bb 42 99 3b bd 3c 4a 7b bd
       -0.036575332 -0.0036555547 -0.045800455 -0.061350092
000280 89 3c 8b bd bd 54 85 bd cc e0 9b bc 92 0a 20 3b
       -0.067986555 -0.06510303 -0.01902809 0.0024420363
000290 ff 39 e8 3d 91 71 42 3d 6b 88 5b bd 59 b0 9b bd
       0.11339187 0.047471587 -0.053596895 -0.07601995
0002a0 ef 45 39 3d 8d 3f 07 3d 49 e2 57 bd 43 8c d5 bd
       0.04523271 0.03301959 -0.052706037 -0.104271434
0002b0 04 33 93 3c 76 9d 15 3c e6 8f b5 bc 98 17 fd bc
       0.017968662 0.00913178 -0.022163343 -0.03089504
0002c0 13 c6 99 3c 3a 33 2a bd bc fa 7a bd ce 75 93 bd
       0.018771207 -0.04155276 -0.061274275 -0.07200204
0002d0 ef af dc bc a2 02 c6 bc 1b f6 b0 bc 8a c1 82 3d
       -0.02693936 -0.024171177 -0.021601727 0.06384571
0002e0 51 98 1c 3d f3 5c a7 bd bb 76 0d bd 42 fa cb bd
       0.038231198 -0.081720255 -0.03453706 -0.09959842
0002f0 2f 2c fc 3d a0 fc 2d 3d 1b 2b 5a 3d d8 e9 5d 3d
       0.12313115 0.04247725 0.053263765 0.05417809
000300 f1 ac 75 bd ad ef 49 bd c2 16 82 bd c5 de 68 3d
       -0.059979383 -0.04930084 -0.06351997 0.056853075
000310 63 22 02 bd 52 b5 54 bd 6b 6d b3 3c e5 b5 3f 3c
       -0.031771075 -0.051930733 0.02190276 0.011701082
000320 a5 8a fb 3d ae ca b5 bc d5 1b e5 bd a6 0f 86 bd
       0.12282304 -0.022191372 -0.11186949 -0.065459535
000330 79 c6 74 3d 02 46 65 3d 12 e4 35 bb 18 a9 7e bd
       0.05975959 0.055974968 -0.0027754349 -0.06217298
000340 ed 78 23 be 91 a7 4b 3c e1 bf 40 bd 00 9e 36 bc
       -0.15964098 0.012430088 -0.04705799 -0.011146069
000350 85 1e f2 3c 4f 91 70 3d bb cf c9 bc c1 09 30 bd
       0.029555568 0.058732327 -0.024635186 -0.042978052
000360 79 d4 bc 3d 71 18 94 3c cf 73 57 bd 2a 95 8c 3d
       0.092202134 0.01807806 -0.052600678 0.06864388
000370 d6 d9 10 3d 3b 86 4c bc a9 54 4d 3d c0 5b 2d 3d
       0.035363995 -0.012483175 0.050129566 0.042323828
000380 33 16 72 3d 6f a2 88 3b 15 c1 32 3d 54 f8 70 bd
       0.059103202 0.004169754 0.04364117 -0.058830574
000390 48 d2 19 3d 59 32 04 3b b5 c1 4b 3c 9a e0 8a bd
       0.037554055 0.002017161 0.01243632 -0.067811206
0003a0 f7 c6 d7 3c 8a 44 72 3d 56 d0 17 bd 93 e5 23 3d
       0.026339991 0.059147395 -0.03706392 0.04001386
0003b0 13 e9 80 3d b3 ac 6e bd 80 d1 8d bc 9a da 81 bd
       0.062944554 -0.058270168 -0.017311811 -0.06340523
0003c0 29 7d b4 3c d6 4e 38 bc c7 a7 82 bd b5 6a 1d bc
       0.022032337 -0.011249265 -0.06379657 -0.0096079605
0003d0 cc 7f 85 3d bd e8 e2 ba 24 63 bb bd e9 c8 78 bd
       0.06518516 -0.0017311793 -0.09149769 -0.060738478
0003e0 c9 2d 1b bc f4 16 88 bd d7 62 42 bd 74 3d 67 bd
       -0.009471365 -0.06645003 -0.047457542 -0.05645509
0003f0 52 ea 1b 3d 24 43 a4 3c 6a ad a8 bc 23 52 62 3d
       0.038065262 0.020051546 -0.020590503 0.055254113

network_body.observation_encoder.processors.0.conv_layers.2.bias f4 [32]
000000 c3 59 06 bd 22 4b b2 3d 9a fb 86 3d 8b e1 45 bd
       -0.032800447 0.08705737 0.06590958 -0.048310798
000010 01 75 21 bd 88 6b 00 bc db c2 09 bd 7c a4 29 3d
       -0.039418224 -0.007838137 -0.033633094 0.04141663
000020 64 a8 43 bd 20 50 c6 bb 2d 74 81 bd 00 36 10 3d
       -0.04776801 -0.006052032 -0.06320987 0.03520775
000030 a0 0d b9 3b 7d c8 3a 3d 63 ad 4a bd 12 38 c5 bc
       0.005647376 0.045601357 -0.04948176 -0.024074588
000040 b8 cf 8c bc b8 18 27 bc cc 50 99 3d 29 c9 a2 3c
       -0.017188892 -0.0101987645 0.07486114 0.019871311
000050 8a ab f3 bb 9e ec f0 3c 6a c2 32 3d 77 b1 72 3d
       -0.0074362205 0.029409703 0.04364244 0.059251275
000060 0d 5f 4a 3d dd 5c 84 3d c1 ff fc 3c 06 9c 0d bd
       0.049407054 0.06463025 0.030883672 -0.034572624
000070 c4 20 8d bc 19 d8 64 bd 0e 80 e4 bc 2a fb 1d 3d
       -0.017227538 -0.05587015 -0.027893092 0.038569607

network_body.observation_encoder.processors.0.dense.0.weight f4 [256, 32]
000000 bb 6e 79 3c 18 5a 93 3e 86 83 c5 3e 44 93 d4 3e
       0.015224154 0.28779674 0.38576907 0.41518605
000010 01 c5 0a be 73 91 81 be d1 a6 a6 bb 13 5b 52 bd
       -0.13551714 -0.2530628 -0.005085804 -0.051356386
000020 5d 55 e3 3e f6 d3 ad 3e 54 09 03 bd 97 f7 ba be
       0.44401065 0.33950776 -0.031991318 -0.3651702
000030 8a 47 bd 3d 64 c5 03 be 26 ab f8 3d f8 c4 cf be
       0.092421606 -0.12868267 0.12142019 -0.40579963
000040 60 22 33 be eb 93 7f ba b0 95 3f 3e 11 e6 32 bd
       -0.17493582 -0.00097495195 0.18709445 -0.04367644
000050 1f 49 b6 be f6 34 8b be d4 84 6f 3e 63 51 31 be
       -0.35602662 -0.27188843 0.23390514 -0.17316203
000060 9f cf ac 3d de 5f 57 3e f4 26 67 3e 93 fc 8a be
       0.08438038 0.21032664 0.22573453 -0.27145824
000070 93 91 b8 bc 1f 4c 34 be 5f e4 c2 bd d0 a4 db 3e
       -0.022530353 -0.17607163 -0.095162146 0.4289918
000080 d2 5b d6 be 81 45 70 bd 8c b3 c6 bd ae fa a1 3c
       -0.41866928 -0.058660034 -0.097022146 0.019772854
000090 2b f2 59 be 8f 64 2b 3c 2c 6d 47 3e 33 46 69 3e
       -0.21283786 0.010460987 0.1947524 0.22780685
0000a0 92 ea 81 3c 12 c5 fb bd 9e 80 58 be c8 16 c2 3c
       0.015858922 -0.122934476 -0.21142814 0.023692504
0000b0 ea 59 9e 3b 1c 8b 1d be 7e da 9d 3c 76 2e a2 3e
       0.004832496 -0.15385097 0.019269224 0.31676072
0000c0 d6 85 9e 3e e3 f5 f4 3d 17 8e 3e bd d9 d6 7e bd
       0.30961484 0.11960962 -0.046522226 -0.062216613
0000d0 05 2b e9 be 0a a8 a5 3d da fe 97 be c8 6d a7 3e
       -0.45540634 0.080886915 -0.29686624 0.32700944
0000e0 ec 31 5c be 94 09 d9 3d da 2e 6d be 76 33 08 be
       -0.21503419 0.1059753 -0.23162404 -0.13300881
0000f0 ed f9 86 3e 0a e7 a1 3e e8 71 d0 3e 3a 83 6e 3d
       0.26362553 0.3162158 0.40711904 0.058230616
000100 96 fa e0 3d ef cf 35 be e9 3f dd 3c 43 24 59 be
       0.109852955 -0.17755102 0.027008014 -0.21205239
000110 d8 97 02 be 9a e7 cc bd 4f 96 94 3e 7b 31 05 bd
       -0.12753236 -0.10005112 0.29020926 -0.03251789
000120 2a 2f 4d 3d 13 8b 87 bd 44 09 b3 bd 32 6c b3 bd
       0.050093807 -0.06618323 -0.08742002 -0.08760871
000130 02 f4 8e be c8 a9 a6 bc eb 34 87 bd ca e3 ac 3c
       -0.27920538 -0.02034463 -0.0660189 0.021104712
000140 b8 60 f2 3e a6 de 50 be 6e b6 12 3f 27 ac 00 3e
       0.47339416 -0.20397434 0.57309616 0.12565671
000150 db 37 76 bd b8 d2 fe bc 1f c8 1e be 48 d3 4b 3d
       -0.06011186 -0.031106338 -0.15506028 0.04976204
000160 39 1c a4 be c7 b7 55 3e 93 81 96 be ea 46 3e be
       -0.32052782 0.20870887 -0.29395732 -0.18581739
000170 aa a8 b8 3e ca cb 44 3e 76 9a 86 bd 8a b3 d9 3c
       0.3606618 0.19218364 -0.0657243 0.026574869
000180 4e d8 49 bd 93 2d a4 3e 60 fa ff be 0b e0 11 be
       -0.04927855 0.3206602 -0.49995708 -0.14245622
000190 3f 8a a0 be 0c 0e 56 3d 16 a9 9b be 61 b8 9b 3e
       -0.31355473 0.05225949 -0.3040244 0.30414107
0001a0 61 56 90 be 84 91 f9 bd c2 4b 4a bd da 16 32 be
       -0.28190902 -0.12185958 -0.049388655 -0.1739153
0001b0 94 7f d3 bd 1a fd 4b be ae dd da 3c d5 2e 00 3d
       -0.10327068 -0.1992077 0.026717033 0.031294663
0001c0 43 69 02 3f e1 cd ba bd 74 cb a7 3e 77 47 69 3d
       0.50941867 -0.091212995 0.3277241 0.05695292
0001d0 eb d8 53 3c bc 18 cc be c2 c7 05 be bc 99 80 3e
       0.012930135 -0.3986262 -0.13064483 0.2511729
0001e0 ce d4 b8 3e 29 5e b1 bd da 9a c3 be 06 79 46 be
       0.36099857 -0.08660538 -0.3820408 -0.19382104
0001f0 eb 4a b4 3e 10 7b 83 bb e9 9d 22 be 02 0e 8e 3e
       0.35213408 -0.004012473 -0.1588055 0.27745062
000200 92 35 dd 3e 7d 2b 98 be e7 44 b0 bd c4 59 57 be
       0.43204933 -0.2972068 -0.08606892 -0.21030337
000210 ac 1d 35 3e 43 35 08 3e ef 93 0e be ae 55 a7 be
       0.176871 0.13301568 -0.1392362 -0.32682556
000220 00 60 97 be 48 58 f6 3d 94 c7 f4 3d b2 c6 2a be
       -0.2956543 0.12028557 0.11952129 -0.16677359
000230 74 c0 8b be 6d 6a 83 be be 66 1a bf f3 6f 1a 3f
       -0.27295268 -0.25667134 -0.6031302 0.6032707
000240 cf 6d 92 bd 90 c6 3e be f4 a1 45 bd 45 5c 05 3f
       -0.071498506 -0.18630433 -0.048250154 0.5209392
000250 76 62 f8 bd 7a 63 09 3d 5c c7 04 3e 21 e1 50 3e
       -0.12128155 0.033542134 0.12966675 0.2039838
000260 f6 25 74 3e 93 84 46 bd 25 bb 78 be ad 6b 7e 3c
       0.23842606 -0.048466276 -0.2429014 0.015528602
000270 26 a2 a0 3e 26 d7 d8 3d 67 fd b1 be cf fa 9b bd
       0.3137371 0.10587911 -0.34763643 -0.07616197
000280 aa 14 c3 be d1 e1 a7 3e fe de 49 be 94 b6 22 be
       -0.38101703 0.32789472 -0.19713971 -0.1588996
000290 b1 8b f5 bd 72 19 f3 3c a5 96 c5 be 41 7a 70 3e
       -0.11989535 0.02967522 -0.38591495 0.23484136
0002a0 25 95 47 3d e0 a7 94 bd cb 36 2b 3e c7 54 13 3d
       0.04872622 -0.07258582 0.1672012 0.03596952
0002b0 66 77 e6 be f5 4d c3 be 4f 42 ca bd aa db 94 bc
       -0.4501297 -0.38145414 -0.098759286 -0.01817115
0002c0 d9 25 09 3e 6b 96 86 3d cf f9 58 3e d3 42 f9 bc
       0.13393344 0.06571659 0.21189044 -0.030427372
0002d0 a0 1f 33 3e 4b cb 01 be 54 c0 bc be cd 4f 08 be
       0.17492533 -0.12675206 -0.36865485 -0.13311692
0002e0 25 dd fa 3d 26 53 83 3e 47 9d 44 be 49 ab 7d be
       0.12249211 0.25649375 -0.19200622 -0.24772371
0002f0 8f 54 e5 3d c3 e1 32 3c 97 3d 01 3e 76 cd 2b bd
       0.11197769 0.010918084 0.12621151 -0.04194399
000300 e8 09 3d 3c 99 52 57 bd e1 a6 75 3e fe 82 85 bc
       0.011538006 -0.052569006 0.2398944 -0.016297814
000310 4d e2 06 bf 03 90 e2 bd 39 a3 2a be f1 83 87 3d
       -0.5268906 -0.11062624 -0.16663827 0.06616963
000320 64 1a b8 be 56 f8 b6 be 37 20 4b 3c 07 e5 b9 3d
       -0.35957634 -0.3573634 0.012397817 0.090768866
000330 30 92 0d bf 44 8d a0 bd e0 f5 ea 3d 3f 1f 7a bd
       -0.5530119 -0.07839444 0.11472678 -0.061064955
000340 ea f4 32 3f 97 a7 b3 3b ec e2 e0 3d b7 d0 a8 3c
       0.6990496 0.0054826248 0.10980782 0.020607335
000350 9a 16 a2 bc 6a 13 07 be f2 6d 66 be fb b5 64 be
       -0.019786168 -0.13191 -0.22502878 -0.22335045
000360 eb 78 f5 3e 1b 69 2f be 80 b6 61 3c 10 0d 53 3d
       0.47943816 -0.17129938 0.013776422 0.05152613
000370 87 0b ca 3d d5 63 11 be dc be 3f 3d 8a 58 30 bb
       0.0986548 -0.14198239 0.046812877 -0.0026908242
000380 c6 e9 00 bc b4 67 72 be 51 e6 2b be df 01 b7 3e
       -0.007868236 -0.23672372 -0.16787077 0.35743615
000390 3c bd 61 be 65 29 b1 3e 31 1c db 3e 4e 80 cc bd
       -0.22044843 0.34601894 0.42794946 -0.0998541
0003a0 52 04 be 3d 61 1d 8b be 4d 66 d2 3d cb 65 04 be
       0.09278168 -0.27170852 0.102734186 -0.12929456
0003b0 bb 76 a9 3c ea 38 c5 3d 20 b5 fa 3e d7 45 6f bb
       0.020686498 0.09629996 0.48966312 -0.0036510134
0003c0 53 94 e6 3d cb 4a 8c be 07 9c 9a be 6e 63 a5 3e
       0.11258759 -0.27400813 -0.30197164 0.3230242
0003d0 6b 8b f8 3b 66 bc d7 3e 15 e7 0e be 2b f7 2a 3e
       0.0075849793 0.42135924 -0.13955338 0.1669585
0003e0 88 a3 b4 3e 5f 30 d4 3e a0 a2 35 be 54 92 c6 be
       0.35281014 0.41443154 -0.17737818 -0.38783514
0003f0 31 72 d0 3e 2c 5f 35 be 5a 80 f9 3d 32 f8 d3 bd
       0.4071212 -0.17712086 0.12182684 -0.10350074

network_body.observation_encoder.processors.0.dense.0.bias f4 [256]
000000 c4 13 d5 bc a6 26 15 3c 0d fb 75 3d bc 2f 23 3c
       -0.026010402 0.009103453 0.060053874 0.009960111
000010 c0 f8 5c 3d b2 9f 09 3d 8e e8 2c 3d f5 45 72 3b
       0.053948164 0.033599563 0.04221397 0.0036967967
000020 4e 7e 7d bb b9 3f a1 3c 9e a7 9b 3b 56 13 87 3c
       -0.003868002 0.019683706 0.004750206 0.016488712
000030 04 1f c3 bc 05 ad a3 3d 29 fc 3c bd 22 8b 88 3c
       -0.0238185 0.07991985 -0.046138916 0.016667906
000040 39 9d 71 3d 03 45 75 bd 75 bd 30 3b ac 45 ae bc
       0.05898783 -0.059880268 0.0026968394 -0.021273457
000050 fd 60 51 3d f0 5c 32 3d b5 a6 4c 3b b7 4b 49 3c
       0.051117886 0.043545663 0.0031227295 0.012286118
000060 d9 a7 ef 3c f4 a7 89 3c 2c 68 3e 3d 90 21 06 3e
       0.02925484 0.01680372 0.046486065 0.1309874
000070 45 27 29 3c e3 12 a6 bc 29 cb 77 3d e1 5e b5 bc
       0.010324304 -0.020272678 0.060496483 -0.022139968
000080 d6 54 04 3c b8 4e a0 3d e9 8f b4 3c a8 e2 12 3b
       0.008076867 0.078275144 0.022041278 0.002241293
000090 de 59 42 bd 81 fd fb 3c cc 38 86 bc e6 9d 07 3d
       -0.047448985 0.030760529 -0.016384505 0.033109568
0000a0 20 ca 53 3b 63 c2 13 3d 37 c2 11 3d 70 f2 53 bc
       0.003231652 0.036074053 0.03558561 -0.01293622
0000b0 82 26 67 3d ab 06 fb bb d9 54 8a 3d 8d d2 bd 3d
       0.05643321 -0.007660707 0.06754465 0.09268675
0000c0 a6 ee 42 bb 8e cc e5 bb b9 67 75 3d f6 fc 68 3d
       -0.0029744296 -0.00701291 0.05991337 0.056881867
0000d0 61 2f 8f 3c da b8 94 3d f3 50 20 bc 8f 9f 99 bb
       0.017478647 0.0726182 -0.009784925 -0.0046882103
0000e0 ba ef 0f bc 42 29 0a 3d 63 48 83 3d 52 08 65 3d
       -0.008785183 0.033730753 0.06410291 0.055916138
0000f0 f4 82 b3 3d 6f 66 49 bc 1c 62 e3 3c eb 9d de bc
       0.08765212 -0.0122924885 0.027756743 -0.02717491
000100 1f 49 66 3d 5a 61 ed bc 3d 84 1c 3d 59 17 53 3c
       0.056222077 -0.028977085 0.03821205 0.0128839845
000110 4f d6 ae ba b6 d2 1e 3d 94 9c a8 3d f4 d2 93 bd
       -0.0013339015 0.03877517 0.0823299 -0.072179705
000120 af dd 4b 3d 23 9e 97 3b 25 58 33 bc 6e 15 90 bc
       0.04977196 0.0046270057 -0.010946308 -0.017588343
000130 34 f2 0b bd 1b dc d3 3c 92 d2 b4 3c ca aa fd bc
       -0.03416653 0.02586179 0.022073064 -0.030965228
000140 3f 46 1f 3d a6 30 a2 3d 87 8c 17 3d c4 1c 05 ba
       0.03888535 0.07919435 0.03699925 -0.0005077834
000150 37 de 70 bc 98 3f 1f bd 95 4a a7 bc 8b 0d 48 3d
       -0.014701418 -0.038879007 -0.020421306 0.04884104
000160 1b 3b 85 3b 08 4f 8d bc 45 50 0c bd d1 71 3f 3c
       0.004065884 -0.0172496 -0.03425624 0.011684851
000170 4a 83 cc 3c ad 4d 73 3b 9c e3 91 bd f5 f6 f5 bb
       0.024964947 0.0037125156 -0.07123491 -0.007506246
000180 39 b0 b7 3c 59 cc 35 3d 02 56 c8 3d 40 08 8a 3d
       0.022422897 0.044384334 0.0978203 0.06739855
000190 32 88 15 3d af 12 18 3d b9 7e 8f b9 78 5c 8a 3c
       0.03650684 0.037127193 -0.000273695 0.016889796
0001a0 1f 83 62 3c 1c dc 8e 3b 29 f9 70 3d 9c 08 17 bd
       0.013825207 0.004359735 0.058831368 -0.036873445
0001b0 51 a3 a0 3c 4f c0 f3 3c 1a 34 be 3b cc 6c ed 3b
       0.019609125 0.029754786 0.005804551 0.0072456356
0001c0 e0 d0 c2 3c 91 6a e7 bb 5c ac 1b 3d b1 1d ef 3c
       0.02378124 -0.0070622643 0.03800617 0.029188963
0001d0 62 be b5 3c 56 af e0 3d fd 3c 56 3c 2c 14 85 bd
       0.022185508 0.10970943 0.013076064 -0.06497988
0001e0 ac 77 c7 bb 73 8d cb 3a bf 6b 52 3d 10 b1 24 3c
       -0.006087264 0.0015529826 0.051372286 0.010051981
0001f0 2e 5b bd b7 05 5f a9 bb f2 31 d8 ba c0 3c c6 bc
       -2.2573015e-05 -0.005168798 -0.0016494377 -0.02419889
000200 b9 e2 72 bb 0a a5 1c 3d 3f dd eb 3d 80 a3 57 bc
       -0.0037061407 0.03824333 0.11516809 -0.01316154
000210 ca 13 90 3b e5 52 b4 bc ba da 56 3c b0 aa 5e 3d
       0.0043968903 -0.022012183 0.013113672 0.054362
000220 a6 41 7c 3d 07 c1 f5 3d 77 13 22 3c 3f d6 ab 3c
       0.061586045 0.11999708 0.009892336 0.020976184
000230 12 a6 d7 3c d4 b3 df 3d 2b a8 1d bb 24 0b 2b 3d
       0.026324306 0.10922971 -0.0024056535 0.04175867
000240 97 53 83 bb 37 55 bc 3b aa e3 d6 bc 98 d1 58 b9
       -0.0040077674 0.005747463 -0.026231606 -0.00020677445
000250 e7 c3 86 3c 7e 13 fd 3c bd b5 b4 3b 06 6b c5 3a
       0.016450835 0.030893084 0.005514829 0.0015061803
000260 72 d9 4d bd 5c a4 39 bd 28 c9 5c 3c 29 28 c3 3c
       -0.0502562 -0.04532276 0.013475694 0.02382286
000270 1b c2 47 3d 1c 67 f4 3b d8 e5 03 3d 2f db c9 3c
       0.048769098 0.0074585807 0.032201618 0.024640648
000280 f0 ab 2f 3d 37 1e 5a 3d a4 cd 4c 3d 0b 57 83 bc
       0.04288858 0.05325147 0.0500008 -0.016032716
000290 b9 1b 5b 3c a5 a2 1c bc 2c 40 6a 3d 3f 82 5f bc
       0.013373309 -0.009560262 0.057190105 -0.013641893
0002a0 06 73 14 3d 98 0b b9 bd b5 c6 44 3d 2f db 44 3d
       0.036242507 -0.090354145 0.048041064 0.048060592
0002b0 8b 88 6f 3d 0c 86 ef 3c 73 47 08 bc e4 b2 ea 3c
       0.058479827 0.029238723 -0.008317816 0.028649755
0002c0 22 89 6a 3d aa 57 6c 3d 35 56 57 bd b6 7e f5 3c
       0.057259686 0.05770079 -0.052572448 0.029967647
0002d0 a7 ae 99 3c 60 89 e0 3c 82 59 db bc ee 54 ac bd
       0.018760039 0.027409256 -0.02677608 -0.084146366
0002e0 4b 71 c1 bc 01 d0 91 3b 38 27 a7 3d 5d 6d ad 3b
       -0.023613593 0.004449845 0.08161777 0.005292578
0002f0 33 62 41 3d 98 50 94 3b 68 ce ab 3c 90 f7 98 3d
       0.04721279 0.004526209 0.020972446 0.07469094
000300 3f 2a 04 3d 6d c0 78 3d 72 99 2d 3d 27 a5 94 3d
       0.03226685 0.060730387 0.042382665 0.07258063
000310 7b 73 2b bc 18 3d 97 3c 89 cc 24 3c 1d fd 1a 3d
       -0.010464544 0.018461749 0.010058531 0.037839044
000320 83 f3 fb 3c 6b 73 a1 3d 97 ef 9e 3b 70 40 c3 bd
       0.030755764 0.07883342 0.0048503387 -0.09533775
000330 f2 16 38 3c 8d 28 41 3c 3f de 87 3c 90 00 38 bd
       0.011235939 0.011789453 0.016585467 -0.04492241
000340 bd 07 0f 3c d2 a9 63 3d 65 bf 80 3d 8b 4c 4b 3d
       0.008729872 0.055581875 0.062865056 0.049633544
000350 1f 84 63 3c c9 35 df bc 34 9c 34 3d e8 6a 81 3c
       0.013886481 -0.027247326 0.04409428 0.015798047
000360 a7 39 1a bc e6 5e ff 3c 1c 14 2f 3d d4 dd da 3b
       -0.009413159 0.03117318 0.042743787 0.006679276
000370 96 d1 4e bc a8 57 a5 3c 0d bb 42 3d f7 aa cc 3c
       -0.012623211 0.0201834 0.047541667 0.024983866
000380 00 09 59 3d 2c 1a f5 bb fa cf 82 bb ea 54 dd 3b
       0.0529871 -0.0074799266 -0.003992078 0.0067545073
000390 02 ad 8c 3c a3 eb ea 3c 39 eb 6b 3b 2f ce 4d bc
       0.01717234 0.028676813 0.0035998358 -0.012561365
0003a0 d3 d5 26 3d e1 a6 94 3c 98 fa 0d 3d 73 df be 3c
       0.040731262 0.01814598 0.034662813 0.023299908
0003b0 eb 9f e8 3b 6b a7 9d 3d e4 c6 ed 3c 0a b3 81 bc
       0.007099142 0.07697948 0.029025503 -0.015832443
0003c0 90 cd e0 3b 63 90 71 bc ef 82 96 bc 73 45 37 3d
       0.0068604425 -0.014743897 -0.01837298 0.044743966
0003d0 ef 99 16 3d da c1 4f 3b 96 58 4d 3d b9 47 7e 3d
       0.036767896 0.0031701238 0.05013331 0.06208012
0003e0 f6 09 9a 3d 59 1a 93 3d c6 79 42 3c b0 60 b9 3c
       0.07521431 0.0718276 0.011869853 0.022629112
0003f0 93 2a 25 3d b5 2f 44 bd 0c 2d 76 3c 59 5c b7 3d
       0.040323805 -0.04789706 0.015025388 0.08953161

network_body._body_endoder.seq_layers.0.weight f4 [256, 266]
000000 7a a0 7b bd ac 00 a7 bb 9e f0 c9 3d ca 4d 60 3c
       -0.06143234 -0.0050965156 0.09860347 0.013690421
000010 85 d5 03 be 80 0b 30 3b a5 f3 35 3d 85 2f 2b bd
       -0.1287442 0.0026862323 0.04442181 -0.041793365
000020 60 46 05 bd 77 c9 52 3c 8f e0 27 3c 63 8f e8 bd
       -0.032537818 0.012865416 0.01024641 -0.11355474
000030 be 66 df bd a5 03 98 bc ba fe 85 bd bb 21 14 3e
       -0.109082684 -0.018556425 -0.06542726 0.14465992
000040 c8 69 fe bc ed 97 68 bc b7 05 84 3d 16 71 d9 3c
       -0.0310563 -0.014196378 0.064464025 0.026543181
000050 9a 0c 5c bd e2 47 49 3c 86 ff c1 3d c2 73 03 bd
       -0.053722955 0.012285205 0.09472565 -0.032092817
000060 60 3b 4e be 55 16 3e 3c b2 df 95 bd 79 18 50 bc
       -0.20139837 0.011602004 -0.07318057 -0.012701147
000070 e0 e1 e1 bd 0d 4f 3a be 89 f0 fc 3d bd 8c ad 3d
       -0.1102941 -0.18194218 0.12350566 0.08474109
000080 63 0d 82 3d ec 71 d9 bd 6b 1a 4c 3d 37 5c 81 be
       0.063502096 -0.10617432 0.04982988 -0.25265667
000090 bd 10 95 bc b5 75 4e 3d ba 90 c3 bd 5c 00 73 bc
       -0.018196458 0.050405223 -0.09549089 -0.014831629
0000a0 b7 80 88 bd 12 f8 bd 3c 8f ba 1e bd 27 e4 83 3c
       -0.066651754 0.023189578 -0.038752135 0.016100002
0000b0 83 42 8f bc 87 ef c1 3b 1e 76 5c bc d4 82 cb 3d
       -0.01748777 0.0059184465 -0.013455896 0.09937063
0000c0 21 d4 90 3c 12 c0 4b 3c db 79 ea bc 6b d1 e2 3b
       0.017679276 0.01243593 -0.028622558 0.006921937
0000d0 67 4c 85 bc d9 75 29 3e 7f 6f 4d be a3 d0 a3 3d
       -0.016271783 0.16548862 -0.20062064 0.07998779
0000e0 20 7f 2b 3e c1 89 04 3d be 4e 8a bd 7d a6 c8 3b
       0.16747713 0.032357935 -0.067533 0.0061233626
0000f0 1f 74 3c 3e 95 21 51 3c 1d 72 ed 3d a0 ac 50 3e
       0.18403672 0.012764354 0.11594031 0.20378351
000100 3f f7 46 bd da f4 7d 3d 7a ee 2d ba 2a 4c b3 bd
       -0.048575636 0.062001087 -0.0006634962 -0.087547615
000110 13 be 54 3c e3 8f 95 bd e4 cc ed 3a 1f 95 f4 3c
       0.01298477 -0.07302835 0.0018142727 0.029856263
000120 30 73 60 3d 44 a3 f6 3c 4c cf 47 3c 52 57 8d bb
       0.05479735 0.030107148 0.0121954195 -0.004313388
000130 66 ce 14 bd 0d 12 ac 3c 50 b4 1f be 80 ad 9b 3d
       -0.03632965 0.021004701 -0.15596128 0.07601452
000140 03 b4 cd 3c a9 28 18 3e a5 0d 45 bd bb 43 d4 bc
       0.02511025 0.1485926 -0.048108716 -0.025911203
000150 83 c3 d8 bc b3 86 ee bc 3c a2 14 bd 9c 3f 37 3d
       -0.026460415 -0.029116964 -0.03628753 0.044738397
000160 64 11 91 bd 64 cb 83 bd 1e 12 dd bc a2 55 90 bd
       -0.07083395 -0.06435278 -0.026986178 -0.07047583
000170 80 83 df 3d 5c 2e 5e bc cb 4f d9 bc b4 fb 78 3d
       0.109137535 -0.013560858 -0.026527306 0.060786918
000180 28 29 72 be f0 0b 0f 3e 25 ec c1 3d cf 9c d3 bd
       -0.23648512 0.13969398 0.09468869 -0.10332643
000190 73 c8 d7 3d fc 31 0f 3e 48 4b 06 be fc 79 2a 3d
       0.105362795 0.13983911 -0.13114655 0.04162024
0001a0 c7 c7 55 3d 79 5c a7 3c 79 7d 05 be 1e 3a 07 bd
       0.052192476 0.020429837 -0.13036145 -0.03301441
0001b0 7d 36 9d 3a 4b b8 b3 bd a8 65 10 bd 88 f3 f4 bc
       0.0011994388 -0.087753855 -0.035253197 -0.029901281
0001c0 2b 5e 0f 3e 34 a0 8e bb 89 81 18 3e 01 23 6e 3d
       0.14000766 -0.004352594 0.14893164 0.05813885
0001d0 6b ad f9 3c 64 60 84 bc 2d dc 0a be f2 39 07 3e
       0.0304782 -0.016159244 -0.13560553 0.13205698
0001e0 2d 88 21 3e 88 6e 80 bd d3 b5 92 bd 73 a9 17 3e
       0.15774603 -0.06271082 -0.071635865 0.14810733
0001f0 a5 e3 4d 3d e9 e9 91 3c 43 ef 8c 3d b1 90 96 bd
       0.050265927 0.017811732 0.06881573 -0.073518164
000200 75 97 c0 3b 8b 9f aa 3d 1b 43 28 be fb 70 cd 3c
       0.00587743 0.08331212 -0.16431849 0.025078287
000210 ee 7f 28 bd 8e e8 9d bc 3c 99 73 3d 50 81 ff bd
       -0.04113763 -0.01927593 0.059472308 -0.12475836
000220 f9 9f b5 bd 20 b2 40 3d 91 6c 5b bd 22 5f b7 bd
       -0.08868403 0.047044873 -0.053570334 -0.08953692
000230 16 3f e1 3d ea 7d 24 bc fd 12 9a bd 7c 02 d6 3d
       0.10998361 -0.010039786 -0.07523153 0.104496926
000240 4c 2a db 3c 01 8c f2 3c 6c 17 16 be 8a d7 46 3d
       0.026753567 0.029607775 -0.14657372 0.048545398
000250 aa c3 a4 be 3d b7 cf bd 4d 02 17 3e 15 58 d9 3d
       -0.3218053 -0.10142372 0.14746971 0.106125034
000260 d7 51 76 bc 10 88 ac bd 9f 1e 2e bc fe b0 26 3e
       -0.015034161 -0.08424389 -0.010627418 0.16278455
000270 d1 9c c4 bd b4 45 ff bb 39 f8 93 bd 36 8e 90 3d
       -0.09600223 -0.0077902917 -0.07225079 0.070583746
000280 7c 88 fd 3c 3d c8 a0 3d 78 c1 60 3d 68 06 8f ba
       0.03094887 0.078506924 0.054872006 -0.0010911943
000290 1b d4 66 be c0 de 6e 3d e8 16 84 be d9 e6 25 be
       -0.2254185 0.0583179 -0.25798726 -0.16201343
0002a0 a6 2e 8f bd 63 cf 91 3c 3b 0a c4 bc fb 28 d7 bd
       -0.06991319 0.017799085 -0.02393066 -0.10505863
0002b0 17 f6 49 3d 94 d9 96 3d 40 d2 26 be 84 d2 4e 3b
       0.049306955 0.073657185 -0.16291142 0.0031558583
0002c0 9a be 87 bc 10 4c db bc e6 b8 44 3d 39 a0 6c bd
       -0.016570378 -0.026769668 0.048027895 -0.057769988
0002d0 f7 5d 95 bc 16 5b aa bb 12 5d d9 3c 1e 53 76 3d
       -0.018233282 -0.0051988466 0.026533637 0.06013786
0002e0 44 ab 31 be 1a 3f 1c be 1b 33 23 be d0 53 27 3d
       -0.17350489 -0.15258446 -0.15937464 0.040851414
0002f0 b7 57 09 be 7f 1c 62 3d 92 6c 4f 3d e8 0c be bd
       -0.13412367 0.055202957 0.05064065 -0.092798054
000300 c8 88 99 3d 1a 50 0d bd a7 2c ad bd 96 7c 1f bd
       0.07496792 -0.03450022 -0.084557824 -0.038937174
000310 ab ba f3 bd 1e ce d0 3b 89 bc 4d bd d4 fe 11 bc
       -0.119008385 0.0063722273 -0.05022863 -0.008910853
000320 3a 47 2c 3d a7 9e d2 3d 2e cf 3b bd 6f 4c 1d bd
       0.042060114 0.10284167 -0.04585188 -0.03840297
000330 14 6b c5 3d 79 d5 05 bd e6 06 4e 3d 6c 0a 12 3d
       0.09639564 -0.032674287 0.050299548 0.03565447
000340 55 15 d6 bc e3 61 0e be 39 90 2f bd c5 85 1b 3c
       -0.026133219 -0.13904528 -0.04286215 0.009492342
000350 2b 37 ec bd f0 d9 00 3e 07 03 91 bc ed 64 12 bc
       -0.1153396 0.12583137 -0.017701639 -0.008935195
000360 f4 a8 a1 bd 99 91 d2 bd 40 98 22 3e b6 c2 9a 3d
       -0.078935534 -0.10281677 0.15878391 0.075566694
000370 a0 3b f1 3d 4f d9 76 3d ab b5 3a 3d 23 39 a2 bd
       0.11778951 0.060265835 0.04558341 -0.07921054
000380 01 ed f9 bd 76 55 d9 bd 8a aa f4 bc 7f d9 ec bc
       -0.12203408 -0.106120035 -0.029866476 -0.028912304
000390 fe a6 46 3d 78 d9 b7 3c 0d 6d 73 3d df dd 99 bd
       0.0484991 0.022442564 0.05943017 -0.07513022
0003a0 1f 46 8a bc c4 75 fa ba ed 0b 24 3d 17 fa 25 be
       -0.01687914 -0.0019108583 0.040050436 -0.16208683
0003b0 44 44 36 bd d5 b0 b7 3d 76 ef e4 bd a3 76 59 bb
       -0.044498697 0.08969275 -0.11178486 -0.0033182285
0003c0 1e 7a 3c 3c 5a bc 43 bd d9 94 33 bc 42 64 2e be
       0.011503724 -0.047787048 -0.010960781 -0.17030433
0003d0 86 7f f8 bd bb 51 94 3b d9 9b fb 3d be e4 8e 3d
       -0.12133698 0.0045263446 0.12285585 0.06977223
0003e0 c7 64 e6 3c cb 66 e8 bd 31 83 03 3e b2 2c 89 3d
       0.028124226 -0.11347731 0.12843014 0.06697978
0003f0 5d 13 79 3d 21 3d 95 3c 01 f5 0c be 68 44 ac 3d
       0.060809482 0.018217625 -0.13765337 0.08411485

network_body._body_endoder.seq_layers.0.bias f4 [256]
000000 28 70 f0 bb 91 fc d7 3a 84 58 a3 3c 9f d8 48 bb
       -0.007337589 0.0016478469 0.019939668 -0.0030646694
000010 19 05 5a bb 8c b8 09 3d 39 e6 b3 3a da 9b 6e 3c
       -0.0033267199 0.033623263 0.0013725228 0.014563525
000020 63 f9 12 bc d1 df 13 bc 18 f4 98 3c 5a 8b 6f bd
       -0.008970591 -0.00902553 0.01867108 -0.058482505
000030 91 6d c1 3b a9 d3 78 3a 4a 9f 21 3c c4 06 28 bd
       0.005902954 0.0009491989 0.009864638 -0.041022077
000040 d8 ff d4 3c c7 df ab bc 9b 1c 4e bb 54 f5 d4 bb
       0.026000902 -0.020980729 -0.0031450156 -0.006498972
000050 7f ed 05 3c 54 37 85 3c 13 8e 5b bb 1f 2c 38 3c
       0.008174299 0.016261734 -0.003350143 0.011240988
000060 09 4e c7 bb 73 6b 01 3c 49 f9 b7 bc 6b 27 bf 3b
       -0.0060823006 0.007899153 -0.022457736 0.0058335564
000070 9d 88 09 3c b7 bc 24 3b 3d a4 79 ba 1b 88 98 bc
       0.008394388 0.0025136897 -0.00095230696 -0.018619588
000080 0e f1 81 b9 27 72 8f bb f3 64 45 bc 31 b4 11 3b
       -0.00024784397 -0.0043776217 -0.012047994 0.0022232647
000090 96 b1 36 3c 1c 27 3f bc d1 ca 9f bb ae c0 8d bc
       0.011150738 -0.011667039 -0.0048764725 -0.01730379
0000a0 d9 0e 8a bc 91 d0 e4 3b 77 28 1a 3d b2 aa d9 3c
       -0.016852783 0.006982871 0.037636247 0.026570652
0000b0 56 a7 9a b9 b0 60 26 3d 9f 96 50 bc ea e0 e2 bb
       -0.00029497844 0.040619552 -0.012731223 -0.0069237845
0000c0 4f ad 64 bd 21 da 62 3c 45 a8 65 3c 38 ff a9 3c
       -0.055829342 0.013845951 0.014017169 0.02075158
0000d0 51 50 c7 3b d8 50 f2 3a 43 26 c2 3b f4 97 a3 3b
       0.0060825725 0.0018487228 0.0059249713 0.0049924795
0000e0 74 a2 f8 3c fc 4f ba 3c be d6 9d 3c 4e 61 8b bc
       0.030350901 0.022743218 0.019267436 -0.017014172
0000f0 c6 17 a7 3c 6e 27 72 3c bd 74 8b bc 70 53 8a 3c
       0.020397078 0.014779909 -0.017023439 0.01688549
000100 7c 97 a0 bc 3a ae 6c bb 1b 80 7b bb 43 ca 16 bc
       -0.019603483 -0.003611459 -0.0038375917 -0.009203496
000110 46 56 33 3c 01 97 98 3c a5 24 98 3b 8b 30 c0 bb
       0.010945862 0.018626692 0.0046430402 -0.005865162
000120 54 74 0f bb 57 95 6c bb 32 ee 87 bc bf d6 45 bc
       -0.0021889405 -0.0036099756 -0.016593073 -0.012075125
000130 e6 04 3d 3c 11 31 c8 bc fe 13 40 bc a3 a1 f4 3a
       0.011536812 -0.02443746 -0.0117235165 0.0018663894
000140 db 0f d7 3c 83 1f de 3b 68 46 f6 3b 5e 99 e6 ba
       0.026252678 0.006778659 0.0075157173 -0.0017593314
000150 c4 d0 59 bc 9c 67 07 3b 50 9f 25 bc 44 ec 71 bc
       -0.0132944025 0.0020661121 -0.010108784 -0.014765803
000160 8b 85 0d 3d 70 76 e9 bc 55 31 a3 bc ca a2 43 bc
       0.034551185 -0.028498858 -0.019920984 -0.011940667
000170 09 52 09 3d 67 9d 98 bc f3 a6 03 bc bc 2c 5f 3c
       0.0335255 -0.018629743 -0.008035409 0.013621505
000180 5d 36 8b bc 86 2b 44 3d cb e9 2e 3c a0 ab 9d 3b
       -0.016993696 0.04789307 0.010675858 0.004811719
000190 c8 80 45 bb 06 4d 8b 3c a1 c1 97 3c 3c b3 ae bc
       -0.0030136574 0.017004501 0.018524947 -0.0213257
0001a0 ea 6c 96 bc 30 77 86 3c 4f 0b 5f 3c 5c 78 bd 3c
       -0.018362481 0.016414255 0.013613536 0.02312868
0001b0 f2 95 2e 3c 4c 26 23 bc 9c 50 9e 3c b5 f7 b4 b8
       0.010655867 -0.009957861 0.019325547 -8.629208e-05
0001c0 39 43 27 bb 82 5e ed 3c f0 69 4f 3c ac c3 08 3d
       -0.0025522246 0.028975729 0.012659535 0.033389732
0001d0 04 bc 21 3c 6e 57 57 bb 64 68 05 3d 8b dd 5a 39
       0.009871487 -0.0032858509 0.032570258 0.00020872631
0001e0 c9 b4 43 bc e9 5a 83 3c 6e e9 5d 3c aa db 93 3c
       -0.011944958 0.01603456 0.0135444235 0.01804908
0001f0 ed b5 89 3c fd bf 2d 3c d7 47 08 bc 05 22 ee 3c
       0.016810382 0.010604856 -0.008317909 0.029068956
000200 22 a6 21 bb 5e 43 0b bd 31 55 08 bd e0 84 5c bc
       -0.0024665673 -0.033999793 -0.03328437 -0.013459414
000210 0c 57 59 3c 4e 8a 77 bb 85 3f 23 bc 64 9f 14 3c
       0.0132653825 -0.0037771645 -0.009963875 0.009071205
000220 76 e8 b7 bc 68 c2 ea 3c 2e 94 bb 3c 6f c1 a0 3c
       -0.022449713 0.028657153 0.022897806 0.019623486
000230 64 ac 7b bb 0f 05 a0 bc a9 09 b7 ba 5e 3d 86 bc
       -0.0038402313 -0.019533662 -0.0013964671 -0.016386684
000240 8f 10 07 bc 79 ab b8 3c e1 33 98 bc 37 dd 34 bc
       -0.008243694 0.022542702 -0.018579425 -0.01103907
000250 b6 97 9e 3b d7 0e 86 3c 3e c7 91 bc 9e 82 e5 3c
       0.0048398627 0.016364498 -0.017795201 0.028016385
000260 92 e5 72 bc 10 86 9a bb df 1b ca 3b be 79 75 b9
       -0.014825242 -0.0047156885 0.0061678733 -0.00023410373
000270 64 13 39 bc 1e 2f 29 3d 30 0e 60 bc 84 36 3a bc
       -0.011296127 0.0413047 -0.013675258 -0.011365537
000280 11 5b 49 3b ab fa 75 3b fa 31 85 bb aa 89 cc 3c
       0.0030724446 0.0037533443 -0.0040647956 0.024967987
000290 fa 65 b9 3c 2c b7 b3 3c f5 df 80 3b 05 cf 29 bd
       0.022631634 0.02193793 0.0039329478 -0.041457195
0002a0 ae 61 cc 3c 70 ea 8c bb f2 9e 39 bc 24 cb fd b9
       0.024948921 -0.004300408 -0.011329399 -0.00048407272
0002b0 26 97 a8 bb b0 75 cf bc c4 11 a0 3c 06 ee 1d 3c
       -0.0051449714 -0.025324672 0.019539721 0.009639269
0002c0 0c d7 81 3b 50 22 e2 ba 0e 4c 96 3b 31 57 8d bc
       0.003962403 -0.0017252658 0.004586703 -0.01725349
0002d0 af c2 29 3c 5d 6f 94 bc 25 04 2d bc b0 fd 52 3c
       0.010361358 -0.018119508 -0.01056007 0.012877867
0002e0 3a 3d e0 ba 3b e9 b1 bc c5 52 bc 3c f8 70 fc 3b
       -0.0017108091 -0.021717658 0.022988686 0.0077038966
0002f0 b6 e4 b6 3c 04 5a 01 bd fa 15 bd 3b ac 48 05 3d
       0.022325855 -0.031579986 0.005770442 0.03254001
000300 af 80 bf 39 11 be 84 bc 21 67 2b bd 29 03 dd bc
       0.00036526236 -0.016203912 -0.0418464 -0.026979046
000310 c8 a0 5e 3c 25 58 7e 3c 80 cb b0 ba 8f 08 d7 b9
       0.013588138 0.015523945 -0.0013488382 -0.00041014372
000320 ba 29 19 ba 2c 18 8b 3b 21 1d b7 bc dc 61 80 3c
       -0.00058427046 0.004244825 -0.022352757 0.015671663
000330 1c 13 1e bb 0e 60 12 bc fc e2 b1 3b 80 32 4e bc
       -0.0024120277 -0.008934034 0.00542867 -0.012585282
000340 75 8e 58 3c 09 f7 46 bc fa df 9c bc 8d 94 39 bc
       0.013217558 -0.012143859 -0.01914977 -0.011326921
000350 f9 e2 a1 3b 12 d9 38 3c 6f 95 1c bc df f8 0c 3d
       0.0049403873 0.011282222 -0.009557112 0.03441703
000360 26 07 27 3d 1d 88 29 3c 81 21 16 3c d4 41 8b 39
       0.0407783 0.010347393 0.009163261 0.00026561192
000370 e0 c4 74 3c f3 22 ba 3c 02 b4 84 3b 51 2e 50 bc
       0.014939517 0.022721743 0.004049779 -0.012706355
000380 e8 0d f6 3b c0 b9 02 3c 9b 3a 30 3c 69 bf ce 3b
       0.007508982 0.007978857 0.01075616 0.006309439
000390 fd a5 1d 3d 35 1a 11 bd 6a 67 e7 3b de ec b1 3c
       0.038488377 -0.035425384 0.0070618885 0.021719392
0003a0 e4 f6 18 ba d8 0e 70 3c 18 00 ea 3c 26 f1 9a bc
       -0.00058351294 0.0146519765 0.028564498 -0.018913817
0003b0 7e 93 8c bc 21 ef 3f 3c ae 2a 8d 3c 76 df b3 3c
       -0.017160174 0.011714728 0.017232265 0.02195714
0003c0 5e a8 35 bb 39 76 98 3c f6 d2 68 3c bf 59 db bc
       -0.0027718763 0.01861106 0.014210453 -0.026776193
0003d0 b6 77 d6 3c 33 27 fb bc 63 48 f3 3c 12 c9 91 3c
       0.02618013 -0.03065834 0.029697603 0.017796073
0003e0 4a 17 97 3c 21 09 92 bc bd f4 90 3c fb 1b 97 3c
       0.018443722 -0.017826619 0.017694825 0.01844596
0003f0 56 0b ac bb 9b 4b 83 3c 2b 99 67 3b 4e 53 6f 3c
       -0.005250375 0.016027262 0.0035339098 0.014607264
