results/PushBlockCollab_PPO/PushBlockCollab/PushBlockCollab-3499999.onnx (onnx, 643240 bytes, 12 tensors)

network_body.observation_encoder.processors.0.conv_layers.0.weight f4 [16, 6, 8, 8]
000000 50 72 10 bd 8f 48 de bb 91 ba 97 3d fa 64 ed 3c
       -0.035265267 -0.006783552 0.074086316 0.028978813
000010 d8 37 98 3d 1c a8 36 bd ed 3b 6b bd ef a9 1b 3a
       0.07432526 -0.044593915 -0.057430197 0.0005938103
000020 c1 a9 28 bb 1a 68 89 bc fb 53 97 3d ac a9 41 3d
       -0.0025735947 -0.016773272 0.07389065 0.047280952
000030 4c c8 84 3d 57 21 85 3d 35 15 1a 3d b6 50 94 bd
       0.06483516 0.065005 0.03761788 -0.07241957
000040 1b 7d c6 3d fa 57 5a 3d 29 43 dd 3d df 89 a1 bc
       0.09691831 0.053306557 0.108038254 -0.019719062
000050 1c 4f c8 3c 93 2c f2 bc 2e 0d 5f bc e1 85 57 3b
       0.024451785 -0.02956227 -0.013613982 0.0032886195
000060 fd 57 e1 3c 2d f2 85 3a 36 73 f3 3c e9 11 91 bc
       0.027507776 0.0010219269 0.029718023 -0.017708736
000070 06 3e fd bc e0 aa f9 bc f5 9e 78 bd f0 e4 03 be
       -0.030913364 -0.030476987 -0.06069847 -0.12880301
000080 8a f4 97 3d 8d d2 8c 3c b2 41 4f bc 12 66 8d bc
       0.07419689 0.017190242 -0.01264994 -0.017260585
000090 c7 cb 85 3d ac 09 39 bd 82 bf 89 bd f2 f2 22 3d
       0.06533008 -0.04517524 -0.0672598 0.039782472
0000a0 6f 0f f8 bc 7b 98 87 3c e0 4d f5 3c dc 09 8f 3d
       -0.030280797 0.0165522 0.02994436 0.069843024
0000b0 b5 18 10 bc a3 10 8a 3d 20 d9 bd bc 7b 95 11 bd
       -0.008794953 0.067414545 -0.023174822 -0.035542946
0000c0 f5 27 12 bc 36 58 48 bc 57 ff 0a 3d a4 30 8b bc
       -0.008920659 -0.012228062 0.033934917 -0.016990967
0000d0 58 24 99 3c c0 2f de bc 75 a5 c6 3d b4 3e c8 bd
       0.018694088 -0.027122378 0.09699527 -0.09777585
0000e0 69 0c 5d bc 34 48 6a bd 42 79 8a bd 3e 5f 8c 3d
       -0.013491728 -0.057197765 -0.06761409 0.068541035
0000f0 09 73 8d bc 6a b7 2f bd 9d 8b c2 3c f0 f7 b8 bd
       -0.017266767 -0.042899527 0.023748213 -0.09031665
000100 01 7b d1 bc ac df 35 bd b3 b0 aa bd 6e e5 aa bd
       -0.025571348 -0.044402763 -0.08334484 -0.083445415
000110 bb c9 27 bd 77 c3 cf 3d 95 39 1b 3d 47 77 ca 3c
       -0.04096387 0.10144704 0.03789671 0.024715079
000120 77 11 3c 3d 9b 94 ab bd a3 9f 99 bb 3b a3 73 3d
       0.045915093 -0.083779536 -0.0046882196 0.05948184
000130 57 92 06 be 80 44 72 3a c9 68 6b 3d 32 d4 5f 3d
       -0.13141762 0.00092417747 0.057472978 0.054645725
000140 52 f3 42 3a c9 81 87 3d d7 a8 eb 3c 43 94 ea 3c
       0.000743677 0.066165514 0.028767033 0.02863515
000150 97 29 8c bb 56 8d b5 bd 5b 3e b5 3d 57 b4 65 bb
       -0.004277419 -0.08864848 0.08849784 -0.0035050118
000160 46 00 0f 3c 5a 2b ee bc 5f e2 0f bd 56 61 87 3b
       0.008728093 -0.029073406 -0.035127994 0.0041314764
000170 e0 2c 54 bc e1 6d 79 bd 1f a7 2a bc 61 3d 6a bd
       -0.012950152 -0.060895804 -0.010415821 -0.05718744
000180 3d 8e d8 bd ff 22 dc 3c b9 1f d4 bd ef ab eb 3b
       -0.10574005 0.026872156 -0.10357613 0.007192127
000190 ce 9c 4d bd 7d dc ee bd dc 35 15 bb ab ea 94 3c
       -0.05019837 -0.116631486 -0.0022767698 0.018178305
0001a0 a2 fd bb ba d6 ac 2c 3d 45 21 d7 3c e3 27 8a bc
       -0.0014342556 0.042157017 0.026260981 -0.016864723
0001b0 80 a6 20 bd 83 b4 71 bd e5 6a 32 bd a5 78 a4 3d
       -0.039221287 -0.05901004 -0.043558974 0.080308236
0001c0 e6 52 73 bd 82 8f 16 bc 36 73 a0 bd 97 b2 1b 3d
       -0.05940523 -0.009189488 -0.07834475 0.038012113
0001d0 d9 45 37 bd 25 08 6c bd 22 b5 82 bd f5 95 48 3b
       -0.044744346 -0.057624955 -0.063822046 0.003060696
0001e0 12 a1 1e bd 87 d1 89 bd 9d b8 88 bc fb 04 ed 3d
       -0.038727827 -0.06729417 -0.016689593 0.115732156
0001f0 20 0b 0f 3d 71 3d c2 bc e5 1c b4 bd be 5d 81 bd
       0.03492272 -0.023710938 -0.08794574 -0.06316708
000200 4b d7 ab 3d 1f 22 03 3d 00 7a 0e bd 28 af 8a bb
       0.08390673 0.032014962 -0.034784317 -0.004232306
000210 4a 8b 14 3a 13 7b 9d bd 84 ee 15 bd b6 b6 37 bd
       0.00056665076 -0.0768949 -0.03660442 -0.04485198
000220 e3 2d 13 bd d7 89 08 3d 2a 9d dc 3c df cd 87 bc
       -0.035932433 0.03333458 0.02693041 -0.01657766
000230 cc 4e df 3c 91 a2 a8 bd 7e e4 f5 bc c8 a5 d2 bc
       0.027259253 -0.08234132 -0.03001618 -0.025713816
000240 9a 3a 6f 3c c5 84 7d 3c bd 62 1f bd 80 c7 24 3d
       0.014601374 0.015473549 -0.038912524 0.04022932
000250 2c 66 23 bc 36 46 5b 3c 41 df 86 bd 16 4d b7 bc
       -0.00997309 0.013383439 -0.06585551 -0.022375625
000260 bf 65 b2 3c 6b 57 80 bc 9e 5d 49 3d 73 0a 2b 3b
       0.021777032 -0.015666684 0.049161546 0.0026098758
000270 6f 5b 52 bd a5 44 b0 bc f8 d1 ff bc 5f 3b cb 3c
       -0.05135673 -0.021517107 -0.03122805 0.024808584
000280 90 91 ca 3c ab 87 b1 3d d0 65 ce 3c 8a 1a 8a 3c
       0.024727613 0.08668455 0.025195032 0.016858358
000290 d2 fe b7 3c 26 72 03 bd bb 68 d9 3c ea 92 0e bd
       0.022460375 -0.032091282 0.026539197 -0.034808077
0002a0 d7 03 99 3c 9e 49 a0 3d 01 26 9a bc c6 ec 2f bc
       0.018678589 0.07826541 -0.01881695 -0.0107376035
0002b0 33 b1 e0 3c 1d 02 ba bc b1 04 4c bb 61 c9 1e bd
       0.027428245 -0.022706086 -0.0031130726 -0.03876627
0002c0 b7 7b fd bc 51 c6 dd bc 52 e6 5e bb ed e9 b9 3c
       -0.03094278 -0.027072104 -0.0034011793 0.022694552
0002d0 50 f8 cf ba cd f5 c7 bc 37 c2 41 bd a8 e9 78 3d
       -0.001586685 -0.0244092 -0.04730436 0.060769707
0002e0 a6 87 04 bb d8 af 08 3d 9d 54 08 3d d6 9f 9c bb
       -0.0020222454 0.033370823 0.03328382 -0.004779796
0002f0 9c 5d 5f 3d be 18 36 3c 64 24 b0 bc f4 d5 15 bd
       0.054532632 0.011114297 -0.021501727 -0.036580995
000300 67 9d af 3c 01 c6 0b be de aa a9 bd 5f 1d 01 3d
       0.02143736 -0.13649751 -0.082845435 0.03152215
000310 e7 74 05 bc d8 99 a2 3d 89 f8 72 3d e4 aa 1e bc
       -0.0081455475 0.079394996 0.059319053 -0.009684298
000320 bc aa d7 bc 09 bb 98 bd 43 d2 b4 bd 2a 76 d9 bd
       -0.02632653 -0.07457549 -0.08829167 -0.10618241
000330 05 b5 fc 3c 41 39 91 3d 54 26 b1 3d b7 43 72 bd
       0.030848036 0.070909984 0.08649889 -0.05914661
000340 f4 10 0f 3d 83 b7 5c bd 10 7e 50 3c 12 0c 1e bc
       0.034928277 -0.053885948 0.012725368 -0.0096464325
000350 1f a9 27 3d 2a 75 4e 3d b2 47 01 bd 59 61 45 3d
       0.04093277 0.050404705 -0.031562515 0.04818854
000360 5c 71 97 3a 10 56 c6 bc 72 98 57 bc f4 0d 3e bd
       0.001155417 -0.02421096 -0.013158904 -0.046400025
000370 94 9e 41 bc e9 1a 0b bd c9 0c 31 bd aa bf e0 3d
       -0.011817593 -0.03396121 -0.043225084 0.10974057
000380 95 6c 91 3c 59 4e bb 3c 83 74 f4 bc 14 b1 ed 3c
       0.017751971 0.022864508 -0.029840713 0.029015101
000390 fb 87 e8 3d c8 d7 29 bd 9c f3 27 3d d8 5f 7e 3b
       0.11354061 -0.04146555 0.04100381 0.0038814452
0003a0 92 35 65 bc 23 94 54 bd 1b 36 ac bc ee 94 b3 bc
       -0.013989823 -0.051899087 -0.021021893 -0.021921601
0003b0 4a cf 82 bb b8 81 a8 3c 82 e0 6d bd 3b 47 9a 3c
       -0.003991996 0.020569667 -0.058075435 0.018832793
0003c0 d4 c4 48 3d 00 35 a4 3c 73 84 3e 3c 12 61 2c bd
       0.049015835 0.020044804 0.011628258 -0.04208476
0003d0 73 3b 35 3d a8 c4 34 3c 0d bc 0e 3c 20 86 26 bd
       0.04424615 0.011033215 0.008711827 -0.040655255
0003e0 02 cd 08 3c a1 3c 83 3d fa d5 f3 3c c0 87 8f 3b
       0.008349659 0.064080484 0.029765118 0.0043801963
0003f0 b2 61 98 bb 0c bd af bc 67 8e 8f bc f5 03 57 3d
       -0.004650318 -0.02145245 -0.017523957 0.052494008

network_body.observation_encoder.processors.0.conv_layers.0.bias f4 [16]
000000 5a be 3a bd 86 03 be 3c 71 4b 45 bc eb 5d 87 bc
       -0.04559169 0.02319504 -0.012041912 -0.016524276
000010 44 b2 06 bc 1d 9a b6 3c 46 0c 0f 3c d0 d2 9d bb
       -0.008221213 0.022290284 0.008730954 -0.0048163906
000020 8b 46 af 3b 02 a1 19 bc 13 2a 3e bd 2f e0 bf bc
       0.0053489855 -0.009376766 -0.046426844 -0.023422329
000030 b5 32 70 39 b9 4c d4 bc ca 12 0f bd 51 05 9f bc
       0.00022907073 -0.02591549 -0.034930028 -0.019411715

network_body.observation_encoder.processors.0.conv_layers.2.weight f4 [32, 16, 4, 4]
000000 8c bc 24 ba 05 bc 24 bc f5 80 47 3d fe d9 f2 3d
       -0.0006284199 -0.010054593 0.048706967 0.11857985
000010 39 c1 71 bd ef 9c 5a 3c 9a 55 aa 3d b9 af c2 3b
       -0.059022162 0.01334308 0.083171085 0.005941358
000020 3c 15 fe 3d e3 e7 ff 3c 60 9a 1f 3d ea 74 e5 3b
       0.12406394 0.031238502 0.038965583 0.0070024626
000030 ee f2 8e 3d 6c fd e6 3d 81 d8 62 3c 0b 43 6e bd
       0.06979929 0.11278805 0.013845564 -0.058169406
000040 49 26 02 bd 6b 3f 75 bd 56 17 d0 bd 92 0c aa 3d
       -0.031774793 -0.059874933 -0.10160701 0.08303179
000050 78 fc 8f 3d c7 b7 51 bd 20 38 cb bd ee d3 c3 bc
       0.070305765 -0.051200654 -0.09922814 -0.023904767
000060 30 d3 90 3d ce 94 1b 3d 3d 03 90 3c 14 ff 4f 3d
       0.07071531 0.037983708 0.01757967 0.05078037
000070 33 13 51 3d 0e c3 fa 3c 17 9b 3d 3d 9f dd 1a 3d
       0.0510437 0.030610587 0.046290483 0.03780901
000080 87 fa a6 3d 13 35 31 bd c2 8a a3 bd 00 32 16 3c
       0.08153253 -0.043263506 -0.0798545 0.009167194
000090 a8 b0 32 3d ea 54 11 3d 3d cd 5e bd 57 b1 4e bd
       0.043625504 0.03548137 -0.05439495 -0.050462093
0000a0 4f 02 79 3d 34 3e 29 3d f8 59 bf bd b3 36 48 3d
       0.060793217 0.041319087 -0.09343332 0.04888029
0000b0 61 e4 d3 3d 38 a8 1f 3c b2 f5 86 bc 62 c5 cf 3d
       0.10346294 0.009744696 -0.016474579 0.1014507
0000c0 c3 ae f5 bd 23 92 0a 3d 32 89 65 3d 44 b4 4b 3c
       -0.11996224 0.033830773 0.056039043 0.012433115
0000d0 76 26 5f 3d 98 7f 95 bd 3d ae 18 3c ff 67 65 bd
       0.05448004 -0.07299727 0.009318885 -0.05600738
0000e0 1d 76 bc 3d 66 57 6e 3b 13 3f 45 bd 27 45 2f bd
       0.09202216 0.0036368011 -0.048155855 -0.04279056
0000f0 72 1f 7b 3c 77 de 8c bc ee e7 2f 3c 35 6d bb bc
       0.015327321 -0.017195923 0.010736449 -0.022879222
000100 e3 5e 4d 3c fb f8 c2 bc 8b a6 c1 3d bb ec e6 bc
       0.01253483 -0.023800364 0.09455594 -0.028189054
000110 2d 30 6d bd c9 35 f2 3c b1 7d c8 bc 1d d9 12 3d
       -0.057907272 0.029566662 -0.024473997 0.035851587
000120 3b 8b c6 3d 14 0b 01 bd 5a 4e 88 bc 58 cb ea bd
       0.09694525 -0.031504706 -0.016638923 -0.11464566
000130 9f a1 0e 3c 10 5c 4e bc ae 29 a1 3d 7e a8 c6 3c
       0.008705526 -0.012595192 0.07869278 0.024250265
000140 e5 a8 20 3d 39 06 ed 3c 3d 35 c3 bc 9f b0 93 bd
       0.03922357 0.028933631 -0.023829097 -0.07211422
000150 c8 22 6e 3d fb b4 1c bd c5 89 ec bd 28 a3 e0 3c
       0.05813864 -0.038258534 -0.11549715 0.027421549
000160 02 5b 8e 3d 51 d7 e5 bc 24 ef 96 bd 88 b3 42 bc
       0.06950952 -0.028056772 -0.07369831 -0.011883624
000170 c9 0c ac bc 66 c1 81 bb db a6 86 3d c3 7d 42 3d
       -0.02100219 -0.0039598225 0.06574794 0.047483217
000180 69 f1 af 3c c7 53 9d 3c 7f 85 aa 3c 31 8b ef bb
       0.021477418 0.019204987 0.020815609 -0.007310294
000190 ef 3e c3 bd d8 a3 54 3d c8 45 be bd f1 a7 be bb
       -0.09533488 0.051914066 -0.092906535 -0.00581836
0001a0 b0 fa d0 3d ef 3d 5d 3d a0 43 5b bd d1 af 9c bd
       0.10204065 0.054014143 -0.05353129 -0.07650722
0001b0 47 9e e5 3d e4 5c 1c bd 4f ce 84 3d 12 e0 4f bc
       0.1121183 -0.038174525 0.06484663 -0.0126877
0001c0 3d b4 b7 3c 3d 2d 6c bd 4f 3f 04 bd 72 01 73 bc
       0.022424811 -0.05766033 -0.03228694 -0.014831888
0001d0 94 46 1b bd 8d 62 a5 bd 56 81 e5 bd 1f 8b e7 bc
       -0.037909105 -0.08075438 -0.112063095 -0.02826458
0001e0 64 d5 fd 3d 50 86 03 bc 79 a1 00 bd 5c d1 10 3c
       0.12394217 -0.008027628 -0.031403992 0.008838978
0001f0 14 2c 60 3d 6d 89 2c 3d 48 b2 d7 3c f2 43 8b 3d
       0.054729536 0.042123247 0.026330128 0.06800069
000200 12 a0 5b 3d db b9 74 bd b4 a6 9c bd 90 c1 08 bd
       0.05361945 -0.059747558 -0.076489836 -0.03338772
000210 88 e2 2b bd 1f a2 d8 bb 34 d7 5c bc e8 b4 9f bc
       -0.041964084 -0.006611123 -0.013479043 -0.019495443
000220 bb 86 5b bd 89 6a e4 3d 34 ac 9c 3d 63 c2 7b bd
       -0.053595286 0.111531325 0.07650033 -0.06146468
000230 21 62 22 3e 43 c8 b9 bd 4a 6b 46 bc 6e 73 a9 3d
       0.15857746 -0.090714 -0.012110541 0.082739696
000240 16 9c 24 bc 49 dd 56 3d 25 13 1f 3d 99 b7 23 3d
       -0.010046979 0.052457128 0.038836617 0.039970014
000250 6c 0e ab bd 2f db 62 bc 57 2b 80 bc 7e a8 40 3d
       -0.0835236 -0.013846203 -0.015645666 0.047035687
000260 ae 46 78 3d 7d 4b 05 3e d5 ca 22 bd 43 4d 3e 3d
       0.06061428 0.13017078 -0.039744217 0.0464604
000270 99 24 b0 ba b5 25 91 bc 21 3f 23 bd f5 52 79 bd
       -0.0013438641 -0.017718175 -0.039855126 -0.06087013
000280 0c c0 a7 bd d5 78 27 bd 3c 39 a2 3b f9 db 13 3d
       -0.08190927 -0.04088672 0.0049506705 0.036098454
000290 04 48 fe 3d dc 7d 2d 3d f9 6f 39 bd 65 83 07 bd
       0.1241608 0.042356357 -0.0452728 -0.033084292
0002a0 24 77 fb 3c 3c 2a 4c 3c 9a 23 2c bd ec 3a be bd
       0.03069646 0.012461241 -0.04202614 -0.09288582
0002b0 1e 6e 55 3c 25 4b 7e 3c 45 45 56 bc 34 80 7f bd
       0.013026742 0.015520846 -0.013078039 -0.062378123
0002c0 29 7d 18 3d 57 35 20 bd 7c 81 64 bd 4b 6c c4 bc
       0.037228737 -0.03911337 -0.05578755 -0.02397742
0002d0 7a e5 53 3a a4 f0 3f bd 11 49 91 3c 31 2a 7f 3d
       0.0008083206 -0.046860352 0.017735036 0.062296096
0002e0 7b 62 0b 3d da 0e 7c bd 1e ba b0 bc b7 c3 a7 bd
       0.034029465 -0.0615376 -0.021573123 -0.081916265
0002f0 8a 36 d9 3d f3 7b 6a 3d 6b 60 14 3d ee 2f c8 3b
       0.106061056 0.057247113 0.036224764 0.0061092293
000300 de 2e 3f bd 3d f7 c6 bc 24 d7 5e bd a1 1f 70 3d
       -0.046675555 -0.024287814 -0.054404393 0.058623914
000310 ef 2c bb bc 64 73 b5 bc 5e da bb 3b ba d4 a8 3c
       -0.022848574 -0.02214975 0.0057328185 0.020609248
000320 52 d6 de 3d 52 3a 4c bd 9c cf e4 bd ef 0f 69 bd
       0.10880722 -0.049860306 -0.11172411 -0.05689996
000330 ed 84 87 3d db ef 71 3d b0 b6 d5 3c df ac aa bd
       0.066171505 0.059066635 0.026088089 -0.08333754
000340 4a 1d 1b be c1 e1 15 3d ec 17 ad bc ed 68 df 3b
       -0.15147892 0.03659225 -0.02112957 0.006817928
000350 ff 91 5b 3d 85 44 6e 3d d9 61 18 bc d7 eb 71 bd
       0.05360603 0.058170814 -0.009300672 -0.059062805
000360 b1 c9 85 3d 3b cc 52 3d 3a 67 5b bd d1 0d 5d 3d
       0.0653261 0.0514643 -0.05356524 0.053968254
000370 9a d0 0a 3c c0 1a 5f 3c 0f 2c 25 3d ad d2 03 3d
       0.008472586 0.013617218 0.04032522 0.032183338
000380 49 e9 19 3d 8b e3 1e 3c 71 fb aa 3c 58 7a b2 bb
       0.037575994 0.009697805 0.02087185 -0.0054467134
000390 f5 ea 13 3d c5 c6 b6 3c 45 9f 0d 3d 36 95 b1 bd
       0.036112744 0.022311578 0.03457572 -0.08671038
0003a0 56 10 34 3d 6e 4c 3c 3d 23 ba 11 bc c6 8f cc 3c
       0.04396089 0.045971327 -0.008894476 0.0249709
0003b0 ef 4a a0 3d f6 a1 4a bd 73 1b 34 bd 05 b2 8e bd
       0.078267924 -0.049470864 -0.04397149 -0.06967548
0003c0 85 6c b6 3c 18 f6 33 3c be f5 93 bc 76 85 32 3b
       0.022268543 0.010983966 -0.018061515 0.0027240193
0003d0 6d b8 9d 3d e2 a3 5a bc 3c 11 ec bd f8 8b aa bc
       0.07701192 -0.013344737 -0.11526725 -0.020818695
0003e0 91 c0 82 bc 72 c5 6e bd 8c 9e c0 bc 63 9b 62 bc
       -0.015960963 -0.058293767 -0.023513101 -0.013830992
0003f0 cf 0e 33 3d df f3 93 bc 94 f5 52 bc 3d e7 c2 3c
       0.043715294 -0.018060623 -0.012875933 0.023791904

network_body.observation_encoder.processors.0.conv_layers.2.bias f4 [32]
000000 11 e3 bd bc 52 47 97 3d 7c 81 80 3d ad 2f 25 bd
       -0.023179563 0.0738665 0.06274697 -0.04032867
000010 18 2f 27 bd 82 f3 a7 bc a0 f0 0c bd e4 c8 80 3d
       -0.040816396 -0.020501856 -0.034409165 0.06288317
000020 97 41 16 bd 65 0a 5e 3b ca 30 67 bd b5 a4 15 3d
       -0.036683645 0.0033880707 -0.056443013 0.03653403
000030 50 28 5f bc fd cc 6e 3d ba 78 a6 bc 39 ab bc bc
       -0.013620451 0.05830096 -0.020321239 -0.023030864
000040 b6 33 89 bc d8 51 04 bc a0 7a 8a 3d fb 76 c2 3c
       -0.01674829 -0.008076154 0.0676167 0.023738375
000050 4f 4d b5 3b f2 cd 23 3c 28 da 30 3d 37 20 72 3d
       0.0055328975 0.009997832 0.0431768 0.059112754
000060 75 71 7e 3d 7e 93 20 3d 79 8d 19 3d b9 6b 3e bd
       0.06211992 0.03920316 0.037488434 -0.04648945
000070 71 b6 b1 bc 49 69 38 bd bc cf cc bc 7a 52 c8 3c
       -0.02169344 -0.045022283 -0.0250014 0.02445339

network_body.observation_encoder.processors.0.dense.0.weight f4 [256, 32]
000000 56 71 d7 3c f0 f7 9b 3e 8d 5d bd 3e 15 71 d5 3e
       0.02629916 0.304626 0.36985436 0.41687837
000010 fc 1d e9 bd 42 6d 7b be c7 0b f0 3b 50 cf 05 bd
       -0.11382672 -0.24553397 0.0073256227 -0.03266841
000020 42 1f e9 3e 69 1d b2 3e 6d 8c 77 bc 7b c2 a6 be
       0.4553166 0.34788063 -0.015109164 -0.32570252
000030 c8 35 fd 3d 92 e8 f0 bd 96 86 06 3e c4 f9 c8 be
       0.123637736 -0.11763109 0.13137278 -0.39253056
000040 8e 51 37 be 84 f4 63 3c 89 1e 44 3e a5 f5 67 bc
       -0.17902204 0.013913278 0.19152273 -0.014157687
000050 ff b6 af be bd 8e 79 be 9a e1 7f 3e 4a 0f 33 be
       -0.34319302 -0.24370857 0.24988404 -0.17486301
000060 cf 17 76 3d f8 50 6e 3e 05 31 82 3e ba d1 89 be
       0.0600813 0.23273075 0.25428024 -0.2691782
000070 43 8d 6b bc fd fd 49 be 14 57 af bd d6 e8 e7 3e
       -0.014376941 -0.19725795 -0.08561531 0.45294827
000080 98 43 cb be 82 7f 6b bd 27 1d c3 bd 5e 58 b5 3c
       -0.39700007 -0.057494648 -0.09527045 0.022136863
000090 45 f6 72 be cf a1 7a 3c 26 62 41 3e f4 34 62 3e
       -0.23726757 0.015297367 0.18885097 0.22090513
0000a0 49 88 a4 ba 2a e9 ec bd 2c 54 41 be 4e 08 c3 3c
       -0.0012552823 -0.1156791 -0.18879765 0.02380767
0000b0 06 b3 a4 3d ba 95 30 be 31 87 8d 3c 27 40 9b 3e
       0.080419585 -0.17244616 0.017276378 0.30322382
0000c0 e6 7a a7 3e 1c 1d ef 3d 21 58 4c bd 64 3b a2 bd
       0.32710952 0.11675474 -0.049888734 -0.07921484
0000d0 f2 d9 e1 be cc dd b9 3d 27 49 88 be 1e 5b aa 3e
       -0.44111592 0.090755075 -0.2661831 0.33272642
0000e0 34 9f 50 be 60 aa dd 3d 36 5c 8b be 25 35 1f be
       -0.20373231 0.10823512 -0.2721879 -0.15547617
0000f0 33 5a 82 3e 32 a4 a5 3e e2 4a cc 3e d9 e6 70 3d
       0.25459442 0.32351834 0.3990088 0.058813903
000100 41 32 ee 3d b7 eb 4c be 0b 06 8e bb a9 ae 5e be
       0.11630679 -0.20011793 -0.0043342165 -0.21746315
000110 23 39 14 be 7e 1a b8 bd fa d9 94 3e 8f cf 86 bd
       -0.14474921 -0.08989428 0.29072553 -0.065825574
000120 9e 77 ab 3c d9 f0 cf bd 34 36 84 bd 5d 44 cc bd
       0.020931061 -0.1015336 -0.06455651 -0.09973977
000130 e6 11 94 be da c9 4c bc df 4a a5 bd e2 b0 a0 ba
       -0.28919905 -0.012499297 -0.08070921 -0.0012259746
000140 6a 2a eb 3e 79 6a 54 be e4 82 0d 3f 6d c5 01 3e
       0.45930797 -0.20743741 0.5527785 0.12672968
000150 7e a8 bb bd 95 8f c2 bc fc 1b 07 be 6c 2c 5f 3d
       -0.09162997 -0.023750106 -0.13194269 0.054485723
000160 ac 23 b7 be 36 a5 27 3e 0d 52 9f be cd 86 41 be
       -0.35769403 0.16371617 -0.31117287 -0.18899079
000170 61 4b b0 3e b6 d6 35 3e 64 87 a9 bd 30 ec cf 3c
       0.3443251 0.17757687 -0.08277777 0.025381178
000180 0c d9 3b bd 72 fd a1 3e 07 fd 01 bf b0 91 ff bd
       -0.04586129 0.31638676 -0.50776714 -0.124789596
000190 d7 ba 8d be 4f 5f ae 3d 42 e1 92 be 37 07 a3 3e
       -0.2768161 0.085142724 -0.28687483 0.31841442
0001a0 e6 b6 8a be ca 8d f1 bd fb 21 08 bd ab 2d 46 be
       -0.27092665 -0.11794622 -0.03323553 -0.19353358
0001b0 71 ce ee bd b4 12 3e be 13 8a 18 3d 6b b0 76 3b
       -0.11660469 -0.18561822 0.037241053 0.0037641774
0001c0 28 f2 fc 3e c4 98 c7 bd 06 d4 a2 3e 6d 47 5e 3d
       0.494035 -0.097459346 0.31802386 0.054267336
0001d0 35 3d 59 3d 36 f1 e4 be 3d 57 f7 bd 61 f8 81 3e
       0.053036887 -0.4471528 -0.12077186 0.2538481
0001e0 ec bd a3 3e b5 e5 fa bd 16 11 bb be 77 ec 5b be
       0.31980836 -0.122508444 -0.36536473 -0.21476923
0001f0 07 5c a8 3e 44 73 6c ba 21 45 17 be 41 fd 92 3e
       0.3288271 -0.00090198615 -0.14772464 0.28708842
000200 ed fa d9 3e af 87 9d be 1d 04 f0 bd 97 56 67 be
       0.42574254 -0.3076758 -0.117195345 -0.22591625
000210 e2 02 1c 3e ad 5c fd 3d cc 6c 19 be 93 4f ac be
       0.15235475 0.12371192 -0.14982909 -0.3365446
000220 29 f1 85 be 1d b5 f5 3d ac 3a c3 3d 9a 8c 13 be
       -0.26160553 0.11997435 0.09532675 -0.14409104
000230 fe 9a 81 be 57 85 81 be 60 16 14 bf 1a d9 13 3f
       -0.25313562 -0.25297043 -0.5784664 0.57753146
000240 c4 8e d2 bd 48 36 71 be 17 d5 45 bd 6b f8 04 3f
       -0.10281137 -0.23555863 -0.04829892 0.51941556
000250 4f b4 2d be d1 31 39 3d c8 7b cf 3d 66 63 1e 3e
       -0.16963314 0.045213524 0.10131031 0.15467605
000260 4a 4b 57 3e e4 5c d1 bd 1c 21 67 be c7 9b 65 bc
       0.21024814 -0.102227956 -0.22571224 -0.014014191
000270 91 ef 92 3e 19 63 b3 3d cd 5d bb be ec a5 0d bd
       0.286984 0.08759136 -0.36595002 -0.034582064
000280 7c 67 c2 be 48 21 aa 3e a9 28 48 be 62 45 29 be
       -0.37969577 0.33228517 -0.1954676 -0.16530374
000290 5b 2e e0 bd d2 40 a5 3d 23 12 9f be c6 5b 58 3e
       -0.109463416 0.08069004 -0.31068525 0.21128759
0002a0 76 67 cb 3c bc 80 9e bd 98 cf 3c 3e fa 1e 77 3c
       0.024829607 -0.07739398 0.18438566 0.015083069
0002b0 30 5b da be da e0 db be 74 ad c8 bd ed 9a 45 bc
       -0.42647696 -0.42944986 -0.097987086 -0.012060863
0002c0 86 ec 07 3e eb 19 73 3d 9c b8 54 3e 14 cc e0 bc
       0.1327382 0.05935089 0.20773548 -0.027441062
0002d0 09 a2 3d 3e 3f d8 e2 bd 3b 4c a9 be 5d e9 07 be
       0.18518843 -0.11076402 -0.33065972 -0.13272615
0002e0 54 98 f9 3d 3b b8 77 3e 38 3c 40 be 82 8b 40 be
       0.121872574 0.24191372 -0.18772972 -0.18803218
0002f0 41 12 ce 3d fb ea 56 3c c3 ac f3 3d 09 f9 0a bd
       0.100620754 0.013117547 0.11898186 -0.033928905
000300 c3 c4 5d 3c eb 09 83 bd c5 ac 78 3e 4b 32 a7 bc
       0.013535681 -0.06398376 0.24284656 -0.020409724
000310 c4 8d 03 bf 05 db 77 bd 15 4c 19 be ff 36 48 3d
       -0.5138819 -0.060511608 -0.14970429 0.048880573
000320 a6 d9 b4 be ae 38 ba be 32 b9 ac 3c 9a 66 a8 3d
       -0.35322303 -0.36371368 0.021084402 0.08222695
000330 d2 1a 0a bf 4c f2 a5 bd db d9 db 3d 2c ed b2 bd
       -0.53947175 -0.08102855 0.10734912 -0.08736643
000340 9f db 31 3f 4f 27 de 3b 6a b5 d6 3d 35 6a 14 3c
       0.6947574 0.0067795883 0.10483821 0.009058525
000350 34 c7 3e bd 78 f4 0d be 96 61 4b be 53 78 66 be
       -0.046576694 -0.13862789 -0.19861445 -0.22506838
000360 fb e7 e3 3e f5 c5 36 be 36 ec a2 3c b5 93 74 3d
       0.44512925 -0.17848952 0.019888025 0.059711177
000370 7e ac b4 3d 4e 90 1c be b3 1f 64 3d 5e 46 47 bd
       0.08821963 -0.15289423 0.055694293 -0.04865109
000380 95 07 cc b9 e7 f3 49 be 21 39 20 be 2f 4d b9 3e
       -0.0003891556 -0.19721948 -0.15646793 0.361917
000390 21 61 4f be b8 e4 a4 3e f4 4a dc 3e 94 e8 ae bd
       -0.20251895 0.3220575 0.43025935 -0.085404545
0003a0 ac 48 c2 3d 01 40 90 be e2 3a cd 3d b6 4d f8 bd
       0.09486517 -0.2817383 0.10020997 -0.12124197
0003b0 d2 fa 1c 3b 5b 67 a5 3d 16 ba f9 3e 79 df f4 3c
       0.0023953211 0.08076354 0.48774785 0.029891716
0003c0 9d 6f 08 3e 71 8b 86 be d6 9b 8e be 33 d4 a4 3e
       0.13323827 -0.2627826 -0.27853268 0.32193145
0003d0 be 32 08 3c 9e ae db 3e bb a2 0b be 46 13 3c 3e
       0.008312879 0.4290666 -0.13636295 0.18366727
0003e0 f7 98 a3 3e 09 83 c4 3e c0 fd 42 be 7f 36 c6 be
       0.3195264 0.38381222 -0.1904211 -0.38713452
0003f0 48 3a d6 3e e8 3e 38 be e5 f4 08 3e 71 77 1a be
       0.4184134 -0.17992747 0.1337467 -0.15084626

network_body.observation_encoder.processors.0.dense.0.bias f4 [256]
000000 f4 43 54 bb c4 52 a3 bb df f1 01 3d 63 99 24 bc
       -0.0032389136 -0.0049842317 0.031724807 -0.010046336
000010 2f e4 da 3c 6a c2 c6 3c 6e 82 e9 3c 16 6e 44 3c
       0.026720135 0.024262626 0.028504577 0.011989137
000020 41 a2 99 3b 5d 3b 24 3c 4b 7d fe 3a a6 33 0a bc
       0.0046885316 0.010023919 0.0019416002 -0.0084351655
000030 88 df 93 bc 35 be 45 3d c0 3c 01 bd 6f ec b6 3c
       -0.018050924 0.0482771 -0.031552076 0.022329537
000040 1d 6b e5 3c 4a 75 2e bd 15 15 f2 3b b5 e3 95 bc
       0.028005177 -0.042592324 0.007387767 -0.018297056
000050 f7 f2 cf 3b 31 53 84 3d fd 6c 28 3c 8c d1 ff 3c
       0.0063461023 0.0646118 0.010279891 0.03122785
000060 99 25 35 3c b7 2c 0e 3c 46 fb 70 3d 53 2e f1 3d
       0.011056327 0.008677653 0.058833383 0.11776414
000070 3d fc c4 3b 9c 27 0e 39 52 91 6c 3d 19 e2 a9 bc
       0.0060115145 0.00013556931 0.057755776 -0.020737695
000080 b6 ed ec 39 76 39 9d 3d d0 1c 9b 3c 42 85 86 3c
       0.00045190536 0.076769754 0.018934637 0.016420964
000090 9d 90 23 bd 87 f1 6a 3b 33 98 e3 bb cc ac f7 3c
       -0.039932836 0.0035849528 -0.006945634 0.030233763
0000a0 c0 8a 3e bc d5 54 5c 3b 6b 3f 19 3d 74 11 94 bc
       -0.01162976 0.00336199 0.037413996 -0.018074729
0000b0 33 e1 3b 3d 4e e8 56 ba dc da 90 3d 2a c0 ac 3d
       0.045869064 -0.0008198068 0.07072994 0.0843509
0000c0 f3 9b d2 bb 1a e4 c8 bb 0a 9d 06 3d d9 d5 47 3d
       -0.006427282 -0.0061307075 0.032864608 0.048787925
0000d0 b7 bb a1 3c d9 e3 8c 3d c9 50 a2 3b e8 f8 97 bc
       0.01974283 0.06879396 0.004953478 -0.018551305
0000e0 e5 f9 b8 bb e8 5a 10 3d bf 2e 13 3d 99 97 5b 3d
       -0.005645024 0.035242945 0.035933252 0.05361137
0000f0 d2 53 82 3d f2 15 56 bc f9 4d d9 bb db 42 f8 bc
       0.06363644 -0.013066756 -0.0066316095 -0.030305317
000100 97 df 5e 3d 33 86 88 3c f1 a3 0a 3d 53 b7 9d 3c
       0.05441245 0.016665554 0.033847753 0.019252455
000110 05 92 b3 3c 1a a0 04 3d 48 05 2c 3d 3e 8a 6c bd
       0.021920213 0.032379247 0.041997224 -0.057749026
000120 1d 71 ea 3c 61 0a 4b bc 2d 5d 19 bc 00 db 50 bb
       0.02861839 -0.012392611 -0.009360594 -0.0031868815
000130 e5 db ba bc 7d 40 d9 3c 34 b1 06 3d 2d b7 eb bc
       -0.022809932 0.026520008 0.032883838 -0.028773868
000140 08 6c 3f 3d d4 b9 8d 3d e6 a3 55 3d a2 83 c3 3c
       0.046733886 0.069202095 0.05215826 0.023866478
000150 07 62 c3 bc af 1d f0 bc ff 5b 73 bc 6f 33 10 3d
       -0.023850454 -0.02931103 -0.014853477 0.0352053
000160 5c 3f 26 3c 90 b3 6b 39 8a 08 52 bc 3f 84 21 bb
       0.010146942 0.00022478239 -0.012819419 -0.0024645475
000170 dc 41 bf 3c 35 9e df 3c b9 4b 25 bd 89 95 60 3b
       0.023346834 0.027297119 -0.040355418 0.0034268817
000180 cf f5 93 3c ca bb 2a 3d 8a 1e b2 3d cf 5b 6b 3d
       0.018061547 0.041682996 0.08697231 0.057460602
000190 83 36 1e 3d 68 5a d0 3c ec 7e 9c 3c 90 b3 95 3c
       0.038626205 0.025433734 0.01910349 0.018274099
0001a0 d1 b6 0f bc e9 ed 46 3c 62 04 b3 3c 2a 7f 70 bc
       -0.008771614 0.012141683 0.021852676 -0.014678756
0001b0 62 fa b7 3c 17 94 91 3c 88 a4 06 3d b9 e0 62 bb
       0.022458259 0.01777081 0.032871753 -0.0034618808
0001c0 7e b6 34 3c 97 d9 42 bb 2c 59 4d 3d 9a cf 09 3d
       0.011029838 -0.0029731744 0.05013387 0.03364525
0001d0 aa cd a9 3c c2 67 bd 3d 0e 38 70 3c d6 fa 09 bd
       0.020727951 0.09248306 0.014661802 -0.03368648
0001e0 eb 27 1c bb b2 2d 4f 3a cb 1c 77 3d 31 f9 1d bb
       -0.0023827504 0.00079032325 0.060330193 -0.0024104828
0001f0 72 4f 9b bb ef 47 7f 3b f3 ff dd 39 18 e8 d6 bc
       -0.004739695 0.0038952788 0.00042343102 -0.026233718
000200 d6 53 f2 3c 7e 9c e9 3c f9 4b c7 3d 71 25 44 bc
       0.029580992 0.028517004 0.097312875 -0.011971817
000210 54 8b 52 bb 18 f4 d2 bc 69 ba 3a 3b 21 68 01 3d
       -0.0032126503 -0.025751159 0.0028492457 0.031593446
000220 87 29 24 3d 08 af f9 3d 05 35 b8 3c 23 06 96 3c
       0.040078666 0.12191588 0.02248622 0.018313473
000230 80 b7 79 3c f9 48 cf 3d c6 39 c0 3b c8 1d 4d 3d
       0.015241504 0.1012134 0.005866262 0.05007723
000240 32 85 c4 ba 81 ab 73 bb 43 2d 91 bc 91 c0 d9 3b
       -0.0014993309 -0.0037181082 -0.017721778 0.00664527
000250 15 3f 96 3a be 2c 0a 3d ce c1 4e 3c 2f a0 b0 3c
       0.0011462892 0.033734076 0.012619449 0.021560756
000260 30 b7 f4 bc c7 be 2c bd 44 8c 7f 3c 22 c4 8d 3c
       -0.029872507 -0.042174127 0.015597407 0.017305437
000270 9f 29 36 3d 5c 43 57 3c 8a f5 1c 3d ee ba cf 3c
       0.044473287 0.013138618 0.0383201 0.02535769
000280 0c 2f c4 3c d2 c6 fe 3c 0d 3b 0b 3d 22 d7 79 bc
       0.023948215 0.031100664 0.033991862 -0.015249046
000290 69 8d 84 3c 38 90 9a bc 4b 1f 32 3d fb d2 3e bc
       0.01618071 -0.018867597 0.043486875 -0.011646981
0002a0 e2 b1 e2 3c 6e de bd bd 66 b8 00 3d c7 10 0a 3d
       0.027672712 -0.09270941 0.031425856 0.033707406
0002b0 b1 89 56 3d cb f9 13 3d 30 c8 bf bb fd 3f cb 3c
       0.052377407 0.036126893 -0.0058527216 0.024810785
0002c0 81 6a 39 3d 73 0a 87 3d 2a b7 4c bd bc a2 9b 3c
       0.045267586 0.0659379 -0.049979366 0.018998496
0002d0 e2 42 18 3b dd b8 8a 3c ab 39 52 bd d2 a5 96 bd
       0.0023233225 0.016933853 -0.051324528 -0.073558465
0002e0 d6 e7 0c bc a2 28 be 3c ba 66 66 3d 90 3f 43 3c
       -0.008600196 0.023212735 0.05625031 0.01191701
0002f0 13 b2 b7 3c a2 fa 1a bb 59 de 02 3d bf 9b 9f 3d
       0.02242378 -0.0023647924 0.03195033 0.07793378
000300 69 2c 33 3d 9c f3 13 3d ac 16 b1 3c 4f fd 80 3d
       0.043743525 0.036120996 0.021617256 0.06298315
000310 6b 5f 7d 3b c9 a3 05 bc 67 80 0c bb 4a 63 53 3d
       0.003866161 -0.008156725 -0.0021438838 0.05160836
000320 d0 c9 fa bb 53 b7 82 3d 23 8e 0f 3c 37 69 9b bd
       -0.0076534525 0.063826226 0.008761915 -0.075884275
000330 6a 67 e8 3b ce ec 29 3c 32 d6 9d 3c c5 4c 02 bd
       0.007092406 0.0103714 0.019267175 -0.031811494
000340 56 8b ba 3c 99 d6 be 3c f0 44 47 3d b5 e3 6c 3d
       0.022771519 0.023295688 0.04864973 0.057834346
000350 50 b5 c9 3c 80 f6 b8 bc dc 94 3b 3d 3d c1 4b 3c
       0.02462259 -0.022578478 0.04579626 0.012436208
000360 d4 87 96 bb c1 8a 0f 3d be 0b 2b 3d 90 c3 5e 3c
       -0.0045938287 0.035044435 0.041759245 0.01359643
000370 89 d0 7d 3b 09 f2 fd 3c 70 a2 09 3d 6a f9 43 3c
       0.0038729033 0.0309992 0.033602178 0.01196132
000380 cf 66 4e 3d f1 6f 0c 3c e6 dc 52 ba f7 6e eb bb
       0.050391015 0.008571611 -0.00080437807 -0.007184859
000390 5b 1d 0f 3d 35 f7 3b 3c 69 e7 61 3b 5a 75 da bb
       0.034940105 0.011472513 0.0034470207 -0.0066668214
0003a0 92 83 fd 3c 57 e1 ec 3b 9e 2b 5a 3d 48 ba 8d 3b
       0.030946527 0.007229011 0.053264253 0.004325185
0003b0 f8 fc 3c 3c cc 97 95 3d 39 dc 87 3c b8 a8 de bc
       0.011534922 0.073043436 0.016584503 -0.02718006
0003c0 31 51 3c 3c 54 82 86 3a c9 7c 2b bc b0 de 24 3d
       0.011493967 0.001026223 -0.010466763 0.040251434
0003d0 91 96 9a 3c b6 12 3a 3c 02 91 54 3d 14 a4 34 3d
       0.018870624 0.011357 0.051896103 0.04410179
0003e0 f7 46 78 3d 56 4b 87 3d b1 63 15 3c 76 bd 03 3d
       0.060614552 0.06606166 0.009118007 0.032163106
0003f0 af 92 2c 3c 80 88 35 bd 60 01 db 3c f9 ad 94 3d
       0.010533019 -0.04431963 0.026734054 0.07259745

network_body._body_endoder.seq_layers.0.weight f4 [256, 266]
000000 6a 29 a1 bd 0a 6b f1 bb b6 98 cd 3d 91 9f 4a 3c
       -0.07869227 -0.0073674964 0.10038893 0.012367145
000010 8c e9 ac bd ae a0 d8 3a 24 75 53 3c c0 a4 cc bc
       -0.08442983 0.0016527378 0.0129063465 -0.024980903
000020 4c 77 ae bb 60 58 df bc 7d 76 0b 3d 99 05 bf bd
       -0.00532428 -0.02726382 0.034048546 -0.093272395
000030 a0 51 ae bd 09 0b 4b bd 21 1e a0 bd c7 27 d1 3d
       -0.085116625 -0.04957107 -0.07818247 0.10212665
000040 41 ea aa bc ee 32 e7 bc 94 64 65 3d 7a 3f 14 3d
       -0.020863654 -0.028222527 0.056004122 0.03619335
000050 0b bc 51 bc 62 b1 bd 3c 59 80 d3 3d 02 7b 29 bd
       -0.012801181 0.023155872 0.10327215 -0.041377075
000060 4c 21 51 be 6c 0d 14 3c 44 3a 8c bd b3 d0 21 bd
       -0.20422858 0.009036403 -0.06847051 -0.03950567
000070 2f 91 ae bd 52 53 31 be 7b a8 e1 3d f1 c9 87 3d
       -0.08523785 -0.1731694 0.11018463 0.06630314
000080 cb 25 25 3d 2c 95 e3 bd 2c 13 2f 3d c8 fc 5f be
       0.040319245 -0.11112437 0.042742893 -0.21873772
000090 8c ad 38 bc 85 45 0b 3d 27 df 9c bd 06 70 40 bc
       -0.011271846 0.034001846 -0.076597504 -0.0117454585
0000a0 aa 4e 8a bd f2 70 68 3d 5f 26 72 bc 76 13 cd 3c
       -0.06753285 0.056748338 -0.014779656 0.025033694
0000b0 19 0f be bc 08 d0 36 3c 36 a8 4e bb 79 a9 90 3d
       -0.023200558 0.011157997 -0.0031533367 0.07063574
0000c0 a3 3c 7a 3c 32 11 80 3c 3c 7c f2 bc 4d 82 2b bc
       0.015273246 0.0156332 -0.029600255 -0.010468078
0000d0 eb 48 d9 3c 33 20 0b 3e d2 92 43 be a1 39 b7 3d
       0.026524028 0.13586502 -0.19098976 0.08946539
0000e0 30 7b 22 3e 54 b2 1c 3d 20 38 ac bc dd 53 9d 3c
       0.15867305 0.038256004 -0.021022856 0.019205028
0000f0 06 47 12 3e 98 6d ba 3c fe 55 a1 3d b3 b0 60 3e
       0.14284906 0.022757336 0.0787773 0.21942405
000100 af bb 0a bd 93 0d 45 3d 7a 3c 1a 3b 4e 14 96 bd
       -0.033870395 0.04810865 0.0023534582 -0.073280916
000110 b5 95 19 3c 5d 26 85 bd f3 6f 3e 3b 69 00 f6 3c
       0.009374072 -0.06501458 0.0029058426 0.030029492
000120 71 9a ed 3c 9b e1 5b 3d eb 9a a9 3c 5f a7 35 bc
       0.029004307 0.05368195 0.020703753 -0.011087268
000130 b2 5e 27 bd 58 e3 2a 3c a4 c8 2c be 0a ed b0 3d
       -0.040861793 0.01043018 -0.16873413 0.086389616
000140 11 ba 06 3d c7 17 f7 3d 66 d7 f5 bc 02 ea 35 bd
       0.03289229 0.12065082 -0.030009937 -0.04441262
000150 59 74 57 bd 2c 2a 6f bc c3 ef c8 bc 58 6c 9e 3c
       -0.052601192 -0.014597457 -0.02452839 0.019338772
000160 11 45 7b bd aa 9a b2 bd 3c d2 c0 bc f3 45 60 bd
       -0.061345164 -0.08720906 -0.023537748 -0.05475421
000170 af 01 eb 3d 96 ff 48 3b f0 d2 3b bd 3e 71 5b 3d
       0.114749305 0.003066992 -0.045855463 0.053574793
000180 30 5c 2c be c6 3b 13 3e 93 b9 c1 3d 03 11 e4 bd
       -0.16832042 0.1437827 0.094592236 -0.11136057
000190 5e 39 0c 3e c7 da 0c 3e 70 f6 d8 bd 48 dd 0c 3d
       0.13693759 0.13755332 -0.10593879 0.034390718
0001a0 c1 30 81 3d 3c b2 4f ba 8e 76 a4 bd a6 e8 21 bd
       0.06308127 -0.00079229823 -0.08030425 -0.03952851
0001b0 cc dc 4d 3b 80 7d b5 bd 8b 1c 62 bd 08 1a 76 3b
       0.0031412123 -0.08861828 -0.055203002 0.0037552137
0001c0 53 cc 05 3e b6 a8 49 bc fb 04 1e 3e 9c f1 aa 3c
       0.13066225 -0.01230829 0.15431587 0.020867161
0001d0 d1 59 16 3d ce 58 dd bc 85 c9 e6 bd 6b 81 c9 3d
       0.03670675 -0.027019884 -0.112689056 0.09839138
0001e0 55 a4 14 3e 0d 6b 48 bd ab 1d 51 bd f2 f6 07 3e
       0.14515813 -0.048930217 -0.051053684 0.13277796
0001f0 7c f9 6a 3d 81 28 bd bb b0 93 7b 3d 07 a5 85 bd
       0.057366833 -0.0057726507 0.061420143 -0.06525617
000200 75 2e dd 3c 38 9a 91 3d ac c3 db bd 5b 05 8f 3c
       0.026999692 0.07109493 -0.10730681 0.017458608
000210 2c 23 2e bd f9 bb 4d bc ca f4 00 3d cf 37 50 bd
       -0.04251401 -0.012557023 0.03148345 -0.050834473
000220 b9 e3 b9 bd a0 fd 8f 3c 47 6b 7f bd cf 11 a6 bd
       -0.09076638 0.017576993 -0.062358167 -0.081088655
000230 3f c8 cd 3d 4a 7b 32 3b bc 3f a8 bd 61 26 d9 3d
       0.100479595 0.002723413 -0.08215281 0.10603023
000240 0a 75 dd 3c 07 c4 41 3d 93 fa f6 bd a3 d9 33 3d
       0.027033348 0.047306087 -0.12059512 0.043908726
000250 61 2b 96 be ce 9f a4 bd 32 a9 1c 3e 36 4f c6 3d
       -0.2932997 -0.08038293 0.15298918 0.09683077
000260 6a 29 a2 3b 7d 4d a0 bd ee 60 99 bc 24 00 16 3e
       0.0049487846 -0.0782728 -0.018722977 0.14648491
000270 ca 74 b2 bd 2b f7 82 bc bb e8 86 bd 16 f4 7b 3d
       -0.08713682 -0.015987 -0.065873586 0.061512075
000280 d6 4c b7 bb f0 40 46 3d 3c 93 8a 3d ff f7 79 3b
       -0.0055938764 0.048401773 0.06766364 0.0038142202
000290 72 da 63 be 58 ef a5 3c 6d 17 5c be b0 f5 08 be
       -0.22251299 0.02025573 -0.21493311 -0.13374972
0002a0 64 37 45 bd 9e 53 82 3c 5f 03 b6 3c da a6 9b bd
       -0.048148528 0.015909012 0.022218404 -0.07600184
0002b0 78 c5 2b 3c ed 95 90 3d 0e 9b 19 be 60 45 98 3b
       0.010484092 0.07059846 -0.15000555 0.004646942
0002c0 59 28 aa bd c1 cc b1 bc de 1b 3c 3d 17 d4 9f bd
       -0.08308477 -0.02170408 0.045925014 -0.07804125
0002d0 31 9a 09 bd 93 a3 fe ba 1c e4 4b 3d 11 31 8e 3d
       -0.033594314 -0.0019427411 0.04977809 0.069429524
0002e0 58 5b 11 be 81 ef 00 be 67 b3 13 be 21 9a 20 3d
       -0.14195001 -0.12591363 -0.14423905 0.03920949
0002f0 52 7b c6 bd e4 a1 0d 3d c2 45 19 3d 63 b3 9d bd
       -0.0969149 0.03457822 0.03742004 -0.07700231
000300 05 3f 8c 3d 3d e0 5a bd fd 1a 82 bd 05 ad 64 bd
       0.068479575 -0.053436507 -0.06352804 -0.055829067
000310 39 52 1c be 27 3a 7d 3c c5 93 64 bd 0b 09 e8 bb
       -0.1526574 0.015455759 -0.055804987 -0.007081156
000320 f0 89 0b bd 60 17 a3 3d 04 fa 40 bd c7 0a c0 bb
       -0.034067094 0.07963443 -0.047113433 -0.0058606598
000330 81 02 0e 3e cf 73 85 bc be 2e 62 3d 78 4d 1b 3d
       0.13868143 -0.016290573 0.055220358 0.037915677
000340 45 aa c9 bc 6f c2 59 bd be 77 87 bd 99 ab a4 bc
       -0.024617324 -0.053163942 -0.06614636 -0.020101355
000350 ae ad b9 bd 90 b8 fd 3d 14 7b cf b8 46 4f 94 3b
       -0.0906633 0.12388718 -9.893454e-05 0.0045260517
000360 9a b0 c9 bd 81 95 8f bd 59 d1 07 3e ff 5a ab 3d
       -0.09848137 -0.070109375 0.13263454 0.083669655
000370 d9 fa 02 3e 58 92 23 3d 52 74 b2 3c 00 7b 98 bd
       0.12791003 0.039934486 0.021783981 -0.074453354
000380 ac 58 ec bd a8 6b e1 bd d8 d2 ad bc 1c 4e c2 bc
       -0.1154035 -0.11006862 -0.021218702 -0.023718886
000390 84 5e 3d 3d 9a 34 4a 3c 7f 1c 70 3d a9 53 62 bd
       0.046232715 0.012341643 0.058620926 -0.055255566
0003a0 1f 36 23 bd c4 51 c9 3b 2d d9 5f 3d 61 9f b9 bd
       -0.039846536 0.0061437804 0.054650474 -0.09063602
0003b0 7e c1 5e bd 6c d5 96 3d 43 68 ca bd 3e 88 62 bb
       -0.054383747 0.07364926 -0.098831676 -0.003456607
0003c0 cb 78 a0 3b 4d 86 3d bd a7 54 d0 bb 2b 11 04 be
       0.004897212 -0.046270657 -0.0063577476 -0.12897174
0003d0 05 a8 89 bd b9 cc 30 3c 2e f8 05 3e 93 9b 8d 3d
       -0.067215 0.010790997 0.13082954 0.06914439
0003e0 f4 d7 f6 bb 94 31 a5 bd ae 78 04 3e 4e f7 c0 3d
       -0.007533068 -0.08066097 0.1293666 0.094221696
0003f0 8c ff 2f 3c a3 c8 40 ba 19 e4 cf bd 0c ef 85 3d
       0.0107420795 -0.0007354116 -0.10150928 0.06539735

network_body._body_endoder.seq_layers.0.bias f4 [256]
000000 ae b3 f1 bb 50 e8 99 3b 38 11 85 3c 67 15 d2 bb
       -0.007376156 0.0046968833 0.016243562 -0.0064112428
000010 7f ec 3d bc 48 f4 04 3d f9 27 94 3b 40 92 34 3c
       -0.01159203 0.032459527 0.0045213667 0.011021197
000020 bd dc 8a bb da 54 9c bb 7c a7 82 3c 48 98 2a bd
       -0.00423774 -0.0047708573 0.015949003 -0.041649133
000030 8b e6 55 3b d9 fc 65 3b 48 de 53 3b 10 19 c3 bc
       0.0032638635 0.0035093336 0.0032328535 -0.023815662
000040 03 ce b0 3c 23 97 49 bc 9a fa a2 3b 44 66 bf ba
       0.021582609 -0.0123041 0.0049737217 -0.0014602621
000050 a6 c3 30 3b b2 d3 b8 3c 2e c7 cb 39 07 55 92 3c
       0.0026972084 0.022561882 0.00038867578 0.01786281
000060 63 3a f0 bb b0 f6 79 3b 92 65 a3 bc a9 51 62 3b
       -0.007331179 0.0038141422 -0.019945893 0.0034533537
000070 c4 3a d5 3a 99 7c 9b bc 6b 2a 6a bc 53 8d 18 bc
       0.0016268124 -0.018980311 -0.01429234 -0.009311038
000080 b3 d7 3c b9 3d b2 dd 3b b4 47 c3 3b 1f 74 c7 3b
       -0.00018009431 0.0067656324 0.0059594754 0.0060868408
000090 cc c5 21 3c 55 07 15 bc d6 9a 12 bc b2 40 9d bb
       0.009873819 -0.009095986 -0.008948049 -0.004798972
0000a0 51 c9 26 ba cb e3 34 3c 65 c4 f1 3c c4 0c 7c 3c
       -0.0006362396 0.011040638 0.029512594 0.015383903
0000b0 e5 49 3a ba bb 1c 19 3d a6 b5 41 bb 33 b2 d7 3a
       -0.0007106348 0.037380915 -0.0029557734 0.0016456306
0000c0 aa 87 6c bd 98 9f 38 3c 5f 75 bd 3c 84 1c 6f 3c
       -0.057746567 0.011268519 0.023127256 0.014594201
0000d0 d9 54 46 38 e7 e5 c1 bb 3f 45 b5 3b 24 87 a4 ba
       4.72859e-05 -0.005917299 0.0055319364 -0.0012552482
0000e0 ae c9 e1 3c 13 94 90 3c 73 ba aa 3c 67 51 00 bc
       0.027561989 0.017648732 0.020840859 -0.007831908
0000f0 f2 5d ac 3c c8 a0 61 3c 82 d5 b6 bb 2d 51 96 3c
       0.02104089 0.013771243 -0.0055796513 0.018349255
000100 79 5f 02 3c d4 5f 14 bb e4 9a 65 3c ec df b3 3a
       0.007957333 -0.0022640126 0.01401398 0.001372335
000110 dd 71 a2 3c 43 df 34 3c 22 9b 94 bb 70 40 d5 b9
       0.019829685 0.011039558 -0.004535095 -0.00040674536
000120 1a a2 99 bb ba 09 d6 bb 46 cc 5a bc fb d4 7d bc
       -0.0046885135 -0.006531921 -0.013354367 -0.015492673
000130 86 d1 87 3c 3b b2 30 bc e7 86 18 bc 10 ea 33 3c
       0.0165794 -0.010784681 -0.009309507 0.010981098
000140 ad e9 ba 3c 34 40 e9 3b 64 96 10 3c 28 9f 2f 3c
       0.022816503 0.0071182493 0.008824918 0.010719098
000150 22 18 07 bc a6 be 86 3b ea 44 22 bc 3d 3e 81 bc
       -0.0082455 0.0041120825 -0.009904126 -0.015776748
000160 85 66 1d 3d 5d 02 8b bc 70 d6 72 bc 2f 02 12 bc
       0.03842785 -0.0169689 -0.014821634 -0.008911653
000170 b8 6a e8 3c 0a 6c 98 bc d2 6c c5 39 7f 7b 8f 3c
       0.0283712 -0.018606205 0.00037655846 0.017514942
000180 ce 52 f6 bc a0 53 07 3d a2 6d 18 3b f6 1b d2 3a
       -0.030068781 0.033038735 0.0023258706 0.0016030062
000190 26 ae 31 ba 47 e3 8e 3c 33 83 7a 3c 85 19 46 bc
       -0.00067779643 0.017442359 0.015290069 -0.012091045
0001a0 6e 22 8c bc 9b 50 19 3c 85 5e 89 3b 7c 23 74 3c
       -0.017106261 0.009357597 0.004192176 0.014901038
0001b0 87 60 78 3c 53 19 bc 3b 0b 77 80 3c ca 74 9a bb
       0.015159733 0.0057403236 0.015681764 -0.0047136294
0001c0 f1 90 c0 ba 10 0b 87 3c 55 98 3b 3c 23 cd d5 3c
       -0.0014691633 0.016484767 0.011449893 0.026098793
0001d0 42 aa 4a 3b 16 09 9a bb ec cd a7 3c 4b c7 36 bc
       0.0030924235 -0.00470079 0.020483933 -0.011155914
0001e0 8f 93 c6 ba 08 e3 5d 3c 08 2b 3c 3c 2d ba e7 3b
       -0.0015150177 0.013542898 0.011484869 0.0070717544
0001f0 cf 4b 95 3b 17 ad b7 3b e0 5c 19 bc ed e8 0a 3d
       0.004556156 0.0056053507 -0.009360522 0.03391354
000200 10 5c 97 ba b7 1b b5 bc a0 5c 14 bd c9 e6 2f 3b
       -0.0011547823 -0.022107942 -0.036221147 0.002684044
000210 96 13 8b 3c 68 3b 6e 3a 2f a3 86 bc 9b 94 a8 3c
       0.016977113 0.0009087832 -0.016435234 0.020578673
000220 2b 7d 93 bc 38 72 ba 3c 77 68 ab 3c 9c 35 6d 3c
       -0.01800402 0.022759542 0.020923836 0.0144781135
000230 2f 69 e1 ba 3c 31 30 bc 9c a3 a1 bb d3 2f 0a bc
       -0.0017197485 -0.010753926 -0.004932834 -0.008434254
000240 51 53 1d bc 42 02 ac 3c 06 80 f3 bb 89 bc 61 bc
       -0.009602384 0.02099717 -0.007431033 -0.01377786
000250 17 6f 8a 3b 37 d7 7c 3c b8 e6 85 bb 49 62 b1 3c
       0.0042246687 0.015432171 -0.0040863417 0.021653311
000260 4a 82 61 bc 20 49 44 3b 06 11 1c 3b 5b 6a f6 ba
       -0.0137639735 0.0029950812 0.0023813858 -0.0018800007
000270 b2 aa 88 bc 4a f1 12 3d 0e c5 34 bc 28 db d0 ba
       -0.016682956 0.035874642 -0.01103331 -0.0015934454
000280 df de 85 3b f0 70 a8 3b 48 d4 43 bc b3 50 66 3c
       0.004085406 0.0051404163 -0.011952467 0.014057326
000290 99 5e 4f 3c 9e bb 92 3c bb 68 a0 3b 76 eb e3 bc
       0.012656831 0.017911728 0.0048952973 -0.027822237
0002a0 22 df 78 3c a7 45 c9 bb 3a b1 09 3c b5 62 ae bb
       0.015189918 -0.0061423364 0.0084040705 -0.0053218254
0002b0 1d c0 06 bc 01 80 99 bc bc d8 a3 3c 1d b6 01 3b
       -0.008224514 -0.018737795 0.020000808 0.0019792386
0002c0 08 83 09 3c c6 a8 5d 3c ce ab a4 3b 04 c6 94 bc
       0.008393057 0.013529008 0.0050253635 -0.018160827
0002d0 a6 d3 d3 3b 8a 83 30 bc 1b b6 52 bc c6 ac 3b 3c
       0.0064644394 -0.010773549 -0.0128608 0.011454767
0002e0 e1 fc 4e 3c 95 e8 0e bc e8 cf c1 3c 71 18 41 3b
       0.012633533 -0.008722444 0.023658708 0.002946403
0002f0 49 b2 82 3c 79 d5 85 bc ae f5 b5 3b 3b d8 d2 3c
       0.015954154 -0.016337143 0.005552969 0.025737872
000300 81 c1 8b 3b 27 82 f7 bb 96 d8 d3 bc 61 f6 82 bc
       0.004265011 -0.007553357 -0.025860112 -0.015986623
000310 54 5c 20 3c 9b c1 ff 3b 9a 59 4b ba 54 d8 e7 3a
       0.009787638 0.007805062 -0.0007757187 0.0017688372
000320 0b e6 9e bb f3 8b 62 3c 37 53 46 bc ce b4 fd 3b
       -0.0048492006 0.013827312 -0.012104801 0.007742501
000330 a5 a5 78 3b 30 30 83 ba c7 ff 10 3c f9 e7 29 bc
       0.0037940529 -0.0010008868 0.008850045 -0.010370248
000340 30 4c bb 3b 39 34 ce bb e7 4a a5 bc d8 bf 59 bb
       0.0057158694 -0.0062928465 -0.020177318 -0.003322592
000350 99 f4 41 3b 0a c0 38 3c 4d b6 ba bb 9c a2 96 3c
       0.0029595254 0.011276254 -0.0056980015 0.018388085
000360 c3 1b fd 3c 8a 36 ec 3b f8 95 d0 3b d2 0a 29 3c
       0.030897027 0.00720865 0.006365534 0.010317521
000370 ef e5 72 3c 3f 51 b7 3c 4d 6d d1 3b ad 51 ee bb
       0.014825328 0.022377608 0.0063912035 -0.00727292
000380 a0 8d 5e 3b 54 fb a0 3b bc 59 34 3c b6 a2 8d 3b
       0.0033958927 0.004912773 0.0110077225 0.004322375
000390 13 2a 0a 3d 82 da d0 bc f3 8b 08 3c 41 90 8b 3c
       0.03373153 -0.025494818 0.008334148 0.017036559
0003a0 8c 6f ac b9 99 9b 8c 3b 26 e8 a3 3c 80 ef 81 bc
       -0.00032889505 0.0042910096 0.020008158 -0.015861273
0003b0 bd 34 6a bc a4 05 28 3c 21 f4 0a 3c ae 5a 90 3c
       -0.0142948 0.010255251 0.008481056 0.017621364
0003c0 50 f8 0f bc 1e b9 83 3c 85 d4 57 3c 87 e2 72 bc
       -0.00878723 0.016079482 0.013173227 -0.014824516
0003d0 04 cd a7 3c 13 95 71 bc ca b6 c3 3c 3a df b8 3c
       0.020483501 -0.014745015 0.023890872 0.02256738
0003e0 c0 9c 9e 3c ff 9e 0d bc 8c cc 62 3c f5 39 2f 3c
       0.019361854 -0.008643865 0.013842713 0.01069497
0003f0 44 4b 1f 3b 57 1e e3 3c 67 79 24 bc ed 2e 34 3c
       0.0024306336 0.027724428 -0.01003871 0.010997516
