results/PushBlockCollab_PPO/PushBlockCollab/PushBlockCollab-499936.onnx (onnx, 643240 bytes, 12 tensors)

network_body.observation_encoder.processors.0.conv_layers.0.weight f4 [16, 6, 8, 8]
00000000: 0718 2cbd 1e1a 25bd 048c cd3d 6e89 133d
00000010: 6474 a43d d979 35bd 07e5 05bd 15d1 f93c
00000020: 64ae 95bd c47d 35bd 3889 903d 807a 9f3d
00000030: a4e6 fb3c 923e 863d fa11 2c3d 0f9a 00bd
00000040: 2d41 d13a 5550 6bbb 41ce f53c 79a8 a0bc
00000050: 0035 8a3d 2c7a bb3b d952 06bc d32f 253c
00000060: 1992 8a3c 95c9 6b3b cb2d 01bd ee43 70bc
00000070: 9e50 813c b582 83bc f035 193c aea3 7fbd
00000080: 7732 a63d 6713 433d 495d 37bd d1ed 793c
00000090: e331 ad3d 2c54 86bc 2d5d c9bc cddb 1c3d
000000a0: 598d 54bd 3ae2 563b d4c7 b33a 6c40 463d
000000b0: 73ba 863c 1aea 3c3d 9ad0 f1bc 9192 b9bc
000000c0: 7859 43bd 2c68 82bd c3d2 403c 4a8c d1bb
000000d0: 3df5 c43c fa86 b9bc 07a7 253d 4703 53bd
000000e0: 3b98 4cbd dd09 a1bd 044a a8bd c973 0f3d
000000f0: a1d1 983a f768 8bbc 135c 1dbc ccc5 43bd
00000100: 13c0 2ebd 90cf fb3c a1d3 a1bc 1f14 16bd
00000110: 82da c23b 02b6 ad3d 746c 2d3c e24a c5bb
00000120: ff39 3e3d bd31 c03c b33b 273c 0459 9e3c
00000130: ce3a 94bc 7d20 8a3d f5fa c63a 5279 3f3d
00000140: 73f9 d33b ac1d ed3d bbf2 033d 9429 b8ba
00000150: e668 adbc 77c2 34bb a96b 913d 46ce 143a
00000160: d762 85b9 b57b 56bd 15a2 f2bc ea63 dfbc
00000170: 6960 6339 c940 f7bb 150e 10bc f418 49bd
00000180: 141b 3fbd b80a 8a3c c535 8dbd 94cf 3c3d
00000190: 02a1 2aba c24b e0bb bd6a 893b 65d0 30bb
000001a0: e6d1 103c c60c 163d 5bb4 d43c 2aea 5d3c
000001b0: d397 3abc bb48 4f3d c627 39bd 73a7 fa3c
000001c0: 952a 0cbd cb5f d63c 7347 9cbc b8a7 14bc
000001d0: 3d22 64bd 27ae 87bc d648 eebc d4b3 1abb
000001e0: b0ac 4fbc 44c7 2dbd 3b77 eebb 4994 0d3d
000001f0: 941b 353b 10bb 243d 803c 0dbc b9c7 62bd
00000200: cbd5 8d3d 5836 2d3d fd6a febc 4427 a8bc
00000210: 6e9b 3e3c 4102 07bd b018 22bc 6a55 0d3c
00000220: 5bfc 94bc 4f99 0d3d 84e5 333d daf5 25bc
00000230: ffa1 803d f417 49bd 2f75 423c 0361 683c
00000240: b74c d63c 60d3 e53c aeec ebbb efbd 5b3d
00000250: 942c e73c 234a da3c def9 37bd dc0b 333b
00000260: a24f ea3b 1aad bfbc 0dd1 7c3d a54c 7a3b
00000270: 4150 88bc fdcb abbc 792f 75bd cc79 cdbb
00000280: 433f c13c 9d2f 953d 1407 383d 0206 163c
00000290: 1f93 f63c a637 07bd 8f98 753c 7167 3bbd
000002a0: 1ae9 b63c 77dc b13d da66 03bc 40b0 abba
000002b0: 7eca e33c 21dd d0bb c1ef 9cbc 626a 03bd
000002c0: c81a c1bc fa43 ffbb ee92 083c ca2c 343c
000002d0: 5483 853b 768b f4bc e14e 83bd 899c 163d
000002e0: 4d41 a53a 89d2 933d e50f 4f3d 90dc bb3c
000002f0: db01 6f3d acc5 88bb 5f54 e5bc 8a86 0dbd
00000300: 2f6a 02bd e9cc 4bbd 2e1e 8ebd aa16 bfba
00000310: aede e1bc 6e64 2e3d 093a ff3c 8ac6 afba
00000320: 7dbf 65bd 6450 12bd c4d1 a8bc ad4a 31bd
00000330: 8898 843b 9a33 0a3d 6472 7e3d ecbf 3dbd
00000340: 089b 52bb e6b6 13bd 56b8 063d 7255 143d
00000350: 536a 503d 6791 763d c009 6ebc 07bb 353d
00000360: 40f1 0bbc c44d b1bc f9e3 1dbd 90a4 1bbd
00000370: fbb3 1a3b a24d 1bbd d9bd 0dbc c6a8 d23d
00000380: e50f 01bb 3f48 e3bc de78 91bd 3c37 753c
00000390: 8496 563d 50a4 13bd d524 013d f1d2 813c
000003a0: f96d 82bd 646d 4bbd 99e6 123c 7ae6 c83b
000003b0: 9cd4 dbbc 5ed2 79bc cd28 91bc 2fb2 bb3c
000003c0: e1c0 bf38 432a a13c 8057 193d 73fe 13bc
000003d0: b357 313d 39d5 41bc 3364 0bb9 dd81 28bc
000003e0: d1b6 ab3c f2e2 563d 06f1 903d 4339 c73c
000003f0: 52eb 5fbc 4355 6cbc 633b 953c 28e1 963c
-0.0420151 -0.04030811 0.100364715 0.036019735 0.08030012 -0.044305656 -0.03268912 0.030495206
-0.07308653 -0.044309393 0.070574224 0.07787037 0.030749626 0.06554903 0.04200933 -0.03139692
0.0015964858 -0.0035906036 0.030005576 -0.019611584 0.0674839 0.005721351 -0.008198463 0.010082203
0.016915368 0.0035978307 -0.031537812 -0.014664633 0.015785512 -0.016053537 0.009351239 -0.062411956
0.08115094 0.047625925 -0.044766698 0.015254454 0.08456781 -0.016397558 -0.024580562 0.038295556
-0.051892612 0.003278865 0.001371617 0.04840128 0.016446328 0.046121694 -0.029518414 -0.022652896
-0.047692746 -0.063675255 0.0117689995 -0.0063948976 0.02404272 -0.02264737 0.040442493 -0.051516797
-0.049949866 -0.078632094 -0.08217242 0.03502253 0.0011659154 -0.017017825 -0.009604472 -0.047796056
-0.042663645 0.030738622 -0.019754233 -0.036640283 0.0059464583 0.08481981 0.010584939 -0.0060208896
0.046442028 0.023461217 0.0102071045 0.019329555 -0.018094447 0.06744478 0.0015180992 0.04674656
0.0064689456 0.11577925 0.032213908 -0.0014050477 -0.021168184 -0.002758173 0.07100613 0.0005676489
-0.00025441378 -0.05236407 -0.029618302 -0.027269322 0.00021684323 -0.007545565 -0.00879242 -0.049096063
-0.046656683 0.016850814 -0.06895021 0.0460964 -0.00065089774 -0.0068449685 0.0041936324 -0.0026979682
0.008839106 0.036633275 0.025964906 0.013544599 -0.011388737 0.05060647 -0.045203947 0.030597424
-0.034220297 0.026168725 -0.019077038 -0.00907319 -0.055696715 -0.016562534 -0.029087465 -0.002360572
-0.012675449 -0.042426363 -0.007277397 0.034565244 0.0027634846 0.04021746 -0.008620381 -0.05536625
0.069255434 0.042288154 -0.031056875 -0.020526536 0.011633737 -0.032961134 -0.009893581 0.008626321
-0.018186739 0.034570035 0.043920055 -0.010129416 0.06280898 -0.04909511 0.011868759 0.014183286
0.026159627 0.028054893 -0.0071998453 0.05364793 0.028219499 0.02664668 -0.044916026 0.00273203
0.0071506063 -0.023397971 0.061722804 0.0038192656 -0.01663983 -0.020971293 -0.059859727 -0.006270623
0.023589736 0.07284472 0.044928625 0.009156706 0.03009945 -0.033012055 0.014989986 -0.045752946
0.022327948 0.086846285 -0.008020127 -0.0013098791 0.027806517 -0.006374017 -0.019157292 -0.032083876
-0.02357234 -0.007790086 0.008335812 0.010997007 0.0040744934 -0.029851656 -0.06411529 0.036770377
0.0012607962 0.07217891 0.050552268 0.02293232 0.05835138 -0.004173955 -0.027994333 -0.034552135
-0.031839546 -0.049755964 -0.0693935 -0.0014578898 -0.027572002 0.042576246 0.031155603 -0.001341061
-0.05609082 -0.035721198 -0.020607837 -0.043284107 0.0040465035 0.033740617 0.06212081 -0.04632561
-0.0032135863 -0.036063097 0.03289064 0.0362143 0.05088265 0.06019726 -0.014528692 0.044367816
-0.008541405 -0.021643527 -0.03854749 -0.037998736 0.0023605812 -0.037915833 -0.00865122 0.10286097
-0.0019693312 -0.02774441 -0.07103132 0.014966782 0.052389637 -0.036045372 0.031529266 0.015847655
-0.06368632 -0.04966487 0.008966112 0.0061309906 -0.026834778 -0.015247909 -0.01771965 0.022912113
9.143516e-05 0.019673472 0.037436962 -0.009032833 0.043296527 -0.011830621 -0.000132934 -0.010284868
0.020961197 0.052462526 0.070772216 0.024319297 -0.013666945 -0.014424625 0.018216794 0.01841791

network_body.observation_encoder.processors.0.conv_layers.0.bias f4 [16]
00000000: 573e 05bd eefb 733d 19b0 083b f5d7 50bb
00000010: 2875 143d 04ab c43c 00df e43c f96a 58bc
00000020: 3b21 f63c db51 a43c c91d 783c 28d6 bd3b
00000030: a511 623c 9e2d 0abc 33ec 5fbc df48 a03b
-0.032530155 0.05956643 0.0020856916 -0.0031867002 0.03624454 0.024007328 0.027938366 -0.013209098
0.030045142 0.020058563 0.01514382 0.0057933517 0.013798152 -0.008433728 -0.013667154 0.0048914994

network_body.observation_encoder.processors.0.conv_layers.2.weight f4 [32, 16, 4, 4]
00000000: e102 ad3c 6253 15bc 1f50 663d 67d6 9a3d
00000010: 52be b9bd 729e 203d 4b29 a63d 00a6 2a3d
00000020: 23b7 b63d 4a9a 173d 9446 f83c c7d7 173d
00000030: d177 a53d ffce bb3d bf2f 033b 9732 4dbd
00000040: 2ed1 1bbd a34a 7fbd 9218 d4bd 654c d23c
00000050: 9e8e 8b3d a104 04bc b4cd a7bd b06f 7ebd
00000060: c9df 843d 5fa7 d53c b507 3ebd 55fd d03c
00000070: 412d 743c d9c7 303d 8415 6a3d bf4c e53a
00000080: d441 673d eb86 8bbd 0425 64bd 7549 8c3c
00000090: 8abf a63d aa5d 743d fea0 93bd 2c1c 82bd
000000a0: cbe6 173d 0e04 353d 4ff0 93bd 9d19 05bd
000000b0: 8c5a 683d dd2f 083c 562d aabc 2be2 773d
000000c0: eacc a2bd 72b4 273d 9e24 d23c dda5 463c
000000d0: 4bb3 803c 0c08 6dbd ba60 183d 20b9 8dbd
000000e0: f5d0 913d c200 063b bbff 17bd 1fd6 9b3c
000000f0: 3909 493c e8be 98bc 05d3 94ba 7317 93bb
00000100: 0820 41bc 5197 02bd 0dc6 a23d 4f21 febc
00000110: d70f ad3a 637e 6b3d 40f4 e0bc 075b f33c
00000120: 1387 9b3d b582 91bc 2c2a 9a3c 82f8 97bd
00000130: 602d 1fbc 30bb 67bb 622c 7d3d 046d 593d
00000140: bdc1 f13c 11f1 743c 5363 99bb 4ade 6fbd
00000150: 9844 0f3d ac71 11bd 93b7 a7bd f8c7 dc3c
00000160: 7e6f 273d b9b7 8a3b 983d 2cbd a353 f5bc
00000170: 4cb0 fcbc 4ac2 81bc 08fc 8c3d a4bc 283d
00000180: fb69 d63c d5d3 9f3b dc62 7d3d 0b37 5aba
00000190: 361d b7bc 0271 993d bb02 89bd fd42 e7bb
000001a0: 1120 bb3d 00a7 6f3d ecd7 2bbd 1e13 83bd
000001b0: d682 893d 9efe 18bc 28cf 033d 5f8c f13b
000001c0: ca59 c4bc 936a 77bd 04a7 85bb 8faa e4bb
000001d0: dc65 a6bc 710b 80bd e58e b8bd 53cf f73b
000001e0: 900e be3d 93e6 e3bb 9e97 b4bc 9cc5 c63c
000001f0: e7c5 08bc 467d 643d 498c f1bc 8977 9c3d
00000200: b373 3d3a 22f8 29bd 5b2c 8ebd 95f6 a5bc
00000210: 6042 2ebd bd13 7abc 679f 31bd 03c4 9bbc
00000220: 3459 52bd b63a b13d 9cad 043d eb74 36bd
00000230: 68ef d03d 5b03 95bd 3252 61bb 5b80 833d
00000240: 637e be3c 822a 223d 021f e03c 273a d03c
00000250: f895 f2bc b6ee 9ebc ba50 e6bc 5aa0 783d
00000260: ea58 1b3d 95f0 c23d a7c2 02bd 7629 913d
00000270: bf15 5abd e33e 10ba 9ee8 5abd 367b 59bd
00000280: 4222 f7bc cae3 47bd 9b68 82bc d5cb e23c
00000290: 0a86 aa3d 2f1a 0a3d 9055 75bd 23c6 b3bc
000002a0: 3fe4 38bc 6dbb be3b 6fd8 1ebd 5a3b 7abd
000002b0: e282 e33c de76 5e3c 12c6 53bd b93d 41bd
000002c0: 336a c43c d8b3 5bbd ff50 20bd 17e4 61b8
000002d0: 2588 403b bc05 7dbd ca43 4d3d d4e7 193d
000002e0: a424 2d3d 15d2 bcbc c43c 03bd 93bf b1bc
000002f0: b435 a23d 72d1 aa3c b239 8e3c c104 573c
00000300: 627a eabc 0a57 86bc 6684 85bd 0768 3c3d
00000310: 0ba7 b6bc 0a49 a83c f099 94bb dc1b 123d
00000320: 8ed7 9a3d 937b 84bc 38a2 d7bd 2225 29bb
00000330: 0070 a23d 18d2 5e3d 16c0 12bc 8ec4 58bd
00000340: d4a5 6cbd f385 de3c 51e6 10bd 1b36 033d
00000350: b272 7e3d ba24 403d 362d 38bd b71f 0e3c
00000360: 96b3 753d d9b6 b33b 2ee3 f2bc aed7 6e3d
00000370: 9f81 013c ebad 45bd df25 103d 9440 363d
00000380: c2d7 e83c 7d51 cf3c d8da 23bc 0a46 95bc
00000390: 3be1 e43c a8f4 463d 225b 4f3d 4387 91bd
000003a0: 0673 b73c de35 583d ae88 463c 1f73 2d3d
000003b0: 0f50 803d 1b8c 2abd b69b 8dbc 9e63 66bd
000003c0: e934 ec3c 608d a0bc 3086 49bd 3ef7 80bc
000003d0: d1ad 983c f2e2 52bb f1c5 73bd a301 c1bc
000003e0: 8719 54bc d1c9 71bd 2d62 debc 5db1 70bb
000003f0: 974a 713d fdd4 55bc 7071 c93b bd7a 08bc
0.021119537 -0.009114118 0.056228753 0.07560425 -0.09069504 0.039213605 0.08113345 0.041662216
0.08921649 0.037012376 0.030307092 0.037071016 0.08079494 0.09170341 0.0020017473 -0.050097074
-0.038041286 -0.06232704 -0.10356249 0.025671193 0.068143114 -0.008057744 -0.08193532 -0.062118232
0.06487996 0.026080785 -0.04639407 0.025511423 0.0149033675 0.04315934 0.057149425 0.0017494186
0.056459263 -0.06812843 -0.055699363 0.01712487 0.08142002 0.059659638 -0.07208441 -0.063530296
0.037085336 0.04419332 -0.072235696 -0.03249513 0.056726977 0.008312193 -0.020773571 0.060518425
-0.079492405 0.04094357 0.025652226 0.012124506 0.015710494 -0.057869002 0.03720162 -0.069200754
0.071199335 0.002044723 -0.037109118 0.019023 0.012270265 -0.018645719 -0.0011354393 -0.0044888793
-0.011787422 -0.031882588 0.079479314 -0.031021742 0.0013203573 0.05749358 -0.027460217 0.029706491
0.07594123 -0.017762521 0.018818937 -0.07420446 -0.009715408 -0.0035359375 0.061809905 0.05308248
0.029511327 0.014950053 -0.00468103 -0.0585616 0.034977525 -0.035508797 -0.08189311 0.026950821
0.04087781 0.004233327 -0.042050928 -0.029947108 -0.030845784 -0.015839715 0.06884009 0.041195527
0.026173582 0.0048775473 0.061861858 -0.0008324242 -0.022352796 0.07492258 -0.06689974 -0.007057546
0.091369756 0.058508873 -0.041953966 -0.06400131 0.06714408 -0.009338049 0.03217998 0.00737147
-0.023968596 -0.06040437 -0.0040787477 -0.00697834 -0.020312242 -0.06252182 -0.0901163 0.007562557
0.09280121 -0.006954977 -0.022044953 0.02426415 -0.008347965 0.055783533 -0.029485838 0.07639987
0.00072270184 -0.041496404 -0.06942054 -0.020259181 -0.04254377 -0.015263495 -0.04336491 -0.019014364
-0.051354602 0.08653776 0.03239213 -0.044545095 0.10201913 -0.07276031 -0.0034381268 0.06420966
0.023253625 0.03959132 0.027358536 0.025418354 -0.029612526 -0.019400936 -0.028114665 0.0606998
0.037926592 0.09518544 -0.031923916 0.07087986 -0.053243395 -0.0005502535 -0.053444497 -0.05309602
-0.030167703 -0.04880122 -0.01591902 0.027685085 0.08326347 0.033716377 -0.059896052 -0.021945065
-0.011284887 0.0058206827 -0.038780626 -0.06109176 0.02777237 0.013578145 -0.051702566 -0.047178004
0.023976421 -0.05363831 -0.039139744 -5.3856606e-05 0.0029378023 -0.061773047 0.050113477 0.037574604
0.04227127 -0.023049394 -0.032040372 -0.021697795 0.07920399 0.020851824 0.017361496 0.013123692
-0.02862281 -0.016398925 -0.065193936 0.045997646 -0.02229645 0.02054264 -0.0045349523 0.0356711
0.07560645 -0.016172206 -0.10528988 -0.0025809486 0.079315186 0.05439958 -0.00895693 -0.052921824
-0.057775334 0.027163481 -0.035375897 0.03203402 0.0621211 0.046910025 -0.04496499 0.008674554
0.05998572 0.0054844436 -0.029649343 0.058311157 0.007904439 -0.048261564 0.035192367 0.04449518
0.028423194 0.025307411 -0.010000907 -0.018221874 0.02793943 0.048573166 0.05062402 -0.07105877
0.022393715 0.052785747 0.012117548 0.042346116 0.0626527 -0.04163752 -0.017286163 -0.056247346
0.028833823 -0.019598663 -0.049200237 -0.015742894 0.01863757 -0.0032178727 -0.059514944 -0.02356035
-0.012945539 -0.059030358 -0.027146423 -0.003672681 0.058909025 -0.013051269 0.006147556 -0.008330044

network_body.observation_encoder.processors.0.conv_layers.2.bias f4 [32]
00000000: fced d4bc d05a 943d 97f5 813d 5fff c2bc
00000010: 274d 08bd 99a0 0abd 8cf5 01bd dbb4 8b3d
00000020: 6205 f0bc 82d8 93bb 48a9 83bd 4f27 4f3c
00000030: e9ed 9ebc 94ba 8f3d 9717 babc 6cce b6bc
00000040: 7697 32bc 3478 53bb 5f01 4b3d 9535 cf3c
00000050: 0af5 863c 9fa3 2f3c c476 413d 2d8c 7d3d
00000060: 2d9d 383d a812 343d 9272 fd3c 75df 00bd
00000070: 4c1a b3bc d209 63bd c8ef 89bc 04a4 f03c
-0.025992386 0.072438836 0.06345671 -0.023803411 -0.033276703 -0.033844564 -0.031728312 0.06821605
-0.029299442 -0.0045118937 -0.06428772 0.012643649 -0.019400554 0.07018009 -0.022716327 -0.022315226
-0.010900369 -0.0032267692 0.049561854 0.025294105 0.016474266 0.010720163 0.047232404 0.06190126
0.04507177 0.043963104 0.03093842 -0.031463105 -0.021863125 -0.055429287 -0.01683797 0.029375084

network_body.observation_encoder.processors.0.dense.0.weight f4 [256, 32]
00000000: ec48 3c3d 5d8c ab3e 8439 c13e 63bb d23e
00000010: d9ee d0bd 0950 86be db06 8e3d 63f9 eabc
00000020: 323a e73e d12f b23e f7b4 99bd f788 abbe
00000030: 48a9 c83d 1ded b7bd 0b9d e83d b7b0 afbe
00000040: ab93 36be 10ce 193d eb4d 583e 96a5 e43b
00000050: d027 afbe 3753 4ebe 4c3e 893e 7f80 15be
00000060: 8724 a2bc 8429 6f3e 385b 833e 0e5a 82be
00000070: b6c5 45bc c51a 2ebe 406f aebd ca12 e73e
00000080: bf40 c3be c51b 91bc 404d 98bd 43d8 3e3d
00000090: d372 5fbe fbf2 d33d c9f4 2b3e 2578 763e
000000a0: ba6a 0f3d 4b38 b0bd 832b 28be 8042 783d
000000b0: 5440 af3d 19bd 20be 8752 143d 9309 ac3e
000000c0: 650a ab3e d845 083e c706 23bd 6f17 68bd
000000d0: c666 d4be 67fb df3d 8142 5dbe e998 aa3e
000000e0: 2d79 17be 3a58 f33d d4ec 7fbe 812e e3bd
000000f0: 92a1 813e 9bd0 983e b0b2 d03e ec56 e13d
00000100: 7d0c b53d dc02 3dbe 2828 37bd 6dd7 87be
00000110: 53bc 0abe 22f0 9ebd 6741 953e d6e0 dbbd
00000120: af71 acbc 5229 16be d15e d4bd a815 c1bd
00000130: 9b55 adbe 5b64 0abd 7e77 e0bd fa54 2abd
00000140: f3c8 e03e bd18 4dbe 01c0 073f d1f8 023e
00000150: f357 16be b5fa 36bc 8657 f3bd e430 a03c
00000160: c838 acbe 86cd df3d 8da8 a8be 3042 50be
00000170: 55dc b23e 2c0a 043e 1e68 aabd 6292 a838
00000180: bafa 73bd 644e 993e 72eb 0bbf 2249 a9bd
00000190: f8c1 78be 4c6e 1f3e 81b2 93be cd04 b53e
000001a0: be01 74be a89e c1bd 8f82 193b 488d 50be
000001b0: a7da 04be f26e 50be 31cb 803d 4451 d4ba
000001c0: 3839 f73e 1fcd b2bd ddf1 963e 3da8 d43d
000001d0: 7103 7f3d 1d94 e3be 328b 04be 4884 6f3e
000001e0: 463a 9d3e 711b 09be a4d0 bbbe 5f3a 4fbe
000001f0: ab5d aa3e 9417 be3c e6fa 0fbe 0625 943e
00000200: aacf d83e 172a acbe efb0 1bbe fa80 5abe
00000210: a4db e13d ba68 9b3d 2a49 49be 1c69 abbe
00000220: 5f46 71be 209a eb3d f109 043e 9451 16be
00000230: e63f 41be 4f2c 7dbe 54ed 0dbf 0127 023f
00000240: e6db b6bd 4a47 86be 7e4f 2dbd acc9 f83e
00000250: 3d28 27be 574f 953a de8f e73d 755f 0d3e
00000260: 1a00 873e 6c24 88bd 1751 82be c108 24bd
00000270: 578d 8b3e 1b3f a43d 8daf cabe 9513 573a
00000280: 8179 bebe 7182 a73e 0a0b 1bbe e935 00be
00000290: edec abbd e404 233e 6403 4fbe b2c5 553e
000002a0: 5e35 dcbb 083d b1bd 198e 403e ec5a 8abc
000002b0: eedb efbe d7ad d4be e6cf b4bd 5984 4b3d
000002c0: 3a7c 0a3e ddeb ad3d e900 483e 6d0f a33c
000002d0: 96f8 253e f03c fdbd 69fa 99be d71d c3bd
000002e0: 3fb8 013e 9bcd 693e d424 55be a3a7 eebd
000002f0: c2b8 e53d 612b 4b3d 5bb4 ed3d 60df 83bd
00000300: 0e52 b53c 8ac0 a7bd 8117 563e 5e0a 8abd
00000310: 3e3d e2be bc6b f1bc 7bf8 83bd 2928 9f3b
00000320: c960 d4be 3043 d9be 1089 6f3c f18e 113d
00000330: 8852 15bf 4a96 f0bd ec83 c53d d3f6 f2bd
00000340: 44f8 293f 7fbf 523c d14f 883d 12e4 033d
00000350: 9a53 f0bd 485c 11be e6a1 2bbe e1ee 59be
00000360: bdda d13e fdca 71be d83e 90bb 09ed a53d
00000370: 2262 9c3d bb79 22be b164 5a3d 9e2b 33be
00000380: 331b 0bbc ea83 4dbe fa5e 01be 6f4a b33e
00000390: ed9b 80be 88ea 9d3e f173 b73e f3c4 d9bd
000003a0: 16d2 c03d 2cb2 8ebe a4e8 093e 76ae adbd
000003b0: c3bc c83d 4ec7 463d 9e6f 033f 5c5b e8bb
000003c0: 4537 023e b84f 95be 6a9e 8bbe c182 993e
000003d0: 3a2f 55bc acfb d33e 42cc 16be 119c 183e
000003e0: d08e 8d3e 8d4b d63e 5194 36be 3713 d1be
000003f0: a2a5 cb3e 0277 4dbe 4dec cb3d 5802 bbbd
0.04596798 0.33505526 0.37739193 0.4115859 -0.102018066 -0.26232937 0.06934901 -0.02868337
0.45161587 0.34802106 -0.075052194 -0.33502933 0.09797913 -0.08980773 0.113580786 -0.3431451
-0.17829768 0.037550032 0.21123473 0.006977747 -0.34210062 -0.20148931 0.2680534 -0.14599799
-0.019792808 0.2335568 0.25655532 -0.2545933 -0.012071064 -0.170024 -0.08517313 0.45131522
-0.38135335 -0.017713437 -0.07436609 0.046592962 -0.21821146 0.10349079 0.16792597 0.24069269
0.03501389 -0.08604487 -0.16422848 0.060610294 0.085571915 -0.15697135 0.036211517 0.33601055
0.33406368 0.13307893 -0.039801385 -0.056662973 -0.4148466 0.10936623 -0.216074 0.33319786
-0.14792319 0.11882062 -0.24992687 -0.11092854 0.2531858 0.29846653 0.40761328 0.11002907
0.088402726 -0.18458122 -0.04471603 -0.26531544 -0.13548402 -0.077606454 0.2915146 -0.107362434
-0.021050302 -0.146642 -0.10369647 -0.09427959 -0.33854374 -0.033787113 -0.10960291 -0.041584946
0.43903312 -0.20028968 0.5302735 0.12790228 -0.14681987 -0.011168172 -0.11881928 0.019554563
-0.3363707 0.10927872 -0.32941094 -0.20337749 0.34933725 0.12894505 -0.0832064 8.03813e-05
-0.059565283 0.2994262 -0.54656136 -0.08265902 -0.24292743 0.15569419 -0.28847125 0.35355225
-0.2382879 -0.094540894 0.0023423766 -0.20366395 -0.12974034 -0.20354822 0.06288756 -0.0016198535
0.48285842 -0.0873053 0.29481402 0.103836514 0.06225914 -0.4444894 -0.12943724 0.23390305
0.30708522 -0.13389374 -0.36682618 -0.2023711 0.33274588 0.023204602 -0.14060554 0.28934497
0.42345935 -0.33625862 -0.15204214 -0.21338263 0.11028221 0.075883344 -0.19656816 -0.3347863
-0.23562 0.115040064 0.12894417 -0.14679557 -0.18872032 -0.24723934 -0.5544026 0.50840765
-0.08928661 -0.26226264 -0.042312138 0.48591363 -0.16323943 0.0011391443 0.11306737 0.13805945
0.26367265 -0.06647572 -0.25452492 -0.04004741 0.2725627 0.08019849 -0.3958706 0.0008204517
-0.37202075 0.32716706 -0.1514093 -0.12520565 -0.083947994 0.15919834 -0.20216137 0.20876196
-0.006720229 -0.08654219 0.18804206 -0.016889058 -0.4684748 -0.4153888 -0.08828716 0.049686763
0.13523951 0.08492253 0.19531597 0.019904817 0.1620811 -0.123651385 -0.3007386 -0.09527176
0.1266794 0.22832339 -0.2081483 -0.11653068 0.112168804 0.049601916 0.11606666 -0.0643909
0.022133853 -0.08191021 0.20907404 -0.06740259 -0.4418735 -0.029470317 -0.06443878 0.0048570824
-0.4148009 -0.42434072 0.014620081 0.03553671 -0.5832906 -0.11747415 0.09644303 -0.11863484
0.6639445 0.012863039 0.06655849 0.032199927 -0.11734696 -0.14195359 -0.16760978 -0.21282531
0.40987197 -0.2361259 -0.004402023 0.081018515 0.07635905 -0.15866749 0.053318683 -0.17497107
-0.0084903715 -0.20069852 -0.12633887 0.35017726 -0.25118962 0.30842996 0.35830644 -0.10633268
0.09415071 -0.2787031 0.13467652 -0.084805414 0.098016284 0.048529916 0.5134219 -0.007090969
0.12716396 -0.29162383 -0.27269298 0.2998257 -0.013011748 0.41402948 -0.14726356 0.14903285
0.2764802 0.41854516 -0.17830016 -0.40834972 0.39774805 -0.20064929 0.0995718 -0.091313064

network_body.observation_encoder.processors.0.dense.0.bias f4 [256]
00000000: 5d15 5f3b 8c97 8d3c 1038 58ba 6fbe 8abb
00000010: 14ea 453c 4d30 363c 872c 77bb 4281 e0ba
00000020: e038 ed3c 89d7 14bc 4a3f 2cbd c0a1 233c
00000030: 50b0 e9bb 3a10 213d b48a fdb8 74f8 1b3c
00000040: 2a5f 213d a117 c5bc 8386 f13c 047f c83b
00000050: 0e19 13bb a5c1 f13c 71ac 753c 3143 36bb
00000060: ee42 c13c 9201 de3b 5f55 683c 03b9 a43d
00000070: d548 623b ae3c 973b b3c3 3c3c e50e e6bc
00000080: 2955 7d3c 2f49 763c a670 663c 3d3b 78bc
00000090: 06e8 603a 2a4f bdbc 32a8 e23b 4864 813c
000000a0: e3d2 61bb 3bab 843c ef91 3b3d ef91 a43b
000000b0: fb34 c83c ae7d 6e3c 7e13 093d 9d91 833a
000000c0: d2b9 2f3b 4887 a53a 1141 003b d790 633c
000000d0: 3008 473b 6337 3fbb 620e 103c bd1d 003c
000000e0: f87d 683c 87f8 8e3c 18db bf3b fbff 233c
000000f0: 982d 383c 7d38 6fbb 1b61 f13b 75ec 88bc
00000100: f0e8 753c 5c9d dc3c 6925 923c dc33 4b3c
00000110: 6dec ac3c 2c15 023d 0e3a 1e3d 1979 4bbc
00000120: 3121 5fbc a37a 6f3b 7a3c 653b 5b18 70bc
00000130: f735 133a d146 8dbc cbb3 913c 83fb 0ebb
00000140: 3fde c53c bca9 793b 2ca6 303d 0bf1 5bbc
00000150: 09ea 9ebb fc94 15ba d37d e53b 7f99 6dbc
00000160: 72cc 8a3c baed aa3b 6cee 473c ff7c 08bb
00000170: 6c6e 07bc 63fa cdbb 4496 86bc 9292 643c
00000180: cacb 043c 386e 64bc e9a2 ed3b b61c 253d
00000190: e396 3d3b b671 083d 9d41 253d 4546 e03c
000001a0: cb46 8cbc 7f7d aaba 53df c039 3154 23bb
000001b0: 8d94 a93c d29f 653c 85ef a03c 6136 10bc
000001c0: 01b1 4bbc fb95 133c 9d9c fa3c c91d a93c
000001d0: b87a b33c 5c65 c23c a98a 1c3d 32d8 2bbb
000001e0: 665f a9bb 70f4 85bb b779 c03c 81f1 193c
000001f0: aec7 0b3d 49a1 b93c 5816 a03c cb8d 3cbd
00000200: 9b49 ddbb 96df ce3c b5ff 633a 186a 5f3b
00000210: 9f00 b73a 9247 e5b9 d3fd 133c 46f5 873c
00000220: eea4 313d 0689 e13b 1a23 a03c 9ae2 ad3c
00000230: af48 67bc 457c 25bb 142f 443c d983 d53c
00000240: 5518 0b3c 2b29 3f3c ad6f 83b5 7793 ad3c
00000250: 8db7 f9ba d5de aa3c ffde cf3b 2f4d 74bb
00000260: 24c3 573c 7d96 6cbb 58bb 773c 58c2 afb9
00000270: 5a8f 1e3d 33d2 c03b 31f5 463d f7a0 be3c
00000280: afe6 1f3c cf43 44bc 8f7d 323c 4051 3dbb
00000290: 879e 833c 48b5 48bc cec9 113d 98bf 843c
000002a0: 0c02 a23c cae0 e4bc 1da1 febc 4c60 4e3d
000002b0: 4fb9 b53c 7f28 d53c da00 2e3b 1176 f43c
000002c0: 74be 1a3d 3198 ef3c db33 9cbc 4a32 803c
000002d0: ee84 aebb 5697 583c fcab 9cbc dcd0 c0bc
000002e0: cdff 333c ed17 cc3c bcf5 d63c e1ad 843c
000002f0: adba 3cbc 4ccd 4a3c 96cd ed3b 2772 613d
00000300: 961b 7d3b eb84 333c 1f57 6c3c fd66 c13b
00000310: d360 d539 3615 21bc 61a0 013a 194b fc3c
00000320: 83c5 b83b 80d7 1f3d b229 d83b c816 79bc
00000330: 8b16 fa3a 9af4 493b bc78 c23c 08a9 22bc
00000340: 97b1 f33c f583 903c 1e37 133d 4e7b 2c3c
00000350: 7b47 0f3c bf9f ef3a 75f4 473d 3008 b43c
00000360: a144 9d3b e07d f63c a8a6 e33b ff8b 283c
00000370: 0f06 b4bb 2842 0a3d dd67 a83c 9fb7 d03b
00000380: 75df 093d bbed a7bb e56f c33c f856 483a
00000390: d347 a53c fde2 923c fed5 dd3a 7af1 a33c
000003a0: 6dec 343c a317 fa3c 2b0f 033d fe6d 52bb
000003b0: 50d8 403b e6d4 9e3a c8e0 233c 64df 9bbb
000003c0: ea63 4e3a ce92 17bb 9018 c43b a5a6 f23c
000003d0: 53f6 07bb 4757 bf3b 30df d43c fb56 713d
000003e0: b943 87bc c5b6 043c 3e35 923c 5a52 cf3c
000003f0: 940b 9b3a 9694 e1bb b0e4 763c e220 353d
0.0034039833 0.017284177 -0.00082481 -0.0042341272 0.012079734 0.011119914 -0.003771575 -0.0017128366
0.028957784 -0.009084591 -0.042052545 0.009987295 -0.007131614 0.039322115 -0.000120898156 0.009519685
0.039397396 -0.024059119 0.029483085 0.006118657 -0.0022445354 0.029511282 0.0149947265 -0.0027811045
0.023591485 0.0067750895 0.01418051 0.08043101 0.0034528275 0.004615388 0.011521268 -0.028083274
0.015462198 0.015032097 0.014064943 -0.015150842 0.0008579496 -0.023109037 0.006917023 0.015794888
-0.0034457974 0.01619493 0.04579347 0.0050222795 0.024439326 0.014556332 0.033465855 0.0010037903
0.0026813638 0.0012628818 0.0019570033 0.013889513 0.003036987 -0.00291773 0.008792492 0.00781959
0.01419019 0.017452491 0.0058549754 0.010009761 0.011241339 -0.0036502175 0.007366312 -0.016714314
0.01500915 0.026930504 0.017840104 0.012402501 0.02110883 0.031758472 0.038629584 -0.012419009
-0.013618753 0.0036541603 0.0034978674 -0.014654244 0.00056156464 -0.017245682 0.017785927 -0.0021817393
0.024153827 0.0038095554 0.043127224 -0.013424168 -0.0048496765 -0.00057060993 0.007003525 -0.014501928
0.01694319 0.0052163275 0.01220284 -0.0020826457 -0.008266073 -0.006285952 -0.016429074 0.013950961
0.008105228 -0.013942294 0.0072520864 0.040310584 0.0028929047 0.03331157 0.040345777 0.027377257
-0.0171236 -0.0013007371 0.00036787483 -0.0024922008 0.020700717 0.014015155 0.019645462 -0.008802027
-0.012432338 0.009007926 0.030592257 0.020644085 0.021909103 0.023729973 0.038218174 -0.0026221392
-0.005168843 -0.004087977 0.023495538 0.009395958 0.034125976 0.022659915 0.019541904 -0.04603366
-0.006753159 0.025253098 0.0008697466 0.0034090336 0.0013961977 -0.00043731608 0.009032684 0.016596448
0.04337018 0.0068827895 0.019547988 0.021226216 -0.01411645 -0.0025251072 0.011974115 0.026063846
0.008489688 0.01166753 -9.792763e-07 0.02118848 -0.0019051895 0.020858208 0.006343722 -0.003727745
0.013169084 -0.003610044 0.01512035 -0.00033523398 0.03871093 0.0058844327 0.048573676 0.023270113
0.009759589 -0.011979057 0.010894193 -0.002888754 0.016066803 -0.012250252 0.035592847 0.01620464
0.019776367 -0.027939219 -0.031082684 0.050384805 0.022183089 0.026020287 0.00265508 0.029841455
0.037779287 0.029247375 -0.019067695 0.01564898 -0.005325905 0.013219675 -0.019124977 -0.023537092
0.010986281 0.024913752 0.026240222 0.016196193 -0.011519116 0.012378048 0.007257174 0.055040505
0.0038621179 0.010956983 0.014425068 0.0059021697 0.00040698666 -0.009831717 0.0004944858 0.030797528
0.0056387796 0.039023876 0.0065967673 -0.015203185 0.0019080205 0.003081596 0.023739211 -0.0099279955
0.029747767 0.017641047 0.035941236 0.010527445 0.00874507 0.0018281861 0.048817117 0.02197656
0.004799441 0.030089319 0.006947357 0.010287284 -0.0054938863 0.033754498 0.020557338 0.0063695456
0.03366037 -0.005124775 0.023857066 0.0007642354 0.02017585 0.017930502 0.0016924737 0.020012606
0.011042696 0.030528849 0.031996887 -0.0032109017 0.0029425807 0.0012117892 0.0100023225 -0.004756855
0.0007873165 -0.0023128274 0.0059843734 0.029620478 -0.0020746186 0.0058392617 0.02598533 0.05892084
-0.016511785 0.008100216 0.017847653 0.025307823 0.0011829012 -0.006884168 0.015069172 0.044220813

network_body._body_endoder.seq_layers.0.weight f4 [256, 266]
00000000: 5d5b ccbd f1d0 b1bc eec4 c53d 3535 473c
00000010: 9d95 1cbd 6845 e0bc b4d2 afbc e796 dcbc
00000020: 3a31 9d3c 25d2 413b 8420 8a3d e94a a4bd
00000030: 155d 5abd f252 9cbd 7436 88bd 1a4e cd3d
00000040: 8c1a ccb8 4ce9 bbbc d184 743d 9e8f 153d
00000050: 2111 6fbc d108 993c 1fa1 ac3d f453 0dbd
00000060: 7271 33be 29f6 053a 9896 89bd 42d8 7cbd
00000070: 741d f1bb 73a4 04be da93 a73d 6430 663d
00000080: a24e 0c3d 1f3b bebd 069a 683d 6afb a3bd
00000090: 6882 ad3c 8c81 163d 83f4 8dbd 8194 35bd
000000a0: b499 94bd 74a8 f53c 8be1 8e3a 4771 883d
000000b0: 2410 74bd c713 ca3c 0885 283b f30c 1cbc
000000c0: aac5 2a3d 1ba7 5b3d 2249 ec3a 846e 7cbc
000000d0: c7fd be3c acbb 623d 1737 fdbd 6e21 a33d
000000e0: 6327 253e 7f78 3d3c cb2b 72bc 0dca 69bb
000000f0: a52e a83d ac2f 3d3d 1954 813d 6990 2c3e
00000100: d052 6ebd f452 083d cca0 eb3c 88ef 54bd
00000110: 4934 8f3c 0659 93bd a325 2dbc 4969 f73c
00000120: 2f8e ecbc 19f8 d7bb e53d 8b3c 2f4e 0fbd
00000130: 48db 0dbd addf 4fbc ac1b 26be 76bd b43d
00000140: 97df 423c 6c93 bf3c 608f 153d 6dce 0dbd
00000150: 654c 8ebd a843 84bc 8e78 50bd 3bb7 adbc
00000160: 18d1 dcbb ff6b bdbd 5c43 cfbc 4b74 15bd
00000170: 0726 b53d a9c0 2bbc 6bb8 27bd 433f 663d
00000180: f43c ffbd b711 7d3d 5244 723d fdfb 03be
00000190: 825a a33d cbe6 8b3d ead5 1ebd 5378 333d
000001a0: 40a2 3abd 423d a43c 02a1 96bd ab51 73bd
000001b0: 3813 263d 2e66 eabd cc36 8dbd 212c 413d
000001c0: c9a9 e73d 57d8 883c b837 103e 7717 65bd
000001d0: 4519 023d c083 49bd bfc4 1cbd 58d9 123d
000001e0: 973a ff3d 852d 443d 6bd1 dd3b 4ca6 783d
000001f0: f794 823d 3335 a83c 3036 8f3d e08f c9bc
00000200: 5545 373d 5819 453d 41ab 93ba 6336 c83d
00000210: 7094 78bd c407 babb d54d 1bbc 7bd9 98bd
00000220: 7d55 b2bd 344a eabc ca40 c8bc 9610 96bd
00000230: 5fd4 493d 4ae2 833d c824 a0bd 515a 163e
00000240: 64b9 e93c ac34 3f3d 5f86 b2bd f6d7 a43c
00000250: 622a 58be e050 57bd da28 f93d 3506 093d
00000260: 8d04 df3c d271 83bd efb7 07bd a623 ac3d
00000270: ebb1 b3bd cf25 84bc 27f6 59bc 0989 d53d
00000280: 51d6 10bd 28e0 2d39 9ce8 5a3c cf9e 76bc
00000290: 6126 8cbd 2323 193d 6ac7 04be 34ba b2bd
000002a0: c08b 09bd ab17 363c f771 38bc b95f 14bd
000002b0: 68e8 983c b184 613d 8fe3 09be 23be fbbb
000002c0: 9df3 c2bd 4149 22bd 8c87 853d 0a31 f3bb
000002d0: c070 9ebd 2a84 183d 7520 9f3c 1c61 8a3d
000002e0: 0821 c8bd 91cf 35bd 4552 f2bd e7e2 f13c
000002f0: b4be a4bd 303c 17bc 9b72 a83c 8ae0 06bd
00000300: 7639 6b3c d9f0 cabd 5a32 12bd 3b09 dabd
00000310: 7c90 0abe d0a5 c7bd a582 a4bd 84f7 afbc
00000320: 88d2 6dbd 4d5f 273d 4fdd f2bc 265f 1f3d
00000330: 238d 103e dd53 11bd bd1b 073d 3c76 dd3c
00000340: f950 e0bc b0da 51bb 1238 9abd 3b38 89bd
00000350: 6757 2cbd 7672 173e 18ff 153d 5e65 0e3d
00000360: 4791 71bd 7adf 9c3c 828e d23d 1c69 953d
00000370: c179 eb3d 7e46 c93c 03f6 4ebd 788e 95bd
00000380: 76ca ad3b 0405 5cbd 1840 d2bb 1684 e0bc
00000390: 5c36 8e3d ef56 46bc bc24 1a3d 32d2 0cbd
000003a0: 1604 99bd b2f3 b53c da54 613d 2e5f abbc
000003b0: 5e48 4cbd 439e 4d3d 8572 44bd 6f23 a1bc
000003c0: c4ea 88bc 0374 62bc 8592 8cbb 6100 62bd
000003d0: 7820 57bc d5c8 043c 4f6a bc3d b1fd 913d
000003e0: 18ef a4bd 5519 99bd 4fc3 fa3d 17d0 e43d
000003f0: 56c3 883c bc2c 94bc b3e2 fb3b 3101 553d
-0.09978364 -0.021706076 0.09656702 0.012158682 -0.03822862 -0.027376845 -0.021462776 -0.026927425
0.019188512 0.0029574719 0.06744483 -0.080221005 -0.053311426 -0.07633008 -0.06651011 0.10024662
-9.732423e-05 -0.022938393 0.059696976 0.036513917 -0.014591486 0.018680962 0.08429169 -0.034503892
-0.17523745 0.0005110228 -0.067181766 -0.061729677 -0.0073582474 -0.12953357 0.08182497 0.056198493
0.034254678 -0.0928862 0.056787513 -0.08006938 0.021180347 0.03674464 -0.069314025 -0.044331077
-0.07255879 0.029987551 0.0010900957 0.06662231 -0.059585705 0.024667634 0.0025714058 -0.009524572
0.041692413 0.05362616 0.0018027166 -0.015407208 0.02331437 0.05535476 -0.12364023 0.079653606
0.16128306 0.011564373 -0.014780949 -0.003567341 0.08212022 0.04618804 0.063148685 0.16851963
-0.058184445 0.033282235 0.028763197 -0.051986247 0.017480986 -0.07194714 -0.010568055 0.030201571
-0.028876392 -0.006590855 0.016997287 -0.03498667 -0.03463295 -0.012687606 -0.16221493 0.08825199
0.011894128 0.023385726 0.036513686 -0.03462069 -0.06948165 -0.016145542 -0.05089622 -0.021205535
-0.006738793 -0.09249114 -0.025300674 -0.03648786 0.08845144 -0.0104829455 -0.04094736 0.056212675
-0.12462798 0.061784472 0.059147187 -0.12889095 0.07976247 0.0683113 -0.038778223 0.043815922
-0.04556489 0.020048741 -0.073549286 -0.059404057 0.040545672 -0.114452705 -0.06895217 0.047161225
0.11311681 0.016704721 0.14083755 -0.05593058 0.03176238 -0.049197912 -0.03827357 0.035851806
0.12462347 0.047894973 0.0067693493 0.060705468 0.06376069 0.02053318 0.06992757 -0.024604738
0.044743855 0.048119873 -0.0011266248 0.097759984 -0.060688436 -0.0056771953 -0.009479006 -0.07463356
-0.08707712 -0.028599836 -0.024444956 -0.07327382 0.0492748 0.064396456 -0.078195155 0.1468289
0.028530784 0.04668109 -0.087170355 0.02012251 -0.21109918 -0.052567363 0.12165995 0.033453185
0.02722385 -0.06418194 -0.033134397 0.08405237 -0.087741695 -0.01613131 -0.013303316 0.10426528
-0.035360638 0.0001658207 0.013361122 -0.015052511 -0.06843258 0.037387025 -0.12966695 -0.08726922
-0.03358054 0.011114041 -0.01125764 -0.0362241 0.018665507 0.055058185 -0.13465713 -0.007682578
-0.09519122 -0.03962064 0.06519994 -0.0074216174 -0.07736349 0.037235416 0.019424656 0.067568034
-0.09771925 -0.044387404 -0.11832098 0.02952714 -0.08044186 -0.009230658 0.02056246 -0.03292898
0.0143569615 -0.09909219 -0.03569255 -0.10646292 -0.13531679 -0.09748423 -0.08032731 -0.02148033
-0.058062106 0.04086237 -0.029646544 0.0389091 0.1411634 -0.03548037 0.032985438 0.027033918
-0.02738236 -0.0032021217 -0.07530226 -0.06700178 -0.04207554 0.14789757 0.03662023 0.03476464
-0.058976438 0.01914953 0.102810875 0.07295439 0.11497832 0.024569746 -0.050527584 -0.073025644
0.0053036762 -0.05371572 -0.006416332 -0.027406733 0.06943962 -0.0121056875 0.03763269 -0.034380145
-0.074714825 0.02221093 0.05501256 -0.020919409 -0.049873702 0.05019976 -0.047960777 -0.019670216
-0.016713507 -0.013821605 -0.0042899274 -0.055176143 -0.0131303 0.008104523 0.09199964 0.07128466
-0.08053416 -0.07475535 0.122442834 0.111725025 0.016694706 -0.018087737 0.0076869368 0.05200309

network_body._body_endoder.seq_layers.0.bias f4 [256]
00000000: 4d85 3cbc 3e46 05bc d770 263c dccf 01bc
00000010: 75bb b5bc 1e5c 803c ca52 e2ba 464e 873b
00000020: 3a84 a13b 38f5 6d3c 4c1f 7e3c 1831 07bc
00000030: 27b1 4c3b 08d3 803c 8a1b 44bc 3b33 3ebc
00000040: b60e beb8 b2d9 863b 2623 86b9 11ac 6fbc
00000050: 28be 1e3c e449 95bb de89 0e3c d09e babb
00000060: 88af 70bc dce5 0c3c 7376 c5bb 78f5 a63b
00000070: c68f 5f3b 17f7 3eba 2cfe 81bb 5d18 6ebc
00000080: e0e4 0d3c 47af d9bb 2a24 573b 3bac d03a
00000090: 6c54 cf3b 75c4 55bc 69cf c73a 99ca 54bc
000000a0: fde0 8cbb 882d 3d3b ba0c f9bb 700f 183c
000000b0: 29b1 b23b 337b 4ebc 0c3a f7bb f739 b63a
000000c0: 577d b9bc b226 483b 440c 803c b841 503c
000000d0: 9ff8 2cbb cfa7 76bc 3c12 fb3b 7742 57bb
000000e0: 7097 913a 11e0 a63c f275 843a 73aa 2abc
000000f0: dc09 ab3a 0766 c6bb 4200 5cbb be42 693b
00000100: 3c3f cdba a29b 0fbc 9b64 873b d06e 6bbc
00000110: 3e58 15bc d7ba 95b8 c5b0 f33b 5b09 2dbc
00000120: 01ec ea39 d9b3 733b c402 3cbb a143 b93b
00000130: e476 df3b 4608 71bb bbf8 abbb ae92 04bc
00000140: 753b 9e3b 3e67 7e3b c982 5a3c f260 cfb9
00000150: a0e0 1cbc eae8 d23b 7bf6 023b 7364 94ba
00000160: 9d5a e0bb 2e0b 2cbb f6bd e23a 4c61 b2ba
00000170: bd5e 9fbc b1c6 94bc a978 dd3b c34b f33c
00000180: fdd2 a4bb cb62 b53c a0fe f7bb cde3 dbbc
00000190: adce 3fbb cab6 1a3c e516 02bc 8a82 aa3a
000001a0: dcc8 8abb 6ad6 223c 4961 713b c301 673c
000001b0: 1d72 633b 0929 79ba ee6f 3f3c e1eb babc
000001c0: e514 aa39 4466 973c 0dba f3ba d999 603b
000001d0: 1369 d5bc 78cf ba3b 41a2 a639 5709 a4bc
000001e0: 9d96 8dbb fc76 bc3b 7692 263b 3b62 5d3b
000001f0: e343 153b 1d56 ad3c 0fb1 96bc c6af 033b
00000200: 7ed2 3dbb 9012 9abb e48d 8b3b 434a aa3b
00000210: cfb1 133a c71a 5abc 7fbd da3a 565a dfba
00000220: ce30 e5bb 2884 6b3c f0a6 56bb 9889 82bb
00000230: 487a 6ebc f50d 8ebb 9dd0 7fbb 51a4 81bc
00000240: a2e8 9eba 0218 adbb 2b76 05bb fc1d e83a
00000250: 7770 43bc 51a9 1f39 9c13 1bbc 659e 923c
00000260: 40ef 683a 9aaa 853c 2829 313b 13e1 b23b
00000270: 8ac7 56bc 5ef5 c63b b63a dfbb 579f efbb
00000280: d29b 253c cf1b 183c 8dc1 55bb 2ff5 843b
00000290: ecde b13b b959 63ba 6394 8a3b a230 2dbc
000002a0: 69d4 53bc d0f5 6e3b a326 41bc 6d9d adbb
000002b0: ca86 583c 5eee 933a a824 da3c 8589 993a
000002c0: 0e3f 81bb 3215 2b3b 6ef5 773c dc99 e5bb
000002d0: ddcc 413c 9410 8ebb 6cd3 b93b 3b5f 34bb
000002e0: 199c 4e3a 1d83 7ebb a6e7 bf3c 9247 863c
000002f0: e922 04bc ce59 02bc a58e 613c 1c7c 5bbc
00000300: 419f a63c 9cde 5fbc f0b1 adbb 0b99 28bb
00000310: 8d70 963c f9d6 e7bb f719 debb 72d7 ed3b
00000320: 0c04 7dbb cf4d 873b 22de 65bc 498e 1d3c
00000330: 43be 87bc 045d 833b 6a2f b43b fbee 90bc
00000340: d529 40bb ff49 06bc 038b cebb a878 88bb
00000350: 16c9 453c 0c4c 9f3c 643d 0c3b 120c 743c
00000360: 317c 863c 72b6 b23b 3e39 173c 029f b93b
00000370: 866b ad3c be35 b7bc c717 1bbc c999 56bc
00000380: 4041 823b c0f3 1b3c aacd 763b 1e4f 453c
00000390: b494 8c3c 7096 b4bc 6b38 eabb 4133 013c
000003a0: 6a23 51bc 2be9 fdbc aee2 c03c c8d9 27bc
000003b0: ab56 3cbc 736a 8e3c 2321 3ebc 5291 80bb
000003c0: ce1f c6bb 4cd3 5d3c d12e cbbb b410 01bc
000003d0: ac7b 1eba b3e8 71bc 1c1f d03c 0cce faba
000003e0: 24fa 51bc 023c 8fbc ec62 8c3c f6ed 8a3c
000003f0: 0f6b a4bb 2645 20bc 2abd dfbc c821 023c
-0.011506391 -0.008134423 0.010158739 -0.007923093 -0.022184113 0.015668925 -0.0017267105 0.004129204
0.0049290927 0.014523797 0.015510391 -0.008251451 0.003123352 0.015725628 -0.011969456 -0.011608894
-9.062646e-05 0.004115307 -0.0002558466 -0.014628426 0.0096888915 -0.0045559276 0.008699862 -0.0056952015
-0.014690287 0.008599725 -0.006026083 0.00509518 0.0034112795 -0.0007284744 -0.003967067 -0.014532176
0.008660525 -0.006643209 0.0032827952 0.0015920469 0.0063272025 -0.013047327 0.0015244308 -0.012987756
-0.0042992816 0.002886625 -0.007600394 0.009281024 0.005453248 -0.012602615 -0.0075447615 0.0013902773
-0.022642775 0.0030540642 0.015630849 0.012710981 -0.0026393307 -0.015054657 0.007662086 -0.0032846013
0.0011107754 0.020370515 0.0010105951 -0.010416615 0.0013049203 -0.006054643 -0.003356949 0.003559276
-0.0015659104 -0.008765133 0.004131866 -0.0143696815 -0.009115277 -7.139675e-05 0.007436844 -0.010561313
0.00044807795 0.0037186055 -0.0028688172 0.005653814 0.006819593 -0.0036778613 -0.005248157 -0.008091612
0.004828865 0.0038818861 0.013336846 -0.00039554347 -0.009575039 0.006436457 0.001998334 -0.001132144
-0.0068467394 -0.002625178 0.0017299044 -0.0013609319 -0.019454354 -0.01816115 0.0067587686 0.029699212
-0.0050300346 0.022141835 -0.0075681955 -0.026842022 -0.0029267475 0.009442994 -0.007940029 0.0013008874
-0.00423537 0.009938816 0.0036831668 0.014099541 0.0034705468 -0.0009504711 0.011684401 -0.022817554
0.00032440494 0.018481381 -0.0018594876 0.0034271388 -0.02605108 0.0057010017 0.00031782876 -0.020023985
-0.004320933 0.0057514887 0.0025416887 0.0033780474 0.002277606 0.021159226 -0.018394975 0.0020093783
-0.0028964574 -0.00470192 0.004258858 0.005196841 0.00056341005 -0.013312048 0.0016688554 -0.0017040472
-0.0069943434 0.01437477 -0.003275331 -0.0039836876 -0.014555521 -0.00433516 -0.0039034255 -0.015825422
-0.0012123773 -0.005282403 -0.0020364623 0.0017709131 -0.011928669 0.00015226497 -0.009465124 0.017897794
0.00088857487 0.0163167 0.0027032588 0.00545896 -0.013109097 0.0060717305 -0.006812419 -0.007312696
0.010107951 0.009283974 -0.0032616586 0.0040575485 0.0054281857 -0.00086727325 0.004229115 -0.010570677
-0.0129290605 0.0036462434 -0.011788997 -0.0052983076 0.01321573 0.0011286249 0.026628807 0.0011713958
-0.0039442843 0.0026105163 0.015134199 -0.007006867 0.011828628 -0.0043354724 0.0056709554 -0.0027522582
0.0007881537 -0.0038835474 0.023425888 0.01639155 -0.008064964 -0.007955981 0.013766919 -0.013396289
0.02033961 -0.013663914 -0.005300753 -0.0025725986 0.018364215 -0.0070751873 -0.0067779976 0.007258349
-0.0038607148 0.0041291486 -0.014030011 0.009616443 -0.016570216 0.004008891 0.0054988163 -0.01769208
-0.0029321809 -0.008196353 -0.0063031926 -0.004164774 0.012071868 0.019445442 0.0021398896 0.014895456
0.016416641 0.005453878 0.009229956 0.005664707 0.021169435 -0.022364493 -0.009466118 -0.013098189
0.0039750636 0.009518564 0.0037659206 0.012042789 0.01716075 -0.02204439 -0.007147839 0.007885755
-0.012764791 -0.030994972 0.02354559 -0.010244794 -0.011495273 0.017384743 -0.01160458 -0.0039235735
-0.006046272 0.013539147 -0.0062006493 -0.0078775175 -0.000604565 -0.0147649525 0.02540546 -0.0019134893
-0.012815986 -0.017484669 0.017137013 0.016959172 -0.005017645 -0.009782111 -0.02731188 0.007942624

network_body._body_endoder.seq_layers.2.weight f4 [256, 256]
00000000: ce9b bfbc adf1 64bd 5518 b1ba 4d43 553d
00000010: 1378 fcbd e2c0 6a3d f2b0 7cbd 9126 003d
00000020: bc35 6dbd cad6 8fbd 242e 5d3c af7e 203d
00000030: 4780 8b3d 6afb 86bc cc71 f1bc 5288 d83c
00000040: 6a18 47bc c97a f03b ceb5 3ebd 7e3d 2a3d
00000050: f099 ba3c fdff 45bd 78b5 9f3c 114c 4abd
00000060: 38be 19bc fe96 84bc 77e1 b5bd be7e 7b3d
00000070: 202b b83c 87cd 153d 41cb debc 8ab6 93bb
00000080: 8bf1 1a3d e854 813d 0cfa 04be b327 eaba
00000090: 3830 e63c c710 993c c070 8f3d 8709 01be
000000a0: 42d6 033d 9709 fdbd c129 38bd 03be 2bbc
000000b0: 628c 57bc 333d 52bd e5d6 0bbe a8ca ab3b
000000c0: fbeb 95bd 48d0 dd3d 94bd 88bd 7e66 453d
000000d0: 6ba5 473c 6a9a ecbc 180c 763c e67e a5bc
000000e0: 9f15 62bd a063 a93d c796 06be ecd7 a1bb
000000f0: 9075 8a3d 1633 22be 8fd7 8cbd 264e be3d
00000100: c0a7 983d 196d b5bd 2263 7d3d e109 78bc
00000110: edb2 86bd 7c58 a6bd 8f66 8a3d a791 e0bd
00000120: e903 bd3d 0869 b63d ef98 043d b10c a5bc
00000130: e544 1cbc 5268 413c 871a 103e fc26 633d
00000140: d423 ca3d 9613 c8bc e213 2bbd 103e 9ebb
00000150: 585d 883c b03a 9dbd 09b2 e83d 308f 5ebd
00000160: a467 7a3d 1219 1fbd d9c8 11bb f223 e63b
00000170: ea0f 4dbd 2cf1 efbd 26ce e03c eae0 f83c
00000180: 78fd 19bc d72f 7c3d f6a5 84bb d6f1 593b
00000190: 8267 cbbc bcef 13be 93bc 04bd 5dff dbbc
000001a0: bcfe 963b e05b 433e 0b11 b1bd b57e 86bd
000001b0: 360a 243d 46d9 eabd 3d0b f7bd accb 9fbd
000001c0: 901f fe3d aa9d 323e bef6 08bd b729 01be
000001d0: a7a0 63bd ec51 edbb 4195 00bd 213c 9fbd
000001e0: 7fcc 2ebd 37e7 61bd e3b9 e43c 7b18 ab3c
000001f0: 060f 98bb b4a6 acbb 4e38 99bd d105 3b3d
00000200: d75e 183d 4029 f7ba 4eba d63c 66b9 e0bc
00000210: 0590 303d 08ce c6bd 06c2 0dbd cc9c 1a3d
00000220: 2cb0 65bb fffd adbd 861a a5bd 1609 223d
00000230: 7129 c9bd b00b 2abe 04da 4d3d e6df 2c3b
00000240: 775e 113d dc50 edbd 8783 0fbe 2ec5 063d
00000250: 9aba 1e3b 1984 d93c 0303 d73c 7d2e d33d
00000260: 1570 b23c accb 9ebc 3c72 193d fdb6 ad3c
00000270: 752a 6d3d 13f5 ae3d 872e 16be de5a 03be
00000280: 685f e53b 141c e23d 1698 9ebc 16f4 37bd
00000290: 493a 15bd f35c 75bd 5f16 c13d 2a6a bebd
000002a0: 4717 9bbb 6849 e8bc c864 afbd 424a 15bd
000002b0: 4b9d 363c c8d7 f9ba f2d9 cd3d 1fff ef3c
000002c0: b2c5 493d cf4c 00be 3dfe 823d 011e 4a3d
000002d0: f6d5 a7bc 41bb fe3b 5d9a 27bd 682d d4bc
000002e0: 3cb3 59bd 3699 43bd 57b4 e53d ef7b b73d
000002f0: 9ad5 82bc 41c7 d3bd 1719 263d 4edf 0c3c
00000300: 0815 6fbc 23b8 3ebe d865 f9bd 296a 9cbc
00000310: 8464 e2bd 00e6 e3bd 1e51 e9bd 4930 3fbd
00000320: 34b0 2fbe d79d 1bbe 606e 2bbd e929 103e
00000330: fff5 ccbd 60e5 36bd 4a23 0d3d 2d3c 9bbd
00000340: 9108 8dbd 1bf6 3bbd 5a17 f83d 5a28 83bd
00000350: 729e a73d dce8 60bd 1910 253d 61a6 f9bc
00000360: f610 223e 05e6 843d b3f1 b43d 66a5 8e3c
00000370: 54cb 3c3e 03ca 2cbe 6894 043c c9a6 803d
00000380: 0a97 753d 7e94 b0bc d9ca 1f3d 4c4e 2b3c
00000390: 3647 ea3d 97ed 9fbd 87c6 a13c 1fe6 1e3c
000003a0: b22a 163d e7f8 f8bc 4dcb 46bc 0f2a 09bc
000003b0: 6223 9dbd d23d 05bd 7560 53bd bff0 ac3d
000003c0: 50d6 bb3d 2d9d 9f3c e5e6 34bd 2c92 8bbd
000003d0: 98d5 21bd 693e d8bd e52b bc3d 3dbc 01bd
000003e0: 4d59 2b3d 2cb0 cbbd 448d 4abd 341c 1cbd
000003f0: c999 b6bd d0cf 803d 0ba4 01bd 9cee 0fbc
-0.023389723 -0.055894542 -0.001351128 0.052066136 -0.1232759 0.057312854 -0.061692186 0.03128678
-0.057912573 -0.0702339 0.01349977 0.039183315 0.06811576 -0.016477305 -0.029473208 0.02643219
-0.012151817 0.007338856 -0.0465601 0.04156255 0.022778481 -0.048339833 0.01949571 -0.04938895
-0.009383731 -0.01618528 -0.08880895 0.061400168 0.022481501 0.03657296 -0.027196528 -0.0045078443
0.03782801 0.06315023 -0.1298601 -0.0017864614 0.028099164 0.018684758 0.07003927 -0.1260129
0.032186754 -0.12355345 -0.044961695 -0.010482314 -0.013156028 -0.051327895 -0.13656195 0.0052426644
-0.073204 0.10830742 -0.06676784 0.048193447 0.012185435 -0.028882224 0.015017532 -0.020202111
-0.0551964 0.08270955 -0.13143454 -0.00493907 0.067607045 -0.158398 -0.06877052 0.092922494
0.07453871 -0.08858699 0.06186212 -0.015139074 -0.06577096 -0.08122346 0.06757843 -0.10965281
0.092292614 0.08906752 0.03237241 -0.020147653 -0.00953791 0.011804657 0.1407262 0.0554571
0.09870115 -0.024423402 -0.04176701 -0.004829176 0.016646072 -0.076772094 0.113620825 -0.054335773
0.061133996 -0.03884227 -0.0022244959 0.007023328 -0.050064005 -0.11715922 0.02744205 0.030380685
-0.009398811 0.06156906 -0.0040481044 0.0033255718 -0.02482963 -0.1444692 -0.0324064 -0.026855165
0.0046080034 0.19078016 -0.08645829 -0.06567136 0.0400488 -0.11467223 -0.120626904 -0.07802519
0.12408364 0.17442957 -0.033438437 -0.12613569 -0.055573132 -0.007242432 -0.03139234 -0.077751406
-0.04267549 -0.055152144 0.027920669 0.020885697 -0.004640463 -0.005268896 -0.074814424 0.045659844
0.03719982 -0.0018856898 0.026211884 -0.027432155 0.043106098 -0.09707266 -0.034608863 0.03774719
-0.0035047634 -0.084957115 -0.080616996 0.039559446 -0.098223574 -0.16606021 0.050256744 0.002637857
0.03549048 -0.11587688 -0.14015017 0.03290289 0.002422011 0.026552247 0.026246553 0.10311601
0.02178196 -0.019384228 0.037462458 0.02120542 0.05790182 0.08542838 -0.14666186 -0.12827632
0.0069998987 0.11040512 -0.01935963 -0.044910513 -0.03643254 -0.059903096 0.09428095 -0.09297593
-0.0047329995 -0.028355315 -0.085641444 -0.03644777 0.0111459 -0.00190615 0.100513354 0.029296456
0.049260803 -0.125293 0.06396148 0.04934502 -0.020487767 0.0077737872 -0.040918697 -0.025900558
-0.053149447 -0.047753535 0.11216038 0.08959185 -0.015970994 -0.10340739 0.04055127 0.008598162
-0.014592417 -0.1862493 -0.12177628 -0.01909359 -0.11054328 -0.111278534 -0.11392425 -0.046676908
-0.1715706 -0.1519693 -0.04185331 0.14078487 -0.100078575 -0.044652343 0.034457482 -0.07579837
-0.068863995 -0.045889 0.12113829 -0.06404181 0.08184518 -0.054909572 0.040298555 -0.030474843
0.15826783 0.06489185 0.08835163 0.017412852 0.18436939 -0.16873936 0.008092023 0.06281812
0.059958495 -0.021555182 0.03901181 0.010455679 0.11439364 -0.078089885 0.019747986 0.00969842
0.03666181 -0.030392123 -0.012133432 -0.008371844 -0.07672764 -0.03252966 -0.05160566 0.08444356
0.09171736 0.019484127 -0.04416551 -0.068149894 -0.03951034 -0.10558779 0.0918806 -0.03167366
0.04183321 -0.099457115 -0.049451128 -0.038112834 -0.08916051 0.06289637 -0.031650584 -0.008784916
