results/PushBlockCollab_PPO/PushBlockCollab/PushBlockCollab-12999962.onnx (onnx, 643240 bytes, 12 tensors)

network_body.observation_encoder.processors.0.conv_layers.0.weight f4 [16, 6, 8, 8]
00000000: af27 adbc 51ed 32bd b6b0 643d c3cd 7e3d
00000010: 465c 8c3d 9f51 31bb 8b8c 16bd 6c1b b9bb
00000020: 9d2d ea3b d4ea b4bd 259f c03c 1a84 7f3d
00000030: f1be 0f3e a0c2 c93d 54f9 743d 0a2d 23bd
00000040: db58 5c3d 0f53 86bd 8584 303d 9934 8b3c
00000050: dcac 88bc a452 3fbd 8865 56bd 5548 49be
00000060: 5152 ffbb 1e14 83bd f4f5 f7bd 8f62 25bc
00000070: 55f4 91bd bf37 bbbd 0f0f 6fbd de6b 78be
00000080: 940f 2f3d ec65 8abd fcb7 bdbc 9cf5 aebc
00000090: 3698 b43b 9cb5 95bd bac5 953b 0beb 18bd
000000a0: 7910 d1bd 79ac 97bc 61a9 96bc 717d 753d
000000b0: 67f8 0a3c e3a0 873d b869 7d3d 8825 b1bd
000000c0: f9e6 53bc ad52 a63c 7780 82bd 83ab 083c
000000d0: 368c b0bc f487 c5bc 5cdc d63d 7abc f8bd
000000e0: 466b bf3c 44c0 e4bc 9936 44bd c0fd d03d
000000f0: 5cb6 96bc 19c3 c0bc b5e1 19bd 2422 8bbe
00000100: 0275 96bd 824f b6bc ebf0 a8bd 248c ddbd
00000110: c0ae 62bd 82b5 063e c7e9 47bc 375a 153b
00000120: a970 5abd 5f5b dabd b25d dfbd 16d3 10bd
00000130: 4a8e babd 3dec 0d3e 9019 0d3e 2f9b 8b3c
00000140: e684 cebc 33e3 05bd 94f2 b83c 387a 483b
00000150: 555d 4c3d e97b 4fbd e6cd 543e ccae bbbd
00000160: 55fa 82bd df9e f5bc 42ba a9bb 5741 ba3d
00000170: 7499 a13d 5062 e4bb 18cc e7bd da13 4fbe
00000180: b718 15be 3e66 a23c 0a18 debd d0bb 1bbd
00000190: cea9 a63c 6b4a 12be 2364 bebb 4c19 9ebd
000001a0: cc42 2f3c c8dc 753d d61e 093d 43ba 8eba
000001b0: 7cc8 3abd 6c4c c8bd f8c1 1dbe dd33 863c
000001c0: a176 c1bd 3765 523d c1ee 89bd bf94 833c
000001d0: 9d8f a7bd 9001 eabd 59ce 1dbe f82e eabc
000001e0: e4db d5bd dc21 493d 36b2 43bb 732a f13d
000001f0: c658 293d cc5f a23d 874d 2abe 51b8 f6bd
00000200: e876 9f3d e2af 203d be85 08bd bbf0 cdbb
00000210: 0f17 313c fc4e eebd e857 1bbd 312c 603b
00000220: 7018 8cbd b8b9 183d cc7c 133d 8831 74bb
00000230: ee33 8a3c d929 e6bd 23dd 2fbd c1a4 923c
00000240: edea d73b 8233 ea3c e197 0ebd 789c e83b
00000250: 4be8 983c c231 013d e21f 56bd d1e1 cd3c
00000260: 81e0 7ebc c976 5cbc ec05 973d c986 9fbc
00000270: e3eb 76bd f02d 8f3c 370b 8f3c ebdd d53c
00000280: ee54 233c b63d da3d 7d30 a63b 31c4 18bc
00000290: 1036 f33c 0694 42bc 0f92 9d3b 7390 8a3b
000002a0: ed15 bd3c 18e7 9a3d 0fac 2fbd 07d5 babc
000002b0: 62c7 25bd 6419 9abc 5e13 08bd fd5b fabc
000002c0: 58cc 20bd f1f1 3ebd dbd0 0e3c ce28 ffbb
000002d0: 5800 69bb 6b08 37bd 6eed 08bd 1f72 a43c
000002e0: bec7 0abc e9f8 563d 1d2c 543c 604c 59bd
000002f0: 5fa5 423d cfcd 233c 6f97 bfbc 7c3a 51bd
00000300: 71d4 77bc fed2 00be 6318 1abd c268 963c
00000310: 9b71 73bd 75de 0c3d efd1 f73c 5476 c0bc
00000320: f644 6b3d 6fd5 babd d842 41bc d7d2 c5bd
00000330: 35cf d9bc eb41 063b bb56 8ebd c353 29bc
00000340: 3458 e63d 2924 94bd 26db c7bb fd56 b13d
00000350: 83f5 243e 1f8c cb3c 84dc 97bd 35f2 0f3e
00000360: b868 0dbd 8b52 d4bc 525b 863d 4b52 03bd
00000370: 67ff 6cbc d8f0 3c3d 0374 d2bd cc0f b83d
00000380: b7f8 dc3b 89ba 1e3d c8aa 233c 6814 ba3d
00000390: cc4b 183e d661 90bd d4cd ea3c 9abc c73c
000003a0: 9922 2abc 91e4 8b3a 9744 df3d bd88 1e3c
000003b0: 038f f63d d7b6 203c 385d 45bd b515 c63d
000003c0: 3cd4 753d d1c7 76bd 3317 b13d c119 993c
000003d0: 1c03 3b3e c013 1a3e a0eb b23c 28c9 06bd
000003e0: 4407 d13c 5ed0 8cbd da22 0e3d cdc4 d73d
000003f0: 4ad2 4f3e c27d d33d 379f e93b b325 e83d
-0.021137087 -0.043683354 0.055832587 0.06220795 0.06853537 -0.0027056707 -0.036755126 -0.005649021
0.007146551 -0.088338524 0.023513386 0.06238184 0.14037682 0.09851575 0.05980809 -0.039837874
0.053795677 -0.06558811 0.04309513 0.016992854 -0.016683988 -0.04670967 -0.05234292 -0.19656499
-0.0077917953 -0.064003214 -0.12107459 -0.010094299 -0.07126681 -0.09141492 -0.05836397 -0.24259898
0.042739466 -0.06757721 -0.02315902 -0.02135735 0.005511309 -0.0731003 0.00457069 -0.03733353
-0.1020822 -0.018514859 -0.018391313 0.059934083 0.008482075 0.066224836 0.0618684 -0.08649737
-0.012933486 0.020303095 -0.06372159 0.008341673 -0.021551233 -0.024112679 0.10491249 -0.12145324
0.023366582 -0.02792371 -0.04790363 0.10204649 -0.018397503 -0.02353053 -0.037568767 -0.27174485
-0.07346536 -0.02225471 -0.082490765 -0.10817745 -0.055342436 0.13155177 -0.012201733 0.0022789368
-0.053330097 -0.10661959 -0.10906543 -0.035357557 -0.09109171 0.13859649 0.13779283 0.01704177
-0.025209855 -0.032687377 0.022576608 0.0030590426 0.049893696 -0.05065528 0.20781669 -0.09164199
-0.06395403 -0.029982982 -0.0051796744 0.09094494 0.07890597 -0.0069697276 -0.11318225 -0.20222417
-0.14560209 0.019824143 -0.10844429 -0.03802091 0.020344641 -0.142862 -0.005810277 -0.07719669
0.010697078 0.060025007 0.033476673 -0.001088925 -0.045601353 -0.09780201 -0.15406024 0.016382152
-0.09446455 0.051366057 -0.06734992 0.016062139 -0.08181689 -0.11426079 -0.15410747 -0.02858685
-0.104423314 0.049104556 -0.002986086 0.11775675 0.041344427 0.07928428 -0.16631137 -0.12046874
0.077863514 0.039230235 -0.03333067 -0.006284801 0.01080872 -0.11636159 -0.03792563 0.0034206028
-0.068405986 0.03728649 0.036007687 -0.0037260968 0.016870465 -0.112384506 -0.0429355 0.017900826
0.0065892846 0.028589014 -0.03481281 0.0070987307 0.018665453 0.031541593 -0.0522765 0.025132092
-0.015556456 -0.013456055 0.073741764 -0.01947345 -0.060283553 0.01747796 0.017461402 0.026106795
0.009968979 0.10656302 0.005071698 -0.009324119 0.029688865 -0.011876112 0.0048086713 0.0042286455
0.023081744 0.07563609 -0.042888697 -0.022806657 -0.04047335 -0.018810935 -0.033221595 -0.030561442
-0.039257377 -0.046617452 0.008716787 -0.0077868467 -0.0035553183 -0.044685762 -0.033429556 0.020073948
-0.008470474 0.052483473 0.012949971 -0.053051353 0.04752099 0.009997799 -0.023387639 -0.051081166
-0.015126334 -0.12580487 -0.037620913 0.0183605 -0.059434514 0.03439184 0.030251471 -0.023493923
0.057438813 -0.091227405 -0.011795722 -0.09659355 -0.026588062 0.0020486068 -0.06950136 -0.010334912
0.11247292 -0.072334595 -0.0060991226 0.0865917 0.1610928 0.024847088 -0.07415107 0.14057238
-0.034523696 -0.025918266 0.06560387 -0.032060903 -0.01446519 0.046128124 -0.10276034 0.08987388
0.0067435163 0.038752113 0.009989448 0.090859234 0.14872664 -0.07049911 0.0286626 0.024381924
-0.010384225 0.0010672976 0.10901754 0.009676156 0.12038996 0.009809217 -0.048184603 0.09672109
0.060016856 -0.060249154 0.08647003 0.018689038 0.18262905 0.15046597 0.02184087 -0.03290668
0.02551616 -0.068756804 0.034701206 0.10535584 0.20295063 0.10326721 0.0071295756 0.113353156

network_body.observation_encoder.processors.0.conv_layers.0.bias f4 [16]
00000000: fa57 eebd 7ecd 0ebd 5344 05bd e4c3 88bd
00000010: 82df bebc a886 813d 3052 48bd 3859 98bc
00000020: 0262 733d 3489 06bd ebd8 8cbd 8333 c0b7
00000030: 6f28 30bd ccd7 18bd 2296 2bbd 4526 86bd
-0.11637874 -0.03486394 -0.032535862 -0.06677988 -0.023299936 0.06324512 -0.048906505 -0.01859723
0.05941964 -0.03284569 -0.06877311 -2.291217e-05 -0.04300731 -0.037315175 -0.041891225 -0.06550268

network_body.observation_encoder.processors.0.conv_layers.2.weight f4 [32, 16, 4, 4]
00000000: 1e10 013d 29b0 26bd 84f0 373d 7f41 8e3d
00000010: aae5 d0bd a52b a83a 3aa9 e33d fb44 7ebc
00000020: 327d 283e 854b 55bd 88f9 013d 5cbf 56bc
00000030: c8a3 333c 9d01 b73d 3d16 05bd 942f aebd
00000040: 5e28 b2ba 1906 3bbe 78de 3bbe 6583 ef3d
00000050: 70be 913d b6b3 75bd 7601 a9bd fc6a febd
00000060: 6f20 253d e85e 43bd 6fae 71bc 0a80 4b3d
00000070: 636a 823d 1344 003d 664b 60ba 91d8 743d
00000080: 00ca c73d d72c b1bc 00c8 35be 9ee9 53bd
00000090: ef72 bb3d 3170 0ebb c9df 89bc f140 04be
000000a0: 1314 683d effe 203d 8f8f 0ebe 071e d6bb
000000b0: e48a 2e3e 0577 9cbc 12f1 4bbd ca1c 1e3d
000000c0: 98ec c8bd d20f 1e3d b150 f5bb 4b32 17be
000000d0: 6a75 ea3d c7f9 f3bd fbf0 f6bc 658f c7bd
000000e0: abf3 d63d d082 c53c 8f1a 3f3c 769f 503c
000000f0: c58f 4b3d 133a d8bc bd79 693d aefe cebc
00000100: 04f9 d13c 151e e4bc 267a 033d c673 a8bd
00000110: 7fbf 5cbd 52c5 14bd 683b 29bd 57a3 23bb
00000120: 3a1f cd3d 583e 1bbd 251f 963d 1976 4cbe
00000130: 0549 a03d c5bf c13c b3d5 6c3c e044 033e
00000140: c842 8e3d 3251 55bd 2a65 8abd b179 b9bd
00000150: bad3 c43d f9a9 bbbd cac1 1dbe 1611 ab3c
00000160: c9ac e63d e5df a1bd 9e62 9fbd 891b 6cbd
00000170: a133 a2bc 337c 773d 46de f23c 813d 5a3d
00000180: 251e 843d 91a2 7cbb 37e2 3f3d c0fd 753d
00000190: 3966 afbd 52b1 28bd 6338 3fbe 2dec 20bd
000001a0: 3ad5 a83d 4952 30bc 35ff 853d b477 95bd
000001b0: 6ce6 0f3e c345 1c3d f01f 52bd eadb adbb
000001c0: b1bf 5b3c abc3 92bd 1102 a5bd 3bd7 20bd
000001d0: 9f92 0fbd defa d6bd 16c5 c4bd 89b5 6cbd
000001e0: 84b9 0c3e 07d5 c63c 72ec 30bd 113b 5d3c
000001f0: 4f9d d73a 65b4 843d afeb d5bc 0b50 c13d
00000200: ea33 693d ec9b 19bd 25cb bbbd fb55 95bd
00000210: c31e b2bd da27 4fbd b2ee b6bd df2d 5e3c
00000220: 643e f0bd 5801 3b3d 7c08 593d ea2c 9dbc
00000230: 7f79 e13d f8b4 15be b92a 85bc b688 893d
00000240: 4e09 b3bd 2591 923d ec80 043d 09f3 c33c
00000250: 0888 8ebd 6b7f 98bc 20ec acbc 4909 c9ba
00000260: c444 8d3d eb8e 9c3d 30de 4abd c3e3 d5bc
00000270: 382d 9dbd 5db0 08bd 84db 50bd 06af 473c
00000280: 5360 89bd cfe7 febd 0f66 c5bc 8be0 3ebd
00000290: b581 ca3d d64e 5a3d fd6f 48bc 4885 b0bd
000002a0: 2677 763c 3d95 9e3d 1b44 16bd f7fe 0cbd
000002b0: 2e3d c23c e3c3 733c 2848 1cbc c86c 03bd
000002c0: fe20 fa3c 5eaf afbd dbe4 c2bd 2c87 fabd
000002d0: 8d24 54bd bfc4 bebd 4f47 8a3c 07dd 2f3a
000002e0: 26f1 123d 91dc 2ebe a140 ddbc 6c6a abbd
000002f0: b583 7d3d dca6 ad3d 4861 573d 3d07 2e3d
00000300: eb06 dabb a0ab 9dbd 3230 b2bc d3e5 793d
00000310: 937a 89bc 65dc a1bd 7560 593d 85e1 c4ba
00000320: 7a30 2b3e 3819 29bd 2281 a4bd 25de e8bd
00000330: 6efc 173e a769 a83d 4140 e3bb a136 c1bd
00000340: 4a66 3cbe 3599 e43c 03fc 85bc df71 d1bc
00000350: 089a 67bc 4509 4f3d 451a cebc 740f 9e3c
00000360: b42d 863d cabd b6bc 1a6e ffbc bbbe 923d
00000370: 0179 803c 613d f33b 7fd7 9c3c fc56 913d
00000380: 3a0f ed3d 534a 393d ddbf 8c3d 9cc6 f5bd
00000390: f354 f83d d748 c43c 67b2 b5bc fc70 59bd
000003a0: cea7 5f3d 3a35 8a3d c3ec 9f3b 011d e0bd
000003b0: b86f ee3d 2bbd ed3c fb79 93bd 6e17 40be
000003c0: 3c84 4f3d 02ba 8d3c a2d0 dabd eaea 1dbc
000003d0: a182 d03d 2f06 ec3a 51d8 e5bd c8ef a2bc
000003e0: 5176 aa3c af5b d6bd f27e c0bc ecce 45bc
000003f0: e6ce 3f3d 2874 6cbb f624 653c 5c1f c33d
0.03150951 -0.040695343 0.044907108 0.06946086 -0.10200055 0.001283039 0.11116262 -0.015519376
0.16454008 -0.052073974 0.031732112 -0.013107147 0.010964341 0.089358546 -0.03249191 -0.085051686
-0.0013592353 -0.18264045 -0.18346584 0.116949834 0.07116401 -0.05998584 -0.08252232 -0.124227494
0.040314134 -0.04769793 -0.014751061 0.049682654 0.06367948 0.03131492 -0.0008556157 0.059776846
0.09755325 -0.021627827 -0.17752075 -0.051736467 0.09152781 -0.0021734352 -0.016830342 -0.12915398
0.05665977 0.039305624 -0.13921951 -0.0065343413 0.1704517 -0.019099722 -0.04979045 0.038601674
-0.09810752 0.038589306 -0.007486426 -0.14765279 0.11448176 -0.119128756 -0.030144205 -0.09744147
0.10495695 0.024110228 0.011664047 0.012733331 0.049697656 -0.02639488 0.057000864 -0.025267925
0.025631435 -0.027846375 0.03209891 -0.08225207 -0.053893562 -0.03632099 -0.04131642 -0.0024969184
0.100157216 -0.037901253 0.07330159 -0.19966926 0.07826427 0.023651013 0.014455247 0.12819242
0.06946331 -0.052079387 -0.06757577 -0.09056414 0.09610696 -0.09163279 -0.15405956 0.02088217
0.11263425 -0.079040326 -0.077824816 -0.057643447 -0.01980001 0.06042118 0.029647004 0.05328131
0.06451062 -0.0038549046 0.046846595 0.060056448 -0.08564419 -0.04118473 -0.18673854 -0.039287735
0.08243795 -0.010761806 0.065428175 -0.07298222 0.14052743 0.038152467 -0.05129999 -0.005305757
0.013412402 -0.07166227 -0.08057035 -0.03926776 -0.03505194 -0.10497068 -0.09607904 -0.057790313
0.13742644 0.024271501 -0.04319424 0.013502852 0.001645008 0.0647972 -0.02611336 0.09439095
0.056934275 -0.037502214 -0.09169606 -0.0729179 -0.086972736 -0.050575115 -0.08932246 0.013560741
-0.1173065 0.04565558 0.052986607 -0.019186456 0.11009502 -0.14619815 -0.016255723 0.06715529
-0.08742009 0.0715659 0.032349512 0.0239196 -0.0695954 -0.018615445 -0.021108687 -0.001533785
0.068978816 0.07644447 -0.0495283 -0.026109582 -0.076746404 -0.033371318 -0.050990596 0.012187725
-0.067078255 -0.12446558 -0.024096517 -0.04660086 0.09888021 0.05329784 -0.012233731 -0.086191714
0.015043056 0.07743309 -0.036686044 -0.03442284 0.023710813 0.014878246 -0.009538688 -0.032086164
0.03053331 -0.085783705 -0.09516307 -0.12232813 -0.05179267 -0.0931487 0.016879706 0.0006708656
0.03587451 -0.17076327 -0.027008357 -0.08369908 0.061893184 0.084790915 0.05258301 0.04248737
-0.0066536567 -0.076987505 -0.021751497 0.061010193 -0.01678208 -0.07903365 0.053070504 -0.0015020823
0.16717711 -0.041283816 -0.08032443 -0.11370496 0.14842388 0.082232766 -0.00693515 -0.09434248
-0.18398395 0.027905086 -0.01635552 -0.025566993 -0.014135845 0.05054595 -0.02515901 0.019294478
0.06551686 -0.022307295 -0.03118043 0.07165285 0.0156827 0.0074230884 0.019145725 0.07096669
0.1157517 0.045236897 0.068725325 -0.12000772 0.12125578 0.023960514 -0.022179795 -0.053086266
0.05460339 0.067484334 0.004880519 -0.10943032 0.116424024 0.029020866 -0.07201 -0.18758938
0.050663218 0.01730061 -0.10684325 -0.009638527 0.101811655 0.0018007214 -0.112229 -0.019889727
0.02080837 -0.10466706 -0.023498032 -0.01207326 0.046828173 -0.0036079977 0.013985863 0.09527466

network_body.observation_encoder.processors.0.conv_layers.2.bias f4 [32]
00000000: 507d 48bd 150b 9c3d 88d2 9c3d 8c7c 33bd
00000010: 8589 21bd 4c5f 18bd 9952 0cbc 08f9 833c
00000020: 833d 62bd f5f0 81bc 4073 8ebd 74ca ef3c
00000030: 6e66 093d 1683 273d c934 a4bc 865c 87bd
00000040: fa99 cdbc 8539 06bd 8abe 8f3d 5df0 423d
00000050: bd32 3abc a80b 023d 7d68 a93c 8d5b 963d
00000060: 5176 933d 4d74 913d 263a 393d 606f b9bc
00000070: 52be 4bbb b608 66bd 024c c6bc f8ea 3d3d
-0.048947632 0.07619301 0.07657343 -0.04381995 -0.03943779 -0.037200257 -0.008564615 0.016109958
-0.055234443 -0.015861968 -0.06955576 0.029271342 0.03354495 0.040896498 -0.020044701 -0.06609444
-0.025097836 -0.0327697 0.07018764 0.04759251 -0.011364636 0.031749398 0.020679707 0.07341681
0.072003014 0.07102261 0.04522147 -0.022636116 -0.0031088782 -0.05616065 -0.024206165 0.04636666

network_body.observation_encoder.processors.0.dense.0.weight f4 [256, 32]
00000000: 5a9e 153d 88cf 9d3e 05bd bc3e 8994 bf3e
00000010: cde7 8cbd b0ba 61be 63a7 9a3c 6ee1 bdbd
00000020: e5b2 d63e 1372 b53e 92e2 9ebd e645 bfbe
00000030: d8aa 1c3e 3026 60be 9769 0d3e 28c4 aebe
00000040: 4fec 7abe e50d 09bd 6485 1b3e d95f 24bd
00000050: 79f9 c6be 6d45 0fbe f386 913e 47c0 0ebe
00000060: 80e2 2e3e 8c7e 903e 242d 8c3e d25c 78be
00000070: c8d2 7abc d009 34be 7a2d 02bd 4d7f f33e
00000080: b3a2 d4be a7c3 f4bc e28c 98bd 649a 833d
00000090: b45e 22be 8037 9b3d 19f8 8a3e c39c 723e
000000a0: 0ee5 983d 272b e2bd eaed 8ebe 3ac3 4b3c
000000b0: 526e 8eba dec7 98bd 735e baba 7317 c13e
000000c0: 0af2 b43e 643b 0d3e 229b 8f3b 6a1d 98bb
000000d0: 0074 c9be 607f 0a3d dddf a4be 927a b73e
000000e0: bcf4 7bbe 0bd8 f03d c0ed 8cbe 57ef 0bbe
000000f0: c72e 8e3e 7d70 ab3e 990b 053f 1946 8d3d
00000100: 40bd e33d 6234 24be 032e 5f3d 8fd9 4abe
00000110: 4944 d5bd b91b 10be a5e8 9a3e df91 d8bc
00000120: fc4a df3d 8b8c 9dbc 84aa bcbd 52d8 d2bd
00000130: 611f b3be 0680 31bd f1dd bebc ff66 fb3c
00000140: 51e4 043f 1441 13be b8ab 1c3f 214a 163e
00000150: cb4f 2cbd 905d f0bd d38c 69be f891 453d
00000160: a4ca b0be a966 343e d9e3 b5be 3e88 2ebe
00000170: d6eb d03e af0f 5e3e b80c 4d3d fc38 863b
00000180: dff0 36bd e368 b43e cc4c edbe f59b 0dbe
00000190: ebe2 b3be 6b85 d93d db8a afbe d838 ac3e
000001a0: 1b2c 50be f2f0 6ebd 017b d2bd 6210 d5bd
000001b0: 6ff6 35be 3667 31be 9d4b 803b da4b 58bd
000001c0: 903a f83e edd7 dabd 1964 c63e 2889 bb3d
000001d0: 2abf bb3b 1ac0 cdbe 52e5 54be b8fb 873e
000001e0: d2be c23e e31f 6cbd db6c bfbe 06ee 53be
000001f0: 5880 ca3e 6adb 38bc bbee 0ebe 3c1a 833e
00000200: 138b e33e 80f0 9abe 4e93 b8bd d13c 45be
00000210: 2a11 323e 02a1 223e f1bc bdbd e27c d3be
00000220: 5f39 b1be 6eaf 243d 30b4 e63d b532 2fbe
00000230: bad1 88be f910 67be 3848 1dbf b1df 163f
00000240: c06c cdbd 6558 67be 4607 73bd acc0 0c3f
00000250: c6b1 34be fa13 dd3d a1f7 153e d8c0 7c3e
00000260: b2c8 a33e 3e1a 8fbd fd1b 89be f668 ae3c
00000270: 673c a43e 4611 9d3d 8fcb aabe 723e 8fbd
00000280: 319a c0be 126b ac3e 237f 0fbe 8ecf 37be
00000290: ed33 f3bd c9f0 a53d 60dc a2be b290 403e
000002a0: 3367 683d 660b 8dbd 07b7 633e 2d4b de3c
000002b0: a27e 00bf d152 d1be 5476 edbd 9a4c 45bd
000002c0: f4d8 243e 906f 103e 48d2 853e c228 ad3b
000002d0: 41cf 5e3e 5269 27be 065f d6be 8208 a2bd
000002e0: d5b9 f03d 5166 a03e 7056 4bbe fa12 8abe
000002f0: bf34 213e c782 8f3d 6169 563e a431 7bbd
00000300: 70a1 9e3d 9dd0 1cbc 7b91 913e ea66 c7bc
00000310: 9ce4 cfbe 6bb8 b1bd 4af3 51be 5499 c23d
00000320: b3de 9fbe 8249 91be 6c6a 853d d17e b33d
00000330: 4c02 12bf a092 a5bd d091 283e c90a 743c
00000340: a685 3f3f dd0d c63d 5794 5a3e b2a5 853c
00000350: bce5 0b3a 7e45 44be 0dd9 7bbe 16fc 28be
00000360: 45a8 db3e ba5a 4cbe 1950 8cbc 57c9 763c
00000370: 756b 183e 3bf8 87bd 3263 d23d a3f2 e0bc
00000380: 4f43 7cbd ca84 62be b4c8 74be e30d a13e
00000390: 8d34 80be 9b95 a53e 69bb e73e 5107 09be
000003a0: 1938 a43d cc9c 9cbe d2b9 883d d9e0 eebd
000003b0: 673f d03a e1a8 863d 8a13 f63e 7a55 da3d
000003c0: 1223 003e c005 7dbe e85e c3be 976c 933e
000003d0: acb6 7f3d 160c c93e 0b07 45be c13c 173e
000003e0: 4052 9e3e 8ad3 983e ccf2 5fbe a619 d1be
000003f0: 6e81 c93e 8463 29be bd79 123e e212 cabd
0.03652797 0.30822396 0.3686296 0.3741801 -0.0688015 -0.22043872 0.018878644 -0.09271513
0.4193336 0.35438594 -0.077580586 -0.37358016 0.15299547 -0.21889567 0.1380981 -0.3413403
-0.24504207 -0.033460516 0.15187603 -0.04013047 -0.38862208 -0.13991328 0.2842327 -0.13940535
0.1707859 0.28221548 0.2737819 -0.24254158 -0.015309043 -0.17581868 -0.03178165 0.4755806
-0.4153038 -0.02987845 -0.07448746 0.06425932 -0.15856439 0.07578945 0.27142408 0.23692612
0.07465564 -0.11043387 -0.2791589 0.012436682 -0.0010866618 -0.07459997 -0.0014218822 0.37713203
0.3534091 0.13792187 0.004382507 -0.0046421783 -0.39346313 0.03381288 -0.32202044 0.358357
-0.24605078 0.11759957 -0.2752514 -0.1366552 0.27770063 0.3348426 0.5197082 0.06898136
0.11120081 -0.16035607 0.05448724 -0.19809555 -0.10413415 -0.14073075 0.3025562 -0.026436744
0.10902974 -0.019232055 -0.09212211 -0.10295166 -0.34984878 -0.043334983 -0.02329919 0.03068876
0.51910883 -0.14380294 0.6119952 0.14676715 -0.042068284 -0.11736596 -0.22807626 0.04823491
-0.34529603 0.17617287 -0.35525396 -0.1704416 0.4080493 0.2168567 0.050060958 0.0040961485
-0.044663306 0.35236272 -0.46347654 -0.13829024 -0.35134062 0.106211506 -0.34285626 0.33637118
-0.20329325 -0.058335252 -0.102773674 -0.104035154 -0.17769788 -0.17324528 0.003915264 -0.052806713
0.4848218 -0.10685716 0.38748243 0.0915702 0.0057295756 -0.40185624 -0.20790604 0.26559234
0.3803621 -0.057647597 -0.37387738 -0.20696267 0.39551044 -0.011282781 -0.13958256 0.25605953
0.44442043 -0.30261612 -0.09012471 -0.19261481 0.1738936 0.15881732 -0.09264553 -0.41306216
-0.34614083 0.040206365 0.11264837 -0.17109187 -0.2672251 -0.22565068 -0.6143832 0.58935076
-0.10030508 -0.22592314 -0.05933311 0.54981494 -0.1764594 0.10794826 0.14645244 0.24682939
0.31989056 -0.06987427 -0.26779166 0.021290284 0.32077333 0.0766931 -0.33358428 -0.069943324
-0.3761764 0.33675438 -0.14013343 -0.1795027 -0.118751384 0.08102567 -0.31808758 0.18805197
0.056739043 -0.0688694 0.22237788 0.027135456 -0.50193226 -0.40883496 -0.11594835 -0.048168756
0.16098386 0.14105058 0.26136994 0.0052843997 0.21758749 -0.1634877 -0.41869372 -0.07911779
0.11754195 0.3132806 -0.19857192 -0.26967603 0.15742777 0.07007366 0.20938636 -0.061326638
0.077456355 -0.009571222 0.28431305 -0.024341065 -0.40604103 -0.08677753 -0.20502964 0.09501901
-0.31224594 -0.28376395 0.06514439 0.08764423 -0.57034755 -0.08084607 0.16461873 0.0148951495
0.74813306 0.09670613 0.2134565 0.016314361 0.0005336662 -0.19167134 -0.24594517 -0.16502413
0.42901817 -0.19956484 -0.017128037 0.015062652 0.14884742 -0.06639143 0.10272826 -0.027459448
-0.061587628 -0.22120968 -0.23904687 0.31455907 -0.25040093 0.32340702 0.4526017 -0.13381697
0.08018512 -0.30588377 0.066760674 -0.1166398 0.0015888036 0.0657518 0.48061782 0.106608346
0.12513378 -0.24709225 -0.38158345 0.28793785 0.06243007 0.39267033 -0.19240968 0.1476927
0.30922127 0.29848891 -0.21869963 -0.4083988 0.3935656 -0.16541868 0.14304252 -0.09866883

network_body.observation_encoder.processors.0.dense.0.bias f4 [256]
00000000: b594 baba bab4 6d3d 420f 9f3d 8383 333d
00000010: 0239 983d 01be 9a3d a791 a23d dba1 b2bc
00000020: 358b ae3c 8528 163d 1691 283d df6d a63c
00000030: f350 23bd a04c b03d 3255 b6bd e483 f23a
00000040: 9906 803d 83b9 8ebd 555a 04bd 5b24 bfbc
00000050: c580 ab3d d4f4 963d 8722 153d 1592 243d
00000060: a767 273d 6fa0 bfbb ea7e a13d 3ad2 213e
00000070: ff8e d03c 1d15 d93a 1719 863d 47a6 293c
00000080: bb13 103c 37f3 a63d e269 313a a900 ea3c
00000090: e1cd cebd 9b47 4a3c a193 62bd f32e adbb
000000a0: b7cc 8cbc 7f8d 683d f62b e33c a719 cbbc
000000b0: 30dd 5f3d 99d6 19bd ca6c db3d 1a57 d63d
000000c0: 072e e7bc a6e5 9ebc 2062 113d 2230 0b3d
000000d0: 1d24 ab3c 4899 153d f43a 27bd 52b3 84bd
000000e0: be6f 38bc b2c2 ad3d 1c8f de3a 679b 943d
000000f0: c25d b93d 1f91 2abb 07b0 763c 87b8 eb3c
00000100: 8710 943d 29ca bdbb fd76 0d3d e55d 9f3c
00000110: feea 773c 2409 093d 4aaf a13d 8de4 92bd
00000120: 738a 4a3d 9545 3c3d da63 0d3c 021a 103d
00000130: 9c9c 1abd c6d6 8fbb 69e9 183d f135 9abd
00000140: 5173 223c 4131 6c3d 7ae6 7f3d f230 86bd
00000150: ca5f bfbb a50a 49bd aeb3 54bc ce5e 563c
00000160: 4ecc ba3c 3f10 0bbc 9a4e 68bd ab61 88bc
00000170: f9b6 d13c 0571 3f3d b1d6 e7bd 8d51 6aba
00000180: 00cf 3a3d abad 763d bfde e13d e9a2 c93d
00000190: 0973 fe3b d19f 5b3d 4b0e 973a 0348 c13c
000001a0: f681 debc f7bf b93c 149a cf3d 9bf4 f4bc
000001b0: 3ecf 983d 2fc4 6c3d def5 1f3c 114a 733d
000001c0: 465e ac3c b671 253c e49b 853d 7485 a23d
000001d0: e9c9 19bc 810e f43d 58d3 353d 04ce 51bd
000001e0: 7b5b a5bc 8262 8cbb 3790 9c3d 8b04 a43c
000001f0: 566a 193c 2b12 a6b8 3434 86bc f0ef 16bd
00000200: aeea 6ebc a6ed a6bb 7479 bb3d d5a9 5b3b
00000210: 5db4 843b e5bb 38bd cae5 893b 52a6 4d3d
00000220: af02 803d 139a 1a3e 0c18 2dbd 7184 a23b
00000230: 95df 59bb a886 113e 8a3f 6abb b23d 7c3d
00000240: b1b0 ac3c 44d1 0c3c b730 23bd 0ea8 efbc
00000250: 5fcb a33c 3b7e 973d 2380 573d 3fca 6a3c
00000260: c8a6 31bc 044a 523b fb4a 48bb 31dd be3c
00000270: 7d53 f63c dbb4 333c c74c 0d3b 65f9 323c
00000280: 30d2 cb3d b924 bf3c f1f1 813d 93d8 1cbd
00000290: 2fd1 923c c691 00bd e4fb 693d bb25 94bc
000002a0: 3c97 bf3c 16ae 10be b332 033d d690 663d
000002b0: 9746 803d 4113 ab3a 5c9b 1bba ad58 173d
000002c0: b4fc 983d 454d ef3d da86 b6bd a278 553c
000002d0: c67f d63c 6916 973d a708 16bd 3192 afbd
000002e0: 4a36 b1bc 9ca2 c83b 212f 843d ca36 f2ba
000002f0: 73e0 5e3d 5686 2a3c 23ae 91bc 689e c93d
00000300: a484 673b f310 693d 74c1 bb3c de6b 783d
00000310: b846 ea3c 3e56 853d da5f 20bb 7021 a13d
00000320: b82b 7d3d 624c c93d cced 31bd 3b94 4ebd
00000330: 2ee5 e43c 0550 913c 8396 8f3c 7833 91bd
00000340: 90e8 b23c 4051 d53d e043 ad3d 910c dc3d
00000350: 6667 5e3d 78b5 7bbd 6ad4 8e3c c612 da3c
00000360: 1109 4fbd d4c7 7d3d 253c f73c 1181 1a3d
00000370: c1a6 13bd 15e2 aa3c 3fc0 5e3d 6108 b63c
00000380: a80e ac3d 98d8 2fbc df62 f4bc 1404 953b
00000390: 36df 073d 52e4 033d 3d8b 84bc 6e58 0cbd
000003a0: d866 923d df37 643c 04e5 623c 7410 bf3c
000003b0: 8b82 d4bb 2a65 973d 5ab1 8f3c 8423 6939
000003c0: 6020 0cbd 48b3 b53c 9059 08bd b6cf d13c
000003d0: 6342 6d3d 2803 4cbd c2dd 813d c6c4 7b3d
000003e0: ffdd 953d 09e0 d83d b945 84bc f0fd ba3c
000003f0: 0d73 193d 963f 33bd 1a37 343d a101 a03d
-0.0014234992 0.058033682 0.07766582 0.04382659 0.074327484 0.075557716 0.07937937 -0.021805694
0.021306613 0.036659736 0.04115399 0.020316062 -0.03987212 0.08608365 -0.089029685 0.0018502441
0.062512584 -0.06968977 -0.03231271 -0.023332765 0.0837417 0.07370916 0.03640988 0.040178377
0.040870335 -0.0058479826 0.07885535 0.15802851 0.02545881 0.0016562078 0.06547754 0.010354585
0.008793767 0.08151858 0.0006767792 0.028564768 -0.10097862 0.012346174 -0.05531657 -0.005285138
-0.01718746 0.056775566 0.027730923 -0.024792505 0.0546543 -0.037558172 0.10714109 0.10465832
-0.02822019 -0.019396614 0.03549397 0.03398145 0.020891244 0.036523134 -0.040827706 -0.06479515
-0.01125711 0.08484401 0.0016979906 0.07256203 0.09051086 -0.002602644 0.015056617 0.028774513
0.07229715 -0.0057919216 0.034537304 0.019453952 0.01513171 0.033455983 0.07894762 -0.07172499
0.04944844 0.045964796 0.0086297635 0.035181053 -0.03774701 -0.0043896167 0.037331972 -0.0752982
0.009915189 0.05766416 0.06247566 -0.06552304 -0.0058402764 -0.049082417 -0.012982292 0.013084127
0.022802498 -0.00848776 -0.056715585 -0.016648134 0.025599943 0.046738643 -0.11320246 -0.00089385436
0.045607567 0.060224216 0.110288136 0.09845526 0.007765178 0.05361921 0.0011524645 0.023593908
-0.02716158 0.022674544 0.1013681 -0.029901793 0.07461403 0.057804283 0.009763209 0.059396807
0.021041047 0.010097912 0.065238744 0.079356104 -0.009386518 0.11916829 0.044391006 -0.051221862
-0.020185223 -0.004284204 0.07644694 0.020021698 0.009363731 -7.918881e-05 -0.016382314 -0.036849916
-0.014582319 -0.005094248 0.09154025 0.0033517976 0.0040498213 -0.045101065 0.004208301 0.050207444
0.06250512 0.15097837 -0.04225926 0.004959636 -0.0033244838 0.14211524 -0.0035743439 0.061582275
0.021080347 0.008594815 -0.03984138 -0.02925494 0.019994436 0.073971234 0.052612435 0.014330446
-0.010842986 0.0032087574 -0.003056227 0.023298832 0.030069107 0.010968412 0.0021560655 0.010923718
0.099521995 0.02333294 0.06344975 -0.03829248 0.017922012 -0.03138902 0.057124987 -0.018084398
0.023387544 -0.14128909 0.032030772 0.05629047 0.06263464 0.0013052003 -0.0005935931 0.036949802
0.07470074 0.1168466 -0.0891244 0.013029249 0.026183974 0.07377321 -0.036629345 -0.08572806
-0.021632332 0.0061229 0.064543016 -0.0018479463 0.05441327 0.010408005 -0.01778323 0.09844667
0.0035326863 0.05690093 0.022919394 0.060649745 0.028598174 0.0651059 -0.0024471194 0.07867706
0.06180927 0.09829022 -0.04343967 -0.050434332 0.027941313 0.017738352 0.017527824 -0.07089895
0.02183941 0.10415888 0.08460212 0.10744584 0.054297827 -0.06145236 0.017435271 0.02662028
-0.050545756 0.06195815 0.030180046 0.037720744 -0.0360477 0.020859757 0.05438256 0.022220792
0.08401233 -0.010732792 -0.029832302 0.0045476053 0.033171855 0.032200165 -0.016179675 -0.03426402
0.07148522 0.013929336 0.013848547 0.023323275 -0.0064852885 0.073923424 0.017540623 0.00022233842
-0.034210563 0.022180215 -0.03328854 0.02561174 0.05792464 -0.049807698 0.06341125 0.061466955
0.07317733 0.10589606 -0.016146528 0.022826165 0.037463237 -0.043761812 0.04399786 0.07812811

network_body._body_endoder.seq_layers.0.weight f4 [256, 266]
00000000: 9a81 57bd 5698 463d 021b ac3d 8c67 cc39
00000010: 4bd9 0ebe 36d4 4a3d f546 873a 2475 8abd
00000020: 08f9 5fbd fdce 393d 12c0 1c3d a794 34be
00000030: 7994 25be b386 03bd 54a7 a9bd 8634 d03d
00000040: 9903 a7bc 5620 b2bd 86e1 1a3e bc48 9b3d
00000050: 1244 4cbe 4a4a 4bbc b7fc c73d e5b2 33bd
00000060: deef 2cbe bd60 77bd e3bf 3dbe 0a79 d4bb
00000070: da1f 09be f063 23be 34b1 e43d 6875 8b3d
00000080: e45a b63d b1ba 9cbd 5de8 9a3d 39a4 73be
00000090: 43bb 5bbd 83dc b73b e806 fbbd ce07 66bd
000000a0: b9c6 a3bd 26dd a3bd 767d c8bd 618b 483b
000000b0: 96d6 95bc 3e9e 56bd 5e7f 5bbb 2c6b cd3d
000000c0: fe5d 153c ecdf 23bd e9ad 8ebd a86b 3cbd
000000d0: a8b6 0dbe b30d 013e 9069 3cbe abc6 343d
000000e0: c10e 003e 6ed9 443d c2f5 17be 4773 d5bc
000000f0: 757b dc3d 7773 02bd 3cf8 c03d e74a 3d3e
00000100: d43c 8cbd a17d 7d3d 69f9 8cbc 2401 1fbe
00000110: 4358 0a3c 8395 f2bd a5bf fcbc c55d 1dbc
00000120: 334b af3b ffb8 893c 05bb 28bd 2e6e 2e3e
00000130: 0534 8bbd 7ffa d73c 9689 3dbe c88f 823d
00000140: 824c 6a3c 9f4f cf3d 9d6a 87bd 76f9 c43b
00000150: b28f 92bc 96d4 e3bc 7e81 75bd 1e6a 8bbc
00000160: f035 91bd 8ced 6cbd a535 0fbd 6522 c4bc
00000170: 984f 063e 588d b83c 3d67 1bbd 9740 b1bb
00000180: 1d69 56be 76b9 063e 4bfc f73c 5b30 d3bd
00000190: 0b2b 3a3e 4f15 f23d f5d3 3dbe c562 363d
000001a0: 01b2 ad3d 1411 873d a272 59be 7cdc 30bd
000001b0: ec51 633d 84b1 fcbd ab8f 483d 73de 4cbd
000001c0: f9e7 f73d bcab acbb 0736 0d3e 29a0 0abb
000001d0: 8f70 ed37 0fe3 743c 58e0 29be 717a cb3d
000001e0: cc74 043e f5aa 86bd 7699 69bd b7a4 f63d
000001f0: 9784 e23c 03fa 093d c447 313d 0fff 36bd
00000200: e55b 16bd ee04 8e3c 7607 24be 16d0 55bd
00000210: d671 b3bd 167f 94bd 5a09 c53c ad3e 00be
00000220: fa76 dfbd b732 1c3c 3657 e5bd 770f 09be
00000230: e3b0 e43d 1efc be3b 004c acbd 7a07 a03d
00000240: c56e dd3c 7d5b 84bc b6d6 3abe e98f b9bc
00000250: 6937 b5be 1f39 f4bd f087 393e c1bc 543d
00000260: 0a45 7fbd 00cf fcbd c52c 5dbd 157e 323e
00000270: 8d20 f7bd 16d9 63bd 5f1a 89bd 9367 873c
00000280: df0c 8fbc 233e 953d c4b3 6a3d 2b28 03bd
00000290: de74 69be 9735 4e3d 2242 81be 5053 5abe
000002a0: f8c5 debd 5959 8f3d 2212 d4bc 17d1 2cbe
000002b0: 9e3d c83c 992f 413d 7291 28be ee4d 16bc
000002c0: 3921 af3c 2784 ed3c 8d91 d93c 5288 56bd
000002d0: 5273 3d3c fd15 dc3c 0410 da3c 63ee df3c
000002e0: 7ffd 53be 2fff 3dbe c45d 3ebe 95f3 2a3d
000002f0: 6525 39be d334 8dbc 1afa 673d 2d79 b3bd
00000300: bf15 86bc 38b2 a4bd d0a3 50bd ebaa b2bd
00000310: 374d d7bd 6198 483b e518 9fbd a0e6 a53c
00000320: 6884 9d3c a8c6 733d c66f 3dbd 5e9a 82bd
00000330: e5b9 043e 37f6 e9bd b8ba 5d3d 8ba0 5e3d
00000340: fba8 14bd ed0d 8abe 0660 0abc a102 833c
00000350: 5984 c4bd 7185 e03d 7d66 bbbc a488 87bd
00000360: b587 8dbd 7136 13be 42d9 bf3d e7d2 663d
00000370: 1360 983d af6f d03c dc86 3a3d 2ea6 1cbc
00000380: 6549 dfbd 83f5 ccbd 0fb7 0abc 24f4 e7bc
00000390: dfe5 c33d d212 a23a 209d 093d c458 a8bd
000003a0: 1796 91bd 4a02 82bc 9eda 3a3d dce3 85be
000003b0: fa0c 49bd 9fef 703d 80d9 b0bd 3504 a1bd
000003c0: 522d fdbc 0080 68bd 5925 4fbd 487b 30be
000003d0: f4a0 5abe 479b 413d 14c5 413d 63f1 ba3c
000003e0: 7fe0 aa3b 0775 f3bd c284 d83d 8743 c83c
000003f0: d134 fd3c 4eed 943c 866f 2dbe 8bd0 143d
-0.052613832 0.048485123 0.08403589 0.0003898706 -0.13950078 0.049518786 0.001032083 -0.06760624
-0.054680854 0.045363415 0.03826911 -0.17634831 -0.16169919 -0.03211088 -0.082838684 0.10166268
-0.020387458 -0.08697574 0.15125093 0.07582232 -0.19947842 -0.012407849 0.097649984 -0.04387178
-0.16888377 -0.06039499 -0.1853023 -0.0064841555 -0.13391057 -0.15956092 0.11166611 0.06809503
0.08904055 -0.07652796 0.07563851 -0.23793115 -0.053645384 0.005611004 -0.12257177 -0.056159787
-0.07996888 -0.08001165 -0.09789555 0.0030600654 -0.0182908 -0.052397005 -0.0033492665 0.10030207
0.009116648 -0.04000847 -0.069667645 -0.046001107 -0.13839209 0.12602882 -0.18399644 0.044134777
0.12505628 0.04805892 -0.14839843 -0.026055945 0.10765735 -0.031848397 0.09422347 0.18485604
-0.068475395 0.061887387 -0.017208772 -0.15527779 0.008443895 -0.11844923 -0.030853102 -0.009604876
0.0053495406 0.016811846 -0.04119398 0.17034218 -0.06797031 0.026364563 -0.18509516 0.0637508
0.014300467 0.101226084 -0.06612132 0.0060111834 -0.017890785 -0.02781133 -0.059937946 -0.017018374
-0.07090366 -0.05784373 -0.03496327 -0.023942182 0.131163 0.022528335 -0.037940253 -0.005409311
-0.20938535 0.13156685 0.03027167 -0.103119574 0.18180482 0.118204705 -0.18537886 0.044527788
0.08481217 0.06595054 -0.21235135 -0.04317902 0.05549805 -0.12338546 0.048965137 -0.05001683
0.12104792 -0.005269496 0.13790141 -0.0021152592 2.8305016e-05 0.014946713 -0.16589487 0.09935463
0.1293518 -0.06575576 -0.057031117 0.120431356 0.027651114 0.033685695 0.04328133 -0.044676837
-0.03670873 0.017336335 -0.16018471 -0.0522004 -0.08761947 -0.07250802 0.02405231 -0.12523909
-0.10911365 0.009533576 -0.11198275 -0.13384806 0.11166551 0.0058283946 -0.08412933 0.07813926
0.027030358 -0.016156906 -0.18245968 -0.02265163 -0.35393837 -0.119249575 0.18118262 0.051937822
-0.0623217 -0.123441696 -0.053997774 0.17430909 -0.120667554 -0.05562695 -0.06694483 0.01652888
-0.017462192 0.07287242 0.057300344 -0.03202073 -0.22798488 0.050344076 -0.25245768 -0.21320844
-0.10877603 0.069994636 -0.025887553 -0.16876636 0.024443444 0.047164533 -0.16461733 -0.009173853
0.021378146 0.02899368 0.026558662 -0.0523761 0.011563139 0.026865954 0.026618965 0.027335351
-0.2070217 -0.18554376 -0.18590456 0.041736204 -0.18080671 -0.017237103 0.056635 -0.08763347
-0.016367791 -0.08041805 -0.050937474 -0.08724006 -0.105127744 0.0030608403 -0.0776842 0.020251572
0.019228175 0.059515625 -0.046249174 -0.063770995 0.12961538 -0.11423915 0.054133147 0.054352324
-0.036293965 -0.2696375 -0.008445745 0.015992464 -0.09595556 0.10962952 -0.022876019 -0.06617859
-0.0691065 -0.14376236 0.093676105 0.056353476 0.074402 0.02544388 0.04553877 -0.009561105
-0.10902671 -0.10007765 -0.008466496 -0.028314658 0.09565329 0.0012365228 0.03359711 -0.08220056
-0.071087055 -0.015870232 0.045618646 -0.26150405 -0.04908464 0.05882227 -0.08635235 -0.078621306
-0.0309054 -0.056762695 -0.050572727 -0.17234528 -0.21350461 0.047267225 0.04730709 0.02282018
0.0052147503 -0.118875556 0.105721965 0.024446262 0.030908974 0.018179562 -0.16937074 0.036331695

network_body._body_endoder.seq_layers.0.bias f4 [256]
00000000: 88f7 23bd 18ac 04bc ddd3 dd3b 7ad8 20bc
00000010: aa96 c43c 1b26 fd3c f7d3 f4bb a464 b73c
00000020: e9f7 063d e6e9 38bc f25e 343d 07bf efbc
00000030: 84e5 913c bf48 183c aea1 2d39 c6dd 1cbd
00000040: 2106 283d fd1e a2bc cfe9 ab3c c509 103c
00000050: e8e9 043d 5f90 753c ce31 613c 638d 67bc
00000060: c51c 45bc 28a6 2e3c d564 a0bc 3637 ecbb
00000070: 407b 8738 3fee 9b3c 30ac ff3a a9fb 3ebc
00000080: 81ee f2ba 829a 3aba b47c 8037 6873 f03b
00000090: d686 333c 5a11 babc d3bf fcbb e506 84bc
000000a0: 0cb5 62bc 31c3 c3bc 794a 1dbb 0f0e 523d
000000b0: ac35 203c 35c4 ce3c 692c 7bbc 31c2 c73c
000000c0: 8990 0dbe 40f8 d53b b799 993c 58bd 8b3c
000000d0: d002 f03c 0600 783c 9ef6 c2bc 701d c63b
000000e0: 1aa0 223d e5cf c93c c48d 3f3c 08aa 79bc
000000f0: a653 5a3b 4ce8 58bb 1184 98bb db6d ce3c
00000100: 50ad 1abb c168 7bbc 9a27 a23c ebc2 01bc
00000110: ee2e 153d 1d7d 8c3c eb09 003d dd7b 0fbd
00000120: 90cf 9d3c ca1f 0c3c f438 96bc bc7b b7bc
00000130: 9cbc 1d3d 544e a9bc 489c 65bc 4e43 163c
00000140: 1123 f03c 36cc 2d3c 26e4 943c 0f03 99bb
00000150: daa0 32bc b9e2 a4bb 9bae 2abc 9843 1fbb
00000160: 4183 013d 6723 57bc af7e c8bc 4485 a13c
00000170: 36f9 f53c 7dee b4bc 0158 d63b ff57 c83c
00000180: 87f1 ef3c 1a32 e83c cd31 ba3c 27f8 3fbc
00000190: 96e0 83bc c9b1 ad3c f47e 6dbc d336 913c
000001a0: 0cbf 43bb f209 193d 0779 933c df01 843d
000001b0: dea2 aa3c 5642 93bb ec02 133d f3f7 a33b
000001c0: a163 96bb 1f21 503d 0545 22bc 0bcb 003d
000001d0: 5ea9 c03c fb60 e7bb b1fd 9a3c eaa1 76bc
000001e0: 9de2 a63b 1526 0b3d 1dff 893b 1a95 df3c
000001f0: 4db2 b53c f441 833c 9e7d 82bc e6b2 113d
00000200: 23b9 b5bc 062d f0bc 1256 29bd 3aa7 0e3c
00000210: 3b72 b83c 6366 17bd f5cf 39bc 3cdd 5fbb
00000220: 7a1d d2bc bb31 ca3b e863 b9bb 4137 0a3d
00000230: 61db bebc 9ec0 28bc e0cb 82bc c7a8 e0bb
00000240: be0d bdbc 797e ce3c b762 27bc 0cda 77bc
00000250: 3fc2 76bc 9e56 703c 3f5e f73a 4324 9d3c
00000260: 6c35 03bc ad87 f03b 3645 4abc dc52 e8bb
00000270: 135e b9bb 8cdb 413d 9568 c3bc e31b 14bc
00000280: b3f6 23bc da5d ccbb 563d ed3c c4a1 ef3c
00000290: d50c ef3c c7a3 163d 03e9 fa3c 02e5 89bd
000002a0: 13a1 033c 0889 29bc 20f6 80bc b7dc d1bc
000002b0: 6439 02bb 3d35 0dbc 5325 1e3d bb91 e63c
000002c0: 51c2 32bc c076 af3b df67 96bc f759 20bd
000002d0: 4c67 213c 0850 1839 79c2 b23c 11c7 2f3c
000002e0: a52c 813c 9761 8fbb f1a4 503b 926c 383c
000002f0: 2d63 d93c 2dbf 37bc 94be 133c 8b1f 0f3d
00000300: a255 b1bc 5cc1 4ebb 7ed7 d6bc dbeb 0ebc
00000310: 5920 353c 6549 253c 7890 90bc f9ed 3937
00000320: d6cf 3cbc c8ce a0bb bad0 9ebc e3a5 9c3c
00000330: 7355 f2ba 234c c03c 7f1e cb3b d64d 393c
00000340: f45a 903c 2923 2aba 5587 c9bc 77e9 04bc
00000350: cffe 86bb fc6d 973c 000b b4bc 7328 023d
00000360: 84c4 293d 8b4b 553b dd52 fbbb c560 e23b
00000370: df89 be3b bbf6 383c 51bc 1dbc b177 ddbc
00000380: 0fb5 0b3c ea48 c53c f535 a83c 30f3 07bc
00000390: 744f 523d 56d8 33bd da6b ebb9 6abb 153d
000003a0: ee44 8b3c 7648 f83c f159 833c c46f 96bc
000003b0: 3da9 b6bc 3361 19bb 9d09 393d d5b3 023d
000003c0: 027c fb3c c342 1ebc 8c04 b03c dd7d f0bc
000003d0: 18e8 b23a be41 a1bc 4b2b 653c 5382 883c
000003e0: 21d4 fb3a 03c8 fdbc 16d4 143c 76d6 803c
000003f0: 5b93 253c 8c6a 14ba b8b1 003d 5bc6 413c
-0.040030986 -0.008097671 0.006769641 -0.009817237 0.023997623 0.03090196 -0.0074715572 0.022386856
0.03295127 -0.0112862345 0.04403586 -0.029265894 0.017809637 0.009294688 0.00016558796 -0.038297437
0.04102147 -0.019790167 0.020985512 0.008791392 0.032449633 0.014988034 0.0137447845 -0.01413283
-0.012030785 0.010659732 -0.01957933 -0.00720873 6.460259e-05 0.019034503 0.0019506272 -0.01165668
-0.0018534214 -0.00071183604 1.5316858e-05 0.0073379762 0.01095744 -0.022713352 -0.007713297 -0.016116569
-0.01383711 -0.023896785 -0.0024000688 0.05128294 0.009778421 0.025240043 -0.015330412 0.02438459
-0.13824667 0.006529838 0.018750055 0.01705806 0.029298216 0.015136724 -0.023799237 0.0060459897
0.039703466 0.024635265 0.011691514 -0.0152382925 0.0033314019 -0.0033097444 -0.0046544154 0.025198868
-0.0023601837 -0.0153447995 0.019794274 -0.007920007 0.03642171 0.017149502 0.03125946 -0.035030235
0.019264013 0.008552501 -0.018337704 -0.022397868 0.03850995 -0.020667233 -0.014014311 0.00917132
0.029313596 0.01060777 0.018175196 -0.004669554 -0.010902608 -0.0050319103 -0.010417606 -0.0024301764
0.031619314 -0.013130999 -0.02447447 0.019716866 0.03002606 -0.022086376 0.0065412526 0.024456022
0.029289974 0.028344203 0.022728825 -0.011716879 -0.016098302 0.021202939 -0.0144956 0.017726338
-0.0029868511 0.037363 0.018002046 0.064456694 0.020829614 -0.004493992 0.03589146 0.005003923
-0.0045895134 0.050812837 -0.009904151 0.031443637 0.02351826 -0.0070611215 0.018919798 -0.015053252
0.0050929324 0.033971865 0.00421132 0.027292777 0.022179747 0.01602266 -0.01592904 0.035571
-0.022183007 -0.029318344 -0.04134185 0.008706862 0.022515407 -0.036962878 -0.011341085 -0.0034158966
-0.025648821 0.006170479 -0.0056576617 0.0337441 -0.023297967 -0.01029983 -0.015966356 -0.0068560573
-0.023077842 0.025206791 -0.010216407 -0.01512767 -0.01506096 0.014669089 0.0018872692 0.01918233
-0.008008342 0.0073403926 -0.012345603 -0.0070899557 -0.0056569665 0.047328517 -0.02385358 -0.009039852
-0.010007548 -0.006236774 0.028959911 0.02925194 0.029180923 0.036777284 0.030628687 -0.06733133
0.008034009 -0.010347612 -0.015742362 -0.02561794 -0.0019870633 -0.00861865 0.038609814 0.028145662
-0.010910586 0.0053547323 -0.018360076 -0.039148297 0.009851288 0.00014525664 0.021821247 0.0107286135
0.015768358 -0.0043756473 0.0031836594 0.011256354 0.026536549 -0.011215013 0.009017605 0.03494219
-0.021647278 -0.0031548357 -0.026225802 -0.0087232245 0.011055076 0.010088299 -0.017647013 1.1082267e-05
-0.011524161 -0.0049074627 -0.019386638 0.01912207 -0.0018488601 0.023473805 0.006198704 0.011310061
0.017621495 -0.00064902246 -0.024600664 -0.008112303 -0.004119731 0.018485062 -0.021977901 0.031776857
0.041447178 0.0032546248 -0.00766979 0.0069085085 0.0058147754 0.011289294 -0.009627418 -0.027034612
0.008527054 0.02408262 0.020533541 -0.0082977265 0.051345304 -0.043907486 -0.0004490305 0.036555685
0.017000642 0.03030799 0.016034098 -0.01836384 -0.022297496 -0.0023403883 0.045175184 0.031909782
0.03069878 -0.009659472 0.021486543 -0.029356891 0.0013649492 -0.019684669 0.013987373 0.016663706
0.0019213 -0.030979162 0.009083768 0.015727263 0.010105933 -0.00056616287 0.031419486 0.011827077

network_body._body_endoder.seq_layers.2.weight f4 [256, 256]
00000000: ff2e e8bd 5567 a4bd 9702 6e3b 277c 8d3d
00000010: 7462 a9bd 7d5c 163e 6976 c8bd 05ef 353d
00000020: 8c91 91bd 20a3 fbbd e0c5 aa3d 91f0 733c
00000030: 650e 0b3e 1456 a4bc b124 c8ba 7ceb 87bd
00000040: 1bbe 243d 41a5 eabc 3d93 a3bd 2142 403d
00000050: 1213 993d b382 db3b c116 9e3b 08d9 32bd
00000060: 102e 973b ceee 9fbc 09d8 b1bc 3d64 ee3d
00000070: 0efc 603d d7c9 4b3d 638c af3c 1631 943c
00000080: 0be5 f53c bb65 143d 0bc3 35be 7144 103d
00000090: 602d a53d 4ebb 553d b5b1 413d de10 e9bd
000000a0: 8fa7 723d a8fa 4cbe 77d7 efbd 7fc6 b73d
000000b0: c1a2 eabc 0057 8b3d df7e 5cbe 91a1 a8bc
000000c0: 0f54 96bd 14d2 353e 9bde e2bd a055 353e
000000d0: 182e 693c 2c67 e43c 8e22 1cbb 0e8e 87bc
000000e0: b00a 113d be1d 2f3d 8754 41bd 655b 25bd
000000f0: e1e4 033e 4caa 0fbd a810 04be 33d5 163e
00000100: e73f 253e b5c3 ebbc dd7f 5b3d 56ae 67bd
00000110: 20b9 abbc 921a 57be 47fd 953d 6db5 2abe
00000120: 7e21 dc3d 32fb 373e 7eb2 8139 748b 2fbd
00000130: 914a 4d3c 3576 e23c 95fe 343e 7339 523e
00000140: 280b c03d ea67 e0b9 80e6 57bd 6a37 3b3d
00000150: 5358 ad3d 8361 b3bd af83 2d3e 42d6 84bd
00000160: c9fb 333e 2cd7 b3bd 252d 2dbd 0fa3 49bd
00000170: 2097 99bd e7b0 d4bd 83fe a7bb efcf 05bd
00000180: 357f 223c b63f 333d a8d4 4f3d 8f2c e23d
00000190: f395 a7bd 1a4e a7bd 4894 46bd 385d 95bd
000001a0: df3e 4f3d 33b7 723e 5b1a 19be a16b 9dbb
000001b0: 8274 b63d 61cf 11be cbe8 29bd a313 91bd
000001c0: 3e60 183e 2d2e 5e3e 28d6 2c3d 8632 2dbe
000001d0: e47b d03c 6085 c53d f87e 893c 1b51 9dbd
000001e0: 45f7 8ebd 75c0 273c aadc dc3d 09ba c53d
000001f0: adb3 27bb 3626 763d c8bf b23c 2c9e 0d3e
00000200: 9238 dabc 9373 58bd 7c16 90b8 a932 cfbd
00000210: 23bb 1c3e 2e99 10be 01cd 72bc 19da 263d
00000220: 89cb 053c 6579 08bd 59bf ebbd f931 9c3d
00000230: d43e dabd 8c42 3abe 1781 bd3d 94e5 a6bc
00000240: 20ef b23d bfe2 e3bc 8ffa 10be 26be c83c
00000250: 6cf5 783d 085e 283e 22bc 6b3c 4819 053e
00000260: efca b0ba 7c72 a7bd cf14 cb3c 9532 103d
00000270: e50b e03d 6139 123e 64e8 29be b439 07be
00000280: e140 513d 4824 353e f8ea 5dbd 95dc 123d
00000290: 77b9 49bd 600a bf3c 60f1 f23c bd2b 10be
000002a0: be4e 173d 756e a6bb 37fb dabd 863d 85bd
000002b0: e426 883b 41d2 7ebd ba0b c43d 477f c9bc
000002c0: 29a4 823c 50f9 20be cb8f ed3d e70e 223b
000002d0: 2753 00bd 77dc c6bb e708 c7bd df55 773c
000002e0: 0866 fb3b f6f9 d0bd 25d6 453e 9df7 a93d
000002f0: ee84 213d 035e 1ebe 2f3f 213d 3432 d53d
00000300: 10d9 fa3c c788 42be 73b8 28be f2a9 9dbd
00000310: 357a 2bbe fa55 72bc 2065 c5bd ca2b d53c
00000320: cdae 64be 9472 17bd f679 27bc 0d1b 103e
00000330: 87dd 29be 40c9 86bd abdc 803d 1eac 21be
00000340: c846 d5bd ced8 07bd 9967 f73d a4b4 e6bd
00000350: 5eaa ad3d 473a 9fbc 751a 883c f0bb c1bc
00000360: 3d49 7b3e 4d8d c43d 1ae8 073e 5a36 e33c
00000370: 5411 4e3e 6c16 81be f11b 973d 17b5 293d
00000380: 2cb1 0b3e eebe 8c3c 5a0b b93d 5d35 8b3d
00000390: 2ebc 563e d188 dabd e26b 02bb b704 a63d
000003a0: 5add ce3c a608 a93d 96f7 72ba d86e 91bc
000003b0: 436f 04be 5802 4fbd 70a8 b5bc cd41 393e
000003c0: fa0c b53c 222a ce3b b16d 23be 56b2 a9bd
000003d0: d95e b1bd 757e 9cbd 6505 cc3d 9733 4dbd
000003e0: d194 ff3c 859b 0bbe 1f86 a7bd ee1a afbc
000003f0: 2c88 01be f609 d73d 33b5 c83c 260a ac3c
-0.11337089 -0.080275215 0.0036317462 0.06908446 -0.082707316 0.14683719 -0.0978821 0.0444174
-0.07107839 -0.12286973 0.08338523 0.0148888985 0.1357971 -0.020060576 -0.0015269724 -0.06636712
0.04022036 -0.028643252 -0.07987068 0.046938065 0.074743405 0.00669893 0.00482449 -0.04366401
0.0046136454 -0.01952305 -0.021709459 0.11640213 0.054927878 0.049753036 0.021429246 0.018089812
0.030016443 0.03622983 -0.17750184 0.03522152 0.08065295 0.05218058 0.047288615 -0.1138017
0.059241828 -0.20017493 -0.117110185 0.08973407 -0.02864206 0.06803703 -0.21532772 -0.020584853
-0.07340252 0.1775592 -0.11077615 0.17708445 0.014232181 0.027881227 -0.0023824307 -0.01654723
0.035410583 0.042752974 -0.047199752 -0.040370364 0.12880279 -0.035074517 -0.12896979 0.14729767
0.16137658 -0.028779844 0.053588737 -0.056562744 -0.020962298 -0.2100623 0.073236994 -0.16670771
0.10748576 0.17966917 0.00024737784 -0.042857602 0.012529985 0.027644256 0.1767524 0.20529728
0.09377128 -0.0004280203 -0.052710056 0.045707144 0.08464112 -0.08758833 0.16944765 -0.06486179
0.17576517 -0.08781275 -0.04227938 -0.04922777 -0.07499528 -0.10385304 -0.0051267757 -0.032669004
0.009918024 0.04376193 0.050739914 0.11043655 -0.081828974 -0.081691936 -0.048481256 -0.07293171
0.050597068 0.23702697 -0.1495146 -0.00480409 0.08908941 -0.14239265 -0.041481774 -0.070838235
0.14880463 0.21697302 0.042196423 -0.16913804 0.0254497 0.0964458 0.016784176 -0.07681485
-0.06980757 0.010238756 0.10784276 0.09654624 -0.0025589273 0.060095035 0.021819964 0.13829869
-0.026638303 -0.052844595 -6.870643e-05 -0.101170845 0.15305762 -0.14120933 -0.014819385 0.040735338
0.008166202 -0.033318896 -0.11511106 0.07626719 -0.10656515 -0.18189448 0.092531376 -0.020373143
0.08737016 -0.027818082 -0.1415808 0.024504732 0.060780928 0.1644212 0.014388116 0.12997925
-0.0013488213 -0.08176133 0.024790196 0.03520449 0.10939769 0.14279701 -0.16592556 -0.13205606
0.051087264 0.17689621 -0.05417916 0.035854895 -0.04924914 0.023320377 0.029656112 -0.14079185
0.03694033 -0.0050790855 -0.10692447 -0.06505875 0.0041550267 -0.062212233 0.09572549 -0.024596823
0.015947418 -0.15720105 0.11599692 0.002472812 -0.0313293 -0.006068762 -0.09718495 0.015096157
0.007672075 -0.10203926 0.19319971 0.082991816 0.039433412 -0.1546555 0.039366897 0.10409966
0.030621082 -0.18997489 -0.16476612 -0.0769843 -0.16745837 -0.014791006 -0.09638429 0.026021857
-0.22332306 -0.036974505 -0.010221949 0.14072819 -0.16588412 -0.06581354 0.06292089 -0.15788314
-0.10413891 -0.033165745 0.120803066 -0.11264923 0.084797606 -0.019436968 0.016614178 -0.023649186
0.24539657 0.095972635 0.13272133 0.027735878 0.20123798 -0.2521242 0.07378376 0.041432466
0.13641804 0.017180886 0.09035368 0.067972876 0.20970222 -0.10670627 -0.001990073 0.08106368
0.025252033 0.08253603 -0.00092684606 -0.01775305 -0.12933068 -0.050539345 -0.022175044 0.18091507
0.022100914 0.0062916437 -0.15959813 -0.08285968 -0.08660669 -0.07641307 0.099619664 -0.050098028
0.03119889 -0.13633545 -0.081798784 -0.021375146 -0.12649602 0.10499947 0.024500465 0.021000933
