results/PushBlockCollab_PPO/PushBlockCollab/PushBlockCollab-13499939.onnx (onnx, 643240 bytes, 12 tensors)

network_body.observation_encoder.processors.0.conv_layers.0.weight f4 [16, 6, 8, 8]
0	0xbc545858	-0.012960516
1	0xbd56b08b	-0.05241446
2	0x3d87db64	0.06633642
3	0x3d95a9b8	0.07307762
4	0x3dbb8013	0.091552876
5	0x3be2ab6f	0.006917409
6	0xbd2aba2b	-0.04168145
7	0xbc86870a	-0.016421814
8	0xbc06c142	-0.008224787
9	0xbdcbf3c8	-0.09958607
10	0x3c099e5c	0.008399572
11	0x3d92496b	0.071429096
12	0x3e1deef1	0.1542318
13	0x3dd98021	0.10620142
14	0x3d6ca50c	0.05777459
15	0xbd389edc	-0.045073375
16	0x3d3c74b6	0.04600974
17	0xbdbae8f9	-0.09126467
18	0x3d4111b4	0.047136024
19	0x3cb866cc	0.022509955
20	0xbc9ec128	-0.019379213
21	0xbd62d7b1	-0.05538148
22	0xbd12624c	-0.035738274
23	0xbe49ead6	-0.19718489
24	0xbd197072	-0.03746075
25	0xbd23a4f0	-0.03995222
26	0xbde4a49b	-0.111642085
27	0xbca8c958	-0.02060382
28	0xbd9011d7	-0.07034653
29	0xbd980c7c	-0.07424256
30	0xbd2d5d67	-0.042325404
31	0xbe86e90c	-0.26349676
32	0x3d178f23	0.03700174
33	0xbd2ab754	-0.04167874
34	0xbc8f5e85	-0.017501125
35	0xbd11edca	-0.035627164
36	0xbc325fdd	-0.010887113
37	0xbd4fb718	-0.05071172
38	0x3cd54e16	0.02603821
39	0xbd485464	-0.048908606
40	0xbda68dd7	-0.081325226
41	0xbcdcbf80	-0.026946783
42	0xbc82bdb6	-0.015959602
43	0x3d747382	0.05968047
44	0x3b983bfa	0.0046458216
45	0x3dac0869	0.084000416
46	0x3da41f17	0.080137424
47	0xbdbd06a9	-0.09229786
48	0xbba1895d	-0.004929705
49	0x3cc17dcc	0.023619555
50	0xbd6bc569	-0.057561312
51	0xbac0d812	-0.0014712831
52	0xbcf5b7ca	-0.029994864
53	0x3b3a1951	0.0028396437
54	0x3ddea4dd	0.10871289
55	0xbdf17f0b	-0.1179181
56	0x3cfe1e6e	0.03102037
57	0xbd14c3e5	-0.036319632
58	0xbd49bff8	-0.04925534
59	0x3db0d66e	0.08634649
60	0xbc9d82c0	-0.019227386
61	0x3ab63ee1	0.0013904237
62	0xbccf937e	-0.025338884
63	0xbe87f83b	-0.26556572
64	0xbdb893f5	-0.090125956
65	0xbc7d5bf5	-0.015463819
66	0xbd805eb5	-0.06268064
67	0xbdc48ac2	-0.095967785
68	0xbd714866	-0.058906935
69	0x3e069934	0.1314438
70	0xbc0bfe16	-0.0085444655
71	0x3af41124	0.0018620831
72	0xbd2b161b	-0.04176913
73	0xbdbb8ebb	-0.09158083
74	0xbdf10570	-0.11768615
75	0xbcfddb3b	-0.030988326
76	0xbdbb98ab	-0.091599785
77	0x3e22f836	0.15914997
78	0x3e16b9dc	0.14719337
79	0x3cf3122a	0.029671747
80	0xbbc4e90d	-0.006009227
81	0xbd0bc4d4	-0.034123257
82	0x3c0ec7dd	0.008714643
83	0xbade4d50	-0.0016960297
84	0x3d70dabc	0.05880235
85	0xbd109a6b	-0.035303514
86	0x3e6e563e	0.23275086
87	0xbda2b132	-0.079439536
88	0xbda17987	-0.078845076
89	0xbc94b14e	-0.018150952
90	0xbbbdbc07	-0.005790237
91	0x3dd66c7a	0.10469909
92	0x3dbc4188	0.091921866
93	0x39a494d2	0.00031391397
94	0xbde2ba18	-0.11070651
95	0xbe53f7d8	-0.20700014
96	0xbe2862e2	-0.16443971
97	0x3c7b6e10	0.015346065
98	0xbdd71fed	-0.10504136
99	0xbccb2b76	-0.024800997
100	0x3d22d6c1	0.039755587
101	0xbe1fdc0f	-0.1561129
102	0xbca5c622	-0.020236079
103	0xbda6e7c1	-0.08149672
104	0x3c91dfdc	0.01780694
105	0x3d4e822a	0.050417103
106	0x3d0e8bfa	0.03480146
107	0x3ad2e269	0.0016089204
108	0xbd2d1e3e	-0.04226517
109	0xbda5604b	-0.08075007
110	0xbe10c2aa	-0.14136758
111	0x3cbd19fc	0.02308368
112	0xbdd6d5b2	-0.10489978
113	0x3d733375	0.059375245
114	0xbd1e8a25	-0.038705964
115	0x3be1fe73	0.006896788
116	0xbdb16fac	-0.08663878
117	0xbdc94afc	-0.09828755
118	0xbe1913c2	-0.14948943
119	0xbd0d7185	-0.03453209
120	0xbded22c2	-0.11578895
121	0x3d77560f	0.060384806
122	0x3c92a099	0.017898845
123	0x3e061f8e	0.13097975
124	0x3d475da6	0.048673294
125	0x3db6f1cf	0.0893284
126	0xbe3c9598	-0.1841644
127	0xbdf36bf7	-0.11885827
128	0x3d89f1ba	0.06735559
129	0x3d275cac	0.040859863
130	0xbd15d573	-0.036580514
131	0xbbf8f7d5	-0.0075979033
132	0xbc05c8e7	-0.008165575
133	0xbe090279	-0.1337985
134	0xbd863850	-0.065537095
135	0xbc2f9dac	-0.010718744
136	0xbd98b16b	-0.07455715
137	0x3d1c9d64	0.038236037
138	0x3d2781d4	0.040895298
139	0xbbc44e65	-0.0059907907
140	0x3bec5204	0.0072119255
141	0xbe12a11c	-0.14319271
142	0xbd6429b7	-0.055703845
143	0x3c882f27	0.016624046
144	0x3ada70cb	0.0016665695
145	0x3d103d97	0.035214987
146	0xbd282d79	-0.04105899
147	0x3bed9d79	0.007251438
148	0x3bd95e93	0.0066335886
149	0x3caed675	0.021342495
150	0xbd453758	-0.048148483
151	0x3cd5e9bb	0.026112428
152	0xbc4aa2d1	-0.01236792
153	0xbc79b996	-0.015242001
154	0x3d8bbef1	0.068235286
155	0xbc9227e2	-0.017841283
156	0xbd89abbc	-0.06722209
157	0x3c2f167d	0.010686514
158	0x3cb7ea8f	0.022450713
159	0x3cccbc2b	0.02499207
160	0x3c1178f8	0.008878939
161	0x3dd185bc	0.10230586
162	0xbb345594	-0.002751683
163	0xbc7247cb	-0.014787625
164	0x3d1ea427	0.038730767
165	0xbc63607f	-0.013877987
166	0x3b3a97f7	0.0028471926
167	0x3c1d750b	0.009610425
168	0x3c917f7a	0.01776098
169	0x3da14243	0.078739665
170	0xbd2a25d4	-0.041539982
171	0xbcd9abaa	-0.026571114
172	0xbd036f3e	-0.03208851
173	0xbcf88cbd	-0.030340547
174	0xbc733dae	-0.014846249
175	0xbcd4f7b9	-0.02599703
176	0xbd31ad72	-0.0433783
177	0xbd31577e	-0.04329633
178	0x3b3c5e2d	0.0028742657
179	0x3b1b9bda	0.0023744018
180	0xbaeb0101	-0.0017929376
181	0xbd42eb7b	-0.047587853
182	0xbc2c821c	-0.010529067
183	0x3d06e071	0.032928888
184	0xbc431325	-0.01190642
185	0x3d69e3e7	0.05710211
186	0x3c8866c8	0.016650572
187	0xbd40c7f7	-0.0470657
188	0x3d45b37f	0.048266884
189	0x3c8bd955	0.017071405
190	0x3bb1ad80	0.005422294
191	0xbd1205fb	-0.035650235
192	0xbbed757a	-0.0072466703
193	0xbe02cfd0	-0.12774587
194	0xbd1723d1	-0.03689939
195	0x3cd65fab	0.026168665
196	0xbd0c8d50	-0.034314454
197	0x3d8580b2	0.06518687
198	0x3d80bc6f	0.06285941
199	0xbc0daa5e	-0.008646576
200	0x3d237cf5	0.03991409
201	0xbd86dbd6	-0.06584899
202	0xbd221751	-0.039573018
203	0xbdb94413	-0.09046187
204	0x3c4937f0	0.012281403
205	0x3ce0e03f	0.027450679
206	0xbd360240	-0.04443574
207	0xbc1a0c32	-0.009402322
208	0x3dee3cb2	0.116326705
209	0xbd93e1b7	-0.07220786
210	0xbcda43cd	-0.026643658
211	0x3dcdd25a	0.10049887
212	0x3e47df34	0.19518739
213	0x3d258f68	0.040419966
214	0xbda9fc26	-0.083000466
215	0x3e127425	0.14302118
216	0xbc3acdbc	-0.01140159
217	0xbbfc7536	-0.0077044023
218	0x3d4ad020	0.04951489
219	0xbd3ed0ce	-0.04658585
220	0xbc8b421b	-0.016999295
221	0x3d2376f9	0.039908383
222	0xbdc6bd39	-0.0970406
223	0x3dc47773	0.09593096
224	0x3c185148	0.009296723
225	0x3d432fce	0.047653012
226	0xbaa9d10c	-0.0012955978
227	0x3d787b3b	0.060664397
228	0x3e0fc0cd	0.14038391
229	0xbd914403	-0.0709305
230	0x3d022622	0.031774648
231	0x3d31de57	0.04342493
232	0xba28ec01	-0.0006443859
233	0x3c37fc15	0.011229535
234	0x3dd58e15	0.104274906
235	0xbc0aae58	-0.008464418
236	0x3dc6e608	0.09711844
237	0x3b201770	0.0024428032
238	0xbd504f11	-0.050856654
239	0x3de8f5db	0.11375018
240	0x3d7e8abe	0.062144034
241	0xbd88889f	-0.066666834
242	0x3dacfef5	0.08447067
243	0x3c50719b	0.012722398
244	0x3e28985e	0.16464373
245	0x3dfb573d	0.12272499
246	0xbb449b6a	-0.002999986
247	0xbd0d559e	-0.03450548
248	0x3c1b4d46	0.009478873
249	0xbda70b7d	-0.08156488
250	0x3c564c8c	0.013079774
251	0x3dec3013	0.11532607
252	0x3e60c546	0.21950254
253	0x3d9b2c9c	0.07576868
254	0xbc87b746	-0.016566884
255	0x3dd909ce	0.10597573

network_body.observation_encoder.processors.0.conv_layers.0.bias f4 [16]
0	0xbde63acb	-0.112416826
1	0xbd15e96f	-0.036599573
2	0xbd04726c	-0.032335684
3	0xbd75afb9	-0.059982035
4	0xbcd6894e	-0.026188519
5	0x3d7b279e	0.06131708
6	0xbd4c2fb0	-0.049850166
7	0xbc9557d2	-0.018230353
8	0x3d809045	0.06277517
9	0xbd0cc243	-0.03436495
10	0xbd9f9618	-0.077923
11	0xbbcd671f	-0.0062683965
12	0xbd2a92b4	-0.041643813
13	0xbca54e86	-0.020179044
14	0xbd421395	-0.047381956
15	0xbd7bb95e	-0.061456077

network_body.observation_encoder.processors.0.conv_layers.2.weight f4 [32, 16, 4, 4]
0	0x3c75223d	0.014961776
1	0xbd564fd9	-0.052322242
2	0x3d7dcc15	0.061962206
3	0x3d81b9a3	0.063342355
4	0xbdcd3b36	-0.10021059
5	0xbb7875c8	-0.0037912
6	0x3de85475	0.11344234
7	0xbb372db7	-0.0027950832
8	0x3e2dc86a	0.16970983
9	0xbd607108	-0.054795295
10	0x3cd6a265	0.026200483
11	0xbc511a56	-0.012762627
12	0x3bd3586f	0.006449751
13	0x3dd485e7	0.10377102
14	0xbceb170e	-0.028697517
15	0xbda6dd7c	-0.081477135
16	0x3c5169b3	0.012781548
17	0xbe427b92	-0.18992451
18	0xbe1e714b	-0.15472905
19	0x3df478f3	0.11937132
20	0x3d9124a2	0.07087065
21	0xbd9a2d39	-0.07528157
22	0xbdc9ce17	-0.09853762
23	0xbdd181cd	-0.10229836
24	0x3d1cc557	0.038274135
25	0xbd47ce1b	-0.048780542
26	0xbd053642	-0.032522447
27	0x3cf9bf50	0.030486733
28	0x3d93c565	0.072153844
29	0x3d6beca6	0.057598732
30	0x3bda3801	0.006659508
31	0x3d61e76a	0.055152334
32	0x3db893bd	0.09012554
33	0xbd07c288	-0.033144504
34	0xbe3283c3	-0.17433076
35	0xbcb948c2	-0.022617701
36	0x3db253e1	0.08707405
37	0xbbcb69f4	-0.006207699
38	0xbca80742	-0.020511273
39	0xbdecf507	-0.11570173
40	0x3d7fc5c4	0.062444463
41	0x3d19dce2	0.037564166
42	0xbe0db351	-0.13837935
43	0xbc23fc22	-0.010008844
44	0x3e3389c4	0.17533022
45	0xbc739ca9	-0.014868894
46	0xbd2c9d88	-0.04214242
47	0x3d5374fe	0.051625244
48	0xbdca7dda	-0.098872855
49	0x3cb7b206	0.022423755
50	0xbbf510f9	-0.00747883
51	0xbdeb60b3	-0.11493053
52	0x3df0acf5	0.11751739
53	0xbe086e2c	-0.13323277
54	0xbcc9cffc	-0.024635307
55	0xbdcffff8	-0.10156244
56	0x3dc65e38	0.096859396
57	0x3cd7cddc	0.026343279
58	0xba8a02ed	-0.0010529436
59	0x3ce3c308	0.02780296
60	0x3d26f5c4	0.040761724
61	0xbcf5ad09	-0.029989736
62	0x3d2792a4	0.04091133
63	0xbbfb0491	-0.0076604565
64	0x3d08fc90	0.033443987
65	0xbd31df8c	-0.04342608
66	0x3bf899e5	0.007586705
67	0xbdb4df8d	-0.088317014
68	0xbd7a04cf	-0.061039742
69	0xbc989f84	-0.01863075
70	0xbd8fde37	-0.07024806
71	0xbc42a8c4	-0.011881057
72	0x3dc33922	0.095323816
73	0xbd331194	-0.043717936
74	0x3d89c06f	0.06726157
75	0xbe6a26ba	-0.22866336
76	0x3daab075	0.08334438
77	0x3d04df8b	0.03243975
78	0x3ca5532c	0.020181261
79	0x3dd90565	0.10596732
80	0x3d960b6c	0.07326397
81	0xbd358f47	-0.044326093
82	0xbd823dcb	-0.06359442
83	0xbdd87dd9	-0.105708785
84	0x3dc370ac	0.09542975
85	0xbda3ed44	-0.08004239
86	0xbe185f19	-0.14880027
87	0x3c955f20	0.018233836
88	0x3dd37871	0.10325707
89	0xbda228c7	-0.07917934
90	0xbd8c6bb4	-0.0685648
91	0xbd821865	-0.06352309
92	0xbc84f5d8	-0.016230509
93	0x3d703039	0.05863974
94	0x3cd30b86	0.02576233
95	0x3d6ceb67	0.057841685
96	0x3d8a4eef	0.06753337
97	0x3b974ea5	0.0046175295
98	0x3d83ecf4	0.064416796
99	0x3d85b57a	0.065287545
100	0xbdbf7ac9	-0.09349591
101	0xbce49eeb	-0.02790781
102	0xbe5db66b	-0.21651618
103	0xbd503e2c	-0.05084054
104	0x3d882c3f	0.06649064
105	0xbcbac8bf	-0.022800801
106	0x3d1e720a	0.038682975
107	0xbda9e386	-0.0829535
108	0x3e0caf63	0.1373878
109	0x3d6e39b1	0.058160488
110	0xbd8c7d99	-0.06859893
111	0xbbae4516	-0.0053182943
112	0xbb866ac1	-0.0041020815
113	0xbd962ebe	-0.07333134
114	0xbd93aaf2	-0.072103396
115	0xbd32a5ca	-0.04361514
116	0xbd23623f	-0.039888617
117	0xbddfdd1d	-0.10930846
118	0xbdb970e7	-0.090547375
119	0xbd3ad9f5	-0.045618016
120	0x3e0b519c	0.1360535
121	0x3ceceb76	0.02892087
122	0xbd2b3ea3	-0.041807782
123	0x3d15bf6b	0.036559504
124	0xbc82fc82	-0.015989546
125	0x3d824d8e	0.06362449
126	0xbcf9091c	-0.030399852
127	0x3dd623aa	0.10456021
128	0x3d3e4773	0.046454858
129	0xbcc0c84d	-0.02353301
130	0xbdbfcd75	-0.0936536
131	0xbd75ff51	-0.06005794
132	0xbdb4e24d	-0.08832226
133	0xbd272cbc	-0.040814146
134	0xbdd4a230	-0.10382497
135	0x3c5e7e0f	0.013579859
136	0xbde5682e	-0.11201511
137	0x3d6572d8	0.056017727
138	0x3d5e9926	0.054345272
139	0xbcb2b534	-0.02181492
140	0x3dd7f3f4	0.10544577
141	0xbe0cf93a	-0.13766947
142	0xbcb4f285	-0.022088299
143	0x3d8bcb23	0.06825855
144	0xbd9e9073	-0.07742395
145	0x3d3924d7	0.04520115
146	0x3d230f40	0.039809465
147	0x3d538b2c	0.051646397
148	0xbd659e1a	-0.05605898
149	0xbc73222d	-0.014839691
150	0xbca7c02c	-0.020477377
151	0x3bc0d61b	0.0058848984
152	0x3d66f130	0.056382358
153	0x3da13aab	0.07872518
154	0xbd82d553	-0.063883446
155	0xbd05ed45	-0.03269698
156	0xbd9da68a	-0.076977804
157	0xbd018239	-0.03161833
158	0xbd806140	-0.06268549
159	0x38dfb51a	0.000106672014
160	0xbd4afbbc	-0.04955648
161	0xbe18e471	-0.14930893
162	0xbcfe97f5	-0.031078318
163	0xbd456c73	-0.04819913
164	0x3dc016e3	0.09379365
165	0x3d382433	0.044956397
166	0xbcc92bf2	-0.024557088
167	0xbda9d32f	-0.08292233
168	0x3cbeffcd	0.023315335
169	0x3d9f5ede	0.07781766
170	0xbcd28174	-0.025696494
171	0xbd2baafd	-0.041911114
172	0x3cb1959b	0.021677783
173	0x3c2cfb72	0.010557996
174	0x3a87c4a6	0.0010358288
175	0xbd0aa937	-0.033852782
176	0x3d32331a	0.043505765
177	0xbdbdb3ee	-0.092628345
178	0xbdcac3bf	-0.09900617
179	0xbe09ac80	-0.1344471
180	0xbd2a3655	-0.04155572
181	0xbdcaa2de	-0.09894346
182	0x3cad36fe	0.021144386
183	0x3a793697	0.0009506731
184	0x3d1d964f	0.038473424
185	0xbe324a02	-0.17411044
186	0xbc7f3caf	-0.015578433
187	0xbdb44949	-0.088030405
188	0x3d948e62	0.0725372
189	0x3dadb783	0.08482268
190	0x3d5902e1	0.05298126
191	0x3d51374b	0.051078122
192	0xbb661cd1	-0.003511239
193	0xbd90de9d	-0.0707371
194	0xbc99f20a	-0.018792171
195	0x3d8629c9	0.06550939
196	0xbcb55224	-0.022133894
197	0xbda86656	-0.08222644
198	0x3d40b1bf	0.047044512
199	0x3d0ff09f	0.035141584
200	0x3e22d342	0.15900901
201	0xbd41609e	-0.047211282
202	0xbde933c0	-0.11386824
203	0xbde19116	-0.11014001
204	0x3e1d8fb9	0.15386857
205	0x3ddeb5f5	0.10874549
206	0xbca5bdaf	-0.02023205
207	0xbdc692f3	-0.09695997
208	0xbe4c280b	-0.1993715
209	0x3caf5922	0.021404807
210	0xbc8cf509	-0.017206686
211	0xbcae186c	-0.02125188
212	0xbbdbadcd	-0.0067040683
213	0x3d1c59e1	0.038171653
214	0xbcfec8ad	-0.031101549
215	0x3aff56a1	0.0019480773
216	0x3d9fefce	0.07809411
217	0xbd1b7164	-0.037949935
218	0xbd12fc5b	-0.035885196
219	0x3daea051	0.08526672
220	0x3c247e5f	0.010039895
221	0x3cf928a2	0.030414883
222	0x3d0d1494	0.034443453
223	0x3dace28b	0.08441647
224	0x3de61d13	0.11236014
225	0x3d0b4093	0.03399713
226	0x3d9270ac	0.07150397
227	0xbdd3c035	-0.10339395
228	0x3e0068c4	0.12539965
229	0x3ca6d732	0.020366285
230	0xbc48bb68	-0.012251712
231	0xbd562045	-0.05227687
232	0x3d3f578c	0.04671435
233	0x3d975f4d	0.07391224
234	0x3bd57044	0.0065136272
235	0xbdd0e241	-0.101994045
236	0x3de57c00	0.11205292
237	0x3d094d8a	0.033521213
238	0xbd7b950e	-0.061421447
239	0xbe404ebb	-0.18780033
240	0x3d4266df	0.047461387
241	0x3c4e6291	0.012596742
242	0xbdf6e446	-0.120552585
243	0x3c20be4f	0.009810998
244	0x3dc78639	0.09742398
245	0xb9c1480c	-0.00036865508
246	0xbe07e1d9	-0.13269748
247	0xbcfee584	-0.031115301
248	0x3c4bb0eb	0.012432317
249	0xbdceec23	-0.10103633
250	0xbd3b1c6b	-0.0456814
251	0xbce60aaa	-0.028081257
252	0x3d162381	0.036654953
253	0x3bcc4a48	0.006234441
254	0x3c99c372	0.018769953
255	0x3d8191a3	0.06326606

network_body.observation_encoder.processors.0.conv_layers.2.bias f4 [32]
0	0xbd422dbc	-0.047406897
1	0x3d9369d0	0.071979165
2	0x3d9e4649	0.077282496
3	0xbd1c0dd8	-0.03809914
4	0xbd147c28	-0.036251217
5	0xbd0d35f5	-0.034475286
6	0xbc27b532	-0.010236071
7	0x3cf42812	0.029804263
8	0xbd37df3e	-0.044890635
9	0xbcdcc1fb	-0.026947966
10	0xbd8dd0a1	-0.069245584
11	0x3cc4e376	0.024034243
12	0x3d34a663	0.04410399
13	0x3d28bd22	0.041195996
14	0xbc675a58	-0.014120661
15	0xbd7fe8a4	-0.062477723
16	0xbcd5b174	-0.026085593
17	0xbd15d532	-0.036580272
18	0x3d85ba69	0.065296955
19	0x3d45d85e	0.048302047
20	0xbc896002	-0.016769413
21	0x3d0c7c45	0.0342982
22	0x3c7127cc	0.014718961
23	0x3d8b8b64	0.06813696
24	0x3d8f1d84	0.069880515
25	0x3d8ddec8	0.06927258
26	0x3d23693e	0.03989529
27	0xbcce43f5	-0.025178889
28	0x3a05f51b	0.0005110071
29	0xbd6feb83	-0.05857421
30	0xbcac5513	-0.02103666
31	0x3d5c9fb3	0.05386324

network_body.observation_encoder.processors.0.dense.0.weight f4 [256, 32]
0	0x3d26544d	0.04060774
1	0x3ea0a918	0.31379008
2	0x3ebee9fc	0.3728789
3	0x3ec2a25e	0.380145
4	0xbda0ccb4	-0.07851544
5	0xbe5e0a1e	-0.21683547
6	0x3c1deecb	0.009639452
7	0xbdd72102	-0.105043426
8	0x3ed78cea	0.42099696
9	0x3eb22456	0.34793347
10	0xbd818d50	-0.06325781
11	0xbeb99dd6	-0.36253232
12	0x3e0f39bf	0.13986872
13	0xbe5e4e2e	-0.2170951
14	0x3e113d6c	0.14183587
15	0xbea5d1d6	-0.32386655
16	0xbe5e2b3e	-0.21696183
17	0xbcf7d5d9	-0.030253338
18	0x3e1f2548	0.15541565
19	0xbd24867b	-0.040167313
20	0xbec6f356	-0.38857526
21	0xbe1ef756	-0.15524039
22	0x3e8e4328	0.2778561
23	0xbe1036d4	-0.14083415
24	0x3e2f7e18	0.17137945
25	0x3e9282e4	0.28615487
26	0x3e8bee01	0.2733002
27	0xbe766b7b	-0.24064438
28	0xbc7b800f	-0.015350356
29	0xbe2410ff	-0.16022108
30	0xbcdd622a	-0.027024347
31	0x3ef3f11f	0.47644898
32	0xbed6167f	-0.41814038
33	0xbc9f04f1	-0.019411536
34	0xbd973bed	-0.07384477
35	0x3d82553a	0.06363912
36	0xbe21c93b	-0.1579942
37	0x3d790583	0.060796272
38	0x3e8db975	0.27680555
39	0x3e6ded89	0.23235144
40	0x3da725d9	0.08161516
41	0xbdd2cd3c	-0.102930516
42	0xbe98457a	-0.29740506
43	0x3c97a85e	0.0185129
44	0xbc24a323	-0.01004866
45	0xbd9ddeb2	-0.077084914
46	0x3a59fdd4	0.00083157164
47	0x3ec90b2c	0.39266336
48	0x3eb1402f	0.3461928
49	0x3e098db8	0.13432968
50	0x3c44c093	0.012008804
51	0x3b5a45c6	0.0033305748
52	0xbec251ad	-0.3795294
53	0x3c9e8184	0.019348867
54	0xbe9d9dd5	-0.3078448
55	0x3eb5bd0b	0.3549579
56	0xbe7a90fb	-0.24469368
57	0x3ded1cd4	0.11577764
58	0xbe8dafd7	-0.27673218
59	0xbe00efe7	-0.12591515
60	0x3e92565e	0.28581518
61	0x3ea11440	0.31460762
62	0x3f055285	0.5207904
63	0x3d9607db	0.07325717
64	0x3dd93272	0.10605325
65	0xbe265d93	-0.16246633
66	0x3d6234a7	0.055225994
67	0xbe48efe9	-0.19622768
68	0xbdded28d	-0.10880003
69	0xbe1929cb	-0.14957349
70	0x3e99df88	0.30053353
71	0xbcb92ae3	-0.022603458
72	0x3dfa517e	0.12222575
73	0xbc1fcdb1	-0.0097536305
74	0xbde3b82a	-0.11119111
75	0xbde15183	-0.11001875
76	0xbeb76767	-0.35821077
77	0xbd5a8d71	-0.053357545
78	0xbd11d411	-0.035602633
79	0x3d04a608	0.032384902
80	0x3f01d992	0.5072261
81	0xbe16944d	-0.1470501
82	0x3f1e69e5	0.6188033
83	0x3e109109	0.14117827
84	0xbd672ac1	-0.056437258
85	0xbdee1ef9	-0.11627001
86	0xbe5f472d	-0.21804495
87	0x3d40f4df	0.047108527
88	0xbeb32608	-0.34989953
89	0x3e302cb9	0.1720456
90	0xbeb7c89f	-0.3589525
91	0xbe2b2780	-0.16714287
92	0x3ed3198a	0.41230422
93	0x3e54ff91	0.20800616
94	0x3d53bd98	0.051694483
95	0x3bd92773	0.006627017
96	0xbcfa6862	-0.030567352
97	0x3eb6dd77	0.3571584
98	0xbeef0282	-0.466816
99	0xbe1a8b1c	-0.15092129
100	0xbeba2bf8	-0.3636167
101	0x3e046a4e	0.12931177
102	0xbeaf8f24	-0.34288895
103	0x3eb81387	0.35952398
104	0xbe431aae	-0.19053146
105	0xbd696e01	-0.056989674
106	0xbdc31e1d	-0.09527228
107	0xbdc78d3e	-0.09743737
108	0xbe2e1349	-0.16999544
109	0xbe35746a	-0.1772019
110	0x3b2c2071	0.0026264454
111	0xbd7a60a0	-0.061127305
112	0x3efbe7da	0.49200326
113	0xbdc6f08b	-0.09713849
114	0x3ecabb8e	0.39596218
115	0x3db5a77f	0.08869838
116	0xbc991e17	-0.018691106
117	0xbed2cc34	-0.4117142
118	0xbe417145	-0.18890865
119	0x3e88be2e	0.26707596
120	0x3ebaf9af	0.36518618
121	0xbda094ce	-0.07840882
122	0xbec54f6c	-0.38537157
123	0xbe5a9327	-0.21345197
124	0x3ecbe72f	0.39824817
125	0xbbd11a69	-0.006381322
126	0xbe05d77a	-0.13070479
127	0x3e87bc0f	0.26510665
128	0x3ee2fad4	0.44331992
129	0xbe9c286d	-0.30499592
130	0xbdba2371	-0.09088791
131	0xbe4c4122	-0.19946721
132	0x3e3287d8	0.17434633
133	0x3e20acac	0.15690869
134	0xbdc50b2c	-0.096212715
135	0xbed3baee	-0.41353554
136	0xbeabe367	-0.33571932
137	0x3d851cc6	0.06499629
138	0x3dee02ff	0.11621665
139	0xbe3446ad	-0.17605086
140	0xbe88451f	-0.26615235
141	0xbe65ceae	-0.22442123
142	0xbf1b73bd	-0.6072348
143	0x3f140a0d	0.57827836
144	0xbdd17a51	-0.10228408
145	0xbe6cc274	-0.23121053
146	0xbd890a93	-0.0669147
147	0x3f0c4470	0.5479193
148	0xbe327982	-0.17429164
149	0x3e03267a	0.12807646
150	0x3e0c69c9	0.13712229
151	0x3e7f00f0	0.24902701
152	0x3ea74fdc	0.32678115
153	0xbd7ceceb	-0.06174938
154	0xbe87c3be	-0.26516527
155	0x3a9b4e32	0.0011848866
156	0x3ea3661a	0.31913835
157	0x3db1e489	0.08686168
158	0xbeacfb77	-0.33785602
159	0xbd694429	-0.05694977
160	0xbec660c5	-0.38745704
161	0x3eacd486	0.33755893
162	0xbe0cf032	-0.13763502
163	0xbe32c9d5	-0.17459805
164	0xbe015fd7	-0.12634216
165	0x3dba7031	0.0910343
166	0xbea760df	-0.32691094
167	0x3e546117	0.20740162
168	0x3d8deea7	0.06930285
169	0xbd8beed3	-0.068326615
170	0x3e64a5b3	0.22328834
171	0x3cf3bff4	0.029754616
172	0xbef681b4	-0.4814583
173	0xbed20197	-0.41016838
174	0xbde29532	-0.11063613
175	0xbd88d339	-0.066809125
176	0x3e1ea4d8	0.1549257
177	0x3e08c0e9	0.1335484
178	0x3e87d748	0.26531434
179	0x3b789949	0.0037933162
180	0x3e52ed18	0.20598257
181	0xbe32cf12	-0.17461804
182	0xbecbd073	-0.39807472
183	0xbda3ddb0	-0.08001268
184	0x3de159cd	0.11003456
185	0x3e9b0770	0.30279112
186	0xbe5a00ac	-0.21289319
187	0xbe8a5ec6	-0.2702543
188	0x3e2491ae	0.16071197
189	0x3d7ff943	0.062493574
190	0x3e51ce00	0.20488739
191	0xbd6d0019	-0.05786142
192	0x3dafba87	0.08580499
193	0xbbad2f08	-0.0052851476
194	0x3e93ed96	0.288922
195	0xbc1b4b6c	-0.009478431
196	0xbec9f6e5	-0.39446178
197	0xbdaece55	-0.085354485
198	0xbe45958e	-0.19295332
199	0x3db7e072	0.089783564
200	0xbe9f1deb	-0.31077513
201	0xbe8b7b76	-0.2724263
202	0x3d9d5778	0.07682699
203	0x3dc3e773	0.0956563
204	0xbf0bfffd	-0.5468748
205	0xbdc407a9	-0.095717736
206	0x3e241876	0.16024956
207	0x3d037331	0.032092277
208	0x3f3f425d	0.7471064
209	0x3ddc271a	0.107496455
210	0x3e5f4628	0.21804106
211	0x3c9358f1	0.017986747
212	0x3bb6f4ab	0.005583366
213	0xbe3d2db6	-0.18474469
214	0xbe8089fb	-0.2510527
215	0xbe246586	-0.16054353
216	0x3ed5e5dd	0.41776934
217	0xbe531f3a	-0.2061738
218	0xbcdad12b	-0.026711067
219	0x3c08c552	0.008347826
220	0x3e116f96	0.14202723
221	0xbd7d37ed	-0.061820913
222	0x3dd5b0bc	0.104341
223	0xbce547af	-0.027988283
224	0xbd3f5801	-0.046714786
225	0xbe60289b	-0.2189049
226	0xbe769b19	-0.24082603
227	0x3e9ae7ba	0.30254918
228	0xbe7cede1	-0.24700119
229	0x3ead0f80	0.33800888
230	0x3eead8c4	0.45868504
231	0xbe10cacd	-0.14139862
232	0x3d9a8358	0.07544583
233	0xbe9cd9fc	-0.3063506
234	0x3d90d997	0.07072752
235	0xbdd92bb0	-0.10604036
236	0x3c60b538	0.013715081
237	0x3d47847b	0.048710328
238	0x3ef9caae	0.48787445
239	0x3e063aee	0.13108417
240	0x3e035448	0.1282512
241	0xbe810c1f	-0.2520456
242	0xbebec525	-0.37259784
243	0x3e980079	0.2968786
244	0x3d6ae170	0.0573439
245	0x3ec8481a	0.3911751
246	0xbe2f15c0	-0.1709814
247	0x3e1f139f	0.15534829
248	0x3ea53768	0.32268834
249	0x3e9a5aae	0.30147308
250	0xbe5677ff	-0.20944212
251	0xbed2989d	-0.4113206
252	0x3ed00d5b	0.4063519
253	0xbe2b87cf	-0.16751026
254	0x3e1e9186	0.154852
255	0xbda5bc07	-0.08092504

network_body.observation_encoder.processors.0.dense.0.bias f4 [256]
0	0xbb496bbb	-0.0030734378
1	0x3d7f60a6	0.06234803
2	0x3d953567	0.07285576
3	0x3d2ea921	0.042641763
4	0x3d99995d	0.07499955
5	0x3d9d0433	0.076668166
6	0x3daade5d	0.08343194
7	0xbc6e7ff8	-0.014556877
8	0x3c7a639c	0.015282538
9	0x3d0b72f6	0.034045182
10	0x3d3493e6	0.04408636
11	0x3cdd430e	0.027009513
12	0xbcb7ac38	-0.022420987
13	0x3da12de9	0.07870085
14	0xbdcc672b	-0.09980615
15	0x3be7ca23	0.007073657
16	0x3d6ff495	0.05858286
17	0xbd7b043c	-0.061283335
18	0xbd17808f	-0.036987837
19	0xbd142167	-0.036164667
20	0x3dacd570	0.084391475
21	0x3da94245	0.08264593
22	0x3d2358ba	0.039879538
23	0x3d496c67	0.049175646
24	0x3d2f9610	0.04286772
25	0x3ba58f1e	0.0050524613
26	0x3d9b3d36	0.075800344
27	0x3e29ab76	0.16569313
28	0x3cc359fa	0.023846615
29	0x3c461226	0.012089288
30	0x3d941289	0.07230098
31	0x3bb8c562	0.0056387642
32	0x3ae19bff	0.0017212628
33	0x3db62b08	0.08894926
34	0x3b886a20	0.0041630417
35	0x3cfb3ed4	0.030669607
36	0xbdd96f68	-0.10616952
37	0x3b59d127	0.0033236237
38	0xbd7dfd3e	-0.06200909
39	0xbbbd1c80	-0.0057712197
40	0xbca93469	-0.020654874
41	0x3d703657	0.058645573
42	0x3cbbfb66	0.022947025
43	0xbd046c70	-0.032329977
44	0x3d45b1da	0.048265316
45	0xbcde3503	-0.027124887
46	0x3de3c9b3	0.111224554
47	0x3dc3552e	0.09537731
48	0xbcf8c1d3	-0.03036586
49	0xbca48a68	-0.020085528
50	0x3d84bb4b	0.06481036
51	0x3d2e2965	0.042519946
52	0x3ca058b0	0.01957354
53	0x3d16e7e1	0.03684223
54	0xbd1d0da0	-0.038343072
55	0xbd809242	-0.062778965
56	0xbc609bbb	-0.013709004
57	0x3dbb98ad	0.0915998
58	0xbb1052fe	-0.0022022123
59	0x3d9c48ab	0.07631048
60	0x3db16fec	0.086639255
61	0xbbe6ba59	-0.0070412573
62	0x3cf84206	0.03030492
63	0x3d006bc1	0.031352762
64	0x3d792129	0.06082264
65	0x3bfd0025	0.0077209645
66	0x3d053c6c	0.032528326
67	0x3cc4ada6	0.024008583
68	0x3c656947	0.014002151
69	0x3ce1eb73	0.027578091
70	0x3d913ef4	0.070920855
71	0xbd84e6b8	-0.064893186
72	0x3d2bd852	0.041954346
73	0x3d47bb5b	0.04876266
74	0x39cef009	0.00039470222
75	0x3cfa03cb	0.030519387
76	0xbd2eef76	-0.042708836
77	0xbc1dcd19	-0.009631419
78	0x3d1a6314	0.037692145
79	0xbd9fca06	-0.07802205
80	0x3c823002	0.015892033
81	0x3d669834	0.056297496
82	0x3d80dd15	0.06292168
83	0xbd897771	-0.06712235
84	0xbc08701c	-0.00832751
85	0xbd5699d9	-0.052392814
86	0xbb90c414	-0.0044179056
87	0x3c058ac7	0.008150763
88	0x3ce9fc1c	0.028562598
89	0xba1333ec	-0.0005615342
90	0xbd7e663b	-0.062109213
91	0xbc064595	-0.008195301
92	0x3ccefe8e	0.025267866
93	0x3d62e9d4	0.055398777
94	0xbdf39f3d	-0.11895607
95	0x3b24b097	0.002512967
96	0x3d427ef6	0.04748436
97	0x3d9cf914	0.076646954
98	0x3de53fc5	0.11193804
99	0x3dc8c487	0.098031096
100	0x3c140c25	0.009036099
101	0x3d5751d5	0.052568275
102	0x3b6f0220	0.0036469772
103	0x3cba358d	0.022730613
104	0xbd0d4dc9	-0.03449801
105	0x3cac7394	0.021051206
106	0x3dcfdf35	0.10149995
107	0xbd06a2ad	-0.032869983
108	0x3d976874	0.0739297
109	0x3d70d937	0.058800902
110	0x3c1998ee	0.00937484
111	0x3d5cc0e9	0.05389491
112	0x3c878fea	0.016548116
113	0x3bc11290	0.0058921054
114	0x3d93114a	0.07181032
115	0x3dbf0c09	0.093284674
116	0xbc90969a	-0.017649937
117	0x3dee4326	0.11633901
118	0x3d704ed6	0.058668934
119	0xbd228905	-0.039681453
120	0xbc824bfc	-0.015905373
121	0xbba03843	-0.0048895194
122	0x3dac700c	0.08419809
123	0x3c9f4904	0.019443996
124	0xbb1a6ccb	-0.002356338
125	0x3bc42f39	0.0059870747
126	0xbc5e3a7f	-0.013563751
127	0xbd1e2fd1	-0.03861982
128	0xbd0f5992	-0.03499753
129	0xbc7ab99a	-0.01530304
130	0x3db92f4a	0.09042223
131	0x3b59425b	0.0033151123
132	0xba867939	-0.0010259516
133	0xbd4de6ad	-0.050268818
134	0x3b25a511	0.002527539
135	0x3d0d230c	0.03445725
136	0x3d72a7a5	0.05924191
137	0x3e215e5f	0.15758656
138	0xbd54ecac	-0.05198352
139	0xbb941ffc	-0.0045204144
140	0x3b9af05e	0.004728361
141	0x3e0fa1e2	0.14026597
142	0x3a69aeb2	0.0008914276
143	0x3d9ad5b9	0.075602956
144	0x3ca44047	0.020050181
145	0xbb5391e2	-0.0032282998
146	0xbd6b8ff4	-0.05751033
147	0xbc99c176	-0.018769007
148	0x3c695c11	0.014243142
149	0x3d9cfa31	0.07664908
150	0x3d2cb21e	0.042162053
151	0x3ccad32d	0.0247589
152	0xbc5cf59f	-0.013486295
153	0x3bf293cd	0.007402873
154	0xbc1a7c17	-0.009428999
155	0x3cbfc223	0.023408001
156	0x3cc226e8	0.023700193
157	0x3c57b3be	0.0131654125
158	0x3b38d3a4	0.002820232
159	0x3b74f666	0.003737831
160	0x3dc624ed	0.09675012
161	0x3c483f72	0.012222158
162	0x3d74c56d	0.059758592
163	0xbd3e34ca	-0.046437062
164	0x3c97c71a	0.018527556
165	0xbd0833ba	-0.033252455
166	0x3d648cbb	0.055798274
167	0xbd10b4f6	-0.035328828
168	0x3ca6f1ba	0.020378936
169	0xbe1ec7ed	-0.15505953
170	0x3d2e994c	0.042626664
171	0x3d6ea396	0.058261476
172	0x3d83875b	0.064223014
173	0x3ba59528	0.005053181
174	0xbbbd1eb6	-0.0057714833
175	0x3d2de18d	0.04245143
176	0x3d89f369	0.0673588
177	0x3dee694e	0.11641179
178	0xbdb7a565	-0.089670934
179	0x3ab7d9ed	0.0014026739
180	0x3c40380d	0.011732114
181	0x3da68ea1	0.08132673
182	0xbd11f72f	-0.035636123
183	0xbdb368cc	-0.08760223
184	0xbc168231	-0.0091863135
185	0x3c2d2bd3	0.010569531
186	0x3d7f2967	0.062295344
187	0x3b9ea68c	0.0048416313
188	0x3d5a3897	0.053276625
189	0xbb3b5d8e	-0.0028589698
190	0xbc59ecae	-0.013301058
191	0x3dd6520f	0.1046487
192	0x3b95d5b2	0.0045725936
193	0x3d65d66d	0.056112695
194	0x3cc8e2d2	0.024522219
195	0x3d5dd8f4	0.05416198
196	0x3ce2da20	0.0276919
197	0x3d593c03	0.053035747
198	0xba386dd2	-0.00070354075
199	0x3dadb019	0.084808536
200	0x3d8ec973	0.06972017
201	0x3dcb3004	0.09921268
202	0xbd62d307	-0.055377033
203	0xbd320f44	-0.04347159
204	0x3cfd976a	0.030955989
205	0x3cb6bef6	0.022307854
206	0x3c83574c	0.016032837
207	0xbd8ff365	-0.07028846
208	0x3cd05563	0.02543134
209	0x3dc734be	0.09726857
210	0x3dbd3194	0.09237972
211	0x3dcec117	0.10095423
212	0x3d3f6054	0.046722725
213	0xbd85036b	-0.064947926
214	0x3cca0a9f	0.024663268
215	0x3d09830b	0.033572238
216	0xbd79d536	-0.06099435
217	0x3d9572e7	0.072973065
218	0x3cbaf058	0.022819683
219	0x3d36ce7f	0.044630524
220	0xbd38d295	-0.0451227
221	0x3c62e303	0.013848069
222	0x3d483342	0.04887701
223	0x3cde6158	0.027146026
224	0x3db0c548	0.086313784
225	0xbc6b7144	-0.014370266
226	0xbd032020	-0.03201306
227	0x3b057173	0.002036181
228	0x3d0ee0dd	0.034882415
229	0x3d15afe0	0.03654468
230	0xbc70939a	-0.014683628
231	0xbd0c2219	-0.034212206
232	0x3d8c5545	0.06852201
233	0x3ac431b9	0.0014968432
234	0x3cba2ebf	0.022727368
235	0x3c1fc11d	0.009750632
236	0xbb1a19c8	-0.0023513902
237	0x3d927174	0.07150546
238	0x3c833256	0.016015213
239	0x3c250057	0.010070882
240	0xbd1a7353	-0.037707638
241	0x3ca40b67	0.020024968
242	0xbc350a44	-0.011049811
243	0x3cc3a2a0	0.023881257
244	0x3d6874b8	0.056751937
245	0xbd557626	-0.05211463
246	0x3d7576b3	0.059927654
247	0x3da0dc14	0.078544766
248	0x3d92673a	0.07148595
249	0x3dc37c50	0.09545195
250	0xbc7e1a36	-0.015509179
251	0x3cc090fb	0.023506632
252	0x3d1d33bd	0.03837942
253	0xbd35dfa2	-0.044402726
254	0x3d42db5e	0.047572486
255	0x3d9808ec	0.07423577

network_body._body_endoder.seq_layers.0.weight f4 [256, 266]
0	0xbd85547e	-0.06510256
1	0x3d762170	0.060090482
2	0x3dd11166	0.102083966
3	0x3be58c62	0.0070052603
4	0xbe085f6f	-0.13317655
5	0x3d65166e	0.055929594
6	0x3bc3a0d6	0.005970101
7	0xbd874741	-0.066053875
8	0xbd0baad5	-0.034098465
9	0x3d3b64f5	0.045750577
10	0x3d1bc7f5	0.03803249
11	0xbe36a241	-0.17835332
12	0xbe2bc66e	-0.16774914
13	0xbcf83a1d	-0.030301148
14	0xbda1a84f	-0.078934304
15	0x3da2ec77	0.07955258
16	0xbcc90879	-0.024540173
17	0xbdab90ba	-0.08377214
18	0x3e16272d	0.14663382
19	0x3d5462b3	0.05185194
20	0xbe4bcfcd	-0.19903488
21	0xbba2b120	-0.0049649626
22	0x3db068a5	0.08613709
23	0xbd44cd83	-0.048047554
24	0xbe3d68b2	-0.1849697
25	0xbd6b487a	-0.057442166
26	0xbe30db37	-0.17271124
27	0xbc1a618e	-0.009422673
28	0xbe090f59	-0.13384761
29	0xbe26beb3	-0.16283683
30	0x3dd7a14f	0.10528814
31	0x3d72e288	0.05929807
32	0x3da84f3b	0.08218237
33	0xbdbb6b8d	-0.09151373
34	0x3d81cc61	0.0633781
35	0xbe74ea81	-0.23917581
36	0xbd4bfd85	-0.049802322
37	0x3bead832	0.007166886
38	0xbdf4c0b3	-0.11950817
39	0xbd86b494	-0.06577411
40	0xbd895687	-0.06705957
41	0xbda4e5cb	-0.08051642
42	0xbdb20727	-0.086927705
43	0xbc0312c4	-0.00800008
44	0xbcfd69d2	-0.030934248
45	0xbd5824a4	-0.05276932
46	0xbc933fda	-0.017974783
47	0x3dbe803b	0.09301802
48	0x3c380016	0.011230489
49	0xbd473dd3	-0.048642945
50	0xbd2ff616	-0.042959295
51	0xbd7dd998	-0.06197509
52	0xbdfe3cec	-0.12413964
53	0x3e00ba6e	0.12571117
54	0xbe3ce5a1	-0.18446971
55	0x3d364f8d	0.04450946
56	0x3e0179eb	0.12644164
57	0x3cff1764	0.031139083
58	0xbe128ed8	-0.14312303
59	0xbd0f0f86	-0.034926914
60	0x3dcd199d	0.10014651
61	0xbd0a4779	-0.033759568
62	0x3db61835	0.08891336
63	0x3e3b6e01	0.18303682
64	0xbdb3df69	-0.087828465
65	0x3d92c1d3	0.07165875
66	0xbc372f20	-0.011180669
67	0xbe215437	-0.15754782
68	0x3c496c78	0.012293927
69	0xbdf1575e	-0.11784242
70	0xbd066384	-0.03280975
71	0xbce64c8d	-0.028112674
72	0x3bbe3be2	0.0058054784
73	0x3c813df9	0.015776621
74	0xbd013f9f	-0.031554814
75	0x3e270f10	0.1631434
76	0xbd91f691	-0.07127107
77	0x3cbdbe63	0.023162073
78	0xbe4d6ce2	-0.20061067
79	0x3d97281f	0.07380699
80	0x3c80ee4e	0.015738633
81	0x3dc0502a	0.0939029
82	0xbd60a2ae	-0.054842643
83	0xb9beb502	-0.00036374485
84	0xbcbb09d8	-0.022831842
85	0xbce6661e	-0.028124865
86	0xbd6846fc	-0.05670832
87	0xbc9165dc	-0.017748766
88	0xbd92e701	-0.07172967
89	0xbd518eb6	-0.05116149
90	0xbd727175	-0.059190232
91	0xbccf2526	-0.025286268
92	0x3df0a389	0.11749942
93	0x3c76b468	0.015057661
94	0xbd3204eb	-0.04346172
95	0xbc89d5b4	-0.016825534
96	0xbe4ff3f9	-0.20307912
97	0x3e05f8ae	0.13083145
98	0x3cbdfc62	0.023191635
99	0xbdd374e1	-0.10325027
100	0x3e4e59f9	0.2015151
101	0x3de843c1	0.11341048
102	0xbe47a26d	-0.19495554
103	0x3d04c76f	0.032416757
104	0x3dc2c471	0.095101245
105	0x3d9081f9	0.0705604
106	0xbe55c5d9	-0.20876254
107	0xbd77082a	-0.06031052
108	0x3d4b6bcb	0.049663346
109	0xbe042f5b	-0.1290869
110	0x3cfa0fcf	0.030525116
111	0xbd89246a	-0.066963986
112	0x3e08994c	0.13339728
113	0xba9b2159	-0.00118355
114	0x3e065017	0.1311649
115	0xb9ed3e68	-0.0004525066
116	0x3c2d8d7c	0.010592815
117	0xbb38f179	-0.00282201
118	0xbe30eadf	-0.17277096
119	0x3dc27d0b	0.09496506
120	0x3dfb4d3a	0.12270589
121	0xbd431a70	-0.047632635
122	0xbd88ab48	-0.06673294
123	0x3de5944b	0.11209925
124	0x3c99bb76	0.018766146
125	0x3c9e8da2	0.019354645
126	0x3d12970d	0.035788585
127	0xbd18ac40	-0.037273645
128	0xbcaae9da	-0.020863462
129	0x3c92dc34	0.017927267
130	0xbe19ad9c	-0.15007633
131	0xbd5d1bcc	-0.053981587
132	0xbdada3de	-0.08478521
133	0xbd8881b0	-0.06665361
134	0x3cc44c66	0.02396221
135	0xbe0a00c9	-0.13476862
136	0xbddea98d	-0.10872183
137	0x3c168341	0.009186567
138	0xbde37492	-0.111062184
139	0xbdf80310	-0.12109959
140	0x3de33246	0.11093573
141	0xba82af8e	-0.0009970532
142	0xbdc88fbc	-0.0979304
143	0x3d956cd4	0.07296148
144	0x3c650dae	0.013980312
145	0xbca20c2b	-0.019781193
146	0xbe32a621	-0.17446186
147	0xbcc94a4a	-0.024571557
148	0xbeb058e2	-0.34442812
149	0xbe0616e1	-0.13094665
150	0x3e33d047	0.1755992
151	0x3d4bbaed	0.049738813
152	0xbd6805b2	-0.056646056
153	0xbde25ef9	-0.11053271
154	0xbd823678	-0.06358045
155	0x3e244275	0.16040976
156	0xbde0d5c2	-0.10978271
157	0xbd339c65	-0.04385032
158	0xbd911fc4	-0.07086137
159	0x3c9a9e1e	0.018874224
160	0xbc9d9acd	-0.019238854
161	0x3d85addc	0.06527302
162	0x3d5e49da	0.05426965
163	0xbd12e3e0	-0.03586185
164	0xbe75a42a	-0.23988405
165	0x3d23282b	0.03983323
166	0xbe85ebf2	-0.26156574
167	0xbe4ac3af	-0.1980121
168	0xbdd34b77	-0.10317128
169	0x3d860e75	0.06545726
170	0xbcc5b1a2	-0.024132553
171	0xbe24429c	-0.16041034
172	0x3cb0edd7	0.021597786
173	0x3d39e97c	0.045388684
174	0xbe2d7f54	-0.16943103
175	0x398a34bc	0.000263607
176	0x3c0c9f35	0.00858288
177	0x3c4db6ca	0.012555787
178	0x3cc56303	0.024095064
179	0xbd2b7e21	-0.041868333
180	0x3c2469b8	0.010034971
181	0x3c86afbb	0.016441217
182	0x3c8ed187	0.017433895
183	0x3c9dfe91	0.019286426
184	0xbe58af2f	-0.21160577
185	0xbe3a7ff4	-0.18212873
186	0xbe36cd05	-0.17851646
187	0x3d01d91b	0.03170119
188	0xbe22a247	-0.15882216
189	0xbccccadb	-0.024999073
190	0x3d6e890d	0.05823617
191	0xbdb91aec	-0.09038338
192	0xbcd2e82e	-0.025745478
193	0xbd8801ea	-0.0664099
194	0xbd341c7d	-0.04397248
195	0xbdc2cbe4	-0.09511545
196	0xbde9996a	-0.114062145
197	0xbc0555a9	-0.008138099
198	0xbdbc5903	-0.09196665
199	0x3c906453	0.017625963
200	0x3ca27dec	0.019835435
201	0x3d7644f0	0.060124338
202	0xbd10d6be	-0.035361044
203	0xbd2ca90f	-0.042153414
204	0x3e0788af	0.13235734
205	0xbde788ac	-0.11305365
206	0x3d43671d	0.04770576
207	0x3d78d4a4	0.060749665
208	0xbd3237ab	-0.04351012
209	0xbe887ce8	-0.26657796
210	0xbc578706	-0.013154751
211	0x3bb431ae	0.0054990863
212	0xbdb5be9f	-0.08874249
213	0x3df55c92	0.11980547
214	0xbcd4b1d3	-0.0259637
215	0xbd8e61e9	-0.06952269
216	0xbda60947	-0.08107238
217	0xbe1f01fe	-0.15528104
218	0x3dd0e52e	0.101999626
219	0x3d642089	0.05569509
220	0x3d9ba69a	0.07600136
221	0x3c75663e	0.01497799
222	0x3cb7a994	0.022419728
223	0xbb0629dc	-0.0020471727
224	0xbdf0cb46	-0.11757521
225	0xbdbea96f	-0.09309661
226	0xbb9079e0	-0.00440906
227	0xbd1e4c90	-0.038647234
228	0x3da5efa0	0.081023455
229	0xbbdd71e5	-0.006757962
230	0x3cccd31e	0.025003012
231	0xbd92256d	-0.07136045
232	0xbda2f117	-0.079561405
233	0xbcb1c3d2	-0.02169982
234	0x3d4884e4	0.04895486
235	0xbe845573	-0.25846443
236	0xbd69e4d7	-0.057103004
237	0x3d7866b6	0.060644828
238	0xbdba0671	-0.0908326
239	0xbdc9fefa	-0.09863086
240	0xbd031488	-0.032002002
241	0xbd7d3bcc	-0.061824605
242	0xbd3705e1	-0.04468334
243	0xbe2dd7ee	-0.16976902
244	0xbe58239e	-0.21107337
245	0x3d43babf	0.047785517
246	0x3cd66b9e	0.026174363
247	0x3ca0167b	0.01954197
248	0xbb7fe8fb	-0.003904878
249	0xbdcf505c	-0.10122749
250	0x3dca8ddf	0.09890341
251	0x3cc85a1b	0.024457028
252	0x3ca4448d	0.020052219
253	0x3c631c75	0.013861765
254	0xbe220ca8	-0.1582514
255	0x3d1aec53	0.037823033

network_body._body_endoder.seq_layers.0.bias f4 [256]
0	0xbd3f63b3	-0.04672594
1	0xbbceb954	-0.006308714
2	0x3b7c8e02	0.0038536792
3	0xbc1c0204	-0.009521965
4	0x3cc9a59a	0.024615098
5	0x3d07fd1a	0.03320036
6	0xbbc42270	-0.0059855506
7	0x3cb28222	0.021790568
8	0x3d014b37	0.03156587
9	0xbc7bb6cb	-0.015363405
10	0x3d302122	0.043000348
11	0xbd0354bf	-0.032063242
12	0x3c9724fd	0.018450255
13	0x3c3f6dc1	0.011683882
14	0xb9a0d9b8	-0.0003067979
15	0xbd0be117	-0.03415021
16	0x3d205460	0.039142966
17	0xbcb27419	-0.021783875
18	0x3cac4910	0.021030933
19	0x3bb8bd8f	0.0056378315
20	0x3d1049ea	0.03522674
21	0x3c793a50	0.015211657
22	0x3c7f4f61	0.01558289
23	0xbc9700c2	-0.018432979
24	0xbc4845e4	-0.0122236945
25	0x3c5ead1c	0.013591077
26	0xbc8fb082	-0.01754022
27	0xbbcdd22a	-0.006281157
28	0x3b82ac91	0.0039878567
29	0x3cb85c7f	0.022505043
30	0xb8e1e977	-0.00010772322
31	0xbc86a206	-0.01643468
32	0xb97267c2	-0.00023117571
33	0x3aafc376	0.0013409692
34	0x3bf43b54	0.0074533615
35	0x3b878772	0.0041360194
36	0x3c4990ce	0.0123025905
37	0xbc9135da	-0.017725874
38	0xbc13452b	-0.008988659
39	0xbca1de2a	-0.019759256
40	0xbc50ce6c	-0.012744527
41	0xbca36e2a	-0.019949991
42	0xbbdcc861	-0.006737754
43	0x3d5b074c	0.053473756
44	0x3be823dd	0.0070843534
45	0x3cca7a87	0.024716629
46	0xbbf0149c	-0.0073266756
47	0x3ce3bf96	0.027801316
48	0xbe0e9b4a	-0.13926426
49	0x3beb860e	0.0071876114
50	0x3c8d46b0	0.01724562
51	0x3c7c4b8c	0.015398871
52	0x3cd8c8d1	0.026462944
53	0x3c939a89	0.018018024
54	0xbca3c255	-0.019990126
55	0x3c3883b9	0.011261874
56	0x3d178c14	0.036998823
57	0x3cd0f000	0.025505066
58	0x3c0e7514	0.008694906
59	0xbc9a2103	-0.01881457
60	0x3a948191	0.0011330118
61	0xbb571147	-0.0032816695
62	0xbb51b388	-0.0031997878
63	0x3cc89b11	0.024488004
64	0xbb950b32	-0.0045484537
65	0xbc420e5b	-0.011844243
66	0x3ca2f716	0.01989321
67	0xbb9cef36	-0.0047892584
68	0x3d2066af	0.039160427
69	0x3c67f66d	0.014157874
70	0x3d04be92	0.032408305
71	0xbd19cafa	-0.03754709
72	0x3cb9494a	0.022617955
73	0x3b909c42	0.0044131586
74	0xbc91b0e3	-0.017784541
75	0xbca99548	-0.020701066
76	0x3d32e491	0.04367501
77	0xbc9a50ab	-0.018837294
78	0xbc713715	-0.014722605
79	0x3c409c55	0.011756022
80	0x3cf3e87d	0.029773945
81	0x3c3d18c7	0.011541552
82	0x3c9403f0	0.018068284
83	0xbc091ead	-0.00836913
84	0xbc8e8482	-0.017397169
85	0xbbee62b2	-0.007274949
86	0xbc042e6d	-0.008067709
87	0xbb27a796	-0.0025582067
88	0x3d0d7b7d	0.034541596
89	0xbc16cda0	-0.009204298
90	0xbce39e71	-0.027785512
91	0x3c9ecaad	0.019383753
92	0x3ced3d56	0.028959911
93	0xbcb5b443	-0.022180682
94	0x3c50abd5	0.01273628
95	0x3cee88b7	0.029117925
96	0x3d1a4d60	0.037671447
97	0x3cf06018	0.029342696
98	0x3ca0e8fe	0.01964235
99	0xbc5efe8a	-0.0136104915
100	0xbca0731f	-0.019586144
101	0x3c8298cc	0.015942
102	0xbcaced10	-0.021109134
103	0x3ce6578b	0.028117916
104	0x3a6302f8	0.0008659805
105	0x3d29bc0e	0.04143911
106	0x3c997dc8	0.018736735
107	0x3d8538d8	0.06504983
108	0x3cc69712	0.024241958
109	0xbc08192c	-0.008306783
110	0x3d08191b	0.033227067
111	0x3b7e3f0a	0.0038794898
112	0xbbf44381	-0.007454336
113	0x3d5ba2d4	0.053622082
114	0xbbe670ee	-0.0070325052
115	0x3ce6468d	0.028109813
116	0x3cce137b	0.025155773
117	0xbb9471c0	-0.0045301616
118	0x3c593363	0.01325688
119	0xbc975bee	-0.018476453
120	0x3c551b58	0.013007008
121	0x3d0cb9ca	0.03435687
122	0x3c115775	0.008870949
123	0x3cd115ac	0.02552303
124	0x3ca88e99	0.020575808
125	0x3c82947d	0.015939945
126	0xbc8201f7	-0.015870078
127	0x3d195113	0.037430834
128	0xbcd8694e	-0.0264174
129	0xbccb8423	-0.024843281
130	0xbd3ff08c	-0.046860263
131	0x3c6e02b0	0.014527008
132	0x3cc1b1dc	0.02364438
133	0xbd15ffbf	-0.03662085
134	0xbc26be2b	-0.0101771755
135	0xbad51a2d	-0.0016258411
136	0xbcb905ea	-0.022585828
137	0x39ed6039	0.00045275854
138	0xbc69e706	-0.014276272
139	0x3cfd76e7	0.030940486
140	0xbcedcfdf	-0.029029785
141	0xbc326a08	-0.010889538
142	0xbc527a9d	-0.012846616
143	0xbbcc9e82	-0.0062444815
144	0xbca4c3bb	-0.020112863
145	0x3cae017b	0.02124094
146	0xbbdedc70	-0.0068011805
147	0xbc975ef7	-0.0184779
148	0xbc7e87ee	-0.015535338
149	0x3c96dc18	0.018415496
150	0x3b8d53b4	0.0043129567
151	0x3c92e3f5	0.017930964
152	0xbbaab055	-0.0052090087
153	0x3c5707c4	0.01312441
154	0xbc35fcad	-0.011107606
155	0xbbe2a016	-0.0069160564
156	0xbb9ad146	-0.0047246544
157	0x3d4e1463	0.05031241
158	0xbca9ed18	-0.020742938
159	0xbbca72d7	-0.0061782408
160	0xbc4f1591	-0.012639419
161	0xbb9b2b85	-0.0047354125
162	0x3d018400	0.031620026
163	0x3ce4ca7e	0.027928587
164	0x3ce7c092	0.028290067
165	0x3d131b41	0.035914663
166	0x3cf480bb	0.02984654
167	0xbd962f5c	-0.07333252
168	0xbb5808c7	-0.0032964216
169	0xbba2c37e	-0.004967152
170	0xbc31e4c7	-0.010857767
171	0xbd0bac83	-0.034100067
172	0xbb5bea5f	-0.0033556444
173	0xbc2f710c	-0.010708105
174	0x3d2cfa03	0.042230617
175	0x3d02967f	0.031881806
176	0xbc8b5e50	-0.017012745
177	0x3c1f7e23	0.009734663
178	0xbc8f1bab	-0.017469248
179	0xbd34eb6d	-0.044169832
180	0x3c2816c5	0.010259335
181	0x3a84a1d4	0.0010119029
182	0x3c953c4e	0.018217232
183	0x3c73a7b4	0.0148715265
184	0x3c999315	0.018746892
185	0xba7d3c89	-0.00096602045
186	0x3b393343	0.0028259314
187	0x3c8a77f4	0.016902901
188	0x3ca853ab	0.020547708
189	0xbb89a73a	-0.004200843
190	0x3b5de513	0.0033858463
191	0x3d149545	0.036275167
192	0xbca0bdb4	-0.019621707
193	0xbbbc1240	-0.0057394803
194	0xbcc3fd49	-0.023924487
195	0xbba4e505	-0.005032184
196	0x3c5d43f1	0.013504968
197	0x3c555819	0.013021492
198	0xbcb97fcf	-0.022643952
199	0x3b22ecf3	0.002486047
200	0xbbf3ed5d	-0.0074440674
201	0xbb3e9ee3	-0.0029086403
202	0xbcd13d4c	-0.025541924
203	0x3c9e7a1d	0.019345338
204	0x3abd291f	0.0014431811
205	0x3cdd1022	0.026985232
206	0x3c1c6fec	0.009548169
207	0x3c42451f	0.0118573
208	0x3c8b410d	0.016998792
209	0x3b910a99	0.004426312
210	0xbcc4d86b	-0.024028977
211	0xbc2b491b	-0.010454441
212	0xbc38c7a5	-0.011278068
213	0x3cbca683	0.023028618
214	0xbc9331b1	-0.01796803
215	0x3d0ab870	0.0338673
216	0x3d3f679f	0.04672968
217	0x3bd7ce9b	0.0065859086
218	0xbba2fc25	-0.0049739056
219	0x3c417bd3	0.011809307
220	0x3be3854b	0.00694338
221	0x3c59ce47	0.013293809
222	0xbc1ce499	-0.009575986
223	0xbcfbe976	-0.030750971
224	0x3c20db8d	0.00981797
225	0x3ce57379	0.028009163
226	0x3c8c57d8	0.01713173
227	0xbba09ec8	-0.0049017407
228	0x3d5d4138	0.054017276
229	0xbd35f5f6	-0.04442402
230	0x3b0a32d1	0.0021087418
231	0x3d1ce400	0.038303375
232	0x3c8742a1	0.016511263
233	0x3cfc3a86	0.030789625
234	0x3c69c1b9	0.0142673785
235	0xbc0a96b2	-0.00845878
236	0xbc8716e6	-0.016490411
237	0xbc006696	-0.007836958
238	0x3d444a90	0.04792267
239	0x3d1084a9	0.035282765
240	0x3cf23081	0.029564144
241	0xbc13f699	-0.009030961
242	0x3c908d01	0.01764536
243	0xbd00c9dc	-0.031442508
244	0xbc060037	-0.008178762
245	0xbc7b7c07	-0.015349395
246	0x3c681a13	0.014166373
247	0x3c6ea6b9	0.014566117
248	0xbac12781	-0.0014736505
249	0xbd003a7e	-0.031305782
250	0x3c4c1913	0.01245715
251	0x3c810b32	0.015752409
252	0x3c42bb0b	0.011885415
253	0xb962c6a4	-0.00021627039
254	0x3d13335c	0.035937652
255	0x3c69da41	0.014273227

network_body._body_endoder.seq_layers.2.weight f4 [256, 256]
0	0xbdfb729d	-0.1227772
1	0xbd99bdd0	-0.07506907
2	0x3946b766	0.00018951073
3	0x3d96e787	0.07368379
4	0xbd9c6012	-0.076355115
5	0x3e200800	0.15628052
6	0xbdc5e614	-0.096630245
7	0x3d31426f	0.043276247
8	0xbd964653	-0.07337632
9	0xbdf84aba	-0.12123628
10	0x3dc4f17d	0.09616373
11	0x3b5f4daf	0.0034073403
12	0x3e0f882b	0.14016788
13	0xbca7bc14	-0.020475425
14	0x3b3b49c3	0.00285779
15	0xbd8eaea1	-0.069669016
16	0x3d2900d6	0.041260563
17	0xbcf643a1	-0.030061545
18	0xbda485ad	-0.08033309
19	0x3d0f6c04	0.03501512
20	0x3da6aea5	0.081387796
21	0x3c3434b2	0.010998892
22	0x3a9c7906	0.0011937923
23	0xbd657586	-0.056020282
24	0xbbc77689	-0.0060871285
25	0xbc5abac5	-0.013350193
26	0xbc8e0c60	-0.017339885
27	0x3e07e5a5	0.13271196
28	0x3d7990ea	0.060929216
29	0x3d3a21bd	0.04544233
30	0x3c25963c	0.010106619
31	0x3bff733c	0.0077957194
32	0x3cf9203a	0.030410875
33	0x3d17852a	0.03699223
34	0xbe379bfa	-0.17930594
35	0x3d3432b6	0.043993674
36	0x3da2c7ed	0.07948289
37	0x3d75ab22	0.059977658
38	0x3d597880	0.053093433
39	0xbdd147ef	-0.10218798
40	0x3d937087	0.07199197
41	0xbe51fef7	-0.20507418
42	0xbe04f4fb	-0.12984078
43	0x3dcdeb62	0.10054661
44	0xbd0461be	-0.032319777
45	0x3d90f4a8	0.070779145
46	0xbe68ce17	-0.22734867
47	0xbca8dc55	-0.020612875
48	0xbd869ad4	-0.065725
49	0x3e2d8101	0.16943742
50	0xbdfb0044	-0.1225591
51	0x3e419cd0	0.18907475
52	0x3bb7992e	0.0056029772
53	0x3d0d57d4	0.034507588
54	0xbc643dfc	-0.013930794
55	0xbc590e53	-0.013248044
56	0x3d49a8c4	0.049233213
57	0x3cb80c6c	0.02246686
58	0xbd1652f5	-0.036700208
59	0xbd067cc5	-0.032833833
60	0x3defbb23	0.11705615
61	0xbd0a18ca	-0.033715047
62	0xbe063a68	-0.13108218
63	0x3e168f08	0.14703
64	0x3e2f7f4e	0.17138407
65	0xbcc99fa6	-0.02461226
66	0x3d7a1877	0.061058488
67	0xbd888f9d	-0.06668017
68	0xbc61f2c4	-0.01379079
69	0xbe626f41	-0.22112752
70	0x3d93877f	0.07203578
71	0xbe3698b2	-0.17831686
72	0x3ddd18a8	0.107957184
73	0x3e375c44	0.1790629
74	0x3bfa36d7	0.007635932
75	0xbd037391	-0.032092635
76	0x3c4041d6	0.0117344465
77	0x3cea0349	0.02856602
78	0x3e390912	0.18069866
79	0x3e5df171	0.21674134
80	0x3db58f0c	0.08865175
81	0xbb1b103e	-0.0023660804
82	0xbd3bcd11	-0.045849863
83	0x3d3a8bcb	0.045543473
84	0x3da8e447	0.082466654
85	0xbdb470d0	-0.0881058
86	0x3e32a18d	0.17444439
87	0xbd73c213	-0.059511255
88	0x3e3b2748	0.18276703
89	0xbdbbc767	-0.09168892
90	0xbd3630d3	-0.044480156
91	0xbd5ed6fc	-0.054404244
92	0xbda39a6a	-0.079884365
93	0xbdd580fa	-0.10424991
94	0xbbb87e6e	-0.005630306
95	0xbd110502	-0.035405166
96	0x3c73856d	0.014863354
97	0x3d023732	0.03179092
98	0x3d4153e4	0.047199145
99	0x3dec11e0	0.11526847
100	0xbdc07d0f	-0.09398853
101	0xbdad3f42	-0.08459331
102	0xbd74f1e7	-0.05980101
103	0xbd8add99	-0.06780548
104	0x3d4a08a1	0.049324635
105	0x3e762531	0.24037625
106	0xbe2110d8	-0.15729082
107	0x3b9ea60f	0.004841573
108	0x3dd313a8	0.103064835
109	0xbe101fcd	-0.14074631
110	0xbcf140c0	-0.02944982
111	0xbd8e10d6	-0.06936805
112	0x3e1d4e02	0.15361789
113	0x3e605751	0.21908309
114	0x3d353971	0.044244234
115	0xbe34e1f8	-0.17664325
116	0x3d001dce	0.031278424
117	0x3dccc594	0.099986225
118	0x3cc398fa	0.023876656
119	0xbd9e329f	-0.07724499
120	0xbd8f5dad	-0.07000289
121	0x3c9c7baa	0.019101936
122	0x3de100a2	0.10986449
123	0x3dcebc22	0.10094477
124	0xbb9e4836	-0.0048303856
125	0x3d8078e4	0.06273058
126	0x3cdd56b6	0.027018886
127	0x3e144ebd	0.14483161
128	0xbd2f65d9	-0.04282174
129	0xbd8328fa	-0.064043
130	0x3b22bbc3	0.0024831153
131	0xbdd2c906	-0.102922484
132	0x3e26389e	0.16232535
133	0xbe1259a8	-0.14292014
134	0xbc64d3a7	-0.0139664775
135	0x3d199c7f	0.037502762
136	0x3c588c3f	0.013217031
137	0xbcb759c0	-0.022381663
138	0xbe013df7	-0.12621294
139	0x3d9c7905	0.0764027
140	0xbdfc84c6	-0.12330012
141	0xbe34f549	-0.17671694
142	0x3dc66639	0.09687466
143	0xbcd35ab5	-0.025800088
144	0x3db1ca64	0.08681181
145	0xbcdbc7dc	-0.026828699
146	0xbe0905bf	-0.13381098
147	0x3cb14964	0.02164144
148	0x3d8c6879	0.06855864
149	0x3e3012af	0.17194627
150	0x3cb26428	0.021776274
151	0x3e057a03	0.13034825
152	0xbad360c0	-0.0016126856
153	0xbdbc87ec	-0.092056125
154	0x3cf5ef09	0.030021207
155	0x3d2a7a1a	0.04162035
156	0x3de90dfb	0.1137962
157	0x3e153c05	0.14573677
158	0xbe20a8f5	-0.15689452
159	0xbe073e19	-0.13207282
160	0x3d8980c0	0.0671401
161	0x3e3a4625	0.1819082
162	0xbd7edf67	-0.06222477
163	0x3d225f9a	0.039641954
164	0xbd558e26	-0.052137516
165	0x3d0eb7b8	0.034843177
166	0x3cd655cd	0.02616396
167	0xbe19407a	-0.14966002
168	0x3cd1243c	0.025529973
169	0xbbd09e56	-0.0063665314
170	0xbde35869	-0.11100847
171	0xbd94d5fc	-0.07267377
172	0x3bb3bbea	0.0054850476
173	0xbd719627	-0.058981087
174	0x3dbd3116	0.09237878
175	0xbd0949da	-0.033517696
176	0x3bf85e09	0.0075795692
177	0xbe23de01	-0.16002657
178	0x3df53a14	0.11973968
179	0x3baac124	0.0052110124
180	0xbcf2385b	-0.029567888
181	0xbb910cd0	-0.004426576
182	0xbdd26897	-0.10273855
183	0x3b9a453e	0.0047079613
184	0x3c8908b0	0.016727775
185	0xbdd77190	-0.10519707
186	0x3e440a40	0.19144535
187	0x3da854d8	0.08219308
188	0x3d4a16b1	0.049338046
189	0xbe22af1f	-0.15887116
190	0x3d26d1f4	0.04072757
191	0x3dd77270	0.10519874
192	0x3cfa3879	0.030544506
193	0xbe384a49	-0.17997088
194	0xbe2a3f0a	-0.1662561
195	0xbd9f557c	-0.07779977
196	0xbe2fbef6	-0.1716269
197	0xbaa8bde5	-0.0012873976
198	0xbdd85303	-0.10562708
199	0x3ce7dd4d	0.028303767
200	0xbe5c0fef	-0.21490453
201	0xbcc536f5	-0.024074057
202	0xbca10f7c	-0.019660704
203	0x3e16b3c3	0.14717011
204	0xbe2d33ca	-0.16914287
205	0xbd8a8453	-0.0676352
206	0x3d803386	0.06259827
207	0xbe2fa7b9	-0.17153825
208	0xbde25b06	-0.110525176
209	0xbd1e28d5	-0.03861316
210	0x3df213f9	0.11820216
211	0xbdd98ff5	-0.10623161
212	0x3da20c56	0.07912509
213	0xbcb23bae	-0.021756973
214	0x3c526cb9	0.012843304
215	0xbcd9dfad	-0.026595915
216	0x3e804d9f	0.2505922
217	0x3db8a98c	0.090167135
218	0x3e0c6537	0.13710485
219	0x3cdd5078	0.02701591
220	0x3e55f6aa	0.20894876
221	0xbe8b0e1e	-0.27159208
222	0x3d9c194f	0.07622015
223	0x3cfcc699	0.030856417
224	0x3e0e5227	0.13898526
225	0x3c9004e0	0.01758045
226	0x3db4cf7c	0.08828637
227	0x3d90c94d	0.07069645
228	0x3e615d8e	0.22008345
229	0xbdd4cea5	-0.10390977
230	0xbc0f20e2	-0.008735867
231	0x3db2d2f8	0.08731645
232	0x3cab22c7	0.020890607
233	0x3db6867b	0.08912369
234	0x3b1246a7	0.0022319944
235	0xbccbbec6	-0.024871241
236	0xbe0a43bc	-0.13502401
237	0xbd3d6e89	-0.046247993
238	0xbc69632a	-0.014244834
239	0x3e418ed1	0.18902136
240	0x3c5093ed	0.012730581
241	0x3c22f116	0.009945175
242	0xbe323351	-0.17402388
243	0xbda474f3	-0.08030119
244	0xbdc9374a	-0.09824999
245	0xbd8baf8a	-0.06820591
246	0x3dc92ab4	0.09822598
247	0xbd538e2a	-0.05164925
248	0x3c9385f9	0.01800822
249	0xbe1031bb	-0.1408147
250	0xbdb5087a	-0.088395074
251	0xbcc18be6	-0.02362628
252	0xbe019afb	-0.12656777
253	0x3dd663df	0.10468268
254	0x3ce84da1	0.028357329
255	0x3cc8cf42	0.02451289
