results/PushBlockCollab_PPO/PushBlockCollab/PushBlockCollab-9499998.onnx (onnx, 643240 bytes, 12 tensors)

network_body.observation_encoder.processors.0.conv_layers.0.weight f4 [16, 6, 8, 8]
00000000: f129 dbbc 3790 eb3b d1e6 a23d e7c8 963d
00000010: 76a1 c93d 914c 20bd 9039 c1bc fc42 243d
00000020: 25ba 21bc 330f 13bd 256f 243d 9360 a33c
00000030: b4ed bf3d 1d27 9c3d befa 653d da6a 34bd
00000040: e403 9f3d d3f9 5bbc 08e1 233d 0f04 933b
00000050: ad40 0dbc 108f 02bd 51e4 90bc 72a1 0abe
00000060: 6c22 3f3d 49ab 7f39 246c adbd cec3 02bd
00000070: 7f0c 42bd 1cbd 52bd db1d 4abc 6ce9 61be
00000080: f4c9 9f3d cac2 16bd f73e 31bd 4dbd 67bd
00000090: 3255 313d 7afd 1dbd da6d 9bbb 9cc0 d53b
000000a0: 24a0 9fbd 9fcb 3fbd 4553 54bd fb7d 3f3d
000000b0: fccd d73c e43f 713d 1ea3 8f3d 68c1 56bd
000000c0: 157a 4abd 1c15 7dbc a77e 64bd 5fcd 4dbc
000000d0: 233c a8bb 72db 01bd 5b9b 093e 86c8 a5bd
000000e0: 2e1f 3ebd 0d91 81bd 5a5a 61bd d845 cd3d
000000f0: 30d6 37bc 5f30 26bd 1fc8 a43c 065e 51be
00000100: 0601 26bd f3ad 51bb 6069 dcbd f863 09be
00000110: 5add 0abd a000 2f3e 9e6f bd3c 30cb 4f3c
00000120: 21ab ad3a a74e 32bd 3af5 e0bd 4b2f 66bd
00000130: 08d3 b4bd 432f 033e 03dd cf3d 90c9 0a3d
00000140: 67ba 85bb 549b ca3c 0a35 2d3d 6be6 92bd
00000150: 45cc 0fbb 92a2 9ebd f429 213e a460 5bbd
00000160: 8c10 6ebc fcc1 213d fde6 643c 252f 1b3d
00000170: 3aa5 1e3d 6ccf 1dbd ee2e fcbd b2fe 14be
00000180: eef5 e7bd 0101 923d 67f9 b8bd 18d1 a2bc
00000190: 170f 29bc 57df 28be d318 8cbd 6cf9 b5bd
000001a0: b523 823d e2fb cd3d 1602 8d3d 048b 0c3b
000001b0: 57cb 24bd 7b4b dcbd 06d1 9fbd e1e5 643c
000001c0: 8b53 fdbc 6417 4b3d 2d96 bfbd cf01 d23c
000001d0: 1fdd d9bd bb4d b0bd 4dc4 e1bd 82d3 2a3c
000001e0: 0147 d4bd 1e08 853c 4486 f9bb a241 173e
000001f0: 6153 113d e30c 113d 4b00 f9bd 7991 a7bd
00000200: 2c1e a43d 576f 133d 10e2 e8bc 6969 bebc
00000210: 3f84 79ba ec33 5dbd 5f3e 34bd 34ab 95bc
00000220: 44c5 4abd 3f27 b93c 3723 243d 07fe 58bb
00000230: 77e6 a13c 8ed8 cabd c7ac 13bd d24e 033c
00000240: f168 6d3b c299 c33c fb66 9fbc eac0 4a3c
00000250: d0e4 a23c 2367 9e3a 8661 86bd 394a 75bc
00000260: eaf1 4cbc 5a0f abbc 5bcb 993d 9d93 88bb
00000270: b0da 71bd fff4 07bc 230f dc3c 17b7 ea3b
00000280: b2cd c6bb 8318 c33d 3423 b83c 550e 033c
00000290: d176 f63c a721 02bc f93c 6a3d 3099 56bd
000002a0: a74d 933b c351 a73d 8589 5cbc da32 a4bc
000002b0: 573d 8cbc 60e0 863c 6886 39bc da8a a0bd
000002c0: 28fc 24bd 53de e2bc 0eb6 d23c 8c72 d63b
000002d0: ab02 7a3c ffcf 4f3c 1bad 07bd 8a07 783b
000002e0: e412 d63b f76b 843d 8500 243d 0d81 45bc
000002f0: 12bc 863d 1377 053d 225e 38bc a301 89bd
00000300: 9594 bebc 3d8b f2bd d1c0 00bd bb38 e03c
00000310: 5392 89bd 78ff 613d 458b 173d 24a8 cbbc
00000320: 76c6 e93c 642d 08be 4893 1bbd f8c2 6abd
00000330: fa17 af3c 25af 4e3d 7ace 87bc f498 38bd
00000340: a761 e43d 9445 8bbd 052b a8bc 5a81 513d
00000350: 5256 023e d256 b13d 14dc 90bd 6239 d33d
00000360: 7e54 c73c f65b 29bd 675f 053d 5090 38bd
00000370: 4ccb cf3b 6ae6 1b3d ef79 cebd 19d3 a03d
00000380: c82d ce3c 581c 193b 73d9 a63c b4d9 a93d
00000390: b33d 113e bb88 3cbd 700f 343d c6e0 203d
000003a0: 1507 94bd ee98 acbc cde1 ac3d 2a8a 2f3c
000003b0: 7a63 693d 3874 ae3b 92ad 2abc 5e94 903d
000003c0: 5f12 753d 2803 edbc 8ba7 a83d 1440 b73c
000003d0: 6b1a 003e 98a6 b13d b5f3 5fbc 2984 85bd
000003e0: 4143 843d 757f 06bd 9374 eb3c 86e9 5c3d
000003f0: 4a43 a23d e9f6 773d c696 72bc e5dd 813d
-0.026753398 0.0071888226 0.07954181 0.07362538 0.09845249 -0.03913552 -0.023587018 0.040102944
-0.0098710405 -0.035903167 0.04014506 0.019943511 0.0937151 0.07624648 0.05614733 -0.044047214
0.07764414 -0.013426262 0.04000953 0.004486568 -0.008621377 -0.031874716 -0.017686995 -0.13538149
0.046663687 0.00024382504 -0.08467892 -0.031925015 -0.0473752 -0.05144988 -0.01233622 -0.220617
0.078021914 -0.03680686 -0.04327294 -0.056577016 0.04329414 -0.038571812 -0.00474332 0.006523205
-0.07794216 -0.046825048 -0.051837225 0.046751004 0.026343338 0.05889882 0.07013534 -0.05243054
-0.049432833 -0.015446927 -0.055784848 -0.012561171 -0.005134122 -0.03170342 0.1343817 -0.080948874
-0.046416454 -0.06326494 -0.055017807 0.10023087 -0.0112205 -0.040573474 0.020114956 -0.20446023
-0.04052832 -0.003199455 -0.10762286 -0.13417041 -0.033902504 0.17090082 0.023124512 0.012682721
0.0013249853 -0.04353204 -0.10984273 -0.056197446 -0.088293135 0.12810998 0.101495765 0.03388363
-0.004081059 0.02473227 0.04228691 -0.07172855 -0.0021941822 -0.077458516 0.1573866 -0.05355896
-0.014530312 0.03949164 0.0139710875 0.037886757 0.03873179 -0.03852789 -0.12313639 -0.14550284
-0.11326204 0.07129098 -0.09031945 -0.019875094 -0.010318539 -0.16491447 -0.06840672 -0.08885464
0.06354467 0.100578085 0.068851635 0.0021445164 -0.040232982 -0.10756584 -0.0780354 0.013970823
-0.030923625 0.049582854 -0.09354816 0.025635628 -0.106378786 -0.08608576 -0.110237695 0.010426404
-0.103651054 0.016239222 -0.0076148827 0.1477113 0.035479907 0.03541268 -0.12158259 -0.081820436
0.08013567 0.035994854 -0.028428108 -0.023243623 -0.00095183024 -0.054004595 -0.044004794 -0.018270113
-0.049504533 0.022601722 0.040072646 -0.0033110396 0.019763215 -0.09904586 -0.036053445 0.008014398
0.003622588 0.023877028 -0.019458285 0.012375096 0.019884497 0.001208518 -0.0656157 -0.014971309
-0.012508849 -0.020881344 0.0750949 -0.0041679875 -0.059046447 -0.008298158 0.026862686 0.0071629393
-0.0060670013 0.095261596 0.022477724 0.0079990225 0.030085953 -0.007942594 0.057187054 -0.052392185
0.004495341 0.08169892 -0.013460522 -0.02004378 -0.017119093 0.016464412 -0.011323549 -0.07838984
-0.040279537 -0.027693903 0.025721576 0.006544417 0.015259425 0.0126838675 -0.03312407 0.003784629
0.0065330137 0.06465905 0.040039558 -0.012054694 0.0657884 0.03258426 -0.011252912 -0.06689765
-0.023264209 -0.11842964 -0.031433884 0.027370801 -0.06717362 0.055175275 0.036998052 -0.02486045
0.028537016 -0.13298565 -0.037982255 -0.057314843 0.021373738 0.05046 -0.016577948 -0.045067742
0.11151438 -0.0680038 -0.020528326 0.05114875 0.12728241 0.08659138 -0.070732266 0.10313679
0.024332281 -0.041347466 0.032561686 -0.045059502 0.0063413735 0.038061537 -0.10081851 0.07852764
0.025168315 0.0023362841 0.02036736 0.08293477 0.14183693 -0.046028834 0.043960035 0.03927686
-0.07227913 -0.021069016 0.084415056 0.010714093 0.056979634 0.005323913 -0.010417359 0.07059549
0.059831973 -0.02893217 0.08235081 0.022369422 0.12510078 0.08674353 -0.013668944 -0.06519348
0.0645814 -0.032836396 0.02874211 0.053933643 0.079229906 0.060538206 -0.014806455 0.06341151

network_body.observation_encoder.processors.0.conv_layers.0.bias f4 [16]
00000000: 6f74 a5bd af6e 1bbd 564c 13bd 1671 88bd
00000010: 7098 ccbc d52c 513d 2b80 d7bc 0a8e bfbc
00000020: 5501 4e3d 3cfa d3bb 6f84 81bd 809c 3abc
00000030: 0dc5 44bd 4973 a0bc 0f34 67bd 60ee 4abd
-0.080788486 -0.037947353 -0.03596147 -0.066621944 -0.024975032 0.051068146 -0.026306232 -0.02338316
0.05029424 -0.0064690392 -0.06324088 -0.011389852 -0.048039485 -0.019586222 -0.05644613 -0.04954374

network_body.observation_encoder.processors.0.conv_layers.2.weight f4 [32, 16, 4, 4]
00000000: 2480 01bd 35aa 5ebd 0d51 9c3d 1354 d93d
00000010: 4dc1 8ebd bb60 fbbc 9c1e ec3d acb8 313b
00000020: 00d6 2c3e 36b1 233c 3e7b 1b3d 57b6 573c
00000030: 4342 a0bb 3e1a d33d 5786 e939 f0c7 6dbd
00000040: 68df 903c 9156 21be 136e 21be c0c2 7a3c
00000050: bc64 b03d 8ecd febc 32ae c9bd 0974 b0bd
00000060: 8efc 443d a81a 9138 831a 1dbd 4706 5f3d
00000070: 4b0c 9c3d 63fe d83c ef41 cb3c 3c62 28bc
00000080: 5242 dc3d 4afd 783c 4277 33be 2d06 58bd
00000090: 1df7 bc3d 9d5c e03c 94bd 34bd 9da7 f1bd
000000a0: d184 b73d 41d9 2e3d a16f 04be c3b6 bc3c
000000b0: 17dc 123e 8682 f6bb 7e9d e5bc a199 923d
000000c0: a511 cfbd 6143 5ebc e359 b63c 536d 8cbd
000000d0: 7200 f33d 556f a9bd 2d77 18ba f8b7 acbd
000000e0: 1a57 953d 8427 9d3b f250 10bd cef8 86bc
000000f0: ef11 39bc 311d acbc b095 b63a 53a7 eebc
00000100: 0aa4 803c 09c6 3fbc 8930 ab3d 0388 91bd
00000110: bbad 50bd 7fd8 1fbd dbbd a3bd ee24 e93c
00000120: 55c8 cc3d cc25 4dbd 4e88 913d da43 fabd
00000130: bc01 c03c ec7c 9b3b d02c c23c c84f b43d
00000140: 477b 9d3d 474a 2ebd 6f35 a2bd d095 6bbd
00000150: 9bdf f43d 4413 c0bd d48e 45be 75d5 2cb9
00000160: 904b cf3d 66d1 57bd 61b1 0bbe a893 a5bd
00000170: 0609 3cbd d979 adbc 0a85 a23c f1dc 133d
00000180: 3f37 573b d72c e63c 518e 393c f0df 97bc
00000190: b544 86bd c3f3 cbbc 4104 48be a65f 0bbd
000001a0: 31c4 a83d f901 11bc 9c11 003d 3a5d c4bc
000001b0: 0106 fe3d f8d1 573c 0331 a6bb 7abe 98bd
000001c0: 229e f23b 3576 8cbd f379 c2bd faee dfbc
000001d0: f2b4 1cbc e0d7 e6bd 1201 cfbd 66b3 02bd
000001e0: 1e2a 0d3e ac8f 693d 064b 41bd c918 6dbc
000001f0: 1cdf 41bc df0d a33d 277b f7bc 4b98 983d
00000200: 9b36 c23d bbaf de3b d0d1 f7bd 6c84 97bd
00000210: 560d 43bd 451e b239 a3db cbbc e3d3 d1bc
00000220: 86d8 d9bd fc59 5a3d c574 d43d cd8a 81bd
00000230: a7dd 003e b61d 02be 3a9d f33b 78ed ce3d
00000240: 768b 44bd 406c e63d 6dc9 293d e765 56bc
00000250: 2947 7bbd 4cdf d7bb ae5d 823c ccbb 56bc
00000260: 9918 d63d ddfb dd3d 08ba e1bc ad9a 1cbb
00000270: 61ae 40bd 459f 19bd fd5c c2bc 961d 93bc
00000280: 92af 98bd eb6b a7bd 3647 81ba 63c8 b1bd
00000290: 5609 f93d b867 6c3d 48e5 babc 5d7f 86bd
000002a0: f1ef 243c 8eb2 893d 4af7 0fbd 91c3 94bd
000002b0: 748f 3a3d 4a5c b83c 68fe 27bd c7b5 d8bc
000002c0: 740e 27bc 8dbb ccbd 868d c2bd b80c bcbd
000002d0: a684 17bc 610c b7bd 8796 33bd af92 bbbb
000002e0: f0ac ad3c 4ea1 13be 8226 79bd b3fe d7bd
000002f0: 6c61 c63d ca2d 983c 9ee5 b43c 4245 033d
00000300: e5b6 2cbd 518d 6dbd f2e3 4cbd 6076 b33d
00000310: c9c8 edb8 0255 7abd 4067 493d 511f 823c
00000320: d090 243e 88cc e7bc 799d a1bd c8d9 86bd
00000330: d4c7 bb3d f6e1 8d3d a179 ae3c 4b99 7fbd
00000340: ca4a 2bbe 64a2 c33c 4576 e4bc 684f 0abd
00000350: 5302 44bd b825 5c3d d7ff 3ebc 2579 933b
00000360: 36a3 9f3d 318f 41bc 08b2 8ebd 7b58 a63d
00000370: 5bf1 1e3d aa76 be3b ed56 b53c c2c7 c33d
00000380: 246c b93d 76bc d13c a20e 8e3d c04b d3bd
00000390: 64d2 aa3d 34f5 1e3d b1ff d6b9 ffd4 43bd
000003a0: 6249 413d 35c1 b43d 0e7a 81bc 1bc3 43bd
000003b0: dace c73d c98e 2ebc 7140 6dbd c385 e1bd
000003c0: cbcc 153d b028 0e3d 496a 76bd a264 2bbd
000003d0: 5d54 d43d 45dc 8abc 0184 e2bd ca58 35bd
000003e0: d391 d33c e0f6 a4bd 1431 bdbc 7841 2bbc
000003f0: 3b42 2f3d c30a c43b 4752 c23c bcd2 a33d
-0.031616345 -0.05436154 0.07632647 0.10611739 -0.06970463 -0.030685773 0.11529276 0.002711813
0.1687851 0.009990981 0.03795933 0.013166032 -0.0048907115 0.1030774 0.00044541314 -0.058052003
0.017684653 -0.15755679 -0.15764646 0.015305221 0.086129636 -0.031103875 -0.09847678 -0.08615882
0.048092417 6.919104e-05 -0.03835536 0.054449346 0.07619532 0.026488489 0.024811713 -0.010277327
0.10754837 0.015197108 -0.17525962 -0.052740265 0.092268206 0.027387911 -0.04412611 -0.11799548
0.089608796 0.04268766 -0.12933208 0.023036366 0.1434177 -0.007522884 -0.0280292 0.07158209
-0.10110787 -0.013565869 0.022259658 -0.068567894 0.11865319 -0.08273188 -0.00058160984 -0.08433527
0.07292004 0.0047959704 -0.035233445 -0.016476061 -0.01129578 -0.021010013 0.0013930108 -0.02913252
0.01570322 -0.01170493 0.08358867 -0.0710602 -0.050946932 -0.039024826 -0.079951964 0.028459992
0.09999148 -0.050084874 0.07106076 -0.12219973 0.023438327 0.0047451165 0.023703009 0.088042796
0.07689529 -0.042551305 -0.07920348 -0.05751592 0.11956712 -0.093786746 -0.19292766 -0.00016482717
0.10121834 -0.052689932 -0.13641883 -0.08084804 -0.045907043 -0.021176266 0.019838829 0.036099378
0.0032839326 0.028097553 0.011325435 -0.018539399 -0.065560736 -0.024896508 -0.19532873 -0.034026764
0.082405455 -0.008850568 0.031266794 -0.023970235 0.12403489 0.013172619 -0.0050717606 -0.074582055
0.007404105 -0.06858484 -0.09495916 -0.027335633 -0.009564625 -0.11271644 -0.10107626 -0.03190937
0.13785598 0.05702178 -0.04719069 -0.014471241 -0.011832979 0.0796163 -0.03021009 0.074509226
0.094830714 0.006795851 -0.121005654 -0.07398304 -0.04762014 0.00033973358 -0.024885004 -0.02561373
-0.10637002 0.053308472 0.103738345 -0.06325302 0.12584554 -0.12706646 0.0074345144 0.10103887
-0.047984563 0.11251116 0.04145186 -0.013085819 -0.06134716 -0.0065878984 0.01591381 -0.013106298
0.104539104 0.10839055 -0.027554527 -0.0023895905 -0.0470413 -0.037505407 -0.02372598 -0.017958444
-0.074553624 -0.081748806 -0.0009863141 -0.08680799 0.12159984 0.0577161 -0.022814408 -0.06567261
0.010066972 0.0672351 -0.035147943 -0.07263864 0.045546964 0.022504944 -0.041014105 -0.026453866
-0.010196317 -0.0999671 -0.0949965 -0.091821134 -0.009247934 -0.08937908 -0.043844726 -0.005724273
0.021200627 -0.14417002 -0.06082774 -0.10546627 0.096865505 0.018576521 0.022082146 0.03204847
-0.04216661 -0.057996098 -0.050022073 0.087628126 -0.0001133844 -0.061116226 0.049170732 0.015884073
0.16070867 -0.02829577 -0.07891364 -0.06584507 0.091689736 0.06927864 0.021298232 -0.06240205
-0.16727749 0.023881145 -0.027888427 -0.033767134 -0.04785378 0.05374691 -0.011657677 0.0045005255
0.07794802 -0.011813925 -0.069675505 0.08122345 0.038804393 0.0058124857 0.022136176 0.09559585
0.09053829 0.02560256 0.06936385 -0.103171825 0.0834091 0.038808063 -0.00041007766 -0.04781055
0.047189124 0.08825914 -0.01580527 -0.04779349 0.09756251 -0.01065416 -0.057922784 -0.11011841
0.03657226 0.03470677 -0.060159955 -0.041844018 0.103676535 -0.016950736 -0.11060334 -0.04427413
0.02582637 -0.080549 -0.023094691 -0.010452621 0.04278777 0.005982728 0.023720874 0.07999179

network_body.observation_encoder.processors.0.conv_layers.2.bias f4 [32]
00000000: 95cd 05bd 4bec bf3d 452e 8f3d 3be0 5bbd
00000010: 8878 39bd 7acb 04bd 7dbe aabc 20b8 cf3b
00000020: f9f5 35bd d8dd 0dbc 7e88 9abd 9552 033d
00000030: 52e5 663c 4410 a53c ed1f d9bc 75ec 2bbd
00000040: 6ba4 8bbc 88e5 b9bc 0fab 9b3d c0a8 ca3c
00000050: 8306 a0bc 62de 9d3c 2d7d 1c3d 943c 903d
00000060: bc6a 783d c5d7 953d fa5f 083d de71 b6bc
00000070: 3325 a6bc a63c 52bd 346e 1abd 6215 233d
-0.03266676 0.09371241 0.06991247 -0.05368064 -0.045280963 -0.032420613 -0.020842785 0.006339088
-0.04442403 -0.008658849 -0.07545565 0.03206118 0.01409276 0.020149358 -0.026504481 -0.04197355
-0.017046174 -0.022692457 0.07600986 0.02473867 -0.019534355 0.01927108 0.038205314 0.07042804
0.060648665 0.073165454 0.033294655 -0.022271093 -0.02028141 -0.05132737 -0.037702754 0.039815314

network_body.observation_encoder.processors.0.dense.0.weight f4 [256, 32]
00000000: acf8 02bc 8c8a 883e 5b22 bc3e aa7a d83e
00000010: ca4e f8bd e393 7cbe a25c 9ebc c87f a7bd
00000020: c229 d43e 0271 a53e 2f53 34bd 29c4 d3be
00000030: 289d b83d 7151 36be 8750 dc3d 2467 b1be
00000040: 076a 69be a686 0bbd a7e1 2e3e 98b4 a9bd
00000050: 2a43 c3be edca 72be 7904 7b3e 1604 22be
00000060: f8f1 ec3d 9015 8b3e 3d21 5b3e 1666 87be
00000070: c6f5 3fbd 288e 5cbe ff04 5ebd 3094 e13e
00000080: 47b5 d1be a279 7abc 39df d0bd 16a5 823d
00000090: 4562 23be c830 643c 4688 763e 6d40 843e
000000a0: 9d82 5a3d acc6 d2bd aef1 7ebe 89fb 813c
000000b0: 9857 a93a 7d63 f1bd 92a6 58bc 1b45 ac3e
000000c0: aaa9 b33e bc72 273e 0077 d3bc 81f6 bcbc
000000d0: 8cf3 c6be 8e0a 4f3d ae2a a2be e1c0 b43e
000000e0: cfa8 76be a1fc e13d 518f 97be a7d3 10be
000000f0: 21ab 8e3e 5291 a93e 7080 ee3e 1763 453d
00000100: af6d 0b3e f250 37be 5c97 363d 9896 2abe
00000110: b577 bfbd 7995 cdbd 2c7b 9c3e 685e 5f3d
00000120: 99b5 8c3d 6080 1dbd b9a0 bdbd 3710 cdbd
00000130: 6f31 94be 89e3 94bc 4d92 28bd 1133 1c3d
00000140: 5f87 033f 8e1c 3cbe d15a 163f dd59 1e3e
00000150: 01c2 55bc 1628 70bd 55eb 42be 0f93 363d
00000160: 3417 a9be 7049 2c3e a0bb a4be 1bbf 40be
00000170: b24d c23e 455c 6d3e dcbc d3bc 1be1 aa3c
00000180: 2955 69bd e41e aa3e 1920 f8be ae62 cbbd
00000190: f476 adbe 8632 823d 2402 bebe f340 ba3e
000001a0: 3602 70be 1663 d5bd 479e c4bd d7f6 14be
000001b0: df5a 12be d1e6 12be dd53 24bb 2ea4 8fba
000001c0: c160 063f 0d99 a2bd 59f2 ad3e f0cb 8d3d
000001d0: 18bc db3c cb28 d6be f2bf 46be 9829 873e
000001e0: f934 cd3e 40b0 2bbd 4536 bebe f5e9 3cbe
000001f0: 4460 bd3e a4d3 d83c a680 48be 1779 7d3e
00000200: 9e38 e43e 5953 9cbe 4153 7ebd 5ee3 4fbe
00000210: 1c4f 363e 3f3a 0c3e 8b40 bebd 87ad bdbe
00000220: cd5c 9cbe c258 ae3d 52ca f43d 3111 33be
00000230: 5a2c 7cbe 48c4 77be d33f 11bf 59d5 173f
00000240: 9e3d 83bd 7b00 2cbe 0880 aebd c215 0e3f
00000250: d7df 26be ce0a 873d 100a 203e b6fa 7d3e
00000260: 2f7e 9e3e c381 96bd c981 7dbe a40f c13c
00000270: 6758 9b3e bc3b cd3d d165 b0be 814d 95bd
00000280: 9651 c1be 391b b23e cb86 17be 3bf7 1dbe
00000290: 0545 f3bd 5be5 423d ee1f 9cbe ea16 713e
000002a0: 956a 483d 7600 94bd 9706 243e 1b72 203d
000002b0: 66e1 e8be fc78 c4be 5128 cbbd 265c b2bc
000002c0: adba 243e a703 eb3d ad7e 753e c963 973c
000002d0: 1908 633e e930 30be e896 d3be f6b0 a2bd
000002e0: 7d44 fd3d eb40 9d3e 8c55 4fbe 7bc7 7fbe
000002f0: b422 183e dd24 d63c e81e 293e 7e4f 64bd
00000300: fde2 983d 3171 00bc 27e9 983e 8284 193c
00000310: 9d65 e4be f445 6cbd 44ab 38be a375 0c3e
00000320: 605f afbe 7818 8fbe 7f60 573d 5d46 b73d
00000330: 9883 03bf 7629 87bd dd83 083e 7c54 5b3d
00000340: 3189 433f b9a6 713d 321c 313e 5bf7 cb3c
00000350: b517 4dbb e2b5 11be 9cf7 4dbe 57ce 1bbe
00000360: 6dcb f73e 7d84 2cbe 0b9c 243c 0564 303d
00000370: dcc4 ef3d 9ebb afbd 4d49 263d 93bc 133d
00000380: fd6b 4abd 77d3 71be 2851 55be ec4b a83e
00000390: 6da3 6fbe 1c57 a93e 8b13 e63e 83d5 e9bd
000003a0: 16fd be3d 9756 94be cac1 de3d 48dd 16be
000003b0: 0e0c 313c e20b ba3d a2b9 f43e 6143 903d
000003c0: cd57 053e 908e 86be 702a a4be d6ae 973e
000003d0: 7256 6e3d 173c d03e c2db 10be 1847 273e
000003e0: 920b a93e eb8e c03e 279d 49be 4cc7 c4be
000003f0: 2a1a d73e 5a8b 27be b414 163e 2e90 ffbd
-0.007993858 0.26668203 0.3674496 0.42281085 -0.12124403 -0.2466579 -0.01933128 -0.08178669
0.4143811 0.3231278 -0.044024643 -0.41360596 0.0901435 -0.17804505 0.10757547 -0.34649003
-0.22794352 -0.034063958 0.17078267 -0.08286399 -0.3813718 -0.23710223 0.24513425 -0.15821871
0.115695894 0.27164888 0.21399398 -0.26445073 -0.046865247 -0.21538603 -0.054203983 0.4405837
-0.40958616 -0.015287789 -0.10198826 0.06379144 -0.15955456 0.013927646 0.24075422 0.25830403
0.05334722 -0.102918 -0.24896881 0.015867012 0.0012919782 -0.11786554 -0.013223307 0.33646473
0.3509038 0.16352361 -0.02581358 -0.023066761 -0.38857687 0.050547175 -0.31673187 0.35303405
-0.24087833 0.11034513 -0.2960153 -0.14143239 0.27864936 0.33118683 0.46582365 0.048190203
0.1361606 -0.17901972 0.04457794 -0.1665901 -0.09349004 -0.10038275 0.30562723 0.054533392
0.068705745 -0.038452506 -0.09259171 -0.10012858 -0.28943965 -0.018174903 -0.04115515 0.03813464
0.51378435 -0.18370268 0.58732325 0.15463968 -0.013046742 -0.05863198 -0.19035085 0.04457384
-0.33025515 0.16824889 -0.32174397 -0.18822901 0.37949902 0.2317973 -0.025846891 0.020859292
-0.05696598 0.33226693 -0.4846199 -0.09930931 -0.33879817 0.06357293 -0.37111008 0.36377677
-0.23438343 -0.1041929 -0.096005015 -0.14547287 -0.14292477 -0.14345862 -0.00250744 -0.0010958964
0.52491385 -0.07939348 0.3397396 0.069236636 0.026823089 -0.41827998 -0.19409159 0.2639892
0.40079477 -0.041916132 -0.3715078 -0.18448623 0.36987507 0.026468106 -0.19580325 0.24753223
0.44574445 -0.3053234 -0.062091116 -0.20301577 0.17803615 0.13694094 -0.09289654 -0.37046453
-0.3053955 0.08513023 0.11952652 -0.17487027 -0.24626294 -0.24195969 -0.56738013 0.5930992
-0.06408237 -0.16797058 -0.08520514 0.5550195 -0.16296326 0.06593858 0.15628839 0.2480267
0.30955645 -0.07348969 -0.2475654 0.023567028 0.30340883 0.10021159 -0.3445268 -0.07290173
-0.37757558 0.34786394 -0.14797513 -0.15426342 -0.11878399 0.04758201 -0.3049311 0.23543897
0.04892977 -0.072266504 0.16018139 0.03917132 -0.45484465 -0.38373554 -0.09919799 -0.021772455
0.16086836 0.11475306 0.23974104 0.018480198 0.22171058 -0.17206158 -0.4132607 -0.07943909
0.12366579 0.3071359 -0.20247477 -0.2497844 0.14856988 0.026140625 0.16515696 -0.055739872
0.074651696 -0.007839487 0.2986538 0.009369971 -0.44608775 -0.0576839 -0.18034083 0.1371675
-0.34252453 -0.27948356 0.05258226 0.089489676 -0.5137267 -0.06599705 0.13331552 0.053547367
0.7638121 0.05899689 0.17295912 0.024898222 -0.0031294648 -0.14229539 -0.20113987 -0.15215431
0.4839739 -0.16847415 0.010046969 0.043064136 0.1170747 -0.08580707 0.04059725 0.03606851
-0.049419392 -0.23615824 -0.2083174 0.32870424 -0.23402186 0.33074272 0.44936785 -0.11417677
0.09325616 -0.28972313 0.10876806 -0.1473285 0.010806097 0.09084298 0.47797877 0.070441015
0.13021775 -0.26280642 -0.32063627 0.29625577 0.05818791 0.40670845 -0.14146331 0.16335714
0.3301664 0.37609038 -0.19688855 -0.384333 0.4201215 -0.16361752 0.14656335 -0.12478672

network_body.observation_encoder.processors.0.dense.0.bias f4 [256]
00000000: fc72 01bd 1547 3f3d b92c 9c3d 3c71 013d
00000010: c885 843d feb6 903d 68bc be3d bd61 84bb
00000020: 5aac 973b 7bc1 923d 8ef5 2c3c 41ba 983c
00000030: 95af f7bc 4d49 b13d 0d7f 89bd 6df6 cd3c
00000040: c63c 793d 7f5d c1bd c1c2 cfbb f7a3 06bd
00000050: 449d ba3d 1bae cc3d 3571 c73c 70a8 043d
00000060: dfec 0c3d 0c3d 9ab7 0214 ae3d 6f91 263e
00000070: 5316 a63c 0e91 913b 2ac6 7b3d 81ed debb
00000080: 21d5 85ba 16c0 be3d 7a6e fc3b 842a f1b9
00000090: 6261 acbd 00eb 313d 24e2 f8bc 9812 0f3c
000000a0: 2e9b 2cbc c771 3d3d ae72 993c c285 90bc
000000b0: 4a3b 633d cc03 a0bc 6dd3 d23d f748 c33d
000000c0: 101c d9bb 1c0a 89bc 17ac 483d 35f6 983d
000000d0: 9f8d 853d de48 9a3d c025 6fbc 12a1 d2bc
000000e0: 404f 8a3b 2426 9b3d 68bd fe3c 5e4b 7d3d
000000f0: 38b3 c93d 8f01 b0ba cc80 513d 019f 833a
00000100: 7e6d a23d 08e8 58bb fade 003d 625a b13c
00000110: 3f72 883c 7b70 303d 99a8 d53d 4871 89bd
00000120: 5cbd 4c3d e7e0 b93c 7ccf 0f3c 359f b63c
00000130: 41fe 62bd 55ca a13c 6a98 bc3c b88d 41bd
00000140: da7b a13c a7c6 ba3d ab0e 353d 6b4c 24bc
00000150: 5e98 a2bc a618 b6bc 925d 8abc 2cc0 2b3d
00000160: a7b8 0a3d f208 01bc 7a99 b7bc 3734 853b
00000170: 06ed 133d 80ad b33c e57c b8bd c405 e0ba
00000180: bd3d 1b3d 2c3e 283d d200 bb3d 2f90 c73d
00000190: 4117 943c 2a89 c53c abc7 a7bc 8fa8 983c
000001a0: 4cd9 86bc 948c 8e3c fdf0 a53d 9897 63bd
000001b0: 9afd b73c 7b5a 343d 8151 373c 7cf9 373d
000001c0: 0557 af3c b7c5 903b 20a4 2f3d 3000 aa3d
000001d0: a33d 5d3c 91da c63d 8d07 1c3d 635f a5bd
000001e0: 4dc1 2abc 4983 80bc 21a6 a33d 8214 ce3c
000001f0: 9876 b0bb 7cbd 78bc 2c4c 1cbd 85a5 bdbc
00000200: 5189 2fbc c230 203c 9357 c53d ff33 0ebc
00000210: 82b7 bb3c e7bf 03bd 494e 103c 6621 953d
00000220: 8be4 823d eebc 043e a35e 8dbc 44a5 243b
00000230: 03cb a5b8 da64 d73d dda7 edbb c1c1 533d
00000240: a9b2 313c bb62 0bbc 3a6a 2bbd 56ff d3bc
00000250: 519f be3c ce72 4e3d 72e8 9e3c 9b91 cd3c
00000260: cffa 45bd 3540 48bc 1a15 c7ba 51c6 223d
00000270: 45c5 483d 9f05 7cbb cd48 f33c 2302 583c
00000280: fac1 973d 6831 773d 831c 683d 0ad7 59bd
00000290: 049b a13b be5b 07bd 2ffc 763d 88e1 b9bc
000002a0: 39bc c23c c60c ecbd 7109 e23c 4bf4 713d
000002b0: 7991 5b3d f951 683c 2812 55ba 51b0 553d
000002c0: 85a5 893d fe73 483d a466 72bd e1da 983c
000002d0: fe88 343d 5b90 823d a843 0dbc 0420 a7bd
000002e0: c88e 27bc b7e5 fb3b 244a 803d 3b21 2d3c
000002f0: 0d9b 593d 2fd2 503b c2bb 993c 0119 ad3d
00000300: afc9 173c 5d81 853d 4371 013d e172 9f3d
00000310: 2f99 11b9 a26f 463d 1d56 f83b 22cb 5e3d
00000320: ed01 733d 9e1a e23d 0885 873c 9f1e a0bd
00000330: 7be7 82bb 588a 843c 9957 63bc 33f6 47bd
00000340: 6054 ebba 4e00 933d d02f b53d 30f6 b23d
00000350: 4d88 063d 2a97 53bd 1505 093d 3749 dd3b
00000360: e95e 6bbd e1b3 4e3d 9721 f43c 4f49 cb3c
00000370: 46a2 1cbd 49c8 133d 8afe 9c3d 3945 8d3c
00000380: d93d a13d c31e 04bc 7f63 d3bc e80c 163c
00000390: 7259 d63c f281 1a3d 6a7d 583b 7ecb 22bd
000003a0: ebfc 4f3d 6a53 893c 7cd9 523b 6e15 0f3d
000003b0: a7cc c83b a245 9f3d 4fa8 ec3c 84be d5bb
000003c0: dc5d adbb fe9e 363b 2057 76bc b277 313d
000003d0: 1294 013d 4ade 92bc cfa4 6b3d bf60 503d
000003e0: 3a1c a53d 0111 9d3d 0c17 b43a 2cac 163d
000003f0: 6bfb 4f3d 8ba0 85bc a03c da3c c104 883d
-0.0316038 0.04669865 0.07625718 0.03160213 0.06470829 0.07066153 0.093132794 -0.0040399716
0.0046287 0.0716581 0.010556592 0.0186435 -0.030235091 0.08656559 -0.06713686 0.025141919
0.060848974 -0.09441661 -0.006340355 -0.032871213 0.09112027 0.099941455 0.024345974 0.032387197
0.034405585 -1.8386658e-05 0.0849991 0.16266416 0.020274317 0.0044423407 0.06146828 -0.006803215
-0.0010210612 0.09313981 0.0077035995 -0.0004599878 -0.08417012 0.043437004 -0.03038127 0.00873246
-0.010535045 0.046251085 0.018731441 -0.017641906 0.055476464 -0.01953306 0.102942325 0.09535401
-0.0066256598 -0.016728453 0.048992243 0.07468835 0.06521153 0.075334296 -0.014596403 -0.02571157
0.004220873 0.07575634 0.031096175 0.061839454 0.098486364 -0.0013428199 0.05114822 0.0010041894
0.0793104 -0.0033097286 0.031462647 0.021649543 0.01665604 0.04307602 0.10432548 -0.0671106
0.049985275 0.02269025 0.0087774955 0.022292713 -0.055418257 0.0197498 0.023021895 -0.047254294
0.019712377 0.09119921 0.04420344 -0.010027985 -0.019848045 -0.02222855 -0.01689032 0.041931316
0.033867504 -0.007875668 -0.02241205 0.0040650624 0.036114715 0.021933317 -0.09008197 -0.0017091562
0.037900675 0.041074917 0.09131016 0.09744298 0.018077495 0.024113256 -0.020480951 0.018635063
-0.016461037 0.017401017 0.081026055 -0.055564493 0.022459794 0.0440316 0.011188866 0.04491566
0.021403799 0.0044181007 0.04288113 0.08300817 0.013503465 0.09709657 0.03809314 -0.08074834
-0.010422063 -0.015687602 0.07990671 0.025156263 -0.005385231 -0.015181895 -0.03815858 -0.023150215
-0.010713891 0.00977725 0.09635844 -0.008679389 0.022914652 -0.032165434 0.008807727 0.07281761
0.06391247 0.12962696 -0.01725704 0.002512292 -7.905627e-05 0.10517283 -0.007252677 0.05169845
0.010845819 -0.008507426 -0.041849352 -0.02587859 0.023269327 0.050402455 0.019397948 0.025093844
-0.048334893 -0.012222339 -0.0015188784 0.03973991 0.049016256 -0.00384555 0.0296978 0.013184103
0.07410045 0.06034985 0.056667816 -0.053183593 0.0049318094 -0.033046477 0.060299095 -0.02269055
0.023771392 -0.11525874 0.027592393 0.059070867 0.05360553 0.0141797 -0.00081280107 0.0521701
0.067210235 0.048938744 -0.059179917 0.018659057 0.04407596 0.0637519 -0.008622088 -0.08160403
-0.010226913 0.0076872963 0.06264141 0.010567005 0.053126384 0.003186356 0.018766288 0.08452035
0.009264394 0.06518815 0.031602155 0.07785583 -0.00013885343 0.048446305 0.007578625 0.05439294
0.05932801 0.11040233 0.016542926 -0.078183405 -0.00399488 0.016179249 -0.013875865 -0.04881878
-0.0017954223 0.071777925 0.0884701 0.08738363 0.03284483 -0.051657833 0.033452112 0.0067531127
-0.05746356 0.050464515 0.029801173 0.02481523 -0.038240694 0.03607968 0.07665737 0.017244922
0.07873125 -0.008063975 -0.02580428 0.0091583505 0.026165698 0.03772158 0.0033033737 -0.039744847
0.05077831 0.016763408 0.0032173088 0.034932546 0.006127912 0.07776953 0.02888885 -0.0065229554
-0.00529073 0.0027865763 -0.015035421 0.04332704 0.03163535 -0.017928261 0.05753022 0.050873514
0.080620244 0.07669259 0.0013739779 0.03678529 0.05077688 -0.016311904 0.026640236 0.06641532

network_body._body_endoder.seq_layers.0.weight f4 [256, 266]
00000000: e170 82bd cd61 2d3c 8de7 af3d 3f32 ea3c
00000010: 0dd4 0abe 54b1 ca39 cc2a ad3c 41b7 9ebd
00000020: db02 eabc 1877 013d 23f6 4a3d 240d 2ebe
00000030: 4fdd 0fbe 9fb8 9ebd 84f1 c5bd 502d 043e
00000040: 07da 8cbd af97 99bd a875 993d f2ff d73c
00000050: 8479 25be bf4d b6bc b14b da3d b4b0 70bd
00000060: bd87 5bbe 6a29 82bd dfec 22be 3415 2fbc
00000070: 677b 1fbe f851 26be f5f7 af3d 1912 4e3d
00000080: 6fa7 f23c f896 dbbd 659e 0b3d 7e6f 5cbe
00000090: b11a 80bc 1aa0 703c 88e3 c2bd ed76 40bd
000000a0: 8fc5 92bd aace 30bd f2e4 a9bd 8fa8 ee3b
000000b0: 710f 24bd 614c d1bc 2124 c4bc 0458 d13d
000000c0: 0e9d 623b 7f78 3ebd 4c95 9dbd 7082 60bd
000000d0: 2e4d 8dbd e021 0e3e 9c51 24be 4713 923c
000000e0: f1b4 0d3e 54e1 ca3b 1fda 06be 622a 2bbc
000000f0: 88a4 df3d 9653 abbb 6f57 7c3d 7653 2d3e
00000100: 7770 8cbd 4b38 233d afc9 ebbc d7a4 23be
00000110: f016 cb3c 1cb1 d7bd 7c24 44bd 09a0 4fbc
00000120: 9dd3 c53c 3bfe 533c 53fc ebbc aa66 223d
00000130: ece6 93bd 3771 463c 3a2a 30be 6ed3 a13d
00000140: a78c 643c 92d7 c03d b609 cebc c046 6bbd
00000150: 5dbe 42bc 2f96 10bd c8f8 64bd 45b5 be3b
00000160: c7d8 cabd 5f62 97bd aab8 77bd e21b 9cbd
00000170: ed15 cc3d d2c3 283d 28c0 36bd daf9 e9bc
00000180: 58c6 87be 0413 0d3e a563 1c3d 4173 86bd
00000190: e986 143e b9ef da3d a1d0 0ebe c1e2 f63c
000001a0: 40f0 833d 4648 923c e542 42be 3943 5ebd
000001b0: f51c ce3b 5ac0 ddbd a095 ef3b 6526 8dbd
000001c0: e288 f03d 8423 363c 89c8 033e e3f8 913b
000001d0: b3ea 543c 5c46 92bc 175b 35be afd3 f83d
000001e0: 27ad f93d 6747 19bd 7e4a 6bbd b4e2 033e
000001f0: db37 173d 5a5e 533c e1e8 033d 28c7 b3bd
00000200: a509 01bc 330e dd3c 0295 07be 8417 29bd
00000210: 88f4 a2bd 545a 86bd be1a 0b3d c5d9 22be
00000220: 169a 15be f123 a73c 5280 f1bd 2010 fabd
00000230: bbb4 d93d 2363 3dbd 8130 d2bd b6d5 993d
00000240: de85 59bc be66 6c3b 8d5e 31be c423 1ebc
00000250: 5d0d b4be 9097 cdbd 86c2 063e 4105 623d
00000260: bdec 2cbd 4be5 a5bd 1026 94bd e322 273e
00000270: 018f e1bd 5305 85bd 8bf5 99bd 59b3 843c
00000280: 56d5 403a 54dd 413d 874f 163d b36c 2dbd
00000290: fdc7 7cbe 6181 2c3d 2199 84be b628 48be
000002a0: 0e74 d5bd 8ca1 c03c ef7c 2bbc 0078 16be
000002b0: d393 a63c a5a1 753d 674e 39be cd93 8b3a
000002c0: 8cbc 27bb 9c20 eabc 5b81 7f3c 7136 88bd
000002d0: 7e2a cabc 3eac 9cbc 6344 2eb9 9aab d13c
000002e0: e26f 44be 1f5b 2dbe 60bb 42be 2a85 ba3c
000002f0: b467 27be 2cb7 113b c86c f73c 7184 a0bd
00000300: cbea 843c c337 41bd e656 86bd 3c59 c4bd
00000310: 1fa3 02be f8cd d6bb 597d dcbd 2985 913b
00000320: 3470 e13c 6fe4 a43d 3451 fbbc aef5 57bd
00000330: 88ac c73d 18aa b5bd 6da0 083d e1ba 343d
00000340: ae3e 03bd 1584 72be 2d5c 02bd 6ed8 b4bc
00000350: 8ec2 02be 15f3 d43d f1e8 01bc 79eb 87bd
00000360: 80e3 b0bd 9bb8 08be a3d0 cd3d 2047 683d
00000370: ae46 b43d 8cff 333d bfef fb3c 98e3 21bd
00000380: 5e80 bebd 645a c2bd e9f0 b3bc fc88 57bd
00000390: 361e 953d 2fd7 c13b 6ad2 303d 6c83 99bd
000003a0: aeb4 9dbd 5093 d5bc 2433 213d 4ea8 4dbe
000003b0: 3b5c 88bd 6de3 8d3d 008f ddbd 5e2d bfbd
000003c0: 5333 3bbc adc8 5abd 0322 4fbd 0388 57be
000003d0: 9db1 2abe ede9 8c3c f7c4 ad3d d730 b03d
000003e0: 8986 2ebb 5884 adbd 7974 de3d 5868 2a3d
000003f0: 5a65 623d 7353 133b 9ce6 14be aa27 d03b
-0.06369186 0.0105824 0.08589087 0.028588412 -0.13557453 0.00038660562 0.021138571 -0.07749797
-0.028565815 0.031607717 0.04955114 -0.169972 -0.14049266 -0.077500574 -0.09665206 0.1290791
-0.06877523 -0.074996345 0.07493144 0.026367161 -0.16159636 -0.02225387 0.10658968 -0.058762267
-0.21438499 -0.06355555 -0.15910672 -0.010686208 -0.15574418 -0.16242206 0.08592216 0.050310228
0.029620854 -0.107221544 0.034086604 -0.21526906 -0.015637727 0.014686609 -0.095160544 -0.046988416
-0.071665876 -0.04316584 -0.08295621 0.0072832773 -0.04005379 -0.025549116 -0.023943009 0.10221866
0.0034578475 -0.046501633 -0.07694492 -0.054811895 -0.068994865 0.1388011 -0.16046757 0.017831458
0.13838555 0.006191412 -0.13169144 -0.010447117 0.10920054 -0.00522847 0.06160682 0.16926369
-0.068573885 0.039848607 -0.028782694 -0.1598085 0.02479121 -0.10531828 -0.047886357 -0.012672433
0.024148757 0.012939031 -0.028806841 0.03964869 -0.07221779 0.012111953 -0.17203608 0.07901655
0.01394955 0.09416117 -0.025151115 -0.05744052 -0.011886206 -0.035299476 -0.05590132 0.005819949
-0.09904628 -0.0739181 -0.060478844 -0.07622506 0.099651195 0.041202374 -0.04461685 -0.028561521
-0.26518512 0.13776785 0.038180966 -0.06564952 0.14504589 0.10690255 -0.13946773 0.030137422
0.064423084 0.017856728 -0.1897083 -0.054263327 0.006290073 -0.10827704 0.007311538 -0.06892089
0.11744858 0.011116866 0.12869467 0.0044547184 0.01299541 -0.017855816 -0.1771053 0.121497504
0.12191229 -0.03742161 -0.05744409 0.12879449 0.036918502 0.012900913 0.032204513 -0.087782204
-0.007875835 0.02698431 -0.13240436 -0.041282192 -0.07956797 -0.065601975 0.03396105 -0.15903385
-0.1460956 0.02040288 -0.11792053 -0.12210107 0.10630175 -0.046237122 -0.10263158 0.07511465
-0.013276545 0.0036071981 -0.17321225 -0.009652082 -0.35166445 -0.10038674 0.13160142 0.05518079
-0.04221796 -0.08100375 -0.07233822 0.16321902 -0.11013604 -0.06495156 -0.07517537 0.0161988
0.0007356008 0.047330216 0.036696937 -0.04233999 -0.24685664 0.042115573 -0.25898078 -0.1954678
-0.10422526 0.023514532 -0.010466798 -0.14694214 0.02033416 0.05996861 -0.18096314 0.0010648906
-0.002559456 -0.028580002 0.015594806 -0.06651009 -0.024678465 -0.0191251 -0.00016619409 0.025594521
-0.19183305 -0.16929291 -0.1901679 0.022768576 -0.16348153 0.0022234423 0.030203238 -0.07837761
0.01622524 -0.04717232 -0.06559543 -0.095873326 -0.12757538 -0.006555315 -0.10766096 0.0044409228
0.027519323 0.08051383 -0.03067837 -0.052724533 0.097497046 -0.088703334 0.03335612 0.044123534
-0.032042198 -0.23683198 -0.031826187 -0.022075858 -0.12769529 0.10397927 -0.007929073 -0.0663671
-0.08637142 -0.13351671 0.1004956 0.056708455 0.088025436 0.04394488 0.030753968 -0.03952369
-0.09301828 -0.09489897 -0.02196546 -0.052620873 0.07281153 0.0059155445 0.043169416 -0.0749577
-0.077004775 -0.02607122 0.039355412 -0.20083734 -0.066582166 0.06928144 -0.10818291 -0.09334825
-0.011425811 -0.053414036 -0.050569545 -0.21047978 -0.16669317 0.017201388 0.08484834 0.086030655
-0.0026630482 -0.08472508 0.10862059 0.041603416 0.055272438 0.002248016 -0.14541095 0.0063523846

network_body._body_endoder.seq_layers.0.bias f4 [256]
00000000: 72f6 e4bc ee6c 363c 2309 1d3c dbc8 2bbb
00000010: 6c9f 683c 1008 183d 7ec0 373a d528 b13c
00000020: cbd3 b63b 6d83 3c3c fc67 f23c 2a37 e3bc
00000030: 0be5 593c c768 8b3b 9c5d 643c 6bfd 2ebd
00000040: 2eaf 033d a360 d1bc 685a 513c 0021 eb3b
00000050: 2cb4 853c 2fe9 833c 9830 183c 5a3b fa3b
00000060: 2edc 20bc cb97 313c f919 4dbc 928c 5b3b
00000070: 2050 ca3b 2b41 cbba 0b5f 8f39 590d 18bc
00000080: 6d2e 24bb 9533 a83b 3003 9ab9 353a 333c
00000090: 61a4 7b3c 6d0d 97bc 4eab 3a3c daf5 a3bc
000000a0: f892 07bc 06ee 66bc 6bad c23c 40a4 103d
000000b0: f28f c13b 0436 f53c 962f 66bc cf61 613b
000000c0: df87 fabd 7f78 813c 616d f63b c6d9 b83c
000000d0: b5e9 b63c b8b3 643c 2543 0bbc 08be 7b3c
000000e0: 61ee 123d ffb6 953c ae40 893c b39e 83bc
000000f0: 6bb4 aa3b f865 4cba 83f9 6cbc fe25 b83c
00000100: 3a20 fdbb e0a7 88bc 2e9c 813c 2d95 a2bc
00000110: 715b 033d ef14 043d 5235 4b3c 639b afbc
00000120: d6d9 663b d62f ac3a 586b 17bc 4d94 80bc
00000130: a123 103d 44fa 8dbc 9a31 14bc de7f 603c
00000140: f4c3 a83c 9eb8 973b 7d48 6b3c 57c8 51b7
00000150: a00f 35bc fc4c b6bb ccb1 b5bb 9d43 6cba
00000160: d4e0 0c3d aa97 82bc d047 c8bc d2fa 663c
00000170: d0e3 263d 9049 84bb 75f9 093c 7544 a53c
00000180: 2d72 723b 2a7c 1d3d 43e7 523c 96a8 22bc
00000190: 08f9 1bbc 0444 b23c c97e de3b 58d1 723b
000001a0: 9f71 1d3b 65f8 c73c 14a4 be3c 30cf 493d
000001b0: 6515 b23c 4d46 983b b86a 063d 3ccc 073c
000001c0: 9ef7 17ba dbb8 0c3d 037b 38bb 6d7e bd3c
000001d0: bb85 963c be15 9b3b 4abf da3c 0d11 62bb
000001e0: 3887 0e3b ebb2 bb3c f5a9 7e3c ba33 f53c
000001f0: 03e4 f33c 4065 ea3c d71f dbbc c4ce 193d
00000200: c48d 6ebc fd99 1dbd 14ba 1abd 92f3 a73b
00000210: d612 e83c 1f5b 26bc 6567 1ebc ddfa a2bb
00000220: 067e d2bc f5ab 6a3c 0fd1 743c 15ba c33c
00000230: baa4 72bc b0a9 42bc 32ea 54bb 0000 e6bb
00000240: e957 e2bb 043d fb3c 8095 41bc 1aef 88bc
00000250: be1c 81ba 188a 903c 3ccd b4bb 7e8a 023d
00000260: 600a 6abc 403d cdba 0bd0 0cbb 27d3 2f3a
00000270: 2206 0e3a 9971 413d 321c ebbb b228 9eba
00000280: f399 b5bb 5c44 a338 a27b f53b 8f31 d63c
00000290: 6c60 e93c 74a4 ea3c 9d14 3c3c 2d1f 55bd
000002a0: b9c8 003c 079f d3bb 33ee 67bc 212a 91bc
000002b0: 5b23 ddb9 517d 00bd 0dcb fc3c dfed 983c
000002c0: 7ee7 0f3c a88f 2d3c 325e efbb c701 14bd
000002d0: 907b 0c3c 77e2 10bc 501d 443c 4804 083c
000002e0: 01b3 4f3c bb1c 49bb 5581 6a3c 82b1 4a3c
000002f0: 06c1 a33c 4995 6ebc df61 0e3c 541b 133d
00000300: 19ef 7abc a20e 23bc 978a edbc b732 60bc
00000310: 1fde 2b3c e8cc 663c 08ad 17bb b997 943c
00000320: 2fd3 cebb eb7f b93b ce40 afbc 44bb 843c
00000330: c528 e93b b998 2b3b eb35 1b3c bbd8 913c
00000340: b02e 113d 2c6f 093b 4a0d dbbc e1d8 4cbc
00000350: cb10 573c e438 253c d46d 91bc f879 b23c
00000360: b6d5 1d3d 6cbc b93b 0360 f53b 0fdc 673c
00000370: 7438 343c 2ef0 f13c e8ef a33a 404d 4abc
00000380: da62 313c bd83 3f3c d23b af3c e661 033c
00000390: 8019 393d 8f7e 50bd 7ae6 b9bb e23b 103d
000003a0: cb63 8e3c 308d ba3c 614c ea3c 131e 6abc
000003b0: f788 02bc be82 8b3b 4731 053d 516b c23c
000003c0: cad4 903b d82b c73b 83ff 0d3d d64d dfbc
000003d0: a7a9 a73c 7b7f abbc 7838 b13c fe9e db3c
000003e0: 2b97 883c 7e24 02bd 3aee 293c d8bf 4a3c
000003f0: 5496 033b a80c 633c f4b8 a83c 562a 9a3c
-0.027949546 0.011134369 0.009584698 -0.0026212248 0.014198165 0.037117064 0.00070095796 0.021625916
0.005579447 0.011505944 0.0295906 -0.027736265 0.013299237 0.004254434 0.013938334 -0.042722147
0.032149486 -0.025558775 0.012777902 0.0071755648 0.016321264 0.016102402 0.009288929 0.00763647
-0.00981812 0.010839413 -0.012518399 0.0033500534 0.0061741024 -0.0015507092 0.00027345898 -0.009280526
-0.0025052086 0.005133102 -0.00029375544 0.010939171 0.015359015 -0.01843902 0.011393381 -0.020014692
-0.008274786 -0.014094835 0.023764333 0.03531289 0.005907052 0.029932983 -0.014049431 0.0034390574
-0.122329466 0.015804527 0.007520363 0.02256478 0.022328237 0.013958864 -0.008499895 0.015365131
0.035871867 0.018275736 0.016754474 -0.016066885 0.005209496 -0.0007797177 -0.014463785 0.022479054
-0.007724789 -0.016681612 0.015821543 -0.019846523 0.032069627 0.032246526 0.012402849 -0.021436399
0.0035225055 0.0013136815 -0.009241901 -0.015695715 0.03519023 -0.01733125 -0.009045029 0.013702361
0.02060125 0.0046301624 0.014360544 -1.2504016e-05 -0.011051089 -0.0055633765 -0.0055448767 -0.0009012761
0.0343941 -0.01594146 -0.024448305 0.014097886 0.040744603 -0.0040370896 0.008421292 0.020174244
0.0036994324 0.03844849 0.01287252 -0.009927889 -0.009519823 0.021760948 0.0067900163 0.0037051048
0.0024024022 0.024410436 0.023271598 0.049269855 0.021738717 0.0046470524 0.03281662 0.008288439
-0.00057970907 0.03435598 -0.0028149493 0.023131574 0.018374315 0.0047328165 0.026702542 -0.0034495026
0.0021748077 0.022912463 0.015543451 0.029931892 0.02977181 0.028612733 -0.02674858 0.037550703
-0.014560167 -0.038476933 -0.037775114 0.0051254714 0.028329294 -0.010153561 -0.009668206 -0.004973753
-0.025694858 0.014323224 0.014942422 0.023892442 -0.014809782 -0.011881277 -0.0032488224 -0.007019043
-0.0069074524 0.030668743 -0.011815429 -0.016715575 -0.0009850485 0.017643973 -0.00551763 0.031870358
-0.0142847 -0.0015658513 -0.0021486308 0.00067071844 0.0005417784 0.047227476 -0.007174992 -0.0012066572
-0.005542034 7.7851786e-05 0.007491545 0.026146678 0.02848836 0.02864287 0.011479524 -0.052031685
0.007860356 -0.0064581665 -0.014155912 -0.017720284 -0.00042178747 -0.03136951 0.03085854 0.018668113
0.008783219 0.010593332 -0.00730493 -0.036134508 0.0085743815 -0.008843056 0.011969879 0.008301802
0.012676955 -0.003068729 0.014313062 0.012371423 0.019989502 -0.01456196 0.0086903265 0.035914734
-0.015315794 -0.009952219 -0.028996749 -0.013683966 0.0104899695 0.014086939 -0.0023143906 0.018138753
-0.006311796 0.005661001 -0.021393206 0.016202576 0.007115456 0.002618356 0.009473304 0.01780354
0.035444915 0.0020970805 -0.026739735 -0.01250288 0.013126562 0.010084365 -0.017752565 0.021786675
0.03853389 0.0056682136 0.007488252 0.014151587 0.010999788 0.029533472 0.0012507411 -0.012347519
0.010826791 0.011689124 0.02139083 0.008018946 0.045190334 -0.050901946 -0.005673227 0.03521336
0.01738157 0.022772402 0.028600873 -0.014289397 -0.007967225 0.004257529 0.032517698 0.023732813
0.0044198977 0.0060782246 0.034667503 -0.027258795 0.020466639 -0.02093481 0.021633372 0.026809212
0.016673645 -0.031773083 0.010371739 0.012374841 0.0020078616 0.013857998 0.020596005 0.018819015

network_body._body_endoder.seq_layers.2.weight f4 [256, 256]
00000000: f7ba cabd 68f2 aebd 3a72 d23c 8c0c 403d
00000010: 0dcd cdbd ec1d f63d 9955 94bd 45f8 643d
00000020: 5058 5ebd 5d9d f9bd 7b47 a33d ef2f 603c
00000030: 369d 033e 9286 f43b 896a febc 898b 32bd
00000040: 4085 613d 0d71 c0bc 2c66 8dbd b394 8e3d
00000050: b469 ab3d 94b0 8cbb 8276 983c cf5f 49bd
00000060: 03fd 43bc 5161 28bb c0fd 63bb b73b 023e
00000070: ac91 9c3d d532 f33c 02aa 3c3c 2980 8fbb
00000080: 8aca 833d 213c 5d3d 7759 24be b590 493d
00000090: 0a2f d53d 6f18 553d 05bd c43b ea23 fdbd
000000a0: f7c2 953d 280d 45be 4828 06be 437a 823d
000000b0: 0685 25bc b69e 0e3d 232d 2ebe 6881 9abc
000000c0: b173 babd 0231 453e 7eb3 b6bd 093a 1c3e
000000d0: 3e67 253d 7e28 283c 8b71 0b3d 322f 27bc
000000e0: 6b18 da3c 09c1 ab3d 4a3b cabd 492a 44bd
000000f0: 30aa ee3d a1e7 47bd 789f efbd 1846 243e
00000100: 90a2 183e 35ae dabc d949 713d c89d 77bd
00000110: e881 cdbc e1b1 4abe b1b6 da3d 1019 12be
00000120: ba7c 9b3d b762 013e 702d 67bc 7915 0fbc
00000130: 75e2 743c cd4b fa3c 8286 3f3e 3b62 473e
00000140: 6e9c f73d f669 fc3c 9ee1 4dbc c9ea 5a3c
00000150: 79c2 803d 9a24 73bd 09d4 253e deca 28bd
00000160: ae5f 113e f238 83bd ccfd 12bd a406 01bb
00000170: a53e b7bd 6acb 0ebe ab5b 873c 064b f4b8
00000180: 1e77 a43a 145b 293d d974 693d fb24 873d
00000190: fe6e 5fbd fc1a dcbd 25ef 80bd 6f9d 97bd
000001a0: eb44 723d b6c3 843e 8473 1cbe b939 0ebc
000001b0: dc77 973d f91e 0abe e3e1 14bd d3c9 e1bd
000001c0: 9a83 353e 1b51 773e 6fed 823d 3027 3dbe
000001d0: aa49 093c 4c54 b13d 3a6e 7cbc 44f3 cbbd
000001e0: 5b6a 79bd 0f09 733c 26c4 033e 517a a93d
000001f0: cfc2 08bd 663c 7d3d 28f5 253c 7625 cb3d
00000200: dd09 333c 9b56 3abd d394 8f3c 5dea 80bd
00000210: c695 e83d c171 0fbe 5276 afbb 01fc 0e3d
00000220: 153f 4a3c 6bc8 40bd 6fbb 01be de8a b53d
00000230: 29e3 febd e982 3cbe ce15 c33d 0d39 f1bc
00000240: f710 ba3d 7b30 a3bd b1f3 e8bd 596f 1c3d
00000250: b39a 083d 0226 203e c767 3e3d 5b02 063e
00000260: 8ca1 d13c 4189 5abd 3c27 9f3d c6c2 8a3d
00000270: 29e1 913d 535e 073e 4978 30be 94a0 08be
00000280: 5f10 4c3d abff 333e e90b d03b 10a9 0b3c
00000290: 712c 06bd 3be6 813c 1410 ae3d 8e69 fcbd
000002a0: 648e 4e3c 504f ef3a 47c4 bbbd 6c53 3abd
000002b0: 0a8a 593c 3dd5 05bd b643 d33d 6ab4 6d3b
000002c0: 0663 083c 4b96 07be 0909 fa3d f46d 013d
000002d0: 1019 3e3a 5551 a63c 6c73 c5bd 2416 113d
000002e0: e52c 4eba bbbe 94bd 6895 3c3e 429a c03d
000002f0: ed8a ee3c a7c2 03be 5605 653d a1a8 bf3d
00000300: e82a e83c abac 38be 4773 19be 80d3 53bd
00000310: a6e6 0dbe f8a9 cdbc 2210 febd 395c 043d
00000320: 91f5 61be 51d4 43bd 0ddb 6abc b7f3 2f3e
00000330: 2072 2ebe b104 47bd d500 863d 8602 24be
00000340: e5ce fabd 81ec 92bc bf1b f73d d7a0 cbbd
00000350: 0e7c c33d 4ea8 03bc 4e01 a03c bbdb 543c
00000360: 09f5 713e d819 f83d c474 033e 89a5 613d
00000370: c18f 593e e558 80be d2d6 b23d be14 023d
00000380: 5462 0c3e 4125 fb3c 2b02 cf3d 8ae1 a43d
00000390: ed85 483e 9884 c4bd cf34 16bc 3c07 1d3d
000003a0: 3a02 d53c 180b 8b3d 75a4 d7bb 8a81 1d3c
000003b0: 35f4 d9bd 6640 2abc f452 0bbd ace5 233e
000003c0: a6bf 953d 89db fb3c d02e 0dbe ffad b2bd
000003d0: 7068 b8bd 6ddd 9cbd afbc d33d 6030 9cbd
000003e0: 8fd8 7c3c 4a18 ffbd 8d3b 17bd 2fbe 89bc
000003f0: 32a4 cdbd 2a23 963d ec54 173c 6cf9 df3c
-0.09898942 -0.08542329 0.025689233 0.046886966 -0.10048876 0.12017426 -0.07242889 0.05590083
-0.05428344 -0.12188218 0.07972618 0.013683303 0.1285294 0.007462331 -0.03105666 -0.043590102
0.055058718 -0.023491407 -0.06904253 0.06961956 0.08369771 -0.0042935107 0.018611196 -0.049163636
-0.011962178 -0.002569277 -0.0034788698 0.12718092 0.07644972 0.029687325 0.011515142 -0.0043792916
0.06435116 0.05401242 -0.16049753 0.04921027 0.104093626 0.052025255 0.006003978 -0.12360366
0.07312577 -0.192433 -0.13101304 0.06370976 -0.010102516 0.034819327 -0.17009406 -0.018860534
-0.09104098 0.19256976 -0.08920954 0.15256514 0.040381663 0.01026356 0.03404383 -0.010204123
0.026622972 0.08386428 -0.0987459 -0.04789189 0.116535544 -0.048804883 -0.11700338 0.16042364
0.14905763 -0.026694397 0.058908317 -0.060453206 -0.025086358 -0.19794418 0.10679377 -0.14267373
0.07592149 0.12635313 -0.014109954 -0.008733147 0.01494657 0.030553723 0.18703654 0.19471066
0.120903835 0.030812245 -0.012565998 0.013361641 0.06287093 -0.059361078 0.16194166 -0.041209094
0.14196655 -0.06407346 -0.03588657 -0.0019687796 -0.08947495 -0.13944784 0.016523203 -0.00011648801
0.0012547707 0.041346624 0.0569962 0.0659885 -0.05454921 -0.10747334 -0.06295613 -0.07403075
0.059147757 0.25930566 -0.1527844 -0.008680754 0.07395908 -0.13488378 -0.036348235 -0.11024823
0.17725983 0.24152033 0.06392943 -0.1847198 0.008379379 0.086586565 -0.015407139 -0.099585086
-0.060892444 0.014833703 0.12867793 0.08275283 -0.03338891 0.06182518 0.010129251 0.099192545
0.010927645 -0.04549275 0.01752702 -0.06294701 0.11356692 -0.14008237 -0.005354681 0.0349083
0.0123441415 -0.047066133 -0.12669156 0.088643774 -0.12445671 -0.18409313 0.09525643 -0.02944615
0.09085267 -0.07968231 -0.113746054 0.038192127 0.033350658 0.15639499 0.04648569 0.13086836
0.025589727 -0.05335355 0.07771155 0.06775431 0.07123024 0.13219576 -0.17233385 -0.13342506
0.0498203 0.17577998 0.006349076 0.008524194 -0.032757226 0.015856853 0.084991604 -0.123248205
0.012607191 0.001825789 -0.09168296 -0.045489714 0.01327754 -0.032674063 0.10315649 0.0036270865
0.00832439 -0.13240926 0.122087546 0.031599 0.00072516594 0.020302454 -0.096411556 0.035421506
-0.0007864966 -0.072629414 0.18416369 0.09404422 0.02911898 -0.12867223 0.055913292 0.09358335
0.028340772 -0.18034618 -0.14985381 -0.051715374 -0.13857517 -0.025105461 -0.12405421 0.032314513
-0.22066332 -0.047809903 -0.014334452 0.17182814 -0.17035723 -0.04858846 0.065431274 -0.16016588
-0.12246493 -0.01793504 0.12065839 -0.09942787 0.09545146 -0.008035732 0.019531872 0.012991841
0.2362863 0.12114304 0.12837511 0.055089507 0.21246244 -0.2506782 0.0873238 0.031758063
0.13709384 0.030657412 0.101078354 0.08050831 0.19582339 -0.09595603 -0.009167864 0.038336977
0.026002038 0.06789225 -0.006580884 0.009613404 -0.10642282 -0.01039133 -0.034014657 0.16005582
0.07311945 0.030744331 -0.13787389 -0.08724593 -0.09004295 -0.07659421 0.10338723 -0.07626414
0.015432491 -0.12455805 -0.036922026 -0.01681432 -0.100410834 0.07330926 0.009236556 0.027340613
