results/PushBlockCollab_PPO/PushBlockCollab/PushBlockCollab-14499974.onnx (onnx, 643240 bytes, 12 tensors)

network_body.observation_encoder.processors.0.conv_layers.0.weight f4 [16, 6, 8, 8]
0.021932237 -0.055637952 0.07908736 0.095244735 0.089940794 0.0050666565 -0.0678968 -0.029826334
0.009338475 -0.09808692 0.042382568 0.08271913 0.1507118 0.10228195 0.032500032 -0.059602953
0.014886842 -0.06343724 0.058313902 0.012845584 -0.015024321 -0.077496506 -0.054556094 -0.21125628
-0.008194941 -0.05999421 -0.10427022 -0.029705657 -0.080564216 -0.10058186 -0.054293692 -0.2532005
0.03519258 -0.03162726 -0.031614855 -0.03906724 -0.017594643 -0.042295303 0.01283553 -0.049030736
-0.090758525 -0.017167503 -0.020464655 0.048998024 0.01790311 0.084540255 0.06759113 -0.10314382
0.014537887 0.011592498 -0.078861885 -0.018200545 -0.027046302 0.0033778641 0.10779402 -0.13183647
0.027876193 -0.060901534 -0.07893206 0.08419752 -0.020987194 -0.023007594 -0.035508893 -0.2834102
-0.06385801 0.018376742 -0.060298763 -0.08553152 -0.035245236 0.16205657 0.006648909 0.030984426
-0.04942403 -0.11334784 -0.15075415 -0.054302424 -0.09120816 0.18561411 0.15120721 0.056828845
-0.008319604 -0.04914524 -0.03540508 -0.03265104 0.0704385 -0.0040657045 0.24703506 -0.08616326
-0.07173056 -0.038808003 -0.02155977 0.07193769 0.068762705 0.00702972 -0.10883248 -0.2138325
-0.15977727 0.0124291545 -0.11392356 -0.038996905 0.0010823502 -0.16405828 -0.010955985 -0.08333104
0.017192084 0.06683267 0.057705615 0.017864972 -0.006508495 -0.061945997 -0.13425565 -0.0021643739
-0.13138008 0.06396911 -0.009265538 0.051329516 -0.05360856 -0.084909424 -0.15790942 -0.047759417
-0.1302863 0.046594754 0.023065135 0.14462678 0.044932373 0.094945006 -0.17435399 -0.13402288
0.05463127 0.037162878 -0.052223254 -0.037746698 -0.02133193 -0.13763328 -0.07599628 -0.020532517
-0.080049984 0.03824796 0.026732668 -0.02205287 0.00016074468 -0.1335961 -0.050373703 0.027253324
-0.0038336401 0.026204206 -0.04498266 0.013369292 0.008318652 0.01836551 -0.046373047 0.01889219
-0.022245986 -0.013648437 0.06232194 -0.020698065 -0.05177169 0.012907421 0.016251197 0.028005838
0.0010334029 0.09324273 -0.0042127096 -0.010995349 0.058125686 -0.027796403 0.007885706 0.005416648
0.018226994 0.070213646 -0.03797842 -0.024198847 -0.031562287 -0.03414913 -0.018773219 -0.035467416
-0.04814909 -0.04330034 -0.006233337 0.027623773 -0.008590658 -0.0668115 -0.007247799 0.028994719
-0.008058376 0.056744605 0.03439752 -0.048650723 0.04951295 0.026621934 0.0127912015 -0.023262242
-0.00047906206 -0.14532818 -0.04645873 0.0235091 -0.041166734 0.05169192 0.018572666 -0.03823693
0.04895899 -0.09599345 -0.078753516 -0.08254484 0.02497237 0.037467252 -0.039945625 -0.030642506
0.11095188 -0.06306171 -0.042613734 0.1320951 0.24555162 0.050924852 -0.074222095 0.14690162
0.0045274524 0.022058675 0.038773008 -0.029215835 0.018734148 0.05636384 -0.068076104 0.09882834
0.025816496 0.049296282 -0.004831552 0.075764686 0.14892033 -0.03888898 0.048379898 0.017353358
-0.0031105084 -0.008095466 0.08264072 -0.02800843 0.07857269 -0.007379446 -0.054751214 0.09748203
0.06955893 -0.07606176 0.047380358 -0.0046556946 0.14197278 0.11981659 -0.0016359938 -0.036940422
-0.0005611881 -0.08318991 0.0017631712 0.12954193 0.21487848 0.074006945 -0.039104745 0.10972687
00000000: 3cab b33c 9fe4 63bd 8ef8 a13d ac0f c33d
00000010: e132 b83d 3206 a63b 7a0d 8bbd 5b56 f4bc
00000020: 6700 193c cce1 c8bd 5899 2d3d a668 a93d
00000030: 3254 1a3e 3379 d13d c11e 053d 3a22 74bd
00000040: f1e7 733c 62eb 81bd 8fda 6e3d 4976 523c
00000050: 9228 76bc 7db6 9ebd 3676 5fbd 9153 58be
00000060: 1344 06bc 7dbc 75bd a08b d5bd 4759 f3bc
00000070: dafe a4bd ddfd cdbd 1063 5ebd 7fa3 81be
00000080: 1826 103d 968b 01bd 947e 01bd f804 20bd
00000090: a422 90bc d73d 2dbd 1d4c 523c 74d4 48bd
000000a0: 9bdf b9bd dda2 8cbc 7ea5 a7bc 27b2 483d
000000b0: 8ba9 923c 7123 ad3d 386d 8a3d 113d d3bd
000000c0: 5130 6e3c 76ee 3d3c 5782 a1bd 4f19 95bc
000000d0: 3590 ddbc 285f 5d3b 1cc3 dc3d 2400 07be
000000e0: 9d5c e43c e373 79bd 22a7 a1bd c06f ac3d
000000f0: 56ed abbc 6c7a bcbc c671 11bd 241b 91be
00000100: fdc7 82bd d28a 963c d6fb 76bd 262b afbd
00000110: 4f5d 10bd 28f2 253e 17df d93b 0dd3 fd3c
00000120: da70 4abd ea22 e8bd 4c5f 1abe 386c 5ebd
00000130: 58cb babd a011 3e3e 10d6 1a3e 5dc5 683d
00000140: f34e 08bc 854c 49bd eb04 11bd 19bd 05bd
00000150: 0f42 903d 9a39 85bb c2f6 7c3e 5d76 b0bd
00000160: 79e7 92bd 24f5 1ebd 1d9e b0bc 1154 933d
00000170: 76d3 8c3d 9159 e63b 90e3 debd e8f6 5abe
00000180: a79c 23be a7a3 4b3c c150 e9bd 38bb 1fbd
00000190: a5dd 8d3a e5fe 27be bb80 33bc 77a9 aabd
000001a0: 6ad6 8c3c 91df 883d b95c 6c3d 9059 923c
000001b0: 3745 d5bb 16bb 7dbd 507a 09be 2bd8 0dbb
000001c0: 8088 06be 3d02 833d 7cce 17bc e63e 523d
000001d0: a694 5bbd fee4 adbd 02b3 21be 619f 43bd
000001e0: c669 05be 24da 3e3d 18f3 bc3c 0b19 143e
000001f0: 020b 383d 8772 c23d da89 32be 4b3d 09be
00000200: 0ac5 5f3d 1a38 183d 0de8 55bd 489c 1abd
00000210: 4dc0 aebc bdef 0cbe f0a3 9bbd cf33 a8bc
00000220: 3ff1 a3bd e5a9 1c3d 78fe da3c 38a8 b4bc
00000230: 928d 2839 6bcd 08be a854 4ebd 5d42 df3c
00000240: cf3d 7bbb 34aa d63c bd3f 38bd e00a 5b3c
00000250: f54a 083c 4473 963c aaf1 3dbd cbc3 9a3c
00000260: 373d b6bc b29d 5fbc 4a45 7f3d fd8e a9bc
00000270: 8d0e 54bd a679 533c 3b21 853c 806c e53c
00000280: 3f73 873a 0bf6 be3d c50a 8abb d625 34bc
00000290: 3315 6e3d 48b5 e3bc 0c33 013c 237e b13b
000002a0: c750 953c 2ccc 8f3d 428f 1bbd a93c c6bc
000002b0: 7547 01bd f5df 0bbd 4bca 99bc 4846 11bd
000002c0: fb37 45bd b35b 31bd 0541 ccbb 404b e23c
000002d0: d5bf 0cbc 78d4 88bd f27e edbb 5586 ed3c
000002e0: 4707 04bc 086d 683d 6ae4 0c3d fb45 47bd
000002f0: 17ce 4a3d 3e16 da3c 3092 513c 7590 bebc
00000300: 9f2a fbb9 e9d0 14be 824b 3ebd 2896 c03c
00000310: 739e 28bd e8ba 533d b425 983c 549e 1cbd
00000320: 3989 483d 3798 c4bd 8649 a1bd 450d a9bd
00000330: db92 cc3c 4377 193d 069e 23bd fe05 fbbc
00000340: bd3a e33d 7f26 81bd bd8b 2ebd f043 073e
00000350: e271 7b3e 9496 503d c101 98bd 616d 163e
00000360: 065b 943b 65b4 b43c 72d0 1e3d 0c56 efbc
00000370: 5b78 993c c5dd 663d 7c6b 8bbd 8366 ca3d
00000380: 1e7d d33c e6ea 493d ff51 9ebb 842a 9b3d
00000390: 927e 183e 0d4a 1fbd 002a 463d a128 8e3c
000003a0: acd9 4bbb d8a2 04bc 8a3f a93d ef71 e5bc
000003b0: b8ea a03d 48cf f1bb cf42 60bd a9a4 c73d
000003c0: ea74 8e3d 45c6 9bbd e811 423d cc8e 98bb
000003d0: 5061 113e 6662 f53d d86e d6ba d74e 17bd
000003e0: b21c 13ba 795f aabd 351a e73a a4a6 043e
000003f0: 1b09 5c3e f490 973d 4c2c 20bd 7bb8 e03d

network_body.observation_encoder.processors.0.conv_layers.0.bias f4 [16]
-0.109963715 -0.028927062 -0.04176971 -0.06664094 -0.0425492 0.061724864 -0.039548185 -0.018928997
0.067693844 -0.0337151 -0.08366594 -0.0024286045 -0.05859225 -0.0009315566 -0.043299124 -0.06371821
00000000: a834 e1bd 72f8 ecbc b716 2bbd 0c7b 88bd
00000010: 1248 2ebd 36d3 7c3d 47fd 21bd fc10 9bbc
00000020: 12a3 8a3d d818 0abd 0c59 abbd 3929 1fbb
00000030: 6dfe 6fbd b533 74ba 6c5a 31bd b17e 82bd

network_body.observation_encoder.processors.0.conv_layers.2.weight f4 [32, 16, 4, 4]
0.0468872 -0.10054091 0.07162365 0.050310392 -0.09548498 -0.019298894 0.12949146 0.0043787262
0.18611139 -0.06720591 0.041211005 -0.009051601 0.017513864 0.07227354 -0.04757247 -0.118865214
-0.0047480376 -0.2045899 -0.14856339 0.11848511 0.094024085 -0.06681184 -0.103250176 -0.081118606
0.04616878 -0.051605526 -0.052699983 0.040002886 0.06289968 0.049167935 -0.012831845 0.08509784
0.0845336 -0.04040264 -0.1548902 -0.01125184 0.08323841 -0.00613417 -0.035549864 -0.11342914
0.04235739 0.019698504 -0.17282458 -0.009402626 0.14972825 -0.02101366 -0.077312335 0.04163338
-0.07100136 0.029625101 -0.011205604 -0.080831654 0.1196645 -0.13272986 -0.03162892 -0.12322244
0.108845964 0.03925174 0.0034472882 0.07959672 0.02895568 -0.018494477 0.008065216 0.029491011
0.053346835 -0.03563261 0.018796464 -0.10417123 -0.059270874 -0.0016366459 -0.070061944 -0.01814548
0.099231124 -0.024580743 0.039765112 -0.24284993 0.05099926 0.04411948 0.011546868 0.097935066
0.09721467 -0.046929333 -0.07749275 -0.10499941 0.09988976 -0.0871266 -0.16453268 0.00089849345
0.081038035 -0.09097435 -0.079035915 -0.07806269 -0.03692845 0.024881417 0.013569819 0.06863334
0.047386564 -0.010900041 0.057131685 0.082040094 -0.08341231 -0.025575804 -0.21676499 -0.05989772
0.060937192 -0.030401537 0.025538564 -0.15062892 0.10213026 0.051908657 -0.07155181 -0.0034712467
0.0335836 -0.06922248 -0.0633676 -0.04361383 -0.059760373 -0.12040734 -0.089467056 -0.03138527
0.14987782 0.016623363 -0.04467478 0.0367886 -0.021529103 0.057124745 -0.021692017 0.113591775
0.0298144 0.00038012158 -0.08046893 -0.061528627 -0.08937941 -0.049124684 -0.11841136 0.0019300823
-0.12783872 0.057250414 0.0389444 -0.0009610335 0.12145264 -0.10991143 -0.043101326 0.08745567
-0.07268094 0.06758509 0.055985205 0.06288615 -0.054163944 -0.012897603 -0.016955633 0.021993717
0.046993412 0.08980896 -0.062476818 -0.036120646 -0.069124594 -0.020651305 -0.073540434 0.0032439614
-0.049508065 -0.13451087 -0.029532455 -0.050495334 0.121329814 0.054089755 -0.022977686 -0.06765643
0.017996827 0.06972806 -0.018097604 -0.046334617 0.030273164 0.030315157 0.005606124 -0.03355596
0.06257335 -0.07765364 -0.11268008 -0.12545165 -0.051841784 -0.116729766 0.01000359 -0.0100939255
0.043946233 -0.19279344 -0.03937806 -0.098810785 0.07331463 0.07518602 0.064986974 0.0339947
0.0037778225 -0.07205845 -0.026121946 0.07269253 -0.0034408115 -0.06475165 0.04155248 0.044042077
0.17885327 -0.07157841 -0.13206188 -0.09944848 0.14724782 0.11018567 -0.030567778 -0.088260636
-0.17444171 0.0029260777 -0.022254514 -0.020127136 0.002664252 0.010351459 -0.043842018 -0.008613262
0.094792426 -0.039396502 -0.019121302 0.10201853 0.009274991 0.04010239 0.02083869 0.08096339
0.13146994 0.043719407 0.08265617 -0.08039925 0.13899791 0.021645155 -0.0027252196 -0.05071174
0.05984922 0.08390543 -0.013363461 -0.10890632 0.11261255 0.0269804 -0.07456773 -0.19786334
0.07965977 0.043697488 -0.11728751 -0.0012065622 0.10485338 0.011691911 -0.12905823 -0.030180639
0.022770463 -0.08295758 -0.06274896 -0.021297634 0.034598097 0.016676852 -0.0055484693 0.044862863
00000000: cb0c 403d 65e8 cdbd 6caf 923d 4512 4e3d
00000010: a18d c3bd b718 9ebc 6999 043e 6b7b 8f3b
00000020: fc93 3e3e 41a3 89bd dfcc 283d 2b4d 14bc
00000030: 3c79 8f3c 2604 943d 5adb 42bd 9b6f f3bd
00000040: 6d95 9bbb 0480 51be 0021 18be 52a8 f23d
00000050: b38f c03d a5d4 88bd d474 d3bd 8321 a6bd
00000060: 7a1b 3d3d 5160 53bd f0db 57bd 11da 233d
00000070: 8cd1 803d 5164 493d a93c 52bc c747 ae3d
00000080: f41f ad3d 3d7d 25bd 899b 1ebe a359 38bc
00000090: e678 aa3d 2601 c9bb bc9c 11bd 894d e8bd
000000a0: f17e 2d3d c25e a13c edf8 30be 790d 1abc
000000b0: 5d52 193e d724 acbc ee55 9ebd c387 2a3d
000000c0: 2969 91bd 57b0 f23c b697 37bc 118b a5bd
000000d0: a912 f53d 56ea 07be 548d 01bd 0c5c fcbd
000000e0: a2ea de3d 6fc6 203d e6eb 613b 9b03 a33d
000000f0: 7634 ed3c bb81 97bc f823 043c 2297 f13c
00000100: 3682 5a3d 80f3 11bd 0bfb 993c ba57 d5bd
00000110: 04c6 72bd b984 d6ba a37c 8fbd d4a5 94bc
00000120: b039 cb3d 8e5d c9bc bee0 223d a7ad 78be
00000130: 9ae4 503d a1b6 343d 132f 3d3c 2e92 c83d
00000140: 7c18 c73d f938 40bd 85b4 9ebd ee09 d7bd
00000150: 0193 cc3d 6e6f b2bd 417b 28be e088 6b3a
00000160: 45f7 a53d c350 babd 95dd a1bd 55df 9fbd
00000170: 4942 17bd 1dd4 cb3c f253 5e3c a38f 8c3d
00000180: 6a18 423d 1696 32bc ea02 6a3d a304 a83d
00000190: 13d4 aabd 5984 d1bc a4f7 5dbe 5057 75bd
000001a0: 4799 793d a50c f9bc 4036 d13c 783e 1abe
000001b0: ab29 d13d 2c9e 543d c189 92bd db7d 63bb
000001c0: f58e 093d 84c4 8dbd dfc6 81bd 6aa4 32bd
000001d0: 4bc7 74bd 2098 f6bd 813a b7bd d78d 00bd
000001e0: 9279 193e b82d 883c e7fc 36bd a5af 163d
000001f0: cd5d b0bc a3fb 693d 75b3 b1bc cea2 e83d
00000200: 543d f43c 0e4b c739 e5cc a4bd 7105 7cbd
00000210: 8d0c b7bd f736 49bd a881 f2bd d1fa fc3a
00000220: 27e8 02be 697f 6a3d 2a84 1f3d deed 7bba
00000230: 29bc f83d 3e19 e1bd 048b 30bd f51b b33d
00000240: bfd9 94bd 0d6a 8a3d be50 653d 74ca 803d
00000250: 03db 5dbd 7850 53bc 8ae6 8abc 2b2c b43c
00000260: 2a7c 403d c3ed b73d b1e7 7fbd 3ef3 13bd
00000270: 3291 8dbd ed2c a9bc 5e9c 96bd a498 543b
00000280: f8c8 4abd 38bd 09be 0cee f1bc 32d4 4ebd
00000290: c47b f83d 388d 5d3d b33b bcbc 748f 8abd
000002a0: 156e 933c 96cd 8e3d 6d41 94bc 5ec9 3dbd
000002b0: 6dff f73c 7e57 f83c 94b3 b73b f971 09bd
000002c0: 7526 803d df08 9fbd d0c4 e6bd 6676 00be
000002d0: 0d58 54bd 0410 efbd 19e6 233c fe60 25bc
000002e0: f700 343d a56b 45be e34a 21bd 4f5d cabd
000002f0: fb25 963d 21fb 993d e417 853d 073e 0b3d
00000300: 5895 773b 6193 93bd b1fd d5bc d2df 943d
00000310: 3d7f 61bb 839c 84bd ef32 2a3d 7765 343d
00000320: 5025 373e b497 92bd 3b3b 07be a5ab cbbd
00000330: 22c8 163e 06a9 e13d 4769 fabc fec1 b4bd
00000340: d9a0 32be 70c3 3f3b 194f b6bc aae1 a4bc
00000350: bb9a 2e3b 2a99 293c b093 33bd a41e 0dbc
00000360: 8822 c23d 3a5e 21bd 47a4 9cbc 17ef d03d
00000370: 22f6 173c 6742 243d e7b5 aa3c 22d0 a53d
00000380: 0ea0 063e 1f13 333d a347 a93d 5da8 a4bd
00000390: 7855 0e3e 2e51 b13c 9999 32bb 1db7 4fbd
000003a0: 7524 753d 9cd6 ab3d 6bf2 5abc 470a dfbd
000003b0: 69a1 e63d 0006 dd3c f7b6 98bd b09c 4abe
000003c0: a924 a33d 23fc 323d 6f34 f0bd 8225 9eba
000003d0: 5ebd d63d 6e8f 3f3c d727 04be 633d f7bc
000003e0: 1f89 ba3c aae5 a9bd 8782 80bd 6078 aebc
000003f0: bcb6 0d3d e59d 883c efcf b5bb 1fc2 373d

network_body.observation_encoder.processors.0.conv_layers.2.bias f4 [32]
-0.04362279 0.064660415 0.07828332 -0.030199878 -0.04774412 -0.006357377 -0.0026439067 0.030600257
-0.04841763 -0.012777276 -0.069178924 0.021618152 0.05353388 0.03639411 -0.011188674 -0.055504024
-0.01889602 -0.042106036 0.0632116 0.04682026 -0.0069256355 0.037023313 0.033274643 0.064454585
0.06797319 0.07783619 0.04478943 -0.024163164 0.00026842067 -0.066271804 -0.0126605285 0.067823105
00000000: d0ad 32bd ae6c 843d 0153 a03d bc65 f7bc
00000010: 578f 43bd 8b51 d0bb 6545 2dbb 64ad fa3c
00000020: 9151 46bd c857 51bc aead 8dbd 8d18 b13c
00000030: 5746 5b3d fe11 153d b350 37bc 3058 63bd
00000040: d3cb 9abc 6177 2cbd 1575 813d 9ac6 3f3d
00000050: 71f0 e2bb c2a5 173d fe4a 083d c400 843d
00000060: 8735 8b3d 9568 9f3d 1f75 373d d4f1 c5bc
00000070: d0ba 8c39 83b9 87bd 1b6e 4fbc d7e6 8a3d

network_body.observation_encoder.processors.0.dense.0.weight f4 [256, 32]
0.046247177 0.31392464 0.36563918 0.39988568 -0.07120825 -0.2522378 0.019638559 -0.098966524
0.41741553 0.37375638 -0.08060202 -0.37247118 0.14411582 -0.2015641 0.12901269 -0.34374884
-0.2460674 -0.04750544 0.1481372 -0.028162401 -0.38225922 -0.14015347 0.3006829 -0.13656415
0.1849168 0.29950276 0.2703505 -0.23622066 -0.023743493 -0.17325829 -0.05664303 0.4707864
-0.42750257 -0.019192666 -0.0812777 0.052667126 -0.17891553 0.044538658 0.26638135 0.22061312
0.05264843 -0.11877728 -0.27567127 0.017886933 -0.033941817 -0.09441602 0.01062705 0.41909447
0.35443863 0.14938259 -0.008353504 -0.025472 -0.3877105 0.037565973 -0.33303672 0.3556986
-0.25054064 0.11772232 -0.28057706 -0.114113934 0.296204 0.31468862 0.5212608 0.05919906
0.12000319 -0.1587264 0.052184675 -0.20606938 -0.10161012 -0.15786162 0.29676712 -0.0008473734
0.10686815 -0.021761071 -0.0885392 -0.101630114 -0.37502423 -0.052088734 -0.048447136 0.05565496
0.50672394 -0.13376606 0.60912454 0.12627523 -0.063385345 -0.108967796 -0.24963379 0.043910965
-0.36428988 0.16593662 -0.35178658 -0.17816496 0.430182 0.21226417 0.05986397 -0.00540522
-0.06862609 0.3395041 -0.48073545 -0.18675756 -0.38096693 0.15725559 -0.36384988 0.34338737
-0.21338014 -0.05821639 -0.10455043 -0.114245094 -0.18744059 -0.17116994 -0.023001492 -0.085848965
0.48308718 -0.09838407 0.3801227 0.08408294 -0.02519337 -0.39485577 -0.21583447 0.25682685
0.3525746 -0.09057138 -0.37914032 -0.21130615 0.39460245 -0.016263746 -0.14717911 0.26733223
0.44146436 -0.290718 -0.08785683 -0.1846537 0.17662743 0.1984886 -0.09592259 -0.42357355
-0.31910723 0.0962242 0.112619184 -0.1698474 -0.25916788 -0.21866158 -0.62381035 0.54403
-0.09624315 -0.23561805 -0.063984804 0.55278474 -0.16215539 0.12972045 0.14739642 0.24426283
0.35067576 -0.11361367 -0.26147312 -0.027699197 0.3219961 0.10359192 -0.3363557 -0.057705283
-0.41234395 0.33311653 -0.14608584 -0.19064173 -0.14008105 0.1386568 -0.3318702 0.22126663
0.06688717 -0.055541087 0.20989265 0.03760962 -0.460221 -0.40391985 -0.12477243 -0.06454067
0.15103398 0.12108158 0.25865775 0.001291367 0.19950582 -0.14962997 -0.38536754 -0.09247568
0.09952836 0.30350605 -0.21027793 -0.28765616 0.15494853 0.06596404 0.20418356 -0.06805626
0.10213294 -0.0052447445 0.29400232 -0.008035001 -0.40251994 -0.12638053 -0.19162512 0.0977203
-0.3410857 -0.2856128 0.099603966 0.0895917 -0.53521305 -0.12214617 0.17083181 0.04834735
0.7526083 0.1066942 0.20264286 -0.010411479 0.021923432 -0.1696036 -0.2583719 -0.15493414
0.39980465 -0.1870209 -0.021322377 0.008839323 0.13265614 -0.049114067 0.09505734 -0.05165203
-0.06409057 -0.23007931 -0.2541223 0.28682318 -0.24739316 0.34589952 0.45165226 -0.15920492
0.069775485 -0.29793835 0.075316206 -0.111341745 0.014602851 0.06092004 0.4882705 0.15733829
0.13193652 -0.25111052 -0.39464316 0.30678013 0.056123093 0.39008194 -0.17046432 0.15512943
0.3296311 0.27077484 -0.21543251 -0.4096702 0.4246951 -0.1841886 0.15212426 -0.06793451
00000000: ae6d 3d3d bbba a03e 0f35 bb3e d1bd cc3e
00000010: a2d5 91bd 5025 81be 0be1 a03c f6ae cabd
00000020: 7db7 d53e ff5c bf3e ac12 a5bd 8bb4 bebe
00000030: 1993 133e d266 4ebe e71b 043e d9ff afbe
00000040: 18f9 7bbe 1095 42bd 47b1 173e d6b4 e6bc
00000050: 7bb7 c3be 6484 0fbe 1cf3 993e 79d7 0bbe
00000060: d45a 3d3e 6d58 993e 616b 8a3e d4e3 71be
00000070: b781 c2bc 9f6a 31be 8602 68bd ea0a f13e
00000080: 9ee1 dabe f039 9dbc ec74 a6bd 7cb9 573d
00000090: a235 37be 2b6e 363d 2363 883e 68e8 613e
000000a0: e1a5 573d 8141 f3bd c924 8dbe 9e87 923c
000000b0: 9306 0bbd 305d c1bd 141d 2e3c 8d93 d63e
000000c0: fb78 b53e c0f7 183e 23dd 08bc a8aa d0bc
000000d0: fe81 c6be c7de 193d ca83 aabe 201e b63e
000000e0: dd46 80be 6618 f13d cca7 8fbe 91b4 e9bd
000000f0: 0da8 973e de1e a13e 5971 053f b77a 723d
00000100: 3cc4 f53d 2c89 22be 99bf 553d da03 53be
00000110: f718 d0bd 7aa6 21be dcf1 973e 4422 5eba
00000120: b0dd da3d 4644 b2bc 0a54 b5bd 7323 d0bd
00000130: 2d03 c0be ff5a 55bd 8170 46bd 75f6 633d
00000140: a9b8 013f f8f9 08be 96ef 1b3f 4b4e 013e
00000150: 2dd0 81bd 822a dfbd 00a0 7fbe fcdb 333d
00000160: 3484 babe 4aeb 293e 5f1d b4be e070 36be
00000170: d140 dc3e c75b 593e ec33 753d 461e b1bb
00000180: d68b 8cbd 7bd3 ad3e f522 f6be 603d 3fbe
00000190: 190e c3be 9c07 213e 884a babe 78d0 af3e
000001a0: 5380 5abe 4f74 6ebd 891e d6bd 55f9 e9bd
000001b0: 6df0 3fbe 2c47 2fbe a06d bcbc 95d1 afbd
000001c0: 3457 f73e 967d c9bd 719f c23e ad33 ac3d
000001d0: 5462 cebc 892a cabe b603 5dbe cf7e 833e
000001e0: a884 b43e 7d7d b9bd ae1e c2be a460 58be
000001f0: 5509 ca3e 8c3b 85bc 1fb6 16be c5df 883e
00000200: 9e07 e23e fdd8 94be 48ee b3bd dc15 3dbe
00000210: d2dd 343e 9840 4b3e 1073 c4bd a2de d8be
00000220: 0662 a3be 3211 c53d e3a4 e63d 7aec 2dbe
00000230: a7b1 84be d2e8 5fbe 09b2 1fbf 8d45 0b3f
00000240: 211b c5bd dc45 71be 770a 83bd 4d83 0d3f
00000250: 100c 26be 70d5 043e 16ef 163e 0920 7a3e
00000260: c68b b33e 49ae e8bd cedf 85be 6de9 e2bc
00000270: acdc a43e 0028 d43d d036 acbe 605c 6cbd
00000280: bf1e d3be 408e aa3e 8797 15be 9637 43be
00000290: 6871 0fbe 0cfc 0d3e e4ea a9be b893 623e
000002a0: 24fc 883d 0d7f 63bd 19ee 563e 8b0c 1a3d
000002b0: 16a2 ebbe 95ce cebe b088 ffbd e62d 84bd
000002c0: a7a8 1a3e 9ff9 f73d ca6e 843e 1643 a93a
000002d0: 414b 4c3e 9938 19be e54e c5be e463 bdbd
000002e0: 86d5 cb3d 2565 9b3e 1953 57be ab47 93be
000002f0: d4aa 1e3e 2818 873d 7f15 513e 1561 8bbd
00000300: 132b d13d 1bdc abbb 7987 963e 3da5 03bc
00000310: 1817 cebe e669 01be 6039 44be 9521 c83d
00000320: c9a2 aebe d73b 92be 2afd cb3d da7b b73d
00000330: b903 09bf c527 fabd 89ee 2e3e df07 463d
00000340: f0aa 403f 7d82 da3d 9c81 4f3e e894 2abc
00000350: c598 b33c 91ac 2dbe 5249 84be 0ea7 1ebe
00000360: 32b3 cc3e 6882 3fbe 44ac aebc cfd2 103c
00000370: 03d7 073e d52b 49bd 6cad c23d 1491 53bd
00000380: eb41 83bd e999 6bbe 511c 82be 7dda 923e
00000390: a254 7dbe be19 b13e f73e e73e 9d06 23be
000003a0: 73e6 8e3d 608b 98be 623f 9a3d 2407 e4bd
000003b0: cc40 6f3c 4b87 793d 97fe f93e 4a1d 213e
000003c0: 5e1a 073e 8f91 80be ab0e cabe 4912 9d3e
000003d0: 54e1 653d d2b8 c73e 338e 2ebe 40da 1e3e
000003e0: 68c5 a83e 00a3 8a3e 579a 5cbe 4bc0 d1be
000003f0: a371 d93e f09b 3cbe 76c6 1b3e 4021 8bbd

network_body.observation_encoder.processors.0.dense.0.bias f4 [256]
-0.0017217443 0.048425373 0.06951977 0.024971232 0.08148429 0.073694505 0.087727875 -0.01769258
0.010468628 0.024172407 0.026412722 0.03736629 -0.043620627 0.07350807 -0.10234741 0.015112836
0.061732903 -0.057638187 -0.04524107 -0.025469886 0.06973398 0.09617 0.05115173 0.04309937
0.025717381 0.0032372556 0.074354574 0.16712868 0.020833494 0.014663997 0.070988245 0.0021284155
-0.008266787 0.08369553 0.0041819466 0.044735137 -0.108397834 0.0006051888 -0.055127703 -0.016369397
-0.03266864 0.051770035 0.009650064 -0.04312618 0.052792944 -0.026703294 0.111598715 0.1025689
-0.03953686 -0.019607373 0.08192309 0.049405452 0.03132244 0.054586448 -0.049100567 -0.04833626
-0.012439389 0.09519395 0.007647214 0.07001231 0.0918021 -0.01867217 0.040682755 0.030556496
0.0563818 0.0096850945 0.0314248 0.023082538 0.018403716 0.027429398 0.056821935 -0.081854895
0.051700592 0.044363283 -0.0149102295 0.022407198 -0.045073457 -0.02888176 0.034301456 -0.084726475
0.017725863 0.054107524 0.06617952 -0.055029053 -0.013801921 -0.07072217 -0.011231812 0.0053327433
0.024048699 -0.014833954 -0.0433066 -0.0036401874 0.02868125 0.056111313 -0.11159994 -0.0011647813
0.060024332 0.091640264 0.114991136 0.10383546 0.028114373 0.054016113 0.0041166595 0.032785207
-0.041383535 0.01347345 0.085565664 -0.03986642 0.07623044 0.055739325 0.005089088 0.053272408
0.018511068 0.007526693 0.08729561 0.09511241 -0.025288828 0.117949516 0.045938354 -0.054870553
-0.025477733 -0.008762059 0.086892396 0.020401748 0.007222257 -0.0028908069 -0.01867537 -0.05285314
-0.035371296 -0.031243775 0.09104632 -0.0094698025 -0.006621422 -0.050236568 -0.002447793 0.015738454
0.055452466 0.15371735 -0.026882043 -0.004721062 0.0087638255 0.14713489 -0.0056886347 0.08773204
0.02461249 0.0039531305 -0.07199593 -0.0131384935 0.009446264 0.070611514 0.027097028 0.024226993
-0.012099539 0.016540917 -0.0055283844 0.017073661 0.0056471583 0.0010835588 0.0022524735 0.0052787657
0.10982947 0.01038716 0.064702444 -0.06680227 0.0088270325 -0.065075845 0.04235964 -0.03476057
0.017942024 -0.17428048 0.046937983 0.05947993 0.07013035 0.013608238 -0.009702798 0.041668188
0.06958551 0.10876318 -0.08344181 -0.008535108 0.004511081 0.07705505 -0.027703732 -0.079749785
-0.0023529283 -0.007173362 0.054118127 0.018048126 0.04875957 0.011695566 -0.016075103 0.11333857
-0.002848113 0.052023146 0.017042678 0.042021677 0.02933128 0.050048225 -0.0065185893 0.0864681
0.098920815 0.0926306 -0.06380254 -0.045270234 0.047568504 0.017558567 0.017714797 -0.072600394
0.039901778 0.092613414 0.10541407 0.09220933 0.051580433 -0.07771054 0.03157179 0.028212272
-0.08413218 0.06115059 0.02799319 0.045998853 -0.045011483 0.01975919 0.057150505 0.02501335
0.10010246 -0.01931376 -0.044611897 -0.0044907858 0.030950556 0.041655995 -0.008368857 -0.04395745
0.054414522 0.0002682882 0.014050629 0.009939761 -0.005273983 0.077971704 0.041658275 0.002572659
-0.03794556 0.015732063 -0.004394828 0.037844144 0.05293474 -0.04542705 0.080752224 0.073064126
0.067787394 0.09220491 -0.015974602 0.018927291 0.028138269 -0.05107113 0.044463836 0.05387878
00000000: 27ac e1ba af59 463d 6260 8e3d 7890 cc3c
00000010: 3ce1 a63d 25ed 963d acaa b33d 08f0 90bc
00000020: 9c84 2b3c 3605 c63c 7e5f d83c 650d 193d
00000030: 8bab 32bd 668b 963d 859b d1bd d49b 773c
00000040: a4db 7c3d 0516 6cbd b34e 39bd 39a6 d0bc
00000050: b0d0 8e3d c7f4 c43d 7a84 513d f788 303d
00000060: 42ad d23c 2328 543b 3647 983d c823 2b3e
00000070: 01ab aa3c 4341 703c 4962 913d e37c 0b3b
00000080: 6b71 07bc 9068 ab3d b608 893b 313c 373d
00000090: afff ddbd 88a5 1e3a 96cd 61bd 1d19 86bc
000000a0: 8dcf 05bd d10c 543d 4d1b 1e3c 14a5 30bd
000000b0: 6a3d 583d dec0 dabc de8d e43d a50f d23d
000000c0: 67f1 21bd a49f a0bc 4bc7 a73d 5f5d 4a3d
000000d0: f54b 003d 0a96 5f3d ad1d 49bd 3efc 45bd
000000e0: 94ce 4bbc 0cf5 c23d 7b95 fa3b 9d62 8f3d
000000f0: bd02 bc3d 61f6 98bc f6a2 263d 9e51 fa3c
00000100: 9af0 663d 3bae 1e3c 4bb7 003d 9717 bd3c
00000110: 64c3 963c 9eb3 e03c 1ebe 683d 8aa3 a7bd
00000120: 00c4 533d 46b6 353d 094a 74bc 4d8f b73c
00000130: f29e 38bd 7199 ecbc af7f 0c3d 1385 adbd
00000140: d435 913c da9f 5d3d 2189 873d 2566 61bd
00000150: 7421 62bc c9d6 90bd a205 38bc 4bbe ae3b
00000160: c701 c53c 1d0a 73bc 4362 31bd 3690 6ebb
00000170: f1f4 ea3c fad4 653d 828e e4bd 93ab 98ba
00000180: 13dc 753d e4ad bb3d 7980 eb3d b0a7 d43d
00000190: 1d50 e63c 0040 5d3d 0be5 863b c849 063d
000001a0: c881 29bd bfbf 5c3c 0d3d af3d f94a 23bd
000001b0: b41e 9c3d eb4e 643d 5dc2 a63b 2b34 5a3d
000001c0: 86a4 973c 7aa2 f63b 0ac8 b23d 4cca c23d
000001d0: 842a cfbc 848f f13d db29 3c3d f2bf 60bd
000001e0: aeb6 d0bc bd8e 0fbc a4f4 b13d 9121 a73c
000001f0: afa8 ec3b b173 3dbb 17fd 98bc 897c 58bd
00000200: 7ee1 10bd f2f2 ffbc 7e76 ba3d 3b27 1bbc
00000210: 83f8 d8bb dcc4 4dbd 276b 20bb eeed 803c
00000220: 2022 633d 1568 1d3e bb37 dcbc 23b3 9abb
00000230: 2696 0f3c 87aa 163e ba67 babb dbac b33d
00000240: 22a0 c93c 4389 813b 9a72 93bd d642 57bc
00000250: 81c4 1a3c c59c 903d 96fa dd3c b077 c63c
00000260: 253d 46bc d180 873c 7327 b5bb 10de 8b3c
00000270: cc0b b93b 3306 8e3a 3c9e 133b 7ff9 ac3b
00000280: 46ee e03d e82e 2a3c b782 843d a1cf 88bd
00000290: 429f 103c 7c46 85bd 4d81 2d3d 1961 0ebd
000002a0: 27fb 923c 9576 32be 0b42 403d 3aa1 733d
000002b0: 80a0 8f3d 16f5 5e3c 7cf8 1ebc 43ac 2a3d
000002c0: d982 8e3d 3bbf de3d 8ae3 aabd d6d6 0bbc
000002d0: b1d1 933b 0acf 9d3d f0f2 e2bc db53 a3bd
000002e0: 9633 1abb 860e ebbb f8aa 5d3d aad9 933c
000002f0: 1db8 473d c29e 3f3c efaf 83bc 0d1e e83d
00000300: 68a7 3abb 3916 553d 169d 8b3c ec1e 2c3d
00000310: 2748 f03c 5eff 4c3d e499 d5bb 3016 b13d
00000320: ff96 ca3d 1db5 bd3d e8aa 82bd 486d 39bd
00000330: 31d7 423d fcd6 8f3c 9f1e 913c 84af 94bd
00000340: 0c70 233d 1aac bd3d 55e3 d73d 3fd8 bc3d
00000350: 0146 533d b426 9fbd 6c51 013d 6c1d e73c
00000360: 7e4d acbd 0b79 7a3d f951 e53c 4b69 3c3d
00000370: f65d 38bd 06de a13c a616 6a3d cce8 cc3c
00000380: 8502 cd3d e437 9ebc f7ba 36bd 7127 93bb
00000390: 058c fd3c 7a9f 2a3d 881d 09bc ba0c 34bd
000003a0: c3e1 5e3d 08a9 8c39 9c34 663c 61da 223c
000003b0: 60d1 acbb a1af 9f3d dea1 2a3d 0e9a 283b
000003c0: ce6c 1bbd 87e0 803c 7d02 90bb 7602 1b3d
000003d0: 19d2 583d b711 3abd 6c61 a53d a5a2 953d
000003e0: 1ed4 8a3d eed5 bc3d 2bdd 82bc 680d 9b3c
000003f0: 3a82 e63c f62f 51bd b61f 363d ffaf 5c3d

network_body._body_endoder.seq_layers.0.weight f4 [256, 266]
-0.0701437 0.042265136 0.10780436 -0.016566994 -0.09710187 0.050648805 -0.010556189 -0.0800572
-0.0013971583 0.04442663 0.042727794 -0.1745156 -0.17970224 -0.035846286 -0.105613254 0.07776783
-0.011962763 -0.08273767 0.14081968 0.04799293 -0.18546045 -0.0024211237 0.09422727 -0.05872223
-0.23010199 -0.0498945 -0.18798964 -0.023874255 -0.12935929 -0.12716591 0.10044982 0.04692552
0.056305394 -0.098937795 0.073373206 -0.2233097 -0.049696647 -0.011110395 -0.09878129 -0.0650528
-0.06740011 -0.07853479 -0.079359286 -0.00995865 -0.020596651 -0.07125508 -0.01086075 0.08319326
0.0077366494 -0.03892213 -0.051627256 -0.05850157 -0.13983576 0.11723055 -0.17209773 0.06816313
0.12529443 0.027915554 -0.12327494 -0.017619815 0.09769537 -0.037742425 0.063415825 0.19618973
-0.08202661 0.08593688 -0.0043155313 -0.14904194 0.012133808 -0.12146584 -0.025545523 -0.032489356
0.0062012654 0.0061257686 -0.021443518 0.1469658 -0.047347236 0.025346845 -0.18206199 0.100716114
0.01570369 0.09372754 -0.075415656 0.0066035613 -0.032325447 -0.029964602 -0.06469138 -0.012635843
-0.03240238 -0.06128388 -0.06751167 -0.033780687 0.11781701 0.0065977997 -0.06971047 -0.004963133
-0.22286215 0.13140398 0.016832812 -0.10705111 0.21096422 0.12015595 -0.16921417 0.03932823
0.08107301 0.03469327 -0.20950384 -0.059520215 0.04949961 -0.13644956 0.030637821 -0.06820874
0.13967778 0.0042568734 0.13304648 0.004163454 0.013958446 0.0057249423 -0.14658913 0.09824448
0.12459962 -0.03870038 -0.06301601 0.11315428 0.00070141366 0.015715623 0.04449356 -0.046580046
-0.04007132 0.021763314 -0.15310258 -0.043464527 -0.09018072 -0.0665339 0.014471038 -0.1304426
-0.10640683 0.029561307 -0.09271694 -0.12352459 0.121757805 0.017436014 -0.10759692 0.06568974
0.02090848 -0.010327679 -0.22555192 -0.03392141 -0.31974775 -0.14201294 0.17524342 0.027468672
-0.03663364 -0.10770186 -0.06536373 0.16983972 -0.09652511 -0.046003178 -0.074038565 0.027952464
0.005060617 0.052894432 0.06499881 -0.01980177 -0.23672093 0.054856617 -0.2545377 -0.20162195
-0.07595365 0.069791384 -0.0011388038 -0.16915734 0.032198638 0.048930276 -0.17127241 -0.009112296
0.027190153 0.007983298 0.026967345 -0.044840064 0.0008642685 0.015349773 0.0069675655 0.0024182885
-0.2513025 -0.17354399 -0.1592041 0.037652824 -0.15268804 -0.043579396 0.07427035 -0.08142557
-0.009014289 -0.08274664 -0.06323163 -0.10082872 -0.11187793 -0.0004293012 -0.10400378 0.016692625
0.04757729 0.047644194 -0.030988745 -0.053946126 0.14772737 -0.14569278 0.065245286 0.058614448
-0.028250763 -0.27041107 -5.249218e-05 0.010376472 -0.08071745 0.13234818 0.0021909361 -0.06564573
-0.081063606 -0.15534914 0.08458461 0.03939728 0.06503943 0.011091223 0.014076565 -0.01625585
-0.10857766 -0.077501625 -0.008365844 -0.020803852 0.08367787 -0.0043255216 0.026802316 -0.07142334
-0.07377361 -0.004741345 0.058661427 -0.28139824 -0.049020734 0.06017639 -0.089187786 -0.1079946
-0.032450825 -0.058030166 -0.054470107 -0.19389689 -0.1956013 0.05833737 0.03042369 0.037512213
-0.0025483987 -0.08748155 0.1090089 0.043529607 -0.0017409866 -0.0010674852 -0.13501096 0.05350784
00000000: 80a7 8fbd 351e 2d3d 88c8 dc3d 81b7 87bc
00000010: 58dd c6bd 1f75 4f3d def3 2cbc 07f5 a3bd
00000020: da20 b7ba b3f8 353d 5703 2f3d 38b4 32be
00000030: dd03 38be 8ed3 12bd c34b d8bd bd44 9f3d
00000040: 77ff 43bc 5e72 a9bd 0933 103e 3c94 443d
00000050: 58e9 3dbe b7ab 1ebb 3afa c03d b986 70bd
00000060: db9f 6bbe 2d5e 4cbd 5b80 40be f193 c3bc
00000070: c376 04be c837 02be a3b8 cd3d f934 403d
00000080: 7ca0 663d e69f cabd b144 963d 4cab 64be
00000090: b68e 4bbd 6008 36bc d84d cabd 673a 85bd
000000a0: 1209 8abd d9d6 a0bd 1f87 a2bd 9b29 23bc
000000b0: 4fba a8bc 2fee 91bd 4af1 31bc 3a61 aa3d
000000c0: b883 fd3b d06c 1fbd 1a77 53bd 589f 6fbd
000000d0: 1b31 0fbe 9216 f03d 633a 30be 1c99 8b3d
000000e0: 2f4d 003e 29af e43c 9277 fcbd 6e57 90bc
000000f0: 8314 c83d cd97 1abd 28e0 813d f6e5 483e
00000100: 91fd a7bd adff af3d 4d69 8dbb 739e 18be
00000110: e1cc 463c 15c3 f8bd d844 d1bc 8f13 05bd
00000120: fc33 cb3b acba c83b 51aa afbc 347e 163e
00000130: 2def 41bd 30a4 cf3c 756e 3abe 4044 ce3d
00000140: 06a5 803c 39f4 bf3d 8673 9abd b062 d83b
00000150: b067 04bd 5378 f5bc ea7c 84bd 9106 4fbc
00000160: 5cb8 04bd ce04 7bbd 8f43 8abd 9e5d 0abd
00000170: 0b4a f13d 5b32 d83b 5dc4 8ebd c7a1 a2bb
00000180: fa35 64be c48e 063e f7e4 893c 9d3d dbbd
00000190: 0107 583e 5314 f63d 7b46 2dbe a316 213d
000001a0: 9b09 a63d 881a 0e3d 2d88 56be 78cb 73bd
000001b0: 1ac0 4a3d 6fb9 0bbe 2bfc fa3c 06b1 8bbd
000001c0: b107 0f3e 3e7d 8b3b 563d 083e 956d 883b
000001d0: f7b1 643c 4c98 bb3b 761b 16be 6734 c93d
000001e0: 162e ff3d 4a84 1ebd 8a0e 81bd 6ebd e73d
000001f0: 13df 373a 0dbe 803c e13e 363d b8ca 3ebd
00000200: d321 24bd fa48 b23c ecc6 1cbe dc07 32bd
00000210: abb0 b8bd ed42 88bd ef17 6d3c bf92 05be
00000220: d3eb d9bd 8e2a f23c 61e2 bdbd 76fa fcbd
00000230: 285c f93d f9d5 8e3c c65b dcbd 5888 863d
00000240: 4348 ab3c 6d35 29bc 15f7 66be 2df1 0abd
00000250: fab5 a3be d76b 11be 0373 333e fb05 e13c
00000260: 280d 16bd cb92 dcbd 6bdd 85bd 77ea 2d3e
00000270: f5ae c5bd d46d 3cbd 88a1 97bd 91fc e43c
00000280: 88d3 a53b d5a7 583d 191e 853d 5237 a2bc
00000290: f966 72be 55b1 603d c452 82be fc75 4ebe
000002a0: 968d 9bbd c9ee 8e3d ea43 95ba 9537 2dbe
000002b0: b8e2 033d 1d6b 483d 0962 2fbe bd4b 15bc
000002c0: e2bd de3c 61cc 023c 9fea dc3c 37aa 37bd
000002d0: 1490 623a 9d7d 7b3c 2d50 e43b 267c 1e3b
000002e0: b9aa 80be 84b5 31be 6606 23be d939 1a3d
000002f0: 415a 1cbe 4f80 32bd 0e1b 983d 73c2 a6bd
00000300: abb0 13bc 1277 a9bd 967f 81bd 4a7f cebd
00000310: 4220 e5bd d513 e1b9 efff d4bd f9be 883c
00000320: 68e0 423d 8f26 433d 1cdc fdbc 9df6 5cbd
00000330: d845 173e 7d30 15be 529f 853d b415 703d
00000340: 256e e7bc 5273 8abe 0d2b 5cb8 1402 2a3c
00000350: 314f a5bd 4886 073e cf95 0f3b 4571 86bd
00000360: ad04 a6bd d813 1fbe b23a ad3d 0b5f 213d
00000370: 6533 853d f6b7 353c 65a1 663c fd2a 85bc
00000380: f75d debd 2cb9 9ebd e510 09bc d76c aabc
00000390: 4e5f ab3d 1bbd 8dbb 8890 db3c 6646 92bd
000003a0: 9e16 97bd 495d 9bbb f746 703d 6e13 90be
000003b0: f7c9 48bd 857b 763d 16a8 b6bd 462c ddbd
000003c0: 28eb 04bd 0ab1 6dbd 0c1c 5fbd e88c 46be
000003d0: b54b 48be 2bf3 6e3d 1a3b f93c 68a6 193d
000003e0: 0903 27bb 8729 b3bd 0f40 df3d 1a4c 323d
000003f0: d131 e4ba dcea 8bba 5040 0abe 092b 5b3d

network_body._body_endoder.seq_layers.0.bias f4 [256]
-0.040955257 -0.0072401455 0.009370973 -0.0023307458 0.032201458 0.03400336 -0.0041372394 0.020410376
0.040685356 -0.016326725 0.04679358 -0.042735085 0.01954206 0.008076767 -0.0019458019 -0.029343707
0.03724579 -0.0127160195 0.019199988 0.006818532 0.032831565 0.015564297 0.01907631 -0.024154004
-0.016918803 0.021462452 -0.014913665 0.00012732304 0.010518012 0.012483255 0.0057639335 -0.022697413
-0.0034757745 0.004119239 0.008664491 -0.0019614464 0.019605367 -0.009832058 -0.00037521037 -0.011068007
-0.012520909 -0.022137942 -0.013992595 0.056239557 0.0017086515 0.022982052 -0.004544987 0.028184447
-0.14045973 0.017563991 0.029698603 0.011989529 0.026020164 0.024891138 -0.01414431 0.0066016596
0.037395973 0.021062857 0.0058067325 -0.029247459 0.0067602075 0.00087871595 -0.0011347333 0.021681154
-0.004116406 -0.0044792555 0.017609363 -0.011852046 0.04359276 0.008819725 0.035819236 -0.032531906
0.02930643 0.01185455 -0.013083346 -0.018583218 0.037579995 -0.012003608 -0.007929097 0.011238579
0.036974844 0.006408659 0.021266365 -0.0005553568 -0.01627805 -0.01342478 0.0005600824 0.00056921865
0.03375963 -0.006139991 -0.01116848 0.028750546 0.024112374 -0.017231988 0.023326293 0.033640184
0.03208815 0.018422766 0.032851856 -0.0047494425 -0.010513199 0.014712554 -0.019104017 0.019507678
0.004569176 0.04098043 0.019109854 0.07060222 0.024226896 -0.0135956 0.035134654 0.013581296
-0.0028006856 0.060539193 -0.0063601565 0.016844926 0.029690346 -0.0023726074 0.012924055 -0.0118077705
0.02938567 0.038929347 0.012400833 0.02482202 0.016036548 0.021178516 -0.008034632 0.03797482
-0.019762699 -0.0355528 -0.046256874 0.01675643 0.020098098 -0.026193397 -0.009416611 0.00660326
-0.016257904 -0.0014324354 -0.014722851 0.03159604 -0.02592375 -0.0040647755 -0.008306407 -0.0005558614
-0.017463025 0.01593878 -0.0001940569 -0.0039940854 -0.01775221 0.017708039 0.010789278 0.012988622
-0.0001863086 0.014034207 -0.0073939953 0.0020364856 0.0012472642 0.04564109 -0.019658968 0.0017691893
-0.005572187 -0.0018958418 0.03362751 0.030278504 0.02849565 0.040748443 0.03361578 -0.06891255
0.0034200381 0.00020153965 -0.0070388755 -0.031913795 -0.0065186867 -0.00377082 0.043785654 0.037687782
-0.014963702 0.003879621 -0.009842942 -0.03693696 0.013744671 0.0053988765 0.015321054 0.015522363
0.021489693 0.0026532116 6.6000757e-06 0.008465527 0.025763523 -0.0003126553 -0.0011185462 0.031885605
-0.02359844 -0.0005308082 -0.028428694 0.010272399 0.018312827 0.017954493 -0.02933328 0.0035121078
0.0010604962 -0.0010077887 -0.01642251 0.01941807 0.012526711 0.025668688 0.004787178 0.015460145
0.012091149 0.004643183 -0.023394296 -0.008412164 -0.01019702 0.024046477 -0.009135321 0.030945634
0.04564541 0.011672289 -0.007949217 0.012189281 0.008204141 0.011233782 -0.011844646 -0.030894976
0.012716188 0.029350927 0.0137563655 -0.005288116 0.051152248 -0.042662654 0.007997585 0.036642544
0.012704173 0.040455684 0.01197657 -0.006933882 -0.0126008615 -0.003906086 0.057129007 0.030063247
0.034690864 0.0015328019 0.015418364 -0.03455828 0.0044711246 -0.01230767 0.011187626 0.0018955453
-0.011182482 -0.02501772 0.020206988 0.012414624 0.015501245 -0.012286958 0.042551033 0.017639037
00000000: b3c0 27bd be3e edbb b688 193c 6dbf 18bb
00000010: ade5 033d 1b47 0b3d ae91 87bb a933 a73c
00000020: b0a5 263d a0bf 85bc a0aa 3f3d fc0a 2fbd
00000030: ac16 a03c 6b54 043c 470a ffba 3762 f0bc
00000040: 0b8f 183d da56 50bc 4b49 9d3c fe6d df3b
00000050: 647a 063d 6501 7f3c ec45 9c3c 9ede c5bc
00000060: 4d99 8abc 06d2 af3c 7258 74bc 0582 0539
00000070: bd53 2c3c 9186 4c3c 61df bc3b edef b9bc
00000080: d2c9 63bb aefa 863b 82f5 0d3c 9c8b 00bb
00000090: 6f9b a03c a416 21bc e2b7 c4b9 9656 35bc
000000a0: 8024 4dbc a15a b5bc 3241 65bc 735b 663d
000000b0: d5f4 df3a db44 bc3c 1dee 94bb 12e3 e63c
000000c0: add4 0fbe 5ce2 8f3c 7c4a f33c bb6f 443c
000000d0: 3d28 d53c 80e8 cb3c 89bd 67bc bc52 d83b
000000e0: 852c 193d 038c ac3c 6746 be3b 5e98 efbc
000000f0: bb84 dd3b a159 663a 55bb 94ba ad9c b13c
00000100: ebe2 86bb b8c6 92bb 8341 903c 152f 42bc
00000110: 528e 323d 9c80 103c 31b7 123d 2d40 05bd
00000120: 0a14 f03c 9639 423c 885b 56bc d53b 98bc
00000130: 7bed 193d c8aa 44bc 0be9 01bc 0422 383c
00000140: ef72 173d baff d13b cd36 ae3c 5d95 11ba
00000150: 8c59 85bc 9cf3 5bbc 7ed2 123a 9e37 153a
00000160: 8a47 0a3d fa31 c9bb 00fc 36bc 4486 eb3c
00000170: 5087 c53c 192a 8dbc c816 bf3c 4aca 093d
00000180: dd6e 033d 57eb 963c ab8f 063d 36a1 9bbb
00000190: 8d3f 2cbc ed0c 713c 0780 9cbc 91ce 9f3c
000001a0: 07b9 953b 18db 273d 458c 9c3c e697 903d
000001b0: 7c77 c63c 14c0 5ebc 5be9 0f3d 1684 5e3c
000001c0: b58b 37bb f2f7 773d dc68 d0bb 5ffe 893c
000001d0: 2b39 f33c bf7d 1bbb 6abf 533c 6175 41bc
000001e0: 37ba f03c 6174 1f3d dd2c 4b3c 8d57 cb3c
000001f0: 145f 833c 917e ad3c b0a3 03bc 7c8b 1b3d
00000200: 62e5 a1bc d09f 11bd d977 3dbd c844 893c
00000210: c4a4 a43c 8993 d6bc 2148 1abc 2960 d83b
00000220: 4c2f 85bc 8ec0 bbba 1d38 71bc d96a 013d
00000230: 0b5e d4bc cf31 85bb 9917 08bc 3ab7 11ba
00000240: 9e0e 8fbc 0b92 823c c17b 4bb9 d1e0 82bb
00000250: 156d 91bc 7310 913c 83c5 303c 3bce 543c
00000260: d65b 43b9 bbef 653c 5449 f2bb 8f76 053b
00000270: 3e7b a33a 27f2 3a3d d80b a1bc 24e4 e73a
00000280: e496 b6bb e57d f8ba 00bd 093d a00a f83c
00000290: b66f e93c d7e7 263d b3b0 093d 0622 8dbd
000002a0: b822 603b 6354 5339 5ea6 e6bb 0ab8 02bd
000002b0: b59a d5bb dd1f 77bb 9658 333d 815e 1a3d
000002c0: 512a 75bc 3d41 7e3b 4a44 21bc 364b 17bd
000002d0: 5431 613c 0fe9 b03b 2805 7b3c 8251 7e3c
000002e0: 270b b03c 81e1 2d3b 3876 dd36 feb2 0a3c
000002f0: 060e d33c e2eb a3b9 2f9c 92ba 7b9a 023d
00000300: 8451 c1bc ef25 0bba 4be3 e8bc 904d 283c
00000310: c804 963c 4d15 933c 594c f0bc 642b 663b
00000320: 5900 8b3a c717 84ba 8088 86bc a512 9f3c
00000330: d63c 4d3c 2447 d23c c2dd 9c3b 8c4c 7d3c
00000340: f419 463c d825 983b 65a5 bfbc 2cd3 09bc
00000350: 6711 27bc 1efd c43c 50ac 15bc b381 fd3c
00000360: aef6 3a3d 213d 3f3c 6f3d 02bc 8db5 473c
00000370: a96a 063c e60d 383c 0c10 42bc 7617 fdbc
00000380: 8f57 503c 5b71 f03c 6162 613c ef47 adbb
00000390: 0585 513d 09bf 2ebd 4e08 033c 7e16 163d
000003a0: 2a25 503c dcb4 253d 6039 443c 9e35 e3bb
000003b0: d873 4ebc 40fd 7fbb 1b00 6a3d 3347 f63c
000003c0: 0218 0e3d 4ce8 c83a 4e9d 7c3c fc8c 0dbd
000003d0: 8382 923b 1ca6 49bc 4e4c 373c f273 f83a
000003e0: bb36 37bc f6f1 ccbc 2089 a53c b566 4b3c
000003f0: eff8 7d3c 3d4f 49bc fe49 2e3d be7f 903c

network_body._body_endoder.seq_layers.2.weight f4 [256, 256]
-0.14389236 -0.08579608 -0.0048051714 0.06708858 -0.08625607 0.18333669 -0.09892915 0.023740185
-0.072426215 -0.1295459 0.08129543 -0.014083969 0.16282801 -0.018169165 -0.0067191944 -0.04851551
0.032510743 -0.040567134 -0.07034199 0.04872924 0.09275966 0.019603593 0.017979862 -0.047632463
-0.0031474319 -0.011814372 -0.020280907 0.1382744 0.06113632 0.025054848 0.01473841 0.0040402017
0.034505848 0.043676883 -0.16546415 0.047051683 0.07879355 0.07374013 0.047606334 -0.09218359
0.07494823 -0.19582336 -0.116588734 0.09773822 -0.023181736 0.07006018 -0.23424953 -0.0069319415
-0.06874251 0.16846937 -0.122392826 0.18384753 -0.009778785 0.025714736 -0.015440294 -0.016177664
0.037143875 0.048045177 0.002984857 -0.02096027 0.121201724 -0.041628797 -0.12456802 0.1450014
0.162246 -0.014065135 0.0877888 -0.06316024 -0.028454086 -0.22082973 0.064451635 -0.19998427
0.1290603 0.19970128 0.00059562485 -0.03984394 0.037134442 0.03029309 0.18421996 0.20398787
0.07556346 -0.0040468373 -0.051263038 0.054130033 0.08830338 -0.05909903 0.1723261 -0.065495886
0.19482334 -0.08873418 -0.03782575 -0.07906921 -0.08026603 -0.11095856 0.002739552 -0.0242427
-0.0016397404 0.06376887 0.043015327 0.11472026 -0.10512803 -0.07765949 -0.03962547 -0.05291271
0.045322713 0.24971975 -0.16731371 -0.0097462125 0.101690635 -0.13162202 -0.03762494 -0.076657966
0.15172148 0.22653976 0.0369126 -0.16473226 0.022588648 0.0984919 0.02517017 -0.08290634
-0.07044887 0.0020117888 0.10481461 0.10359477 -0.012487304 0.061923742 0.028621728 0.14823371
-0.060263388 -0.082583904 0.014499853 -0.09017205 0.15904716 -0.14584503 -0.014708685 0.034995202
0.01483243 -0.011016851 -0.12063682 0.07005105 -0.120771356 -0.18014911 0.09335657 -0.030088007
0.09670277 -0.014729123 -0.13966937 0.012640148 0.055014126 0.16005658 0.0075267935 0.122414656
-0.008906884 -0.092464074 0.038717832 0.03702822 0.11065055 0.14768231 -0.16440584 -0.1323965
0.07470707 0.18901838 -0.07965855 0.04839821 -0.06768445 0.02081586 0.007974304 -0.17392251
0.029203538 -0.01083207 -0.09748425 -0.07376982 0.009567438 -0.056625262 0.09977629 -0.042029247
0.007878621 -0.15781058 0.12549904 0.004624604 -0.031988222 -0.0104347905 -0.1190962 -0.006245391
0.0062205982 -0.10349089 0.19675875 0.082522504 0.036644477 -0.14458717 0.053106207 0.109494835
0.03734482 -0.17123903 -0.16063929 -0.06638179 -0.18164067 -1.8734978e-05 -0.103253394 0.027695727
-0.22675969 -0.009516543 -0.025576115 0.12987247 -0.19056103 -0.051917937 0.07713952 -0.1878606
-0.11206036 -0.032384608 0.12138853 -0.09243033 0.06915238 -0.01651916 0.003052538 -0.035939086
0.25541922 0.08535547 0.14921457 0.036251795 0.21584502 -0.2683271 0.072975956 0.039461873
0.15079 0.022912156 0.117454685 0.08507606 0.22084734 -0.08476445 0.009374558 0.098389305
0.006916452 0.079029225 0.01952295 -0.03595609 -0.15823984 -0.040535826 -0.026205543 0.18400045
-0.0034567094 0.0063934755 -0.17366087 -0.073477104 -0.081098735 -0.06303751 0.12696621 -0.04504506
0.031174922 -0.12758309 -0.09508204 -0.020756824 -0.1223408 0.10158406 0.017884515 0.02897424
00000000: 8558 13be dbb5 afbd b374 9dbb bd65 893d
00000010: 06a7 b0bd 9dbc 3b3e 5e9b cabd c77a c23c
00000020: 3254 94bd aea7 04be 387e a63d 73c0 66bc
00000030: 63bc 263e 80d7 94bc b02c dcbb 33b8 46bd
00000040: fc29 053d b929 26bd 760f 90bd 5098 473d
00000050: c7f8 bd3d b797 a03c 814a 933c 421a 43bd
00000060: 2545 4ebb 1191 41bc 2524 a6bc ce97 0d3e
00000070: 146a 7a3d d33f cd3c 5f79 713c ab63 843b
00000080: 0156 0d3d 88e6 323d 6f6f 29be 44b9 403d
00000090: 835e a13d 1105 973d dcfe 423d c0ca bcbd
000000a0: 757e 993d eb85 48be 13c6 eebd fa2a c83d
000000b0: a0e7 bdbc b67b 8f3d 1cdf 6fbe 5725 e3bb
000000c0: e0c8 8cbd 3c83 2c3e 17a9 fabd 8742 3c3e
000000d0: 3237 20bc b6a7 d23c 49f9 7cbc 0587 84bc
000000e0: 2d24 183d 05cb 443d 979d 433b dfb4 abbc
000000f0: 9c38 f83d f582 2abd 851d ffbd 3f7b 143e
00000100: d123 263e 7471 66bc 9dca b33d 285a 81bd
00000110: 8b18 e9bc 3021 62be 38ff 833d adc8 4cbe
00000120: 6228 043e 7e7e 4c3e b523 1c3a 6633 23bd
00000130: 491a 183d 3729 f83c 28a4 3c3e 32e2 503e
00000140: 04c1 9a3d 559b 84bb 31f9 51bd 74b7 5d3d
00000150: 67d8 b43d d311 72bd 4176 303e b522 86bd
00000160: c57f 473e 44ba b5bd 2cef 1abd 0aef a1bd
00000170: 8462 a4bd 3e3e e3bd 0e8a 333b a098 c6bc
00000180: 8fec d6ba 4199 823d d730 303d 75f2 ea3d
00000190: 5d4d d7bd f00b 9fbd 514e 22bd ffba 58bd
000001a0: 4fa4 393d 89b6 7f3e 4954 2bbe 94ae 1fbc
000001b0: 2e43 d03d ecc7 06be 9c1c 1abd dafe 9cbd
000001c0: e05c 1b3e 0afa 673e ab31 173d 93af 28be
000001d0: d40b b93c 1fb6 c93d ac31 ce3c cdca a9bd
000001e0: 7f47 90bd 37d8 033b 0ba9 d63d 7f29 d43d
000001f0: 8d97 4cbc c0a3 7d3d 1d78 ea3c 94ca 173e
00000200: bed6 76bd c021 a9bd cb90 6d3c 20ac b8bd
00000210: 42dd 223e 6658 15be b2fc 70bc 2157 0f3d
00000220: b803 733c 0680 34bc 7010 f7bd ed76 8f3d
00000230: f956 f7bd 0279 38be bb31 bf3d 207b f6bc
00000240: 1a0c c63d 6b52 71bc 7d05 0fbe a018 4f3c
00000250: 7e56 613d dfe5 233e 52a3 f63b 89b4 fa3d
00000260: 2eee 11bc ce5d bdbd 9796 1e3d e7aa 173d
00000270: c19c e23d 083a 173e 015a 28be f392 07be
00000280: 0500 993d 098e 413e 0624 a3bd 343d 463d
00000290: 259e 8abd 0686 aa3c a8a6 023c be18 32be
000002a0: 423c ef3c ff78 31bc d3a5 c7bd a214 97bd
000002b0: bec0 1c3c e4ef 67bd 8357 cc3d dc26 2cbd
000002c0: 5515 013c 1999 21be d282 003e fd89 973b
000002d0: 1506 03bd aff6 2abc b5e8 f3bd 23a6 ccbb
000002e0: 29d6 cb3b 08f3 d3bd 207b 493e 8f01 a93d
000002f0: 8518 163d a90e 14be e585 593d d43e e03d
00000300: e2f6 183d 4959 2fbe a07e 24be 2df3 87bd
00000310: 0300 3abe 0f29 9db7 8476 d3bd 26e2 e23c
00000320: b133 68be 46eb 1bbc 0085 d1bc 4afd 043e
00000330: 6e22 43be e7a7 54bd 53fb 9d3d 875e 40be
00000340: e77f e5bd b9a5 04bd 8d9a f83d 1d4c bdbd
00000350: c39f 8d3d 3053 87bc 170d 483b dd34 13bd
00000360: 4fc6 823e d9ce ae3d b4cb 183e c37c 143d
00000370: 7a06 5d3e 2b62 89be 6b74 953d c6a2 213d
00000380: b268 1a3e 46b2 bb3c 158c f03d 5b3c ae3d
00000390: ce25 623e fc98 adbd bf97 193c 5580 c93d
000003a0: 68a3 e23b 13da a13d 98ee 9f3c b146 13bd
000003b0: a009 22be e508 26bd 02ad d6bc 9d6a 3c3e
000003c0: f689 62bb 5c80 d13b 28d4 31be 2a7b 96bd
000003d0: 1817 a6bd cf19 81bd 6e03 023e 2b81 38bd
000003e0: 8d62 ff3c 24a5 02be 5fba c2bd 370a aabc
000003f0: d08d fabd 4e0b d03d 8c82 923c 635b ed3c
