results/PushBlockCollab_PPO/PushBlockCollab/PushBlockCollab-8999999.onnx (onnx, 643240 bytes, 12 tensors)

network_body.observation_encoder.processors.0.conv_layers.0.weight f4 [16, 6, 8, 8]
-0.047031607 0.0063426886 0.069598444 0.054115105 0.08737089 -0.05099773 -0.031437643 0.038774278
0.0029030237 -0.020358082 0.02923758 0.015339091 0.0882094 0.07313971 0.058931835 -0.01202358
0.08503458 0.004315546 0.035325676 -0.014020282 -0.015597216 -0.027870921 -0.010344793 -0.1340864
0.053162813 -0.010780047 -0.08370379 -0.037573833 -0.050838154 -0.05156395 -0.015435399 -0.20919704
0.07580313 -0.035987176 -0.03825623 -0.053987004 0.033243034 -0.04470516 -0.0071500493 0.008111622
-0.08347485 -0.040014382 -0.04218998 0.058196656 0.03283163 0.056282707 0.058031436 -0.055308633
-0.042121 -0.021436663 -0.042512644 -0.011355471 0.0036605517 -0.0405085 0.12239767 -0.07010144
-0.02548734 -0.060308076 -0.055090018 0.10428077 -0.004038912 -0.045599684 -0.00087799353 -0.19922383
-0.054502714 -0.01728275 -0.114535496 -0.13802229 -0.025297077 0.16575563 0.00914171 -0.0001058972
0.0031723115 -0.049346887 -0.09209414 -0.032367982 -0.10353243 0.10273308 0.07354165 0.0184137
-0.012384974 0.04615333 0.0665684 -0.061910726 0.0037709428 -0.09047409 0.14164677 -0.049392518
-0.012891185 0.042769954 0.021396361 0.050310005 0.033380333 -0.0583212 -0.11912295 -0.14033248
-0.09958402 0.08088554 -0.10266594 -0.003942515 -0.02149198 -0.15819554 -0.08210082 -0.07986163
0.05681462 0.0839666 0.082320206 0.01728668 -0.043108854 -0.12010389 -0.10463175 0.021473765
-0.03906643 0.038735636 -0.110858925 0.03458761 -0.082932316 -0.06948597 -0.10528234 0.012103262
-0.08832514 0.016418178 -0.025202949 0.14303614 0.04328938 0.03733002 -0.093666926 -0.09767158
0.08217215 0.036976524 -0.026169004 -0.018301725 -0.0067681274 -0.06660422 -0.05201965 -0.030644251
-0.05300877 0.028722938 0.042318124 -0.0074496963 0.012512057 -0.11124924 -0.040783685 -0.012425812
0.003882423 0.023128323 -0.014539143 0.018833846 0.017614556 -0.0045237946 -0.061652258 -0.01799886
-0.008565825 -0.01601631 0.079955414 -0.0013418288 -0.05523754 -0.00028796203 0.034012314 0.013567005
0.0012659886 0.09634847 0.026482716 0.012452176 0.04507269 -0.00285813 0.069608316 -0.044881605
0.016435513 0.08453094 -0.014188243 -0.014575374 -0.007644176 0.015508938 -0.011360457 -0.060068145
-0.034375295 -0.02244261 0.026233654 0.020254087 0.022053767 0.01184691 -0.044495687 0.02323713
0.0074702213 0.063415356 0.041545514 -0.0027577523 0.07161699 0.029615432 -0.005199333 -0.045300122
-0.008795885 -0.11033479 -0.05552879 0.0041747154 -0.06835496 0.063064516 0.047904044 0.004128053
0.019183986 -0.1605065 -0.031018939 -0.079388864 0.023417262 0.07304032 -0.0040184874 -0.01870366
0.10629093 -0.07091347 0.0074626473 0.061367474 0.118960895 0.09055433 -0.072196715 0.12526873
0.04337437 -0.045419425 0.04151116 -0.04964963 0.018063672 0.023084028 -0.091135465 0.119115174
0.005913063 0.0054879407 -0.017474854 0.05892345 0.12028409 -0.03995908 0.054226924 0.044613108
-0.07960951 -0.030042192 0.03170906 -0.024882438 0.008513217 -0.0136821065 -0.029613627 0.060673486
0.07500321 -0.04170182 0.06486291 -0.0021367325 0.09982065 0.052922823 -0.023645071 -0.077332474
0.049874507 -0.0019831348 0.028299903 0.055787053 0.06666952 0.044112734 -0.02055366 0.044345345
00000000: 37a4 40bd 54d6 cf3b a189 8e3d cda7 5d3d
00000010: 82ef b23d ffe2 50bd c2c4 00bd c7d1 1e3d
00000020: a840 3e3b fec5 a6bc a683 ef3c d050 7b3c
00000030: 21a7 b43d 46ca 953d 8262 713d 8dfe 44bc
00000040: 9c26 ae3d 6c69 8d3b a8b1 103d 53b5 65bc
00000050: 778b 7fbc 8f51 e4bc 357d 29bc f24d 09be
00000060: 40c1 593d cb9e 30bc e56c abbd 05e7 19bd
00000070: ab3b 50bd b834 53bd c1e4 7cbc c037 56be
00000080: ac3e 9b3d 4a67 13bd 91b2 1cbd 7a21 5dbd
00000090: d929 083d c21c 37bd f64a eabb 9ce6 043c
000000a0: ddf4 aabd 1fe6 23bd 67cf 2cbd 9e5f 6e3d
000000b0: 767a 063d b288 663d 5fb2 6d3d 4e8b 62bd
000000c0: 1287 2cbd f19b afbc bd21 2ebd 4c0c 3abc
000000d0: dee5 6f3b 3eec 25bd a1ab fa3d 5891 8fbd
000000e0: d3ca d0bc 9a05 77bd 12a6 61bd 2891 d53d
000000f0: d958 84bb bcc6 3abd 2629 66ba 5501 4cbe
00000100: 3d3e 5fbd 8e94 8dbc 9691 eabd b755 0dbe
00000110: d13b cfbc d8bb 293e 1cc7 153c 2015 deb8
00000120: 8ee6 4f3b f61f 4abd da9b bcbd 4a94 04bd
00000130: d008 d4bd b965 d23d 019d 963d 54d8 963c
00000140: 59ea 4abc 460b 3d3d 0355 883d 1a96 7dbd
00000150: ec21 773b 7b4a b9bd da0b 113e cf4f 4abd
00000160: 8c35 53bc 8c2f 2f3d 6c47 af3c dd11 4e3d
00000170: d1b9 083d 36e2 6ebd bcf6 f3bd 51b3 0fbe
00000180: b5f2 cbbd 51a7 a53d 8542 d2bd 3630 81bb
00000190: f30f b0bc 03fe 21be 7a24 a8bd 7f8e a3bd
000001a0: 72b6 683d aef6 ab3d 7f97 a83d cc9c 8d3c
000001b0: e992 30bd 07f9 f5bd 2c49 d6bd c0e9 af3c
000001c0: 1f04 20bd 42a9 1e3d 010a e3bd bdab 0d3d
000001d0: 6bd8 a9bd a94e 8ebd 449e d7bd c34c 463c
000001e0: d0e3 b4bd 6a7f 863c 6a76 cebc 1178 123e
000001f0: 3450 313d 5de7 183d 72d4 bfbd 0a08 c8bd
00000200: df49 a83d b274 173d 6160 d6bc 80ed 95bc
00000210: 2bc7 ddbb cb67 88bd 8e12 55bd a709 fbbc
00000220: b91f 59bd 5e4c eb3c c555 2d3d 951c f4bb
00000230: 5fff 4c3c a4d6 e3bd cb0c 27bd a295 4bbc
00000240: 4070 7e3b 9c77 bd3c 9635 6ebc 7049 9a3c
00000250: 674c 903c 573c 94bb 1487 7cbd 5872 93bc
00000260: ad57 0cbc a334 83bc aabf a33d 4ee0 afba
00000270: c240 62bd 9cf9 96b9 7f50 0b3d 2548 5e3c
00000280: 87ef a53a 5952 c53d 48f2 d83c 3604 4c3c
00000290: 249e 383d 774f 3bbb ce8e 8e3d c6d5 37bd
000002a0: c5a3 863c 8f1e ad3d ce75 68bc 8dcd 6ebc
000002b0: ff7b fabb 3319 7e3c 3621 3abc 040a 76bd
000002c0: 1ccd 0cbd 90d9 b7bc f6e7 d63c e6eb a53c
000002d0: 1aaa b43c 8b19 423c 1c41 36bd cb5b be3c
000002e0: c2c8 f43b e9df 813d a12b 2a3d 68bb 34bb
000002f0: eeab 923d 109c f23c 2b5f aabb 9f8c 39bd
00000300: 9e1c 10bc 35f7 e1bd 2872 63bd 0dcc 883b
00000310: affd 8bbd f827 813d 0837 443d 9e44 873b
00000320: bc27 9d3c d15b 24be 6e1b febc a196 a2bd
00000330: 8fd5 bf3c 2a96 953d 84ad 83bb 6b38 99bc
00000340: 0faf d93d 153b 91bd 3989 f43b 765c 7b3d
00000350: c5a1 f33d 8c74 b93d dfdb 93bd 7246 003e
00000360: 53a9 313d b809 3abd 9b07 2a3d 695d 4bbd
00000370: 44fa 933c b71a bd3c 3ba5 babd a8f2 f33d
00000380: 5ec2 c13b 2fd4 b33b 6d27 8fbc b759 713d
00000390: 8157 f63d 22ac 23bd 0d1d 5e3d 3cbc 363d
000003a0: 500a a3bd 0b1b f6bc 5ce1 013d 41d6 cbbc
000003b0: 057b 0b3c ea2a 60bc 4798 f2bc c384 783d
000003c0: 489b 993d 87cf 2abd d8d6 843d 6c08 0cbb
000003d0: c56e cc3d 9ac5 583d 4fb3 c1bc 7d60 9ebd
000003e0: 3649 4c3d 7bf7 01bb 33d5 e73c f780 643d
000003f0: 088a 883d 8eaf 343d 2660 a8bc 77a3 353d

network_body.observation_encoder.processors.0.conv_layers.0.bias f4 [16]
-0.08575182 -0.01690687 -0.03610793 -0.0687634 -0.03486678 0.053537145 -0.01763995 -0.025096657
0.057057645 -0.005367055 -0.06950883 -0.0075113038 -0.036442924 -0.025365332 -0.049269274 -0.048584994
00000000: a69e afbd 4780 8abc e9e5 13bd d3d3 8cbd
00000010: 78d0 0ebd c449 5b3d a881 90bc 8197 cdbc
00000020: 47b5 693d 1fde afbb a55a 8ebd 6221 f6bb
00000030: 2d45 15bd f5ca cfbc 94ce 49bd 0f01 47bd

network_body.observation_encoder.processors.0.conv_layers.2.weight f4 [32, 16, 4, 4]
-0.027727734 -0.06040471 0.07424364 0.117643364 -0.06577152 -0.037461217 0.124958605 0.006375396
0.16163436 0.010830189 0.029834112 0.0152989235 0.011575518 0.10667629 0.0053282683 -0.06969288
0.0019497597 -0.17341821 -0.15190597 0.016883539 0.08881558 -0.027765587 -0.0964372 -0.07700615
0.05763887 0.010870861 -0.02622303 0.047757797 0.071641825 0.031533923 0.026549792 -0.01259413
0.10180938 0.018779766 -0.13748993 -0.033927906 0.08785722 0.025483703 -0.012443133 -0.10560882
0.06853653 0.04581294 -0.09703715 0.031956986 0.13898472 -0.005519689 -0.03321476 0.08297272
-0.08549974 0.015734894 0.05027666 -0.047548022 0.114682145 -0.08883853 0.0023458381 -0.0891066
0.0877243 0.002100263 -0.03076619 -0.019655358 -0.0035127029 -0.022793338 -0.015519553 -0.0022256053
0.019518372 -0.025416914 0.10001794 -0.07442011 -0.04870468 -0.032921124 -0.07794534 0.021328805
0.11250442 -0.053913713 0.069894195 -0.11531633 0.042659435 -0.012017021 0.015824948 0.08868323
0.06434352 -0.050819643 -0.060018066 -0.060669485 0.105898574 -0.08571871 -0.17639884 0.004242536
0.111613415 -0.048342794 -0.1337915 -0.08786015 -0.01895148 0.0016486862 0.040006682 0.020733926
0.0058085183 0.0064617954 0.030533182 -0.001285838 -0.072498575 -0.02474634 -0.18060207 -0.038524263
0.09645862 -0.0054729055 0.041333094 -0.019241245 0.14072573 -0.0018333527 -0.009638636 -0.08009021
-0.0017732361 -0.06861858 -0.10112551 -0.016437106 -0.029498065 -0.12069361 -0.11298047 -0.023705633
0.14309941 0.03448082 -0.049407642 -0.003918929 -0.008642407 0.063995704 -0.03032505 0.06688766
0.0805365 0.00094061694 -0.111720644 -0.08329352 -0.05227449 -0.005368857 -0.0083656525 -0.04580412
-0.106282726 0.058714885 0.11881786 -0.07054784 0.13284343 -0.11103922 0.014239844 0.10114896
-0.046860978 0.10314756 0.057984337 -0.015039935 -0.07650945 -0.0015013572 0.039706845 -0.017624961
0.092239365 0.112686016 -0.019560428 0.0023082905 -0.048669383 -0.026017161 -0.015640734 -0.017796444
-0.07864247 -0.07492381 -0.00085346046 -0.07078989 0.12674856 0.050247032 -0.03113883 -0.079749316
0.026069807 0.05001243 -0.03174508 -0.076029 0.022224687 0.035458043 -0.022295156 -0.027119959
-0.013937903 -0.09258633 -0.10779439 -0.10422876 -0.016975492 -0.07155098 -0.029612778 -0.0012627022
0.030388314 -0.1356676 -0.046294194 -0.11022328 0.119988844 0.029736254 0.029871128 0.024816327
-0.04067415 -0.053871308 -0.04642176 0.08395798 -0.0035131422 -0.0603171 0.04504966 0.011960339
0.16411173 -0.034433093 -0.086594276 -0.056623317 0.09361417 0.055672966 -0.0045110974 -0.06204949
-0.16431542 0.02420077 -0.031162005 -0.031874597 -0.041297596 0.06929712 -0.0027053852 -0.009774293
0.080833204 0.005360849 -0.06390279 0.08761076 0.040939223 0.023084072 0.042434532 0.10912113
0.086109996 0.026784945 0.07830227 -0.09726438 0.07289482 0.027063873 0.0032528597 -0.03760224
0.039524652 0.08528457 -0.011193295 -0.042476635 0.07444429 -0.021054506 -0.053303625 -0.116409056
0.026535241 0.03168038 -0.05322538 -0.03896582 0.09520034 -0.016471079 -0.089913584 -0.062415216
0.026011476 -0.07435419 -0.0075933305 -0.0039749667 0.052850686 0.014744376 0.021708123 0.08176428
00000000: 4625 e3bc ee6a 77bd 0d0d 983d 01ef f03d
00000010: 38b3 86bd ef70 19bd 4cea ff3d b3e8 d03b
00000020: 7a83 253e 1b71 313c ab66 f43c 56a8 7a3c
00000030: 3ea7 3d3c 1979 da3d c198 ae3b 24bb 8ebd
00000040: 148f ff3a 8b94 31be 3d8d 1bbe 594f 8a3c
00000050: f1e4 b53d a874 e3bc de80 c5bd 66b5 9dbd
00000060: bc16 6c3d b21b 323c aed1 d6bc ae9d 433d
00000070: f3b8 923d b729 013d f37e d93c 9c57 4ebc
00000080: 7081 d03d 06d8 993c 29ca 0cbe fdf7 0abd
00000090: 7cee b33d 33c3 d03c 48de 4bbc 7049 d8bd
000000a0: e15c 8c3d 59a6 3b3d 6abb c6bd 54e5 023d
000000b0: 0352 0e3e 82de b4bb 330c 08bd 9aed a93d
000000c0: 7d1a afbd 77e6 803c e6ee 4d3d b7c1 42bd
000000d0: 79de ea3d faf0 b5bd a2bc 193b 857d b6bd
000000e0: cca8 b33d 91a4 093b 6009 fcbc 4604 a1bc
000000f0: 6035 66bb 18b9 babc b945 7ebc 76db 11bb
00000100: fee4 9f3c 2237 d0bc 35d6 cc3d 9269 98bd
00000110: 8f7e 47bd 4dd8 06bd cea1 9fbd bfb9 ae3c
00000120: b868 e63d a0d4 5cbd b024 8f3d f82a ecbd
00000130: a9bb 2e3d 0ae3 44bc 52a3 813c 8e9f b53d
00000140: 89c6 833d 4228 50bd 81d5 75bd 9180 78bd
00000150: 5ae1 d83d 4b8d afbd e6a1 34be f904 8b3b
00000160: 9395 e43d 1803 46bd a400 09be 06f0 b3bd
00000170: 2240 9bbc bb18 d83a 0cde 233d 32da a93c
00000180: 6255 be3b 78bd d33b b920 fa3c 9089 a8ba
00000190: 227a 94bd d6b8 cabc c0ef 38be 9ecb 1dbd
000001a0: 198c c53d 0f56 b3bb e44c 293d d19f 9dbc
000001b0: 681a 103e 1c4d f0ba 5feb 1dbc 5606 a4bd
000001c0: ee6b e8ba e687 8cbd e41a cfbd 1ca7 86bc
000001d0: eda5 f1bc 362e f7bd 4e62 e7bd 5132 c2bc
000001e0: a788 123e c33b 0d3d ab5f 4abd 5c6a 80bb
000001f0: e298 0dbc 2e10 833d 3d6c f8bc 66fc 883d
00000200: 52f0 a43d bc93 763a cbcd e4bd cb95 aabd
00000210: c71d 56bd 3ded afbb 1710 09bc 1a9d 3bbd
00000220: c2aa d9bd 057f 703d c756 f33d 637b 90bd
00000230: 1c08 083e 8868 e3bd 3c4e 693c 3027 cf3d
00000240: 4cf1 3fbd 073f d33d fc80 6d3d 0f6a 76bc
00000250: fdb0 9cbd 30c9 c4ba a5a3 223d 3962 90bc
00000260: fee7 bc3d edc7 e63d 313d a0bc b046 173b
00000270: 8c59 47bd f121 d5bc ff20 80bc d9c9 91bc
00000280: 4e0f a1bd a871 99bd c3ba 5fba 4afa 90bd
00000290: 60ca 013e d5cf 4d3d dc16 ffbc 9c53 a3bd
000002a0: 5990 d53c d5d9 4c3d 2107 02bd 18b5 9bbd
000002b0: 8c10 b63c 743c 113d 55a4 b6bc ad2a debc
000002c0: cd5b 64bc e79d bdbd 4ec3 dcbd e375 d5bd
000002d0: 3010 8bbc 5289 92bd 7f96 f2bc 4181 a5ba
000002e0: eaf0 f83c 73ec 0abe fb9e 3dbd bebc e1bd
000002f0: b6bc f53d 7299 f33c 4cb4 f43c 9c4b cb3c
00000300: f099 26bd 29a8 5cbd be24 3ebd 29f2 ab3d
00000310: bf3c 66bb 100f 77bd fe85 383d 4cf5 433c
00000320: e80c 283e b709 0dbd 5758 b1bd daed 67bd
00000330: c9b8 bf3d 5609 643d d4d1 93bb 9b27 7ebd
00000340: 4d42 28be b140 c63c 7647 ffbc f08e 02bd
00000350: ab27 29bd a6eb 8d3d d54c 31bb 5b24 20bc
00000360: e18b a53d 10aa af3b 77df 82bd 456d b33d
00000370: e3af 273d cf1a bd3c d5cf 2d3d e67a df3d
00000380: 705a b03d 1a6c db3c f15c a03d 8c32 c7bd
00000390: e149 953d 0eb5 dd3c ee2d 553b ce04 1abd
000003a0: 9ae4 213d ada9 ae3d 1564 37bc fbfb 2dbd
000003b0: 3f76 983d 807a acbc e754 5abd df67 eebd
000003c0: 6f60 d93c 49c3 013d db02 5abd a09a 1fbd
000003d0: 65f8 c23d 5bee 86bc 9d24 b8bd 19a7 7fbd
000003e0: 0516 d53c 0247 98bd 79d1 f8bb 7040 82bb
000003f0: f679 583d 6592 713c 3cd5 b13c 0874 a73d

network_body.observation_encoder.processors.0.conv_layers.2.bias f4 [32]
-0.03455289 0.092503026 0.06910814 -0.054617517 -0.042496886 -0.02934049 -0.018938305 0.012874272
-0.044064626 -0.010985185 -0.073590934 0.031151824 0.012300132 0.03157358 -0.03252026 -0.028647201
-0.007825239 -0.022663694 0.07224828 0.02822522 -0.017318722 0.02073058 0.034220695 0.07270469
0.060724813 0.06971717 0.028700827 -0.026358882 -0.023011683 -0.052311473 -0.03128143 0.04110771
00000000: 5587 0dbd 3a72 bd3d 9288 8d3d 9eb6 5fbd
00000010: 3711 2ebd 785b f0bc 8124 9bbc 9cee 523c
00000020: 1c7d 34bd 35fb 33bc d8b6 96bd 1c32 ff3c
00000030: 7e86 493c 4c53 013d f733 05bd 89ad eabc
00000040: 6e35 00bc 36a9 b9bc e8f6 933d 9438 e73c
00000050: fedf 8dbc 2dd3 a93c 002b 0c3d 32e6 943d
00000060: 95ba 783d e0c7 8e3d ff1d eb3c 95ee d7bc
00000070: ff82 bcbc 8e44 56bd f520 00bd 8f60 283d

network_body.observation_encoder.processors.0.dense.0.weight f4 [256, 32]
-0.0111388685 0.27449727 0.36937335 0.41359115 -0.13320135 -0.25062886 -0.026431477 -0.06515507
0.42168254 0.32249385 -0.03339543 -0.40477675 0.07796334 -0.17034258 0.11326977 -0.35454306
-0.21811965 -0.009537761 0.18577784 -0.072300985 -0.37543342 -0.24056211 0.24412113 -0.15828429
0.108382136 0.274308 0.21654862 -0.2660459 -0.06473951 -0.21261272 -0.054460373 0.44087628
-0.40614903 -0.01333437 -0.09566424 0.053982656 -0.17690521 0.023656 0.23510471 0.24131763
0.041071758 -0.11088066 -0.2624415 0.025607005 0.0015437094 -0.11053212 0.01534665 0.3251527
0.34951577 0.15112484 -0.029197907 -0.037459057 -0.41940647 0.07917092 -0.30799437 0.35289362
-0.2439183 0.120925255 -0.2874253 -0.13878895 0.2796777 0.32169053 0.46142098 0.044339493
0.12529147 -0.18617499 0.046587367 -0.17472024 -0.10247608 -0.10374786 0.30092844 0.03072382
0.056441903 -0.04620656 -0.1094598 -0.09974609 -0.2948355 -0.0251054 -0.062167488 0.021621542
0.5087591 -0.20365258 0.5814171 0.13651177 -0.03139308 -0.043272242 -0.19106212 0.042209696
-0.3277923 0.16546835 -0.32543623 -0.18363868 0.37870124 0.22334062 -0.038576018 0.009091117
-0.05989806 0.3178695 -0.48557734 -0.0985175 -0.33634087 0.055620756 -0.35031062 0.3566128
-0.24207541 -0.10740446 -0.10353042 -0.1522042 -0.11459728 -0.1369496 -0.009654096 -0.0032024716
0.51843953 -0.08814344 0.3330094 0.058635477 0.02664869 -0.41804597 -0.18102847 0.26426402
0.4043007 -0.052368212 -0.35374743 -0.18765724 0.35227662 0.037971254 -0.2241853 0.24836591
0.444916 -0.2974498 -0.06795882 -0.2100684 0.17298155 0.14245197 -0.09376559 -0.3383181
-0.314883 0.095765814 0.12928732 -0.17236534 -0.2433047 -0.24024409 -0.60126597 0.60165423
-0.063447975 -0.15614575 -0.0772138 0.5554281 -0.16676933 0.058515094 0.1552097 0.25207216
0.30768827 -0.07075028 -0.25619847 0.01402466 0.2997629 0.09848455 -0.34423563 -0.06684253
-0.3955041 0.32717878 -0.16806974 -0.15046278 -0.119753286 0.04085652 -0.3294303 0.22653629
0.04370852 -0.07441107 0.14735174 0.033253837 -0.44327492 -0.38641667 -0.104684845 -0.034560405
0.14388862 0.08044093 0.21842459 -0.0063643027 0.20784678 -0.16669126 -0.40659514 -0.10774786
0.11160757 0.2751097 -0.20354526 -0.26365954 0.1364797 0.03272795 0.15522246 -0.05363365
0.07371009 -0.031826813 0.291476 0.021142324 -0.46817017 -0.07108634 -0.18730378 0.1322227
-0.33968687 -0.30125612 0.040900584 0.083567575 -0.52733856 -0.07640855 0.12149202 0.018599091
0.7523231 0.028593795 0.16004904 0.019127853 -0.0018003774 -0.14012219 -0.21314552 -0.16194595
0.4898656 -0.17434543 0.01681054 0.048850387 0.11372945 -0.0874712 0.020953445 0.021993894
-0.041956604 -0.22229844 -0.20255458 0.3380057 -0.22220457 0.3308172 0.43892282 -0.11905689
0.09454032 -0.29214656 0.10549319 -0.13892806 0.0032796562 0.0879295 0.4834564 0.0698172
0.12329744 -0.26085836 -0.32309783 0.3062943 0.04203445 0.4113943 -0.13765758 0.16064017
0.3224835 0.3703008 -0.18970053 -0.39201355 0.4228305 -0.16531625 0.14938149 -0.1408399
00000000: cd7f 36bc e88a 8c3e 811e bd3e 38c2 d33e
00000010: ef65 08be 6d52 80be d386 d8bc 0570 85bd
00000020: c6e6 d73e ea1d a53e a5c9 08bd e63e cfbe
00000030: 3eab 9f3d 496e 2ebe fbf9 e73d ab86 b5be
00000040: c25a 5fbe 4544 1cbc 8c3c 3e3e 8a12 94bd
00000050: cf38 c0be ea55 76be e4fa 793e 4715 22be
00000060: 74f7 dd3d 1972 8c3e ecbe 5d3e 2b37 88be
00000070: 2696 84bd 26b7 59be d711 5fbd 89ba e13e
00000080: c4f2 cfbe 6778 5abc 9deb c3bd eb1c 5d3d
00000090: a426 35be 3aca c13c 4abf 703e f81b 773e
000000a0: dc3a 283d 6615 e3bd bb5e 86be c8c5 d13c
000000b0: 4b56 ca3a aa5e e2bd 8470 7b3c 6a7a a63e
000000c0: bbf3 b23e 78c0 1a3e 7330 efbc ab6e 19bd
000000d0: 72bc d6be 5d24 a23d 70b1 9dbe 79ae b43e
000000e0: b8c5 79be a9a7 f73d 6929 93be b11e 0ebe
000000f0: ea31 8f3e 9fb4 a43e 5f3f ec3e 549d 353d
00000100: 684c 003e a8a4 3ebe 65d2 3e3d dde9 32be
00000110: fbde d1bd c279 d4bd 4b13 9a3e 85b0 fb3c
00000120: a02f 673d 1743 3dbd 762c e0bd ae47 ccbd
00000130: aef4 96be d7a9 cdbc 56a3 7ebd a91f b13c
00000140: 093e 023f 4d8a 50be c0d7 143f bec9 0b3e
00000150: 0896 00bd 3c3e 31bd caa5 43be 13e4 2c3d
00000160: 64d4 a7be 8970 293e 949f a6be c70b 3cbe
00000170: 21e5 c13e 67b3 643e e301 1ebd e9f2 143c
00000180: ab57 75bd cbbf a23e 989d f8be 8bc3 c9bd
00000190: df34 acbe 97d2 633d ea5b b3be f495 b63e
000001a0: 9ee2 77be dff6 dbbd c207 d4bd 6bdb 1bbe
000001b0: fbb1 eabd 843c 0cbe 372c 1ebc 8fe0 51bb
000001c0: 74b8 043f 8c84 b4bd 3580 aa3e c12b 703d
000001d0: 5b4e da3c 1f0a d6be 875f 39be 9d4d 873e
000001e0: 8000 cf3e 0d80 56bd 621e b5be 3829 40be
000001f0: 9a5d b43e bf87 1b3d d590 65be a253 7e3e
00000200: 08cc e33e 574b 98be fe2d 8bbd 2c1c 57be
00000210: 1322 313e eede 113e 2c08 c0bd 0838 adbe
00000220: 5838 a1be de20 c43d e563 043e 8a80 30be
00000230: de24 79be 8c02 76be 91ec 19bf 0306 1a3f
00000240: 03f1 81bd ace4 1fbe 4522 9ebd 8930 0e3f
00000250: 94c5 2abe 86ad 6f3d 4bef 1e3e 9a0f 813e
00000260: 5189 9d3e 86e5 90bd 722c 83be b0c7 653c
00000270: 867a 993e 45b2 c93d a73f b0be bde4 88bd
00000280: 837f cabe fa83 a73e 791a 2cbe ea12 1abe
00000290: 3641 f5bd 2b59 273d 17ab a8be 21f9 673e
000002a0: b407 333d d564 98bd 60e3 163e 2d35 083d
000002b0: eef4 e2be 68d8 c5be 0265 d6bd 368f 0dbd
000002c0: 8a57 133e 37be a43d b2aa 5f3e a48b d0bb
000002d0: c9d5 543e 1db1 2abe 3d2d d0be e9aa dcbd
000002e0: 8292 e43d 2edb 8c3e 2b6e 50be 62fe 86be
000002f0: 56c1 0b3e be0d 063d a3f2 1e3e f5ae 5bbd
00000300: 51f5 963d d55c 02bd 583c 953e ab32 ad3c
00000310: 00b4 efbe b795 91bd 90cc 3fbe 6365 073e
00000320: 70eb adbe 3e3e 9abe 5f87 273d 7a25 ab3d
00000330: a9ff 06bf 167c 9cbd cfd0 f83d 1f5d 983c
00000340: 3f98 403f 893d ea3c e5e3 233e 04b2 9c3c
00000350: a4fa ebba 317c 0fbe d242 5abe 29d5 25be
00000360: aacf fa3e 9c87 32be 42b6 893c 5817 483d
00000370: fcea e83d 1a24 b3bd 8fa6 ab3c 8a2c b43c
00000380: b0da 2bbd 34a2 63be 786a 4fbe 150f ad3e
00000390: 9889 63be df60 a93e 7eba e03e 19d4 f3bd
000003a0: 5b9e c13d 3c94 95be d00c d83d 2843 0ebe
000003b0: 80ef 563b 6214 b43d 9987 f73e 52fc 8e3d
000003c0: 5e83 fc3d 3a8f 85be 146d a5be 9bd2 9c3e
000003d0: 512c 2c3d 46a2 d23e 1cf6 0cbe db7e 243e
000003e0: 8f1c a53e 1198 bd3e db40 42be 00b6 c8be
000003f0: 3d7d d83e aa48 29be 76f7 183e 5638 10be

network_body.observation_encoder.processors.0.dense.0.bias f4 [256]
-0.035438195 0.0426636 0.06525029 0.025437918 0.063189104 0.049569465 0.0819629 0.0068333806
0.009700496 0.057467073 0.0115363505 0.019433793 -0.023487225 0.07955187 -0.06609383 0.02207867
0.05396019 -0.100361645 -0.01171283 -0.0372986 0.08821511 0.091567755 0.01520384 0.030677093
0.030565787 0.002611646 0.07663276 0.15832038 0.021164926 0.003240726 0.063853055 -0.007739912
0.009118761 0.09023652 0.0038227255 -0.0037574887 -0.090658486 0.042559996 -0.027490474 0.0035542268
-0.0028096922 0.048185397 0.034720324 -0.016392617 0.052338134 -0.016263878 0.09513658 0.0963561
-0.0070586135 -0.014417162 0.04219187 0.054487653 0.037183546 0.076332375 -0.013874681 -0.019421883
0.0046337135 0.076290436 0.038798492 0.05778774 0.093753636 -0.003703125 0.04069582 -0.018916579
0.079493664 -0.01360036 0.03349451 0.023112014 0.010028124 0.047345497 0.10145552 -0.06270429
0.0423351 0.01414648 -0.0004510602 -0.01592336 -0.061028425 0.018256033 0.018017976 -0.04279758
0.020849908 0.09012587 0.05044583 -0.017164983 -0.032167602 -0.014873565 -0.016843194 0.046368673
0.03557017 -0.0057002543 -0.02184917 -0.0009956975 0.01900344 0.020911824 -0.09836867 -0.0016110579
0.051557098 0.04318413 0.095909044 0.086708516 0.027831312 0.024225017 -0.023714103 0.021287186
-0.01814199 0.021448785 0.087287374 -0.050146192 0.03223191 0.030317236 0.009962862 0.047438577
0.012038623 0.0061483677 0.048266295 0.08649951 0.00924724 0.0920826 0.038460203 -0.08442849
-0.017021783 -0.014104993 0.066871375 0.017379597 0.0033118362 -0.0050471975 -0.031236507 -0.029237248
0.0014115165 0.010677075 0.099065825 -0.010465358 0.021638371 -0.028585648 0.014889343 0.06765469
0.0717883 0.12926996 -0.0023349966 0.008762694 0.013734562 0.10479183 -0.009009261 0.05665105
0.0047506467 -0.012456138 -0.045687594 -0.026484104 0.023882324 0.048542507 0.020122824 0.021135766
-0.046113305 -0.0064860866 -0.0023254743 0.033916734 0.04878631 0.00019203627 0.038782503 0.026459495
0.06599929 0.05700867 0.067995444 -0.057782523 0.017388394 -0.03102396 0.0667186 -0.009983031
0.026064612 -0.1029682 0.030188916 0.06514386 0.053571895 0.010082718 -0.00194612 0.046500914
0.06625274 0.058019858 -0.06541382 0.019933028 0.039911635 0.06447057 -0.007648514 -0.08592029
-0.0008314693 0.021345852 0.069709525 0.012917544 0.064071275 -0.004510694 0.028427396 0.09001045
0.009621875 0.062193625 0.043253552 0.074654564 0.003167289 0.047700714 0.0016789538 0.056539334
0.06349126 0.10165004 0.0064669475 -0.083189234 0.0021767213 0.02354693 -0.009136933 -0.045165516
0.0041310494 0.07554979 0.08442683 0.07970644 0.036114864 -0.048202965 0.05144004 0.0050963713
-0.059325747 0.059404854 0.02525731 0.014988144 -0.034138728 0.028399624 0.0682814 0.024567677
0.076727755 -0.01641556 -0.020991445 0.010378232 0.01973129 0.027792424 -0.0022526528 -0.032895878
0.047607757 0.024690583 -0.00024991314 0.042246282 0.0043104803 0.07898126 0.028311575 -0.0072396738
-0.0052436115 0.0074157147 -0.007919718 0.052100416 0.03658406 -0.014716489 0.055620234 0.049624186
0.07701514 0.077773586 0.0024159763 0.03661203 0.05756465 -0.013731741 0.020499308 0.078689106
00000000: a427 11bd 07c0 2e3d f2a1 853d 2e63 d03c
00000010: 4a69 813d 5a09 4b3d 2adc a73d 8dea df3b
00000020: d4ee 1e3c 9862 6b3d f602 3d3c 9e33 9f3c
00000030: 4868 c0bc 17ec a23d 345c 87bd 54de b43c
00000040: 5c05 5d3d 688a cdbd 2be7 3fbc 6bc6 18bd
00000050: 20aa b43d e087 bb3d 8719 793c 874e fb3c
00000060: 1a65 fa3c 2628 2b3b a3f1 9c3d bd1e 223e
00000070: 1162 ad3c 5c62 543b 64c5 823d 169f fdbb
00000080: db66 153c edcd b83d b186 7a3b 3340 76bb
00000090: 28ab b9bd 6453 2e3d b433 e1bc 08ee 683b
000000a0: d022 38bb 0d5e 453d e636 0e3d cf49 86bc
000000b0: 8360 563d d33b 85bc f8d6 c23d 5956 c53d
000000c0: f14b e7bb f635 6cbc 62d1 2c3d 722e 5f3d
000000d0: c64d 183d 2654 9c3d a152 63bc a41a 9fbc
000000e0: 68d6 973b 293e 9c3d 2beb 1e3d d6b2 6c3d
000000f0: e801 c03d 21b0 72bb a9b0 263d f1f6 9abc
00000100: 93cd a23d 0bd4 5ebc 8a31 093d 6855 bd3c
00000110: 004d 243c 5aed 413d e9c7 cf3d 1b6b 80bd
00000120: 9267 2d3d a3c6 673c 467c ecb9 b571 82bc
00000130: f1f8 79bd ad8d 953c 6f9a 933c 844c 2fbd
00000140: 6dcd aa3c ea93 b83d 49a0 4e3d 949d 8cbc
00000150: 2dc2 03bd 41b0 73bc bdfa 89bc 14ed 3d3d
00000160: 07b2 113d 33c9 babb 08fd b2bc 1082 82ba
00000170: 1aad 9b3c 464f ab3c 8375 c9bd 222a d3ba
00000180: 892d 533d d8e1 303d f66b c43d 3c94 b13d
00000190: 7efe e33c 8b73 c63c 1444 c2bc 7762 ae3c
000001a0: 839e 94bc 5db5 af3c b9c3 b23d 1866 4dbd
000001b0: 9b05 043d da5b f83c 463b 233c f44e 423d
000001c0: a53d 453c 3f78 c93b e1b2 453d a826 b13d
000001d0: bc81 173c cd95 bc3d 7288 1d3d d8e8 acbd
000001e0: 4471 8bbc a118 67bc dcf3 883d a85f 8e3c
000001f0: 640b 593b f662 a5bb b4e3 ffbc f482 efbc
00000200: a202 b93a e6ee 2e3c 06e3 ca3d e576 2bbc
00000210: f442 b13c 732c eabc 6ef2 733c 8b8e 8a3d
00000220: bf05 933d 585f 043e be06 19bb 6791 0f3c
00000230: ee06 613c 199d d63d 949b 13bc ee0a 683d
00000240: 50ab 9b3b d414 4cbc ea22 3bbd 31f5 d8bc
00000250: dda4 c33c 82d4 463d 9fd8 a43c ea24 ad3c
00000260: 4ee1 3cbd 3d89 d4bb fc66 18bb 46ec 0a3d
00000270: 27d4 473d 585d 4939 67da 1e3d 95c1 d83c
00000280: a32a 873d ec81 693d 3241 8b3d 5ead 6cbd
00000290: 1b72 8e3c f625 febc c3a3 883d de8f 23bc
000002a0: 7485 d53c fee0 d2bd bf4e f73c 256a 853d
000002b0: 346e 5b3d fc31 253c f414 ffba be77 3e3d
000002c0: 84af 873d 3ba6 6d3d aef7 85bd 974a a33c
000002d0: 627a 233d 2509 843d 63a0 fabb faf6 afbd
000002e0: f6f6 59ba 7fdd ae3c dec3 8e3d 1ba4 533c
000002f0: cd37 833d 72ce 93bb 92e0 e83c 6657 b83d
00000300: 12a5 1d3c bebe 7e3d a32a 313d 7ee4 983d
00000310: 4b92 4f3b d361 433d 5710 dc3a ca95 673d
00000320: b507 823d e52d d03d b0e8 d33b 1e5f aabd
00000330: 53a7 0e3b 7ee5 c03c 13b3 15bc 7aff 38bd
00000340: c15d 873b d9b9 9a3d f9e7 ac3d 213d a33d
00000350: 2eed 133d 7970 45bd cbb2 523d 76ff a63b
00000360: 8eff 72bd 8152 733d 6be8 ce3c d590 753c
00000370: 0dd5 0bbd 54a6 e83c 1ed7 8b3d 2742 c93c
00000380: 7123 9d3d ed79 86bc 40f6 abbc 7609 2a3c
00000390: 84a3 a13c f0ac e33c 3ea1 13bb d4bd 06bd
000003a0: 5a00 433d e843 ca3c c606 83b9 700a 2d3d
000003b0: ee3e 8d3b edc0 a13d aded e73c c93a edbb
000003c0: 9ad2 abbb 86ff f23b b4c1 01bc 3f67 553d
000003d0: 2bd9 153d 6e1d 71bc 0bd2 633d bb42 4b3d
000003e0: 1dba 9d3d c247 9f3d 5b55 1e3b 7ff6 153d
000003f0: e9c8 6b3d 19fb 60bc 2aee a73c c127 a13d

network_body._body_endoder.seq_layers.0.weight f4 [256, 266]
-0.052401345 -0.019658096 0.08069179 0.0031475897 -0.14575051 -0.0054295785 0.023293063 -0.080671236
-0.03876172 0.019795094 0.059177905 -0.16023476 -0.15381041 -0.06748047 -0.10451424 0.11994846
-0.057873808 -0.06718987 0.066442184 0.024247494 -0.15453486 -0.025467386 0.11006293 -0.06311614
-0.23500925 -0.044704083 -0.15888676 -0.026774637 -0.1670916 -0.17369154 0.09904718 0.04085488
0.021450812 -0.13423508 0.034321576 -0.21489644 -0.02102062 0.009931662 -0.11270925 -0.050836954
-0.08023637 -0.021678781 -0.089471936 -0.0044555697 -0.03181315 -0.028096147 -0.03408248 0.111104496
-0.0027260247 -0.041368835 -0.04717329 -0.04179877 -0.04770873 0.1465382 -0.1409551 0.022250986
0.13139378 -0.0009240603 -0.13019952 0.005465605 0.12082242 -0.013552841 0.054970954 0.17381263
-0.061811004 0.04845006 -0.04227709 -0.16352116 0.026872952 -0.11320476 -0.03692353 -0.009255815
0.024690852 0.022163188 -0.034603033 0.01760021 -0.08419324 0.022116596 -0.17152956 0.07116591
0.019538468 0.09973319 -0.04062189 -0.047022775 -0.038386084 -0.048156787 -0.05717212 0.0022771338
-0.09687224 -0.07139095 -0.059812553 -0.08832973 0.11661696 0.04337977 -0.054414067 -0.02784498
-0.27347732 0.14870337 0.059593745 -0.07702475 0.14508101 0.113869175 -0.1433921 0.041773867
0.059568793 0.0017600158 -0.17502998 -0.06421038 -0.020114304 -0.113870054 -0.005766334 -0.085218854
0.11793317 0.0013677721 0.13533442 0.026377395 0.011518827 -0.029722683 -0.18304032 0.12879185
0.13260408 -0.049370248 -0.060250763 0.12928678 0.031440146 0.026067993 0.029155876 -0.08707509
-0.016518796 0.029594626 -0.12762706 -0.030203126 -0.08344649 -0.060734533 0.040669676 -0.12812153
-0.14730434 0.041840024 -0.11988416 -0.13600689 0.09353509 -0.039876346 -0.097862884 0.07894454
-0.006559316 0.020268312 -0.17511469 -0.0040972997 -0.36395818 -0.098236285 0.12722282 0.059553474
-0.03473534 -0.07426112 -0.06717396 0.17970082 -0.12303569 -0.06603411 -0.08259699 0.021120902
0.004502937 0.043612793 0.047459114 -0.031800672 -0.251408 0.028925447 -0.27582064 -0.19633606
-0.11115411 0.023508534 -0.0123973945 -0.15825187 0.013429123 0.05457232 -0.18118002 -0.0038694309
-0.0061197593 -0.028416932 0.011854601 -0.06907268 -0.022341968 -0.018044475 0.0039392426 0.027796939
-0.18904655 -0.17904776 -0.1958839 0.029623235 -0.18654093 0.00084059284 0.036767963 -0.08246517
0.021852592 -0.04939058 -0.08532428 -0.09716771 -0.13491191 -0.022435311 -0.09650608 -0.0059415214
0.038105555 0.080774814 -0.0276843 -0.060646176 0.09536242 -0.09054608 0.021778435 0.03962977
-0.023036331 -0.23651211 -0.013390901 -0.01202173 -0.122045755 0.105491556 -0.0052555427 -0.056486648
-0.10165498 -0.13923548 0.095000915 0.048423477 0.08170579 0.04495186 0.039149836 -0.038916405
-0.09446283 -0.08537638 -0.030907415 -0.048258338 0.06327789 -0.0045704804 0.042588916 -0.090840176
-0.07991813 -0.017498165 0.02887483 -0.21802989 -0.062514305 0.061803702 -0.13026932 -0.0806846
-0.023905717 -0.05843642 -0.0435967 -0.22985065 -0.1738664 0.014533248 0.09370064 0.07714099
-0.0013595948 -0.11545288 0.10910817 0.030780602 0.078872226 -0.007434962 -0.14654633 0.010212325
00000000: cba2 56bd 040a a1bc bd41 a53d cb47 4e3b
00000010: 9f3f 15be 9bea b1bb 18d1 be3c f636 a5bd
00000020: 9cc4 1ebd 5229 a23c 8864 723d 9514 24be
00000030: 7a80 1dbe 3333 8abd 900b d6bd 8aa7 f53d
00000040: 160d 6dbd d89a 89bd d712 883d aea2 c63c
00000050: 633e 1ebe fba0 d0bc ac68 e13d 0943 81bd
00000060: 44a6 70be a11b 37bd 36b3 22be 7c56 dbbc
00000070: 0f1a 2bbe 32dc 31be 3fd9 ca3d 7257 273d
00000080: 9db9 af3c ec74 09be c894 0c3d d00d 5cbe
00000090: 6f33 acbc 69b8 223c 1bd4 e6bd 693a 50bd
000000a0: f752 a4bd b397 b1bc 103d b7bd 0700 92bb
000000b0: 814e 02bd e429 e6bc 129a 0bbd c18a e33d
000000c0: 1ba7 32bb 5e72 29bd c838 41bd 3035 2bbd
000000d0: 3b6a 43bd 1c0e 163e 8956 10be b347 b63c
000000e0: 178c 063e a33c 72ba 0653 05be d118 b33b
000000f0: bf71 f73d bc0c 5ebc 3929 613d f0fb 313e
00000100: 892d 7dbd 9273 463d be2a 2dbd 1772 27be
00000110: aa24 dc3c e6d7 e7bd 213d 17bd b4a5 17bc
00000120: 7844 ca3c 938f b53c e9bb 0dbd 512e 903c
00000130: 816d acbd dd2d b53c 72a5 2fbe 6fbf 913d
00000140: 230f a03c ea40 cc3d 2463 26bd f49a 40bd
00000150: ba3a 1dbd 0d40 45bd 502d 6abd f73b 153b
00000160: f464 c6bd 6b35 92bd 02fe 74bd 38e6 b4bd
00000170: dfd4 ee3d fcae 313d 49e1 5ebd 281b e4bc
00000180: 3805 8cbe b245 183e 9218 743d 27bf 9dbd
00000190: 1e90 143e 3e34 e93d 61d5 12be 131b 2b3d
000001a0: 68fe 733d 55b0 e63a 0f3b 33be bb80 83bd
000001b0: c1c6 a4bc b434 e9bd 84f3 bcbb 3987 aebd
000001c0: f286 f13d d146 b33a 1b95 0a3e 6815 d83c
000001d0: 76b9 3c3c fc7c f3bc ec6e 3bbe 03e2 033e
000001e0: 5dc9 073e 7538 4abd 81c9 76bd c163 043e
000001f0: 62c7 003d 8b8c d53c 4ed8 ee3c 6d54 b2bd
00000200: 6d52 87bc 6e70 f23c abb0 02be 8c6c f7bc
00000210: fee5 aabd c6c4 78bd 3f95 263d 4a32 03be
00000220: f3d6 16be 7260 2b3d d485 f5bd 6445 0bbe
00000230: 538f bf3d 6155 23bd 566c c8bd adad a13d
00000240: 88ef d6bb bb09 a63c 4451 33be a442 86bb
00000250: ba58 babe 1b30 c9bd b346 023e 58ee 733d
00000260: a546 0ebd 3716 98bd 8092 89bd 7e03 383e
00000270: 23fa fbbd e43c 87bd 9c28 a9bd be05 ad3c
00000280: 608d 933b 54a3 323d 7d64 423d 6c41 02bd
00000290: 8db8 80be 0ff5 ec3c 5d38 8dbe 520c 49be
000002a0: c4a4 e3bd f894 c03c 711e 4bbc c70c 22be
000002b0: d305 5c3c 3a87 5f3d 4187 39be 4796 7dbb
000002c0: 4388 c8bb a0ca e8bc cd39 423c fa75 8dbd
000002d0: 8106 b7bc 02d2 93bc c314 813b 68b6 e33c
000002e0: 6b95 41be 4c58 37be ca95 48be 6dac f23c
000002f0: 9604 3fbe 3b5b 5c3a 019a 163d 80e3 a8bd
00000300: 3504 b33c c74d 4abd 7fbe aebd ddff c6bd
00000310: 5926 0abe 42ca b7bc fba4 c5bd 18b1 c2bb
00000320: 9214 1c3d 446d a53d 2fca e2bc 2068 78bd
00000330: 5f4d c33d 3970 b9bd b068 b23c d352 223d
00000340: b0b6 bcbc 3b30 72be 8265 5bbc caf6 44bc
00000350: 20f3 f9bd f50b d83d b036 acbb 8b5e 67bd
00000360: 7c30 d0bd bf93 0ebe d78f c23d b257 463d
00000370: 5d55 a73d 711f 383d 945b 203d cf66 1fbd
00000380: ba75 c1bd d0d9 aebd 8c31 fdbc 89aa 45bd
00000390: d797 813d f8c3 95bb b771 2e3d 6a0a babd
000003a0: 1eac a3bd 5058 8fbc e88a ec3c 3a43 5fbe
000003b0: 8007 80bd e125 7d3d 5265 05be f83d a5bd
000003c0: ecd5 c3bc 075b 6fbd 7492 32bd f85d 6bbe
000003d0: 090a 32be dc1c 6e3c 1fe6 bf3d 18fc 9d3d
000003e0: 6e34 b2ba 8f72 ecbd 1b74 df3d 9a27 fc3c
000003f0: c387 a13d fba0 f3bb 3e10 16be 9851 273c

network_body._body_endoder.seq_layers.0.bias f4 [256]
-0.029870685 0.0067906487 0.010729425 -0.003103527 0.015189231 0.038321804 0.0010576068 0.015344966
0.003839308 0.0036595135 0.029878648 -0.033408694 0.014074417 0.006943137 0.0130484905 -0.040867362
0.029785788 -0.016906498 0.019771827 0.011132517 0.016837448 0.011154179 0.008472719 -0.0002453389
-0.011293681 0.0058863168 -0.010802107 -0.0005416756 0.008098846 -0.0073879 0.0067512817 -0.019750522
-0.0064628636 0.0024134705 0.0020576734 0.0097518 0.012424962 -0.018674685 0.008402867 -0.025673123
-0.009081921 -0.014461276 0.018652232 0.032446403 0.004705643 0.03180658 -0.01056079 0.0024373278
-0.113609724 0.015309055 0.00893578 0.01698457 0.0146005675 0.013540642 -0.008281685 0.011796753
0.036753017 0.012808243 0.012906612 -0.020806452 -0.00041012574 0.0072052577 -0.009097701 0.020770187
-0.0054464904 -0.010759056 0.018553594 -0.01685122 0.029423365 0.031831387 0.009677973 -0.02192123
0.0010336264 -0.004951596 -0.012158906 -0.01933843 0.036682215 -0.011874332 -0.010463579 0.013847537
0.018460639 0.008846644 0.012341973 -0.005499088 -0.012797554 -0.0008249611 -0.0056312745 -0.004287418
0.03472586 -0.017593525 -0.021913923 0.012818109 0.034879744 -0.007945852 0.007347595 0.021943547
-0.003590595 0.036978606 0.015077831 -0.005325945 -0.013280902 0.02604615 -0.004231881 0.011759537
0.002228074 0.02073452 0.021338236 0.047645807 0.018523933 0.009899708 0.032386772 0.009628029
-0.0024066442 0.03254268 0.00657695 0.021653257 0.019192357 0.0069901724 0.027950877 -0.0026457165
-0.0022140516 0.021171609 0.013332132 0.029598601 0.025207462 0.030891316 -0.01754313 0.033853803
-0.010967366 -0.044164762 -0.043213647 0.0046822447 0.026193991 -0.009854645 -0.0058219885 0.0024844282
-0.028780883 0.01509124 0.013331902 0.019266535 -0.021861069 -0.015580906 -0.0016583023 0.00020111691
-0.003311649 0.02264642 -0.00999431 -0.016725058 -0.003582616 0.018129898 -0.007293342 0.028824374
-0.011411314 0.00023936009 -0.004668506 -0.0005672201 0.0020342683 0.0464118 -0.011345758 0.004337007
-0.007407523 0.0012548387 0.004269756 0.022634778 0.022604514 0.026343953 0.009834373 -0.056152895
0.007235636 -0.0041620964 -0.0095109 -0.018736131 -0.0008317918 -0.027122045 0.029476348 0.013045483
0.0023411093 0.013380838 -0.0035087042 -0.03384782 0.007430666 -0.01126743 0.011206059 0.010577818
0.007250773 -0.0049265814 0.020402689 0.0071257455 0.018183913 -0.011260048 0.0084607685 0.034714304
-0.011594288 -0.009899053 -0.026486034 -0.017638035 0.007406851 0.015931882 -0.009305045 0.019690879
-0.0077657155 0.008835205 -0.0126485685 0.010520584 0.0055550807 0.0042058025 0.012842561 0.011761024
0.029876005 -0.00021996643 -0.027763339 -0.0088044815 0.013075095 0.01463979 -0.018749343 0.020476922
0.040647537 0.011818193 0.006529355 0.014541689 0.008352977 0.023480862 0.002615895 -0.02228038
0.012796063 0.012223125 0.02541633 0.011054162 0.043966055 -0.046584193 -0.008877823 0.034223128
0.009000019 0.022845997 0.024444379 -0.014133425 -0.011100825 0.0049501075 0.031518478 0.02455773
0.0008630574 0.005202788 0.030058166 -0.019899769 0.018277071 -0.024010973 0.021849621 0.020019328
0.009014375 -0.027998738 0.014059217 0.0072933626 0.004170629 0.012550511 0.018842632 0.01655383
00000000: 5eb3 f4bc 1784 de3b 78ca 2f3c 8b64 4bbb
00000010: 41dc 783c 53f7 1c3d 659f 8a3a 7469 7b3c
00000020: e69c 7b3b 73d4 6f3b 11c4 f43c 8ed7 08bd
00000030: 6298 663c 4183 e33b 56c9 553c 8964 27bd
00000040: 5301 f43c 7f7f 8abc 87f8 a13c 2965 363c
00000050: b0ee 893c 05c0 363c 29d1 0a3c d4a0 80b9
00000060: 2209 39bc 01e2 c03b 52fb 30bc 3cff 0dba
00000070: 06b1 043c 3216 f2bb db39 dd3b d9cb a1bc
00000080: 6ec6 d3bb 512b 1e3b 08da 063b 04c6 1f3c
00000090: 1192 4b3c a7fb 98bc 2eac 093c 7150 d2bc
000000a0: 56cc 14bc fdee 6cbc 91cc 983c 85e6 043d
000000b0: cb31 9a3b 9e47 023d 2a07 2dbc 93bb 1f3b
000000c0: 37ac e8bd d5d2 7a3c 6167 123c 3a23 8b3c
000000d0: 3837 6f3c 92d9 5d3c e8af 07bc 2b47 413c
000000e0: 558a 163d aad9 513c 4176 533c 4b72 aabc
000000f0: 2506 d7b9 151a ec3b 860e 15bc 3d26 aa3c
00000100: 7978 b2bb c046 30bc b5fd 973c 920b 8abc
00000110: 4509 f13c a161 023d 5c90 1e3c 2794 b3bc
00000120: bf7a 873a ff40 a2bb 2636 47bc a16b 9ebc
00000130: 1740 163d 8f8c 42bc 6e6f 2bbc c8e0 623c
00000140: c43a 973c 84f1 103c fd35 4a3c b231 b4bb
00000150: d5ac 51bc 3442 58ba 8e86 b8bb 787d 8cbb
00000160: b43c 0e3d 4c20 90bc d484 b3bc 0c03 523c
00000170: 10de 0e3d 522f 02bc 18c4 f03b f4c2 b33c
00000180: 3050 6bbb e176 173d 0209 773c 4485 aebb
00000190: 2498 59bc bc5e d53c 97ab 8abb 13ab 403c
000001a0: e104 123b 71db a93c 86cd ae3c 4028 433d
000001b0: 81bf 973c 6332 223c fea7 043d e1be 1d3c
000001c0: cab8 1dbb 794b 053d 7583 d73b 2c62 b13c
000001d0: 4a39 9d3c d10d e53b 3df9 e43c c263 2dbb
000001e0: 9f19 11bb 1570 ad3c 046f 5a3c c478 f23c
000001f0: e17f ce3c c90f fd3c 9cb6 8fbc 49aa 0a3d
00000200: 78b0 33bc 1ce6 34bd cb00 31bd 846d 993b
00000210: c894 d63c 6075 21bc 61c6 bebb cad1 223b
00000220: e3c5 ebbc 4041 773c 0d6e 5a3c dad4 9d3c
00000230: fc15 b3bc 0e47 7fbc 645b d9ba e9e2 5239
00000240: 4008 59bb fc84 b93c 2dbf 23bc fd02 89bc
00000250: 53ca 6abb 2785 943c fdfc eebb 1821 ec3c
00000260: 85f6 3abc bcfc 7a39 44fa 98bb 7fb1 14ba
00000270: 5c51 053b 4d1a 3e3d 8fe3 39bc 741d 8e3b
00000280: cfba f2bb 6679 a43a 4fe9 8b3b 926c b93c
00000290: 1a2d b93c 46cf d73c 5a20 213c 9400 66bd
000002a0: ea18 ed3b 3262 88bb 9bd3 1bbc 847c 99bc
000002b0: 9a0c 5aba 0d2f debc 6278 f13c b9bc 553c
000002c0: 4c6d 193b 4d3b 5b3c 4af2 65bb 03a4 0abd
000002d0: f27c f33b 079b 38bc 9e99 373c 964e 2d3c
000002e0: e497 ed3b 296f a1bb 8a23 a73c 167f e93b
000002f0: 6ef6 943c 107c 38bc 099f 0a3c 9630 0e3d
00000300: f8f5 3dbc a32f 22bc 3df9 d8bc a47d 90bc
00000310: 2bb5 f23b 9483 823c 3074 18bc c44e a13c
00000320: 8b77 febb 89c1 103c f13b 4fbc 875e 2c3c
00000330: 6507 b63b d4d0 893b 9b69 523c 4fb1 403c
00000340: 86be f43c caa6 66b9 f16f e3bc ac40 10bc
00000350: ec38 563c bbdb 6f3c 3998 99bc 38bf a73c
00000360: 087e 263d 18a1 413c 33f4 d53b 4440 6e3c
00000370: edda 083c f05a c03c 6f6f 2b3b 5885 b6bc
00000380: 94a6 513c 8143 483c e835 d03c 841c 353c
00000390: c015 343d 11cf 3ebd 4a74 11bc 8d2d 0c3d
000003a0: d174 133c 8727 bb3c 943f c83c e28f 67bc
000003b0: 3ce0 35bc 8334 a23b 8519 013d 4b2d c93c
000003c0: cd3e 623a 267c aa3b 8b3c f63c d704 a3bc
000003d0: ccb9 953c a9b2 c4bc fafd b23c 93ff a33c
000003e0: 07b1 133c 9c5d e5bc a158 663c 29fd ee3b
000003f0: c6a9 883b a9a0 4d3c dd5b 9a3c e69b 873c

network_body._body_endoder.seq_layers.2.weight f4 [256, 256]
-0.104631476 -0.08458888 0.039423306 0.040729444 -0.114738315 0.11937973 -0.07446884 0.03625541
-0.055487014 -0.11665901 0.078609265 0.020956863 0.12177367 0.013452262 -0.019985849 -0.04760437
0.06395767 -0.015517829 -0.064400956 0.07734329 0.087322675 -0.0029419155 0.023564668 -0.052363887
-0.027624132 -0.019763744 -0.022002814 0.12571995 0.05719121 0.036207926 -0.0049876682 -0.012657182
0.046719495 0.041069783 -0.15873344 0.05923758 0.1162501 0.049670566 0.0076392298 -0.1403296
0.07064695 -0.17909591 -0.13114747 0.059796825 -0.022708245 0.03972001 -0.17243764 -0.01047159
-0.10516716 0.19679435 -0.08347796 0.14678326 0.040648855 0.0021445523 0.025323283 -0.008336801
0.024680573 0.09707048 -0.08854074 -0.03960751 0.10526186 -0.035628658 -0.11490973 0.16619837
0.1448201 -0.03201728 0.072564855 -0.05995931 -0.03398221 -0.19653949 0.115261026 -0.14463837
0.07087729 0.12040784 -0.005707932 -0.018276686 0.018615928 0.04131916 0.1728058 0.20556542
0.13245928 0.037925217 -0.012491393 -0.004439951 0.056829788 -0.06730838 0.141967 -0.04306421
0.14205207 -0.057283796 -0.035181638 -0.00849441 -0.08667972 -0.13455537 0.020546768 -0.00061076914
0.0019321692 0.040224575 0.06059126 0.06636572 -0.05041163 -0.10848572 -0.068062834 -0.06423299
0.056038044 0.2631205 -0.1381406 -0.016741376 0.07733326 -0.13553788 -0.03452585 -0.10768177
0.1880823 0.24137954 0.059902616 -0.18051752 -0.0040035793 0.0683052 -0.00037102713 -0.08663152
-0.052829415 0.016479721 0.11972223 0.07894368 -0.01330927 0.0545739 -0.00067400176 0.09808118
0.016466899 -0.03926544 0.019208478 -0.059669275 0.12362717 -0.13108727 0.006735901 0.03382648
-0.0015604502 -0.06140295 -0.13030677 0.08344204 -0.14758103 -0.17589344 0.08008412 -0.030567255
0.07578235 -0.08046283 -0.113644585 0.038791414 0.04573711 0.166638 0.052371945 0.120688766
0.03186863 -0.054631248 0.06399326 0.05918554 0.06829922 0.13381693 -0.17690128 -0.12842725
0.041172806 0.16157551 0.017190062 0.0063856747 -0.052688528 0.008832696 0.10120337 -0.11735329
0.004731115 -0.01249802 -0.09777761 -0.041045263 0.0005913218 -0.028152501 0.09084507 0.015343178
0.006664311 -0.12515694 0.11005857 0.03803743 -0.01733018 0.0032506082 -0.10549931 0.054325
-0.009123038 -0.06634462 0.19720002 0.07726378 0.023490252 -0.12520133 0.0438069 0.09873848
0.024536079 -0.17716987 -0.14827842 -0.050840463 -0.14770542 -0.018442692 -0.14153747 0.015786791
-0.21240516 -0.04603162 -0.00744962 0.15745632 -0.15816088 -0.04447455 0.053934902 -0.14673997
-0.11758037 -0.022124127 0.12156256 -0.10006804 0.08050995 -0.013337548 0.009473829 0.002064386
0.2385735 0.14434747 0.11375822 0.06573297 0.19370027 -0.2482796 0.09655868 0.015943611
0.13355236 0.031145057 0.10331991 0.0653158 0.1932433 -0.10994378 -0.015025632 0.05678011
0.03161814 0.058876704 -0.012020779 0.02687351 -0.11367908 -0.029732775 -0.045791514 0.15945347
0.06570309 0.0153770335 -0.12705338 -0.08936932 -0.083637476 -0.058126375 0.09476741 -0.06716011
0.013181957 -0.13399449 -0.038154107 -0.03396345 -0.09724732 0.083003454 -0.0038113561 0.040929765
00000000: 0749 d6bd ef3c adbd 557a 213d ebd3 263d
00000010: ecfb eabd 5c7d f43d 1f83 98bd 8e80 143d
00000020: 5a46 63bd ebea eebd e5fd a03d baad ab3c
00000030: 7964 f93d e066 5c3c 5db9 a3bc cdfc 42bd
00000040: 3dfc 823d 7e3e 7ebc a6e4 83bd 2966 9e3d
00000050: 3bd6 b23d 27cd 40bb b10a c13c 847b 56bd
00000060: 014c e2bc 93e7 a1bc 3f3f b4bc bbbc 003e
00000070: 5541 6a3d c34e 143d 986f a3bb 1260 4fbc
00000080: f15c 3f3d ca38 283d 058b 22be 1ba3 723d
00000090: 8814 ee3d 5d73 4b3d 8152 fa3b 90b2 0fbe
000000a0: 59af 903d eb64 37be 864b 06be 84ed 743d
000000b0: a406 babc 73b1 223d 7e93 30be 0891 2bbc
000000c0: e161 d7bd 7584 493e 7ef6 aabd 5a4e 163e
000000d0: 6a7f 263d 9e8b 0c3b c672 cf3c 1497 08bc
000000e0: ea2e ca3c e3cc c63d d954 b5bd 7c3b 22bd
000000f0: 8893 d73d 5bef 11bd cb55 ebbd e82f 2a3e
00000100: b84b 143e 8d24 03bd e29c 943d e597 75bd
00000110: ee30 0bbd a641 49be f90d ec3d 151c 14be
00000120: 1d28 913d 6398 f63d 9b09 bbbb fdb8 95bc
00000130: 6e80 983c 483e 293d 01f4 303e be7f 523e
00000140: 68a3 073e 7957 1b3d b3a8 4cbc 027d 91bb
00000150: 5ac6 683d fad8 89bd cc5f 113e 1964 30bd
00000160: 1976 113e 6aa2 6abd 9f1a 10bd 232c 0bbc
00000170: 2385 b1bd e2c8 09be b251 a83c 061c 20ba
00000180: d740 fd3a 86c2 243d 8b2e 783d c0ea 873d
00000190: 6d7c 4ebd c32d debd 8764 8bbd 968c 83bd
000001a0: 2688 653d bbb7 863e bb74 0dbe 3625 89bc
000001b0: e660 9e3d 71ca 0abe fa6a 0dbd 4388 dcbd
000001c0: a598 403e 332c 773e 725c 753d 96d9 38be
000001d0: 7530 83bb 99e3 8b3d 6b86 c2b9 de6b b1bd
000001e0: a863 58bd 7b00 873c ee30 f53d 39ad a13d
000001f0: 200f 5abc e288 5f3d 7eaf 30ba c9de c83d
00000200: 97e5 863c ccd4 20bd 195b 9d3c c567 74bd
00000210: 3e30 fd3d be3b 06be d5b8 dc3b a38d 0a3d
00000220: 0588 ccba a981 7bbd 236f 05be a9e3 aa3d
00000230: 7b1f 17be 691d 34be 2503 a43d 2e68 fabc
00000240: c733 9b3d b2c9 a4bd 7ebe e8bd bfe3 1e3d
00000250: d656 3b3d 27a3 2a3e f783 563d ac2b f73d
00000260: ae88 023d 04c5 5fbd e60e 833d 896c 723d
00000270: 76e0 8b3d 4e07 093e 9c25 35be 6f82 03be
00000280: d1a4 283d 0d74 253e 2cd2 8c3c ec3e d13b
00000290: edcf 57bd 03b7 103c b643 cf3d ec56 f0bd
000002a0: 7807 9b3b 7fc4 4cbc a13f c8bd 141f 28bd
000002b0: ef02 1b3a 13a0 e6bc fb0c ba3d f461 7b3c
000002c0: 4b60 da3b 2429 00be 6366 e13d 23cd 1b3d
000002d0: 06f8 8dbc 2808 553b 0610 d8bd e483 5e3d
000002e0: cb78 15bc b0df 87bd cdee 493e 793c 9e3d
000002f0: a16e c03c c734 00be dd6e 333d 6637 ca3d
00000300: e3ff c83c 056c 35be 4cd6 17be 173e 50bd
00000310: 1740 17be 2115 97bc 33ef 10be 4d53 813c
00000320: bd80 59be a78b 3cbd f11b f4bb 3b3c 213e
00000330: edf4 21be f22a 36bd d8ea 5c3d 0143 16be
00000340: facd f0bd a83d b5bc cbf5 f83d 79f0 ccbd
00000350: 67e2 a43d bb85 5abc 1e38 1b3c a64a 073b
00000360: 9d4c 743e d3cf 133e 12fa e83d 029f 863d
00000370: 5d59 463e 023d 7ebe 8fc0 c53d 2d9c 823c
00000380: f3c1 083e eb23 ff3c 6499 d33d 4ac4 853d
00000390: 92e1 453e 342a e1bd 122e 76bc 4392 683d
000003a0: 0682 013d b328 713d cdf2 44bc d625 dc3c
000003b0: 94d0 e8bd 2692 f3bc e28f 3bbd c547 233e
000003c0: 578f 863d f4ef 7b3c 481a 02be 4307 b7bd
000003d0: 204a abbd ec15 6ebd 6a15 c23d 3d8b 89bd
000003e0: 23f9 573c da35 09be 7b47 1cbd 421d 0bbd
000003f0: 9a29 c7bd b7fd a93d f2c7 79bb f8a5 273d
