results/PushBlockCollab_PPO/PushBlockCollab/PushBlockCollab-2499968.onnx (onnx, 643240 bytes, 12 tensors)

network_body.observation_encoder.processors.0.conv_layers.0.weight f4 [16, 6, 8, 8]
0	0xbc94eb0e	-0.018178489
1	0x3c0a03c3	0.008423748
2	0x3dae857f	0.08521556
3	0x3cd8dcba	0.026472438
4	0x3d9a3a1e	0.07530616
5	0xbd2e9018	-0.042617887
6	0xbd5d1f3a	-0.053984858
7	0x3d168926	0.03675189
8	0xbc3ea2d8	-0.011635505
9	0xbc9f4bda	-0.019445349
10	0x3d9828e3	0.074296735
11	0x3d533771	0.051566545
12	0x3d711c14	0.058864668
13	0x3d9078cf	0.070542924
14	0x3cc5b3d0	0.024133593
15	0xbd7b005b	-0.061279636
16	0x3db24cb6	0.08706038
17	0x3d5cef8e	0.053939395
18	0x3dbb6b38	0.0915131
19	0xbcd98dc1	-0.026556851
20	0x3d2753fa	0.04085157
21	0xbd16f026	-0.036850117
22	0xbb86de06	-0.0041158227
23	0x3ca2e7fc	0.01988601
24	0x3d12109d	0.035660375
25	0xbac7e400	-0.0015250444
26	0x3b352811	0.002764229
27	0xba8c027b	-0.0010681892
28	0xbcb35466	-0.02189083
29	0xbd3b3a56	-0.04570993
30	0xbc065912	-0.008199947
31	0xbdc6d711	-0.097089894
32	0x3dbb3103	0.091402076
33	0x3cb49d87	0.022047771
34	0xbcff88dc	-0.03119319
35	0x3b9d104e	0.0047932034
36	0x3d88619c	0.066592425
37	0xbd3473e0	-0.04405582
38	0xbd945172	-0.07242097
39	0x3d02265a	0.031774856
40	0xbd0f76a7	-0.035025265
41	0x3ccbef3f	0.024894355
42	0x3cd07ac3	0.025449162
43	0x3d87dcd3	0.06633916
44	0xbc7f68e8	-0.015588976
45	0x3d8763b9	0.066108175
46	0xbd0c2412	-0.034214087
47	0xbd4710d7	-0.048600044
48	0xbcc81920	-0.024426043
49	0xbc7caa91	-0.015421526
50	0x3cda9643	0.026682978
51	0xbcbfbe99	-0.023406314
52	0xbb0cca87	-0.002148302
53	0xbd6cbcd0	-0.057797253
54	0x3d9b31b7	0.07577842
55	0xbdd89e7c	-0.105771035
56	0xbd11b189	-0.0355697
57	0xbd5bf11d	-0.05369674
58	0xbd9c7d79	-0.076411195
59	0x3d8f06f7	0.0698375
60	0xbcaeffd9	-0.021362232
61	0xbd646631	-0.05576152
62	0x3b5d0a27	0.0033727975
63	0xbdc8bd9f	-0.09801792
64	0xbd3cddfc	-0.04611014
65	0xbd689fb5	-0.056792933
66	0xbd809759	-0.06278867
67	0xbd897a94	-0.06712833
68	0xbb1b165d	-0.0023664453
69	0x3dc18863	0.09449842
70	0x3c54fe8a	0.01300014
71	0x3c621467	0.01379881
72	0x3d0096f4	0.03139396
73	0xbd3cc65f	-0.04608762
74	0xbc3ae25e	-0.011406509
75	0x3d1ee965	0.0387968
76	0xbdc69098	-0.09695548
77	0x3c4cafe4	0.0124931075
78	0x3d4d22a5	0.050081868
79	0x3d760279	0.06006095
80	0x3a5e68c3	0.00084842386
81	0x3d732579	0.05936191
82	0x3d0348e4	0.032051936
83	0xbc93f0ad	-0.0180591
84	0xbcd990b9	-0.026558267
85	0xbd9267fe	-0.07148741
86	0x3db13d26	0.08654241
87	0xbc89ddd5	-0.01682941
88	0x3bb91eb7	0.0056494134
89	0xbd7e37ca	-0.062064923
90	0xbd02b409	-0.031909976
91	0xba157ee7	-0.0005702809
92	0xbcc16080	-0.023605585
93	0xbd21b1af	-0.039476093
94	0xbc74ff22	-0.0149534065
95	0xbddcfb01	-0.10790063
96	0xbdee9c50	-0.11650908
97	0x3cc11709	0.023570554
98	0xbdb176ba	-0.086652234
99	0x3cadc037	0.02120982
100	0xbd86e87a	-0.0658731
101	0xbdb074f8	-0.0861606
102	0xbc5db5b2	-0.013532089
103	0x3b18e843	0.0023331798
104	0x3c06c6c6	0.008226102
105	0x3d57ec37	0.052715506
106	0x3d7023c3	0.058627855
107	0x3c06b353	0.008221465
108	0xbcb103a5	-0.021608183
109	0xbce80a72	-0.028325293
110	0xbd1411d1	-0.036149804
111	0x3d9eedea	0.07760222
112	0xbce27302	-0.02764273
113	0xb8ddf78c	-0.000105842104
114	0xbd82749e	-0.06369899
115	0x3d11357a	0.03545139
116	0xbd49d454	-0.049274758
117	0xbd556780	-0.05210066
118	0xbd12d472	-0.035847135
119	0x3cd042dd	0.025422508
120	0xbcda6b34	-0.026662447
121	0xbd5054ac	-0.050862
122	0xbc4e7a7e	-0.012602447
123	0x3d8467fe	0.064651474
124	0x3bfb9baa	0.0076784687
125	0xbca94f53	-0.020667708
126	0xbd3dce46	-0.046339296
127	0xbd51fa50	-0.051264107
128	0x3da8ad41	0.082361706
129	0x3ccb7529	0.02483614
130	0xbd2b70dd	-0.04185568
131	0xbc3e9c17	-0.011633894
132	0xbbd061f4	-0.006359333
133	0xbd8f5a1d	-0.069996096
134	0xbd0c3ede	-0.034239642
135	0xbd1236ed	-0.035696913
136	0xbcc6bd4f	-0.024260191
137	0x3ce97336	0.02849732
138	0x3ca2e0c3	0.019882565
139	0xbc92c4c4	-0.01791609
140	0x3ced264c	0.028948925
141	0xbdb206cd	-0.086927034
142	0xbcdea05e	-0.027176078
143	0xbc71edbf	-0.014766156
144	0x3c8ce3b2	0.017198417
145	0x3c2ff765	0.010740136
146	0xbd0bccf5	-0.03413101
147	0x3d2bf56a	0.041982092
148	0x38fc6518	0.000120351266
149	0x3ca662cd	0.020310784
150	0xbd90b1c6	-0.070651576
151	0xbcb2db0a	-0.021832962
152	0x3c9d0258	0.019166157
153	0xbcac58ef	-0.0210385
154	0x3d4820e2	0.048859484
155	0xbb0fa738	-0.0021919739
156	0xbd2eff2a	-0.042723812
157	0xbc453fc1	-0.012039126
158	0xbd25f0bb	-0.04051278
159	0x3cc0da66	0.02354164
160	0x3cbd5cde	0.023115572
161	0x3d9b728c	0.075902075
162	0x3cb6ddc8	0.02232255
163	0x3bd5060a	0.006500964
164	0x3c36b0d5	0.0111505585
165	0xbd0cbe84	-0.034361377
166	0x3d48cf63	0.049025904
167	0xbcbac951	-0.022801073
168	0x3ca38ce6	0.019964647
169	0x3d8adda4	0.06780556
170	0xbcc5a560	-0.024126709
171	0xbc248614	-0.010041732
172	0x3cb04ce5	0.021521041
173	0xbcb87130	-0.02251491
174	0x3c561fef	0.013069137
175	0xbd01505d	-0.03157078
176	0xbced6ace	-0.028981593
177	0xbd11d9c7	-0.03560808
178	0xbbebced9	-0.007196289
179	0x3c9ebc05	0.019376764
180	0x3bcb5600	0.0062053204
181	0xb9266b98	-0.00015871075
182	0xbd14273a	-0.036170222
183	0x3d9d850f	0.076913945
184	0xbb279c5a	-0.002557537
185	0x3d0b605f	0.034027454
186	0x3cfb9cb2	0.030714367
187	0x39585cc4	0.00020633923
188	0x3d699fd3	0.057037186
189	0x3ce7b06a	0.028282363
190	0xbc917ce0	-0.01775974
191	0xbc88fa4d	-0.016720915
192	0x3cd595ab	0.026072344
193	0xbdb7de2b	-0.08977922
194	0xbdb43a7f	-0.0880022
195	0x3c48c38e	0.012253655
196	0xbc1904a6	-0.009339487
197	0x3d642b0b	0.05570511
198	0x3d511e4f	0.051054295
199	0xbc8114b8	-0.01575695
200	0xbd9a0178	-0.075198114
201	0xbd8e2f77	-0.06942647
202	0xbdbac7f3	-0.091201685
203	0xbdd9cb41	-0.10634471
204	0x3cb66f0e	0.022269752
205	0x3d5e596e	0.054284506
206	0x3d6b4121	0.05743516
207	0xbdaa822b	-0.08325609
208	0x3c256008	0.010093696
209	0xbda1b1d5	-0.07895247
210	0xbbbee27c	-0.005825339
211	0xbc12dfcc	-0.00896449
212	0x3d2b7ef9	0.041869137
213	0x3d3d374e	0.04619532
214	0xbd382539	-0.044957373
215	0x3d3b11b2	0.045671172
216	0xbcb441bf	-0.022004006
217	0xbd0ce8fa	-0.03440187
218	0xbd343f7f	-0.044005867
219	0xbcbd447c	-0.023103945
220	0x3baf4632	0.005348944
221	0xbd1e55d1	-0.03865606
222	0xbc9727df	-0.01845163
223	0x3e05d55d	0.13069673
224	0x3a18d54e	0.0005830125
225	0x3c864524	0.01639039
226	0xbcfddaee	-0.030988183
227	0x3d53589f	0.051598188
228	0x3dda78fa	0.10667606
229	0xbd95b597	-0.07310026
230	0x3d03c25d	0.03216778
231	0x3c30d213	0.010792273
232	0xbd8868e7	-0.066606335
233	0xbda9a03c	-0.082825154
234	0xbb23d364	-0.0024997825
235	0xbbd00f37	-0.00634947
236	0xbccc840b	-0.024965307
237	0xbca9086b	-0.020633897
238	0xbda3c126	-0.079958245
239	0xbba01d39	-0.004886296
240	0x3cdd6b2c	0.027028643
241	0x3b6da866	0.0036263703
242	0x3c1eb225	0.009686028
243	0xbd6eca29	-0.058298264
244	0x3d010b05	0.03150465
245	0x3b83b2cc	0.004019117
246	0xbbdb9ae6	-0.006701815
247	0xbd7393e7	-0.059467223
248	0xb96f9b35	-0.00022850635
249	0x3da58c6e	0.080834255
250	0x3d23e9d5	0.04001792
251	0x3c12096e	0.008913381
252	0x3c9d2712	0.01918367
253	0xbcb7d1a9	-0.022438841
254	0xbc8c2c8b	-0.017111083
255	0x3b5ea739	0.0033974184

network_body.observation_encoder.processors.0.conv_layers.0.bias f4 [16]
0	0xbd17ed79	-0.037091706
1	0x3d053637	0.032522406
2	0xbc20b20d	-0.009808076
3	0x3c42a966	0.011881208
4	0x3c59f019	0.013301873
5	0x3c904127	0.017609192
6	0x3c576f5f	0.0131491115
7	0x3befd758	0.007319372
8	0x3cbcf420	0.023065627
9	0x3b98e328	0.004665751
10	0xbcd81e71	-0.026381703
11	0xbc09821a	-0.008392835
12	0x3bebbb8f	0.0071939896
13	0xbcbc1d98	-0.02296333
14	0xbd012854	-0.0315326
15	0xbcc1c4e1	-0.02365345

network_body.observation_encoder.processors.0.conv_layers.2.weight f4 [32, 16, 4, 4]
0	0x3c5227f6	0.01282691
1	0xbc4cbf5c	-0.0124967955
2	0x3d6e814e	0.058228783
3	0x3dda96b8	0.106732786
4	0xbdaa91c2	-0.08328582
5	0x3c6e01a0	0.014526755
6	0x3d9ec07e	0.07751559
7	0x3b5043a7	0.0031778605
8	0x3dc917bc	0.0981898
9	0x3d02a821	0.03189862
10	0x3d05491a	0.03254042
11	0x3cb22dbe	0.021750327
12	0x3dbcab66	0.09212379
13	0x3dccd4f0	0.10001552
14	0x3cb73468	0.022363856
15	0xbd6884d8	-0.056767315
16	0xbd1f9688	-0.038961917
17	0xbd8a9f88	-0.067687094
18	0xbdb1be4e	-0.08678876
19	0x3d82315d	0.063570715
20	0x3d9595dc	0.07303974
21	0xbd288515	-0.041142542
22	0xbd94209d	-0.07232783
23	0xbc5c02bf	-0.013428389
24	0x3dac0938	0.08400196
25	0x3d852278	0.06500715
26	0xbbdac1f1	-0.0066759516
27	0x3d4dd0cb	0.05024795
28	0x3d130ad3	0.035898995
29	0x3cfbbc03	0.0307293
30	0x3d92751f	0.07151245
31	0x3c385f1d	0.0112531455
32	0x3d9ff937	0.07811206
33	0xbd5db66c	-0.05412905
34	0xbd8f4f3d	-0.069975354
35	0x3c07af85	0.008281593
36	0x3d365127	0.044510987
37	0x3d354ed5	0.044264633
38	0xbd75ff82	-0.060058124
39	0xbd5fa589	-0.054601226
40	0x3d95206b	0.07281574
41	0x3cd57513	0.026056802
42	0xbd9ae8ef	-0.0756396
43	0x3d30f474	0.04320188
44	0x3dccd0ca	0.10000761
45	0x3ccd5a5e	0.025067504
46	0x3c32fe3a	0.01092487
47	0x3dc864d9	0.0978486
48	0xbdd06de8	-0.10177213
49	0x3c9554de	0.018228944
50	0x3d604fa0	0.054763436
51	0x3c132eed	0.008983356
52	0x3d74060a	0.05957607
53	0xbd95d86e	-0.07316671
54	0x3c7d062b	0.015443365
55	0xbd67fabb	-0.0566356
56	0x3dc9a57a	0.09846015
57	0xbbffe814	-0.0078096483
58	0xbd304ddc	-0.043043002
59	0xbc89956b	-0.01679488
60	0x3ca57603	0.020197874
61	0x381bab36	3.7114332e-05
62	0x3c2ae8e3	0.010431501
63	0xbbaa543e	-0.0051980307
64	0x3c550e7d	0.013003943
65	0xbd06cce7	-0.032910254
66	0x3dae5c80	0.08513737
67	0xbd157648	-0.036489755
68	0xbd1c83e1	-0.038211707
69	0x3d26c3f5	0.040714223
70	0xbcbba97d	-0.022907967
71	0x3cdb7370	0.026788443
72	0x3dc8048b	0.097664915
73	0xbd23f89b	-0.04003201
74	0xbc5b0821	-0.013368637
75	0xbdceb734	-0.10093537
76	0xb95c56be	-0.00021013149
77	0x3c135654	0.00899275
78	0x3da73546	0.08164458
79	0x3d3737ae	0.044730835
80	0x3d34b048	0.044113427
81	0x3d1cba61	0.038263682
82	0xbae13e7f	-0.0017184763
83	0xbd8a3ada	-0.06749506
84	0x3d690ac1	0.05689502
85	0xbd17a23d	-0.037019957
86	0xbdd69ee0	-0.10479522
87	0x3c46b7b2	0.012128757
88	0x3d8965fb	0.06708904
89	0xbc984523	-0.018587654
90	0xbd70f904	-0.05883123
91	0x3c24e97f	0.010065435
92	0xbd3052a5	-0.043047566
93	0xbb78bcd9	-0.003795436
94	0x3dae2026	0.085022256
95	0x3d883210	0.06650174
96	0x3c8e2237	0.0173503
97	0x3c59f027	0.013301886
98	0x3c5184a2	0.01278797
99	0xbbfafe0c	-0.0076596793
100	0xbdaf5c4e	-0.085625276
101	0x3d4fa8b1	0.050697986
102	0xbda4caf4	-0.08046523
103	0xbc12f3fd	-0.008969304
104	0x3df6ed15	0.120569386
105	0x3d96d8c5	0.07365564
106	0xbd58932f	-0.05287474
107	0xbd42fcdb	-0.047604423
108	0x3dba4c36	0.09096567
109	0xbc97efc1	-0.01854694
110	0x3d8e172c	0.069380134
111	0x3bf0ba64	0.0073464382
112	0x3c1aca71	0.00944768
113	0xbd639a2e	-0.05556696
114	0xbcfddef2	-0.030990098
115	0xbca406d2	-0.020022783
116	0xbcdcddb4	-0.026961185
117	0xbda36de2	-0.07979943
118	0xbdda0764	-0.10645941
119	0xbccdd180	-0.025124311
120	0x3df15f3b	0.11785742
121	0xbc1a6b3f	-0.0094249835
122	0xbce6ece8	-0.028189138
123	0x3cb22193	0.021744525
124	0x3d38d268	0.045122534
125	0x3d529354	0.051410034
126	0x3d047a4e	0.0323432
127	0x3dbaa4aa	0.091134384
128	0x3d1a5aef	0.037684377
129	0xbd7cfe2a	-0.061765827
130	0xbd9d2c4f	-0.07674467
131	0xbcdfc410	-0.02731517
132	0xbd3026f0	-0.043005884
133	0xbc198730	-0.00937061
134	0xbcefe49c	-0.029283814
135	0xbc9134c7	-0.017725362
136	0xbd210f03	-0.039320957
137	0x3deb66b9	0.11494202
138	0x3d99f267	0.07516938
139	0xbd7491b6	-0.059709273
140	0x3e1b0437	0.15138327
141	0xbdd0da21	-0.10197855
142	0xbb266223	-0.0025388084
143	0x3ddf20f1	0.10894955
144	0xbc8b8d6a	-0.017035205
145	0x3d06eda4	0.032941476
146	0x3cc3526b	0.02384301
147	0x3d4465b2	0.047948547
148	0xbd914f0b	-0.070951544
149	0xbcedeb90	-0.029042989
150	0xbc9e8148	-0.019348755
151	0x3d36a2ca	0.04458884
152	0x3cfe7454	0.031061329
153	0x3e05eef5	0.13079436
154	0xbcd9ed05	-0.026602278
155	0x3d943fa5	0.07238702
156	0xbbe3ea11	-0.006955393
157	0xbcfbbfab	-0.030731043
158	0xbcd90a7a	-0.026494253
159	0xbcc9031c	-0.024537615
160	0xbd81f1b7	-0.063449316
161	0xbd276b05	-0.040873546
162	0xbbc28011	-0.005935677
163	0x3c953825	0.018215248
164	0x3e04e9b8	0.12979782
165	0x3d3c321a	0.045946218
166	0xbd2d57cc	-0.042320058
167	0xbd0fe1ce	-0.035127454
168	0x3cfdf838	0.031002149
169	0x3a2642c2	0.0006342345
170	0xbd33759b	-0.04381333
171	0xbdad1347	-0.084509425
172	0x3c1eb9c0	0.009687841
173	0x3c4079cb	0.011747788
174	0xbcabfc57	-0.020994348
175	0xbd4e000e	-0.05029302
176	0x3cbaad5e	0.022787746
177	0xbcf79d0f	-0.030226259
178	0xbd2c9785	-0.042136688
179	0xbcf6f042	-0.03014386
180	0x3987d087	0.00025904572
181	0xbd7805bb	-0.06055234
182	0x3d2f9799	0.042869184
183	0x3d8ddf6e	0.069273815
184	0x3d4dce19	0.05024538
185	0xbd4a11a8	-0.049333245
186	0xbc924001	-0.017852785
187	0xbd773a31	-0.06035823
188	0x3dcc423b	0.0997357
189	0x3d768d2a	0.06019322
190	0x3d15218f	0.036408957
191	0x3ce09ea4	0.027419396
192	0xbd45b446	-0.048267625
193	0xbcccac25	-0.024984429
194	0xbd369d4c	-0.044583604
195	0x3d7f12bc	0.062273726
196	0xbcd9d91d	-0.026592785
197	0xbc6db452	-0.014508324
198	0x3c520aef	0.01281999
199	0x3cbec779	0.023288475
200	0x3dffc251	0.12488235
201	0xbd51334b	-0.051074307
202	0xbdcf7b75	-0.101309694
203	0xbd32f39f	-0.043689366
204	0x3d9de426	0.077095315
205	0x3d8ac40a	0.06775673
206	0x3d023ec1	0.031798128
207	0xbd9631b5	-0.073336996
208	0xbdfac2a0	-0.12244153
209	0x3cea489a	0.028599072
210	0xbce23fba	-0.027618278
211	0x3ce28f41	0.0276562
212	0x3d85d635	0.065349974
213	0x3d7ffe64	0.062498465
214	0xbcf87809	-0.030330675
215	0xbd23f3e9	-0.040027533
216	0x3d665986	0.05623772
217	0x3d0d7559	0.03453574
218	0xbd138f38	-0.036025256
219	0x3dd1973a	0.10233922
220	0x3c778161	0.01510653
221	0x3b01dd37	0.0019815692
222	0x3d9aeabe	0.07564305
223	0x3d9e9c0f	0.077446096
224	0x3d36651b	0.044530015
225	0x3c26a452	0.010171013
226	0x3ca04a10	0.019566566
227	0xbc9abb7b	-0.018888226
228	0x3cc757d4	0.024333872
229	0x3cb47128	0.022026613
230	0x3d57fd50	0.052731812
231	0xbdce3681	-0.100689895
232	0x3d413040	0.047165155
233	0x3d4848af	0.04889744
234	0xbcb4b609	-0.022059457
235	0x3d300b06	0.042979263
236	0x3d8e5b83	0.06951048
237	0xbd0e7f2d	-0.034789253
238	0xbcc1bdc6	-0.023650061
239	0xbda12586	-0.07868485
240	0x3c8bca80	0.017064333
241	0xbc6202fe	-0.013794659
242	0xbcfb6b5e	-0.030690845
243	0x3c587a23	0.013212713
244	0x3d8629e3	0.06550958
245	0xbc21e00e	-0.009880079
246	0xbdb4cc25	-0.08828
247	0x3bd9f2ae	0.006651244
248	0xbc695781	-0.014242054
249	0xbd6826d5	-0.056677658
250	0xbc9ea4ec	-0.01936575
251	0x39a7dc64	0.00032016926
252	0x3d979e5f	0.07403254
253	0xbbd3e4aa	-0.006466468
254	0x3c709fc3	0.014686528
255	0x3ce20d2e	0.027594175

network_body.observation_encoder.processors.0.conv_layers.2.bias f4 [32]
0	0xbca48516	-0.020082992
1	0x3d964aad	0.07338462
2	0x3d811d1c	0.0630438
3	0xbd16d6e3	-0.036826026
4	0xbd2dbae3	-0.042414557
5	0xbc64983f	-0.013952314
6	0xbd1040ba	-0.035217978
7	0x3d810635	0.06300012
8	0xbd064aa0	-0.03278601
9	0x3baf5bb5	0.0053515085
10	0xbd5b454e	-0.05353289
11	0x3d0e7ad7	0.034785118
12	0xbcb4105c	-0.021980457
13	0x3d6973b6	0.056995116
14	0xbcc8a54d	-0.024492884
15	0xbc5e9b89	-0.013586887
16	0xbc26ee05	-0.010188584
17	0xbbfcdadf	-0.007716521
18	0x3d88edf6	0.066860124
19	0x3cb0fe1c	0.021605544
20	0x3c6a7acd	0.014311505
21	0x3c32fd72	0.010924684
22	0x3d2da7c1	0.04239631
23	0x3d72c9a4	0.05927433
24	0x3d2ef993	0.04271848
25	0x3d0857ff	0.033287045
26	0x3d1bae35	0.038007934
27	0xbd0f8ead	-0.035048176
28	0xbccb2317	-0.024797006
29	0xbd50ca61	-0.050974254
30	0xbcd3bfdb	-0.02584832
31	0x3cf7a555	0.030230204

network_body.observation_encoder.processors.0.dense.0.weight f4 [256, 32]
0	0x3cc0a1f2	0.023514722
1	0x3ea217c9	0.31658772
2	0x3ec4ecf4	0.3846203
3	0x3ed04afe	0.40682214
4	0xbdf6a755	-0.12043635
5	0xbe81caee	-0.25350136
6	0x3cab31da	0.020897795
7	0xbcdfcbcb	-0.027318856
8	0x3eebddbd	0.4606761
9	0x3eb171de	0.34657186
10	0xbcce2106	-0.025162231
11	0xbea075a4	-0.31339753
12	0x3de00d49	0.10940034
13	0xbdcc8b77	-0.09987538
14	0x3debb2c1	0.11508704
15	0xbebdedac	-0.37095392
16	0xbe47e7a0	-0.19521952
17	0x3c2a5a05	0.010397439
18	0x3e3888aa	0.18020883
19	0xbc4b832f	-0.012421413
20	0xbeacbc99	-0.3373764
21	0xbe6adc0e	-0.22935507
22	0x3e7d4fc7	0.24737464
23	0xbe31f476	-0.1737841
24	0x3bd2741e	0.0064225337
25	0x3e6cb48f	0.23115753
26	0x3e88cfa8	0.2672093
27	0xbe884e2d	-0.26622143
28	0xbc23318d	-0.009960544
29	0xbe4fd37f	-0.20295523
30	0xbdc6e578	-0.097117364
31	0x3ee920fb	0.45532975
32	0xbec857c8	-0.39129472
33	0xbd3bb7a4	-0.04582943
34	0xbdbd0525	-0.09229497
35	0x3cf49a84	0.029858835
36	0xbe6c3b2e	-0.2306945
37	0x3d23e9c5	0.040017862
38	0x3e4859fc	0.19565576
39	0x3e688c2e	0.22709724
40	0x3c165b6c	0.00917707
41	0xbdf52187	-0.119692855
42	0xbe3909a1	-0.1807008
43	0x3cf01dcf	0.029311089
44	0x3da6a3b5	0.081366934
45	0xbe446865	-0.19180448
46	0x3c983af7	0.018582804
47	0x3ea37eb9	0.3193262
48	0x3ea63b12	0.32466942
49	0x3df95a3c	0.12175414
50	0xbd2de89e	-0.04245817
51	0xbd85b882	-0.06529333
52	0xbedfe1b3	-0.43726882
53	0x3ddd67cb	0.108108126
54	0xbe73e175	-0.23816474
55	0x3ea6e996	0.32600087
56	0xbe266c47	-0.16252242
57	0x3d995e87	0.07488733
58	0xbe85bb10	-0.2611928
59	0xbe07b70f	-0.13253425
60	0x3e7e6515	0.24843247
61	0x3e9d07ff	0.30670163
62	0x3ece6e70	0.40318632
63	0x3d9b4ac1	0.075826176
64	0x3de77824	0.11302212
65	0xbe38e015	-0.1805423
66	0xbc937a9c	-0.0180028
67	0xbe7ba3ef	-0.24574254
68	0xbe1f28a9	-0.15542854
69	0xbd507ee6	-0.05090227
70	0x3e9703f1	0.29495195
71	0xbda89fcf	-0.08233606
72	0x3bdcf484	0.0067430157
73	0xbdca61a6	-0.09881906
74	0xbda129fa	-0.078693345
75	0xbdac5548	-0.084147036
76	0xbe918886	-0.28424472
77	0xbbe79744	-0.007067593
78	0xbdc40365	-0.0957096
79	0x3c5854b6	0.01320379
80	0x3ee91048	0.45520234
81	0xbe516c1f	-0.20451401
82	0x3f10f868	0.5662904
83	0x3e056e73	0.13030414
84	0xbddb6424	-0.1071246
85	0xbbfc7929	-0.007704873
86	0xbdc1ebfe	-0.0946884
87	0x3d3997ce	0.045310788
88	0xbebfb572	-0.3744312
89	0x3e039c75	0.12852652
90	0xbea12826	-0.31475943
91	0xbe3be49f	-0.18348931
92	0x3eae6f5e	0.3406934
93	0x3e1c3aeb	0.1525685
94	0xbd9f1899	-0.077683635
95	0x3ceb7811	0.028743776
96	0xbd1f4703	-0.03888608
97	0x3e9c5c0d	0.3053898
98	0xbf04cd9a	-0.51876223
99	0xbdd14a55	-0.10219256
100	0xbe83bcce	-0.25729984
101	0x3df01891	0.11723436
102	0xbe8af51b	-0.27140126
103	0x3eae89c7	0.3408949
104	0xbe829866	-0.25506896
105	0xbdd28bc9	-0.10280568
106	0xbc740c30	-0.014895484
107	0xbe4912ba	-0.1963605
108	0xbdd3024c	-0.103031725
109	0xbe43097c	-0.19046587
110	0x3d79e2d3	0.061007332
111	0xbb93bb5b	-0.0045084185
112	0x3efdbf61	0.49560073
113	0xbdc05cdc	-0.093927115
114	0x3e9e88e7	0.30963823
115	0x3dace43b	0.08441969
116	0x3d61ef9d	0.055160154
117	0xbee408b9	-0.44537905
118	0xbe0c8e3e	-0.13726136
119	0x3e81e2ad	0.25368252
120	0x3e923f79	0.2856405
121	0xbdedd06c	-0.11612019
122	0xbeb6b48b	-0.35684618
123	0xbe5551d5	-0.20831998
124	0x3eab5313	0.33461818
125	0x3c86aa71	0.016438695
126	0xbe11dfd5	-0.14245541
127	0x3e91d2f1	0.28481248
128	0x3ee6caeb	0.4507669
129	0xbe936398	-0.28786922
130	0xbd94aacf	-0.07259142
131	0xbe543738	-0.2072419
132	0x3e1e2a72	0.15445879
133	0x3dd5c39c	0.104377
134	0xbe188573	-0.14894657
135	0xbea2c1a2	-0.31788355
136	0xbe7a23be	-0.24427697
137	0x3e179719	0.14803733
138	0x3dfcb05e	0.12338327
139	0xbde75d7d	-0.11297128
140	0xbe87aad3	-0.26497516
141	0xbe79442a	-0.24342409
142	0xbf094e85	-0.53635436
143	0x3f145628	0.57943964
144	0xbd964d29	-0.07338936
145	0xbe651e97	-0.2237495
146	0xbd0e7f0c	-0.03478913
147	0x3f074297	0.52835983
148	0xbe172c3d	-0.1476297
149	0x3d5e3a34	0.054254726
150	0x3ded9ee3	0.11602571
151	0x3e312bc0	0.17301846
152	0x3e66ebdf	0.22550915
153	0xbde164b2	-0.11005534
154	0xbe618716	-0.22024187
155	0xbc396732	-0.011316108
156	0x3ea29c59	0.3175991
157	0x3dfe16dd	0.124067046
158	0xbeb42179	-0.35181788
159	0xbc75cf4f	-0.0150030395
160	0xbebc370c	-0.36760747
161	0x3eaacbd6	0.3335864
162	0xbe3df012	-0.18548611
163	0xbe118c6c	-0.14213723
164	0xbde44f4d	-0.11147938
165	0x3ddf185e	0.108933195
166	0xbe8fc2ae	-0.28078216
167	0x3e69bea9	0.22826637
168	0x3cc8e348	0.024522439
169	0xbd905cf3	-0.07048979
170	0x3e520165	0.20508344
171	0x3cf75d69	0.030195909
172	0xbedecc46	-0.43515223
173	0xbed6fcf3	-0.4198986
174	0xbd948e93	-0.072537564
175	0xbc93e578	-0.018053755
176	0x3e0f05ef	0.13967107
177	0x3d972b99	0.073813625
178	0x3e5b23c4	0.21400362
179	0xbb525d34	-0.003209901
180	0x3e3b6e86	0.1830388
181	0xbdb36caf	-0.08760964
182	0xbea8485b	-0.32867703
183	0xbdfb8d85	-0.12282852
184	0x3d9fe706	0.07807736
185	0x3e6e3369	0.23261799
186	0xbe3676b5	-0.1781872
187	0xbe2de31f	-0.16981171
188	0x3dea1655	0.11430041
189	0x3c8c14ad	0.017099703
190	0x3e011ac1	0.12607862
191	0xbd360362	-0.04443682
192	0x3c88b52c	0.016687952
193	0xbd65640a	-0.056003608
194	0x3e778993	0.24173574
195	0xbcc1c050	-0.023651272
196	0xbefe0064	-0.49609673
197	0xbc9afd42	-0.01891959
198	0xbe05935d	-0.13044496
199	0x3d8251b5	0.06363241
200	0xbeb31f6f	-0.3498492
201	0xbeb70cd9	-0.3575199
202	0x3cc1d0f3	0.023659205
203	0x3dc179ab	0.094470344
204	0xbf0bf3aa	-0.54668677
205	0xbd849f01	-0.0647564
206	0x3ddec3b9	0.10877175
207	0xbdcfb4cf	-0.101419084
208	0x3f3251a6	0.69655836
209	0x3c6f25e6	0.014596438
210	0x3ddef061	0.108856924
211	0x3cd889f2	0.026432965
212	0xbd2417e3	-0.040061843
213	0xbe0c69e3	-0.13712268
214	0xbe3fc44f	-0.1872723
215	0xbe64c2ba	-0.22339907
216	0x3edcd0a4	0.4312793
217	0xbe48a86d	-0.195955
218	0x3d389317	0.04506215
219	0x3d85d56a	0.06534846
220	0x3dcd6846	0.10029654
221	0xbe1ac8df	-0.15115689
222	0x3d828fae	0.06375061
223	0xbd5914bc	-0.05299829
224	0xbb148c34	-0.0022666575
225	0xbe486586	-0.19569978
226	0xbe2019e3	-0.15634875
227	0x3ebd1200	0.36927795
228	0xbe503288	-0.20331776
229	0x3ea9ee5e	0.33189672
230	0x3edcd2cc	0.43129575
231	0xbdb10a71	-0.0864457
232	0x3dcf28ad	0.1011518
233	0xbe8d460f	-0.27592513
234	0x3dd457eb	0.103683315
235	0xbddd8b65	-0.10817603
236	0x3d111449	0.035419736
237	0x3d70fea5	0.058836598
238	0x3f0374c0	0.5135002
239	0x3cfcf95a	0.030880619
240	0x3e0ba4ca	0.13637081
241	0xbe877442	-0.26455885
242	0xbe85eaa0	-0.26155567
243	0x3ea6a7d9	0.32549933
244	0xbb967cad	-0.004592499
245	0x3ede4647	0.43412992
246	0xbe06f961	-0.13181068
247	0x3e344b4f	0.17606853
248	0x3ea09198	0.3136108
249	0x3ed3e56f	0.4138598
250	0xbe3e487b	-0.18582337
251	0xbec2bb2b	-0.38033423
252	0x3ed672f6	0.41884583
253	0xbe3cb1ac	-0.18427151
254	0x3e09afcb	0.13445966
255	0xbdd60a81	-0.10451222

network_body.observation_encoder.processors.0.dense.0.bias f4 [256]
0	0x399de9de	0.00030119618
1	0xbad240e1	-0.0016041064
2	0x3ce404a5	0.027834246
3	0xbc0cd3ea	-0.008595446
4	0x3d3a04b0	0.045414627
5	0x3d07fd9e	0.033200853
6	0x3d24e074	0.040253118
7	0x3c6e5eee	0.014549
8	0x3c13db1e	0.00902441
9	0x3cce694f	0.0251967
10	0xbc894e14	-0.016760863
11	0xbc246c43	-0.010035577
12	0xbc9aa835	-0.018879035
13	0x3d5aa758	0.053382248
14	0xbcb97734	-0.022639848
15	0x3c142524	0.009042058
16	0x3cf5503f	0.02994549
17	0xbd0ecc11	-0.03486258
18	0x3c03c8c6	0.008043474
19	0xbbe1e742	-0.006894023
20	0x3b38ecf8	0.0028217416
21	0x3d86314a	0.0655237
22	0x3c76001b	0.015014674
23	0x3d3271b2	0.04356546
24	0x3d0e3f3d	0.034728277
25	0x3c0b52aa	0.008503595
26	0x3d84e08a	0.0648814
27	0x3df9040b	0.12158974
28	0x3b22b394	0.0024826275
29	0x3b6ad73c	0.0035833856
30	0x3d503a9e	0.05083715
31	0xbcb39cdb	-0.02192538
32	0x3bb99fe0	0.0056648105
33	0x3d6119e2	0.054956324
34	0x3ccdf3aa	0.025140602
35	0x3c8d2b33	0.017232513
36	0xbceb03ed	-0.028688395
37	0xba8e6143	-0.0010862726
38	0xbbda990e	-0.0066710776
39	0x3ccb42c2	0.024812106
40	0xbc1af6e3	-0.009458276
41	0x3bc2585c	0.0059309434
42	0x3d222037	0.039581504
43	0xbcb98717	-0.022647424
44	0x3d06a99d	0.0328766
45	0x3b5181a2	0.0031968136
46	0x3d72be1d	0.059263337
47	0x3db507d2	0.08839382
48	0xbb8d0a8c	-0.004304236
49	0xbae632ec	-0.0017562783
50	0x3d32e2aa	0.043673195
51	0x3d4c7bd8	0.049922794
52	0x3c6c7447	0.01443202
53	0x3d539f0b	0.051665347
54	0x3bd6deac	0.0065573063
55	0x3a304b6c	0.0006725106
56	0xba268f79	-0.00063537766
57	0x3d64c68e	0.05585342
58	0x3d10a92e	0.035317592
59	0x3d44c55f	0.04803979
60	0x3d821a95	0.06352726
61	0xbca7f7da	-0.020503927
62	0xbbf3e6a7	-0.0074432674
63	0xbcad8d56	-0.021185558
64	0x3d018d80	0.031629086
65	0x3c9d0ebe	0.019172069
66	0x3d0d39a6	0.034478806
67	0x3c99a5df	0.018755851
68	0x3c83dc6f	0.016096322
69	0x3ce6b9ef	0.028164832
70	0x3d5678b2	0.052361198
71	0xbd507cc7	-0.050900247
72	0x3c98e818	0.018665358
73	0xbc300b51	-0.010744886
74	0xbb6abfed	-0.0035819963
75	0x3b81c269	0.003959943
76	0xbcb36b42	-0.02190173
77	0x3c987aff	0.018613337
78	0x3d07ffa9	0.0332028
79	0xbcc7f0d5	-0.02440683
80	0x3d3968d9	0.045266006
81	0x3da161d7	0.078799896
82	0x3d52d8b9	0.051476214
83	0x3c122d4e	0.008921934
84	0xbc6b60d4	-0.014366347
85	0xbca24488	-0.019808069
86	0xbc85604e	-0.016281273
87	0x3d311aa9	0.043238316
88	0x3c4e6af3	0.012598741
89	0x3c00e700	0.007867575
90	0xbb73ef1f	-0.0037221385
91	0xbb894298	-0.004188847
92	0x3c9e884c	0.0193521
93	0x3ccee4a4	0.025255509
94	0xbd012283	-0.031527054
95	0xbb3b14f9	-0.0028546436
96	0x3d0ec94a	0.034859933
97	0x3d2ca414	0.042148665
98	0x3d4c9d71	0.049954835
99	0x3d627d8d	0.055295516
100	0x3cbe8a74	0.023259379
101	0x3c320439	0.010865265
102	0x3d013d47	0.03155258
103	0x3c92a588	0.017901197
104	0x3c1649a9	0.009172835
105	0x3ca67f7e	0.020324465
106	0x3d10049d	0.03516065
107	0xbb8f5599	-0.0043742177
108	0x3c9b68fa	0.018970955
109	0x3c4703bb	0.0121468855
110	0x3cdb0939	0.026737796
111	0xbc44f989	-0.012022384
112	0xbb980228	-0.004638929
113	0xbc3cedbf	-0.011531292
114	0x3d51b891	0.051201407
115	0x3d0915ce	0.03346806
116	0x3cba1ad7	0.022717876
117	0x3d86d65c	0.065838546
118	0x3cd8a624	0.02644641
119	0xbcb4cc86	-0.02207018
120	0xbc3210a1	-0.010868222
121	0xbba5fa76	-0.0050652577
122	0x3d49a2e4	0.04922761
123	0x3c8c7203	0.017144209
124	0x3b95c9c6	0.0045711724
125	0x3c0487fc	0.008089062
126	0x3c0879e3	0.008329841
127	0xbc6ea0bd	-0.01456469
128	0x3d614f0c	0.055007026
129	0x3cbdcd93	0.023169314
130	0x3db8afdf	0.0901792
131	0xb925f331	-0.00015826222
132	0x3b21bdaf	0.002467971
133	0xbcadb75c	-0.021205597
134	0x3bbb6302	0.0057185898
135	0x3c9a87ad	0.018863523
136	0x3d10d0f8	0.035355538
137	0x3e099d13	0.13438825
138	0x3ca4e62b	0.020129284
139	0x3c44be39	0.012008243
140	0x3c83f9b6	0.016110282
141	0x3d52963d	0.05141281
142	0x3bc5e01b	0.0060386783
143	0x3d6d314d	0.057908345
144	0x3b3f27f4	0.00291681
145	0x3bac5dfc	0.0052602272
146	0xbc8d8521	-0.017275395
147	0x3c0a4eb0	0.008441612
148	0xbb691423	-0.003556498
149	0x3d017e59	0.031614635
150	0x3ce80252	0.028321419
151	0x3c9c1fca	0.019058127
152	0xbcbe9380	-0.023263693
153	0xbd0b03fa	-0.03393934
154	0x3c8a9f2d	0.016921604
155	0x3bb9f6cb	0.005675172
156	0x3d4a0dae	0.049329452
157	0x3c197735	0.0093668
158	0x3d1a9a18	0.03774461
159	0x3c84dca2	0.016218487
160	0x3c139e0a	0.009009847
161	0x3cbccb2c	0.023046099
162	0x3d35cea3	0.044386517
163	0xbc91b84a	-0.017788071
164	0x3c57df09	0.013175734
165	0xbc390f6a	-0.011295179
166	0x3d23c077	0.03997847
167	0xbc4c43ab	-0.012467305
168	0x3cd595c4	0.02607239
169	0xbd87d508	-0.06632429
170	0x3ab1f983	0.0013578389
171	0x3cc025f1	0.023455592
172	0x3d4b8b58	0.049693435
173	0x3cdfaa69	0.027302938
174	0xbc2931dd	-0.01032683
175	0x3ce9c5bf	0.028536675
176	0x3d245b74	0.04012628
177	0x3d85779b	0.065169536
178	0xbd4aacf8	-0.049481362
179	0x3cc649a1	0.02420503
180	0x3bca4613	0.0061729043
181	0x3c88e5e3	0.016711181
182	0xbd341615	-0.04396637
183	0xbd88326d	-0.06650243
184	0xba0cb354	-0.0005367298
185	0x3cd1a874	0.02559302
186	0x3d61f233	0.05516262
187	0x3bdbb0d2	0.0067044282
188	0x3c7ccdc0	0.015429914
189	0x3ac246fb	0.0014822179
190	0x3ceb5720	0.028728068
191	0x3d94116d	0.07229886
192	0x3d96c215	0.07361237
193	0x3d00a8fd	0.03141116
194	0x3cb2220e	0.021744754
195	0x3d8c4fac	0.06851134
196	0x3b6f8750	0.0036549158
197	0xbcdb4121	-0.026764454
198	0x3c06dda4	0.008231554
199	0x3d43618c	0.04770045
200	0xbceaf508	-0.028681293
201	0x3d856779	0.065138765
202	0x3ca337f5	0.019924143
203	0xbd6b1dd1	-0.057401482
204	0xbc0205f0	-0.007935986
205	0x3c243265	0.010021781
206	0x3cd749f6	0.026280385
207	0xbd0d5220	-0.03450215
208	0x3cf40d23	0.02979142
209	0x3c31e93c	0.01085883
210	0x3d4d7304	0.050158516
211	0x3d6ca1ad	0.057771374
212	0x3d0803eb	0.03320686
213	0xbc406bbc	-0.011744436
214	0x3d5b7d12	0.053586073
215	0x3c1e65bf	0.009667813
216	0xbb97f6df	-0.0046375836
217	0x3d2c8e0e	0.04212766
218	0x3d5a2750	0.053260148
219	0x3b71787c	0.0036845496
220	0x3c4f40ca	0.012649724
221	0x3d0ce62d	0.0343992
222	0x3ceb5ebc	0.028731696
223	0x3c7c8bdf	0.015414207
224	0x3d16c0fa	0.03680513
225	0x3bd343f5	0.00644731
226	0xbc4f0963	-0.012636515
227	0xbc516242	-0.012779774
228	0x3d38a53b	0.04507945
229	0x3cbbedbd	0.02294051
230	0x398a0889	0.0002632777
231	0xbb5e80a5	-0.003395119
232	0x3cdfd022	0.027320925
233	0x3baead31	0.0053307046
234	0x3d69107c	0.056900486
235	0xb995a6cc	-0.00028543768
236	0x3c5505bf	0.013001858
237	0x3d8ee752	0.069777146
238	0x3c99870d	0.018741155
239	0xbd008f1a	-0.031386472
240	0x3c41e0ba	0.011833364
241	0x3bccc3d2	0.0062489295
242	0xbbb9588a	-0.0056563066
243	0x3d0f5e78	0.0350022
244	0x3cbc8e58	0.023017094
245	0x3cb6035a	0.022218395
246	0x3d437253	0.04771645
247	0x3d6acba1	0.057323102
248	0x3d5fada7	0.054608967
249	0x3d63a411	0.055576388
250	0x3c438fd2	0.011936145
251	0x3d364b59	0.04450545
252	0x3b9ac6bd	0.0047233985
253	0xbd0f942d	-0.03505342
254	0x3d01d6a2	0.03169883
255	0x3d8fa846	0.070145175

network_body._body_endoder.seq_layers.0.weight f4 [256, 266]
0	0xbda09543	-0.078409694
1	0xbc0abcf1	-0.008467899
2	0x3dc85edf	0.0978372
3	0x3b822cc0	0.00397262
4	0xbd9adeab	-0.07562002
5	0xbc0d4403	-0.008622172
6	0x3b8f17b9	0.0043668416
7	0xbccbbb9c	-0.024869733
8	0xbbdf6839	-0.006817844
9	0xbcc9e12b	-0.024643501
10	0x3d185a32	0.037195392
11	0xbdb2edbe	-0.08736752
12	0xbd9a12e6	-0.07523136
13	0xbd678b73	-0.056529474
14	0xbd8b5bad	-0.06804595
15	0x3ddea705	0.108717
16	0x393a5cb2	0.00017772874
17	0xbb526632	-0.003210437
18	0x3d80d215	0.0629007
19	0x3d299377	0.0414004
20	0xbc82deaa	-0.015975315
21	0x3c341dbf	0.01099342
22	0x3dda030a	0.10645111
23	0xbd2813b0	-0.0410344
24	0xbe571601	-0.21004488
25	0x3c1a5707	0.009420163
26	0xbd19f7fa	-0.037590005
27	0xbd6d9156	-0.05799993
28	0xbd57caa0	-0.052683473
29	0xbe2070cd	-0.1566803
30	0x3ddf12f9	0.108922906
31	0x3d8dbd6f	0.06920897
32	0x3d4263e5	0.047458548
33	0xbdb0ecfe	-0.08638953
34	0x3d5ea93b	0.05436061
35	0xbe21ac85	-0.15788467
36	0x3c7bb5cf	0.015363171
37	0x3d34dde7	0.044156935
38	0xbd9553cb	-0.07291373
39	0xbca890ca	-0.020576853
40	0xbd8f4da9	-0.069972344
41	0x3d899076	0.06717007
42	0xbc47b857	-0.012189946
43	0x3d1aeef0	0.037825525
44	0xbce10dba	-0.027472366
45	0x3ca7aac0	0.020467162
46	0x3b452a47	0.0030085014
47	0x3d8348c5	0.06410364
48	0x3c6df767	0.014524317
49	0x3cc85602	0.024455074
50	0xbc9c7f9a	-0.019103814
51	0xbc2f82d2	-0.010712342
52	0x3ced2449	0.028947966
53	0x3e064820	0.13113451
54	0xbe357bff	-0.17723082
55	0x3dbe06c4	0.09278634
56	0x3e215f32	0.1575897
57	0x3d5688d8	0.052376598
58	0xbd31d3f2	-0.043415017
59	0x3cd56fd6	0.026054304
60	0x3e0665c9	0.13124765
61	0x3d02efd1	0.031966988
62	0x3dabb291	0.08383668
63	0x3e59a256	0.21253332
64	0xbc4f16ef	-0.012639745
65	0x3d632dee	0.055463724
66	0x3a05d726	0.0005105607
67	0xbd78648d	-0.060642768
68	0x3c2b139b	0.010441686
69	0xbd8b2344	-0.06793836
70	0x3cc99e82	0.024611715
71	0x3d1c6ed1	0.03819162
72	0x3cb4cd02	0.022070412
73	0x3c88f1ad	0.016716802
74	0x3c9b6ede	0.018973764
75	0xbca90877	-0.02063392
76	0xbd1fbb6d	-0.038997103
77	0x3b99355d	0.004675551
78	0xbe21faf5	-0.15818389
79	0x3db34d14	0.08754936
80	0x3d18c869	0.0373005
81	0x3ddaa1ec	0.106754154
82	0xbc7b0dd2	-0.015323119
83	0xbd124ac7	-0.035715844
84	0xbd6de58e	-0.05808025
85	0xbc45efee	-0.0120811295
86	0xbd209a6b	-0.039209764
87	0x3caaff91	0.020873817
88	0xbd19717e	-0.03746175
89	0xbdb4e3be	-0.08832501
90	0xbcf677a0	-0.030086339
91	0xbd58cc71	-0.052929346
92	0x3ded0d50	0.11574805
93	0x3c4b7239	0.0124173695
94	0xbd212834	-0.03934498
95	0x3d8a8e51	0.06765426
96	0xbe185cd6	-0.14879164
97	0x3e0163de	0.12635753
98	0x3dc48405	0.09595493
99	0xbde25f34	-0.11053315
100	0x3e1800b7	0.14844023
101	0x3dabc526	0.083872125
102	0xbdaba49d	-0.08381007
103	0x3d13a9a4	0.036050454
104	0x3d8b88ab	0.06813177
105	0x3c555b43	0.013022247
106	0xbd9adf3d	-0.075621106
107	0xbd24b7a4	-0.040214196
108	0x3bcc3ccf	0.006232835
109	0xbdb51781	-0.08842374
110	0xbd3aec07	-0.04563525
111	0x3cd90f7a	0.026496638
112	0x3e09a090	0.13440156
113	0xbbe995e0	-0.007128462
114	0x3e09e7fa	0.13467398
115	0xbb5f1f7f	-0.0034045873
116	0x3d385522	0.045003064
117	0xbd41096b	-0.047128122
118	0xbdb1b524	-0.08677128
119	0x3dcb6638	0.09931606
120	0x3e1397e4	0.1441341
121	0xbcdc20ff	-0.026871203
122	0xbd3670d0	-0.04454118
123	0x3e055903	0.13022237
124	0x3d8a6c4c	0.06758937
125	0x3b55ea5b	0.0032640907
126	0x3d8b1d8c	0.06792745
127	0xbd7b9636	-0.06142255
128	0x3d183667	0.037161257
129	0x3d8c539b	0.06851884
130	0xbd894b24	-0.06703785
131	0x3d3cb9e0	0.0460757
132	0xbd27d3bd	-0.040973414
133	0xbbf81546	-0.0075708954
134	0x3caa3967	0.020779325
135	0xbdd13200	-0.10214615
136	0xbdb03fa2	-0.08605887
137	0x3c8b7fa1	0.017028632
138	0xbd34dd98	-0.04415664
139	0xbd8d18a4	-0.068894655
140	0x3dd25845	0.10270742
141	0x3d040b18	0.032237142
142	0xbd8a0d99	-0.06740875
143	0x3e0a7fbc	0.1352529
144	0x3cdcfd78	0.026976332
145	0x3d2ca981	0.04215384
146	0xbdee9445	-0.11649374
147	0x3d1b66d6	0.03793987
148	0xbe8c5405	-0.27407852
149	0xbd8abef8	-0.06774706
150	0x3e0bfd76	0.13670906
151	0x3dc45005	0.09585575
152	0x3c9c2a50	0.019063145
153	0xbd8acb7e	-0.06777094
154	0xbc7e4d66	-0.015521383
155	0x3e0dc07d	0.1384296
156	0xbdb6218d	-0.08893118
157	0xbcb1a253	-0.021683848
158	0xbd4ec244	-0.050478235
159	0x3d9f479f	0.077773325
160	0xbc87a551	-0.016558321
161	0x3d77d1a5	0.060502667
162	0x3da521c1	0.08063079
163	0xbb9d7320	-0.0048049837
164	0xbe33b61a	-0.17549935
165	0x3d1fe2e9	0.039034758
166	0xbe3e62be	-0.18592355
167	0xbdf59124	-0.11990574
168	0xbd530061	-0.051514033
169	0x39c8026e	0.00038148783
170	0x3ced7e2e	0.028990831
171	0xbd40fac1	-0.047114138
172	0x3cfb2215	0.0306559
173	0x3d95917c	0.073031396
174	0xbe0c144c	-0.13679618
175	0x3bd2b265	0.0064299577
176	0xbda03157	-0.07821911
177	0xbcdf611a	-0.027267981
178	0x3d56756a	0.05235807
179	0xbd3a3500	-0.0454607
180	0xbd42bc49	-0.047542844
181	0x3c4af78c	0.012388121
182	0x3d7d7d9e	0.061887376
183	0x3da10680	0.07862568
184	0xbdfa0df7	-0.12209695
185	0xbdbbae2b	-0.09164079
186	0xbe07492c	-0.13211507
187	0x3d4d39af	0.05010384
188	0xbdbb5f34	-0.09149018
189	0x3cbcd2f7	0.023049815
190	0x3d0ba0f6	0.03408905
191	0xbd8d6962	-0.06904866
192	0x3d8241bd	0.06360195
193	0xbd6c28d1	-0.057656113
194	0xbd4d27ca	-0.050086774
195	0xbd59a079	-0.053131554
196	0xbe0fec93	-0.1405509
197	0xbd4a89cd	-0.049447823
198	0xbd716260	-0.05893171
199	0xbba6fe12	-0.0050962055
200	0xbd219950	-0.03945285
201	0x3d9e2c2b	0.07723268
202	0xbd604455	-0.054752667
203	0x3c685470	0.014180288
204	0x3e14867f	0.14504431
205	0xbc8fa322	-0.017533842
206	0x3d4efaa1	0.050531987
207	0x3d209fdf	0.039214965
208	0xbd0f52b5	-0.034990985
209	0xbc99c33b	-0.018769851
210	0xbd914835	-0.070938505
211	0xbcd4e9a1	-0.02599031
212	0xbdb26b88	-0.08711916
213	0x3e03ee0c	0.12883776
214	0x3c445a5d	0.011984435
215	0x3c9f59af	0.019451944
216	0xbdad03d4	-0.08447996
217	0xbd20d042	-0.03926111
218	0x3e04d0bf	0.12970255
219	0x3db91a0e	0.09038173
220	0x3e0b75c2	0.1361914
221	0x3d2d13a7	0.04225507
222	0x3c04136b	0.00806127
223	0xbda19ee4	-0.07891634
224	0xbdd282e1	-0.102788694
225	0xbe0591c6	-0.1304389
226	0xbcc122f5	-0.02357624
227	0xbca54d4a	-0.020178456
228	0x3d710034	0.058838084
229	0x3bc9f78b	0.0061635426
230	0x3d7a0b21	0.06104577
231	0xbd481a5d	-0.048853267
232	0xbd20cf8c	-0.039260432
233	0x3c1bcfc8	0.009509988
234	0x3d78fef7	0.06079003
235	0xbda7b616	-0.08189027
236	0xbd35d75e	-0.044394843
237	0x3d8aed68	0.06783563
238	0xbdbc6df7	-0.09200662
239	0xbb3d5d04	-0.0028894553
240	0x3c0e719a	0.008694077
241	0xbd304ec1	-0.043043856
242	0xbc0ff7d1	-0.008787111
243	0xbdc6ebd9	-0.09712953
244	0xbd28ea25	-0.041238923
245	0x3b9abba7	0.004722077
246	0x3dfc996d	0.12333951
247	0x3d989cac	0.07451758
248	0xbb99e892	-0.004696914
249	0xbda98cd4	-0.08278814
250	0x3e09a370	0.13441253
251	0x3de40b4b	0.111349665
252	0xba9f12cb	-0.0012136338
253	0x3a8428b2	0.0010082929
254	0xbd6f830e	-0.058474593
255	0x3d92f445	0.07175497

network_body._body_endoder.seq_layers.0.bias f4 [256]
0	0xbb5277b2	-0.00321148
1	0x3bc5fadb	0.006041867
2	0x3c71df9f	0.014762788
3	0x3a38a59e	0.0007043722
4	0xbc298c2b	-0.01034836
5	0x3ccc1b76	0.024915438
6	0x3b79466c	0.003803636
7	0x3c111cad	0.0088569345
8	0xbb4155aa	-0.0029500523
9	0xbb90005d	-0.0043945746
10	0x3c848b9f	0.016179858
11	0xbcf9fd2f	-0.030516235
12	0x3b06a940	0.0020547658
13	0x3bcf90aa	0.006334384
14	0x3ba5825e	0.0050509414
15	0xbce82028	-0.028335646
16	0x3cbdb849	0.023159163
17	0xbc656846	-0.0140019115
18	0x3bd1a6ee	0.0063980734
19	0x39d8d24f	0.00041355423
20	0x3b21e38a	0.0024702274
21	0x3ca38609	0.019961374
22	0x3b6134f6	0.0034363843
23	0x3cc24c7c	0.023718111
24	0xbc2460b5	-0.010032822
25	0x3afd4c89	0.0019325177
26	0xbc9f1ea5	-0.019423792
27	0x3abaeef6	0.001426189
28	0xbabcb6fd	-0.0014397796
29	0xbc3d5854	-0.011556704
30	0x3a38c178	0.0007047872
31	0xb872a40f	-5.7850088e-05
32	0xbade2041	-0.0016946868
33	0x3b4e1f4b	0.0031451758
34	0x3b8592da	0.004076344
35	0x3bb154cf	0.0054117213
36	0x3c68f00a	0.014217386
37	0xbc8c71a1	-0.017144026
38	0xbb6f0819	-0.0036473332
39	0x3a7b9e19	0.00095984485
40	0xbae19e11	-0.0017213245
41	0x3c35f605	0.011106019
42	0x3cf4f9bd	0.02990424
43	0x3c798b5e	0.015230982
44	0xbb331c19	-0.002732998
45	0x3d02ffce	0.031982236
46	0xbb84c243	-0.004051478
47	0x3bd43548	0.006476078
48	0xbd5542f1	-0.052065793
49	0x3c32da4d	0.010916305
50	0x3cc81fd2	0.024429236
51	0x3c649b10	0.013952985
52	0x3b8a4e48	0.0042207576
53	0xbbbd0172	-0.0057679946
54	0x3bb9d8c7	0.005671594
55	0xbac8ea12	-0.0015328547
56	0x3cd393a9	0.025827246
57	0x3c8e3d64	0.017363258
58	0x3cab2049	0.020889418
59	0xbb91adce	-0.004445768
60	0x3c631840	0.013860762
61	0x3c458461	0.012055487
62	0xbc0383da	-0.008027041
63	0x3ca886c8	0.020572081
64	0x3c292ba5	0.010325347
65	0xbbc1dcca	-0.0059162127
66	0x3c8e105f	0.01734179
67	0xba316c81	-0.00067681825
68	0x3c8ed635	0.017436126
69	0x3bf4dd00	0.0074726343
70	0xbb297389	-0.0025856218
71	0x3b3c7b6e	0.0028760093
72	0x3b29650b	0.002584758
73	0x3c1cdf39	0.009574705
74	0xbbaa79a2	-0.005202488
75	0xbbe9841c	-0.0071263444
76	0x3c94a8de	0.018146928
77	0xbc3fd47c	-0.011708375
78	0xbc3b9fc3	-0.011451664
79	0x3c0b77c3	0.00851244
80	0x3cc2f86f	0.023800103
81	0x3c0b280f	0.008493437
82	0x3c21aa95	0.00986733
83	0x3c3c6851	0.01149948
84	0x3b2e8088	0.0026626904
85	0x3b1c31ff	0.002383351
86	0xbc468caa	-0.012118498
87	0xbc7b5673	-0.015340435
88	0x3d098256	0.033571564
89	0xbc40a2ca	-0.011757562
90	0xbc821d7c	-0.0158832
91	0xbbdbb3b5	-0.0067047724
92	0x3ced276f	0.028949467
93	0xbcba9e37	-0.02278052
94	0x3b174e4f	0.0023087447
95	0x3c962359	0.018327402
96	0xbce51257	-0.027962847
97	0x3cf40c09	0.029790895
98	0x3a63c3b2	0.00086885237
99	0xbba305a4	-0.0049750376
100	0x3b0fc134	0.0021935226
101	0x3cc4311e	0.023949202
102	0x3c835101	0.016029837
103	0xbbe90fd6	-0.0071124835
104	0xbb6b3e16	-0.003589516
105	0x3c166eed	0.00918172
106	0x3c479c8c	0.01218332
107	0x3c5ff7ea	0.013669947
108	0x3c69d586	0.014272099
109	0x3c265fcf	0.0101546785
110	0x3c86f1b5	0.016472677
111	0xbb5651f7	-0.0032702663
112	0x39cd3a57	0.00039144114
113	0x3c8320e7	0.0160069
114	0x3badffa0	0.005310014
115	0x3cc8b7c5	0.02450169
116	0xbb217ef8	-0.002464233
117	0xbb980c60	-0.004640147
118	0x3c8dadd6	0.017294805
119	0xbb79b401	-0.0038101675
120	0xbb95ef51	-0.004575648
121	0x3c457496	0.012051722
122	0x3c8b4ab7	0.0170034
123	0xba1aa230	-0.00058988016
124	0x3bdcb9be	0.0067360094
125	0x3bdf0cdc	0.006806953
126	0xbc80b7b3	-0.015712595
127	0x3cc512cb	0.024056813
128	0xb8eeeeab	-0.0001139318
129	0xbd100e92	-0.035170145
130	0xbce9b46e	-0.028528418
131	0x3be12918	0.006871354
132	0x3c8f16bd	0.017466897
133	0x3b99cfad	0.0046939463
134	0xbc5379e9	-0.012907484
135	0x3c954c03	0.018224722
136	0xbc99e8cd	-0.018787766
137	0x3c61e875	0.013788332
138	0x3cce43f7	0.025178893
139	0x3c515b66	0.012778139
140	0xbc22147f	-0.009892582
141	0xbbcdaf31	-0.006276988
142	0xbc2df7c6	-0.010618156
143	0xbc0136c8	-0.007886596
144	0xbc2a1b12	-0.010382431
145	0x3cdbb49c	0.02681952
146	0xbba2380a	-0.004950528
147	0xbc573589	-0.013135322
148	0xbaeb9b43	-0.0017975349
149	0x3c360e39	0.011111789
150	0xbc107133	-0.008816051
151	0x3c8f612c	0.01750239
152	0xbc5e1831	-0.013555572
153	0x3c0a725f	0.00845012
154	0x3aa0d210	0.0012269635
155	0xba6e162a	-0.0009082282
156	0xbca4caa3	-0.020116156
157	0x3d0a8821	0.03382123
158	0xbc1a96bd	-0.009435353
159	0x3ab78ad5	0.0014003167
160	0x3aff543b	0.0019480059
161	0x3b3242ca	0.0027200454
162	0xbc502dad	-0.012706202
163	0x3b8eb217	0.004354726
164	0x3c780b61	0.015139432
165	0x3c8870e2	0.01665539
166	0x3beed012	0.0072879875
167	0xbceb74e5	-0.028742263
168	0x3b89e892	0.0042086327
169	0xbc218da3	-0.009860429
170	0x3b96ed65	0.0046059364
171	0xbb0d92a7	-0.0021602304
172	0xbbe70203	-0.0070498004
173	0xbc883087	-0.016624702
174	0x3cad9df4	0.021193482
175	0x3b963461	0.004583881
176	0x3c47da66	0.012198066
177	0x3c60eb38	0.0137279555
178	0x3b0c28d1	0.0021386633
179	0xbc8a96ac	-0.01691755
180	0x3bde8678	0.0067909323
181	0xbc8931b9	-0.016747342
182	0xbc990f13	-0.018683946
183	0x3c4a4752	0.012346106
184	0x3c4c7838	0.012479834
185	0xbc405b8b	-0.011740576
186	0x3cb55057	0.022133036
187	0xbb3a45a5	-0.002842286
188	0x3c9fe887	0.019520057
189	0xbc478826	-0.012178456
190	0x3b186eab	0.0023259323
191	0x3cb42009	0.021987932
192	0xba989648	-0.0011641467
193	0xbb7d9d1f	-0.0038698388
194	0xbcae78a6	-0.021297764
195	0xbc667db7	-0.014068059
196	0x3c541324	0.012944017
197	0xba8787bc	-0.0010340135
198	0x3adbe464	0.001677644
199	0xbb848d8c	-0.004045194
200	0x3ac9db00	0.001540035
201	0xba61b6e5	-0.0008610322
202	0xbc96a859	-0.018390821
203	0x3bfaceeb	0.007654061
204	0x3bc1807d	0.0059052096
205	0x3b3236f9	0.002719341
206	0x3c14c963	0.009081217
207	0xbad158be	-0.0015971882
208	0x3ba9723c	0.0051710885
209	0xbb64bf79	-0.0034904166
210	0xbcd56211	-0.026047738
211	0x398f5149	0.00027335648
212	0x3b82cf65	0.0039920085
213	0x3c13a158	0.009010635
214	0xbb8b3c75	-0.0042491504
215	0x3c9ccb18	0.019139811
216	0x3cdf5d7c	0.027266257
217	0x3bb7334a	0.005590831
218	0x3b36e159	0.0027905314
219	0x3be73435	0.007055784
220	0x3c1d5519	0.009602808
221	0x3cd71969	0.026257234
222	0x3bc01d5c	0.005862875
223	0xbbb96fb1	-0.0056590666
224	0x3b020bfa	0.0019843564
225	0x3b0f1c54	0.0021836953
226	0x3c178449	0.009247848
227	0x3b7dd23e	0.003873005
228	0x3d049946	0.032372735
229	0xbd22d879	-0.039757226
230	0x3bb43309	0.005499248
231	0x3ca0dc00	0.019636154
232	0x3b250ea6	0.0025185733
233	0xbc7b6cfb	-0.015345807
234	0x3c970300	0.018434048
235	0xbc339205	-0.010960107
236	0xbc1e2128	-0.00965146
237	0x3b757ec2	0.0037459587
238	0x3be4a442	0.006977589
239	0x3c7ea5b5	0.015542437
240	0xbbcfa30f	-0.006336577
241	0x3c7fed01	0.015620471
242	0x3caad65c	0.020854168
243	0xbc5c0a60	-0.013430208
244	0x3cce3050	0.025169522
245	0xbc824d3a	-0.015905965
246	0x3c9e8677	0.019351227
247	0x3c9df05e	0.019279655
248	0x3cde39ed	0.02712723
249	0xbc3560cd	-0.011070442
250	0x3c6dad77	0.014506689
251	0x3bd2337b	0.0064148284
252	0xbabcb632	-0.001439756
253	0x3cc4ec54	0.024038471
254	0xbc7d39f2	-0.01545571
255	0x3c4f4724	0.012651239

network_body._body_endoder.seq_layers.2.weight f4 [256, 256]
0	0xbcf31321	-0.029672207
1	0xbd8d40d7	-0.06897133
2	0x3c8f4677	0.017489655
3	0x3d197dfe	0.03747367
4	0xbe075c89	-0.13218893
5	0x3da40a34	0.080097586
6	0xbd75ccbf	-0.060009714
7	0x3d2d0c30	0.04224795
8	0xbd6a1e13	-0.057157587
9	0xbd99e5c3	-0.07514527
10	0x3c8860c4	0.016647704
11	0x3cee67ec	0.029102288
12	0x3db114d8	0.08646554
13	0xbc527a39	-0.012846523
14	0xbcc96eb4	-0.02458892
15	0x3c348fc0	0.011020601
16	0x3cad1ec3	0.021132832
17	0xbbe85dd5	-0.007091264
18	0xbd865caa	-0.06560643
19	0x3d3c1ab1	0.045923892
20	0x3d2953aa	0.041339554
21	0xbd3fbce0	-0.046810985
22	0x3ca57c4a	0.020200867
23	0xbd561659	-0.052267406
24	0xbc96f948	-0.018429413
25	0xbc596607	-0.013268954
26	0xbdad97e0	-0.084762335
27	0x3db531df	0.08847403
28	0x3d06fdcb	0.03295688
29	0x3c74710c	0.014919531
30	0xbcb97a94	-0.022641458
31	0xbc909c21	-0.017652573
32	0x3d50f6ec	0.051016733
33	0x3d6fcac7	0.058542993
34	0xbe08bd1c	-0.1335339
35	0x3b9cbc0d	0.0047831596
36	0x3d62cf5a	0.055373527
37	0x3cd7a85d	0.026325399
38	0x3d89a60b	0.06721123
39	0xbe1111ec	-0.14166993
40	0x3d06d3a5	0.032916684
41	0xbe243b52	-0.16038254
42	0xbd99c420	-0.07508111
43	0x3cec1685	0.028819332
44	0xbc163cfb	-0.009169812
45	0xbc5169a5	-0.012781535
46	0xbe02d5ab	-0.1277682
47	0xbced48bf	-0.028965352
48	0xbd975578	-0.07389349
49	0x3e0d832f	0.13819574
50	0xbda47521	-0.08030153
51	0x3dba82a1	0.09106947
52	0x3d203ee7	0.03912249
53	0xbd0435b5	-0.03227778
54	0x3d056773	0.03256936
55	0xbc491d0a	-0.01227499
56	0xbd207580	-0.039174557
57	0x3dbad424	0.09122494
58	0xbe0db702	-0.13839343
59	0xbd33957f	-0.043843742
60	0x3dbd5521	0.09244753
61	0xbdc1bb87	-0.09459596
62	0xbdbc828a	-0.09204586
63	0x3e00db04	0.12583548
64	0x3dc59f5a	0.096495345
65	0xbd8e4e46	-0.06948523
66	0x3d431002	0.047622688
67	0xbd02ce77	-0.03193518
68	0xbd8cf4b6	-0.068826124
69	0xbdd05e8c	-0.101742834
70	0x3da06023	0.078308366
71	0xbde78dcc	-0.113063425
72	0x3d880fa1	0.06643606
73	0x3db4c92e	0.088274345
74	0x3c4fa617	0.012673876
75	0xbce4da5a	-0.02793615
76	0xba483c8c	-0.0007638417
77	0x3c992f04	0.018699177
78	0x3e25fd57	0.16209923
79	0x3dcf2df9	0.101161905
80	0x3e01c9bc	0.12674612
81	0xbc00bc5b	-0.007857407
82	0xbd1f638f	-0.038913306
83	0xbc860b10	-0.016362697
84	0x3d1a51f2	0.037675805
85	0xbd7934ca	-0.06084136
86	0x3dfb2cf4	0.122644335
87	0xbd1bb4b3	-0.038014125
88	0x3da852a4	0.082188874
89	0xbd0c79cd	-0.034295846
90	0xbca64cef	-0.020300357
91	0x3cc9528f	0.0245755
92	0xbd6809b0	-0.056649864
93	0xbe04d873	-0.12973194
94	0x3cea77e5	0.028621623
95	0x3c408b84	0.011752013
96	0xbbf38ffb	-0.0074329353
97	0x3d8d988d	0.069138624
98	0x3c8f4f60	0.017493904
99	0x3cbfc9bd	0.023411626
100	0xbd4d7e00	-0.05016899
101	0xbe0ef4f9	-0.13960637
102	0xbd412073	-0.047150087
103	0xbd712401	-0.058872227
104	0x3ca50768	0.020145133
105	0x3e56773d	0.20943923
106	0xbdb39dd0	-0.08770335
107	0xbd8cd3cd	-0.06876335
108	0x3d5830be	0.05278086
109	0xbdfcfe32	-0.123531714
110	0xbdd82011	-0.10552991
111	0xbdb62510	-0.08893788
112	0x3e20c809	0.15701307
113	0x3e4f8878	0.20266902
114	0xbc0cc2d9	-0.008591377
115	0xbe140498	-0.14454877
116	0xbd30e9f2	-0.043191858
117	0x3c96939b	0.01838093
118	0xbcd673c2	-0.026178245
119	0xbda44362	-0.08020665
120	0xbd3f07c5	-0.04663827
121	0xbd429391	-0.04750401
122	0x3d6af701	0.057364468
123	0x3d1307e4	0.035896197
124	0xbbb2cb17	-0.005456339
125	0xbab2eb3f	-0.0013650431
126	0xbd5d63bb	-0.05405019
127	0x3d942d60	0.07235217
128	0x3cb47c03	0.02203179
129	0xbd03c2fb	-0.03216837
130	0x3cfcdc79	0.030866848
131	0xbcf0df64	-0.029403396
132	0x3d79b7cd	0.0609663
133	0xbdd872d3	-0.10568776
134	0xbd187bb7	-0.03722736
135	0x3d1833e7	0.037158873
136	0xbc05b01c	-0.0081596635
137	0xbd942338	-0.0723328
138	0xbdc59abf	-0.09648656
139	0x3d8b1e82	0.06792928
140	0xbdd6c694	-0.104870945
141	0xbe35917d	-0.1773128
142	0x3d9d6c1b	0.07686635
143	0xbc9a3504	-0.018824108
144	0x3d5c8be5	0.05384435
145	0xbdc8d902	-0.09807016
146	0xbe0f658f	-0.14003585
147	0x3d259fdd	0.04043566
148	0x3c35a4da	0.011086667
149	0x3daa8fb0	0.083281875
150	0x3d0ef422	0.034900792
151	0x3df65033	0.120270155
152	0x3cba139f	0.022714434
153	0xbd2138c1	-0.039360765
154	0x3d5dc559	0.054143284
155	0x3d3d78b1	0.04625768
156	0x3d668859	0.056282375
157	0x3dd9033f	0.10596322
158	0xbe27aaca	-0.16373745
159	0xbe0e15f3	-0.1387556
160	0x3ca97925	0.020687649
161	0x3e050736	0.12991032
162	0xbb187ce7	-0.0023267807
163	0xbcef8b1e	-0.029241141
164	0xbcdc98fd	-0.02692842
165	0xbd45fa97	-0.048334684
166	0x3dd400f4	0.10351744
167	0xbdbf8da9	-0.093531914
168	0x3c429bb2	0.011877941
169	0xbd0573f8	-0.0325813
170	0xbdb2560f	-0.087078206
171	0xbd769746	-0.06020286
172	0x3ad947f1	0.0016577226
173	0xbca5a415	-0.020219842
174	0x3da304d0	0.07959902
175	0x3d221ad2	0.03957636
176	0x3ce61434	0.028085805
177	0xbe0134fc	-0.12617868
178	0x3db33bec	0.087516636
179	0x3d1360eb	0.0359811
180	0xbc81a4eb	-0.01582571
181	0x3c1b460e	0.009477152
182	0xbd6724bf	-0.05643153
183	0xbc3bb854	-0.0114575215
184	0xbd449f1e	-0.04800331
185	0xbd504a60	-0.05085218
186	0x3e19280f	0.14956687
187	0x3dac43fd	0.08411405
188	0xbc71232b	-0.014717857
189	0xbdd5cbc2	-0.10439254
190	0x3d4345b8	0.04767391
191	0x3d6793fb	0.05653761
192	0x3ba92e7c	0.005163012
193	0xbe37ee08	-0.17961895
194	0xbdea47a6	-0.11439447
195	0xbcc255fa	-0.023722637
196	0xbdf302e7	-0.11865788
197	0xbdc670d2	-0.096894875
198	0xbdf7554b	-0.12076815
199	0xbca81856	-0.020519417
200	0xbe406ba1	-0.18791057
201	0xbe0912a9	-0.13386025
202	0xbd2ccaca	-0.042185582
203	0x3e24ae73	0.16082172
204	0xbdd1d2be	-0.10245274
205	0xbd647b5a	-0.0557817
206	0x3d418a21	0.04725087
207	0xbdafcbe7	-0.08583813
208	0xbda4ec48	-0.080528796
209	0xbd007e33	-0.031370353
210	0x3df20d5a	0.11818953
211	0xbdb1783c	-0.08665511
212	0x3dbbbef7	0.09167283
213	0xbd393357	-0.045214977
214	0x3ce17a75	0.027524212
215	0xbba47df1	-0.005019896
216	0x3e4e4a03	0.2014542
217	0x3db01acd	0.08598862
218	0x3dd488fc	0.1037769
219	0x3d0694f0	0.03285688
220	0x3e46fc18	0.19432104
221	0xbe3bc66f	-0.18337415
222	0x3d329f19	0.04360876
223	0x3d3c6e99	0.04600391
224	0x3dc1f8fd	0.09471319
225	0xbb620c36	-0.0034492142
226	0x3d93f949	0.07225282
227	0x3d1ee85c	0.038795814
228	0x3e202d42	0.15642264
229	0xbd99e717	-0.0751478
230	0x3c700773	0.0146502135
231	0x3ca684c9	0.020326989
232	0x3d4d6cc9	0.050152574
233	0x3b9fd33d	0.0048774765
234	0x3a967453	0.0011478759
235	0x3c6e7547	0.014554328
236	0xbd9a971f	-0.07548355
237	0xbc9860f9	-0.018600928
238	0xbd736616	-0.05942353
239	0x3dfb34d1	0.12265933
240	0x3de10480	0.109871864
241	0x3cfbe680	0.03074956
242	0xbd4f69e7	-0.050638106
243	0xbd96b0e1	-0.07357956
244	0xbd30380f	-0.04302221
245	0xbdc65497	-0.09684103
246	0x3dd8e93c	0.10591361
247	0xbd895e42	-0.067074314
248	0x3d407c48	0.046993524
249	0xbdbb1ff0	-0.09136951
250	0xbd033be1	-0.032039527
251	0xbcd432ec	-0.025903188
252	0xbdb513d4	-0.088416725
253	0x3d274efb	0.040846806
254	0xbcdb24a4	-0.02675087
255	0x3c13a1a3	0.009010705
