results/PushBlockCollab_PPO/PushBlockCollab/PushBlockCollab-1999936.onnx (onnx, 643240 bytes, 12 tensors)

network_body.observation_encoder.processors.0.conv_layers.0.weight f4 [16, 6, 8, 8]
-0.02453286 0.0108072525 0.08365631 0.026485533 0.08854973 -0.047606617 -0.051447153 0.02929084
-0.010573356 -0.025791617 0.07253389 0.05954373 0.049582392 0.07061761 0.027559085 -0.059406012
0.084617816 0.04137219 0.06813047 -0.023704732 0.05193585 -0.03685073 -0.00833938 0.023764003
0.037283577 -0.0158462 -0.016168967 0.012805907 -0.01613952 -0.0398192 -0.005246781 -0.102375895
0.087959535 0.015186576 -0.03934592 0.0021971657 0.071170084 -0.034654573 -0.05162901 0.026832959
-0.037786216 0.012226352 -0.00021389415 0.05822622 -0.006343639 0.066267505 -0.02614766 -0.056968257
-0.026804216 -0.01834515 0.011897925 -0.019779207 0.008972448 -0.038291447 0.0730625 -0.10890901
-0.04535635 -0.053671207 -0.081352375 0.049673006 -0.013116126 -0.04381468 0.003672565 -0.107262984
-0.04829673 -0.050093696 -0.06619021 -0.07349135 -0.017230488 0.1015342 0.020304939 0.016545126
0.04534553 -0.038243044 -0.0016332364 0.03690499 -0.067864634 0.033669125 0.052010998 0.053099953
0.015672684 0.07016233 0.020954194 -0.02645229 -0.04281123 -0.057051774 0.08517101 -0.005271762
-0.0034192654 -0.066009425 -0.03962962 -0.021358125 -0.031017935 -0.022765245 0.0016615153 -0.08026269
-0.09100617 0.015713135 -0.07373135 0.029150264 -0.06302261 -0.07730173 -0.028580656 -0.034858905
0.0077114725 0.041186586 0.04938452 0.028831068 -0.023575952 -0.006548963 -0.044037197 0.056728937
-0.044309247 0.003246488 -0.029476807 0.031521395 -0.04214115 -0.044295598 -0.024299704 0.040199663
-0.033505578 -0.051464867 -0.008859643 0.06626261 0.014192532 -0.014250742 -0.036825147 -0.04620019
0.07518926 0.026396202 -0.040726285 -0.011984761 -0.0018084369 -0.047965847 -0.026204308 -0.024162268
-0.03294259 0.030343711 0.017701827 -0.0228617 0.04118878 -0.066576295 -0.0058741914 0.0034929186
0.013592415 0.00968586 -0.031037224 0.040705975 0.0055886917 0.030397369 -0.0596119 -0.016628385
0.014762578 -0.022260444 0.05095295 -0.0028608304 -0.031105781 -0.0025315061 -0.042376045 0.021926647
0.019435843 0.077743806 0.0232254 0.009180238 0.01667722 -0.02828976 0.036941584 -0.021005718
0.010931602 0.06560641 -0.01889696 -0.009851666 0.030633487 -0.022388682 0.009299407 -0.028025698
-0.03637501 -0.034587316 -0.0024820173 0.011611161 0.011624495 -0.007554809 -0.039166875 0.08432661
-0.005303567 0.038117267 0.035807088 0.007167749 0.056431595 0.025552722 -0.010737695 -0.010445925
0.027560633 -0.08667465 -0.07231667 0.016378557 -0.026526246 0.03299799 0.03832202 -0.014223513
-0.078237325 -0.05498883 -0.07687366 -0.11774111 0.012656166 0.050006982 0.066340216 -0.07298638
-0.021240236 -0.08898825 0.0020556883 0.0053253877 0.053387288 0.06332521 -0.030232966 0.043300264
-0.038859442 -0.052588563 -0.03524253 -0.011982782 0.014257218 -0.033073522 0.0020845833 0.13127665
0.0044246526 -0.016052997 -0.067599565 0.04312409 0.10161418 -0.06257193 0.0725931 0.03131425
-0.07886266 -0.077645496 -0.01336603 0.007421526 -0.018994264 -0.03384758 -0.049013853 0.0153444605
0.01581933 0.004008474 0.0032263852 -0.040251225 0.036748108 -0.005464734 -0.008095387 -0.058938533
0.017266575 0.06695723 0.042328965 0.008651738 0.004141335 -0.01604294 0.00070632447 -0.00059552747
00000000: 23f9 c8bc e710 313c 0054 ab3d 30f8 d83c
00000010: 9059 b53d 28ff 42bd 40ba 52bd 58f3 ef3c
00000020: df3b 2dbc f148 d3bc a68c 943d 20e4 733d
00000030: e816 4b3d f79f 903d 97c3 e13c b853 73bd
00000040: 1b4c ad3d e375 293d fd87 8b3d 6d30 c2bc
00000050: b0ba 543d cbf0 16bd e5a1 08bc baac c23c
00000060: aab6 183d e4cf 81bc c874 84bc decf 513c
00000070: 0737 84bc 7519 23bd 30ed abbb 74aa d1bd
00000080: 2124 b43d 1ed1 783c 3029 21bd 53fe 0f3b
00000090: 9fc1 913d f4f1 0dbd f178 53bd cbd0 db3c
000000a0: b8c5 1abd 0951 483c c648 60b9 9e7e 6e3d
000000b0: 4dde cfbb 42b7 873d 9e33 d6bc 8c57 69bd
000000c0: 8494 dbbc 9148 96bc 84ef 423c 0108 a2bc
000000d0: 2d01 133c 7ed7 1cbd cba1 953d b00b dfbd
000000e0: 94c7 39bd 57d6 5bbd 139c a6bd ec75 4b3d
000000f0: 05e5 56bc 0677 33bd 6baf 703b b2ac dbbd
00000100: cbd2 45bd 0c2f 4dbd bc8e 87bd a282 96bd
00000110: f426 8dbc 2af1 cf3d 8b56 a63c a589 873c
00000120: 3cbc 393d bda4 1cbd 5212 d6ba b029 173d
00000130: 9dfc 8abd a3e8 093d 7c09 553d 567f 593d
00000140: 0064 803c 45b1 8f3d 21a8 ab3c 79b2 d8bc
00000150: d45a 2fbd 1faf 69bd 236e ae3d bfbe acbb
00000160: c115 60bb f32f 87bd ab52 22bd 3cf7 aebc
00000170: 5319 febc 2e7e babc 34c7 d93a c460 a4bd
00000180: 7161 babd d5b8 803c 7600 97bd 89cc ee3c
00000190: 0012 81bd 5f50 9ebd fb21 eabc 36c8 0ebd
000001a0: 85b0 fc3b 44b3 283d 6c47 4a3d 222f ec3c
000001b0: 5b22 c1bc af98 d6bb 5960 34bd 9a5c 683d
000001c0: 9d7d 35bd 08c3 543b 5879 f1bc 941c 013d
000001d0: 339c 2cbd 4d6f 35bd 2c10 c7bc 67a8 243d
000001e0: 253d 09bd d3cc 52bd 0928 11bc b1b4 873d
000001f0: cb87 683c f27b 69bc f7d5 16bd 693c 3dbd
00000200: d4fc 993d d93c d83c 9bd0 26bd bb5b 44bc
00000210: 1309 edba d677 44bd 6baa d6bc f3ef c5bc
00000220: cfee 06bd 6093 f83c 6c03 913c 7648 bbbc
00000230: 91b5 283d 2759 88bd 4a7c c0bb 73e9 643b
00000240: b8b2 5e3c 71b1 1e3c c741 febc 4fbb 263d
00000250: 5821 b73b e703 f93c 9c2b 74bd 4038 88bc
00000260: bdde 713c 895b b6bc 0ab4 503d c57c 3bbb
00000270: 8dd1 febc a0e7 25bb 8192 2dbd 839f b33c
00000280: eb37 9f3c 2538 9f3d 3243 be3c b568 163c
00000290: aa9e 883c edbf e7bc 0f50 173d 2f14 acbc
000002a0: 761a 333c a75c 863d cccd 9abc e268 21bc
000002b0: 14f3 fa3c 7868 b7bc 8a5c 183c 2696 e5bc
000002c0: f6fd 14bd 6eab 0dbd 57a9 22bb bd3c 3e3c
000002d0: aa74 3e3c 558e f7bb 726d 20bd 6eb3 ac3d
000002e0: 8bc9 adbb da20 1c3d 74aa 123d 70df ea3b
000002f0: d124 673d f153 d13c 28ed 2fbc 6325 2bbc
00000300: d6c6 e13c 7b82 b1bd c31a 94bd 532c 863c
00000310: 924d d9bc e628 073d 8df7 1c3d bd09 69bc
00000320: e43a a0bd f83b 61bd f06f 9dbd 4022 f1bd
00000330: cf5b 4f3c 1fd4 4c3d 61dd 873d e279 95bd
00000340: 0100 aebc 793f b6bd bab8 063b 9780 ae3b
00000350: a1ac 5a3d a6b0 813d 20ab f7bc 9e5b 313d
00000360: 142b 1fbd 1b67 57bd 795a 10bd 6e53 44bc
00000370: 1b97 693c 1a78 07bd 819d 083b 636d 063e
00000380: adfc 903b 9381 83bc a471 8abd e3a2 303d
00000390: 181b d03d b625 80bd b1ab 943d 5f43 003d
000003a0: bf82 a1bd 9a04 9fbd 31fd 5abc 4630 f33b
000003b0: dc99 9bbc c3a3 0abd c0c2 48bd 5567 7b3c
000003c0: 8a97 813c 8459 833b c371 533b 78de 24bd
000003d0: 2f85 163d 8311 b3bb 84a2 04bc 8869 71bd
000003e0: a272 8d3c df20 893d 2361 2d3d 05c0 0d3c
000003f0: 09b4 873b 7c6c 83bc a228 393a 2c1d 1cba

network_body.observation_encoder.processors.0.conv_layers.0.bias f4 [16]
-0.036380865 0.034007024 -0.00069174316 0.007544298 0.007034039 0.009227706 0.013855719 -0.0040297178
0.01690507 -0.007988029 -0.020108601 -0.006545252 0.005859537 -0.02461551 -0.023126615 -0.013423939
00000000: 1a04 15bd f34a 0b3d 1956 35ba 2936 f73b
00000010: cc7d e63b ce2f 173c 1903 633c b90b 84bb
00000020: 807c 8a3c 39e0 02bc cbba a4bc 8e79 d6bb
00000030: 5c01 c03b 77a6 c9bc 0774 bdbc 15f0 5bbc

network_body.observation_encoder.processors.0.conv_layers.2.weight f4 [32, 16, 4, 4]
0.02357628 -0.005882339 0.054520704 0.09580449 -0.096244074 0.016931439 0.07518233 0.016512709
0.09937016 0.02420323 0.03764546 0.02370583 0.07924385 0.095693395 0.019990642 -0.04143184
-0.042128805 -0.07013866 -0.097514756 0.04259892 0.06779675 -0.037139703 -0.06213002 -0.037015207
0.08141548 0.059596922 -0.0005637013 0.03822203 0.02423113 0.03835331 0.072809055 -0.0007172349
0.069659606 -0.057657037 -0.07584252 -0.00047376126 0.057075217 0.05183934 -0.057701707 -0.075781375
0.07897733 0.03608421 -0.06889503 0.009689641 0.10722947 0.028772002 0.018727558 0.08706824
-0.108189724 0.02230655 0.049659804 0.012417785 0.06734783 -0.07175835 0.022341818 -0.046423577
0.08736785 -0.0046379217 -0.04833091 -0.0030458053 0.0194393 -0.003028783 0.00831019 0.008192983
0.011947829 -0.02563193 0.08939884 -0.030632129 -0.022071624 0.03961072 -0.024268424 0.02980792
0.09385331 -0.024716657 -0.0048425887 -0.08749794 0.0007095781 0.0067095966 0.07858124 0.060351413
0.025741128 0.025727717 -0.006561377 -0.082387716 0.056550816 -0.03989562 -0.11972878 0.012949465
0.06393171 0.0016114268 -0.068684615 -0.0022789442 -0.04581668 0.0023991002 0.08484553 0.06505495
0.0155775165 0.0074025225 0.026155217 -0.008183191 -0.0740103 0.055384368 -0.080545366 -0.036138445
0.123544574 0.07124839 -0.047331337 -0.056368735 0.08268305 -0.01412827 0.054683257 0.014605717
0.008233714 -0.060841948 -0.032966405 -0.00832657 -0.03360871 -0.08089093 -0.11008994 -0.026189052
0.109492965 -0.014487047 -0.014118034 0.029366711 0.045435805 0.05447872 0.027117616 0.11238312
0.030869855 -0.04326878 -0.07540683 -0.035486422 -0.05009291 -0.016833363 -0.028535813 0.002480879
-0.042683367 0.1073321 0.08190929 -0.052082546 0.14461188 -0.09667104 0.0024273237 0.10335975
0.0008364699 0.034921058 0.02541236 0.04288738 -0.06406279 -0.041502185 -0.018772803 0.044587247
0.04833093 0.12543514 -0.03040548 0.0908259 -0.018524772 -0.019644847 -0.018954322 -0.04577584
-0.05055943 -0.04204051 -0.014142745 0.015135726 0.118579246 0.047743425 -0.03303297 -0.0363101
0.02559166 0.0011819284 -0.04710859 -0.07325692 0.016848743 0.010085213 -0.024179779 -0.02428186
0.016600134 -0.025714414 -0.022757176 -0.02315766 0.00049482536 -0.07005637 0.03536639 0.058342304
0.051498998 -0.041874856 -0.017890332 -0.06068026 0.09473745 0.052890733 0.021249913 0.021831743
-0.051447075 -0.0310466 -0.045198366 0.07058739 -0.02352127 -0.006566075 0.0029402662 0.026676407
0.12361246 -0.047998376 -0.10057333 -0.03642683 0.0769883 0.0691596 0.012192804 -0.056725256
-0.11040573 0.0421498 -0.027750216 0.028939351 0.07883315 0.058646746 -0.02600399 -0.023600142
0.0773407 0.011206756 -0.042014264 0.08040838 -0.0013320945 -0.010638356 0.07212303 0.07299823
0.051385943 0.0071285903 0.024508432 -0.014115001 0.029021176 0.019657759 0.05954725 -0.08220165
0.04052934 0.04743991 -0.021173397 0.049520638 0.06288505 -0.041623846 -0.013480166 -0.06564828
0.0392563 -0.01129445 -0.038520753 -0.00026020643 0.048186462 -0.013715623 -0.074772164 0.0034945093
-0.012904723 -0.04911442 -0.013587995 -0.007994892 0.07668293 -0.012342036 0.005751408 0.026546856
00000000: 0b23 c13c a3c0 c0bb 1a51 5f3d 2535 c43d
00000010: 9d1b c5bd cdb3 8a3c 32f9 993d a945 873c
00000020: 9582 cb3d da45 c63c 2032 1a3d bb32 c23c
00000030: 9a4a a23d e6fa c33d 6ac3 a33c 6fb4 29bd
00000040: 418f 2cbd dca4 8fbd d1b5 c7bd 357c 2e3d
00000050: 06d9 8a3d cd1f 18bd 0c7c 7ebd 429d 17bd
00000060: 29bd a63d e71b 743d 5bc5 13ba b48e 1c3d
00000070: 5d80 c63c 5c18 1d3d ea1c 953d d204 3cba
00000080: b2a9 8e3d c929 6cbd 5353 9bbd 2963 f8b9
00000090: b4c7 693d 7d55 543d a058 6cbd 4433 9bbd
000000a0: debe a13d 09cd 133d d618 8dbd 4dc1 1e3c
000000b0: 209b db3d 43b3 eb3c 896a 993c d550 b23d
000000c0: 9392 ddbd 3abc b63c 1468 4b3d f773 4b3c
000000d0: a9ed 893d 0bf6 92bd 3006 b73c a626 3ebd
000000e0: eaed b23d b5f9 97bb a2f6 45bd 229c 47bb
000000f0: 2b3f 9f3c 8c7e 46bb 7727 083c dd3b 063c
00000100: d4c0 433c 0efa d1bc bd16 b73d 3bf0 fabc
00000110: 8dcf b4bc da3e 223d 93ce c6bc bd2f f43c
00000120: 2a36 c03d 967a cabc 94ae 9ebb 1f32 b3bd
00000130: fb02 3a3a 2ddc db3b 33ef a03d 0b33 773d
00000140: 0fdf d23c efc2 d23c d200 d7bb e4ba a8bd
00000150: d4a1 673d 9769 23bd 5d34 f5bd fe29 543c
00000160: a1ee 823d 8336 d33a 85aa 8cbd 575a 15bb
00000170: 45aa 3bbd 393a 1d3b 7ec3 ad3d 883b 853d
00000180: d738 7f3c dc90 f23b 7743 d63c ca12 06bc
00000190: b692 97bd b8da 623d f8f4 a4bd e805 14bd
000001a0: f004 fd3d adea 913d 81de 41bd e7e2 66bd
000001b0: bb55 a93d 427a 67bc 8dfb 5f3d d14c 6f3c
000001c0: b3e6 063c 6835 79bd c807 07bd 2a6c 08bc
000001d0: 49a9 09bd 25aa a5bd d676 e1bd 6c8a d6bc
000001e0: d93d e03d 145b 6dbc 544f 67bc 7592 f03c
000001f0: e51a 3a3d 1425 5f3d c325 de3c 1f29 e63d
00000200: c7e2 fc3c 9b3a 31bd e56e 9abd 365a 11bd
00000210: 392e 4dbd 1fe6 89bc f0c3 e9bc 3e96 223b
00000220: c1d4 2ebd efd0 db3d 0fc0 a73d 8254 55bd
00000230: 2315 143e 77fb c5bd bc13 1f3b 47ae d33d
00000240: 8b46 5b3a 6209 0f3d 952d d03c adaa 2f3d
00000250: 5a33 83bd 32fe 29bd 6cc9 99bc 1ea1 363d
00000260: a7f6 453d 1272 003e ea14 f9bc ee02 ba3d
00000270: 43c1 97bc 3bee a0bc 1846 9bbc 727f 3bbd
00000280: 6817 4fbd ab32 2cbd f9b6 67bc d6fb 773c
00000290: add9 f23d 9c8e 433d 944d 07bd e6b9 14bd
000002a0: 9aa5 d13c f0ea 9a3a f0f4 40bd b907 96bd
000002b0: 6006 8a3c 733c 253c ac14 c6bc c0ea c6bc
000002c0: 01fd 873c 09a7 d2bc 426d babc 22b5 bdbc
000002d0: 2bb7 013a b779 8fbd 59dc 103d 57f8 6e3d
000002e0: 9df0 523d f884 2bbd bf8e 92bc dd8b 78bd
000002f0: b505 c23d f4a3 583d 4c14 ae3c 7cd8 b23c
00000300: 2bba 52bd 7055 febc ec21 39bd 1f90 903d
00000310: aeaf c0bc 3b28 d7bb 7bb1 403b 7b88 da3c
00000320: 8828 fd3d f299 44bd 64f9 cdbd 4d34 15bd
00000330: 0bac 9d3d 8ca3 8d3d 54c4 473c be58 68bd
00000340: 661c e2bd 45a5 2c3d 6c54 e3bc 3812 ed3c
00000350: 4673 a13d 9237 703d 5206 d5bc 1655 c1bc
00000360: cd64 9e3d 8b9c 373c 2617 2cbd 26ad a43d
00000370: ad99 aeba 804c 2ebc 3db5 933d 1980 953d
00000380: 117a 523d f396 e93b e8c5 c83c 9b42 67bc
00000390: d1bd ed3c 4f09 a13c d1e7 733d 5759 a8bd
000003a0: 1802 263d 5a50 423d d573 adbc 27d6 4a3d
000003b0: e1c9 803d c47d 2abd eadb 5cbc 9b72 86bd
000003c0: 37cb 203d 5b0c 39bc f0c7 1dbd 516c 88b9
000003d0: 2b5f 453d 7eb7 60bc 2622 99bd 2304 653b
000003e0: 556e 53bc 342c 49bd 2fa0 5ebc 02fd 02bc
000003f0: f10b 9d3d 4036 4abc 4f76 bc3b cb78 d93c

network_body.observation_encoder.processors.0.conv_layers.2.bias f4 [32]
-0.019674083 0.065389544 0.06358033 -0.027083023 -0.042828284 -0.022685954 -0.033026036 0.06954353
-0.029380042 -0.0002465306 -0.042890172 0.028680157 -0.027044045 0.052652746 -0.032043524 -0.020463485
-0.012910797 -0.00624188 0.061846014 0.02638296 0.015190262 0.0123839 0.03902595 0.05431773
0.04575456 0.037729785 0.038833123 -0.026142603 -0.024916569 -0.045739178 -0.023111368 0.025501868
00000000: 8b2b a1bc f4ea 853d 6736 823d 37dd ddbc
00000010: b66c 2fbd e5d7 b9bc 4f46 07bd d76c 8e3d
00000020: 6aae f0bc c740 81b9 9bad 2fbd a6f2 ea3c
00000030: 798b ddbc 68aa 573d 1240 03bd 0aa3 a7bc
00000040: cf87 53bc af88 ccbb 3f52 7d3d 1421 d83c
00000050: 94e0 783c d7e5 4a3c add9 1f3d 457c 5e3d
00000060: 2269 3b3d 8c8a 1a3d 7b0f 1f3d 0329 d6bc
00000070: d51d ccbc 0159 3bbd 0d54 bdbc 4be9 d03c

network_body.observation_encoder.processors.0.dense.0.weight f4 [256, 32]
0.035954572 0.32913268 0.39206907 0.42100385 -0.11597766 -0.25900057 0.04507884 -0.013748954
0.46874988 0.3454462 -0.026056137 -0.30666488 0.09456466 -0.08900674 0.103985175 -0.3639131
-0.1737773 0.023699997 0.19656582 0.0004885004 -0.33375704 -0.20969251 0.24804585 -0.15409535
-0.0022772262 0.22420697 0.27169266 -0.25943726 -0.0032515088 -0.19161363 -0.09057848 0.4518683
-0.39032698 -0.04327132 -0.0910844 0.018910205 -0.23491108 0.05943173 0.18034658 0.21893337
0.0036508162 -0.12014027 -0.193278 0.02617591 0.08570686 -0.17895012 0.02029913 0.32705826
0.31849274 0.124522105 -0.050477665 -0.07385676 -0.44038546 0.09516181 -0.24171723 0.32265276
-0.1644556 0.0847765 -0.2644872 -0.13816327 0.23931418 0.30796984 0.39608505 0.074056216
0.11884075 -0.17745963 -0.02381722 -0.2593015 -0.16746649 -0.056046665 0.273085 -0.10373056
-0.018220227 -0.11526164 -0.06605668 -0.08467715 -0.29597113 -0.01605946 -0.08523652 -0.0020791946
0.44463074 -0.20038855 0.5558617 0.116531834 -0.12543088 -0.014916298 -0.098070204 0.03587324
-0.37319368 0.12863934 -0.32604375 -0.1991537 0.33926314 0.14985698 -0.085356526 0.027928859
-0.050672125 0.29820842 -0.5262273 -0.091363154 -0.2590637 0.12728232 -0.29192162 0.34715387
-0.24531248 -0.10517177 -0.008923432 -0.20482449 -0.108215235 -0.19632101 0.05577799 -0.0076622274
0.4903309 -0.09328641 0.29493317 0.09374014 0.05912286 -0.46224484 -0.14078915 0.24729246
0.28572017 -0.12397107 -0.3621524 -0.20605429 0.32972655 0.021400081 -0.14546007 0.28438503
0.4597982 -0.30082247 -0.07840431 -0.19116089 0.15596648 0.08257734 -0.13839357 -0.30624452
-0.23461926 0.15810104 0.12959433 -0.11757384 -0.24167587 -0.22306123 -0.54705733 0.5610721
-0.07788718 -0.23119304 -0.053298127 0.51993126 -0.12874347 0.04892943 0.11665793 0.17141312
0.23034671 -0.09996787 -0.22870907 -0.011150338 0.30441803 0.11244619 -0.35568368 0.0039276704
-0.37122598 0.33017653 -0.1627577 -0.13392273 -0.11257626 0.12905787 -0.2656347 0.22895947
0.023513777 -0.0743568 0.20019649 0.019976854 -0.44162062 -0.39870358 -0.07996992 0.004014194
0.1321845 0.07895048 0.21047327 0.012605262 0.18135446 -0.1011598 -0.311791 -0.11370394
0.08313059 0.23982146 -0.18772532 -0.15829685 0.11520067 0.021932205 0.12454683 -0.03932676
0.014356384 -0.057491086 0.24315144 -0.010580998 -0.4896532 -0.03618245 -0.12673171 0.06827012
-0.33720377 -0.36352253 0.03729628 0.09424386 -0.5473878 -0.074377686 0.11029528 -0.09128919
0.6976127 0.021174578 0.10171833 0.032298334 -0.035218593 -0.14850378 -0.18088312 -0.21930492
0.4290364 -0.21406436 0.045456305 0.06736015 0.10317801 -0.13816984 0.06693084 -0.05850327
-0.009477657 -0.2036856 -0.15936023 0.35781217 -0.217168 0.3397317 0.41636223 -0.0960787
0.087765075 -0.27809176 0.10182581 -0.10379179 0.042526208 0.060091298 0.517224 0.023034519
0.124147944 -0.28112614 -0.27280533 0.31788978 -0.008432531 0.42560214 -0.13947581 0.15977587
0.30663985 0.41854614 -0.19001567 -0.386048 0.40799105 -0.18881547 0.12157836 -0.09848463
00000000: 1a45 133d 1484 a83e 47bd c83e d18d d73e
00000010: b285 edbd b99b 84be 97a4 383d 4b43 61bc
00000020: fcff ef3e 53de b03e ae73 d5bc 2e03 9dbe
00000030: 1eab c13d 2a49 b6bd 2ef6 d43d d152 babe
00000040: adf2 31be 7f26 c23c 8d48 493e b50e 003a
00000050: 34e2 aabe a2b9 56be bbff 7d3e 2ccb 1dbe
00000060: 843d 15bb 8396 653e 4d1b 8b3e f6d4 84be
00000070: 4417 55bb 5d36 44be 3681 b9bd 485b e73e
00000080: f0d8 c7be 453d 31bd 758a babd 93e9 9a3c
00000090: 888c 70be b06e 733d c6ac 383e 1230 603e
000000a0: 8842 6f3b 1a0c f6bd abea 45be dd6e d63c
000000b0: 1487 af3d b33e 37be 5c4a a63c 2e74 a73e
000000c0: 7b11 a33e 7205 ff3d abc1 4ebd 3742 97bd
000000d0: 347a e1be 32e4 c23d b984 77be be32 a53e
000000e0: 0c67 28be 4d9f ad3d de6a 87be ac7a 0dbe
000000f0: c70e 753e 39ae 9d3e a9cb ca3e c9aa 973d
00000100: c762 f33d fab7 35be 551c c3bc 2bc3 84be
00000110: 567c 2bbe 3091 65bd ccd1 8b3e b070 d4bd
00000120: 9642 95bc 4b0e ecbd ba48 87bd 376b adbd
00000130: 8789 97be 218f 83bc 7c90 aebd 1943 08bb
00000140: a4a6 e33e a832 4dbe f44c 0e3f 3ea8 ee3d
00000150: f470 00be 7d63 74bc 08d9 c8bd d2ef 123d
00000160: 3e13 bfbe 08ba 033e 35ef a6be f3ee 4bbe
00000170: e6b3 ad3e 1c74 193e 67cf aebd 10cb e43c
00000180: 938d 4fbd c6ae 983e d5b6 06bf 9b1c bbbd
00000190: ffa3 84be 4c56 023e c076 95be 27be b13e
000001a0: 3233 7bbe 4c64 d7bd 9633 12bc 83bd 51be
000001b0: f39f ddbd 6008 49be 7677 643d 6c13 fbbb
000001c0: a70c fb3e f20c bfbd 7b01 973e d5fa bf3d
000001d0: d02a 723d 5bab ecbe 082b 10be 3c3a 7d3e
000001e0: ea49 923e 8be4 fdbd 0a6c b9be e5ff 52be
000001f0: ebd1 a83e 394f af3c 7cf3 14be ea9a 913e
00000200: ab6a eb3e 6705 9abe 7092 a0bd aebf 43be
00000210: adb5 1f3e 4f1e a93d 0bb7 0dbe 15cc 9cbe
00000220: 0840 70be 3de5 213e 60b4 043e 8eca f0bd
00000230: e179 77be 2a6a 64be f30b 0cbf 6ca2 0f3f
00000240: 5083 9fbd debd 6cbe 234f 5abd 371a 053f
00000250: 54d5 03be 3a6a 483d 5aea ee3d ec86 2f3e
00000260: 02e0 6b3e f4bb ccbd b632 6abe e8af 36bc
00000270: aedc 9b3e 304a e63d 2c1c b6be b0b3 803b
00000280: 5511 bebe e60c a93e f4a9 26be 0a23 09be
00000290: 628e e6bd bf27 043e 4501 88be 5a74 6a3e
000002a0: f79f c03c 6148 98bd 4f00 4d3e 80a6 a33c
000002b0: 191c e2be e022 ccbe 45c7 a3bd 8089 833b
000002c0: 605b 073e cab0 a13d 4e86 573e 4d86 4e3c
000002d0: fcb4 393e df2c cfbd 12a3 9fbe 9cdd e8bd
000002e0: 5f40 aa3d c293 753e 113b 40be 9218 22be
000002f0: 54ee eb3d 2bab b33c 6912 ff3d 1915 21bd
00000300: 0a37 6b3c c67b 6bbd b1fc 783e ec5b 2dbc
00000310: d3b3 fabe 0c34 14bd f5c5 01be 34d1 8b3d
00000320: f9a5 acbe a01f babe fcc3 183d ed02 c13d
00000330: 9b21 0cbf 5453 98bd 7ee2 e13d d4f5 babd
00000340: bf96 323f 4f76 ad3c b351 d03d 424b 043d
00000350: 5f41 10bd 6011 18be 6d39 39be 7891 60be
00000360: a9aa db3e b033 5bbe 6430 3a3d 1ef4 893d
00000370: fe4e d33d 657c 0dbe 0913 893d 20a1 6fbd
00000380: 2d48 1bbc f592 50be 542f 23be 2833 b73e
00000390: 4a61 5ebe 50f1 ad3e 6e2d d53e e9c4 c4bd
000003a0: 2dbe b33d 0b62 8ebe 0d8a d03d ca90 d4bd
000003b0: f62f 2e3d 4b22 763d cb68 043f e3b2 bc3c
000003c0: 4741 fe3d c4ef 8fbe 24ad 8bbe 73c2 a23e
000003d0: 9928 0abc 86e8 d93e bfd2 0ebe 499c 233e
000003e0: e6ff 9c3e ae4b d63e 7893 42be 15a8 c5be
000003f0: 34e4 d03e d858 41be 13fe f83d 4fb2 c9bd

network_body.observation_encoder.processors.0.dense.0.bias f4 [256]
0.0105330935 -0.0062366803 0.008490855 -0.015872335 0.038674083 0.030158639 0.03889209 0.0043038623
0.011972674 0.029088886 -0.031519357 -0.005367095 -0.017679438 0.051738158 -0.02193176 0.0058589224
0.023769658 -0.048372198 0.01503607 -0.0033675975 0.013834103 0.05967917 0.013103777 0.043961454
0.030438686 0.0044331737 0.051740967 0.107069 0.004920438 0.009052133 0.041252997 -0.027508508
-0.0049533863 0.046309594 0.025669204 0.0030811154 -0.022135345 -0.006870326 0.0015724582 0.02208573
-0.002659616 0.01616512 0.04433978 -0.015266745 0.0339585 0.006795345 0.06283646 0.088181704
-0.0004322999 0.0011689774 0.05653901 0.022557087 0.004275667 0.04994898 0.012275903 0.0004924517
-0.0027201464 0.04522684 0.039021544 0.04237137 0.04023882 -0.021718474 -0.00010920459 -0.021756032
0.03161628 0.03477133 0.040740643 0.013519467 0.019753447 0.037760194 0.047112674 -0.0451354
0.0050776755 -0.0053088926 -0.0005844718 0.008196104 -0.01661999 0.010139641 0.03601509 -0.021766102
0.037535578 0.06972297 0.054144904 -0.0020626222 -0.017041147 -0.016585492 -0.004622556 0.032047216
0.018508364 0.01006625 0.0026041912 -0.009316964 0.013927559 0.028524525 -0.027251061 0.0012553892
0.04321484 0.04163829 0.03594523 0.04732803 0.01950371 0.009743679 0.032495007 0.02150103
-0.007905932 0.002914756 0.017597044 0.0048296945 0.023066035 0.014662204 0.02314093 -0.015355706
-0.01868509 -0.009097438 0.05538638 0.031835567 0.014480172 0.048890784 0.020750146 -0.017739115
-0.013551067 -0.009646598 0.039587993 0.014590325 0.015313708 0.017229259 0.013959556 -0.02286792
0.0401871 0.023111364 0.08691659 0.0041943863 -0.0027227006 -0.022145407 0.0049164793 0.017520692
0.04002194 0.11272053 0.0230008 0.013287124 0.01770116 0.041849528 0.008286164 0.040210016
0.00084203086 0.010393894 -0.014808271 0.007889482 0.0011336266 0.030915914 0.023889668 0.022997951
-0.014281449 -0.02673641 0.01261922 -0.0086299395 0.04868175 0.0016144139 0.045192655 0.02218599
-0.017729595 0.018765803 0.002126112 -0.018990448 0.018747473 -0.009804853 0.04158115 -0.008338718
0.027539786 -0.05508591 -0.032721397 0.0151176145 0.04685989 0.025245663 -0.007857008 0.027705645
0.03870212 0.07046698 -0.04415643 0.027564587 -0.0042035887 0.02302542 -0.03795987 -0.05444123
0.0017040218 0.020515844 0.05731345 0.0032383462 0.016591221 -0.0015689728 0.02707671 0.06541456
0.04559058 0.009387349 0.02888768 0.05177969 0.0037195757 -0.011229706 0.001496262 0.051284324
-0.016245082 0.058263414 0.019299788 -0.041729145 -0.0125638265 0.019943219 0.020732576 -0.026752977
0.035858646 0.01692711 0.052792627 0.0473821 0.03221583 -0.0060042925 0.052793574 0.0093801
0.003626069 0.041534428 0.03314067 0.00047053356 0.016982762 0.038134612 0.026215527 0.01247367
0.03598245 0.0047206497 0.0060899085 -0.015002562 0.039261248 0.025402734 -0.001964399 0.004685999
0.023105677 0.013752374 0.05128529 -0.0027651812 0.009219039 0.06344879 0.0178181 -0.01621682
0.010918091 0.021304516 0.0007101177 0.03323439 0.026807472 -8.901852e-05 0.030520808 0.06668725
0.039420236 0.05049469 0.0131044565 0.026914133 0.0065432265 -0.024082717 0.027491473 0.05700163
00000000: ff92 2c3c 115d ccbb 3a1d 0b3c b306 82bc
00000010: b768 1e3d 400f f73c 504d 1f3d 6a07 8d3b
00000020: 0929 443c d14b ee3c 711a 01bd 75de afbb
00000030: 78d4 90bc 64eb 533d 3caa b3bc 34fc bf3b
00000040: 96b8 c23c ed21 46bd d959 763c e9b2 5cbb
00000050: 6fa8 623c 2572 743d 39b1 563c ed10 343d
00000060: 8d5a f93c 2844 913b 56ee 533d fe46 db3d
00000070: a03b a13b 664f 143c e7f8 283d 8659 e1bc
00000080: 0450 a2bb 21af 3d3d 3948 d23c 8aec 493b
00000090: 2f55 b5bc 7920 e1bb f11a ce3a 22ed b43c
000000a0: f44c 2ebb b76c 843c a19d 353d 5f21 7abc
000000b0: 1118 0b3d 7cab de3b 67b0 803d 9c98 b43d
000000c0: 4fa6 e2b9 5f38 993a 7395 673d a4c9 b83c
000000d0: e51a 8c3b 4d97 4c3d de20 493c e017 013a
000000e0: 7c44 32bb c73f 393d 0ed5 1f3d 9a8d 2d3d
000000f0: 76d1 243d f1ea b1bc c504 e5b8 b539 b2bc
00000100: 1380 013d 626c 0e3d a9df 263d c180 5d3c
00000110: fbd1 a13c 6faa 1a3d 38f9 403d e6df 38bd
00000120: a162 a63b 38f6 adbb 3d37 19ba f448 063c
00000130: a526 88bc bd20 263c 8f84 133d d34e b2bc
00000140: e8be 193d ebca 8e3d 0cc7 5d3d 0f2d 07bb
00000150: e099 8bbc 4cde 87bc cf78 97bb f143 033d
00000160: da9e 973c eaec 243c 14ab 2a3b 2ea6 18bc
00000170: 6b30 643c 44ac e93c 9e3d dfbc df8b a43a
00000180: 0b02 313d e98c 2a3d 4e3b 133d 09db 413d
00000190: 3fc6 9f3c f4a3 1f3c 7c19 053d ee22 b03c
000001a0: e287 01bc 7e05 3f3b ad27 903c 6a42 9e3b
000001b0: fbf4 bc3c be39 703c 0c92 bd3c 8096 7bbc
000001c0: 7911 99bc 6c0d 15bc d4dc 623d 0366 023d
000001d0: 3e3e 6d3c b441 483d 36fc a93c 9f51 91bc
000001e0: 4b05 5ebc c40c 1ebc 0527 223d 420c 6f3c
000001f0: 59e6 7a3c 6024 8d3c 9fb6 643c 8155 bbbc
00000200: 3b9b 243d 0b54 bd3c 5301 b23d 1071 893b
00000210: 566f 32bb 496a b5bc 6b1a a13b 8e87 8f3c
00000220: 0cee 233d 05da e63d 2c6c bc3c 3db2 593c
00000230: 0602 913c 696a 2b3d b1c2 073c 42b3 243d
00000240: bcbb 5c3a 274b 2a3c 649e 72bc e342 013c
00000250: 3296 943a 5f43 fd3c 44b4 c33c 3366 bc3c
00000260: bdfc 69bc 5106 dbbc d8c0 4e3c 9764 0dbc
00000270: 8466 473d be9a d33a ef1b 393d 65bf b53c
00000280: a83d 91bc beba 993c 3e56 0b3b db91 9bbc
00000290: 4d94 993c 89a4 20bc ff50 2a3d 1e9f 08bc
000002a0: 1e9b e13c c3a1 61bd df06 06bd dfaf 773c
000002b0: 28f0 3f3d fecf ce3c aeba 00bc f3f6 e23c
000002c0: 1d86 1e3d fe50 903d 5fdd 34bd 21cf e13c
000002d0: 42be 89bb ce9f bc3c cf7b 1bbd c4fd 5ebd
000002e0: 7c59 df3a d810 a83c 82c1 6a3d 6f3a 543b
000002f0: 50ea 873c fea5 cdba facf dd3c 12f8 853d
00000300: 30bd 3a3d 65cd 193c dba5 ec3c f116 543d
00000310: 20c4 733b cdfc 37bc 391e c43a 830f 523d
00000320: 6814 85bc 9ea5 6e3d 971a 9e3c 2eec 2abd
00000330: 82d8 4dbc f65f a33c 5dd7 a93c 0f29 dbbc
00000340: 84e0 123d b9aa 8a3c 153d 583d bc13 423d
00000350: bff4 033d a8bf c4bb 133e 583d feae 193c
00000360: 58a3 6d3b 0120 2a3d 83be 073d f2b1 f639
00000370: 6f1f 8b3c 0a33 1c3d f2c1 d63c 5d5e 4c3c
00000380: 5562 133d aeaf 9a3b db8d c73b 4ecd 75bc
00000390: 67d0 203d 6519 d03c 25bd 00bb 028d 993b
000003a0: 1e48 bd3c a351 613c 8610 523d 0b38 35bb
000003b0: 740b 173c 70f1 813d 44f7 913c 23d9 84bc
000003c0: cbe1 323c cf86 ae3c 3127 3a3a c920 083d
000003d0: 589b db3c 74af bab8 c606 fa3c 5393 883d
000003e0: 1d77 213d 85d3 4e3d 13b4 563c 077b dc3c
000003f0: 9068 d63b 1e49 c5bc cc35 e13c 8b7a 693d

network_body._body_endoder.seq_layers.0.weight f4 [256, 266]
-0.09389221 -0.0044306843 0.10335871 0.016042672 -0.09881831 -0.0031441117 -0.0020198873 -0.018639697
-0.00615709 -0.017996814 0.032875635 -0.094906464 -0.06817197 -0.05216876 -0.06935328 0.10358941
-0.001306939 0.008203848 0.062888384 0.033194765 -0.009592748 0.039146718 0.094813064 -0.045434244
-0.19507924 0.005002285 -0.031104732 -0.06073864 -0.037694093 -0.151311 0.09213037 0.06495057
0.050705582 -0.078428976 0.047075517 -0.1356973 0.016764207 0.031612583 -0.076278016 -0.034624226
-0.07213653 0.05241647 -0.017966997 0.039167713 -0.038727947 0.02045107 0.006945068 0.048828285
0.023305494 0.02585686 -0.02223287 -0.026089273 0.04151797 0.12487933 -0.16712502 0.09110864
0.15362662 0.039188404 -0.046834707 0.020914262 0.11627921 0.030425584 0.083730504 0.21560168
-0.024401834 0.04857541 -0.010778383 -0.05868245 0.0038187928 -0.06659161 0.017395297 0.02681856
0.010396164 0.01416441 0.018393153 -0.019926857 -0.044973116 -0.004483839 -0.16859202 0.08485872
0.025291204 0.10319985 -0.0055774776 -0.02136023 -0.063695155 -0.02094217 -0.040383387 0.006528209
-0.03717913 -0.09394946 -0.028896408 -0.05261243 0.106658205 0.009698605 -0.043834712 0.04251657
-0.14184 0.11867547 0.10073639 -0.110469766 0.11896322 0.075202115 -0.08988624 0.03081483
0.027418902 0.013666247 -0.07679213 -0.051012576 0.012802441 -0.105352476 -0.049482357 0.029860629
0.12175821 -0.0077029294 0.12127592 -0.023279946 0.037165005 -0.053005826 -0.082952686 0.080544405
0.13704312 -0.016512817 -0.020079928 0.11428164 0.059962273 0.0026215052 0.07026356 -0.052799284
0.042108852 0.06916205 -0.05319613 0.051068056 -0.047936313 -0.0121557405 0.016812714 -0.09383278
-0.08140387 -0.011624514 -0.034749042 -0.063742876 0.10072846 0.06839164 -0.07900655 0.1271634
0.02283481 0.03839178 -0.11357346 0.025702689 -0.26903704 -0.063687295 0.13322444 0.09278873
0.020028703 -0.080410175 -0.027447943 0.122315854 -0.09032033 -0.013730404 -0.039335836 0.07347601
-0.04048779 0.049871385 0.040843 -0.01345709 -0.16012473 0.037548088 -0.17230164 -0.11796546
-0.058032107 -0.0092132045 0.01404967 -0.029797848 0.026580602 0.060549174 -0.15223312 -0.00094582787
-0.07896861 -0.025467847 0.05337695 -0.041058194 -0.05136247 0.03158769 0.049683686 0.07272908
-0.1189707 -0.08788922 -0.1369339 0.03553821 -0.09408976 0.00821543 0.035352778 -0.05327084
0.013327853 -0.05602284 -0.051518466 -0.06697005 -0.13159047 -0.057220675 -0.06914596 -0.0059210137
-0.03853831 0.068905205 -0.046923965 0.015260906 0.13465126 -0.021079328 0.04419036 0.03562864
-0.0349689 -0.021006525 -0.07365669 -0.02927385 -0.08808761 0.13178344 0.015790489 0.014481548
-0.075069726 -0.023236005 0.12165417 0.07857918 0.12339484 0.03120774 -0.009415378 -0.08161789
-0.09354754 -0.117828146 -0.01702723 -0.026115015 0.057948794 0.001644834 0.047537867 -0.05104779
-0.04599278 0.014514248 0.044521697 -0.08305824 -0.048949756 0.058371045 -0.09994361 -0.01864184
-0.00095477485 -0.04137901 -0.00011506566 -0.092332244 -0.038012024 0.0031812782 0.11916813 0.07127301
-0.014350734 -0.078794055 0.13103986 0.09148824 -0.0004312956 0.0035356027 -0.037892584 0.071589984
00000000: 8f4a c0bd 462f 91bb bbad d33d ec6b 833c
00000010: 4161 cabd 710d 4ebb 1660 04bb 47b2 98bc
00000020: 6ac1 c9bb 0e6e 93bc 9aa8 063d 525e c2bd
00000030: bf9d 8bbd e9ae 55bd 1809 8ebd af26 d43d
00000040: 994d abba 6f69 063c a0cb 803d 3cf7 073d
00000050: e72a 1dbc 4f58 203d 5a2d c23d 4219 3abd
00000060: dac2 47be 35ea a33b 5acf febc 15c9 78bd
00000070: 1f65 1abd 45f1 1abe d9ae bc3d ce04 853d
00000080: a8b0 4f3d 5f9f a0bd 42d2 403d 3cf4 0abe
00000090: 1755 893c 327c 013d a637 9cbd 22d2 0dbd
000000a0: 51bc 93bd a7b2 563d 862f 93bc 536e 203d
000000b0: 32a1 1ebd 0189 a73c 7493 e33b 2b00 483d
000000c0: 2aeb be3c c4d1 d33c b521 b6bc 2cb9 d5bc
000000d0: bf0e 2a3d bcc0 ff3d d222 2bbe 2b97 ba3d
000000e0: 4c50 1d3e 0584 203d c0d5 3fbd 6354 ab3c
000000f0: cb23 ee3d 133f f93c e67a ab3d b0c6 5c3e
00000100: 5be6 c7bc 02f7 463d d197 30bc 025d 70bd
00000110: b644 7a3b 2f61 88bd 9580 8e3c 99b2 db3c
00000120: ac54 2a3c d711 683c 3dad 963c a63d a3bc
00000130: bb35 38bd 2bed 92bb 63a3 2cbe 69ca ad3d
00000140: 802f cf3c 715a d33d 46c3 b6bb a6fb aebc
00000150: 9b72 82bd ea8e abbc 0d69 25bd 96ea d53b
00000160: 2549 18bd 9368 c0bd 29b8 ecbc 2280 57bd
00000170: 9e6f da3d e6e6 1e3c 078c 33bd db25 2e3d
00000180: 813e 11be 200c f33d e14e ce3d f93d e2bd
00000190: fda2 f33d 9103 9a3d 4716 b8bd 626f fc3c
000001a0: 9b9d e03c 65e8 5f3c 3145 9dbd 90f2 50bd
000001b0: 54c1 513c 0ac3 d7bd 03ae 4abd 479e f43c
000001c0: 5e5c f93d db68 fcbb 825f f83d 96b5 bebc
000001d0: 553a 183d a31c 59bd 19e3 a9bd 77f4 a43d
000001e0: 0855 0c3e e345 87bc a97e a4bc 7e0c ea3d
000001f0: 009b 753d 8fcd 2b3b 57e6 8f3d 1044 58bd
00000200: 557a 2c3d d5a4 8d3d 2fe4 59bd bd2c 513d
00000210: de58 44bd df28 47bc d1ba 893c 672b c0bd
00000220: 12b7 a6bd bf74 3ebc 0355 0ebd a08b 82bd
00000230: b94a ce3d eb10 8c3d 30ce a1bd 1f37 023e
00000240: 1110 bb3c b340 1d3d 3499 e8bd 728e d23c
00000250: 39bf 89be 7c6e 82bd fd6b 083e 0508 be3d
00000260: 3c13 a43c 17ae a4bd 82da e0bc bc80 fa3d
00000270: ddf9 b8bd 7df5 60bc 9d1e 21bd 977a 963d
00000280: 86d6 25bd f045 4c3d fd4a 273d 207b 5cbc
00000290: bdf7 23be 06cc 193d d76f 30be e097 f1bd
000002a0: 13b3 6dbd fbf2 16bc 9630 663c 9e1a f4bc
000002b0: 90bf d93c 6902 783d 00e3 1bbe 6ff1 77ba
000002c0: 4bba a1bd f2a1 d0bc caa1 5a3d a32c 28bd
000002d0: 7461 52bd 1862 013d 1f81 4b3d fcf2 943d
000002e0: e9a6 f3bd 43ff b3bd 6638 0cbe 8490 113d
000002f0: 22b2 c0bd 039a 063c 13ce 103d 8632 5abd
00000300: 115d 5a3c 3578 65bd 0705 53bd 9827 89bd
00000310: a7bf 06be 3a60 6abd 669c 8dbd 1005 c2bb
00000320: 59da 1dbd 2c1e 8d3d 5833 40bd e108 7a3c
00000330: 05e2 093e 8eae acbc f300 353d 56ef 113d
00000340: 8d3b 0fbd e015 acbc 52d9 96bd b7cf efbc
00000350: 4767 b4bd 3df2 063e 0e5b 813c 0444 6d3c
00000360: 28be 99bd 6f59 bebc d225 f93d 1fee a03d
00000370: 6fb6 fc3d 60a7 ff3c f542 1abc 4827 a7bd
00000380: da95 bfbd e24f f1bd b07c 8bbc 28ef d5bc
00000390: b75b 6d3d 7897 d73a 11b7 423d 7d17 51bd
000003a0: ed62 3cbd 2bcd 6d3c 625c 363d 701a aabd
000003b0: 8a7f 48bd 7a16 6f3d 3caf ccbd c6b6 98bc
000003c0: db49 7aba 097d 29bd 684f f1b8 b018 bdbd
000003d0: 7fb2 1bbd fe7c 503b 6c0e f43d 95f7 913d
000003e0: 571f 6bbc c75e a1bd 502f 063e 305e bb3d
000003f0: 841f e2b9 92b5 673b 4135 1bbd c59d 923d

network_body._body_endoder.seq_layers.0.bias f4 [256]
-0.010469457 0.0055735353 0.01143738 -0.0017262261 -0.014804678 0.02267346 0.004563385 0.0034289865
-0.0040789032 0.0031248357 0.013643428 -0.016897956 0.002934024 0.00638582 0.0025035723 -0.02508887
0.0185262 -0.01028058 0.009292736 -0.004063169 0.0055803983 0.016355367 0.004533197 0.017310908
-0.005478392 0.0016256404 -0.017945036 0.0008930176 -0.00041701132 -0.008592496 -0.010144646 -0.008676894
0.00016642179 0.0048637274 0.009038374 0.007795252 0.009006801 -0.015449611 -0.004595274 0.0021322728
-0.0029484036 0.011599571 0.028677134 0.016400578 -0.00035361585 0.025665177 -0.00319298 0.00689968
-0.040347587 0.0028297578 0.026988925 0.0076081012 -0.0030829655 -0.012005679 0.0017777772 -0.0047049294
0.021892464 0.01498038 0.017525777 -0.0030025432 0.010235871 0.0021755737 -0.003899653 0.015534165
0.007960628 -0.008769041 0.019562056 0.00091646326 0.012498828 -0.00095718453 -0.0011233554 -0.008710009
0.0066931215 0.005734672 -0.0051646126 -0.0025101244 0.017480006 -0.011710015 -0.01048759 0.0017981348
0.015688414 0.009484872 0.011857139 0.012886461 0.0006442653 0.0034677899 -0.007680181 -0.011567973
0.02993462 -0.008396136 -0.011741364 -0.013654505 0.022598801 -0.01943495 0.0011070482 0.018392587
-0.015779158 0.023681942 -0.004820537 -0.010382157 0.002262627 0.021964947 0.013050421 -0.0027673848
-0.0040966514 0.0073309205 0.0029959304 0.013682926 0.011604445 0.010305399 0.012735273 -0.012316666
-0.0015077895 0.01607908 0.0025725055 0.022697037 -0.012716594 0.0016146498 0.002768568 -0.00909753
-0.0042709485 0.010947074 0.012675492 -0.0051605087 0.0010553541 0.01028143 -0.01254292 0.020016612
-0.0021916702 -0.02315183 -0.010873457 0.009737118 0.007129268 0.0034810598 -0.007640365 0.022900786
-0.013660189 0.010274826 0.019695545 0.006453921 -0.005804979 -0.004979863 -0.011982101 -0.0031471346
-0.0064527043 0.017365944 0.00053776766 -0.012042769 -0.003227389 0.0045913453 -0.0051171687 0.013422786
-0.009931915 0.0100121135 0.00022695512 -0.00496909 -0.025236426 0.028742516 -0.011918593 0.003079208
0.000301538 0.005025527 -0.018851401 0.0012731923 0.009349869 0.011298906 0.0012519885 -0.028356012
-0.007091189 -0.0035273083 0.011807469 -0.0012304024 -0.0018405146 -0.011165286 0.022868007 -0.0006025933
0.010208025 0.011714661 0.005268192 -0.011318808 0.007918674 -0.014049989 -0.018607019 0.0058948225
0.003945023 -0.011242899 0.02176771 0.0013551884 0.014716134 -0.014656326 0.005362996 0.014557193
0.0067345495 -0.0071512447 -0.017150987 -0.013399253 0.015779687 -0.0064015854 -0.0016357353 7.639248e-05
0.002110832 -0.0019690925 -0.028450364 0.0049759806 0.0037425137 0.006661985 0.010331622 -0.0025810841
0.002931609 -0.0021702184 -0.019560913 0.001668783 0.002491718 0.01587832 -0.0021234471 0.014403332
0.02520991 0.010637249 0.003647042 0.0069516776 0.013883577 0.0138920015 0.002031635 -0.0032122324
0.0039599854 0.0065004486 0.009972268 0.005214969 0.030370682 -0.028816504 0.011120297 0.0127813
-0.0017931247 -0.022503242 0.020334432 -0.016420273 -0.0067712143 0.0070331055 0.0009917142 0.011447858
-0.010732303 0.009644454 0.01088343 -0.009597221 0.01632943 -0.014489301 0.020193107 0.018188255
0.02172444 -0.009994091 0.008374673 0.008106646 0.00018440073 0.022037722 -0.023223732 0.0061584674
00000000: 1688 2bbc 34a2 b63b d963 3b3c 8942 e2ba
00000010: 528f 72bc b1bd b93c 7388 953b d9b8 603b
00000020: 52a8 85bb 0bca 4c3b af88 5f3c 956d 8abc
00000030: c148 403b 2440 d13b f912 243b 2d87 cdbc
00000040: 42c4 973c e16f 28bc 8f40 183c 5524 85bb
00000050: c6db b63b b1fb 853c 368b 943b 9bcf 8d3c
00000060: 1584 b3bb 7113 d53a 7801 93bc 6619 6a3a
00000070: 50a2 dab9 8ac7 0cbc bb35 26bc 8829 0ebc
00000080: 8281 2e39 e75f 9f3b b015 143c 506f ff3b
00000090: 4391 133c 5d20 7dbc f493 96bb 9abd 0b3b
000000a0: 013a 41bb 210c 3e3c 4fec ea3c 815a 863c
000000b0: 8465 b9b9 c73f d23c 5141 51bb b616 e23b
000000c0: 8343 25bd 7573 393b e117 dd3c 614d f93b
000000d0: 940b 4abb 78b3 44bc 4e04 e93a cf2b 9abb
000000e0: d357 b33c 4570 753c 3892 8f3c 51c6 44bb
000000f0: 5bb4 273c 1294 0e3b 5291 7fbb 0383 7e3c
00000100: 4b6d 023c 06ac 0fbc 9b40 a03c cf3e 703a
00000110: e2c7 4c3c 91eb 7aba 8d3d 93ba 6db4 0ebc
00000120: f951 db3b eae9 bb3b e93b a9bb e680 24bb
00000130: 3b32 8f3c 5ddb 3fbc 24d4 2bbc 64af eb3a
00000140: fd84 803c 7066 1b3c 7244 423c bc21 533c
00000150: eae3 283a dc43 633b 07aa fbbb 9887 3dbc
00000160: 7339 f53c f28f 09bc da5e 40bc 25b7 5fbc
00000170: 1f21 b93c 0b36 9fbc 601a 913a 0dac 963c
00000180: 4b43 81bc a200 c23c 98f5 9dbb ec19 2abc
00000190: 9548 143b d5ef b33c 6fd1 553c 035d 35bb
000001a0: 343d 86bb 3838 f03b 5f57 443b 5a2e 603c
000001b0: 9220 3e3c fad7 283c 9ba7 503c d7cb 49bc
000001c0: 05a1 c5ba 46b8 833c 7b97 283b 23ef b93c
000001d0: 4359 50bc a8a2 d33a dd70 353b ce0d 15bc
000001e0: 50f3 8bbb 5b5b 333c deac 4f3c 7c19 a9bb
000001f0: cf53 8a3a 7173 283c d280 4dbc e1f9 a33c
00000200: 20a2 0fbb e8a8 bdbc 9626 32bc 6f88 1f3c
00000210: a29c e93b 7e22 643b 075c fabb 6e9a bb3c
00000220: fcce 5fbc be57 283c 8d58 a13c 6a7b d33b
00000230: b137 bebb 1e2e a3bb 9350 44bc 2840 4ebb
00000240: 3571 d3bb 0643 8e3c faf8 0c3a 094f 45bc
00000250: 9a82 53bb ff72 963b ecad a7bb 3feb 5b3c
00000260: 79b9 22bc d909 243c cdfa 6d39 c0d3 a2bb
00000270: 9fbc cebc 6d75 eb3c 3446 43bc 8acc 493b
00000280: bf17 9e39 2dad a43b 416e 9abc 3fe1 a63a
00000290: 3130 193c 0c1f 393c c319 a43a de4a e8bc
000002a0: 345d e8bb 6a2a 67bb 1d74 413c 7445 a1ba
000002b0: 6c3d f1ba 9bee 36bc b055 bb3c 5af7 1dba
000002c0: 8f3f 273c d9ee 3f3c cca0 ac3b 8672 39bc
000002d0: 53bd 013c ed31 66bc bf6d 98bc 5b29 c13b
000002e0: 4045 813b 2334 38bc 3252 b23c 94a0 b13a
000002f0: f11b 713c 1621 70bc 12bc af3b 4b81 6e3c
00000300: 7fad dc3b fd54 eabb 3a80 8cbc 8a88 5bbc
00000310: 6744 813c 64c4 d1bb 2b66 d6ba e734 a038
00000320: e255 0a3b e40b 01bb bd10 e9bc 8d0d a33b
00000330: f644 753b c84c da3b f745 293c 6827 29bb
00000340: 3d20 403b 393a 0ebb 353e a0bc 11bb da3a
00000350: 174c 233b 4013 823c 8829 0bbb f4fb 6b3c
00000360: 0385 ce3c db47 2e3c 3603 6f3b e6ca e33b
00000370: f177 633c 479b 633c 2e25 053b 5184 52bb
00000380: c4c2 813b b701 d53b b962 233c 55e2 aa3b
00000390: f0cb f83c 9710 ecbc e831 363c a868 513c
000003a0: 4807 ebba b858 b8bc 6594 a63c cf83 86bc
000003b0: 10e1 ddbb f775 e63b 68fc 813a cc8f 3b3c
000003c0: 8bd6 2fbc c603 1e3c 6a50 323c aa3d 1dbc
000003d0: 4cc5 853c 8864 6dbc 046c a53c 89ff 943c
000003e0: 74f7 b13c 41be 23bc ed35 093c bdd1 043c
000003f0: b25b 4139 7488 b43c b23f bebc f8cc c93b

network_body._body_endoder.seq_layers.2.weight f4 [256, 256]
-0.033557292 -0.06714115 0.013653126 0.039345216 -0.13172105 0.075044446 -0.06568258 0.042702425
-0.053836297 -0.07798911 0.016641967 0.03313186 0.08475562 -0.0066441554 -0.026998812 0.018455246
0.017463194 0.0010673051 -0.056467496 0.045443844 0.042560708 -0.04142473 0.021305665 -0.05389511
-0.015435537 -0.012669412 -0.08643588 0.08099931 0.029114027 0.019414935 -0.028209237 -0.017929621
0.05278195 0.0615708 -0.13284433 0.0033235515 0.045496598 0.02459932 0.07374592 -0.14045693
0.031617776 -0.15284294 -0.07917902 0.025177324 -0.010185819 -0.0103835985 -0.13562104 -0.024031468
-0.074470036 0.12639305 -0.080959536 0.07717362 0.039386418 -0.030189201 0.027044017 -0.015286902
-0.0446044 0.0927131 -0.13814282 -0.038591616 0.082347825 -0.120445944 -0.08653984 0.12041387
0.08708759 -0.07341947 0.045012373 -0.031472728 -0.07286749 -0.10643158 0.07974006 -0.12204495
0.0715383 0.08423668 0.011051248 -0.02770049 -0.0042718453 0.013805122 0.15937921 0.08297809
0.11574173 -0.007456161 -0.04179791 -0.014529167 0.03269796 -0.062374562 0.12635061 -0.0488709
0.07439038 -0.03232417 -0.01673043 0.01763826 -0.058846533 -0.12568675 0.029250655 0.018488593
-0.0023201026 0.06740052 0.012353531 0.025360337 -0.04702511 -0.1418661 -0.04662643 -0.05343865
0.01782783 0.20730655 -0.09124224 -0.07415756 0.04800854 -0.120055884 -0.11494669 -0.082624994
0.14822455 0.20150155 -0.012278988 -0.14606918 -0.041318376 0.018399693 -0.0279174 -0.07713442
-0.046102114 -0.05140783 0.048888132 0.03485272 -0.010811678 0.0020260608 -0.06320218 0.06225986
0.026257066 -0.024423331 0.036611293 -0.027512038 0.047241706 -0.09867389 -0.03260667 0.034742318
-0.005550426 -0.07677716 -0.093061104 0.061258323 -0.102349296 -0.17595077 0.07341939 -0.012455
0.056681115 -0.10582911 -0.14336267 0.039820455 0.009800466 0.061176203 0.031182371 0.11665042
0.024654055 -0.034702953 0.051757738 0.04079745 0.059597228 0.106384896 -0.16095047 -0.13986668
0.013728763 0.12904997 -0.008817234 -0.030320395 -0.027380342 -0.04711749 0.10172631 -0.09541306
0.007521945 -0.030298902 -0.088444375 -0.058584113 0.0032728936 -0.0155758 0.085537605 0.039912526
0.027196093 -0.12853868 0.08395993 0.03919396 -0.018088462 0.007773585 -0.052310593 -0.018371698
-0.049033888 -0.04777779 0.15004352 0.09042432 -0.014885634 -0.10406747 0.050210185 0.053636383
0.008604459 -0.17813337 -0.11535115 -0.022692973 -0.11912147 -0.10133464 -0.12121807 -0.02112967
-0.18905365 -0.14283708 -0.040734522 0.15931107 -0.10255267 -0.048208907 0.043443237 -0.08422078
-0.08270115 -0.032008924 0.1290998 -0.08120995 0.08864483 -0.039119057 0.030460173 -0.007022375
0.19528866 0.090919346 0.10090651 0.031518422 0.1961724 -0.1861667 0.040048003 0.04878658
0.09075928 -0.0027642355 0.07065628 0.0359241 0.14679804 -0.073024 0.012839388 0.00947394
0.051667843 0.0014664024 -0.0008710455 0.00299205 -0.07802745 -0.019124592 -0.056367494 0.11951127
0.10737771 0.025859676 -0.057589263 -0.07255205 -0.037766445 -0.1020941 0.104886174 -0.061411906
0.0378408 -0.0897247 -0.036752474 -0.02792255 -0.08771308 0.04215809 -0.02428506 0.009673377
00000000: 5f73 09bd 4d81 89bd 5cb1 5f3c 7328 213d
00000010: e2e1 06be e7b0 993d 9784 86bd bde8 2e3d
00000020: 7383 5cbd c1b8 9fbd bc54 883c 46b5 073d
00000030: 5b94 ad3d 37b7 d9bb 9d2c ddbc 752f 973c
00000040: f90e 8f3c d1e4 8b3a 764a 67bd 5323 3a3d
00000050: 2354 2e3d faac 29bd 3889 ae3c 1ec1 5cbd
00000060: 56e5 7cbc 5e93 4fbc 4b05 b1bd f7e2 a53d
00000070: 8a80 ee3c 120c 9f3c 0f17 e7bc 24e1 92bc
00000080: e331 583d aa31 7c3d 5808 08be f1cf 593b
00000090: a45a 3a3d 8384 c93c 1a08 973d f1d3 0fbe
000000a0: a481 013d dc82 1cbe 9c28 a2bd ad40 ce3c
000000b0: 6ce2 26bc f81f 2abc 3ee0 0abe a4dd c4bc
000000c0: bf83 98bd 2e6d 013e 1dce a5bd 340d 9e3d
000000d0: a753 213d 584f f7bc 6a8b dd3c ea75 7abc
000000e0: 1ab3 36bd 5ee0 bd3d 5075 0dbe 3e12 1ebd
000000f0: faa5 a83d 5dac f6bd cd3b b1bd 8c9b f63d
00000100: fa5a b23d f25c 96bd e55e 383d 8ce9 00bd
00000110: 8d3b 95bd cdf8 d9bd c24e a33d b4f2 f9bd
00000120: ac82 923d 4884 ac3d 4b10 353c 23ec e2bc
00000130: d6fa 8bbb e12e 623c 4e34 233e 6bf0 a93d
00000140: 000a ed3d d052 f4bb 4934 2bbd be0b 6ebc
00000150: 4cee 053d 787c 7fbd 0e62 013e da2c 48bd
00000160: fc59 983d 5966 04bd 410e 89bc 1d7e 903c
00000170: 1009 71bd 07b4 00be 129f ef3c 6475 973c
00000180: dd0c 18bb 4909 8a3d 7766 4a3c 7bc0 cf3c
00000190: 679d 40bd 5945 11be 5bfb 3ebd 7ce2 5abd
000001a0: ab0b 923c 2b48 543e 36dd babd ebdf 97bd
000001b0: 9aa4 443d dcdf f5bd 2c69 ebbd 4b37 a9bd
000001c0: 2dc8 173e 6c56 4e3e cf2d 49bc 2993 15be
000001d0: 753d 29bd f4ba 963c 08b3 e4bc a7f8 9dbd
000001e0: 92d5 3cbd 0491 52bd ec3e 483d bac1 0e3d
000001f0: 7723 31bc a9c7 043b 2570 81bd 3204 7f3d
00000200: 0f19 d73c 7013 c8bc b9f5 153d ed60 e1bc
00000210: 8580 413d 8915 cabd 928e 05bd f64d 0e3d
00000220: 59e0 b5bb 583d 9dbd d296 bebd 02ea 7a3d
00000230: 829c d1bd 702c 34be e85c 963d 0e10 4cbc
00000240: 752a 683d efbc d8bd aacd 12be c61a 233d
00000250: 2292 203c e693 7a3d 2c72 ff3c 6ae6 ee3d
00000260: 4df7 c93c af24 0ebd ecff 533d 3a1b 273d
00000270: 391c 743d 53e0 d93d 33d0 24be 3639 0fbe
00000280: 9bee 603c ad25 043e 2976 10bc 7a62 f8bc
00000290: bd4c e0bc 45fe 40bd e255 d03d ec67 c3bd
000002a0: a67a f63b 6735 f8bc 5322 b5bd e5f5 6fbd
000002b0: 0b7e 563b a431 7fbc 572e af3d 517b 233d
000002c0: 57ca de3c a59f 03be 2ff3 ab3d d989 203d
000002d0: 412e 94bc 8fb9 fe3b a243 56bd 3e80 96bc
000002e0: c2d7 48bd a5b2 43bd 02a5 193e 6330 b93d
000002f0: e0e2 73bc 5321 d5bd 32a9 4d3d d3b1 5b3d
00000300: b8f9 0c3c 9868 36be 393d ecbd 9de6 b9bc
00000310: f5f5 f3bd 8988 cfbd 2e41 f8bd 2118 adbc
00000320: 4897 41be e243 12be 3ed9 26bd 7122 233e
00000330: 2207 d2bd b476 45bd 89f1 313d f27b acbd
00000340: 385f a9bd ca1b 03bd bd32 043e 6751 a6bd
00000350: 6c8b b53d 4e3b 20bd 9d87 f93c f31b e6bb
00000360: c0f9 473e ec33 ba3d 13a8 ce3d 7619 013d
00000370: 6be1 483e 7ca2 3ebe 6009 243d 70d4 473d
00000380: 00e0 b93d 2d28 35bb 3db4 903d 2625 133d
00000390: 3a52 163e 9b8d 95bd 4c5c 523c 9638 1b3c
000003a0: a9a1 533d 4d34 c03a e056 64ba 4516 443b
000003b0: dbcc 9fbd 2dab 9cbc 9ae1 66bd 53c2 f43d
000003c0: d8e8 db3d acd7 d33c b8e2 6bbd 2b96 94bd
000003d0: fdb0 1abd b616 d1bd 90ce d63d 0d8b 7bbd
000003e0: f4fe 1a3d 95c1 b7bd c389 16bd d5bd e4bc
000003f0: eaa2 b3bd f6ad 2c3d 76f1 c6bc 157d 1e3c
