results/PushBlockCollab_POCA/PushBlockCollab/PushBlockCollab-999968.onnx (onnx, 643240 bytes, 12 tensors)

network_body.observation_encoder.processors.0.conv_layers.0.weight f4 [16, 6, 8, 8]
0.028292965 -0.040006164 -0.11520768 0.026506621 0.034588832 0.054730367 0.031114753 -0.0074603916
0.054812532 -0.054551676 -0.0010941675 -0.049598902 0.026454363 -0.026107576 -0.0036757772 -0.0025357169
0.06697657 -0.046827324 0.02612696 0.029526679 -0.01531065 -0.029737696 -0.0050422447 0.061014224
0.034880605 0.06546434 0.02904118 -0.030993078 -0.03294406 0.027284656 -0.015669947 0.07504393
0.0007816622 -0.0166235 0.0011668291 0.0051268744 -0.0012303087 0.028056493 0.051587 0.022599522
0.022330904 0.0021835845 -0.0335075 0.020984916 -0.029032132 0.021595055 -0.03374817 0.026509264
-0.0126017025 -0.07509523 -0.08481897 -0.03823723 -0.017224168 0.05942377 0.023923965 -0.00584623
0.0044568316 0.011248786 -0.023015399 0.007910909 0.009451635 0.044990703 -0.03783892 0.034848373
-0.030616302 0.0051193754 -0.042258766 -0.0010769948 -0.08021232 0.024290489 0.015377618 0.07821855
-0.010180839 0.012397402 -0.04898284 -0.0005106887 -0.048341796 0.01980776 -0.0026647644 -0.060761627
-0.078289874 0.030516004 0.03267667 0.041196037 -0.0012117283 0.0047522513 -0.037591644 -0.036987524
-0.07106232 -0.046272982 0.03941903 0.04896995 0.039522782 -0.025154399 -0.020688694 -0.03868963
-0.06437706 -0.038255837 0.01878002 0.10249552 0.10990392 0.066484675 -0.027853485 -0.03795975
-0.019861145 -0.014685907 -0.03716196 0.060256697 0.035925046 0.006592222 -0.029358707 -0.02774496
-0.0039074006 -0.0024479858 -0.067429714 -0.06252221 0.008825833 -0.042638857 -0.109016545 -0.030695846
-0.0650963 -0.09913026 -0.06708502 -0.048657104 -0.018809829 0.044586588 -0.022744497 -0.0018964341
0.008496636 -0.045504376 -0.06803307 -0.053884916 -0.018244607 -0.026854515 -0.045117 -0.06088528
-0.024728665 -0.045930926 -0.003907692 -0.10077423 -0.02011572 -0.04149639 -0.100949936 -0.06710581
-0.0037303923 0.017572755 0.0064558364 -0.085755564 -0.003534891 -0.03785256 -0.051226955 0.013472769
0.014690425 0.026460422 -0.021988109 -0.06144691 -0.019775333 -0.1029557 -0.03429927 -0.012182577
0.008299142 0.010018551 0.00053971034 -0.03123966 -0.090972066 -0.06295404 0.02875943 -0.0011794433
-0.02256027 0.008545614 0.017388213 -0.033338223 -0.050130006 -0.03533727 -0.05809789 -0.03060024
0.012122939 -0.014972886 -0.019968463 0.028841376 -0.08117979 0.023117077 -0.00068218797 0.018410888
0.0335296 0.031406492 0.05780752 0.0038728544 0.012106013 -0.049959876 -0.011999731 -0.0007671542
0.0373365 0.035392623 -0.0049253744 0.007560555 -0.026179502 -0.038150426 0.05494418 0.113014966
-0.019157173 0.02552573 -0.011026342 0.03975451 0.004090629 -0.051800437 0.08578921 0.0919505
-0.049731486 -0.04583857 0.055862803 0.013153508 0.01770054 -0.078311995 0.011678559 -0.009911062
-0.046162494 0.0064959996 -0.0119137 0.0017080272 0.044169154 0.05704744 -0.013299527 0.022710864
-0.0008544356 0.07333279 0.06208141 0.053187147 0.070494175 0.042144038 0.052044034 0.08023859
-0.037995126 0.025701258 0.092877135 0.06082323 0.084975034 0.06615406 0.08812187 0.06463009
0.07754776 0.009031426 -0.018296268 -0.0144382045 0.0910169 0.014974718 0.032195125 -0.09441464
0.04402856 0.037380204 0.0003030146 0.093075685 -0.008936398 0.054150682 -0.09459293 -0.054054566
00000000: a6c6 e73c 81dd 23bd 01f2 ebbd 6a24 d93c
00000010: 05ad 0d3d f32c 603d 5ee4 fe3c 4d76 f4bb
00000020: 1b83 603d 9471 5fbd 2b6a 8fba 3828 4bbd
00000030: d2b6 d83c 8edf d5bc 4fe5 70bb 452e 26bb
00000040: 032b 893d 02ce 3fbd 3508 d63c efe1 f13c
00000050: 85d9 7abc 789c f3bc 6a39 a5bb 0dea 793d
00000060: f7de 0e3d 2b12 863d c5e7 ed3c 32e5 fdbc
00000070: 5af0 06bd 1284 df3c 435e 80bc a2b0 993d
00000080: 76e8 4c3a 022e 88bc 4af0 983a 57ff a73b
00000090: 4f42 a1ba bbd6 e53c e44c 533d a222 b93c
000000a0: 4def b63c 781a 0f3b 293f 09bd 8fe8 ab3c
000000b0: cbd4 edbc 1de8 b03c 853b 0abd f529 d93c
000000c0: 5f77 4ebc 87cb 99bd 91b5 adbd a49e 1cbd
000000d0: b319 8dbc 5766 733d 31fc c33c bb91 bfbb
000000e0: 9d0a 923b d44c 383c ca8a bcbc c29c 013c
000000f0: 08db 1a3c 2c48 383d fcfc 1abd 2bbd 0e3d
00000100: 0acf fabc 6fc0 a73b 8717 2dbd f329 8dba
00000110: 5b46 a4bd d9fc c63c 68f2 7b3c 0c31 a03d
00000120: 89cd 26bc 791e 4b3c 3ba2 48bd bddf 05ba
00000130: 0c02 46bd e243 a23c 54a3 2ebb 2fe1 78bd
00000140: 7156 a0bd b3fc f93c f9d7 053d 2dbd 283d
00000150: dbd2 9eba c6b8 9b3b b2f9 19bd 3b80 17bd
00000160: 1f89 91bd bd88 3dbd d975 213d b794 483d
00000170: a4e2 213d 9910 cebc 567b a9bc 0479 1ebd
00000180: 1fd8 83bd 27b2 1cbd 8ed8 993c 2ce9 d13d
00000190: 4e15 e13d 1e29 883d fe2c e4bc af7b 1bbd
000001a0: d7b3 a2bc 299d 70bc 2437 18bd bacf 763d
000001b0: 2426 133d 9103 d83b ac81 f0bc 6649 e3bc
000001c0: a709 80bb 636e 20bb 9718 8abd a50b 80bd
000001d0: 3a9a 103c 15a6 2ebd 1144 dfbd db75 fbbc
000001e0: 3551 85bd ce04 cbbd df63 89bd ac4c 47bd
000001f0: 1217 9abc 6da0 363d ab52 babc c591 f8ba
00000200: 7935 0b3c cc62 3abd ec54 8bbd 6eb6 5cbd
00000210: b775 95bc 00fe dbbc 9acc 38bd d862 79bd
00000220: c593 cabc 1122 3cbd 190c 80bb b862 cebd
00000230: b9c9 a4bc 1ef8 29bd d7be cebd c56e 89bd
00000240: 9979 74bb bdf4 8f3c 7b8b d33b 9da0 afbd
00000250: a1a9 67bb 490b 1bbd 5bd3 51bd e4bc 5c3c
00000260: 1cb0 703c 87c3 d83c 6820 b4bc c1af 7bbd
00000270: e1ff a1bc 70da d2bd 647d 0cbd 6e99 47bc
00000280: 20f9 073c d924 243c 597b 0d3a 51ea ffbc
00000290: 904f babd 0cee 80bd e598 eb3c 8d97 9aba
000002a0: 51d0 b8bc e702 0c3c ba71 8e3c a98d 08bd
000002b0: 1f55 4dbd d0bd 10bd 0ef8 6dbd 5bad fabc
000002c0: 4b9f 463c d650 75bc e794 a3bc c044 ec3c
000002d0: 9741 a6bd 0660 bd3c dcd4 32ba 6ed2 963c
000002e0: 5556 093d 18a4 003d 94c7 6c3d b7cf 7d3b
000002f0: 4c58 463c baa2 4cbd 859a 44bc d91a 49ba
00000300: 28ee 183d dbf7 103d 0965 a1bb 88be f73b
00000310: 6576 d6bc 9f43 1cbd 260d 613d 6474 e73d
00000320: 81ef 9cbc 561b d13c d5a7 34bc a0d5 223d
00000330: af0a 863b b22c 54bd 41b2 af3d 8b50 bc3d
00000340: 3eb3 4bbd 39c1 3bbd 65d0 643d d081 573c
00000350: b900 913c 0a62 a0bd 6d57 3f3c 0262 22bc
00000360: e214 3dbd 65dc d43b ae31 43bc e2df df3a
00000370: b7ea 343d 94aa 693d 42e6 59bc 220c ba3c
00000380: 34fc 5fba 802f 963d 1449 7e3d c4da 593d
00000390: 405f 903d 3a9f 2c3d 202c 553d 2154 a43d
000003a0: c7a0 1bbd 728b d23c 5e36 be3d c721 793d
000003b0: 6407 ae3d c87b 873d 3d79 b43d c85c 843d
000003c0: 5cd1 9e3d 8cf8 133c 0ee2 95bc 388e 6cbc
000003d0: 1267 ba3d 8558 753c 09df 033d 765c c1bd
000003e0: 4b57 343d fc1b 193d eedd 9e39 779e be3d
000003f0: f869 12bc 1bcd 5d3d f0b9 c1bd 5268 5dbd

network_body.observation_encoder.processors.0.conv_layers.0.bias f4 [16]
0.017876435 0.029955067 0.04057601 0.037156075 0.05080295 -0.02647972 0.043588065 -0.009452714
0.007704459 -0.010099507 -0.006276945 2.934854e-05 0.039655257 -0.023893759 0.033823837 0.01814211
00000000: 9a71 923c 5464 f53c 0833 263d f830 183d
00000010: c116 503d ffeb d8bc 6689 323d 8edf 1abc
00000020: b075 fc3b 6778 25bc d5ae cdbb 8231 f637
00000030: 8d6d 223d d8bc c3bc dd8a 0a3d c39e 943c

network_body.observation_encoder.processors.0.conv_layers.2.weight f4 [32, 16, 4, 4]
0.015159785 0.040094547 0.071328744 0.020901026 -0.06147608 0.11534107 -0.03501743 -0.042742107
0.09476625 0.022639643 0.06747252 -0.055124175 0.015521336 -0.058450315 0.041055452 0.019281069
0.04077818 -0.041898638 0.001722218 0.019451065 0.06148124 -0.030936668 -0.074177586 -0.005985028
0.034623064 0.03450491 -0.072410055 0.043833777 0.058203053 0.016301595 -0.04837863 -0.021527171
-0.011389708 -0.05069293 -0.032179277 -0.08708989 -0.03180501 -0.006366289 0.005171193 0.052486908
-0.058349386 0.05383855 -0.07858568 -0.033374175 -0.030477518 0.027722346 -0.02004283 0.040397372
0.020269698 -0.016052075 0.01517996 0.019828709 0.054525834 -0.03892885 0.051852774 0.04561677
-0.025881147 0.01310232 -0.06187753 -0.0114587555 -0.0500699 0.025742045 0.083259635 0.008323991
0.011487621 -0.0055305227 -0.012485788 -0.02936653 0.072171815 -0.013067817 0.038448583 -0.0013591428
0.023865376 0.030910928 0.04571239 0.020063838 0.05707777 -0.039226126 0.05712266 -0.026331449
0.038483433 -0.099465944 0.03776867 0.023534156 -0.07672991 -0.056425773 -0.0073986924 0.085898764
-0.06623899 0.062234424 -0.06914886 -0.027302232 -0.020944588 -0.07048773 0.03457361 0.001510637
0.09453977 0.042589027 -0.0358447 0.011063516 0.0060459017 0.014686313 -0.05608804 -0.011752723
0.034459587 0.025928503 -0.06912135 0.03618317 -0.06523995 0.05963154 0.023744563 0.0039362856
-0.06607018 -0.10330913 0.028395563 -0.009902691 -0.041686147 0.042776506 0.0033589858 -0.024475476
-0.051581066 0.042819463 0.028338568 -0.07479306 -0.039718863 -0.07419455 -0.04252826 0.01796875
0.05055096 -0.058677908 0.00077439664 0.032561023 -0.045641243 -0.024747515 -0.055719037 0.02033506
-0.034331746 -0.029401984 -0.0635684 -0.04680133 -0.051432177 -0.013762538 -0.009513014 -0.07573297
0.017114239 0.009610981 -0.0028206478 0.062391173 -0.017736258 0.055677257 -0.0031153646 0.036642563
0.025577547 0.023873411 0.065039776 0.07093176 0.11566393 -0.029467693 -0.009974808 0.013014866
0.016439792 -0.043364782 -0.051083185 -0.021274794 0.10158014 0.027529828 0.001410209 -0.0073579573
-0.028833712 -0.062256344 -0.04641769 -0.057768792 0.03636833 0.013676646 -0.035451435 0.0037887013
-0.033946905 0.078109644 -0.05646267 0.04517517 0.008236571 0.021004677 0.018467981 -0.06484355
0.036167815 -0.064842515 -0.023172818 0.006140452 0.066809684 -0.0015764555 0.041953627 0.047221508
0.038101852 -0.031860545 0.008041338 0.09149037 0.0863829 0.017665049 -0.03804529 -0.05273662
0.04990253 0.016138483 0.03049132 0.077227674 0.034436774 0.0010799716 0.04445528 0.04099966
-0.021123152 0.03368706 0.061558105 0.08437133 0.06636728 0.03694321 0.039967928 0.10930574
0.06364828 -0.073305435 -0.038561683 -0.031108757 -0.051341977 -0.025783494 0.050160427 -0.04426761
0.036533833 -0.030706258 0.041146927 0.083625205 -0.004634327 -0.032421436 -0.030931765 0.064938806
-0.020564472 0.09893853 -0.024800094 -0.037923153 0.029987885 0.03968151 0.043309942 0.022883974
0.0075257076 -0.035560768 0.05616121 -0.0003966544 -0.052802626 -0.00974957 -0.07233039 0.036614016
-0.053746648 -0.023448218 -0.016152719 0.013342701 -0.038530774 -0.0208315 -0.0131208375 0.013329488
00000000: bf60 783c 2e3a 243d ce14 923d a138 ab3c
00000010: 58ce 7bbd f037 ec3d 706e 0fbd 5912 2fbd
00000020: cf14 c23d c676 b93c 082f 8a3d e3c9 61bd
00000030: 344d 7e3c 9969 6fbd c329 283d 55f3 9d3c
00000040: 0507 273d e89d 2bbd 0cbc e13a d757 9f3c
00000050: c1d3 7b3d e56e fdbc 6bea 97bd 0e1e c4bb
00000060: ead0 0d3d 0555 0d3d b94b 94bd 0c8b 333d
00000070: 5366 6e3d ec8a 853c ac28 46bd c059 b0bc
00000080: e69b 3abc 64a3 4fbd 6bce 03bd 2f5c b2bd
00000090: f845 02bd 4e9c d0bb 1c73 a93b 83fc 563d
000000a0: c4ff 6ebd d085 5c3d 87f1 a0bd 5cb3 08bd
000000b0: fdab f9bc f919 e33c dc30 a4bc b777 253d
000000c0: a30c a63c a47f 83bc 5eb5 783c d16f a23c
000000d0: 7b56 5f3d dc73 1fbd 9363 543d a6d8 3a3d
000000e0: b304 d4bc 1dab 563c 4b73 7dbd 81bd 3bbc
000000f0: 1816 4dbd fbe0 d23c 0784 aa3d 5961 083c
00000100: 9336 3c3c 6339 b5bb 3191 4cbc 1492 f0bc
00000110: d1ce 933d 661a 56bc 437c 1d3d 4425 b2ba
00000120: 5281 c33c ea38 fd3c ea3c 3b3d eb5c a43c
00000130: 61ca 693d 93ab 20bd 73f9 693d 0db5 d7bc
00000140: cea0 1d3d cdb4 cbbd 52b3 1a3d b4ca c03c
00000150: 9224 9dbd b61e 67bd bb70 f2bb b1eb af3d
00000160: 4fa8 87bd 86e9 7e3d eb9d 8dbd eea8 dfbc
00000170: fc93 abbc df5b 90bd 0f9d 0d3d 9100 c63a
00000180: 119e c13d d571 2e3d e4d1 12bd c043 353c
00000190: b31c c63b dd9e 703c 93bc 65bd 7e8e 40bc
000001a0: 7f25 0d3d 0368 d43c 7f8f 8dbd ce34 143d
000001b0: 869c 85bd 3440 743d f583 c23c f5fb 803b
000001c0: cd4f 87bd bd93 d3bd d09d e83c e53e 22bc
000001d0: 18bf 2abd 6b36 2f3d 6e22 5c3b cb80 c8bc
000001e0: ab46 53bd 7663 2f3d 4926 e83c 1b2d 99bd
000001f0: 3fb0 22bd 50f3 97bd 1d32 2ebd 3333 933c
00000200: 860e 4f3d 3f58 70bd e100 4b3a b55e 053d
00000210: 50f2 3abd 4dbb cabc a539 64bd b695 a63c
00000220: 729f 0cbd 6edc f0bc 2630 82bd c0b2 3fbd
00000230: 8caa 52bd 457c 61bc 79dc 1bbc e319 9bbd
00000240: 2933 8c3c 6077 1d3c 9eda 38bb e38d 7f3d
00000250: a14b 91bc d60d 643d 252b 4cbb 8316 163d
00000260: 0188 d13c 2c92 c33c 9333 853d ac44 913d
00000270: 36e1 ec3d 3b66 f1bc 616d 23bc 4e3c 553c
00000280: beac 863c 459f 31bd 9a3c 51bd 7a48 aebc
00000290: 4009 d03d 3c86 e13c c3d6 b83a 051b f1bb
000002a0: ad34 ecbc 8200 7fbd 7a20 3ebd f89e 6cbd
000002b0: f5f6 143d 0314 603c 8635 11bd dc4b 783b
000002c0: e90b 0bbd f3f7 9f3d 6745 67bd 9909 393d
000002d0: aff2 063c 0012 ac3c 2a4a 973c b2cc 84bd
000002e0: b424 143d 27cc 84bd ecd4 bdbc d835 c93b
000002f0: 84d3 883d 12a1 ceba 91d7 2b3d 576b 413d
00000300: b010 1c3d 3480 02bd d1bf 033c 4e5f bb3d
00000310: 85e9 b03d 4bb6 903c 61d5 1bbd 5b02 58bd
00000320: 9866 4c3d da34 843c efc8 f93c 8b29 9e3d
00000330: 930d 0d3d d58d 8d3a bd16 363d 42ef 273d
00000340: 760a adbc 71fb 093d 5a24 7c3d e0ca ac3d
00000350: 92eb 873d c351 173d 69b5 233d b0db df3d
00000360: 085a 823d 2921 96bd dbf2 1dbd cbd7 febc
00000370: f74b 52bd e837 d3bc 0575 4d3d f451 35bd
00000380: 80a4 153d b18b fbbc ae89 283d b143 ab3d
00000390: 8ddb 97bb 57cc 04bd 9d64 fdbc a3fe 843d
000003a0: d376 a8bc 49a0 ca3d 9129 cbbc 4f55 1bbd
000003b0: 27a9 f53c 1489 223d c465 313d 2c77 bb3c
000003c0: 369a f63b 2ba8 11bd 4c09 663d 0df6 cfb9
000003d0: 9147 58bd a9bc 1fbc f521 94bd 94f8 153d
000003e0: 7225 5cbd 7a16 c0bc b552 84bc 589b 5a3c
000003f0: 72d2 1dbd d2a6 aabc c8f8 56bc ed63 5a3c

network_body.observation_encoder.processors.0.conv_layers.2.bias f4 [32]
0.025701905 -0.00025451995 -0.03987459 -0.019635523 -0.044270184 0.01664827 0.049955703 0.009906293
0.026114447 -0.0010840865 0.0010329542 0.03557571 0.018797245 0.0036116268 0.040041957 0.061137512
0.056097817 -0.0009642011 -0.018252293 -0.02448579 -0.03457093 0.060014892 0.014698897 0.053596433
-0.024250232 -0.028275799 -0.038746275 0.02606701 -0.04096551 0.051389452 0.0018975905 -0.03327176
00000000: cd8c d23c 1771 85b9 8a53 23bd adda a0bc
00000010: a754 35bd f461 883c 5a9e 4c3d 014e 223c
00000020: f7ed d53c e817 8eba 3164 873a d6b7 113d
00000030: aefc 993c 0bb1 6c3b 0903 243d 546b 7a3d
00000040: d3c6 653d 71c2 7cba d585 95bc 6c96 c8bc
00000050: 3f9a 0dbd 2dd2 753d a4d3 703c ef87 5b3d
00000060: 6ca8 c6bc a6a2 e7bc 6ab4 1ebd 7b8a d53c
00000070: 73cb 27bd bf7d 523d 92b8 f83a f847 08bd

network_body.observation_encoder.processors.0.dense.0.weight f4 [256, 32]
0.02899897 -0.035651293 -0.42839518 0.03992368 0.098119006 0.14684166 0.17661321 -0.1796762
-0.10841923 0.22631359 -0.21185377 -0.15308699 -0.167622 -0.12274882 0.11967682 -0.48688123
0.13174786 0.21303967 0.03722832 -0.08200497 0.27292526 0.3044066 0.27085024 -0.06893874
0.082151234 0.1142676 -0.5291342 -0.08049838 -0.21255866 -0.11047317 0.016737917 -0.08820413
0.30317974 0.19681713 0.016497042 0.12520702 0.46383652 -0.21877663 0.12984017 0.3192716
0.06090987 0.042230487 -0.015786065 0.16160466 -0.10388253 0.056852892 -0.15623632 -0.18364927
-0.16800068 0.02363507 0.21223044 -0.34315425 -0.15449789 0.13187034 -0.29286242 -0.017562184
-0.19937575 -0.31146464 0.098308876 -0.13263386 -0.43640846 0.19888784 -0.4300173 -0.23588863
0.2119736 0.22202134 -0.019756407 -0.1985291 0.24352075 0.13566454 0.13854396 0.4498045
-0.07680277 0.025342211 -0.19238107 -0.025241956 -0.07278876 -0.18230982 0.50960493 -0.28386524
0.62268615 -0.37492794 -0.12316996 -0.30489698 -0.03748325 0.066191465 0.35685351 0.012601151
-0.15785919 0.2469593 -0.44589666 -0.021646973 0.12573676 0.13382882 0.07070589 0.3241633
-0.06727683 -0.27804297 -0.4276752 -0.18238384 0.11742643 0.07564041 0.21510924 0.42782095
0.4220175 0.13388671 0.14307566 0.39310312 0.3422891 -0.23545367 -0.19767646 -0.31274033
0.37739286 0.13301016 0.24729915 0.062001977 0.22125643 -0.1669311 -0.25602937 0.14143671
0.1686242 -0.2124915 0.3289728 0.17094854 0.13546388 0.035532493 0.46143436 -0.718137
-0.278142 -0.15463457 0.15410656 0.36505303 0.23542364 0.14086133 -0.26617494 0.02708735
0.23396511 -0.016668765 0.01831258 0.0410263 -0.23874104 0.12742816 -0.038485236 0.073523
0.45741054 -0.057182744 -0.29406714 0.16937944 0.16465 -0.36935413 -0.09907127 -0.3311788
-0.15312761 0.09815533 0.29794797 -0.08342669 -0.18390231 -0.02545533 0.39859042 -0.12319106
-0.23143265 -0.06200829 0.07836738 0.61469096 0.077842325 0.1471715 -0.013792015 -0.03684079
0.2955815 0.09728999 -0.112840526 -0.31563258 0.15697256 0.050550714 -0.44815147 0.12086319
0.15414602 0.6284367 0.041303262 0.7588008 -0.04332947 -0.24845754 -0.14944291 -0.43283337
0.06202126 0.38962233 0.15820652 -0.083681725 0.6581776 0.06799447 0.23096643 0.005149862
-0.22305109 0.055134468 -0.045690637 0.15703505 0.3841018 -0.08550567 -0.44479197 0.2371365
0.06388534 0.3693565 -0.06290827 -0.23314299 0.33529592 -0.54859734 -0.086138315 -0.22992185
-0.73090804 0.4383499 -0.5995242 -0.25516945 -0.11631901 0.3784828 -0.08068666 0.10574123
-0.11650663 -0.09112629 0.14822832 0.3248007 0.3800651 -0.004805616 0.24986702 0.24274874
0.047478754 -0.06366877 0.016250892 0.16875942 -0.08688181 0.3886257 -0.18452926 -0.26344308
-0.11980976 0.2917347 -0.1096457 0.38938147 -0.07344626 0.20428722 0.060761895 -0.36520892
0.35948917 -0.09210009 0.003783536 -0.34053203 -0.25079456 0.09576229 -0.25667432 -0.20553926
-0.05952685 0.33493614 0.17860386 -0.25226218 0.10393454 -0.016518142 0.0071862987 0.12070785
00000000: 3f8f ed3c 1707 12bd 9d56 dbbe 0387 233d
00000010: 9ef2 c83d a95d 163e 18da 343e 0afd 37be
00000020: e70a debd c0be 673e 32f0 58be d6c2 1cbe
00000030: 1aa5 2bbe bc63 fbbd 1f19 f53d 7f48 f9be
00000040: e9e8 063e 1227 5a3e b97c 183d 39f2 a7bd
00000050: dcbc 8b3e 2fdb 9b3e e2ac 8a3e c12f 8dbd
00000060: e83e a83d 2205 ea3d 5775 07bf 56dc a4bd
00000070: faa8 59be c23f e2bd f51d 893c 5ea4 b4bd
00000080: 603a 9b3e 6e8a 493e ce24 873c 4536 003e
00000090: fb7b ed3e fb06 60be d2f4 043e 9177 a33e
000000a0: a17c 793d e0f9 2c3d c751 81bc b17b 253e
000000b0: 5dc0 d4bd 94de 683d 6afc 1fbe 8e0e 3cbe
000000c0: 5f08 2cbe 569e c13c f052 593e eab1 afbe
000000d0: b234 1ebe 0509 073e 10f2 95be 92de 8fbc
000000e0: 2829 4cbe 4b78 9fbe 2a56 c93d 2cd1 07be
000000f0: ee70 dfbe 41a9 4b3e 3a2b dcbe ca8c 71be
00000100: 9b0f 593e 9059 633e 30d8 a1bc 364b 4bbe
00000110: 815d 793e a5eb 0a3e 78de 0d3e c74c e63e
00000120: c54a 9dbd 789a cf3c 8bff 44be 38c8 cebc
00000130: 4612 95bd 6daf 3abe 7875 023f c956 91be
00000140: 5c68 1f3f 8ef6 bfbe 8840 fcbd 751b 9cbe
00000150: 0988 19bd 648f 873d 81b5 b63e 0f75 4e3c
00000160: d7a5 21be e6e2 7c3e 914c e4be fe54 b1bc
00000170: 23c1 003e 6c0a 093e 40ce 903d bbf8 a53e
00000180: 6fc8 89bd a65b 8ebe 3ef8 dabe d4c2 3abe
00000190: 457d f03d 5ce9 9a3d 9945 5c3e 590b db3e
000001a0: ae12 d83e 9919 093e 6d82 123e d044 c93e
000001b0: 8440 af3e c41a 71be b36b 4abe 801f a0be
000001c0: a339 c13e d133 083e fd3b 7d3e c9f5 7d3d
000001d0: 0c91 623e fcef 2abe 4816 83be c9d4 103e
000001e0: d3ab 2c3e 5f97 59be 1f6f a83e 220d 2f3e
000001f0: 0bb7 0a3e 858a 113d 2041 ec3e d4d7 37bf
00000200: a168 8ebe 8658 1ebe 1cce 1d3e 3be8 ba3e
00000210: e512 713e f43d 103e 1548 88be 4ae6 dd3c
00000220: 8d94 6f3e ef8c 88bc 4404 963c 320b 283d
00000230: 8878 74be 877c 023e b2a2 1dbd 3a93 963d
00000240: b731 ea3e 7438 6abd f88f 96be ce71 2d3e
00000250: 029a 283e fc1b bdbe e1e5 cabd 4590 a9be
00000260: 7ccd 1cbe a905 c93d a38c 983e 9ddb aabd
00000270: e350 3cbe b287 d0bc 0b14 cc3e 984b fcbd
00000280: aefc 6cbe 68fc 7dbd 147f a03d 635c 1d3f
00000290: cc6b 9f3d 20b4 163e e7f7 61bc 5ee6 16bd
000002a0: 7556 973e f93f c73d ef18 e7bd 989a a1be
000002b0: 6abd 203e 440e 4f3d 1c74 e5be 1f87 f73d
000002c0: 74d8 1d3e 3ae1 203f 9c2d 293d c540 423f
000002d0: 3e7a 31bd a76b 7ebe 9007 19be 569c ddbe
000002e0: 010a 7e3d 947c c73e e400 223e 5361 abbd
000002f0: 547e 283f af40 8b3d 7782 6c3e 2cc0 a83b
00000300: 8167 64be aed4 613d 1b26 3bbd cccd 203e
00000310: fea8 c43e 991d afbd c6bb e3be e9d3 723e
00000320: 51d6 823d 4c1c bd3e 0dd6 80bd 09bd 6ebe
00000330: e8ab ab3e e070 0cbf 4969 b0bd a270 6bbe
00000340: ca1c 3bbf 666f e03e 6b7a 19bf 92a5 82be
00000350: a938 eebd 7fc8 c13e 0c3f a5bd dc8e d83d
00000360: 079b eebd 6ca0 babd 2ac9 173e 474c a63e
00000370: e597 c23e 6e78 9dbb 24dd 7f3e 2093 783e
00000380: 1579 423d c664 82bd 9720 853c 45cf 2c3e
00000390: 17ef b1bd f3f9 c63e 3df5 3cbe 03e2 86be
000003a0: d25e f5bd 405e 953e ed8d e0bd 025d c73e
000003b0: fe6a 96bd ab30 513e 77e1 783d aafc babe
000003c0: f70e b83e f99e bcbd 33f5 773b 375a aebe
000003d0: 2568 80be 051f c43d d16a 83be e278 52be
000003e0: 6dd2 73bd c07c ab3e eee3 363e 8228 81be
000003f0: a2db d43d 0e51 87bc 0b7b eb3b ad35 f73d

network_body.observation_encoder.processors.0.dense.0.bias f4 [256]
0.01599908 0.022309545 0.019930799 -0.0027457338 0.011197543 -0.012686973 0.018426672 0.03120281
0.028894516 -0.006368337 -0.003719756 0.008902437 0.0032864471 0.02244054 0.0076382523 0.028584423
0.017873721 0.023765521 0.0049538305 0.051013734 0.047226578 0.020631084 0.016617686 -0.0052206535
0.021974415 -0.002483555 0.0165978 0.04339228 0.006491793 0.0014307108 -0.016611004 0.018587226
0.0031068788 0.023860296 -0.009988535 0.004456793 0.048267595 -0.0027923402 0.03407642 -0.0066740783
0.012478567 0.017780382 -0.0004557532 0.023954645 -0.03186391 -0.012395934 0.005333362 0.026352383
0.048343915 0.02312753 0.010465193 0.048443686 0.003402132 -0.00055474 -0.006064315 -0.01562933
-0.0038595097 0.040707108 -0.002414535 0.017365362 -0.02374253 0.017949037 0.05950026 -0.015105721
-0.00042978654 -0.029244151 -0.01620277 0.03654958 0.003684399 -0.0013136506 0.03910748 -0.018340392
0.03697089 0.010898537 0.07173437 0.032306034 0.021170637 -0.023295516 0.0059359865 0.024509966
0.029653843 0.00073542324 0.02539134 -0.00020303826 0.017048508 -0.003101643 0.0575703 0.0067329705
0.022257062 -0.011714559 0.022532504 0.027175048 0.0138282925 0.018676534 0.013120583 -0.027752241
-0.01423532 -0.03400413 -0.035320938 0.019380514 0.019815922 0.024477338 -0.0015728896 0.03543092
0.012156606 0.024024915 0.01978775 0.026120747 0.036143143 0.09647751 0.043370772 0.0053474107
0.013272242 0.057365086 0.04006103 0.010867087 0.01258547 -0.01106112 0.0018358128 0.03371466
0.04604591 0.007142693 0.046837267 0.002610325 0.040699925 -0.00063711865 -0.010596301 0.003196203
0.019458622 -0.004019803 0.003140472 0.0046979547 0.019139796 0.010028454 -0.0057940376 -0.008716744
0.022694414 -0.0061265337 0.0040266486 0.032960366 0.030769225 0.029449323 0.0156199895 0.016784297
0.013719662 -0.021720689 -0.016215006 0.02761415 -0.010921368 0.00061176164 -0.013755755 0.05063474
0.033288315 0.014772245 0.036129154 -0.01513183 -0.020921972 0.050867304 0.027695091 0.03332296
0.016348021 -0.012878887 0.049956802 0.050335158 0.017910304 0.011659596 0.005771565 -0.022466673
0.037060525 -0.021228481 -0.020790525 -0.016940106 0.01309396 0.012667594 0.035904665 -0.006406667
-0.013761752 0.0372244 -0.0018073929 -0.029518483 -0.019817773 0.011267705 -0.0069395225 0.008897539
0.024259506 0.04313875 0.007851742 0.020219138 -0.004730839 0.010753055 0.008868744 0.01584299
-0.027812148 0.036712077 -0.018241992 -0.0033245697 0.019424405 0.016382124 0.0435877 -0.013659038
0.023440251 0.0132318325 0.021201374 0.064605534 -0.028264778 0.0027812421 0.016241124 0.05941062
0.043773543 -0.013107282 0.085182175 0.01119364 0.02701343 -0.014558522 0.030698542 -0.0037096534
0.02842026 0.033030834 0.049470343 -0.0062825587 0.048421346 0.04223622 -0.006557627 0.052611034
0.0064811315 -0.0007551625 0.0044136955 -0.02119618 0.01934372 0.003567661 0.03933022 0.017623877
0.05728143 -0.015442256 0.049034584 0.036870684 0.026938928 0.031923104 0.007811816 -0.0015579248
0.00821393 0.039570164 0.02956443 0.009007239 0.031976193 0.016105011 0.0033170322 0.0071126134
0.05212209 0.0047291275 0.02842716 0.03776854 -0.008743616 -0.00699938 0.039032247 0.009632116
00000000: 8110 833c 82c2 b63c ea45 a33c c5f1 33bb
00000010: e675 373c 06dd 4fbc 88f3 963c 099d ff3c
00000020: 31b4 ec3c 7cad d0bb 26c7 73bb 87db 113c
00000030: 6f61 573b 39d5 b73c 4e4a fa3b e129 ea3c
00000040: e96b 923c e9af c23c be53 a23b c7f3 503d
00000050: a870 413d 8502 a93c d021 883c 0412 abbb
00000060: b003 b43c 24c3 22bb 1cf8 873c 1abc 313d
00000070: 1bb9 d43b b086 bb3a cd13 88bc 3d44 983c
00000080: c79c 4b3b ab76 c33c f4a6 23bc 4a0a 923b
00000090: 3eb4 453d b2ff 36bb b793 0b3d 3ab2 dabb
000000a0: e772 4c3c 2aa8 913c 29f2 eeb9 883c c43c
000000b0: bb83 02bd 5118 4bbc 7cc3 ae3b f4e0 d73c
000000c0: 4504 463d f275 bd3c 3376 2b3c e36c 463d
000000d0: 4ef6 5e3b f96b 11ba 29b7 c6bb 1509 80bc
000000e0: d4ef 7cbb 7fbc 263d 2d3d 1ebb ce41 8e3c
000000f0: b27f c2bc dc09 933c 8bb6 733d fc7d 77bc
00000100: f954 e1b9 6e91 efbc acbb 84bc 03b5 153d
00000110: f575 713b cd2e acba 2a2f 203d 973e 96bc
00000120: ca6e 173d c78f 323c 78e9 923d 5553 043d
00000130: 0b6e ad3c 3dd6 bebc aa82 c23b 20c9 c83c
00000140: 9eec f23c 6bc9 403a 8001 d03c abe6 54b9
00000150: 50a9 8b3c ef44 4bbb d6ce 6b3d 40a0 dc3b
00000160: 7154 b63c 6cee 3fbc 1696 b83c 359e de3c
00000170: 1090 623c 88ff 983c b7f7 563c ab58 e3bc
00000180: 423b 69bc ea47 0bbd b0ac 10bd e2c3 9e3c
00000190: 0055 a23c b384 c83c 6b29 ceba 0320 113d
000001a0: 802c 473c e6cf c43c eb19 a23c 2dfb d53c
000001b0: d50a 143d 0096 c53d 8da5 313d 5539 af3b
000001c0: d173 593c a7f7 6a3d 0917 243d de0b 323c
000001d0: 4a33 4e3c b339 35bc a89f f03a 6218 0a3d
000001e0: a39a 3c3d 400d ea3b 6fd8 3f3d fd11 2b3b
000001f0: f7b4 263d 4f04 27ba 1c9c 2dbc 6377 513b
00000200: b067 9f3c 8db8 83bb 61d0 4d3b 4df1 993b
00000210: 10cb 9c3c 624e 243c e9db bdbb add0 0ebc
00000220: a3e9 b93c 17c1 c8bb faf1 833b 7301 073d
00000230: be0f fc3c b53f f13c fcea 7f3c 397f 893c
00000240: 6fc8 603c 96ef b1bc 55d5 84bc 1237 e23c
00000250: 8aef 32bc a15e 203a d15f 61bc 6066 4f3d
00000260: 5459 083d 4907 723c 2afc 133d 7feb 77bc
00000270: 8e64 abbc 3c5a 503d d1e0 e23c a87d 083d
00000280: 49ec 853c f801 53bc 819f 4c3d 3d2c 4e3d
00000290: a1b8 923c e407 3f3c 651f bd3b 070c b8bc
000002a0: c7cc 173d 5ae7 adbc e450 aabc fac5 8abc
000002b0: 0c88 563c bd8b 4f3c c510 133d 05ef d1bb
000002c0: f978 61bc 9d78 183d 0be6 ecba bfd0 f1bc
000002d0: e258 a2bc 2e9c 383c ef64 e3bb fcc6 113c
000002e0: dfbb c63c 42b2 303d 98a4 003c 9ba2 a53c
000002f0: 2705 9bbb 952d 303c 354e 113c 28c9 813c
00000300: 4dd6 e3bc 675f 163d 3b70 95bc 06e1 59bb
00000310: ee1f 9f3c ce33 863c 0489 323d 28ca 5fbc
00000320: c505 c03c 54ca 583c 81ae ad3c e84f 843d
00000330: 898b e7bc 8045 363b 1b0c 853c 8d58 733d
00000340: e34b 333d edbf 56bc fe73 ae3d 8765 373c
00000350: 454b dd3c de86 6ebc 827b fb3c a81d 73bb
00000360: 9bd1 e83c 574b 073d 6aa1 4a3d ecdd cdbb
00000370: 7655 463d e3ff 2c3d 5de1 d6bb ab7e 573d
00000380: ac5f d43b 19f6 45ba c3a0 903b 9ca3 adbc
00000390: b976 9e3c 6bcf 693b ba18 213d f35f 903c
000003a0: ef9f 6a3d 8401 7dbc 7dd8 483d b705 173d
000003b0: 07af dc3c cdc1 023d 43fa ff3b 4833 ccba
000003c0: b893 063c 5314 223d 1a31 f23c 1993 133c
000003d0: 78f9 023d a8ee 833c 9162 593b ed10 e93b
000003e0: f97d 553d ccf6 9a3b 13e0 e83c 2fb3 1a3d
000003f0: 6241 0fbc 0e5b e5bb 47e0 1f3d 06d0 1d3c

network_body._body_endoder.seq_layers.0.weight f4 [256, 266]
0.040616777 0.06835777 -0.008022191 -0.033910893 -0.04051259 -0.06477541 -0.06327828 0.13372284
-0.05894643 0.074991785 0.046313602 -0.035917785 0.050473157 -0.04298047 0.016909841 -0.08478769
0.041357256 -0.028771227 -0.016276151 -0.101653196 0.017557194 0.017229611 -0.007277543 -0.027692422
-0.056655705 -0.07545681 -0.021646367 -0.04370763 -0.043735303 0.021096757 -0.047145605 0.048667427
-0.062482093 -0.081724554 0.06264479 -0.025836566 0.047683433 -0.012160942 0.08246694 -0.062098615
0.008246278 -0.038684092 -0.04890468 0.07886819 -0.027976288 0.0632173 0.04093575 -0.04333671
0.053827174 -0.1142615 -0.05681824 -0.06385513 0.034703247 -0.015799297 -0.03444434 0.08410158
0.14072686 -0.006706458 0.0068855938 -0.12518151 0.015655626 0.013995411 -0.13111284 -0.042573992
0.04593439 -0.06279427 -0.004014322 -0.12073049 -0.07339207 0.033567395 0.03905238 -0.039454535
-0.03830844 0.16937208 -0.039038062 -0.1575287 0.052404124 0.036171686 -0.03162888 0.062654585
-0.008511447 -0.026176969 0.0028326947 0.075985715 0.054567177 -0.08350588 -0.042937737 0.008987245
0.10840535 0.09187039 -0.0037086431 -0.027016742 -0.0234995 0.013714529 -0.0769241 -0.05826502
0.002799127 0.08465606 0.05050908 -0.031752735 -0.09659723 0.017698415 0.006347935 0.0554464
-0.09298678 -0.045089155 -0.078197554 -0.07697116 0.05502479 -0.052765567 -0.09431413 -0.067593195
0.04818494 -0.06871445 0.13816312 -0.043111313 0.032703325 -0.0022171007 -0.033801705 -0.049386013
0.0044219927 0.014443504 0.1259766 0.07025196 0.05932936 -0.04163566 -0.014112315 0.0459165
0.08126159 0.064965464 -0.005174639 -0.03716271 -0.042612348 -0.072699524 0.031484995 0.008717681
-0.018886384 0.093534805 -0.008971921 0.054918535 -0.0025674305 -0.06102353 0.04607436 -0.01334206
0.056426805 0.04631611 -0.11185508 0.12605394 0.022156669 0.036792 -0.048245765 0.08971295
-0.0005303499 0.14185406 0.088995755 0.0064462195 0.030299766 -0.012951031 0.01401188 -0.010415994
0.027438952 0.071804546 0.0040092594 -0.10906204 0.03870073 -0.013801252 0.04521571 -0.018576097
0.04523838 -0.074984886 -0.08277407 -0.033245876 0.047929183 0.012568703 -0.074366145 -0.05286858
0.07207453 -0.12111053 -0.061036304 0.03337788 -0.05236781 0.1420648 -0.014147531 -0.05029209
-0.028740201 0.020563835 -0.033975475 -0.10878684 0.01670632 0.043834914 -0.045165185 0.0056905067
0.01144907 0.13232058 -0.012828303 -0.10262433 -0.0035858096 -0.0074678953 -0.063914716 -0.07011419
-0.043997712 -0.05669728 -5.250788e-05 -0.079145394 0.029108042 -0.07919662 0.011624717 -0.040522184
-0.015702996 0.028266849 -0.12821738 -0.028370112 0.047689416 -0.07799946 -0.08299965 0.010318827
0.03591328 -0.092598595 0.09824773 -0.030830171 -0.043899894 0.020905998 0.013295529 -0.04963093
-0.04299655 0.029670281 -0.07378206 -0.0001972643 0.081472404 -0.018778397 0.09529427 -0.0045000697
0.0011451682 -0.10324537 -0.03976676 0.16183844 -0.003033323 0.1005002 0.011579458 -0.10318734
0.0062901666 -0.010957232 0.03271637 -0.04790897 0.051956598 0.020248385 -0.06390112 0.025565036
-0.038018227 -0.02452455 -0.023890743 0.04196845 0.0856431 -0.012186156 -0.015236727 -0.040107954
00000000: c75d 263d 29ff 8b3d 826f 03bc 26e6 0abd
00000010: 88f0 25bd f8a8 84bd 0b98 81bd a4ee 083e
00000020: d071 71bd 4b95 993d 55b3 3d3d 871e 13bd
00000030: f1bc 4e3d 4a0c 30bd 8286 8a3c 2ba5 adbd
00000040: 3a66 293d a3b1 ebbc 9055 85bc 8d2f d0bd
00000050: 1bd4 8f3c 1d25 8d3c 7578 eebb 38db e2bc
00000060: d00f 68bd 1a89 9abd b953 b1bc c606 33bd
00000070: ca23 33bd 1bd3 ac3c c01b 41bd 7f57 473d
00000080: 39ed 7fbd 345f a7bd e94b 803d 35a7 d3bc
00000090: b44f 433d b03e 47bc 6de4 a83d 1e5b 7ebd
000000a0: 661b 073c 3673 1ebd 4650 48bd a585 a13d
000000b0: 872e e5bc 1278 813d 3fac 273d d681 31bd
000000c0: e279 5c3d ef01 eabd 3eba 68bd 7ac6 82bd
000000d0: fe24 0e3d 876d 81bc 8215 0dbd 733d ac3d
000000e0: b41a 103e d9c1 dbbb 8ca0 e13b 952f 00be
000000f0: 3a40 803c 024d 653c 7242 06be 1162 2ebd
00000100: b325 3c3d 489a 80bd 938a 83bb 8c41 f7bd
00000110: 954e 96bd f77d 093d 63f5 1f3d 149b 21bd
00000120: 50e9 1cbd e06f 2d3e 60e6 1fbd 344f 21be
00000130: b5a5 563d c328 143d 498d 01bd 0c51 803d
00000140: 9973 0bbc 1571 d6bc bba4 393b 669e 9b3d
00000150: d581 5f3d 2105 abbd 7bdf 2fbd 3d3f 133c
00000160: a003 de3d 8b26 bc3d b50c 73bb 3752 ddbc
00000170: 0682 c0bc e7b2 603c 628a 9dbd 4da7 6ebd
00000180: 8f71 373b 2860 ad3d 9ce2 4e3d 280f 02bd
00000190: c5d4 c5bd 44fc 903c 5702 d03b c41b 633d
000001a0: da6f bebd 68af 38bd 0a26 a0bd 0ea3 9dbd
000001b0: ad61 613d b520 58bd c427 c1bd 4d6e 8abd
000001c0: 925d 453d 29ba 8cbd a27a 0d3e 7d95 30bd
000001d0: ecf3 053d c74c 11bb a873 0abd fd48 4abd
000001e0: 5de6 903b 72a4 6c3c 0300 013e 42e0 8f3d
000001f0: 5803 733d 278a 2abd 5737 67bc f112 3c3d
00000200: 7a6c a63d 9d0c 853d 0590 a9bb ed37 18bd
00000210: 498a 2ebd 7de3 94bd 69f6 003d 9bd4 0e3c
00000220: 9eb7 9abc 2d8f bf3d f7fe 12bc 42f2 603d
00000230: 5642 28bb cff3 79bd 78b8 3c3d a898 5abc
00000240: cb1f 673d f6b5 3d3d 4714 e5bd 4914 013e
00000250: e781 b53c 35b3 163d 5a9d 45bd 6cbb b73d
00000260: 2e07 0bba 3142 113e 6843 b63d cf3a d33b
00000270: 3737 f83c 9030 54bc 1692 653c d8a7 2abc
00000280: a7c7 e03c 430e 933d 1b60 833b eb5b dfbd
00000290: a884 1e3d a51e 62bc 1c34 393d e62c 98bc
000002a0: e14b 393d ad91 99bd 7485 a9bd d42c 08bd
000002b0: 6451 443d f6ec 4d3c 474d 98bd b98c 58bd
000002c0: d09b 933d cc08 f8bd 3401 7abd 3eb7 083d
000002d0: a17f 56bd 6f79 113e 0ccb 67bc 14ff 4dbd
000002e0: 9270 ebbc 7d75 a83c de29 0bbd a3cb debd
000002f0: b1db 883c 3d8c 333d 21ff 38bd 6e77 ba3b
00000300: e194 3b3c 0c7f 073e cd2d 52bc b42c d2bd
00000310: e7ff 6abb 3fb5 f4bb b8e5 82bd 0798 8fbd
00000320: f236 34bd 683b 68bd e83b 5cb8 fb16 a2bd
00000330: fd73 ee3c d631 a2bd 9975 3e3c 97fa 25bd
00000340: 92a3 80bc e18f e73c 6b4b 03be 7068 e8bc
00000350: fa55 433d 2ebe 9fbd b8fb a9bd 4c10 293c
00000360: ce19 133d 55a4 bdbd 1b36 c93d 8e8f fcbc
00000370: 60d0 33bd 0e43 ab3c 7ed5 593c cd49 4bbd
00000380: 271d 30bd 170f f33c 0c1b 97bd bbd8 4eb9
00000390: 01db a63d 27d5 99bc a429 c33d 5275 93bb
000003a0: 7819 963a 4f72 d3bd 78e2 22bd fab8 253e
000003b0: b7ca 46bb 0dd3 cd3d c4b7 3d3c e253 d3bd
000003c0: be1d ce3b f685 33bc 9a01 063d 323c 44bd
000003d0: 71d0 543d f1df a53c 97de 82bd c46d d13c
000003e0: 00b9 1bbd b6e7 c8bc 85b6 c3bc 1ce7 2b3d
000003f0: a665 af3d 71a8 47bc 77a3 79bc 3d48 24bd

network_body._body_endoder.seq_layers.0.bias f4 [256]
0.012277267 -0.013273539 -0.0030700045 0.00037633316 0.0021213589 0.009320481 -0.0015765572 0.000930572
0.014039658 -0.016371496 0.00272585 -0.01880769 0.0019284465 -0.0066084717 0.0071145482 -0.0063377456
-0.0024316597 -0.016367115 0.016764695 0.013432704 -3.5763485e-05 0.006850036 -0.010836024 0.0040248055
0.00979893 -0.00075512094 0.006608867 0.0041452735 0.008120779 0.0010564772 0.0025033585 -0.001698959
0.012031421 -0.0073960484 0.0020192394 0.0022498565 0.012765152 -0.011598924 -0.012147435 0.002805844
-0.0016327269 0.010637016 0.015230309 -0.02044489 -0.001552592 0.014866663 0.0032878837 -0.02253496
-0.008235049 0.0039508604 -0.0003113002 -0.0042856983 0.0049925204 -0.0015616054 -0.011799022 0.013865122
-0.011913211 -0.005059283 -0.00062035973 0.0034947055 -0.024504405 0.009569982 -0.0032226657 -0.0036682421
0.011272189 -0.005222831 0.0031248888 -0.014923071 -0.004137435 0.001904157 0.007959627 0.00441482
0.01033033 0.014956032 -0.009189497 0.02883123 0.01318069 0.004083626 -0.0064307638 -0.0025197396
0.009141243 0.0025560353 0.0033855988 -0.005629369 -0.020013768 0.02104813 0.0014151748 0.0060310983
0.021676775 0.00056840543 0.000104810795 0.012572325 0.0031796275 -0.0025068684 0.0075833914 0.00043195853
0.007357251 0.017194463 0.0020839386 -0.007856065 0.0039365315 0.00278212 0.017075023 0.007447435
0.0019738257 0.014597172 0.00034621407 0.014799855 0.012536752 0.0020799537 -0.0015734694 -0.0019780903
0.0040652235 0.01713586 0.0011608457 0.0038325803 0.014562235 0.013035953 -0.009008895 0.013288271
-0.0013430151 -0.002322045 0.014913482 -0.01529332 0.0045167734 0.008359189 -0.0031531642 0.021807007
-0.007691837 0.01282666 -0.0024563253 0.013766049 0.004963522 -0.0018719289 -0.00041039792 0.008317789
0.010600383 0.0069250385 -0.005455252 -0.009343784 -0.0023743291 -0.007563676 0.014408867 -0.0056192325
-0.014624221 0.0016526298 0.0025241652 -0.027252667 0.012635746 -0.0043848115 0.00912306 0.016171517
0.008862369 -0.013665849 -0.0040408866 0.015232741 0.004658639 -0.0025479596 -0.012344041 -0.000923737
0.004843772 -0.018231353 0.013233755 0.013404013 0.0044606123 0.004976233 0.005934897 0.0038684858
0.024097625 0.0052814563 -0.011974291 -0.004190584 0.014321861 -0.0016497335 0.00519816 -0.012161916
0.014605714 0.010042627 -0.014433975 -0.003161548 0.015237438 0.0050699213 -0.004634078 0.0044066636
-0.0015126677 -0.0043594395 0.014934374 0.012774968 0.010170585 -0.0068710507 0.015081298 -0.0046117636
0.0031361391 0.009217265 0.0077188946 -0.008416871 0.0077936766 0.016055336 0.014535618 -0.022474969
-0.009818868 -0.016566366 -0.014200876 0.011970246 0.013508658 0.007989984 -0.007785843 0.018301517
0.012996141 0.015269803 0.009153704 0.003640887 -0.017844567 0.0026967463 0.004746699 0.0186396
-0.0037235972 -3.8998467e-05 -0.017482923 0.009129014 -0.012842305 0.0212581 -6.122236e-05 0.012390274
0.0072426023 0.0055334326 -0.002285726 -0.0028723776 0.008263983 -0.009493911 0.019670235 -0.003412407
-0.023273123 -0.012012494 0.022643652 0.0030064546 0.00162739 0.005868465 0.007514813 0.0031644565
-0.007444187 0.007993829 0.0018854458 -0.020637183 -0.0063532735 0.01521534 0.026079088 0.015448126
0.0030930028 0.009988399 -0.0183946 0.0077745877 0.001983189 -0.0076981173 0.0027522843 0.0006013228
00000000: 9726 493c 4279 59bc 2132 49bb 954e c539
00000010: 7f06 0b3b eeb4 183c 7ba4 ceba a1f1 733a
00000020: 9806 663c 841d 86bc 2da4 323b 9612 9abc
00000030: edc3 fc3a e18b d8bb 2821 e93b ddac cfbb
00000040: 7b5c 1fbb 5414 86bc 1d56 893c d814 5c3c
00000050: c000 16b8 4476 e03b 9489 31bc 84e2 833b
00000060: b18b 203c 4ff3 45ba 328f d83b 13d5 873b
00000070: 040d 053c 7e79 8a3a 630f 243b 9baf deba
00000080: 701f 453c 8d5a f2bb 3755 043b 5472 133b
00000090: ee24 513c 6a09 3ebc 0906 47bc 40e2 373b
000000a0: 3901 d6ba e146 2e3c 8c88 793c 0b7c a7bc
000000b0: 5880 cbba 4e93 733c 8979 573b 3d9b b8bc
000000c0: 4dec 06bc 3876 813b 0136 a3b9 0b6f 8cbb
000000d0: 4c98 a33b c8ae ccba af50 41bc 892a 633c
000000e0: a12f 43bc 58c8 a5bb a39f 22ba 6e07 653b
000000f0: 76bd c8bc 6acb 1c3c 5c33 53bb e466 70bb
00000100: fdae 383c 4824 abbb efca 4c3b e57f 74bc
00000110: 5293 87bb e894 f93a 1869 023c 32aa 903b
00000120: 8b40 293c 250a 753c 8b8f 16bc 792f ec3c
00000130: d2f3 573c f0cf 853b 28b9 d2bb 3722 25bb
00000140: 27c5 153c 2883 273b ece0 5d3b 9276 b8bb
00000150: eaf3 a3bc 216d ac3c 637d b93a 85a0 c53b
00000160: 7e93 b13c 0b01 153a decd db38 27fc 4d3c
00000170: 4c61 503b 464a 24bb 197e f83b 7e78 e239
00000180: 1815 f13b 67db 8c3c b092 083b bab6 00bc
00000190: 05fe 803b 3a54 363b ebe0 8b3c 9d09 f43b
000001a0: 4d5b 013b fa28 6f3c 1184 b539 177b 723c
000001b0: f366 4d3c d54f 083b df3c ceba d9a2 01bb
000001c0: 9135 853b 8160 8c3c 8527 983a 072c 7b3b
000001d0: 7196 6e3c c094 553c 0b9a 13bc 0cb7 593c
000001e0: 1c08 b0ba 732d 18bb ad57 743c d590 7abc
000001f0: 7101 943b fbf4 083c 51a5 4ebb 9ca4 b23c
00000200: ce0b fcbb e926 523c 4dfa 20bb ff8a 613c
00000210: 0aa5 a23b 835b f5ba ad2a d7b9 5647 083c
00000220: 3bad 2d3c 6feb e23b f8c1 b2bb ac16 19bc
00000230: a29a 1bbb b7d8 f7bb 2b13 6c3c 8a21 b8bb
00000240: 6e9a 6fbc 0e9d d83a 776c 253b fc40 dfbc
00000250: 2906 4f3c 77ae 8fbb e378 153c 217a 843c
00000260: 7833 113c bae6 5fbc 6a69 84bb bf92 793c
00000270: 7fa7 983b abfb 26bb a93e 4abc f126 72ba
00000280: 81b8 9e3b eb59 95bc 64d2 583c 819c 5b3c
00000290: 542a 923b ab0f a33b 8679 c23b 6c86 7d3b
000002a0: 6268 c53c 1110 ad3b d12f 44bc 2b51 89bb
000002b0: 3da6 6a3c df3b d8ba 5455 aa3b c642 47bc
000002c0: ce4c 6f3c d589 243c 7b7c 6cbc f931 4fbb
000002d0: 72a6 793c 9521 a63b 77d9 97bb c665 903b
000002e0: b544 c6ba a1d9 8ebb 4eaf 743c 194e 513c
000002f0: 86a2 263c 8d26 e1bb 8c17 773c 471e 97bb
00000300: af87 4d3b 0304 173c c8ee fc3b eae6 09bc
00000310: 1962 ff3b 7b86 833c cd26 6e3c 6d1d b8bc
00000320: 51df 20bc 30b6 87bc caaa 68bc da1e 443c
00000330: 6b53 5d3c 6ce8 023c 6320 ffbb 10ed 953c
00000340: c4ed 543c 322e 7a3c 6bf9 153c f39b 6e3b
00000350: c52e 92bc e5bb 303b 328a 9b3b 13b2 983c
00000360: 9807 74bb 4992 23b8 5938 8fbc dc91 153c
00000370: 8868 52bc 7825 ae3c 8164 80b8 9300 4b3c
00000380: 5a53 ed3b cc51 b53b 1ecc 15bb 803e 3cbb
00000390: a865 073c 598c 1bbc 7923 a13c b0a2 5fbb
000003a0: 47a7 bebc 0dd0 44bc 2e7f b93c f007 453b
000003b0: 264e d53a 414c c03b d23e f63b c562 4f3b
000003c0: 5eee f3bb 8df8 023c 1021 f73a 4f0f a9bc
000003d0: 1f2f d0bb c349 793c d0a3 d53c 231a 7d3c
000003e0: fab3 4a3b 62a6 233c 46b0 96bc f8c1 fe3b
000003f0: 64f8 013b 7d40 fcbb ab5f 343b 17a2 1d3a

network_body._body_endoder.seq_layers.2.weight f4 [256, 256]
-0.00018617441 0.017418386 0.11496942 0.021261936 -0.0096679665 0.11829519 0.093554206 0.00919105
-0.061937112 0.00905747 0.18590651 0.098176815 -0.08430246 -0.1130742 0.008063619 0.037413914
0.053270683 -0.10637529 -0.0023105075 -0.014673137 0.04046344 -0.06961804 0.024220226 -0.06236687
0.004521256 0.029402088 0.033644043 0.0005938512 -0.036662605 -0.008474466 0.035105526 -0.055528913
-0.027961833 -0.051077023 0.01980842 -0.037735086 -0.047126934 0.0038211646 -0.124927066 0.013348132
0.04673332 0.0142751485 0.04641432 -0.05273385 0.028107721 0.04270786 -0.06620483 -0.03609406
-0.06792084 -0.012555479 -0.017484272 0.042839404 0.064938985 -0.036966287 0.0005940372 -0.019782936
-0.03552064 0.013756739 0.041651897 -0.03796234 -0.01236833 -0.060006738 0.029546862 -0.027930366
0.04560803 -0.07112228 -0.073546425 0.0041597756 0.051091846 0.01735529 0.040961526 -0.019750103
-0.13142447 -0.06457971 -0.0023220738 0.026142975 -0.00032549154 0.043898202 0.1083218 -0.049402457
0.0714159 -0.040438566 -0.007989438 0.017772453 -0.019897258 0.19620764 0.12955308 -0.029732257
0.05022607 0.030055448 -0.036736816 0.020926889 0.04069301 -0.009484033 0.05394207 0.06358745
-0.043468084 0.04409552 0.10324991 0.022768827 0.03996631 -0.11278412 -0.020737855 0.0049906457
0.06550959 -0.057923626 0.001161865 -0.014984549 0.13769129 -0.053428862 0.111020714 0.056286056
0.006516499 -0.053035457 -0.08794879 0.03223158 -0.03556217 0.03467485 -0.028781407 0.09762802
-0.034031216 0.021593567 -0.09574449 0.00850858 0.01127033 -0.044721432 0.002102936 -0.113660514
-0.014975345 0.122179136 0.19821136 0.018046033 0.06501369 0.08905758 0.065899715 -0.03683111
-0.022711232 0.009181617 0.025626745 0.09790271 0.088600986 0.0040098815 0.057645526 -0.036547396
0.00015169603 -0.043887757 0.0075386046 0.05056478 -0.04219506 -0.03016812 -0.015262568 -0.041106123
-0.06850016 0.052658908 -0.016636228 -0.0009556755 0.011676948 -0.055111222 -0.13399422 -0.04923922
0.1007542 0.08709738 -0.078835845 -0.13584839 0.021185786 0.09071347 -0.07579609 -0.034954183
-0.02507369 0.09007208 -0.0056033307 -0.028226366 -0.10448839 -0.017876638 -0.06492013 -0.016240196
0.0056146053 -0.012218388 0.04666409 0.061546862 0.054427728 0.10944888 0.032769952 -0.06284652
0.06324196 -0.016090285 -0.01999162 -0.03441395 -0.0041355896 0.029919399 -0.014088612 -0.05047477
0.004455722 0.05947991 0.037225768 0.021867685 0.0042504417 -0.006877545 0.01237459 -0.111405805
0.04201449 -0.05535832 0.13822675 -0.005135289 -0.0058885943 0.028893413 -0.091197364 0.015493522
-0.10631757 -0.017616661 0.1800309 -0.065407515 0.08518592 0.025264258 0.034868103 -0.09837101
-0.08008165 -0.08669266 0.00014005041 0.015722638 0.021396501 -0.10326192 0.027642526 -0.022480903
0.01774593 -0.035224587 0.13841458 -0.03234148 -0.021897549 -0.1255273 -0.02569243 0.047338877
-0.12075796 -0.07513732 0.060303334 0.03642844 -0.112833105 -0.039720107 0.035894208 0.061422974
0.11835844 -0.05095273 0.006898727 0.08033888 0.14517614 0.020655597 0.021637762 -0.079228215
-0.040372267 0.036248088 -0.07993595 0.087522864 -0.050307374 0.051987696 0.0710296 0.09087593
00000000: d037 43b9 01b1 8e3c 1675 eb3d 832d ae3c
00000010: 6466 1ebc c044 f23d 5999 bf3d 0f96 163c
00000020: c5b1 7dbd c865 143c 475e 3e3e ed10 c93d
00000030: c5a6 acbd 7293 e7bd 451d 043c 553f 193d
00000040: 5c32 5a3d 4adb d9bd e26b 17bb 9967 70bc
00000050: febc 253d e793 8ebd 7f69 c63c 6774 7fbd
00000060: 0b27 943b a6dc f03c 56ce 093d aeac 1b3a
00000070: 872b 16bd 7dd8 0abc d0ca 0f3d 4972 63bd
00000080: 3710 e5bc 2436 51bd 4545 a23c 1b90 1abd
00000090: 2c08 41bd 816c 7a3b c3d9 ffbd 20b2 5a3c
000000a0: 706b 3f3d 50e2 693c f11c 3e3d 73ff 57bd
000000b0: 2a42 e63c 70ee 2e3d 6696 87bd 5dd7 13bd
000000c0: 151a 8bbd 7fb5 4dbc 2d3b 8fbc 5f78 2f3d
000000d0: bbfe 843d f669 17bd 29b9 1b3a d30f a2bc
000000e0: 177e 11bd f263 613c 2e9b 2a3d 667e 1bbd
000000f0: 89a4 4abc a0c9 75bd 430c f23c 39ce e4bc
00000100: 7ccf 3a3d 8fa8 91bd 829f 96bd ba4e 883b
00000110: af45 513d ae2c 8e3c 46c7 273d f8ca a1bc
00000120: 2394 06be 5e42 84bd ef2d 18bb cb29 d63c
00000130: bca6 aab9 9ace 333d d2d7 dd3d 3b5a 4abd
00000140: 8042 923d e9a2 25bd 22e6 02bc 8997 913c
00000150: 93ff a2bc a8ea 483e 90a9 043e 1091 f3bc
00000160: dab9 4d3d d836 f63c 5879 16bd de6e ab3c
00000170: b7ad 263d eb62 1bbc 5cf2 5c3d 233a 823d
00000180: 970b 32bd 819d 343d b074 d33d b185 ba3c
00000190: b7b3 233d 5cfb e6bd 6fe2 a9bc 9288 a33b
000001a0: e429 863d 5341 6dbd b849 983a c181 75bc
000001b0: f2fe 0c3e 39d8 5abd d45e e33d 358c 663d
000001c0: 5b88 d53b b53b 59bd 7f1e b4bd 4305 043d
000001d0: a3a9 11bd 3707 0e3d fcc6 ebbc 33f1 c73d
000001e0: 5164 0bbd fee4 b03c b015 c4bd 9267 0b3c
000001f0: 31a7 383c d22d 37bd 69d1 093b d8c6 e8bd
00000200: 265b 75bc 0e39 fa3d ebf7 4a3e 46d5 933c
00000210: e625 853d d263 b63d 6ef6 863d 38dc 16bd
00000220: e80c babc 7e6e 163c 2eef d13c 3781 c83d
00000230: 6f74 b53d 5365 833b b71d 6c3d b9b2 15bd
00000240: 9810 1f39 a6c3 33bd 6606 f73b 041d 4f3d
00000250: bad4 2cbd 2223 f7bc da0f 7abc e55e 28bd
00000260: d049 8cbd deb0 573d b348 88bc 4c86 7aba
00000270: ab50 3f3c 4ebc 61bd c835 09be 10af 49bd
00000280: 3858 ce3d 1c60 b23d b074 a1bd d71b 0bbe
00000290: d08d ad3c fcc7 b93d fb3a 9bbd 1e2c 0fbd
000002a0: 5767 cdbc b677 b83d 259c b7bb fb3a e7bc
000002b0: 02fe d5bd 0772 92bc d8f4 84bd 290a 85bc
000002c0: b9fa b73b a22f 48bc d822 3f3d 9018 7c3d
000002d0: 9cef 5e3d bc26 e03d c939 063d adb5 80bd
000002e0: 0085 813d c6cf 83bc 77c5 a3bc a4f5 0cbd
000002f0: d783 87bb 8719 f53c ecd3 66bc a2be 4ebd
00000300: 4e01 923b 35a1 733d 0c7a 183d dc23 b33c
00000310: 4a47 8b3b 075d e1bb cbbe 4a3c ba28 e4bd
00000320: 6317 2c3d 68bf 62bd 508b 0d3e ed45 a8bb
00000330: 1cf5 c0bb e1b1 ec3c afc5 babd 8bd8 7d3c
00000340: 07bd d9bd d150 90bc 055a 383e 60f4 85bd
00000350: f575 ae3d fdf6 ce3c dbd1 0e3d bd76 c9bd
00000360: d901 a4bd ec8b b1bd 7fda 1239 c3cc 803c
00000370: b747 af3c fc7a d3bd 9472 e23c df29 b8bc
00000380: ea5f 913c a847 10bd 8dbc 0d3e 8078 04bd
00000390: 7d62 b3bc 3b8a 00be ee78 d2bc 69e6 413d
000003a0: f34f f7bd 98e1 99bd a100 773d fd35 153d
000003b0: 0b15 e7bd 8db1 22bd ce05 133d a896 7b3d
000003c0: e965 f23d cfb3 50bd b70e e23b b688 a43d
000003d0: 0ea9 143e ed35 a93c ad41 b13c 6742 a2bd
000003e0: 645d 25bd e078 143d 76b5 a3bd 303f b33d
000003f0: 1b0f 4ebd 0df1 543d f877 913d 291d ba3d
