results/PushBlockCollab_POCA/PushBlockCollab/PushBlockCollab-15000062.onnx (onnx, 643240 bytes, 12 tensors)

network_body.observation_encoder.processors.0.conv_layers.0.weight f4 [16, 6, 8, 8]
0	0x3b350d6d	0.002762641
1	0x3d22bccf	0.039730843
2	0xbde02da9	-0.10946209
3	0x3d22cfc8	0.039748937
4	0x3da827eb	0.08210739
5	0x3df1b132	0.118013754
6	0x3ce259ff	0.027630804
7	0xbcae4ab5	-0.021275857
8	0x3bdd8661	0.006760404
9	0xbdc3c266	-0.09558563
10	0x3d17cb85	0.037059326
11	0xbdd1edb6	-0.10250418
12	0x3d3abf1b	0.04559241
13	0x3cbb402b	0.022857746
14	0x3d4c25ef	0.049840864
15	0xbcbde17d	-0.02317881
16	0xbc27293f	-0.010202705
17	0xbe081edf	-0.13293026
18	0xbcfcb424	-0.030847616
19	0xbd32068b	-0.04346327
20	0xbd418540	-0.047246218
21	0xbc2eb709	-0.010663756
22	0x3d086ebb	0.033308726
23	0x3dd9b216	0.1062967
24	0xbd5d1b8e	-0.053981356
25	0x3ceac954	0.028660454
26	0x3c29b569	0.010358193
27	0xbda227d6	-0.07917754
28	0xbd11ee8a	-0.03562788
29	0x3d8c212b	0.06842264
30	0xbd473e8d	-0.048643637
31	0x3dadcf19	0.08486766
32	0xbdeeee1e	-0.11666511
33	0xbe45f33c	-0.19331068
34	0xbddb37b1	-0.10703982
35	0x3c787086	0.015163546
36	0xbd787ed2	-0.06066782
37	0x3ded4e93	0.115872525
38	0x3d984734	0.07435456
39	0x3dc51a6d	0.09624181
40	0xbcb73ff4	-0.022369362
41	0xbd4a181f	-0.04933941
42	0xbdf5c1eb	-0.119998775
43	0x3c4b351c	0.012402799
44	0xbdafcfb5	-0.08584539
45	0x3e217d6c	0.15770501
46	0x3d8db454	0.069191605
47	0xbcedba2f	-0.029019443
48	0xbd8de7de	-0.06928991
49	0xbda6b291	-0.081395276
50	0xbdf9c4cf	-0.121957414
51	0xbd305858	-0.043053
52	0xbcf9e16e	-0.030503001
53	0x3df1aed4	0.11800924
54	0x3d587027	0.05284133
55	0xbdafd600	-0.08585739
56	0x3d3c45b0	0.045964897
57	0xbd74d1f2	-0.059770532
58	0xbbe199cb	-0.0068847886
59	0xbc340c3f	-0.010989248
60	0xba8a7b4c	-0.001056531
61	0x3d8a17cc	0.0674282
62	0xbdaed518	-0.08536738
63	0xbcdd780d	-0.027034784
64	0xbd96eed8	-0.073697746
65	0xbe2488b6	-0.16067776
66	0xbb1540d4	-0.0022774236
67	0x3d6871c4	0.05674912
68	0xbdc5e8f1	-0.09663571
69	0xbba40a8a	-0.005006139
70	0x3d9cf401	0.076637276
71	0xbd29bf7a	-0.041442372
72	0xbde2de77	-0.11077588
73	0xbd86e552	-0.06586708
74	0xbc10f29d	-0.008846906
75	0xbd9466eb	-0.072461925
76	0xbe299302	-0.16559985
77	0xbc233186	-0.009960538
78	0x3d61f4bd	0.05516504
79	0xbd843656	-0.06455676
80	0xbdfc9106	-0.123323485
81	0x3d8f62e0	0.07001281
82	0x3e6c20b9	0.23059358
83	0x3dedcb0b	0.11610993
84	0x3e07a138	0.13245094
85	0x3d730335	0.05932923
86	0x3d5d85bc	0.054082617
87	0x3a1e1996	0.0006031034
88	0xbddbc2dd	-0.107305266
89	0x3ce68447	0.028139247
90	0x3dcc52f9	0.09976763
91	0x3ddd7173	0.10812654
92	0x3cd8afcc	0.026451014
93	0xbde08581	-0.10962964
94	0xbbbde88f	-0.0057955454
95	0x3c2e4e2d	0.010638756
96	0x3bc288fb	0.0059367395
97	0x3cb180f2	0.021667931
98	0x3dda4088	0.106568396
99	0x3e60bfd9	0.21948184
100	0x3ddd0049	0.1079107
101	0x3af5f43e	0.0018764806
102	0xbb825038	-0.003976848
103	0xbd342205	-0.043977756
104	0x3d344ff5	0.044021565
105	0x3d37f90b	0.04491524
106	0x3d961e43	0.07329991
107	0x3e5738eb	0.21017806
108	0x3d556f67	0.052108195
109	0xbccb4615	-0.024813691
110	0x3de49549	0.111612864
111	0xb95f0c4f	-0.00021271523
112	0x3db92111	0.0903951
113	0x3dca3c92	0.09874834
114	0xbb6aa5d1	-0.00358044
115	0x3d0dd1e3	0.03462399
116	0xbddb5e63	-0.10711362
117	0xbdef6a7d	-0.11690233
118	0xbdc4c32e	-0.0960754
119	0x3b2e3913	0.0026584312
120	0x3d7d9b78	0.061915845
121	0x3cac5b04	0.021039493
122	0xbb647d49	-0.0034864715
123	0x3c7f76b7	0.015592269
124	0x3c8d49e1	0.017247142
125	0xbdbfe4cd	-0.09369812
126	0x3c77e873	0.015131104
127	0x3d1fd393	0.039020132
128	0xbe0815e7	-0.13289605
129	0xbdd45c14	-0.10369125
130	0xbdc6f951	-0.09715522
131	0xbe1054e6	-0.14094886
132	0xbdfcab50	-0.12337363
133	0xbdef34a9	-0.11679966
134	0xbe3122eb	-0.17298476
135	0xbd9bd40b	-0.07608803
136	0xbe4ecb78	-0.20194805
137	0xbdcba3c6	-0.09943347
138	0xbd774dea	-0.06037704
139	0xbe45bea3	-0.19311003
140	0xbd83480b	-0.064102255
141	0x3cb3c831	0.021946045
142	0xbe0da4d4	-0.13832408
143	0xbe3e0a0d	-0.18558522
144	0xbdfa3317	-0.12216776
145	0xbdf6ccfd	-0.12050817
146	0x3baeefcc	0.0053386446
147	0xbdffee02	-0.12496568
148	0xbc8c98e2	-0.017162744
149	0xbd4cf11f	-0.05003464
150	0xbe12a363	-0.1432014
151	0x3d2a03c0	0.041507483
152	0xbc8c2aba	-0.017110217
153	0xbd81d509	-0.06339461
154	0xbd3530d6	-0.044236027
155	0xbd3c4f60	-0.045974135
156	0xbc66212c	-0.014045995
157	0xbd448446	-0.04797771
158	0x3c3ea8ed	0.011636955
159	0x3b817ead	0.0039518685
160	0xbc8376d9	-0.016047882
161	0xbd6d5685	-0.05794384
162	0xb9d508f9	-0.0004063321
163	0xbd4ae7b5	-0.04953738
164	0xbd70540b	-0.0586739
165	0xbd9b1b87	-0.0757361
166	0x3da75e7d	0.08172319
167	0xbd63a103	-0.055573475
168	0xbdcf490a	-0.10121353
169	0xbc96cfaf	-0.018409578
170	0x3c528c0e	0.012850774
171	0xbd8a3308	-0.06748015
172	0xbd220e42	-0.03956438
173	0x3c1ec44d	0.009690356
174	0xbd6070ec	-0.05479519
175	0xbd1823b1	-0.037143413
176	0xbe40d97f	-0.18832968
177	0xbe1b998a	-0.15195289
178	0xbd3767fd	-0.044776905
179	0x3b1febe1	0.002440207
180	0xbda44401	-0.08020783
181	0x3d7a591b	0.061120134
182	0x3e04fb00	0.12986374
183	0xbd0e4a87	-0.034739044
184	0xbe1459ad	-0.14487334
185	0x3b8613af	0.004091702
186	0x3d68a422	0.056797154
187	0x3cbd6a4f	0.023121981
188	0x3d250677	0.04028937
189	0x3cedf65c	0.029048137
190	0xbcea145e	-0.028574165
191	0xbc391125	-0.0112955915
192	0xbe1a0aef	-0.15043233
193	0xbd407055	-0.04698213
194	0x3d990eac	0.074735016
195	0xbd81a6f9	-0.06330676
196	0xbd54ebb8	-0.05198261
197	0xbd01f23f	-0.031725165
198	0x3d039ce7	0.032132056
199	0x3d8f459c	0.06995699
200	0xbe2df594	-0.16988212
201	0xbe1a84a7	-0.15089665
202	0xbcc6cb47	-0.024266852
203	0x3cb759e8	0.022381738
204	0xbdae2fcb	-0.085052095
205	0xbcccae34	-0.02498541
206	0xbd95a537	-0.07306903
207	0x3cbf19ca	0.023327727
208	0xbe327be7	-0.17430077
209	0xbdeb9e49	-0.115048
210	0x3de5a012	0.112121716
211	0x3e1b1b25	0.15147074
212	0x3e31b6c7	0.1735488
213	0xbd90b60a	-0.07065971
214	0xbde78fc8	-0.11306721
215	0xbd51a1a6	-0.05117955
216	0xbe5df2ca	-0.21674648
217	0xbd6428fb	-0.055703145
218	0x3da6af85	0.081389464
219	0x3da07d64	0.07836416
220	0x3e57beb5	0.21068843
221	0x3e53623e	0.20642945
222	0x3df6966d	0.1204041
223	0x3e1c8b1c	0.15287441
224	0x3c4ad362	0.012379499
225	0x3e8f9692	0.28044564
226	0x3e536ec9	0.2064773
227	0x3d3bdbfc	0.04586409
228	0x3e34a8b1	0.17642476
229	0x3e08a8e0	0.1334567
230	0x3d502dc4	0.050824896
231	0x3e0b37b5	0.1359547
232	0x3d8d4c95	0.068993725
233	0x3e65dccd	0.2244751
234	0x3e3e2b87	0.18571292
235	0xbc4ba59a	-0.012429619
236	0x3dda1136	0.10647814
237	0x3d5c3cdf	0.05376899
238	0x3d894a8a	0.0670367
239	0x3dc897d9	0.09794588
240	0x3e1951f2	0.14972666
241	0x3d8edaef	0.06975352
242	0xbe130dba	-0.14360705
243	0xbe1fde54	-0.15612155
244	0x3cba5296	0.022744458
245	0x3d8d3df8	0.06896585
246	0x3ded73be	0.11594342
247	0xbdad416c	-0.08459744
248	0x3da67c71	0.08129204
249	0x3d7ec84e	0.062202744
250	0xbdb8319c	-0.08993837
251	0x3d247ac1	0.04015613
252	0xbe148ffd	-0.14508052
253	0x3cd8710c	0.026421092
254	0xbda6f86a	-0.0815285
255	0xbde2676c	-0.110548824

network_body.observation_encoder.processors.0.conv_layers.0.bias f4 [16]
0	0xbc63ae0c	-0.0138964765
1	0xbd907ecb	-0.07055434
2	0xba4b9c0f	-0.000776709
3	0x3cf63046	0.030052315
4	0xbc683b02	-0.014174225
5	0xbe153ab7	-0.14573179
6	0x3d234da5	0.03986897
7	0xbdcde4b4	-0.10053387
8	0xbd997501	-0.0749302
9	0xbdaac499	-0.08338279
10	0xbdb37bec	-0.087638706
11	0xbc71e026	-0.014762914
12	0xbc5e7348	-0.01357729
13	0xbd90fc7e	-0.07079409
14	0xba371189	-0.0006983509
15	0xbd07c7fa	-0.033149697

network_body.observation_encoder.processors.0.conv_layers.2.weight f4 [32, 16, 4, 4]
0	0x3d822a2e	0.063557014
1	0xbd7ed021	-0.062210206
2	0xbd75d96d	-0.060021807
3	0xbd1b839b	-0.037967306
4	0xbe03c046	-0.12866315
5	0x3d619e04	0.055082336
6	0xbda14729	-0.07874901
7	0x3cb8fad1	0.022580536
8	0x3d83f88b	0.0644389
9	0x3cf5cfaf	0.030006258
10	0x3d087375	0.033313233
11	0x3c44ee4f	0.012019708
12	0x3de12c94	0.10994831
13	0xbd441b4a	-0.047877587
14	0x3af5a808	0.0018742094
15	0xbc42ddfd	-0.011893746
16	0x3c994a39	0.01871215
17	0xbdedec82	-0.11617376
18	0x3dbc5588	0.09196001
19	0xbdad7674	-0.08469859
20	0x3cc954a4	0.024576493
21	0xbdb64afb	-0.0890102
22	0xbd9718a4	-0.07377747
23	0x3d2acfb7	0.041702
24	0x3d29ebe8	0.041484743
25	0x3da1da62	0.07902981
26	0xbe3f13ea	-0.1865994
27	0x3d9525c4	0.07282594
28	0x3db29baa	0.08721097
29	0xbdbd6f13	-0.09249701
30	0xbd9ab945	-0.075548686
31	0x3c20fa96	0.009825369
32	0x3c0a1403	0.008427623
33	0xbd90bf7a	-0.07067771
34	0xbd7b8edd	-0.061415542
35	0xbe312c4a	-0.17302051
36	0xbd3e2def	-0.046430524
37	0xbd2f1acb	-0.04275016
38	0x3d26665f	0.040624972
39	0x3d855986	0.06511216
40	0xbde69a27	-0.11259871
41	0x3dbce3fb	0.09223171
42	0xbdc9ccc3	-0.09853508
43	0xbd7e3a87	-0.062067535
44	0xbc887d44	-0.016661294
45	0x3d3af379	0.04564235
46	0xbbdb9b98	-0.006701898
47	0x3cfb5cb6	0.030683856
48	0x3d445675	0.047934014
49	0x3d8f0199	0.069827266
50	0xbc13128f	-0.008976593
51	0xbd922c11	-0.07137311
52	0x3d94da71	0.07268227
53	0x3c13e7ac	0.009027403
54	0x3d2fa181	0.04287863
55	0xbcf3a8b0	-0.029743522
56	0x3cc437db	0.023952415
57	0x3df7d13f	0.121004574
58	0xbdea7238	-0.11447567
59	0x3d353cb5	0.044247348
60	0xbc165e91	-0.00917782
61	0x3d51035f	0.051028606
62	0x3d87fd43	0.06640103
63	0xbd3d8f40	-0.046279192
64	0xbddd242c	-0.10797915
65	0xbe122d1c	-0.1427502
66	0x3c0b68a5	0.008508836
67	0xbda2ece7	-0.07955342
68	0xbd7ae4b3	-0.06125326
69	0xbcf78165	-0.030213067
70	0x3d87a35e	0.06622957
71	0xbc2bac67	-0.010478116
72	0x3e108793	0.14114217
73	0x3e12314f	0.14276622
74	0x3d9ff949	0.07811219
75	0x3dc01f62	0.09380986
76	0x3cda4701	0.026645185
77	0x3ceda6c9	0.029010193
78	0x3cdfa6f1	0.027301284
79	0x3cf67faf	0.030090181
80	0x3de560a8	0.11200076
81	0xbdb68794	-0.08912578
82	0x3c0790d0	0.008274272
83	0x3d4f18eb	0.050560873
84	0xbe14f6bc	-0.14547247
85	0x3c636e0d	0.013881219
86	0x3a03dfff	0.00050306314
87	0x3e1683ee	0.14698765
88	0x3ce5e783	0.028064495
89	0x3dc271f1	0.09494389
90	0xbcf7f34f	-0.030267386
91	0xbc2ab250	-0.01041849
92	0xbd210f6e	-0.039321356
93	0xbd2a07fb	-0.041511517
94	0x3c81f441	0.01586354
95	0xbbf53723	-0.0074833794
96	0x3dfbbdb8	0.12292045
97	0x3db3c1a1	0.08777166
98	0xbd8b2221	-0.06793619
99	0xbce1fec2	-0.027587298
100	0x3cf4529f	0.029824553
101	0x3d7d5a5f	0.061853763
102	0xbd1902da	-0.037356235
103	0xbd6c147f	-0.057636734
104	0x3e4c3529	0.19942154
105	0x3dd44559	0.103647895
106	0xbdfa9717	-0.12235849
107	0x3d029fef	0.031890806
108	0xbdc52bde	-0.096275076
109	0x3da8f853	0.08250489
110	0x3df24d54	0.118311554
111	0xbd06a1f0	-0.03286928
112	0xbd776326	-0.06039729
113	0xbba1d8b3	-0.0049391626
114	0x3ddb8e1b	0.10720464
115	0xbde555d8	-0.11198014
116	0xbd903b37	-0.07042544
117	0x3d8fd7e4	0.070236
118	0x3cc513d2	0.024057303
119	0xbd3287cc	-0.043586537
120	0x3d058cce	0.032604985
121	0x3da6e890	0.081498265
122	0x3c2b92a4	0.010471974
123	0xbdabbab9	-0.08385224
124	0xbd067f66	-0.03283634
125	0xbcf6641b	-0.03007703
126	0xbda2b247	-0.0794416
127	0xbba7b034	-0.0051174406
128	0xbd428bb5	-0.047496516
129	0xbd08dfd3	-0.03341658
130	0xbcb32967	-0.021870328
131	0xbd06aae6	-0.032877825
132	0xbd99f7ac	-0.07517943
133	0x3cd668dc	0.026173048
134	0xbd9d81b1	-0.07690752
135	0x3bbba6e6	0.005726683
136	0xbdc1f40c	-0.09470376
137	0xbce8a0ef	-0.028397052
138	0xbe1e118e	-0.15436384
139	0xbdaf9d96	-0.08574979
140	0xbdec5da7	-0.115413
141	0xbbaf4d3a	-0.0053497823
142	0xbcc8e39e	-0.024522599
143	0xbd0172cb	-0.031603616
144	0x3ba7ebef	0.005124561
145	0x3d7dfc21	0.062008027
146	0x3d01cde0	0.03169048
147	0xbbef2c8c	-0.0072990116
148	0xbdbbef2e	-0.09176479
149	0xbb8c603b	-0.0042839325
150	0xbcf5d578	-0.030009016
151	0x3dba0871	0.09083641
152	0x3d4815e0	0.048848987
153	0xbd24f2d9	-0.04027066
154	0xbd2de6fc	-0.042456612
155	0x3e10b667	0.14132081
156	0x3e062243	0.13099007
157	0x3d5ba505	0.05362417
158	0xbd31bf9f	-0.043395635
159	0xbd24d47e	-0.04024171
160	0xbcff3b43	-0.031156188
161	0xbda9778b	-0.08274754
162	0xbcad3117	-0.021141572
163	0xbba0202c	-0.0048866477
164	0xbd1501d3	-0.036378693
165	0x3c823f99	0.015899466
166	0x3ba3dfae	0.00500103
167	0x3d3f2551	0.046666447
168	0x3d96c89d	0.07362483
169	0x3c1a603f	0.009422361
170	0xbdec79b0	-0.115466475
171	0xbd8e20ee	-0.069398746
172	0x3a938beb	0.0011256909
173	0x3b7e235d	0.0038778402
174	0xbd8afd58	-0.06786603
175	0x3db519b9	0.08842797
176	0xbd2baf58	-0.041915268
177	0xbcc7e68e	-0.02440193
178	0xbdab1b62	-0.08354832
179	0x3d54010c	0.05175881
180	0xbd3364a7	-0.04379716
181	0x3c8538b5	0.016262392
182	0x3d8c87df	0.06861853
183	0xbcbc0520	-0.022951663
184	0xbbea25f2	-0.0071456367
185	0xbc716ec3	-0.01473588
186	0x3d3936b2	0.045218177
187	0x3d3307f2	0.04370875
188	0x3dcb3b3b	0.09923407
189	0x3d816432	0.06317939
190	0x3e050b3e	0.1299257
191	0x3d970444	0.073738605
192	0xbc5ffb0a	-0.013670692
193	0xbe0e920c	-0.139229
194	0x3d122323	0.03567804
195	0x3e150687	0.14553271
196	0xbcb4dff6	-0.02207945
197	0xbdb4a464	-0.088204175
198	0x3c874ebb	0.016517034
199	0xbd625a1d	-0.05526172
200	0x3d87fde8	0.06640226
201	0x3c972ee3	0.018454975
202	0x3da72913	0.08162131
203	0x3dcaafc6	0.098968074
204	0x3d3111ec	0.043229982
205	0x3e0393bd	0.12849326
206	0xbc8fabb1	-0.017537924
207	0x3db5ec53	0.08882966
208	0xbd1e8b9a	-0.038707353
209	0xbce10e96	-0.027472775
210	0xbc2ea964	-0.010660503
211	0xbd533f0b	-0.051573794
212	0x3cd099cc	0.025463961
213	0x3c3fefba	0.01171487
214	0x3d7d01dc	0.06176935
215	0x3df1eb11	0.118124135
216	0x3d24e61f	0.040258523
217	0x3d3a3c5b	0.045467716
218	0xbcb1a04b	-0.021682879
219	0xbd93729d	-0.07199595
220	0xbc108e3c	-0.008822974
221	0x3bf654d9	0.007517439
222	0x3dd2cab3	0.10292568
223	0xbdba77b6	-0.09104864
224	0xbbdfa14e	-0.006824649
225	0xbd779517	-0.060444918
226	0x3d023788	0.03179124
227	0x3e0e8b32	0.13920286
228	0xbdccff97	-0.100096874
229	0xbc976219	-0.018479394
230	0x3d8a47eb	0.067519985
231	0xbbc3de3a	-0.005977419
232	0xbd67782c	-0.05651109
233	0x3c0af049	0.00848014
234	0x3c0e19b7	0.008673123
235	0xbd98cc26	-0.07460813
236	0xbd6987c9	-0.05701426
237	0x3d655ab0	0.05599469
238	0x3dc7ab27	0.097494416
239	0x3d000791	0.031257216
240	0x3d7c3c82	0.061581142
241	0xbd588090	-0.05285698
242	0x3e22508c	0.15851039
243	0xbdb9330b	-0.09042939
244	0x3c8ccbed	0.017187083
245	0x3d22ce3e	0.03974747
246	0x3d66c4e5	0.056340117
247	0xbc59c2e3	-0.0132910935
248	0xbd96b80b	-0.07359322
249	0xbc4614fa	-0.012089962
250	0x3dd637d7	0.10459869
251	0x3d84e65e	0.064892516
252	0xbe38196b	-0.17978446
253	0x3d493d2d	0.049130607
254	0x3897d9be	7.240799e-05
255	0x3e25fcfb	0.16209786

network_body.observation_encoder.processors.0.conv_layers.2.bias f4 [32]
0	0x3cb54d50	0.022131592
1	0xbcc9801e	-0.024597224
2	0xbd59ff39	-0.053221915
3	0xbd6f0fb5	-0.05836459
4	0xbdb34bfb	-0.087547265
5	0x3d1859c2	0.037194975
6	0x3d64b047	0.055832174
7	0xbc2f2061	-0.010688872
8	0xbc73c510	-0.014878526
9	0xbbbd359e	-0.005774214
10	0x3cb02261	0.021500768
11	0x3d193442	0.037403353
12	0x3caf2f06	0.021384727
13	0xbc07afa3	-0.008281621
14	0x3dac4474	0.08411494
15	0x3d8d7ad5	0.06908194
16	0x3d9b1650	0.07572615
17	0xbcdbf50e	-0.02685025
18	0x3d246616	0.04013642
19	0x3d139de4	0.036039248
20	0xbbf59f67	-0.007495809
21	0x3c9b5362	0.018960658
22	0x3d361e97	0.044462766
23	0x3c2af22f	0.010433718
24	0xbd193134	-0.03740044
25	0xbd6b2fa6	-0.057418488
26	0xbd940841	-0.07228137
27	0x3d2319f4	0.039819673
28	0xbd686080	-0.056732655
29	0x3d74d732	0.05977554
30	0x3bed41c7	0.0072405073
31	0xbd00408f	-0.031311568

network_body.observation_encoder.processors.0.dense.0.weight f4 [256, 32]
0	0xbbab1cf5	-0.005221958
1	0xbdc23d11	-0.09484304
2	0xbf014c29	-0.50506836
3	0x3ca07860	0.01958865
4	0x3b9f96f6	0.004870291
5	0x3d38bbbf	0.045100924
6	0x3de6368d	0.112408735
7	0xbe5400fa	-0.20703498
8	0xbe12bdf5	-0.14330275
9	0x3e4a018e	0.19727156
10	0xbe97875e	-0.29595464
11	0xbe2eac03	-0.17057805
12	0xbdf9efe0	-0.12203956
13	0xbe8a8627	-0.27055475
14	0x3e3db06a	0.18524328
15	0xbee0a438	-0.4387529
16	0x3e17f7ce	0.14840624
17	0x3e681765	0.22665174
18	0x3d947c6a	0.072502926
19	0x3d3cb53a	0.04607127
20	0x3e90bd3c	0.28269374
21	0x3eb62641	0.3557606
22	0x3e981af8	0.29708076
23	0xbdcceb8e	-0.10005866
24	0x3d9f094d	0.07765446
25	0x3de438c8	0.11143643
26	0xbf0abec0	-0.5419731
27	0xbe2cb863	-0.16867213
28	0xbe21d88d	-0.15805264
29	0xbd7aee9c	-0.061262712
30	0x3ccf1302	0.025277618
31	0xbdc8374f	-0.09776174
32	0x3e9c55ab	0.3053411
33	0x3e2637c2	0.16232207
34	0x3d6a5aed	0.05721562
35	0x3e52ec6d	0.20598002
36	0x3f04e4c1	0.5191155
37	0xbe4c4cb4	-0.19951135
38	0x3e07f44f	0.1327679
39	0x3ea9fe5c	0.33201873
40	0xbb9b9282	-0.0047476897
41	0x3d0355c5	0.032064218
42	0xbbedf098	-0.007261347
43	0x3e2ef2fb	0.17084877
44	0xbd2fecae	-0.042950325
45	0x3d6407a8	0.055671364
46	0xbe6a7a29	-0.22898163
47	0xbe61aa40	-0.22037601
48	0xbe678c8a	-0.22612205
49	0x3da8717d	0.08224771
50	0x3e761696	0.24032053
51	0xbea514e3	-0.32242498
52	0xbcc987a2	-0.024600808
53	0x3e1b63db	0.1517481
54	0xbe607363	-0.21919017
55	0xbd39e425	-0.04538359
56	0xbdea2909	-0.11433608
57	0xbe997b0f	-0.299767
58	0x3dbede76	0.09319775
59	0xbdcbe5d5	-0.09955946
60	0xbf01709e	-0.50562465
61	0x3e9b4dd7	0.30332825
62	0xbed2c42a	-0.41165286
63	0xbe221c3d	-0.15831085
64	0x3e36c615	0.17849
65	0x3e5cdbc6	0.21568212
66	0xbd2c8e0b	-0.04212765
67	0xbe1eae62	-0.1549621
68	0x3e6affa4	0.22949082
69	0x3e00972e	0.1255767
70	0x3dd56ffd	0.10421751
71	0x3ec6f01c	0.38855064
72	0xbdd92390	-0.10602486
73	0xbca4c13b	-0.02011167
74	0xbe8df3d0	-0.27725077
75	0xbc8a5502	-0.016886238
76	0x3c655993	0.013998407
77	0xbe893dc7	-0.26804945
78	0x3edfe233	0.43727264
79	0xbec1306d	-0.37732258
80	0x3f1e333a	0.61796916
81	0xbed08757	-0.40728256
82	0xbd2e3351	-0.042529408
83	0xbe9b66fd	-0.3035201
84	0x3be33f19	0.006935012
85	0x3db874a1	0.0900662
86	0x3ec1c8f9	0.37848642
87	0xbd9a0450	-0.07520354
88	0xbe60b890	-0.21945405
89	0x3e639654	0.22225314
90	0xbf04b680	-0.5184097
91	0xbc394153	-0.011307078
92	0x3e0a31ab	0.1349551
93	0x3e2438c5	0.16037281
94	0xbd2d9dcc	-0.042386815
95	0x3e83ad1a	0.25718004
96	0xbdbdc77f	-0.092665665
97	0xbe883df4	-0.26609766
98	0xbef01e12	-0.46897942
99	0xbe7a5de4	-0.24449879
100	0x3d8c88e9	0.06862051
101	0x3d10b75c	0.035331115
102	0x3e40199a	0.18759766
103	0x3ec8555f	0.39127633
104	0x3ecc8642	0.3994618
105	0x3d5f1ae4	0.054469004
106	0x3e745486	0.23860368
107	0x3eb00a1c	0.34382713
108	0x3eaad9e1	0.33369353
109	0xbdecf868	-0.11570817
110	0xbe6d5242	-0.2317591
111	0xbe9abb6e	-0.30221123
112	0x3eb7b491	0.3587995
113	0x3dc24a97	0.09486883
114	0x3e2d0fcc	0.16900557
115	0xbbad070a	-0.00528038
116	0x3e72d463	0.23713832
117	0xbe346e98	-0.17620313
118	0xbe96c797	-0.2944915
119	0x3e41f634	0.18941575
120	0x3e1ef184	0.15521818
121	0xbe792785	-0.24331482
122	0x3eaf403b	0.3422869
123	0x3e1577be	0.1459646
124	0x3e26ed61	0.1630149
125	0xbd5fd3df	-0.054645415
126	0x3f0131a3	0.50466365
127	0xbf441751	-0.7659808
128	0xbeaf00e3	-0.34180364
129	0xbe207c44	-0.15672404
130	0x3e2a5841	0.16635229
131	0x3ec4e2e6	0.3845436
132	0x3e648375	0.22315772
133	0x3e215fd9	0.15759219
134	0xbe61af4f	-0.22039531
135	0xbd8f6d09	-0.07003219
136	0x3e6a7b3b	0.22898571
137	0xbd8b0f11	-0.06789983
138	0x3d92d24f	0.071690194
139	0x3c19dc2b	0.009390871
140	0xbe8fe908	-0.28107476
141	0x3de7b937	0.11314624
142	0xbe27fe87	-0.16405688
143	0xba6f8338	-0.00091366796
144	0x3f02aea2	0.5104772
145	0xbd97447e	-0.07386111
146	0xbead0f38	-0.33800673
147	0x3e41e314	0.1893428
148	0x3e709674	0.23494893
149	0xbeb4093f	-0.35163304
150	0xbd8e94a8	-0.06961948
151	0xbe8d34c8	-0.2757933
152	0xbe6e6015	-0.2327884
153	0x3dc18cfe	0.0945072
154	0x3e6b80fb	0.22998421
155	0xbe0d3f00	-0.13793564
156	0xbea66a2d	-0.3250288
157	0xbdd7fec7	-0.10546642
158	0x3eb893c6	0.36050242
159	0xbe08af83	-0.13348202
160	0xbeab8aab	-0.33504233
161	0x39f9117a	0.00047506002
162	0xbc0c325f	-0.008556931
163	0x3f07e422	0.5308248
164	0x3d5c9215	0.053850252
165	0x3d923462	0.071388975
166	0xbe1499c3	-0.1451178
167	0xbdafc000	-0.08581543
168	0x3e01256d	0.12611933
169	0x3d0a7346	0.03380134
170	0xbe09a420	-0.13441515
171	0xbebb3ddc	-0.36570632
172	0x3e1175b3	0.14205055
173	0x3d0138cf	0.031548318
174	0xbee8dc83	-0.45480737
175	0x3d9979cf	0.07493936
176	0x3e28d609	0.16487898
177	0x3f298720	0.6622181
178	0x3dac393c	0.08409354
179	0x3f43ee4a	0.76535475
180	0xbd000b90	-0.031261027
181	0xbe540713	-0.20705824
182	0xbe13b763	-0.14425425
183	0xbef221c1	-0.47291377
184	0x386cb483	5.64349e-05
185	0x3ecedd98	0.40403438
186	0x3dc5c393	0.096564434
187	0xbd666435	-0.05624791
188	0x3f22790d	0.6346596
189	0x3dcf25da	0.101146415
190	0x3e5c29b0	0.21500278
191	0x3d4da5c1	0.050206903
192	0xbe9a6302	-0.30153662
193	0xbb284ed9	-0.0025681762
194	0xbdd01c61	-0.10161663
195	0x3e617637	0.22017752
196	0x3eaa9110	0.333138
197	0xbdde1359	-0.10843534
198	0xbf0c81e6	-0.5488571
199	0x3e45989e	0.192965
200	0x3d3c4a96	0.04596957
201	0x3ebc4176	0.36768693
202	0xbc6e7294	-0.014553685
203	0xbe657ed0	-0.22411656
204	0x3ec2500a	0.3795169
205	0xbf11a171	-0.56886965
206	0xbd8b278f	-0.067946546
207	0xbe8552e0	-0.2603979
208	0xbf2aced7	-0.6672186
209	0x3f056633	0.5210907
210	0xbf153190	-0.5827875
211	0xbda7cfd5	-0.08193938
212	0xbd8fb949	-0.07017762
213	0x3e8de30a	0.2771228
214	0xbb55d4cb	-0.0032628055
215	0x3d5ebd9b	0.05438004
216	0xbda705d8	-0.081554115
217	0xbdd03f86	-0.10168366
218	0x3dd67c42	0.10472919
219	0x3e852def	0.26011607
220	0x3e86c6c9	0.26323536
221	0x3dc54e66	0.09634094
222	0x3e803f2a	0.2504819
223	0x3e905e09	0.28196743
224	0xbca167e0	-0.019702852
225	0xbe05e4b4	-0.13075525
226	0xbc97bfac	-0.018524013
227	0x3e66bcf0	0.22533011
228	0xbd89d139	-0.06729359
229	0x3ecb6fd6	0.39733762
230	0xbe48e8a2	-0.19619992
231	0xbe8e17ae	-0.2775244
232	0xbe779ba9	-0.24180473
233	0x3ea48d59	0.3213909
234	0xbe0ca1f2	-0.13733652
235	0x3ec5f45a	0.38662988
236	0xbd896961	-0.067095526
237	0x3d8fa839	0.07014508
238	0x3cc6bd9e	0.024260338
239	0xbed3a8e6	-0.41339797
240	0x3ea9c2a9	0.33156326
241	0xbde735d4	-0.11289564
242	0xbc9a966c	-0.018870555
243	0xbe9ea700	-0.30986786
244	0xbe9c7893	-0.3056074
245	0x3dffb07c	0.124848336
246	0xbe5162d4	-0.20447856
247	0xbe4c7892	-0.19967869
248	0xbdc201a3	-0.094729684
249	0x3e9fea2f	0.31233355
250	0x3dfae7c5	0.12251238
251	0xbe53b0e2	-0.20672944
252	0x3e2e3c12	0.17015103
253	0x3d8de390	0.0692817
254	0xbd7c2d0a	-0.06156639
255	0x3df790b4	0.12088147

network_body.observation_encoder.processors.0.dense.0.bias f4 [256]
0	0x3b0ee5c8	0.002180444
1	0x3d5beaac	0.053690597
2	0xbc5c3d2d	-0.01344232
3	0xbcf2d2ee	-0.029641595
4	0xbd41b046	-0.047287248
5	0xbd66b5ad	-0.056325603
6	0x3d105d6c	0.035245344
7	0x3ccac255	0.024750868
8	0x3da1a24a	0.07892282
9	0xbd4bcd0f	-0.049756106
10	0xbd864918	-0.0655691
11	0x3c242015	0.010017415
12	0xbc1fb1b2	-0.009746956
13	0xb86c0535	-5.6271634e-05
14	0x3d2c3390	0.04204136
15	0xbbe7d4a0	-0.0070749074
16	0x3ca0f9ed	0.019650424
17	0x3d0ff8b6	0.0351493
18	0xbd1d887e	-0.038460247
19	0x3d174195	0.03692778
20	0x3d81c8dd	0.0633714
21	0x3cb01b99	0.021497535
22	0xbd1ebe8d	-0.038755942
23	0xbccd4b74	-0.025060393
24	0x3db8707f	0.09005832
25	0xbc8cac2b	-0.01717194
26	0x3d090bab	0.033458393
27	0x3d69ba7a	0.057062604
28	0xbca94708	-0.020663753
29	0xbd5d708e	-0.05406242
30	0xbd70b355	-0.058764774
31	0x3c9065a0	0.017626584
32	0xbaa4349e	-0.0012527888
33	0xbc220630	-0.0098891705
34	0xbd101a8a	-0.03518156
35	0x3d9ec2a2	0.07751967
36	0x3d70075c	0.05860077
37	0xbd280cf7	-0.04102799
38	0xbbcfacff	-0.0063377614
39	0xbd5b8562	-0.053594
40	0xbcb8c0f8	-0.022552952
41	0x3b2ef555	0.0026696522
42	0x3ac3383c	0.0014894078
43	0x3ca7991c	0.02045875
44	0xbcb231ea	-0.021752317
45	0xbc2ec033	-0.010665941
46	0xbc8524a7	-0.016252829
47	0x3d50328d	0.05082946
48	0x3d6a6f06	0.057234786
49	0x3cf427bc	0.029804103
50	0x3d31a2f2	0.043368287
51	0x3d7f6133	0.062348556
52	0xbc6b82fd	-0.014374492
53	0x3caf26a0	0.021380723
54	0x3d52089d	0.051277746
55	0xbd49d071	-0.04927105
56	0xbd1c1808	-0.038108855
57	0x3a808f50	0.0009808335
58	0xbd21843f	-0.03943276
59	0x355723cf	8.014585e-07
60	0xbce8adfc	-0.028403275
61	0x3b68666b	0.0035461436
62	0x3d73debf	0.0595386
63	0xbdbb047e	-0.09131716
64	0x3d292963	0.041299235
65	0xbcb17cfc	-0.021666043
66	0x3d5034b7	0.050831523
67	0x3c6bbc3a	0.014388138
68	0x3d1ae98e	0.03782039
69	0x3c1636c5	0.0091683315
70	0x3d5f1fed	0.054473806
71	0x3ce75007	0.028236402
72	0x3d6ed0cd	0.058304597
73	0x3d7be2bb	0.061495524
74	0x3cdf024e	0.027222779
75	0x3da1622c	0.07880053
76	0x3d638845	0.05554988
77	0x3b8cbea4	0.004295187
78	0xbbcd1b0c	-0.0062593278
79	0x3c96f275	0.01842616
80	0x3cd6e783	0.02623344
81	0xbcd8d2ba	-0.02646767
82	0x3daa619d	0.083193995
83	0xbd325491	-0.04353768
84	0xbaf3b358	-0.0018592877
85	0x3ba74692	0.005104848
86	0x3d9e550b	0.077310644
87	0x3d268879	0.040657494
88	0x3d32e6de	0.043677203
89	0x3cc8112e	0.024422254
90	0x3d168980	0.036752224
91	0xbdc0ec81	-0.094201095
92	0x3c0a7d25	0.008452688
93	0x3d0580a6	0.03259339
94	0x3c0d3cd0	0.008620456
95	0xbdfea456	-0.12433688
96	0xbcfa48a2	-0.030552212
97	0x3c664474	0.014054406
98	0xbdb7a74c	-0.08967456
99	0x3cc7c2d0	0.024384886
100	0x3c34bdb0	0.011031553
101	0xbaf5b56e	-0.0018746087
102	0xbbddd4f4	-0.0067697708
103	0x3c133644	0.008985106
104	0x3db10727	0.08643942
105	0x3d61d66f	0.05513614
106	0xbd07065d	-0.032965053
107	0x3c9653ae	0.018350448
108	0x3ce0bbaa	0.027433235
109	0x3d1ae8fb	0.037819844
110	0x3cb67606	0.022273075
111	0x3d271eb7	0.040800776
112	0x3d4fc085	0.05072071
113	0x3de214ef	0.11039149
114	0x3da7085a	0.0815589
115	0xbb326e22	-0.0027226289
116	0x3c40faab	0.011778514
117	0x3d1bcd80	0.038037777
118	0xbd38ca29	-0.04511467
119	0x3cbe44b4	0.02322612
120	0x3d9818ff	0.074266426
121	0xbc434344	-0.011917893
122	0x3d888618	0.06666201
123	0xbcdd5ce5	-0.027021835
124	0x3dde5843	0.10856678
125	0x3d515c86	0.051113628
126	0xbd0483d5	-0.032352287
127	0xbd2a25c3	-0.04153992
128	0xbc0de2c5	-0.008660023
129	0xbca60ca9	-0.020269709
130	0xbd2f82ee	-0.042849474
131	0x3cae1c31	0.021253677
132	0x3d03b180	0.0321517
133	0x3d9cc9ec	0.07655701
134	0x3d51f69a	0.05126057
135	0xbcf7865b	-0.030215433
136	0x3cf43813	0.029811895
137	0xbc9f3ab9	-0.01943718
138	0x3c24e625	0.010064636
139	0x3b1acee2	0.0023621847
140	0x3da1df34	0.07903901
141	0x3d8437c2	0.064559475
142	0x3cef9f07	0.029250635
143	0x3ceb8763	0.02875108
144	0x3cbd40ea	0.023102242
145	0x3c35fa64	0.011107061
146	0xbcdd4cc4	-0.027014144
147	0x3cf29bdb	0.029615333
148	0xbd05c5bb	-0.032659274
149	0x3c2e0e10	0.01062347
150	0xbd8af804	-0.067855865
151	0x3ce308c1	0.027714135
152	0x3d720227	0.059084084
153	0x3cdbcfa2	0.026832405
154	0x3d849af0	0.064748645
155	0xbdaa4912	-0.08314718
156	0xbdd2ed83	-0.10299208
157	0x3d72b4b2	0.059254356
158	0x3d7d125d	0.06178509
159	0xbc9affdf	-0.018920837
160	0x3c0c3c9d	0.008559373
161	0x3cd501eb	0.026001891
162	0x3cae317a	0.021263827
163	0x3d8b01a9	0.06787426
164	0x3d20fda3	0.039304387
165	0x3d379d5d	0.044827808
166	0xbc5179c4	-0.012785379
167	0xbdfe2db8	-0.12411064
168	0x3d1fbdf7	0.038999524
169	0xbce70f08	-0.02820541
170	0xbd4ab8fb	-0.049492817
171	0xbd50e130	-0.050996006
172	0x3b430ac4	0.0029761055
173	0xba7235a0	-0.0009239558
174	0xbd1411e2	-0.036149867
175	0x3ca498f9	0.020092474
176	0xbc8ac9ef	-0.016941993
177	0x3c875b1a	0.016522933
178	0xbd5554b9	-0.05208275
179	0xbd1524b2	-0.03641195
180	0xbd539d1a	-0.051663496
181	0x3c8ee917	0.01744513
182	0x3c057ca3	0.0081473915
183	0x3db8c530	0.090219855
184	0x3c44f75f	0.0120218685
185	0x3ce80674	0.02832339
186	0x3ac07b90	0.0014685262
187	0xbd8d0816	-0.06886308
188	0x3c2ad0a4	0.01042572
189	0x3d0f6b44	0.035014406
190	0x3c989740	0.01862681
191	0x3cea4bed	0.028600657
192	0xbd836789	-0.06416232
193	0x3ca53127	0.02016504
194	0xbd763a61	-0.06011427
195	0x3d3c9f15	0.04605015
196	0xbd4ebce3	-0.050473105
197	0xbc3b5384	-0.011433486
198	0xbcdc7625	-0.026911804
199	0x3cf41a09	0.02979757
200	0x3d3d6fca	0.04624919
201	0x3cf60ab4	0.0300344
202	0x3d95a0b8	0.07306045
203	0x3db4785e	0.08812021
204	0xbd834de7	-0.06411343
205	0xbc91f366	-0.017816257
206	0xbd72e592	-0.059300967
207	0x3d20060c	0.039068267
208	0x3c26ecf6	0.010188332
209	0xbc1d4dde	-0.0096010845
210	0x3e005875	0.12533744
211	0xbb846e86	-0.0040414957
212	0x3ab96716	0.0014145102
213	0xbc67e1a0	-0.014152914
214	0x3e1a6112	0.15076092
215	0xbd066867	-0.03281441
216	0xbbf67c80	-0.007522166
217	0x3d88d428	0.066810906
218	0x3c1228ff	0.008920907
219	0x3ca651ff	0.02030277
220	0x3dad8e24	0.08474377
221	0x3d83e9ed	0.06441102
222	0x3b3aef61	0.0028524029
223	0xbd7f08e9	-0.062264357
224	0xbbd65917	-0.006541382
225	0x3cb67eff	0.022277353
226	0x3b6b72d8	0.0035926607
227	0xbdbd1868	-0.09233171
228	0x3da38484	0.0798426
229	0x3d4e4527	0.050358918
230	0x3d8e613b	0.06952139
231	0x3c6ee321	0.014580519
232	0x3dccd51b	0.10001584
233	0xbcaa2081	-0.020767452
234	0x3d00fc42	0.03149057
235	0x3cf7a2e8	0.030229047
236	0xba88d663	-0.0010439869
237	0x3cc3fd66	0.02392454
238	0xbd8dcc45	-0.06923727
239	0x3c950361	0.018190088
240	0x3dd38ea6	0.103299424
241	0xbc8696a7	-0.016429259
242	0x3dc93cf0	0.09826076
243	0x3ce0b73f	0.027431129
244	0x3da83e7b	0.08215042
245	0x3b59f98d	0.0033260316
246	0xbd167695	-0.036734182
247	0x3d0a03fa	0.0336952
248	0x3da6c6cd	0.08143387
249	0xbb09d8fb	-0.0021033871
250	0x3cc8c959	0.024510073
251	0x3cc57353	0.024102842
252	0xbd18b9b7	-0.037286486
253	0x3c277c0b	0.010222445
254	0x3cddb382	0.027063135
255	0x382ed567	4.168358e-05

network_body._body_endoder.seq_layers.0.weight f4 [256, 266]
0	0x3d6fca2c	0.058542415
1	0x3dadb5db	0.08481952
2	0xbbf6ebd6	-0.007535438
3	0xbd5feb50	-0.05466777
4	0x3d1b2034	0.03787251
5	0xbc9857dd	-0.018596584
6	0xbd96a2b8	-0.07355255
7	0x3e44fb07	0.19236384
8	0xbdd4705d	-0.10372994
9	0x3d9ae5a4	0.07563332
10	0x3da54aa2	0.08070876
11	0x3cf71d59	0.030165361
12	0x3de3f9ee	0.11131655
13	0xbd70744b	-0.058704656
14	0x3d9853b9	0.07437844
15	0xbdb6b581	-0.08921338
16	0xbc6480a5	-0.013946687
17	0x3af9c9d2	0.001905734
18	0x3d4a68f9	0.049416516
19	0xbd961ddc	-0.07329914
20	0xbdf2f1e7	-0.118625455
21	0x3d667a7a	0.056269147
22	0x3d2861c3	0.041108858
23	0x3c6ca8ee	0.014444573
24	0xbd493e84	-0.049131885
25	0xbdd7b65a	-0.10532828
26	0x3da3d995	0.08000485
27	0xbc4883d7	-0.012238464
28	0xbd17730d	-0.036974955
29	0x3da36917	0.07979029
30	0xbd736345	-0.059420843
31	0xbd52e8fb	-0.05149172
32	0x3d3b2ce8	0.045697123
33	0xbdffa41c	-0.12482473
34	0x3e25959f	0.16170357
35	0x3d49427d	0.049135674
36	0xbc52a8b2	-0.012857603
37	0x3c97ced7	0.018531246
38	0x3da4ca65	0.08046416
39	0xbd9b0135	-0.075685896
40	0x3ce43795	0.027858535
41	0xbd4b7356	-0.04967054
42	0x3d8bc2a5	0.06824235
43	0x3dff6dc2	0.124721065
44	0x3d8f575b	0.069990836
45	0x3e4a6572	0.19765261
46	0x3e1d8c4d	0.15385552
47	0xbd7702a2	-0.060305245
48	0x3d65f7e1	0.0561446
49	0xbd9e327a	-0.077244714
50	0xbd773507	-0.060353305
51	0x3b9867a2	0.004651026
52	0x3b21d277	0.0024692097
53	0x3c892ea7	0.016745878
54	0xbde08c0a	-0.1096421
55	0x3e7d11b2	0.24713781
56	0x3e16735e	0.14692447
57	0x3d0750cb	0.033036035
58	0x3e005c87	0.12535296
59	0xbe29416d	-0.16528864
60	0x3c9896a0	0.018626511
61	0x3d110666	0.035406493
62	0xbe2c6884	-0.16836745
63	0xbcbb3613	-0.022852933
64	0x3dfc46c8	0.12318188
65	0x3d095dc6	0.033536695
66	0xbd044c16	-0.032299124
67	0xbe1f3281	-0.1554661
68	0xbd5ffa38	-0.054681987
69	0x3d77b330	0.06047362
70	0x3dd6ce94	0.104886204
71	0xbd4feb87	-0.050761726
72	0x3d0b4399	0.034000013
73	0x3e67ff32	0.22655943
74	0x3c8bf04b	0.017082354
75	0xbe116298	-0.14197767
76	0x3c495958	0.012289368
77	0x3dc87f5d	0.097899176
78	0x3bc01ae7	0.005862582
79	0x3de685d3	0.11255994
80	0x3db235e2	0.087016836
81	0x3ca7c488	0.020479456
82	0x3d93475c	0.07191345
83	0x3ddea88d	0.10871992
84	0x3d19bbb7	0.037532534
85	0xbd677b8b	-0.056514304
86	0x3cf911ea	0.03040405
87	0xbc5de1c8	-0.0135426
88	0x3e62abd9	0.22135867
89	0x3e6c5920	0.23080873
90	0x3d73780f	0.05944067
91	0x3c7c4cdd	0.015399185
92	0xbd041f71	-0.032256547
93	0x3dd34122	0.103151575
94	0xbbefaa75	-0.0073140212
95	0xbd7952d7	-0.060870018
96	0x3d808044	0.06274465
97	0x3d986524	0.07441166
98	0x3d37c46c	0.044865057
99	0x3c96640e	0.018358257
100	0xbc931a3a	-0.017956842
101	0x3d4a76e8	0.049429804
102	0x3db8f6a5	0.09031419
103	0x3e0193f4	0.12654096
104	0xbe46c27a	-0.19410124
105	0x3c61a7f7	0.013772956
106	0xbd79fa44	-0.061029688
107	0xbc2d939f	-0.010594278
108	0x3dcb74ad	0.099343635
109	0xbdadbe92	-0.08483614
110	0xbdd3ffca	-0.10351522
111	0x3ce6c572	0.028170321
112	0x3e0433a6	0.12910327
113	0xbd21a2e8	-0.039462
114	0x3e53f1fd	0.2069778
115	0xbd921494	-0.07132831
116	0x3c15b9ac	0.009138506
117	0x3e01ff3a	0.12695017
118	0x3b777ed8	0.0037764814
119	0xbd17f9a1	-0.0371033
120	0xbcc2cd91	-0.023779662
121	0x3e033dbd	0.1281652
122	0x3dc60939	0.09669728
123	0x3e334e5b	0.17510359
124	0x3e40bf70	0.18823028
125	0x3cd1bba9	0.025602179
126	0x3b76be60	0.0037650093
127	0x3dce9b42	0.10088207
128	0x3e27110c	0.16315097
129	0x3e1b67c2	0.15176299
130	0xbd1ed5c2	-0.038778074
131	0x3c9c6ccd	0.019094849
132	0x3c708942	0.014681162
133	0xbd6b1935	-0.057397086
134	0x3e2e8df7	0.17046343
135	0x3cc3773c	0.023860566
136	0xbd09821c	-0.033571348
137	0x3df3e4f8	0.11908907
138	0x3d4562a3	0.04818977
139	0x3db71811	0.08940137
140	0x3d070edb	0.03297315
141	0x3c38be7e	0.011275886
142	0x3e1f17b8	0.15536392
143	0x3cea5de6	0.028609227
144	0x3de918b2	0.113816634
145	0xbd9f94c3	-0.07792046
146	0xbd35ec32	-0.044414707
147	0x3e302b7b	0.17204086
148	0x3c90da00	0.017682076
149	0x3dbc4453	0.09192719
150	0x3cc502e5	0.024049232
151	0x3e20b1a3	0.15692763
152	0xbb9e006c	-0.0048218276
153	0x3e49cfa9	0.19708122
154	0x3e1830de	0.14862391
155	0xbd14c2bb	-0.036318522
156	0x3d8ae747	0.06782394
157	0x3c6f9c43	0.014624658
158	0x3d974fb9	0.07388253
159	0x3d0d0326	0.03442683
160	0x3df3060d	0.118663885
161	0x3d9f6ce2	0.077844396
162	0x3d0a583f	0.033775564
163	0xbd75ed94	-0.060041025
164	0x3d828c1c	0.0637438
165	0x3d331bf1	0.04372782
166	0x3df844e8	0.12122518
167	0xbbf654b6	-0.0075174225
168	0xbd15b19a	-0.036546327
169	0xbdcb978f	-0.09941017
170	0xbdd17ad5	-0.102285065
171	0xbc384af8	-0.011248343
172	0x3dc02faf	0.09384095
173	0x3d3bb6d6	0.045828663
174	0x3c37b0ad	0.011211556
175	0xbd8df670	-0.0693177
176	0x3ce83eaa	0.028350193
177	0xbe3d20fa	-0.18469611
178	0x3cacd6a8	0.02109845
179	0xbd09eb86	-0.03367188
180	0xbd5678f9	-0.052361462
181	0x3e6d4047	0.23169051
182	0x3d98fbe0	0.07469916
183	0xbdcb4cd3	-0.099267624
184	0x3ab0fb22	0.0013502578
185	0xbd7269df	-0.059182998
186	0xbd4e85d9	-0.050420616
187	0xbe2ba2e1	-0.16761352
188	0x3d51b1b4	0.05119486
189	0x3d828ac9	0.063741274
190	0xbdca80b8	-0.098878324
191	0xba651662	-0.0008738992
192	0xbc4a7abd	-0.012358365
193	0x3e326e88	0.17424977
194	0xbd96f383	-0.07370665
195	0x3c20e4fe	0.009820221
196	0x3ba6347d	0.005072175
197	0xbd21a697	-0.039465513
198	0x3da9ff6e	0.083006725
199	0xbe62dc04	-0.22154242
200	0xbba40de0	-0.005006537
201	0xbb5d3c9f	-0.0033758057
202	0xbe161b0f	-0.1465876
203	0xbcba5fc0	-0.022750735
204	0x3db6228f	0.0889331
205	0xbd049521	-0.032368783
206	0x3cc1aba4	0.023641415
207	0xbd52542a	-0.051349796
208	0xbce917bc	-0.0284537
209	0x3dd796eb	0.10526832
210	0xbe1177e6	-0.14205894
211	0x3b2b797b	0.0026164937
212	0xbc1e85a1	-0.009675414
213	0xbd4d4be1	-0.050121192
214	0xbe604251	-0.21900298
215	0x3dd70a5c	0.10500023
216	0x3d1b0285	0.0378442
217	0x3cd4c894	0.02597455
218	0x3bcf8aa4	0.006333666
219	0xbdbeeff7	-0.093231134
220	0xbdb7c9f0	-0.089740634
221	0x3dab6c11	0.083702214
222	0xbd89f4c5	-0.06736139
223	0xbd7ca001	-0.06167603
224	0xbe24d460	-0.1609664
225	0x3d8dac78	0.069176614
226	0xbd3de9e6	-0.04636564
227	0x3c23c768	0.009996273
228	0x3c33cf45	0.01097471
229	0xbda57b0c	-0.0808011
230	0x3e1f7769	0.15572895
231	0x3b9b5562	0.004740403
232	0x3de2d5d1	0.110759385
233	0xbd5b2106	-0.05349829
234	0xbd04ee03	-0.03245355
235	0x3de3a18f	0.11114799
236	0x3d884af2	0.0665492
237	0x3c7b7a36	0.015348962
238	0x3d68c9b7	0.056832995
239	0xbd5be31d	-0.05368339
240	0x3d5ce194	0.053926066
241	0xbd4bbd53	-0.0497411
242	0xbd298765	-0.041388888
243	0xbe2aea19	-0.16690864
244	0x3e30f897	0.1728233
245	0x3dbe821b	0.093021594
246	0xbd3440a4	-0.04400696
247	0xbd097924	-0.033562794
248	0x3cae8202	0.021302227
249	0xbe0f268a	-0.13979545
250	0xbd8e3ec2	-0.06945564
251	0x3ddb1ac2	0.10698463
252	0x3e2024bb	0.15639012
253	0xbc598846	-0.013277119
254	0x3cdeaaef	0.027181117
255	0xbb833bb2	-0.004004919

network_body._body_endoder.seq_layers.0.bias f4 [256]
0	0x3cf7f513	0.030268228
1	0x3bc1c762	0.005913661
2	0xbcfd675e	-0.030933078
3	0xbc209391	-0.009800808
4	0xbd01b337	-0.031665053
5	0x3d50cb29	0.050975
6	0x3c70cff3	0.014698016
7	0x3c76a52d	0.015054029
8	0x3cdf991d	0.02729469
9	0xbc9f85bc	-0.01947295
10	0x3bb6ed4e	0.005582488
11	0xbd29f5e9	-0.041494284
12	0xbae6c708	-0.0017606923
13	0xbd4c1a2d	-0.04982965
14	0x3c4d24b1	0.012520955
15	0xbcd5848f	-0.026064185
16	0xbd813073	-0.06308069
17	0x3b5ec131	0.0033989663
18	0x3c18fdbd	0.00933784
19	0xbd7631f2	-0.060106225
20	0x3ba93ebe	0.00516495
21	0xbcba5e50	-0.02275005
22	0xbb9403d0	-0.004517056
23	0xbd64c3ca	-0.05585078
24	0x3c1bd053	0.009510118
25	0x3d8c3af2	0.068471804
26	0xbcf3db7c	-0.029767744
27	0x3d5721ca	0.052522458
28	0x3c2a44f2	0.010392414
29	0x3c16b581	0.009198547
30	0xbc251da2	-0.010077866
31	0xbc3aee97	-0.011409423
32	0xbca89f94	-0.020583905
33	0xbc00f9bf	-0.007872044
34	0xbbaa3b3a	-0.0051950486
35	0xbd12bb41	-0.03582311
36	0xbd2dc580	-0.04242468
37	0xbd306d22	-0.043072827
38	0xbd12dc50	-0.035854638
39	0xbca54bda	-0.02017777
40	0x3ccc58e1	0.024944725
41	0x3c36006a	0.011108497
42	0x3beb1aa5	0.007174807
43	0xbd02a29f	-0.03189337
44	0xbc8e5fe1	-0.017379703
45	0x3d31ad3a	0.043378092
46	0xbd43d4b0	-0.047810256
47	0x3d00ed12	0.031476088
48	0xbc879355	-0.016549746
49	0x3c5ae7cb	0.013360928
50	0xbcd8cf5a	-0.02646606
51	0xbc659f04	-0.014014963
52	0x3b325868	0.0027213339
53	0xbbc4ef3d	-0.0060099647
54	0xbaf6d087	-0.0018830457
55	0xbcda425b	-0.026642969
56	0xbd2c349e	-0.042042367
57	0xbd02ebb5	-0.03196307
58	0x3aac22f8	0.001313298
59	0xbd164cc4	-0.036694303
60	0xbd19773e	-0.037467234
61	0x3d184682	0.037176616
62	0xbd2cffa3	-0.04223598
63	0x3b3b20c0	0.0028553456
64	0xbc48b52c	-0.012250226
65	0x3c166617	0.009179614
66	0x3cc9df84	0.024642713
67	0xbd2e747a	-0.04259155
68	0xbcc838c6	-0.024441134
69	0xba5727d4	-0.0008207534
70	0x3cd5cdf3	0.02609918
71	0x3ce5f81d	0.028072411
72	0x3c691c36	0.014227917
73	0x3cf6954f	0.030100493
74	0xbcc976fc	-0.024592869
75	0x3d24a702	0.040198334
76	0x3d15dc4a	0.036587037
77	0x3c9390bd	0.018013353
78	0xbcae4828	-0.021274641
79	0xbd1a583f	-0.037681814
80	0xbc546079	-0.012962454
81	0xbd2fc3f3	-0.04291148
82	0xbd3892c7	-0.045061853
83	0xbcb717bd	-0.022350186
84	0xbd410119	-0.047120187
85	0x3d27201d	0.04080211
86	0x3c396424	0.011315379
87	0x3d6cf1ac	0.057847664
88	0xbcc1c158	-0.023651764
89	0x3d173559	0.03691611
90	0xbb624cfa	-0.0034530745
91	0x3c1247d7	0.008928261
92	0x3cdbdd57	0.026838941
93	0xbb8711aa	-0.004121979
94	0x3bc6769f	0.006056621
95	0xbc071579	-0.008244866
96	0xbc9a3c58	-0.018827602
97	0x3ca7f64d	0.020503188
98	0x3d1ea860	0.038734794
99	0xbc122de7	-0.008922077
100	0xbc94e71a	-0.018176604
101	0x3c3a413d	0.011368093
102	0x3b4fcacb	0.0031706567
103	0xb912f4f9	-0.00014014904
104	0xbd827df6	-0.063716814
105	0x3cd70205	0.02624608
106	0xbd09a677	-0.03360602
107	0xbb2f0e2a	-0.0026711323
108	0x3c9c5284	0.019082315
109	0xbba62d68	-0.005071331
110	0x3ca1900c	0.019722007
111	0xbc774136	-0.015091231
112	0xbdc701a3	-0.09717109
113	0x3c870ade	0.016484674
114	0xbd4930ac	-0.049118683
115	0xbd36fba5	-0.04467358
116	0x3d853b19	0.065054126
117	0x3d3417dc	0.043968067
118	0xbcd73544	-0.026270516
119	0x3c0f78df	0.008756845
120	0x3cca5018	0.024696395
121	0xbc1dd786	-0.009633904
122	0x3cd726ab	0.026263556
123	0xbd0be0fd	-0.034150112
124	0xbc08bea2	-0.008346232
125	0xba826979	-0.0009949646
126	0x3b259c9d	0.002527035
127	0x3c9c7971	0.019100877
128	0xbcd015da	-0.025401045
129	0x3abeb411	0.0014549514
130	0xbd2d87c8	-0.04236582
131	0x3cc00a88	0.023442522
132	0xbc98369c	-0.018580727
133	0xbc9ef7aa	-0.019405205
134	0x3ca4043a	0.020021547
135	0xbaa2a7c3	-0.0012409616
136	0x3d2dbfe9	0.042419348
137	0x3d4dde46	0.050260805
138	0x3c8a9d05	0.016920576
139	0xbc0da4f7	-0.008645288
140	0x3cad93b6	0.021188598
141	0xbc874a53	-0.016514933
142	0x3c13ede1	0.009028883
143	0xbcbedcd2	-0.023298655
144	0xbd03391a	-0.03203688
145	0x3d8b7be9	0.06810743
146	0xbc9c939e	-0.019113358
147	0xbb6d5e0b	-0.0036219384
148	0x3d310416	0.043216787
149	0xbc10b3bf	-0.008831917
150	0x3c874332	0.016511533
151	0xbc3bac2f	-0.011454626
152	0xbcbf7921	-0.023373188
153	0x3abec7cf	0.0014555397
154	0xbc57fc76	-0.01318275
155	0xbd14dfd5	-0.036346275
156	0x3c8141ad	0.015778387
157	0xbc471341	-0.012150587
158	0xbd9438d6	-0.07237403
159	0xbd6d7f33	-0.057982635
160	0xbd7815cf	-0.060567673
161	0xbd323cba	-0.043514945
162	0xbcbb89ae	-0.0228928
163	0xbd00fb81	-0.031489853
164	0xbb5fa38b	-0.0034124579
165	0x3d2a87e5	0.041633505
166	0xbd24e712	-0.04025943
167	0xbbb3499a	-0.0054714205
168	0x3d2faca3	0.04288925
169	0x3ba8dd9e	0.005153372
170	0xbbf6c1a0	-0.007530406
171	0xbd1750f6	-0.036942445
172	0x3d057fdd	0.032592643
173	0x3b993000	0.0046749115
174	0xbcada1bb	-0.021195283
175	0xbcf05de6	-0.02934165
176	0x3cf5fb4a	0.03002705
177	0x3d034995	0.032052595
178	0xbc278bef	-0.010226234
179	0x3c1c47b2	0.009538578
180	0x3d224dbe	0.039624922
181	0x3b1254dd	0.0022328414
182	0x3d08846d	0.033329416
183	0x3d097e52	0.033567734
184	0xbd863fba	-0.065551236
185	0xbd8fdd3e	-0.070246205
186	0x3d17b6f2	0.037039705
187	0x3bc129f4	0.005894894
188	0xbd34c365	-0.044131655
189	0xbd47058d	-0.048589278
190	0x3ca1c3df	0.019746719
191	0xbb74beec	-0.0037345244
192	0x3c3182fe	0.010834454
193	0x3d272d9a	0.040814973
194	0xbd078de9	-0.03309432
195	0xbd29688e	-0.041359477
196	0x3b5061db	0.0031796608
197	0xbcfe2f74	-0.031028487
198	0x3cbae80f	0.022815732
199	0xbc8e6fa6	-0.017387222
200	0x3d50b92d	0.050957847
201	0xbc30b772	-0.010785924
202	0x3c6e1035	0.014530231
203	0xbc5b5b74	-0.013388503
204	0x3cebcca8	0.028784111
205	0x3d7ba8c9	0.061440263
206	0xb9d510a7	-0.00040638933
207	0x3d11e30f	0.03561693
208	0x3b11e32f	0.0022260656
209	0xbd9a6d82	-0.07540418
210	0xbcf135de	-0.029444631
211	0xbc46f2cd	-0.012142849
212	0x3ba436ce	0.005011416
213	0x3c6e034f	0.014527156
214	0xbcf7df1f	-0.03025776
215	0x3c2c9810	0.010534301
216	0x3c90515b	0.017616918
217	0xbc7d0db0	-0.015445158
218	0x3b965b32	0.004588508
219	0x3aa480ac	0.0012550554
220	0xbd50639a	-0.050876237
221	0x3c9c2fe2	0.019065801
222	0x3caf8221	0.021424355
223	0xbd19483a	-0.037422396
224	0xbb91e31f	-0.004452124
225	0x3bc7e55e	0.0061003407
226	0x3d8a03b4	0.067389876
227	0xbc634d95	-0.0138734775
228	0x3d4aa466	0.04947319
229	0x3b565d73	0.0032709509
230	0x3d58c154	0.052918747
231	0xbb17e4e1	-0.0023177194
232	0xbd258c63	-0.040417086
233	0x3d1c9893	0.038231444
234	0x3d52f793	0.051505636
235	0xbcf3e629	-0.029772835
236	0xbc9a75c8	-0.01885499
237	0xbd179fd2	-0.03701765
238	0x3d0032fc	0.031298622
239	0xbc3eba0e	-0.011641039
240	0xbdb3533b	-0.08756109
241	0x3bb906bb	0.0056465543
242	0x3c975d48	0.018477097
243	0xbce3d178	-0.027809843
244	0xbb8081df	-0.003921732
245	0xbba499c6	-0.005023214
246	0xbc4dab7e	-0.012553094
247	0x3d1c267d	0.038122643
248	0xbb26a773	-0.0025429397
249	0x3c75c1ba	0.014999801
250	0xbc820f79	-0.015876519
251	0xbd874ef4	-0.06606856
252	0x3bc73e0c	0.0060803946
253	0x3c3b8137	0.011444381
254	0xbd323244	-0.04350497
255	0xbc03a9f3	-0.0080361245

network_body._body_endoder.seq_layers.2.weight f4 [256, 256]
0	0x3c9427ef	0.018085448
1	0x3c99ba60	0.018765628
2	0x3d6bbcef	0.057553228
3	0xbdb4ec29	-0.088341065
4	0x3d8467ac	0.06465086
5	0x3e0aa7db	0.13540594
6	0x3dee993e	0.116503224
7	0x3d310163	0.043214213
8	0xbe310fa2	-0.1729112
9	0x3cafb8e3	0.021450466
10	0x3e3ebc00	0.18626404
11	0x3d0ea717	0.034827318
12	0xbde5e4d1	-0.11225284
13	0xbe1451b7	-0.14484297
14	0x3df507fd	0.11964414
15	0x3d22c9bd	0.039743174
16	0xbd9aeb86	-0.07564454
17	0xbd9ab689	-0.07554347
18	0x3d824d21	0.063623674
19	0xbbcbebb5	-0.006223167
20	0x3d8afbfb	0.06786343
21	0xbc06cbd3	-0.008227306
22	0xbd8f892b	-0.070085846
23	0xbe079735	-0.13241275
24	0xbcf5b392	-0.029992852
25	0x3d027979	0.031854127
26	0x3d03223b	0.032015067
27	0x3d1416bd	0.036154497
28	0xbdbd2d36	-0.09237139
29	0x3b57cc1e	0.003292806
30	0xbbfd6f6b	-0.0077342293
31	0xbe341ec2	-0.17589858
32	0xbd5149b1	-0.05109567
33	0xbd3ff0ba	-0.046860434
34	0x3ce011ba	0.027352203
35	0xbe3476ef	-0.17623495
36	0xbdcd0bf1	-0.10012043
37	0xbbe28033	-0.006912255
38	0xbe12c75a	-0.14333859
39	0x3d821860	0.063523054
40	0x3d1baaac	0.038004562
41	0x3d8db272	0.06918801
42	0xbd9c73ba	-0.076392606
43	0xbe0de16b	-0.13855521
44	0x3d57233c	0.052523836
45	0x3ddc4332	0.10755004
46	0xbda93175	-0.08261386
47	0x3c21ffe8	0.009887673
48	0xbe2686d9	-0.16262378
49	0x3c2bf5b4	0.010495592
50	0xbe25ca1a	-0.16190377
51	0x3dbc0544	0.09180692
52	0x3dc52a1a	0.09627171
53	0xbdcb6b37	-0.09932559
54	0xbbf1ba57	-0.00737695
55	0xbc88658b	-0.016649982
56	0xbdb1b8a5	-0.08677796
57	0xbd4e9ea2	-0.050444253
58	0x3d90cf02	0.070707336
59	0xbdbfaa99	-0.09358711
60	0xbd70ef35	-0.058821876
61	0xbd917c3d	-0.07103775
62	0xbd9c04cb	-0.07618102
63	0xbde3b3a1	-0.11118246
64	0x3db10bc1	0.0864482
65	0xbdc241dc	-0.09485218
66	0xbe1bed24	-0.1522718
67	0xbd58ef0c	-0.052962348
68	0x3dc2d2dd	0.09512875
69	0xbd28de61	-0.041227702
70	0xbd674b22	-0.056468137
71	0x3c655ab0	0.013998672
72	0xbe2cdae3	-0.16880374
73	0xbda002ed	-0.07813058
74	0x3cce8fbd	0.025215024
75	0x3c66dac0	0.01409024
76	0x3bdf201e	0.0068092486
77	0x3c304bcb	0.010760258
78	0x3e050a45	0.12992199
79	0xbd049d99	-0.03237686
80	0x3dc3a792	0.09553446
81	0xbe12f657	-0.14351784
82	0x3db30a65	0.08742217
83	0xbdb89801	-0.090133674
84	0xbd835f04	-0.06414607
85	0x3e8d42c7	0.2759001
86	0x3e4b7381	0.1986828
87	0xbcfb6060	-0.030685604
88	0x3d157c3b	0.03649543
89	0x3c4cfec2	0.012511911
90	0xbba75eaf	-0.0051077227
91	0xbd477a64	-0.048700705
92	0x3c94d7e7	0.018169357
93	0xbd430457	-0.04761156
94	0x3d333123	0.043748032
95	0xbb45915e	-0.003014646
96	0xbdff5ce3	-0.124688886
97	0x3cafe47d	0.021471256
98	0x3e09202c	0.13391179
99	0xbde311a7	-0.11087351
100	0x3c780b95	0.01513948
101	0xbe369aeb	-0.17832534
102	0xbc39de3a	-0.011344487
103	0xbd020c23	-0.031749856
104	0x3d134c45	0.03596141
105	0xbde5c6d1	-0.11219562
106	0xbdb3e1de	-0.08783315
107	0x3cbe6da7	0.023245646
108	0x3d96bd53	0.073603295
109	0xbdcfc130	-0.101442695
110	0x3e15d00c	0.14630145
111	0x3e100e29	0.14067902
112	0xbdc0f71f	-0.094221346
113	0xbd940fa4	-0.07229546
114	0xbe23c730	-0.15993953
115	0x3d98fcc4	0.07470086
116	0xbd201a86	-0.039087795
117	0x3b7cf237	0.003859652
118	0x3cabbfd1	0.020965489
119	0x3df93aa1	0.12169386
120	0xbd3762e1	-0.044772033
121	0xbd312a94	-0.043253496
122	0xbdd4fcf4	-0.103998095
123	0xbcadbe02	-0.021208767
124	0x3d745436	0.059650622
125	0xbc123699	-0.00892415
126	0xbd313a1a	-0.0432683
127	0xbe1085ec	-0.14113587
128	0xbe2aeb8f	-0.16691421
129	0x3e132f00	0.14373398
130	0x3e0ab0e1	0.13544036
131	0x3da3534e	0.079748735
132	0x3d3c9d73	0.046048593
133	0x3d9985d8	0.07496232
134	0x3d5aa841	0.053383116
135	0xbd3e81ad	-0.046510387
136	0xbd2f44f8	-0.042790383
137	0x3c87de8f	0.016585616
138	0x3c83cfa3	0.01609022
139	0x3e05a06f	0.13049482
140	0x3e13a2dc	0.14417595
141	0x3d459588	0.048238307
142	0x3c4e2ddd	0.012584177
143	0xbdc6e9f9	-0.097125955
144	0xbd30e4d6	-0.043186985
145	0x3d13fcfc	0.036129937
146	0xbc97bbd9	-0.01852219
147	0x3ceefab5	0.02917228
148	0xbd0b27d5	-0.033973534
149	0xbd9e3a6f	-0.07725989
150	0xbdc11cd5	-0.094293274
151	0xbdc2f784	-0.09519866
152	0xbd849591	-0.0647384
153	0xbca28434	-0.01983843
154	0xbdcaea2e	-0.099079475
155	0x3de6dd2c	0.11272654
156	0xbd09db93	-0.033656668
157	0xbdc53a55	-0.096302666
158	0xbe824486	-0.25442904
159	0xbd226812	-0.03965003
160	0x3da373dd	0.079810835
161	0x3cf201b6	0.029541831
162	0xbdd5ca23	-0.10438945
163	0xbe4c4074	-0.19946462
164	0x3b37a515	0.002802198
165	0x3d4b24ae	0.049595527
166	0xbbdb001e	-0.0066833636
167	0xbdadd6a8	-0.08488208
168	0xbd47ce97	-0.048781004
169	0x3dc7f677	0.09763806
170	0xbd9a2af3	-0.07527723
171	0xbda08cee	-0.0783938
172	0xbdd52107	-0.1040669
173	0xbe124b23	-0.14286475
174	0xbda9b545	-0.082865275
175	0xbc39fca1	-0.011351735
176	0x3d17293b	0.036904555
177	0xbd2e4407	-0.042545345
178	0x3cb2f012	0.02184299
179	0x3d8919df	0.06694388
180	0x3dfc9fc2	0.12335159
181	0x3e2100f3	0.15723018
182	0x3dd78708	0.10523802
183	0xbc523586	-0.012830144
184	0xbd30b787	-0.043143775
185	0xbdccb7d8	-0.09996003
186	0xbc84c024	-0.016204901
187	0xbd004889	-0.031319175
188	0xbdafbfed	-0.08581529
189	0x3db028bd	0.0860152
190	0x3c921daf	0.01783642
191	0x3c4db07d	0.012554285
192	0x3d0eb899	0.034844015
193	0x3d995da8	0.07488567
194	0xbc592936	-0.013254454
195	0xbcfb67ac	-0.030689083
196	0xbd752237	-0.059847083
197	0x3cdaead6	0.026723307
198	0xbc814244	-0.015778668
199	0xbe62ad6a	-0.22136465
200	0x3d9f60d9	0.07782144
201	0xbd843c3b	-0.064568006
202	0x3e12d508	0.14339077
203	0xbd75c2bc	-0.060000166
204	0xbc77b481	-0.015118719
205	0x3dd48e45	0.10378698
206	0xbe01f9f6	-0.12693009
207	0xbbbf95ea	-0.0058467286
208	0xbe8ce8de	-0.27521414
209	0xbdc50fe4	-0.096221715
210	0x3e556396	0.2083877
211	0xbe26c587	-0.16286288
212	0x3dc5db3b	0.096609555
213	0x3d759b20	0.05996239
214	0xbda3b9a0	-0.079943895
215	0xbd3dfd55	-0.046384174
216	0xbdcb663f	-0.09931611
217	0xbdf6407a	-0.12024017
218	0x3c7de649	0.015496799
219	0xbd9d3bdc	-0.07677433
220	0xbd6cfef6	-0.057860337
221	0xbe37d501	-0.17952348
222	0xbcbeb773	-0.023280835
223	0xbdd980e4	-0.10620287
224	0xbd2ed889	-0.042686973
225	0xbd97eb22	-0.07417895
226	0x3e36839a	0.1782364
227	0xbd8b17a5	-0.06791619
228	0xbba08ee9	-0.0048998487
229	0xbe1dfca7	-0.1542841
230	0x3c047228	0.008083858
231	0x3d79f5e6	0.061025523
232	0xbe835d95	-0.25657335
233	0xbd3a6b25	-0.045512337
234	0x3e0d43c4	0.13795382
235	0x3c81a17c	0.015824072
236	0xbdc95ae8	-0.09831792
237	0xbdd202ca	-0.10254438
238	0x3d7567b9	0.05991337
239	0x3d6adc85	0.05733921
240	0x3ba677e1	0.0050802086
241	0xbdf21195	-0.1181976
242	0xbb64d40b	-0.0034916427
243	0xba031899	-0.0005000919
244	0x3dfd8e9a	0.12380715
245	0x3d8a256f	0.06745421
246	0xbc2cf635	-0.010556747
247	0xbd53da91	-0.051722113
248	0xbde671e0	-0.11252189
249	0x3c66385d	0.014051524
250	0xbe7de460	-0.2479415
251	0x3e281989	0.16415991
252	0xbd8db29a	-0.06918831
253	0x3d81418f	0.063113324
254	0x3d5d1742	0.05397726
255	0x3dd33640	0.10313082
