results/PushBlockCollab_POCA/PushBlockCollab/PushBlockCollab-13999999.onnx (onnx, 643240 bytes, 12 tensors)

network_body.observation_encoder.processors.0.conv_layers.0.weight f4 [16, 6, 8, 8]
0.026572945 0.022050496 -0.10587076 0.028931476 0.058058184 0.08044514 0.0071200323 -0.021584263
0.0064443597 -0.091281645 0.035090208 -0.093559 0.014401921 -0.017264025 0.010529249 -0.02958167
-0.009990162 -0.13692291 -0.03341952 -0.057222925 -0.048394874 -0.036509614 -0.013479164 0.085025385
-0.022289744 0.039216157 0.0067076297 -0.07420893 -0.05018664 0.054699063 -0.08054401 0.07442986
-0.08617619 -0.16985705 -0.10413423 -0.001750792 -0.060448933 0.09104893 0.056344967 0.08043963
-0.018353503 -0.04397464 -0.1181687 -0.0029848018 -0.083649114 0.13709596 0.061604027 -0.028616894
-0.054258663 -0.075545706 -0.116444714 -0.05936175 -0.032830272 0.11500729 0.04506159 -0.09457757
0.058204416 -0.055712998 -0.011066972 -0.016559994 0.004328049 0.073524244 -0.08734216 -0.055853978
-0.08549155 -0.16921484 -0.013584215 0.054933865 -0.074297525 -0.0026341751 0.04604099 -0.011080931
-0.13434055 -0.07779002 -0.031680245 -0.0784003 -0.17958997 -0.007695164 0.062539525 -0.068680346
-0.1322734 0.06879308 0.23236275 0.111728854 0.114492126 0.07348892 0.0786203 0.017122073
-0.10790988 0.049239267 0.12005684 0.11020567 0.033905786 -0.10851981 -0.007051808 0.01747317
0.00084672525 0.023707679 0.1266293 0.2279743 0.10378096 -0.0026294412 -0.0029638575 -0.03606933
0.08299253 0.06562914 0.073643215 0.1845581 0.045156594 -0.012211256 0.12017008 0.03815008
0.10054565 0.10469416 -0.01630937 0.010150652 -0.10016351 -0.089281365 -0.053300418 0.0030033912
0.06595572 0.006222691 -0.035148 -0.028436033 0.01635304 -0.07689446 0.022751998 0.037619386
-0.13271625 -0.10088747 -0.10494835 -0.1444857 -0.11663066 -0.088906646 -0.12838376 -0.07405126
-0.20578268 -0.10951122 -0.0828764 -0.22750746 -0.06749781 0.05235879 -0.105925195 -0.16361685
-0.116539314 -0.12295266 -0.021159148 -0.15322128 -0.028766798 -0.01779315 -0.12654224 0.0492725
-0.0334281 -0.07229331 -0.046157148 -0.060662564 -0.010871501 -0.025820546 0.009768893 0.017424863
-0.03572141 -0.06920717 -0.0128412405 -0.042981744 -0.047836162 -0.070158504 0.090074144 -0.04477385
-0.09708118 -0.024150614 0.008835698 -0.063173674 -0.03234507 -0.008367444 -0.047602784 -0.019838395
-0.17149986 -0.13564798 -0.057529643 -0.0075322627 -0.092752784 0.06330915 0.14838642 -0.034820456
-0.14778352 -0.030822877 0.042640124 0.0052889297 0.017578533 0.034581784 -0.012652202 -0.010064983
-0.13237254 -0.06419003 0.06150652 -0.07891727 -0.047508378 -0.050930806 0.04354202 0.06784338
-0.18909627 -0.15056975 -0.03717292 0.03034431 -0.07988504 -0.020883447 -0.06854774 0.036531284
-0.17963119 -0.1369899 0.10668246 0.15250294 0.1546888 -0.09434443 -0.10181019 -0.03637536
-0.17309886 -0.07896301 0.077015914 0.100410305 0.18913484 0.18359092 0.114674695 0.15980376
0.024362959 0.28631002 0.21190597 0.04774287 0.17429663 0.14297163 0.04989254 0.116227545
0.083231635 0.24883303 0.19728248 -0.00572653 0.110153474 0.05715068 0.054122094 0.087107286
0.17928496 0.092979275 -0.113478824 -0.13135171 0.027328998 0.07074045 0.09856681 -0.07872665
0.090976276 0.10089012 -0.04611523 0.039404884 -0.13811329 0.0002140279 -0.08407548 -0.07763087
00000000: 81af d93c 3ea3 b43c c5d2 d8bd b401 ed3c
00000010: 6bce 6d3d 6cc0 a43d 294f e93b 7bd1 b0bc
00000020: 352b d33b dff1 babd c0ba 0f3d dc9b bfbd
00000030: 09f6 6b3c 496d 8dbc df82 2c3c 4255 f2bc
00000040: c7ad 23bc 8535 0cbe e8e2 08bd 9662 6abd
00000050: b439 46bd 1b8b 15bd b6d7 5cbc ca21 ae3d
00000060: fb98 b6bc 1fa1 203d adcb db3b dafa 97bd
00000070: 8290 4dbd 200c 603d 42f4 a4bd af6e 983d
00000080: 247d b0bd 02ef 2dbe 5444 d5bd d57a e5ba
00000090: 4d99 77bd dd77 ba3d fbc9 663d 88bd a43d
000000a0: 165a 96bc c11e 34bd 6e02 f2bd aa9c 43bb
000000b0: 3a50 abbd e262 0c3e 8154 7c3d fa6d eabc
000000c0: 553e 5ebd b5b7 9abd 917a eebd 4e25 73bd
000000d0: 0979 06bd f188 eb3d 8092 383d e3b1 c1bd
000000e0: c167 6e3d 5033 64bd 3f52 35bc d3a8 87bc
000000f0: 4ed2 8d3b e193 963d 72e0 b2bd 24c7 64bd
00000100: 3216 afbd a846 2dbe 5490 5ebc 5502 613d
00000110: 4d29 98bd 20a2 2cbb 7a95 3c3d cb8c 35bc
00000120: 9290 09be 6050 9fbd 25c3 01bd 5690 a0bd
00000130: 6fe6 37be b727 fcbb b914 803d 48a8 8cbd
00000140: ae72 07be 63e3 8c3d 80f0 6d3e 19d2 e43d
00000150: d97a ea3d 5c81 963d ae03 a13d 9743 8c3c
00000160: dbff dcbd 1daf 493d 5ce0 f53d 83b3 e13d
00000170: cbe0 0a3d a23f debd da12 e7bb e523 8f3c
00000180: c5f6 5d3a 9b36 c23c 1cab 013e 1872 693e
00000190: 1d8b d43d b452 2cbb 473d 42bb 6fbd 13bd
000001a0: fdf7 a93d 9268 863d 41d2 963d ccfc 3c3e
000001b0: 1ff6 383d b811 48bc bb1b f63d 4243 1c3d
000001c0: e1ea cd3d e469 d63d 3a9b 85bc ec4e 263c
000001d0: 8722 cdbd 26d9 b6bd 8a51 5abd 8bd4 443b
000001e0: cb13 873d b7e7 cb3b 59f7 0fbd aff2 e8bc
000001f0: cff6 853c d87a 9dbd 6662 ba3c c916 1a3d
00000200: c5e6 07be 179e cebd 29ef d6bd 0ff4 13be
00000210: 0edc eebd b014 b6bd 0877 03be 30a8 97bd
00000220: b2b8 52be 6b47 e0bd 1abb a9bd b7f7 68be
00000230: 4b3c 8abd 2c76 563d 4fef d8bd 2d8b 27be
00000240: 2aac eebd 9bce fbbd f355 adbc 0ae6 1cbe
00000250: 59a8 ebbc f1c2 91bc 4a94 01be f6d1 493d
00000260: e7eb 08bd 840e 94bd 470f 3dbd 4f79 78bd
00000270: 611e 32bc 9c85 d3bc b50d 203c 96be 8e3c
00000280: 9d50 12bd 7dbc 8dbd 1164 52bc a00d 30bd
00000290: daef 43bd 43af 8fbd cb78 b83d c964 37bd
000002a0: 7fd2 c6bd 82d7 c5bc 9ac3 103c 3361 81bd
000002b0: 447c 04bd 9b17 09bc 23fb 42bd 2184 a2bc
000002c0: a99d 2fbe 4ee7 0abe 34a4 6bbd 33d1 f6bb
000002d0: 2cf5 bdbd 3aa8 813d 9cf2 173e e59f 0ebd
000002e0: 9054 17be 4280 fcbc 69a7 2e3d c24e ad3b
000002f0: db00 903c a1a5 0d3d 2e4b 4fbc 99e7 24bc
00000300: ab8c 07be 1076 83bd 43ee 7b3d 619f a1bd
00000310: 2598 42bd d29c 50bd 1e59 323d 78f1 8a3d
00000320: 74a2 41be f52e 1abe a242 18bd a194 f83c
00000330: c59a a3bd c313 abbc c262 8cbd d4a1 153d
00000340: 3df1 37be 1547 0cbe 557c da3d bb29 1c3e
00000350: be66 1e3e a737 c1bd dc81 d0bd 54fe 14bd
00000360: d440 31be 5cb7 a1bd 85ba 9d3d eba3 cd3d
00000370: 90ac 413e 42ff 3b3e 91da ea3d 99a3 233e
00000380: d494 c73c 3a97 923e e1fd 583e 078e 433d
00000390: d17a 323e 2867 123e 1f5c 4c3d b508 ee3d
000003a0: 5975 aa3d 16ce 7e3e 6b04 4a3e 9ea5 bbbb
000003b0: 2598 e13d d516 6a3d 21af 5d3d 4e65 b23d
000003c0: 7a96 373e eb6b be3d 9667 e8bd 1081 06be
000003d0: 10e1 df3c 5ee0 903d 65dd c93d 703b a1bd
000003e0: c551 ba3d 7b9f ce3d 53e3 3cbd 0467 213d
000003f0: 926d 0dbe ad6c 6039 c42f acbd effc 9ebd

network_body.observation_encoder.processors.0.conv_layers.0.bias f4 [16]
-0.0057412228 -0.07593998 -0.0032037578 0.036225382 -0.0011523862 -0.13014506 0.050019175 -0.10074357
-0.069620565 -0.07827892 -0.07823219 -0.004557327 -0.009677041 -0.06478032 -0.0107324375 -0.04860373
00000000: de20 bcbb 6c86 9bbd 23f6 51bb 1161 143d
00000010: aa0b 97ba bf44 05be e8e0 4c3d a552 cebd
00000020: 3a95 8ebd b350 a0bd 3338 a0bd a155 95bb
00000030: 748c 1ebc 8bab 84bd 1bd7 2fbc b414 47bd

network_body.observation_encoder.processors.0.conv_layers.2.weight f4 [32, 16, 4, 4]
0.049401686 -0.057420637 -0.046977807 -0.044809446 -0.10646456 0.046548177 -0.07020596 0.01269636
0.092582874 0.043957837 0.0138888145 -0.01184627 0.11331961 -0.04370498 0.016680883 -0.016440062
0.023407988 -0.12231678 0.08103114 -0.07894887 0.054701533 -0.09631274 -0.09948824 0.05740227
0.032772295 0.065814264 -0.16166466 0.086449146 0.077546105 -0.11314754 -0.060804736 -0.017326696
0.017941307 -0.06956447 -0.056189474 -0.1455379 -0.02558732 -0.031009933 0.04581327 0.07955822
-0.09325481 0.09592978 -0.099218495 -0.045971468 -0.03431248 0.044281565 0.014711713 0.039412774
0.08199637 0.066366784 -0.0042153313 -0.04040095 0.100593746 0.007133022 0.061349567 -0.0017112502
0.036281556 0.12609965 -0.099487975 0.040522758 -0.03162955 0.07561581 0.06768651 -0.039486654
-0.118766926 -0.14116238 -0.012923002 -0.094098456 -0.053840768 -0.010724407 0.042755995 -0.018083757
0.16455194 0.1368197 0.07491403 0.07474518 0.0469086 0.03161643 0.020838952 0.013384611
0.09840063 -0.094585106 0.039360605 0.041345384 -0.124419816 -0.006642988 -0.0036527722 0.13014208
0.016194288 0.09366252 -0.028994175 -0.014816332 -0.02085268 -0.05694696 0.037548855 -0.0148883695
0.11992047 0.10715797 -0.06609939 -0.01623107 0.052940544 0.062193576 -0.055170916 -0.055129547
0.18581778 0.10287922 -0.13263753 0.028526379 -0.10860995 0.10506029 0.13554882 -0.041214377
-0.04999635 -0.028709333 0.098649316 -0.095075786 -0.03345756 0.06211834 0.011881161 -0.018322367
0.031502843 0.07845039 0.023085035 -0.07370683 -0.034613885 -0.015085807 -0.05103228 0.00396402
-0.04187493 -0.038165778 -0.058650956 -0.03643506 -0.055898074 0.041440506 -0.09987505 -0.002783022
-0.081242755 -0.0062056165 -0.16647127 -0.111539476 -0.10294243 0.0036921743 -0.012101752 -0.03636206
-0.0050743283 0.03517849 0.053376097 -0.022993352 -0.072933614 0.016800378 -0.026279276 0.079706006
0.0628399 -0.0071507953 -0.043077376 0.15097165 0.14150693 0.05919716 -0.04079426 -0.006493825
-0.037707087 -0.09817392 -0.041848827 -0.01317479 0.00889227 -0.030578421 -0.028624197 0.05724565
0.08801085 -2.9193789e-05 -0.118466176 -0.074045286 0.01267978 0.029363144 -0.056275345 0.10258296
-0.044183437 -0.015353481 -0.08113908 0.048234306 -0.062332813 0.025907852 0.0477264 -0.016711667
-0.00093611114 0.005253889 0.056232672 0.03997862 0.106690295 0.06728806 0.13849552 0.06568074
-0.020246195 -0.14459011 0.038710643 0.14160505 -0.031029 -0.08381997 0.0013877616 -0.055543598
0.053058475 0.022329172 0.074120484 0.083501786 0.035174523 0.13154474 -0.011743311 0.07906325
-0.02723666 -0.05012838 -0.0056055267 -0.053443365 0.03478482 0.0032705097 0.08518067 0.11893304
0.062220745 0.049681023 -0.0067228344 -0.06405154 -0.010909808 0.002665714 0.09167226 -0.07476352
0.008099573 -0.08784018 0.0253692 0.13470572 -0.080123864 -0.042517763 0.056699652 -0.009898717
-0.06799653 -6.420293e-05 0.015507461 -0.11155432 -0.04155318 0.054081652 0.09865131 0.034910075
0.076519 -0.034002855 0.16441664 -0.07581622 0.028871626 0.028805107 0.033274908 -0.018534685
-0.089652866 -0.0061125224 0.07755042 0.052646134 -0.16557829 0.05949072 -0.010421044 0.17390963
00000000: 6c59 4a3d e731 6bbd cd6b 40bd 1c8a 37bd
00000010: 170a dabd 4da9 3e3d 24c8 8fbd 6504 503c
00000020: 179c bd3d 220d 343d e98d 633c dc16 42bc
00000030: 1d14 e83d fe03 33bd 59a6 883c 4fad 86bc
00000040: 1cc2 bf3c 3881 fabd a8f3 a53d f2af a1bd
00000050: b70e 603d 9d3f c5bd 7ec0 cbbd a51e 6b3d
00000060: 3e3c 063d a1c9 863d 6c8b 25be 400c b13d
00000070: 7ed0 9e3d e6b9 e7bd 630e 79bd b7f0 8dbc
00000080: a6f9 923c d177 8ebd ef26 66bd e307 15be
00000090: 809c d1bc 8b08 febc b2a6 3b3d 6cef a23d
000000a0: 61fc bebd d576 c43d 1133 cbbd 944c 3cbd
000000b0: 3e8b 0cbd 9660 353d 6609 713c 4a6f 213d
000000c0: b6ed a73d 4feb 873d c320 8abb 777b 25bd
000000d0: 1804 ce3d 20bc e93b af49 7b3d 074c e0ba
000000e0: f89b 143d 4420 013e 5ac0 cbbd 31fb 253d
000000f0: fd8d 01bd 76dc 9a3d 3a9f 8a3d c2bc 21bd
00000100: 133c f3bd df8c 10be 00bb 53bc b1b6 c0bd
00000110: 2388 5cbd 6cb5 2fbc e920 2f3d 6324 94bc
00000120: 4e80 283e 771a 0c3e 876c 993d 0014 993d
00000130: 3b23 403d 3b80 013d 73b6 aa3c 214b 5b3c
00000140: 4586 c93d d6b5 c1bd 9638 213d c759 293d
00000150: d1cf febd 6cad d9bb 5963 6fbb f743 053e
00000160: e2a9 843c 23d2 bf3d 3185 edbc 33c0 72bc
00000170: 3dd3 aabc 3741 69bd d4cc 193d 59ee 73bc
00000180: dd98 f53d a375 db3d 1e5f 87bd 05f7 84bc
00000190: 2fd8 583d b1be 7e3d e6fa 61bd 85cf 61bd
000001a0: 0447 3e3e 57b2 d23d 22d2 07be 27b0 e93c
000001b0: e56e debd d929 d73d 4fcd 0a3e 68d0 28bd
000001c0: f9c8 4cbd d62f ebbc a708 ca3d 18b7 c2bd
000001d0: cb0a 09bd cd6f 7e3d 33a9 423c ca18 96bc
000001e0: 2009 013d 99aa a03d d41c bd3c 9bf3 96bd
000001f0: 4ac7 0dbd 762a 77bc 3907 51bd 9ce4 813b
00000200: 0c85 2bbd b853 1cbd fc3b 70bd ee3c 15bd
00000210: 61f5 64bd 85bd 293d 4a8b ccbd 5c63 36bb
00000220: 9a62 a6bd 7c58 cbbb 7277 2abe cf6e e4bd
00000230: 7bd3 d2bd 68f8 713b 6d46 46bc 62f0 14bd
00000240: 8d46 a6bb 5217 103d e5a0 5a3d 8e5c bcbc
00000250: 385e 95bd f2a0 893c a347 d7bc e73c a33d
00000260: 35b2 803d 3851 eabb e771 30bd 5098 1a3e
00000270: 31e7 103e b978 723d e217 27bd 27ca d4bb
00000280: bf72 1abd 680f c9bd ad69 2bbd 13db 57bc
00000290: e2b0 113c 997f fabc 4b7d eabc 6a7a 6a3d
000002a0: 083f b43d 2fe5 f4b7 659e f2bd 0ea5 97bd
000002b0: dabe 4f3c fa8a f03c fa80 66bd 0417 d23d
000002c0: b1f9 34bd 2b8d 7bbc 3f2c a6bd 5691 453d
000002d0: b150 7fbd b43c d43c c27c 433d e8e6 88bc
000002e0: 5b65 75ba d128 ac3b 3b54 663d 9fc0 233d
000002f0: 7180 da3d 53ce 893d c5d1 0d3e a083 863d
00000300: 59db a5bc 6e0f 14be 0d8f 1e3d ea00 113e
00000310: 8830 febc cea9 abbd 8de5 b53a af81 63bd
00000320: d853 593d abeb b63c 7bcc 973d fc02 ab3d
00000330: 2913 103d aab3 063e 0467 40bc eaeb a13d
00000340: 6a1f dfbc 6b53 4dbd 91ae b7bb 6ee7 5abd
00000350: 877a 0e3d 0c56 563b 3473 ae3d 2a93 f33d
00000360: 2edb 7e3d 547e 4b3d 394b dcbb 742d 83bd
00000370: 0dbf 32bc 42b3 2e3b aabe bb3d 9e1d 99bd
00000380: 12b4 043c 8de5 b3bd 12d3 cf3c 4cf0 093e
00000390: fb17 a4bd 1b27 2ebd e53d 683d 3a2e 22bc
000003a0: c441 8bbd b0a4 86b8 0113 7e3c 9776 e4bd
000003b0: ab33 2abd b984 5d3d b309 ca3d defd 0e3d
000003c0: feb5 9c3d 9446 0bbd d65c 283e 8945 9bbd
000003d0: 3084 ec3c b0f8 eb3c 454b 083d 0dd6 97bc
000003e0: ec9b b7bd 8e4b c8bb c1d2 9e3d 79a3 573d
000003f0: 5b8d 29be 8bac 733d 07bd 2abc 5e15 323e

network_body.observation_encoder.processors.0.conv_layers.2.bias f4 [32]
0.028415214 -0.02929845 -0.046122216 -0.048134204 -0.07606784 0.033154108 0.058589004 -0.007811948
-0.010691358 -0.0066333786 0.021050224 0.039371926 0.015800692 -0.01568142 0.092514664 0.06995041
0.07424073 -0.01485202 0.029600522 0.023975182 0.004893598 0.01796275 0.033641294 0.016606184
-0.037295733 -0.068548776 -0.05019408 0.032443598 -0.060781505 0.06150951 0.0034697205 -0.039169822
00000000: 06c7 e83c 4e03 f0bc a6ea 3cbd 5f28 45bd
00000010: 75c9 9bbd 9acc 073d 06fb 6f3d 5ffb ffbb
00000020: ce2a 2fbc d05c d9bb 8571 ac3c 7544 213d
00000030: 7470 813c 5276 80bc 5478 bd3d 2942 8f3d
00000040: 860b 983d e355 73bc cb7c f23c 9a67 c43c
00000050: 7a5a a03b 9e26 933c 74cb 093d b109 883c
00000060: 69c3 18bd 4d63 8cbd 4f98 4dbd 94e3 043d
00000070: 07f6 78bd 65f1 7b3d 4064 633b 8970 20bd

network_body.observation_encoder.processors.0.dense.0.weight f4 [256, 32]
-0.0038175085 -0.08809811 -0.4944026 0.020544264 0.014857788 0.053412367 0.1076087 -0.20150441
-0.14438964 0.21402724 -0.32666788 -0.15027705 -0.13165249 -0.29023084 0.19368933 -0.43318236
0.17093462 0.2383137 0.08262412 0.015280165 0.27869323 0.31680062 0.29386666 -0.11381228
0.08449501 0.101898186 -0.5353185 -0.15462276 -0.16265762 -0.055931877 0.026122652 -0.091406375
0.31267926 0.15925115 0.06338154 0.20462 0.5241524 -0.19112429 0.1332213 0.318893
-0.019545704 0.026747707 -0.009341339 0.16590406 -0.061797343 0.040151335 -0.23873843 -0.23049256
-0.22579855 0.07109028 0.23430109 -0.32236925 -0.029132618 0.13727534 -0.22658977 -0.018949525
-0.13060696 -0.31335714 0.086835735 -0.117731065 -0.4894342 0.2826567 -0.42104152 -0.17299414
0.18342984 0.20964861 -0.043229435 -0.15790838 0.23269674 0.12441674 0.10918237 0.3962113
-0.11388336 -0.022895586 -0.2930063 -0.012698798 0.015887322 -0.25024378 0.4411132 -0.37746555
0.6205451 -0.4081479 -0.038637232 -0.3144299 0.010824602 0.08853437 0.38731724 -0.05585184
-0.2052208 0.21408863 -0.5273652 -0.0036448133 0.118114956 0.1595588 -0.019365499 0.2777793
-0.09789452 -0.28012463 -0.4680324 -0.24283078 0.046906095 0.021171222 0.1791127 0.3840799
0.40496218 0.048695326 0.21039698 0.32529342 0.30886942 -0.15182191 -0.23006319 -0.3149354
0.3609637 0.10994743 0.16561367 0.0402937 0.2232249 -0.18958968 -0.3246031 0.20019808
0.1458577 -0.2581622 0.3396229 0.13483198 0.1805685 -0.07857422 0.47984344 -0.77961546
-0.31008825 -0.124871604 0.19350949 0.38034645 0.25202996 0.19437757 -0.18837176 -0.03839163
0.25122508 -0.045047253 0.13919555 0.030180681 -0.28175145 0.18404096 -0.13861431 0.023581898
0.52396804 -0.06791194 -0.32885805 0.17257465 0.23941675 -0.33208412 -0.060650326 -0.26379043
-0.2113807 0.10431353 0.24111725 -0.1330185 -0.29178026 -0.070822686 0.3863536 -0.10907479
-0.36203152 -0.041257896 -0.035510298 0.5060552 0.032741986 0.052548267 -0.16426912 -0.10611565
0.12589106 0.0151654035 -0.13739704 -0.38458225 0.13893086 0.044496506 -0.47200486 0.057352953
0.16246021 0.64540136 0.0673345 0.7502226 -0.053946067 -0.2150453 -0.16774307 -0.49039096
-0.018443707 0.36962396 0.095151395 -0.05548023 0.6211301 0.079109244 0.20089394 0.025416017
-0.3020149 -0.0036357734 -0.10287053 0.214839 0.33325696 -0.10024016 -0.5515106 0.19925703
0.06068307 0.35233337 -0.026004452 -0.23047467 0.3748908 -0.5676887 -0.06296359 -0.2524218
-0.67182463 0.5100811 -0.60698825 -0.11420504 -0.06878324 0.25734922 -0.017332902 0.057605825
-0.08320869 -0.123782516 0.12566994 0.26127067 0.2609837 0.08633063 0.2622298 0.27554455
-0.016863365 -0.12967408 -0.015982857 0.23858042 -0.060857214 0.39508045 -0.19927615 -0.27701437
-0.24711414 0.3110366 -0.13333286 0.3819096 -0.07441731 0.09319998 0.004960953 -0.42140052
0.32671034 -0.10748969 -0.012365706 -0.30306786 -0.30036038 0.13127807 -0.19924366 -0.19771826
-0.08387692 0.33269286 0.11316686 -0.20954132 0.16488682 0.06803686 -0.040484965 0.1525752
00000000: 2a2f 7abb c86c b4bd 5622 fdbe 724c a83c
00000010: 146e 733c edc6 5a3d f361 dc3d 2c57 4ebe
00000020: e1da 13be f529 5b3e 0341 a7be 3ae2 19be
00000030: e9cf 06be 2399 94be 7f56 463e 14ca ddbe
00000040: 7c09 2f3e 8208 743e d636 a93d a859 7a3c
00000050: e1b0 8e3e b133 a23e b175 963e 6a16 e9bd
00000060: b80b ad3d ffaf d03d a20a 09bf 6e55 1ebe
00000070: b88f 26be d318 65bd 2cff d53c 4433 bbbd
00000080: 7f17 a03e bc12 233e 2ece 813d e887 513e
00000090: da2e 063f 16b6 43be 2a6b 083e f145 a33e
000000a0: 501e a0bc 021e db3c 6a0c 19bc c1e2 293e
000000b0: 361f 7dbd ba75 243d d977 74be 3e06 6cbe
000000c0: bc37 67be c897 913d a0ec 6f3e 950d a5be
000000d0: 87a7 eebc e891 0c3e 2607 68be 093c 9bbc
000000e0: d5bd 05be 5970 a0be efd6 b13d fc1c f1bd
000000f0: 1f97 fabe 61b8 903e c192 d7be 6025 31be
00000100: 08d5 3b3e 20ae 563e 5911 31bd bcb2 21be
00000110: 0e48 6e3e 34ce fe3d 029b df3d 35dc ca3e
00000120: ae3b e9bd 868f bbbc ec04 96be 9f0e 50bc
00000130: 2126 823c f41f 80be 97d9 e13e 2a43 c1be
00000140: 0bdc 1e3f c3f8 d0be 1342 1ebd f5fc a0be
00000150: ac59 313c 8251 b53d 724e c63e e6c4 64bd
00000160: 6725 52be 0d3a 5b3e 6801 07bf d2dd 6ebb
00000170: 41e6 f13d 6263 233e 65a4 9ebc 1739 8e3e
00000180: ec7c c8bd 7f6c 8fbe f1a1 efbe a2a8 78be
00000190: 9b20 403d 456f ad3c 5269 373e 1fa6 c43e
000001a0: 3457 cf3e c074 473d 4e72 573e dc8c a63e
000001b0: 2224 9e3e 3477 1bbe af95 6bbe 363f a1be
000001c0: 3cd0 b83e 1e2c e13d a196 293e 020b 253d
000001d0: 1195 643e cc23 42be 6132 a6be ba00 4d3e
000001e0: b95b 153e d62d 84be 0ee3 ad3e 6511 0a3e
000001f0: f3e6 383e 85eb a0bd 0aae f53e e194 47bf
00000200: e3c3 9ebe afbc ffbd 5a27 463e c5bc c23e
00000210: 120a 813e ea0a 473e 87e4 40be 8b40 1dbd
00000220: 93a0 803e 7883 38bd 4789 0e3e 7a3d f73c
00000230: ba41 90be 3c75 3c3e e9f0 0dbe d32e c13c
00000240: c522 063f 6a15 8bbd 1560 a8be 69b7 303e
00000250: aa29 753e ee06 aabe 7a6c 78bd 8a0f 87be
00000260: 2f74 58be 55a2 d53d 71e7 763e 0036 08be
00000270: 3964 95be 7c0b 91bd 24d0 c53e 9a62 dfbd
00000280: 325c b9be 0afe 28bd 3f73 11bd d58c 013f
00000290: 761c 063d da3c 573d 2a36 28be 2953 d9bd
000002a0: 96e9 003e 5078 783c cfb1 0cbe f7e7 c4be
000002b0: e443 0e3e f841 363d 9faa f1be eeea 6a3d
000002c0: f85b 263e 0639 253f ace6 893d 970e 403f
000002d0: 8df6 5cbd d634 5cbe d7c4 2bbe 8614 fbbe
000002e0: 4217 97bc 5a3f bd3e bcde c23d 3d3f 63bd
000002f0: 6202 1f3f 0704 a23d 24b7 4d3e 4035 d03c
00000300: b2a1 9abe 2846 6ebb c9ad d2bd c1fe 5b3e
00000310: a8a0 aa3e b74a cdbd cc2f 0dbf 090a 4c3e
00000320: d08e 783d 0a65 b43e 4a07 d5bc 8d01 6cbe
00000330: b0f1 bf3e 0c54 11bf 0ef3 80bd 6e3d 81be
00000340: b3fc 2bbf ad94 023f 9563 1bbf 55e4 e9bd
00000350: 3ade 8cbd 47c3 833e bbfd 8dbc 16f4 6b3d
00000360: 5169 aabd b081 fdbd 9faf 003e 45c5 853e
00000370: a89f 853e 1dce b03d fc42 863e 2d14 8d3e
00000380: 0a25 8abc 48c9 04be 7bee 82bc 6d4e 743e
00000390: 6a45 79bd fc47 ca3e 0c0f 4cbe d4d4 8dbe
000003a0: 7d0b 7dbe 3040 9f3e 6988 08be a889 c33e
000003b0: 1a68 98bd a2df be3d 7d8f a23b cfc1 d7be
000003c0: 9446 a73e 8e23 dcbd 8899 4abc b62b 9bbe
000003d0: d6c8 99be c26d 063e 8806 4cbe a876 4abe
000003e0: aac7 abbd b856 aa3e 07c4 e73d 0092 56be
000003f0: 17d8 283e e956 8b3d 90d3 25bd ac3c 1c3e

network_body.observation_encoder.processors.0.dense.0.bias f4 [256]
0.009078625 0.039331052 -0.0065077716 -0.03847299 -0.016863616 -0.06509513 0.036362756 0.019668438
0.06766604 -0.049231164 -0.060655504 0.01723829 -0.0048061176 0.0010325093 0.010444 -0.002007696
0.0347202 0.041277967 -0.049214777 0.029163333 0.053136613 0.014868864 -0.046368763 -0.022929333
0.09446479 -0.012492032 0.03992137 0.053596217 -0.017370185 -0.0371887 -0.06173824 0.014077597
-0.005838678 -0.008817831 -0.034369495 0.075667694 0.05556422 -0.037564643 -0.007986444 -0.04758229
-0.008034369 0.001361441 -0.008557433 0.019256968 -0.023429623 -0.015598763 -0.007657637 0.05275575
0.059243497 0.03644608 0.03990307 0.05648024 -0.012533911 0.032628827 0.027930107 -0.04192228
-0.024499064 -0.0073374216 -0.044321 0.013820692 -0.022889586 0.005738948 0.055726655 -0.07597058
0.024274362 -0.02059472 0.04658004 0.018522525 0.039325725 -0.0032271822 0.040897906 0.038218897
0.054152314 0.05958645 0.033814672 0.06739437 0.061074555 0.006290022 -0.0085978 0.023248347
0.030555867 -0.021861514 0.07724527 -0.05888598 0.00286409 -0.011357643 0.08337975 0.021392537
0.043291952 0.029154163 0.033363655 -0.08612524 0.00851545 0.023678094 0.022122579 -0.121237054
-0.031077959 -0.0037270214 -0.07972493 0.038784057 0.011622642 -0.0040828655 -0.006870578 0.0039019692
0.077437006 0.054923847 -0.039483186 0.016377484 0.024249068 0.037328485 0.03478873 0.046325505
0.04809294 0.104750566 0.09335453 0.0020484151 0.019722065 0.04739854 -0.042387187 0.019750237
0.07168846 -0.019762218 0.05402265 -0.026930032 0.09600384 0.052436735 -0.019652182 -0.039539836
-0.011504291 -0.03474178 -0.0384502 0.013388564 0.02457626 0.062474452 0.058017842 -0.05305801
0.028828045 -0.025282117 0.007896176 0.005887948 0.061726253 0.065880366 0.02711908 0.030115413
0.022294799 0.013793345 -0.023024699 0.0026456413 -0.03314533 0.013807365 -0.059989166 0.032324057
0.053584848 0.024781166 0.06398176 -0.07037211 -0.09198146 0.06268104 0.06336732 0.007677369
0.010470726 0.017115677 0.01376913 0.07638202 0.043324593 0.045990925 -0.018558726 -0.11300437
0.03743906 -0.016098589 -0.047539823 -0.058811545 0.0070999954 0.005187988 -0.034860387 0.0067809704
-0.021953732 0.014281735 -0.07239851 -0.025950251 -0.05126855 0.011989 -0.0026329332 0.10951026
0.02357379 0.041371066 -0.009504892 -0.042873446 0.0010108678 0.04121561 0.0061418405 0.023489675
-0.05137539 0.02620995 -0.07259315 0.035656482 -0.024716508 -0.017534494 -0.018874485 0.028240714
0.044275254 0.033807427 0.057378888 0.08335805 -0.069755755 -0.02016832 -0.054794673 0.032351367
0.013294726 -0.030103905 0.12672506 0.012202898 0.018469274 -0.009383598 0.13629977 -0.030944671
0.0013678245 0.06824424 0.0024637894 0.023269778 0.08672025 0.074655704 0.0072820242 -0.06598659
-0.013546879 0.016724456 -0.007670094 -0.11270196 0.066302285 0.049895804 0.06425429 0.023474688
0.098240405 -0.040649682 0.04125727 0.03183719 0.0003268949 0.027459491 -0.06658636 0.028120296
0.08909807 -0.0035051904 0.07927306 0.01680432 0.099141285 0.0018830497 -0.031469606 0.030778833
0.07647114 -0.007881907 0.017971195 0.023137208 -0.035291564 -0.021488987 0.022517363 -0.00065351755
00000000: 83be 143c 9919 213d 253f d5bb db95 1dbd
00000010: 9125 8abc 9850 85bd 1df1 143d b41f a13c
00000020: 7e94 8a3d 9ea6 49bd e871 78bd 5037 8d3c
00000030: a37c 9dbb 4355 873a 501d 2b3c 8d93 03bb
00000040: c536 0e3d 1613 293d 6f95 49bd f1e7 ee3c
00000050: c7a5 593d 899c 733c 2ced 3dbd 4cd6 bbbc
00000060: c176 c13d 61ab 4cbc 9784 233d b587 5b3d
00000070: eb4b 8ebc 2e53 18bd 3de1 7cbd b9a5 663c
00000080: 6252 bfbb aa78 10bc 07c7 0cbd aaf7 9a3d
00000090: 4f97 633d 62dd 19bd 93d9 02bc a6e5 42bd
000000a0: 96a2 03bc 6172 b23a 7a34 0cbc cac0 9d3c
000000b0: 7bef bfbc f491 7fbc eaec fabb 6a16 583d
000000c0: 4fa9 723d 7c48 153d 6771 233d d357 673d
000000d0: 085b 4dbc cea5 053d aecd e43c b2b6 2bbd
000000e0: 43b2 c8bc c16e f0bb f089 35bd 2f70 623c
000000f0: f182 bbbc c90d bc3b a241 643d 7796 9bbd
00000100: 07db c63c 42b6 a8bc b6ca 3e3d 8dbc 973c
00000110: 0314 213d 227f 53bb 9084 273d 6b8b 1c3d
00000120: d1ce 5d3d ec10 743d 4181 0a3d 0f06 8a3d
00000130: 5029 7a3d 871c ce3b c9dd 0cbc 5173 be3c
00000140: 4c50 fa3c eb16 b3bc c532 9e3d 6d32 71bd
00000150: 75b3 3b3b 6815 3abc 01c3 aa3d 673f af3c
00000160: e752 313d b6d4 ee3c 54a8 083d 6e62 b0bd
00000170: 6384 0b3c 90f8 c13c 693a b53c 224b f8bd
00000180: 3497 febc 0b41 74bb d346 a3bd 08dc 1e3d
00000190: e56c 3e3c 8fc9 85bb 9622 e1bb 2eb8 7f3b
000001a0: 4b97 9e3d d4f7 603d 1fb9 21bd 132a 863c
000001b0: fba5 c63c c1e5 183d a17e 0e3d d0bf 3d3d
000001c0: 1afd 443d 7787 d63d a930 bf3d b43e 063b
000001d0: 2b90 a13c f924 423d 309e 2dbd 40cb a13c
000001e0: 66d1 923d 60e4 a1bc db46 5d3d 5f9c dcbc
000001f0: a99d c43d e7c7 563d 9dfd a0bc 86f4 21bd
00000200: 7e7c 3cbc 664d 0ebd f57d 1dbd b55b 5b3c
00000210: 2754 c93c 36e5 7f3d 1ea4 6d3d 5b53 59bd
00000220: cb28 ec3c 711c cfbc f65e 013c b0ef c03b
00000230: abd4 7c3d 49ec 863d d528 de3c 99b4 f63c
00000240: 95a3 b63c 7bfd 613c 4b9e bcbc 7f62 2d3b
00000250: 66c3 07bd 4938 623c 33b7 75bd 3b66 043d
00000260: c97b 5b3d df01 cb3c de08 833d 411f 90bd
00000270: c760 bcbd eb5e 803d bac6 813d 7092 fb3b
00000280: 688d 2b3c 2d36 8c3c eb97 613c 2d6e 9c3d
00000290: 2175 313d fb60 3c3d 7808 98bc d66e e7bd
000002a0: b359 193d 30e1 83bc 1eb9 42bd 60e4 70bd
000002b0: 14a7 e83b ffff a93b c4c9 0ebd e732 de3b
000002c0: 50d8 b3bc f0fd 693c ac45 94bd 9f95 d4bc
000002d0: f9fe 51bd 836d 443c 4a8d 2cbb ea46 e03d
000002e0: d21d c13c b574 293d 68ba 1bbc 119c 2fbd
000002f0: 187f 843a b3d1 283d 7e41 c93b 6b6d c03c
00000300: 006f 52bd 40b6 d63c b8ab 94bd 880c 123d
00000310: 467a cabc 80a4 8fbc aa9e 9abc 1259 e73c
00000320: f859 353d a879 0a3d 2006 6b3d a0b7 aa3d
00000330: 1bdc 8ebd 0838 a5bc 6170 60bd de82 043d
00000340: 1fd2 593c 779c f6bc 37c4 013e aaee 473c
00000350: e04c 973c aabd 19bc 2b92 0b3e ae7f fdbc
00000360: 9348 b33a a3c3 8b3d 8777 213b 43a0 be3c
00000370: 639a b13d 17e5 983d 0c9e ee3b fa23 87bd
00000380: bbf3 5dbc ba01 893c 6955 fbbb 49d0 e6bd
00000390: 7ec9 873d 8b5f 4c3d c197 833d fd4d c03c
000003a0: 4432 c93d 4880 26bd 62fd 283d b767 023d
000003b0: 1763 ab39 baf2 e03c 6e5e 88bd 895c e63c
000003c0: 0d79 b63d 56b7 65bb ea59 a23d 37a9 893c
000003d0: 960a cb3d aad0 f63a 46e6 00bd e423 fc3c
000003e0: e79c 9c3d 1d23 01bc 5438 933c 3e8a bd3c
000003f0: e38d 10bd ac09 b0bc 5576 b83c d250 2bba

network_body._body_endoder.seq_layers.0.weight f4 [256, 266]
0.072472095 0.09580119 -0.0018860683 -0.04503657 0.019949332 -0.013858513 -0.07823803 0.19179934
-0.09227064 0.067617446 0.08174403 0.024529707 0.11679712 -0.058695946 0.06646098 -0.0754862
-0.0009234689 0.0034322594 0.040855974 -0.08196269 -0.108931884 0.042019513 0.033266626 0.0134314895
-0.05184281 -0.107138835 0.07682506 -0.013790736 -0.033565126 0.07081975 -0.055458687 -0.016838705
0.027892563 -0.11349592 0.15467942 0.040823553 -0.0006744123 0.03532526 0.0970182 -0.06948226
0.028632626 -0.053812288 0.057214737 0.11808077 0.056532573 0.18143946 0.13373294 -0.057163592
0.061238583 -0.07435506 -0.06726834 -0.005547586 -0.00082608004 0.027374161 -0.09805305 0.19327597
0.14572094 0.027807273 0.111452386 -0.16687 0.022092361 0.034950707 -0.15014674 -0.03210806
0.119305946 0.027392063 -0.036827706 -0.14686266 -0.0523542 0.05148103 0.094342194 -0.058963485
0.03165428 0.21954617 0.010966888 -0.14655721 0.014396759 0.08692244 -0.012748549 0.11018293
0.07979853 0.017641691 0.06398052 0.101676784 0.046986658 -0.06582499 0.019325662 -0.023063706
0.22023547 0.21689437 0.04359835 0.03117485 -0.014116947 0.100711375 -0.018375408 -0.027003948
0.060607776 0.07398301 0.048786744 0.031588376 -0.028103856 0.051474486 0.08291034 0.123306856
-0.19162618 0.005115627 -0.050300393 -0.01615264 0.09645113 -0.06786529 -0.110268 0.017918214
0.12418051 -0.03366845 0.2098517 -0.063627124 0.007785322 0.11084739 -0.00019645464 -0.042401046
-0.016447613 0.11703878 0.099266 0.16367479 0.1834164 0.027376726 -5.2071293e-05 0.10983829
0.14916441 0.14939713 -0.032289717 0.023606576 0.00976295 -0.049916286 0.15711933 0.015792837
-0.026579818 0.11673761 0.04023617 0.08615645 0.04155764 0.0028837046 0.15177724 0.033972852
0.101629004 -0.06658016 -0.056726202 0.16956948 0.02901394 0.08723654 0.021779565 0.14982349
0.008018261 0.19257525 0.13448258 -0.010094709 0.062621124 0.020175489 0.06395887 0.034270912
0.1160757 0.07453622 0.031911835 -0.06376 0.056987185 0.031450264 0.11366542 -0.010832033
-0.021168623 -0.10449268 -0.09811224 -0.00049252 0.08388015 0.05056441 -0.0060498086 -0.06460811
0.01879993 -0.17331408 -0.004953305 -0.026855454 -0.026225926 0.2263921 0.073620185 -0.104541935
-0.0047459747 -0.024518592 -0.05091233 -0.15957657 0.044281002 0.068316214 -0.089494154 0.00629246
-0.0012134631 0.1668272 -0.06869916 -0.00188259 0.01372743 -0.028209304 0.06384011 -0.22457623
-0.0013930977 -0.012387006 -0.13152875 -0.036291685 0.083847746 -0.031645518 0.02441117 -0.05059781
-0.014963443 0.098031424 -0.13625193 -0.0018185077 -0.005725314 -0.05281463 -0.19529702 0.10340245
0.028527174 0.017387409 0.0313598 -0.090095975 -0.087766476 0.07605607 -0.062345978 -0.064700946
-0.13756202 0.060722034 -0.03824797 0.0021436529 0.013382807 -0.07470789 0.14595641 -0.0053853015
0.10783257 -0.048426293 -0.027497897 0.10629062 0.061940126 0.036068995 0.049905766 -0.063827544
0.038180828 -0.055733636 -0.015948402 -0.1555165 0.15425013 0.09147184 -0.04215707 -0.024559552
0.00961395 -0.1289189 -0.08189264 0.109526955 0.14516658 -0.0055876635 0.024926819 0.0035699785
00000000: 406c 943d 6a33 c43d f335 f7ba 4478 38bd
00000010: c86c a33c d10e 63bc 433b a0bd 0c67 443e
00000020: 64f8 bcbd 047b 8a3d 6a69 a73d 86f2 c83c
00000030: 5433 ef3d 296b 70bd b21c 883d 8298 9abd
00000040: f314 72ba c2ef 603b 9858 273d 0edc a7bd
00000050: ae17 dfbd a71c 2c3d 9642 083d c00f 5c3c
00000060: 2059 54bd 9b6b dbbd 7556 9d3d 8af2 61bc
00000070: 967b 09bd f209 913d a628 63bd 53f1 89bc
00000080: f27e e43c 8d70 e8bd 4864 1e3e 9936 273d
00000090: 0bcb 30ba 38b1 103d 7ab1 c63d b74c 8ebd
000000a0: f88e ea3c 466a 5cbd 005a 6a3d 55d4 f13d
000000b0: b38e 673d 44cb 393e 4af1 083e 5f24 6abd
000000c0: 4fd5 7a3d 7747 98bd fcc3 89bd 86c8 b5bb
000000d0: 4b8d 58ba c73f e03c 0ad0 c8bd 23ea 453e
000000e0: df37 153e 14cc e33c 2641 e43d f8df 2abe
000000f0: 0afb b43c 7928 0f3d 11c0 19be be83 03bd
00000100: ad56 f43d 5265 e03c a6d8 16bd 2a63 16be
00000110: 5c71 56bd c6dd 523d 7b36 c13d b283 71bd
00000120: eba7 013d b6d0 603e 76ae 333c 1813 16be
00000130: 62e0 6b3c 6404 b23d 4adf 50bc 97a7 e13d
00000140: 696d a33d 4f85 903c 3808 833d eb3b d03d
00000150: 1575 403d 41cf 86bd da50 9e3c 19f0 bcbc
00000160: 6885 613e 8f19 5e3e 2f94 323d 6662 ff3c
00000170: c44a 67bc c441 ce3d 0688 96bc 6237 ddbc
00000180: dc3f 783d 6884 973d 9cd4 473d d062 013d
00000190: 0f3a e6bc e9d6 523d e5cc a93d 4e88 fc3d
000001a0: a739 44be fda0 a73b c907 4ebd 8b52 84bc
000001b0: 2c88 c53d f5fc 8abd 30d4 e1bd 38c9 923c
000001c0: 5a52 fe3d eee7 09bd 5de3 563e f04e 82bd
000001d0: 041c ff3b f503 e33d 64ff 4db9 b8ac 2dbd
000001e0: 25bd 86bc 07b2 ef3d f94b cb3d 5d9a 273e
000001f0: 82d1 3b3e 2845 e03c 2067 5ab8 e6f2 e03d
00000200: 8ebe 183e 90fb 183e 3942 04bd 9462 c13c
00000210: c8f4 1f3c 0575 4cbd e4e3 203e fb5f 813c
00000220: ebbd d9bc 2114 ef3d afce 243d cb72 b03d
00000230: 5838 2a3d 89fc 3c3b 7e6b 1b3e 1e27 0b3d
00000240: de22 d03d 2e5b 88bd bc59 68bd 9fa3 2d3e
00000250: a4ae ed3c 12a9 b23d 0f6b b23c 546b 193e
00000260: 065f 033c 7232 453e cdb5 093e 4764 25bc
00000270: 813f 803d 1147 a53c defc 823d a85f 0c3d
00000280: 19b9 ed3d 72a6 983d fcb5 023d 9a94 82bd
00000290: 656b 693d fed1 003d 6ac9 e83d d778 31bc
000002a0: d269 adbc 4200 d6bd 12ef c8bd 751c 01ba
000002b0: 5bc9 ab3d a01c 4f3d 793d c6bb 4251 84bd
000002c0: 5002 9a3c 3f79 31be 554f a2bb f8ff dbbc
000002d0: c1d7 d6bc 55d3 673e 2ec6 963d 151a d6bd
000002e0: 1f84 9bbb 37db c8bc 7389 50bd 0a68 23be
000002f0: ff5f 353d 5fe9 8b3d b648 b7bd fb30 ce3b
00000300: 110d 9fba c0d4 2a3e 25b2 8cbd 3dc1 f6ba
00000310: 04e9 603c 3317 e7bc 9bbe 823d 50f7 65be
00000320: 9a98 b6ba def2 4abc 79af 06be 97a6 14bd
00000330: 5eb8 ab3d bb9e 01bd eff9 c73c a63f 4fbd
00000340: 3b29 75bc b3c4 c83d a085 0bbe fe5a eeba
00000350: 6a9b bbbb 2754 58bd f1fb 47be aac4 d33d
00000360: d2b1 e93c 0a70 8e3c 2273 003d 3d84 b8bd
00000370: e9be b3bd 49c3 9b3d 7f5e 7fbd ee81 84bd
00000380: 0fdd 0cbe abb7 783d e7a9 1cbd 877c 0c3b
00000390: 9043 5b3c 7300 99bd 9975 153e 2f77 b0bb
000003a0: 53d7 dc3d a65a 46bd 4543 e1bc e6ae d93d
000003b0: eeb4 7d3d 15bd 133d fd69 4c3d 04b8 82bd
000003c0: 8063 1c3d f448 64bd 39a6 82bc b83f 1fbe
000003d0: bff3 1d3e 9755 bb3d e4ac 2cbd 1d31 c9bc
000003e0: d483 1d3c 5103 04be 54b7 a7bd ab4f e03d
000003f0: 8ca6 143e b818 b7bb 5433 cc3c 4df6 693b

network_body._body_endoder.seq_layers.0.bias f4 [256]
0.029293457 0.0018821162 -0.03606604 -0.014388289 -0.0232115 0.04738239 0.013403026 0.001092292
0.032013953 -0.018736076 0.009659211 -0.030337675 0.006842224 -0.042167533 0.023085808 -0.027499588
-0.06711843 0.005321407 0.008458491 -0.041272156 0.008395133 -0.019752515 -0.0017266445 -0.042060222
0.02487808 0.068744004 -0.029805114 0.049098905 0.008998966 0.015024234 -0.010863928 -0.011070421
-0.0142658455 -0.00014077724 0.0023573963 -0.04095972 -0.027037524 -0.041675784 -0.0312553 -0.006846737
0.030729003 0.016512591 0.009363962 -0.0328295 0.0020033007 0.04380596 -0.055373386 0.024213973
-0.013322361 0.016357064 -0.032253616 -0.011519697 0.006639029 -0.0047512054 0.004651131 -0.024005234
-0.042860404 -0.032344855 -0.0029016663 -0.04652674 -0.041573104 0.030321818 -0.034685984 0.00052204874
0.004199089 0.01799716 0.028744932 -0.048615985 -0.021045139 0.0036720638 0.022883534 0.028417025
0.009670963 0.022116555 -0.02379748 0.037853386 0.031107217 0.013760626 -0.021872833 -0.03525237
-0.0019634536 -0.02623574 -0.042666238 -0.021804806 -0.048573576 0.030209271 0.007190527 0.052653026
-0.005135251 0.041532356 0.004171325 0.0040287436 0.028717928 -0.0012760389 0.014113886 -0.002249902
-0.022935256 0.021415913 0.0301824 -0.011366012 -0.008081292 0.011374903 -0.0036695 0.0015533597
-0.081778705 0.02557839 -0.039978746 -0.0008665214 0.017476384 -0.011308402 0.016640583 -0.008278697
-0.08404181 0.013357456 -0.04556189 -0.040493924 0.053956784 0.037678454 -0.032985136 0.013174198
0.030733503 -0.02030159 0.016408041 -0.0279967 2.9874564e-05 -0.003459106 -5.2492174e-05 0.016056122
-0.017740835 0.010817928 -0.04231794 0.025845654 -0.0057285344 -0.016214503 0.018675996 -0.0046869703
0.03473675 0.04659286 0.014563508 -0.013610499 0.0145415915 -0.012714288 0.0075733354 -0.01094534
-0.027262196 0.063505664 -0.014201447 -0.0051354445 0.037723735 -0.008661654 0.02280464 0.0008183804
-0.022664716 0.004887112 -0.013266934 -0.024222132 0.015561544 -0.0031804938 -0.08027398 -0.05749853
-0.051222984 -0.05714681 -0.026937218 -0.033262804 0.00042166162 0.04057461 -0.036638606 -0.0024309144
0.035712615 0.006354585 -0.005252882 -0.03452442 0.033310793 0.003885343 -0.024471197 -0.02846686
0.029449806 0.03915488 -0.010806456 0.012398342 0.03398872 0.0025662805 0.031909198 0.027688606
-0.0631647 -0.07170533 0.031173324 0.0005033503 -0.033369083 -0.04832103 0.019905437 -0.005468416
0.011964893 0.041594144 -0.025316767 -0.03844354 0.007710699 -0.02137396 0.022116698 -0.014247012
0.04959723 -0.010076335 0.01738182 -0.0070173754 0.015777333 0.0626975 0.00421152 0.027840469
0.008076891 -0.08418845 -0.032239635 -0.009992973 -0.00015523467 0.008706217 -0.01770587 0.014920567
0.017512584 -0.013707731 0.0065882 0.007418518 -0.045300744 0.019774517 0.0055494695 -0.041075177
-0.010819067 0.008835621 0.06446706 -0.01596034 0.043715935 0.0052840887 0.05028477 -0.0060409587
-0.036818348 0.040239014 0.057961058 -0.024621887 -0.01647087 -0.025034314 0.03197045 -0.007744433
-0.091984645 0.013886908 0.016041562 -0.023175279 0.0041233874 -0.0064144894 -0.002530636 0.035153024
-0.0071394807 0.018071476 -0.014578797 -0.05760025 0.013729718 0.017574303 -0.035011176 -0.0021485852
00000000: d5f8 ef3c 57b1 f63a fcb9 13bd dcbc 6bbc
00000010: 0b26 bebc 0914 423d 5e98 5b3c 3d2b 8f3a
00000020: 1021 033d 667c 99bc ab41 1e3c b786 f8bc
00000030: bc34 e03b ddb7 2cbd 731e bd3c d146 e1bc
00000040: 6375 89bd 335f ae3b 7c95 0a3c fe0c 29bd
00000050: bd8b 093c 07d0 a1bc 9350 e2ba 5747 2cbd
00000060: 1dcd cb3c a8c9 8c3d db29 f4bc ef1b 493d
00000070: 6670 133c 3428 763c 9efe 31bc b660 35bc
00000080: 4bbb 69bc 9a9d 13b9 8c7e 1a3b 61c5 27bd
00000090: cc7d ddbc 3ab4 2abd 8f05 00bd 985a e0bb
000000a0: 64bb fb3c 6a45 873c 4e6b 193c 3a78 06bd
000000b0: cf49 033b e16d 333d 34cf 62bd 625c c63c
000000c0: 0846 5abc 40ff 853c 5e1c 04bd 1cbd 3cbc
000000d0: 368c d93b 00b0 9bbb 8468 983b a0a6 c4bc
000000e0: 648e 2fbd 0a7c 04bd e229 3ebb d392 3ebd
000000f0: 8f48 2abd 7665 f83c e412 0ebd 19da 083a
00000100: 8398 893b c86e 933c 7e7a eb3c 8e21 47bd
00000110: db66 acbc 02a7 703b 4076 bb3c d2ca e83c
00000120: f572 1e3c c72d b53c eff2 c2bc 270c 1b3d
00000130: 90d4 fe3c 4074 613c a82e b3bc ca64 10bd
00000140: 49ad 00bb 56ec d6bc cbc2 2ebd fe9f b2bc
00000150: 16f5 46bd 6f79 f73c 839e eb3b b3aa 573d
00000160: 9c45 a8bb d51d 2a3d 9caf 883b 8d03 843b
00000170: dc41 eb3c c340 a7ba ee3d 673c 1873 13bb
00000180: b8e2 bbbc 6d70 af3c 1541 f73c 8238 3abc
00000190: 6567 04bc cd5d 3a3c fe7b 70bb 1a9a cb3a
000001a0: 987b a7bd c689 d13c c1c0 23bd 4427 63ba
000001b0: a22a 8f3c e046 39bc d551 883c 5fa3 07bc
000001c0: 1d1e acbd 3bd9 5a3c 1b9f 3abd f5dc 25bd
000001d0: ca01 5d3d b954 1a3d 6c1b 07bd 97d8 573c
000001e0: d4c4 fb3c 854f a6bc 286a 863c 5659 e5bc
000001f0: 239b fa37 2bb2 62bb 0b2b 5cb8 2188 833c
00000200: 3a55 91bc ae3d 313c 9455 2dbd 44ba d33c
00000210: 6eb6 bbbb 47d4 84bc 67fe 983c 2895 99bb
00000220: 1f48 0e3d 28d8 3e3d c89b 6e3c 92fe 5ebc
00000230: db3f 6e3c 974f 50bc be29 f83b 1554 33bc
00000240: f854 dfbc 420f 823d 30ad 68bc 3b47 a8bb
00000250: 3484 1a3d 9ce9 0dbc ccd0 ba3c 9488 563a
00000260: 5bab b9bc 1124 a03b 8e5d 59bc 7e6d c6bc
00000270: d9f5 7e3c d56f 50bb af66 a4bd 9483 6bbd
00000280: 31cf 51bd c612 6abd 71ab dcbc 943e 08bd
00000290: 7712 dd39 9031 263d 5d12 16bd fa4f 1fbb
000002a0: 6447 123d 1f3a d03b 5e20 acbb 7a69 0dbd
000002b0: e670 083d 3da1 7e3b d277 c8bc 5533 e9bc
000002c0: b840 f13c de60 203d 900d 31bc 6a22 4b3c
000002d0: c237 0b3d 0b2f 283b 38b3 023d 37d3 e23c
000002e0: 7f5c 81bd 3eda 92bd 335f ff3c 44f3 033a
000002f0: 05ae 08bd 46ec 45bd ba10 a33c 6630 b3bb
00000300: 6608 443c 9f5e 2a3d 1c65 cfbc f976 1dbd
00000310: 08aa fc3b 7118 afbc 142e b53c 4d6c 69bc
00000320: 7726 4b3d 3617 25bc 5264 8e3c 03f2 e5bb
00000330: 773f 813c 8c67 803d ca00 8a3b b211 e43c
00000340: f054 043c fe6a acbd b50d 04bd 91b9 23bc
00000350: 7dc6 22b9 85a4 0e3c e70b 91bc 6575 743c
00000360: 8d76 8f3c 6496 60bc d4e1 d73b 0a17 f33b
00000370: 468d 39bd 2bfe a13c 53d8 b53b 723e 28bd
00000380: 7542 31bc 48c3 103c 4e07 843d 42bf 82bc
00000390: 7b0f 333d 2626 ad3b 67f7 4d3d 3cf3 c5bb
000003a0: d6ce 16bd aad1 243d 9368 6d3d d7b3 c9bc
000003b0: ebed 86bc c314 cdbc 72f3 023d 03c5 fdbb
000003c0: 7262 bcbd ea85 633c 9869 833c 15da bdbc
000003d0: 7b1d 873b a330 d2bb 07d9 25bb 9efc 0f3d
000003e0: 4ef2 e9bb a20a 943c e8db 6ebc 3dee 6bbd
000003f0: 9cf2 603c fcf7 8f3c e167 0fbd 47cf 0cbb

network_body._body_endoder.seq_layers.2.weight f4 [256, 256]
0.015032933 -0.0025888872 0.04730179 -0.08021019 0.050188847 0.1317148 0.13456576 0.029140506
-0.14962777 0.018876249 0.19025767 0.0063336813 -0.12040251 -0.16230609 0.11111627 0.047425564
-0.0800919 -0.084572814 0.06451474 -0.023096547 0.078170575 -0.008169476 -0.06519199 -0.14340374
-0.016972782 0.038179144 -0.005648573 0.03379637 -0.081619225 -0.0037358282 0.020041034 -0.1590196
-0.032211594 -0.03853646 0.009663828 -0.18267404 -0.09309283 -0.033726506 -0.16246593 0.06655979
0.026246196 0.0776203 -0.06759803 -0.16082145 0.04075392 0.10238127 -0.09593872 0.00020798162
-0.15861923 0.029463403 -0.16815786 0.08412217 0.096133515 -0.11521851 -0.033870887 -0.02190888
-0.105843104 -0.060252417 0.08333294 -0.1014905 -0.07397802 -0.07949674 -0.083233945 -0.102350846
0.085890785 -0.09289446 -0.14869389 -0.070252664 0.10315232 -0.048793837 -0.048152152 0.026264505
-0.14405881 -0.068701506 0.007065959 0.020600324 0.007950122 0.011922426 0.10346449 -0.03911639
0.10555634 -0.14911465 0.07940572 -0.09679666 -0.07333588 0.24687444 0.20910542 -0.02622956
0.025830703 0.016311273 0.0052627204 -0.025572702 0.017331848 -0.036439326 0.06569801 -0.005791214
-0.13265713 0.027181214 0.11072867 -0.07247192 -0.005315793 -0.17260557 -0.012913547 -0.0128926225
0.013878033 -0.0898044 -0.09369846 0.021890054 0.08158453 -0.07546192 0.13923997 0.1304683
-0.10821807 -0.06922862 -0.1636999 0.066130765 -0.034107253 0.021332506 0.012627663 0.115222305
-0.037932258 -0.05618137 -0.09268126 -0.043953583 0.05195345 0.0074531906 -0.032270297 -0.14459331
-0.17463763 0.15870386 0.1276975 0.09399477 0.032814693 0.06260687 0.06281665 -0.02224929
-0.04122071 0.03700586 0.01127441 0.12637444 0.13207534 0.04597401 0.014711393 -0.10896883
-0.051421914 0.027288523 -0.0033264211 0.04523277 -0.036265966 -0.0694705 -0.07996831 -0.10650239
-0.043912295 -0.020779794 -0.09248494 0.105226934 -0.02649544 -0.10562728 -0.26347068 -0.048927866
0.086560555 0.02636063 -0.10050867 -0.20222624 -0.0033886386 0.06799052 -0.008316917 -0.1022091
-0.038533177 0.09534114 -0.0694768 -0.06420304 -0.10898043 -0.13378009 -0.08060511 -0.006407383
0.032302108 -0.04555348 0.053382225 0.066158034 0.11204765 0.15127799 0.10969879 -0.024110708
-0.04739047 -0.10854854 -0.011579103 -0.047459953 -0.09984683 0.08849888 0.006528129 0.02447793
0.015515615 0.093341716 -0.017504409 -0.03686466 -0.044963043 0.035027754 0.0063749505 -0.22557166
0.09817337 -0.0712164 0.15583001 -0.07325939 0.004349729 0.1052401 -0.124921784 0.0036661918
-0.2558516 -0.09843446 0.21285868 -0.16775669 0.10978829 0.04748257 -0.089475594 -0.06402084
-0.09676578 -0.12385477 0.027925255 -0.08099257 -0.07222786 -0.16422655 -0.040378597 -0.11333637
-0.020757183 -0.059600838 0.17926432 -0.06453801 -0.0053807152 -0.16360915 0.010614366 0.03093835
-0.26958293 -0.033924267 0.13276793 0.0067496216 -0.10177134 -0.110325396 0.07177185 0.07985909
-0.0015251739 -0.110236265 -0.006710937 -0.010734041 0.108653486 0.064012595 -0.01421275 -0.041057754
-0.11313215 0.04630012 -0.24451292 0.16489112 -0.07715186 0.039474092 0.037776433 0.08799604
00000000: b14c 763c 52aa 29bb 86bf 413d 3d45 a4bd
00000010: d292 4d3d 3fe0 063e 9bcb 093e 12b8 ee3c
00000020: 0638 19be 5da2 9a3c e8d2 423e c58a cf3b
00000030: 9795 f6bd 9133 26be ed90 e33d 4f41 423d
00000040: 3907 a4bd 8334 adbd 4e20 843d f834 bdbc
00000050: e517 a03d 44d9 05bc 6183 85bd 6ed8 12be
00000060: 810a 8bbc bc61 1c3d aa17 b9bb 106e 0a3d
00000070: fb27 a7bd ccd4 74bb 182d a43c 09d6 22be
00000080: 4ef0 03bd 68d8 1dbd 0855 1e3c e70e 3bbe
00000090: 74a7 bebd ce24 0abd 785d 26be 8050 883d
000000a0: 4302 d73c 64f7 9e3d d670 8abd 61ae 24be
000000b0: 95ed 263d 45ad d13d 857b c4bd a415 5a39
000000c0: 146d 22be 3c5d f13c 9331 2cbe 3f48 ac3d
000000d0: a6e1 c43d aff7 ebbd 33bc 0abd 407a b3bc
000000e0: 45c4 d8bd 3dcb 76bd 76aa aa3d 40da cfbd
000000f0: ca81 97bd 30cf a2bd 8f76 aabd 529d d1bd
00000100: 82e7 af3d 733f bebd 3643 18be a1e0 8fbd
00000110: 8641 d33d 0cdc 47bd 313b 45bd a928 d73c
00000120: 2784 13be 60b3 8cbd 8f89 e73b 03c2 a83c
00000130: 3a41 023c 4756 433c 31e5 d33d 8238 20bd
00000140: ec2d d83d 83b1 18be 779f a23d 543d c6bd
00000150: 1f31 96bd a7cc 7c3e bb1f 563e 60df d6bc
00000160: e99a d33c 389f 853c e672 ac3b d87d d1bc
00000170: 85fb 8d3c 6741 15bd ae8c 863d 39c4 bdbb
00000180: 45d7 07be 23ab de3c b7c5 e23d 286c 94bd
00000190: 1b30 aebb 84bf 30be 5893 53bc 943b 53bc
000001a0: b060 633c 5feb b7bd fae4 bfbd c552 b33c
000001b0: ca15 a73d c78b 9abd ec94 0e3e 7b99 053e
000001c0: 6fa1 ddbd bcc7 8dbd f2a0 27be 916f 873d
000001d0: 0cb4 0bbd 82c1 ae3c 42e4 4e3c acf9 eb3d
000001e0: db5e 1bbd 701e 66bd accf bdbd ac08 34bd
000001f0: 24cd 543d e539 f43b dc2d 04bd 4510 14be
00000200: 35d4 32be 4483 223e 22c3 023e 5480 c03d
00000210: b368 063d 0838 803d 04a6 803d 2544 b6bc
00000220: 0cd7 28bd 7593 173d 4eb8 383c 4d68 013e
00000230: c23e 073e 3e4f 3c3d 0e08 713c 0d2b dfbd
00000240: c99f 52bd 2e8c df3c 1600 5abb ff45 393d
00000250: 9f8b 14bd 8d46 8ebd 6dc6 a3bd ed1d dabd
00000260: 61dd 33bd 633a aabc bf68 bdbd 3881 d73d
00000270: f70c d9bc 1e53 d8bd a1e5 86be 9668 48bd
00000280: a946 b13d 3ff2 d73c 7dd7 cdbd 6514 4fbe
00000290: ec13 5ebb 9d3e 8b3d ae43 08bc 0153 d1bd
000002a0: f7d4 1dbd 3742 c33d da49 8ebd e27c 83bd
000002b0: 2231 dfbd a6fd 08be 4b14 a5bd 06f5 d1bb
000002c0: 374f 043d 4996 3abd 52a7 5a3d dd7d 873d
000002d0: 3d79 e53d 9ee8 1a3e c2a9 e03d d283 c5bc
000002e0: 821c 42bd b24e debd 47b6 3dbc 5e65 42bd
000002f0: 7f7c ccbd e73e b53d eae9 d53b f185 c83c
00000300: 3535 7e3c f129 bf3d 6865 8fbc 66ff 16bd
00000310: 2b2b 38bd 4379 0f3d f6e4 d03b 42fc 66be
00000320: 1f0f c93d e7d9 91bd e791 1f3e 0509 96bd
00000330: 2c88 8e3b 1f88 d73d fed6 ffbd 7e44 703b
00000340: fbfe 82be 0298 c9bd a0f7 593e 69c8 2bbe
00000350: afd8 e03d 157d 423d fb3e b7bd 5c1d 83bd
00000360: 232d c6bd 92a7 fdbd 81c3 e43c 6fdf a5bd
00000370: 33ec 93bd 012b 28be 0764 25bd e61c e8bd
00000380: f80a aabc 0220 74bd 1191 373e 812c 84bd
00000390: b650 b0bb 2889 27be e1e7 2d3c 6c72 fd3c
000003a0: c606 8abe 2cf4 0abd 51f4 073e ee2b dd3b
000003b0: 7e6d d0bd 48f2 e1bd 1ffd 923d 2a8d a33d
000003c0: 58e8 c7ba 8dc3 e1bd 6be7 dbbb d5dd 2fbc
000003d0: b885 de3d 0919 833d 98dc 68bc 2d2c 28bd
000003e0: d4b1 e7bd 32a5 3d3d 9861 7abe 38d9 283e
000003f0: cb01 9ebd 96af 213d 76bb 1a3d 4537 b43d
