results/PushBlockCollab_POCA/PushBlockCollab/PushBlockCollab-1499960.onnx (onnx, 643240 bytes, 12 tensors)

network_body.observation_encoder.processors.0.conv_layers.0.weight f4 [16, 6, 8, 8]
00000000: 21f8 19bc 074c a2bd 8126 e8bd 56e6 553c
00000010: 7a22 2e3c 2e1e eb3c 64b1 bd3c 1d2a 3abb
00000020: 4d31 ed3c 4707 5cbd 82f1 b1bc 6e5d a8bd
00000030: 921e 073b 1ac9 13bd 6a76 b73c 3dd5 cd3b
00000040: c94b 5e3d 8c28 7bbd 01a2 903c 1a09 913c
00000050: caaa b5bc 9d88 a5bc 6134 833c 06c6 ba3d
00000060: 5253 e73c f23e 133d ddd3 9c3b 5ee0 27bd
00000070: 824d 4dbd d053 083d 01b0 23bc abc0 b03d
00000080: 2bdd c1bb a29c 4abd 71ea 2abc c21f c7bb
00000090: b5b8 5bbc f559 533d e13f aa3d 8da6 2f3d
000000a0: 94b5 10bc b3ea 9fbc 1b01 31bd 61d2 6c3c
000000b0: a210 26bd db43 f83c e07c 73bb ec05 0c3d
000000c0: 409c cfbc 7420 6dbd f0e2 abbd 23eb 0bbd
000000d0: 7d13 65bc 27e2 7f3d f05f 043d cc06 44bc
000000e0: f48c 453a 8226 573c fcdb 89bc 0ba7 373b
000000f0: 0a45 513c 3060 1c3d 48a7 d6bc 08e4 203d
00000100: 0168 42bd 77cb a03c c0d9 f1bb 851d 473d
00000110: a004 41bd d65b 573d a211 823c 7eee a23d
00000120: 8f7d 18bd fed3 9cbb 4d01 15bd 0a4a 023d
00000130: 7996 aebc 8105 2ebb f426 173b ec93 69bd
00000140: 3bf5 ddbd 638f f13b 15f3 ca3c a453 3e3d
00000150: 81e3 f83a 0670 ec3c 3097 78bc 739b 03bd
00000160: 29ab 9fbd fb37 55bd a8cc c33c b506 c23c
00000170: 81cf 0e3d bfd9 06ba 081d d43c 7fd9 033c
00000180: 9219 67bd dccc 1fbd 2f59 043c 487c ac3d
00000190: 6bda e53d 9e2e a33d 5347 8cbc f43a a2bc
000001a0: 2d23 cfbc f35b b0bc 7f40 9dbc 0a07 903d
000001b0: 11bc ed3c 7cef 08bc bddf 67bc 3a36 2ebd
000001c0: 5f8d a9bc f211 88ba 37ff 29bd 0a27 5dbd
000001d0: ce0d 98bb 5b1e 9fbd e30c f5bd c09c 3fbd
000001e0: 375e a5bc 4b22 81bd fbc2 4fbd f10c 27bd
000001f0: b9ea 1cbd 2680 e83c 3c89 02bd ef23 5ebc
00000200: 878f aabc ebf6 74bd 74d4 a7bd 49c0 bcbd
00000210: f4ff a5bc a4c7 c1bb b848 8abc 3254 63bd
00000220: 063c 50bd 7770 81bd bba3 2cbc 9dae debd
00000230: ebe5 9abc 871b 2abd b723 a5bd 5902 8abd
00000240: ea1b e6bc 238d fd3b e323 96bb e113 c3bd
00000250: 512c 023c f06f 27bd 004c 23bd 1910 263c
00000260: 39cf 1dbc 094b 273c 6a26 b3bc 5747 7ebd
00000270: d911 c7bc 80c3 a5bd 06fd cdbc 359f 70bc
00000280: fd45 77bb e1d3 803c 2e6a 3ebc cc64 47bd
00000290: 474b c8bd 0ff8 51bd a62a 143d 3520 c0bc
000002a0: f8ac eebc ad33 513b 3a24 4f3c 1159 5cbd
000002b0: 2d6a 85bd cd6b bbbc ceea 30bd ab14 dfbc
000002c0: 8f14 23bb 186f 8ebc b5a3 87bc 3db0 a73c
000002d0: a1c6 cebd f78b c43c 92d6 973b 581a ee3c
000002e0: 9999 343c bc24 bf3c e1bd 4c3d 7f32 7dbb
000002f0: e44d 57bb 3422 42bd e1db 2cbc e1d5 68bb
00000300: ef49 643c d7ca 323c 013c 163c 4ef6 223a
00000310: ebe5 e9bc 4171 cdbc 8603 983d b332 bd3d
00000320: 6b5d 13bd 08c2 8fbc 6a16 d0bc 738d d23c
00000330: 8f86 2abc 6530 bbbc d666 ea3d 62d9 943d
00000340: ba23 84bd 5979 72bd 4cb0 4e3d 4d76 e23b
00000350: c11d 5f3c f760 46bd e42c 983d 2f52 d43c
00000360: 3154 48bd 178f d43c 5462 90bc 010a 89bc
00000370: 8e38 373d 9f42 a13d 714e a13c b76a 9b3d
00000380: 1664 d53c 0573 df3d 913d 6a3d 62e5 373d
00000390: 2876 bf3d 1d5e 693d cc14 663d c423 823d
000003a0: a93e 24bc b7e1 523d d036 8e3d c30d 343d
000003b0: 0ba9 973d 49a3 983d 597f ee3d 4ebe 4d3d
000003c0: d05b ed3d 0052 893c d388 81bd 7453 13bd
000003d0: a456 a03d 75a5 123d 4965 9e3d 68fa c1bd
000003e0: fcb5 373c b25b 123d a0c3 d23c 2dab f83d
000003f0: 76cf 083c 17be 9b3d c22b 8fbd fbca 47bd
-0.009397537 -0.07924657 -0.11335469 0.013055405 0.010628337 0.028700914 0.023155876 -0.002840645
0.028954173 -0.053717878 -0.021721605 -0.08220945 0.0020617587 -0.036080457 0.022395331 0.0062815235
0.054271493 -0.061317965 0.017655374 0.017704535 -0.022176165 -0.020206744 0.016016187 0.09119801
0.028237972 0.0359487 0.0047859983 -0.040985458 -0.050122745 0.033283055 -0.009990693 0.086304985
-0.005916258 -0.049465783 -0.010431872 -0.006076784 -0.013410737 0.05159946 0.08312965 0.042883445
-0.008832354 -0.019521093 -0.043213945 0.014454455 -0.040543206 0.030305794 -0.0037153289 0.034185335
-0.02534306 -0.057892278 -0.08392894 -0.03415979 -0.013981697 0.062471535 0.032318056 -0.011964511
0.0007535957 0.01313174 -0.01682853 0.002802315 0.012772808 0.03817767 -0.026202813 0.039279968
-0.047462467 0.01962827 -0.007380694 0.048612136 -0.04712355 0.052577816 0.015877549 0.07955645
-0.037229117 -0.0047860136 -0.036378194 0.03180889 -0.021311985 -0.0026553574 0.002306399 -0.057025835
-0.108377896 0.0073718294 0.024774114 0.046466485 0.00189887 0.02886201 -0.015172765 -0.03213067
-0.07796318 -0.05205534 0.023901299 0.023684839 0.03486586 -0.0005144141 0.02589275 0.008047461
-0.05642087 -0.03901373 0.008077904 0.08422142 0.112233005 0.07967876 -0.017123854 -0.019803502
-0.025285328 -0.02152822 -0.019195793 0.070325926 0.029020341 -0.008357879 -0.014152464 -0.042532183
-0.020697294 -0.0010381325 -0.041503157 -0.05399231 -0.0046403175 -0.07769462 -0.119653486 -0.046780348
-0.020186527 -0.06305369 -0.050723057 -0.040783826 -0.038309786 0.028381418 -0.03186916 -0.013558372
-0.020820392 -0.05980579 -0.08194819 -0.09216363 -0.02026365 -0.0059136916 -0.016880378 -0.055500217
-0.050838493 -0.06320279 -0.010537083 -0.108731486 -0.018908462 -0.04153016 -0.08063453 -0.06738729
-0.028089482 0.007737772 -0.0045819147 -0.09525276 0.007945136 -0.040878236 -0.0398674 0.010135674
-0.009631925 0.010210761 -0.021868903 -0.062079754 -0.024300503 -0.08093929 -0.025145065 -0.014686395
-0.0037730925 0.015726032 -0.011621995 -0.04868011 -0.09779983 -0.051261958 0.036173485 -0.023452858
-0.029135212 0.003192167 0.012642914 -0.053795878 -0.06514392 -0.022878552 -0.043192677 -0.027231535
-0.002488408 -0.017386958 -0.016557554 0.02046978 -0.10096479 0.023992522 0.004633733 0.029065296
0.011022949 0.023332946 0.04998577 -0.0038634834 -0.0032852823 -0.0473959 -0.01055047 -0.0035527872
0.013933643 0.010912619 0.0091695795 0.0006216512 -0.028552016 -0.025078418 0.07422547 0.09238186
-0.035977762 -0.017548576 -0.025401313 0.025702214 -0.010408058 -0.022850225 0.11445396 0.07268025
-0.06452127 -0.059197757 0.0504611 0.006911075 0.013617934 -0.048432317 0.07430437 0.025918094
-0.048908416 0.025947137 -0.017625012 -0.016728403 0.04473167 0.07874035 0.019690724 0.075887136
0.026048701 0.1091061 0.05718762 0.04489649 0.093487084 0.05697452 0.056172177 0.06354478
-0.010024705 0.05148479 0.069440484 0.043958437 0.07405289 0.07453019 0.116453834 0.050230317
0.115897775 0.016762733 -0.06324925 -0.03596826 0.078290254 0.035802323 0.07734162 -0.09471589
0.011212822 0.03573198 0.025728047 0.12142024 0.008350244 0.07604616 -0.06990768 -0.04877756

network_body.observation_encoder.processors.0.conv_layers.0.bias f4 [16]
00000000: fbe0 0e3c 5100 913c 1e25 0d3d 1965 cd3c
00000010: 4755 203d aa06 42bd 5dd3 cf3c 8538 babc
00000020: dbb1 75b8 cd7b a0bc 9fc7 c2bc 94da 10bc
00000030: 1dc8 2c3d a205 b3bc 20bd f33c da2e ad3b
0.008720632 0.017700346 0.034459226 0.025072621 0.039143827 -0.047369637 0.02536934 -0.022732029
-5.8578193e-05 -0.019590283 -0.023776827 -0.008841176 0.04218303 -0.021853272 0.029753268 0.005285126

network_body.observation_encoder.processors.0.conv_layers.2.weight f4 [32, 16, 4, 4]
00000000: 92c3 b13c 59a1 c93c 843d 953d 99a5 e43c
00000010: 3b42 94bd adcc f43d e532 abbc 9683 0fbd
00000020: c19f b33d 2d2b 803c 2328 b53d 5c9d 17bd
00000030: d215 183d 3cf3 71bd b4a9 1d3d 2cd5 db3c
00000040: 795e 833c 3a0b 8cbd 7ce4 46bc 99b5 493c
00000050: c0ba 873d 6f74 37bd 56b9 cebd 0d3f 973c
00000060: fffb 513d 845e 383d 2c2a a1bd 1764 9e3d
00000070: d711 8e3d 94d4 2d3c 5618 87bd ef68 8b3a
00000080: 6e47 9ebc b1af 61bd a3be a5bc ac0f 97bd
00000090: 3a9c 6bbc d878 2b3b 78e8 053d 182f 953d
000000a0: 5772 72bd 375f 3b3d 4744 5dbd ebb3 e1bc
000000b0: 45db 13bd 8440 e63c 3929 70bc 26ce 413d
000000c0: baac 8a3c 924a 22bc 845e da3c 4973 943c
000000d0: efb9 9a3d 0761 2dbd 0fd5 6e3d 375a 5c3d
000000e0: 84de 52bd 027d 2f3d 3676 36bd d268 38bc
000000f0: 67b5 4ebd e35e bd3c 06e0 c03d 129f 563c
00000100: 3338 2c3c 412c 38bc 4d51 a4bc 72a0 ecbc
00000110: 1169 a23d f1f3 09bc dd81 b03c 4ee1 ac3b
00000120: 98da 053d 31da 0a3d c569 633d e151 333d
00000130: 5bed 7a3d 713e 6ebd 451e 0f3d 605d ccbc
00000140: 9936 403d e794 c0bd 2bd5 013d a26c 173d
00000150: f934 acbd 9a6f 79bd 6d88 9e3c 3510 d93d
00000160: 1c53 47bd cd17 0f3d b428 91bd 14b9 4abc
00000170: 2269 19bd 9b3b 7fbd 42d9 df3c 2802 dd3c
00000180: acc6 9b3d 9aad 753d 6490 f2bc bc0e bb3c
00000190: b99a 183c 4ca0 983c 9de7 2abd d2d5 0ebc
000001a0: f939 423d def6 083d 3e17 88bd 9951 b23c
000001b0: 1038 b6bd 6bae a23d 4666 163d 86ab ff3b
000001c0: 154f 7abd 5567 cabd 04ec 0a3d 609a 983a
000001d0: e068 a7bc 14e7 c33c 53f4 d93c 0700 37bc
000001e0: ac0c a2bd f247 243d b67d 1e3d 9ca5 91bd
000001f0: df24 2cbd 477c 8ebd 8b3e 53bd cff2 263d
00000200: aef7 343d cd39 2abd a1ae f53b 441e 783d
00000210: 8429 55bd 3273 b6bc add4 2fbd 8216 133d
00000220: 05bf f9bc 62cd 7abc 603c 74bd e91f 7cbd
00000230: 9676 80bd fc4c 22bc 3393 1c3c 6d90 49bd
00000240: 75d3 913c d5fe 6e3c 364f 49bc b0d1 653d
00000250: 9f84 b2bb a56f 6c3d 144f d03b d515 2a3d
00000260: 262c 1b3d 08f4 903b 6681 423d 7c35 a33d
00000270: 8c8d 063e 3357 12bd 8fb5 e8bc 2671 d83c
00000280: e58f 823c ec10 35bd 30dd 61bd ebf0 87bc
00000290: 4b10 be3d 1776 b63c ca2e 84bc 4e0b 543c
000002a0: 1124 50bb f853 61bd 96dd 51bd 6261 2abd
000002b0: d8fa 593d a8ff 4cbc 17b8 6dbd 5720 b13c
000002c0: ac0d 6dbc 3402 993d bb3b 79bd 4631 f43c
000002d0: 6394 0d3c cd53 ae3c 9275 743c bfce 65bd
000002e0: e417 863d 2f05 78bd 2d70 99bc 1668 1c3d
000002f0: 558c b83d e4fc 54bc cb75 293d 02a8 613d
00000300: fb4c 523d 7e70 18bd ed6f 79bb 5215 a53d
00000310: aaa9 a93d b8f0 a53c dd9a 63bd 635c 5cbd
00000320: 6e32 943d ef83 d13b 6448 903c 7209 ba3d
00000330: b18f 473d c410 2fbc ea80 c43c 725d 843d
00000340: e6ac b0bb 38a4 963c f257 913d dc9d bd3d
00000350: 3de5 ad3d 9d9d 023d 2ada 4e3d f0db cf3d
00000360: 21cc 993d 71cc 90bd 90ae 0dbd f464 99bc
00000370: 617a 6cbd c771 13bd 20ab 0d3d 5403 f6bc
00000380: 211c db3c 50c3 0abc b00a 6f3d 6c60 a43d
00000390: 1ec1 c0bc 2c24 e1bc af5a 0abd 38e3 8f3d
000003a0: 8438 a7bc 5a0b b43d 4b0e abbc 6333 c4bc
000003b0: 03df 013d ed3e 2f3d 5c76 4b3d 5f0b 293c
000003c0: 81f5 02bb 0205 e5bc 2b03 8f3d ace0 9d3c
000003d0: 8f39 06bd 5195 1ebd a11d 97bd 12c3 153d
000003e0: 36bd 31bd 144a 40bc d0ed 453b 0724 793c
000003f0: 3a1d 7cbd 8e23 afbc 20b0 17bc 51f6 183d
0.0216997 0.02461307 0.07287124 0.027910994 -0.07239195 0.11953101 -0.020898292 -0.0350376
0.08770705 0.015645588 0.08845546 -0.037015304 0.037130184 -0.059069857 0.03849192 0.026835047
0.016036259 -0.06838079 -0.012139436 0.012311363 0.066274166 -0.044788774 -0.10093944 0.018462682
0.051265713 0.045012012 -0.07869372 0.077339344 0.069369964 0.010609765 -0.065964386 0.0010636131
-0.01932117 -0.055099193 -0.020232504 -0.07376036 -0.014380509 0.0026164558 0.032692403 0.07284373
-0.059191074 0.0457451 -0.054020192 -0.027551612 -0.036097784 0.028106935 -0.014658266 0.04731574
0.016928066 -0.009905474 0.026656397 0.018121378 0.07554995 -0.04232886 0.058308657 0.053796973
-0.05148174 0.042843826 -0.04454633 -0.01125546 -0.050465968 0.023116535 0.09417729 0.013099449
0.010511446 -0.01124102 -0.020058298 -0.0288851 0.07930196 -0.008419977 0.021546299 0.005275882
0.03267917 0.03389949 0.05552079 0.043779258 0.061261516 -0.058165018 0.034940977 -0.024946868
0.04692707 -0.09403401 0.031697433 0.036968835 -0.08408541 -0.060897447 0.019352162 0.10598794
-0.048663244 0.034934808 -0.07087842 -0.012373228 -0.037453778 -0.062312704 0.027325276 0.026978567
0.07606253 0.059980012 -0.029609866 0.022834174 0.0093142325 0.018631123 -0.04172479 -0.008717971
0.04741857 0.033438556 -0.06645058 0.021767424 -0.08897412 0.07943424 0.03671863 0.0078024296
-0.061110575 -0.0988299 0.03391649 0.0011642687 -0.02043575 0.023913898 0.02660576 -0.01116944
-0.07912573 0.040107675 0.038694106 -0.071116656 -0.04202735 -0.06957298 -0.051573317 0.040758904
0.04418152 -0.04155903 0.007497624 0.06057574 -0.052041546 -0.022271726 -0.042927433 0.035910137
-0.030486593 -0.015307756 -0.05962789 -0.06155387 -0.062726185 -0.00990605 0.009556579 -0.04921
0.017801026 0.014587124 -0.012286952 0.056108177 -0.0054479386 0.05772366 0.006357083 0.041524727
0.0378839 0.004423622 0.047486685 0.07969186 0.13139933 -0.03572769 -0.028406886 0.02642114
0.015937755 -0.04420559 -0.05514258 -0.01659437 0.092804514 0.022273107 -0.016135592 0.012942148
-0.0031759779 -0.05501172 -0.05123671 -0.041596778 0.05321774 -0.012512125 -0.05803689 0.021621866
-0.014468592 0.07471123 -0.06084798 0.029808652 0.008641335 0.021280194 0.014920609 -0.05610537
0.065475255 -0.06055182 -0.018730247 0.0381852 0.09011141 -0.012999747 0.0413721 0.055091865
0.051342946 -0.037216656 -0.0038061098 0.08060707 0.08284314 0.020256385 -0.05556761 -0.053799044
0.07236181 0.0063939015 0.017612644 0.09083833 0.04872102 -0.01068515 0.023987252 0.06463136
-0.005391705 0.018388852 0.07096852 0.09258625 0.08490989 0.031888593 0.050501026 0.101493716
0.075096376 -0.07070244 -0.034590304 -0.018724896 -0.057733897 -0.03599718 0.034587026 -0.030030884
0.026746811 -0.008469418 0.0583598 0.080262035 -0.023529585 -0.027483068 -0.03377789 0.070257604
-0.020412691 0.08791228 -0.020880839 -0.023950284 0.03170682 0.04278462 0.049673423 0.0103176525
-0.0019982758 -0.02795649 0.06983026 0.019272171 -0.032769736 -0.038716618 -0.07378698 0.036562987
-0.043393336 -0.011736412 0.0030201562 0.0152063435 -0.06155131 -0.021379258 -0.0092583 0.03734428

network_body.observation_encoder.processors.0.conv_layers.2.bias f4 [32]
00000000: e0a3 e83c 2cc5 59bb f486 2dbd f6a5 b7bc
00000010: 6feb 2dbd 877e d33c a405 4f3d 9cab 623a
00000020: 9d49 023d cc4f 3aba c0c4 1c3c 761f 193d
00000030: a85a a53c 8b1a 67ba a693 fd3c bce3 763d
00000040: 7dc4 783d 88d0 81ba 38af 54bc c6fd 8bbc
00000050: 888d 20bd e300 823d 2b91 5b3c f67e 6c3d
00000060: 57bd cebc 1986 afbc f6a7 12bd b6b1 fe3c
00000070: 27eb 30bd c5a0 473d 7de7 a43b 03b7 12bd
0.028398454 -0.0033229096 -0.04236503 -0.022418004 -0.042460855 0.025817169 0.05054249 0.00086467876
0.031808484 -0.00071072276 0.009568393 0.03738352 0.02018483 -0.0008815906 0.030954193 0.06027578
0.06073426 -0.0009904066 -0.0129812285 -0.017088782 -0.039197475 0.063478254 0.01340131 0.057738267
-0.025236769 -0.021426247 -0.03580471 0.031090599 -0.04319301 0.048737306 0.0050324784 -0.035819065

network_body.observation_encoder.processors.0.dense.0.weight f4 [256, 32]
00000000: 5a47 4c3c de56 4cbd 6e20 dcbe 10d4 593d
00000010: 17b6 a93d 13c5 003e f18c 323e 82a7 36be
00000020: e80d 0abe 79f8 663e 4a34 79be b548 27be
00000030: c7a8 42be c060 4cbe b1cb 043e 285f ecbe
00000040: 1d8a e83d 3919 5d3e d19f 143d a3df a3bd
00000050: 0758 883e f8a0 963e 00b8 8f3e 268d 8fbd
00000060: c693 a63d 83cc d13d 37f3 07bf 042d b2bd
00000070: ddc4 61be 90b6 bebd 8458 ec3c ce1d b3bd
00000080: baf7 9d3e f087 4a3e 8da6 8a3c 1fd3 ef3d
00000090: 093e ee3e 8923 53be 8777 0e3e bdb6 a53e
000000a0: b4dc 783d fc28 403d 1a7f e8bb b05d 353e
000000b0: b8fa b0bd e8ed 8f3d 2b80 20be 7599 3ebe
000000c0: 5fa5 2dbe 00f8 c93c 0e04 543e 6abb abbe
000000d0: 259b 1ebe fc62 043e 3daf 8fbe 7dda d3bc
000000e0: f0ea 45be 15f2 a5be 184d b33d c9f2 f3bd
000000f0: 8282 e1be 7c7e 3e3e 8529 e0be a0d4 64be
00000100: 3922 513e 6d5f 5c3e 0436 17bd 86d4 54be
00000110: aeed 793e 9966 073e d14b eb3d 2d4d e43e
00000120: 88eb bfbd c94d 9d3c 266d 5cbe 9b45 d8bc
00000130: 95b6 69bd 6d99 50be 217f fe3e c9f4 9dbe
00000140: 3af6 1b3f fbee c1be fe84 14be 4deb 9dbe
00000150: 8fef 33bd a6ec 863d cd0e b83e 8ea2 8a3a
00000160: b6cf 1abe 4ead 693e 24e3 efbe 167c 1bbc
00000170: 6cfc f63d 203b 103e c249 883d a62f a73e
00000180: e9e3 93bd eca2 91be 80fd d4be 42b6 43be
00000190: 7a43 e43d 44e0 8a3d 82f4 6b3e d843 d13e
000001a0: afa7 da3e b332 f43d 9f0d 1d3e 7431 c23e
000001b0: 5ec3 a73e c0db 7bbe 3dd3 4dbe f77d a1be
000001c0: 0a85 c23e c535 fa3d 5277 803e 8fef 423d
000001d0: 6d1a 613e 63b0 2fbe 3b69 87be d892 113e
000001e0: 098e 203e cdf7 60be e7d2 a43e 2ab7 283e
000001f0: 3eab 0b3e 574c 493c 2735 ec3e f5e1 39bf
00000200: 1c47 8abe da75 0abe 36e1 283e eede b73e
00000210: bb94 6f3e 9431 243e ba10 75be dfe4 913c
00000220: 940c 6f3e 93b7 9cbc facb cb3c 0fc9 273d
00000230: f40b 71be a02d 0e3e 5e23 16bd be7d 993d
00000240: 84bb f13e 0855 88bd a731 93be 2fd2 1e3e
00000250: 108b 313e a2aa b9be b4f6 c6bd 90bd a0be
00000260: 709d 25be 3469 f83d f23f 993e 0772 d0bd
00000270: 4003 35be d616 f8bc 2ac6 d03e dc6f 02be
00000280: adc2 67be 9468 6cbd 9b19 9a3d f484 1b3f
00000290: d558 8f3d 8b62 123e 2b7a 383b a5ef 25bd
000002a0: cacb 923e e627 b63d 5e69 10be fa9c a6be
000002b0: 6a9f 183e 2435 5b3d 58c5 e7be fd69 f23d
000002c0: 9076 243e 901a 1f3f 8b5b 0c3d efd9 3d3f
000002d0: a034 23bd f35e 77be 67a4 1abe 47b8 dbbe
000002e0: ed06 4b3d c0bc c73e 2946 233e 2d9d d9bd
000002f0: 9b5c 2a3f 8149 7d3d 4706 6f3e be15 01bb
00000300: 9344 66be e4e2 5b3d dcfe 4cbd 652b 213e
00000310: 496f c23e 0c33 a9bd 1a7e e4be 4d78 773e
00000320: be88 733d 32c0 bd3e df08 d4bd 8659 70be
00000330: c566 aa3e cf86 0ebf 7c3f a5bd 8ad3 6abe
00000340: d41c 3cbf 27ee e13e 1731 17bf 7d97 82be
00000350: c439 f6bd 120e bf3e 41e2 97bd 84c5 cd3d
00000360: 2474 f4bd 76d5 b3bd f269 1e3e 1a6a 973e
00000370: eaea c03e 2f69 c13b 2281 813e c0c1 753e
00000380: 32ff 353d 014b 9bbd 9f95 c83b a438 323e
00000390: 2907 bcbd ff33 c53e 5e39 4cbe ad81 84be
000003a0: 5a0f 00be d6ab 973e 4efd d7bd cadf cb3e
000003b0: 66b0 9bbd d6cf 3f3e f202 733d bb70 bdbe
000003c0: 3ed7 ac3e ced6 c5bd a766 5bbc 6cf9 a4be
000003d0: 34cc 8bbe 016c b23d b347 83be ee72 63be
000003e0: 36d2 53bd e80c a83e 9b70 2a3e af92 7ebe
000003f0: 18d6 bf3d fe4c 35bc 567e 34ba 5d02 f83d
0.012468183 -0.04988753 -0.42993492 0.053180754 0.08286684 0.12575178 0.17436577 -0.17837337
-0.13481867 0.22555722 -0.24336353 -0.1633633 -0.19009696 -0.19958782 0.12968327 -0.46166348
0.11354468 0.21591653 0.036285225 -0.0800164 0.2662966 0.29419684 0.28070068 -0.07009344
0.08133654 0.10244086 -0.5310549 -0.08699992 -0.22047754 -0.09312165 0.028850801 -0.08745919
0.30853063 0.19778419 0.01692512 0.1171019 0.46531704 -0.20619024 0.13912784 0.3236598
0.060757354 0.046914086 -0.00709523 0.1771152 -0.08641571 0.07027799 -0.15673892 -0.18613227
-0.16957615 0.024654388 0.20704672 -0.33541423 -0.1548887 0.12928385 -0.28063384 -0.02586102
-0.19327903 -0.32411256 0.08754939 -0.11911542 -0.44044882 0.18602937 -0.43781677 -0.22346735
0.20423211 0.21520777 -0.036916748 -0.20784196 0.24407074 0.13222732 0.1148907 0.4459013
-0.09371096 0.01920213 -0.21526012 -0.026400378 -0.05705889 -0.20371027 0.49706367 -0.3085082
0.60922587 -0.3787764 -0.14503857 -0.30843583 -0.043929633 0.06588106 0.35948792 0.001057701
-0.15118298 0.22820017 -0.46852982 -0.009490034 0.120598644 0.14085054 0.06654693 0.3265354
-0.07221205 -0.28444612 -0.41599655 -0.19112495 0.11145683 0.067810565 0.23042491 0.40872073
0.42706057 0.119237326 0.15337227 0.37928355 0.3276624 -0.24595547 -0.20100112 -0.31541416
0.37992126 0.12217287 0.25091034 0.047591742 0.21982737 -0.1715713 -0.26447472 0.14216173
0.15679182 -0.21969528 0.32192156 0.16476122 0.13639542 0.012286267 0.46134302 -0.7261041
-0.27007377 -0.1352152 0.16492161 0.3591227 0.2339658 0.16034538 -0.23932162 0.01780933
0.23344642 -0.019130504 0.024877537 0.04096323 -0.23539716 0.13884592 -0.036654823 0.074946865
0.47213376 -0.066568434 -0.2874882 0.15509866 0.17338204 -0.36262995 -0.09715024 -0.31394625
-0.16173339 0.12129441 0.299316 -0.10177999 -0.17677021 -0.030284327 0.40776187 -0.12737983
-0.22632857 -0.05771692 0.07524415 0.60749745 0.06999365 0.14295404 0.002814899 -0.040511746
0.28671104 0.08894329 -0.14102694 -0.3254164 0.14904562 0.053517476 -0.4526775 0.11836622
0.16060853 0.62149906 0.03426699 0.74160665 -0.03984511 -0.24157314 -0.15101777 -0.4291403
0.04956715 0.39011192 0.15944733 -0.10625682 0.66547555 0.061837677 0.23342238 -0.0019696797
-0.22487096 0.053683177 -0.05004774 0.1573921 0.3797553 -0.082616895 -0.44627458 0.24166985
0.05945658 0.37060696 -0.103532545 -0.2347165 0.33281532 -0.5567445 -0.08068749 -0.22932258
-0.7348149 0.44127008 -0.5905928 -0.255062 -0.12022737 0.37315422 -0.074162014 0.10047439
-0.119362146 -0.08780949 0.15470102 0.29573137 0.37679225 0.0059024314 0.25293833 0.23999691
0.044432826 -0.07582665 0.006121352 0.17404419 -0.09181053 0.38516232 -0.19943759 -0.25880185
-0.12505856 0.29623288 -0.10546361 0.39819175 -0.07602005 0.18731627 0.05932898 -0.3700007
0.33757967 -0.09660111 -0.013391173 -0.32221544 -0.27304232 0.08712006 -0.2564064 -0.22211811
-0.051714145 0.32822347 0.16644518 -0.24860643 0.09367007 -0.01106572 -0.00068852806 0.12109826

network_body.observation_encoder.processors.0.dense.0.bias f4 [256]
00000000: 7706 093c 57fb 023d 86b7 703c b673 65bc
00000010: 5d6d 4d3c f004 a1bc 4bde 823c d40f 053d
00000020: 8edd c93c dcbc 4cbc 62ab 92bc 6488 8d3c
00000030: d137 963b ada6 e23c d864 8c3c 1ebf f33c
00000040: 767d 9b3c ac2b d03c b37b edbb baff 3d3d
00000050: 7d9b 733d e540 e63c 14bf b53c aee7 18bc
00000060: 4e3c 303c d911 943c 1181 fe3b 723b 713d
00000070: eb0a 6a3b ad7e 95b9 3cec 9ebc e642 423c
00000080: 3af8 a1bb 23f8 973c edd2 4bbc e56a 943b
00000090: 115d 2b3d ddf5 14bc 3cfb f03c c067 51bc
000000a0: 1808 9d3b 63ae 703c 9c9e 13bc 9769 c13c
000000b0: 4224 e4bc b55c a6bc a300 873a 912e c83c
000000c0: ce57 5c3d 9cb2 db3c 519a 303c 7242 513d
000000d0: 64c0 78bb 7cb1 2c3c 6f85 59bc 2276 99bc
000000e0: c74a 1abb efd6 173d 17fe 47ba 4ac4 ed3b
000000f0: c752 d6bc 782c 353c aec6 853d f49e 65bc
00000100: f636 6ebc d003 15bd 5846 1abc 830d 043d
00000110: 9c7b e33b bc66 6cbb 5e93 403d dad0 6ebc
00000120: 531d b43c 2c26 4a3c 3970 933d f84c 0c3d
00000130: 495b d93c 2fb0 d3bc 25a5 8cbb b489 b93c
00000140: 7dc9 003d 539b 893b 60e7 0d3d f9bd e1bb
00000150: a363 863c d9f9 2bbb e4ed 603d 65c1 6c3c
00000160: 1334 e33c 0214 983b dd69 da3c 711b 8a3c
00000170: 8e9a 473c b06a 203c 5825 7038 878f 22bd
00000180: d01a 55bc 0258 25bd 1fd7 24bd 2bcc aa3c
00000190: 3052 cf3c c530 cf3c 0bda 133b 111d 043d
000001a0: 7076 943c 25cf 5d3c 428e 8e3c e67d 993c
000001b0: 507e 113d a061 963d fea3 593d ebe2 19bc
000001c0: 8c4d 933c 828e 613d 3995 1a3d e349 cf3a
000001d0: 355f 983c 16b0 20bd e1e3 caba d932 0e3d
000001e0: b84f 133d 93b8 0e3c a253 323d 64e0 7b3a
000001f0: ac64 3a3d a154 fb3a 5c91 8cbc b3b2 4fbc
00000200: 027d 913c 5422 d7bb 4684 6ebb 9525 1ebc
00000210: 38cf e43c 03bd dcbb 7cf9 be3b efb3 f1bc
00000220: ec2c 0d3d 7e65 b43b 449d 4fba 8847 cb3c
00000230: 1cae 2a3d e74e c13c a475 883c 7df2 dd3c
00000240: be8d a93c 0aaa 89bc 944e e5ba ff30 003d
00000250: 6e3f bebb b4e2 fdbb d0bb 67bc 3290 6f3d
00000260: c832 2a3d 18ef 0a3c 2b30 073d 8ae0 a0bc
00000270: a9b7 f2bc db42 843d 8878 ab3c 601a e43c
00000280: db62 113c 4637 7ebc a59e 413d 5586 733d
00000290: 73b3 a13c 368c a13c 27d6 093c 4913 f8bc
000002a0: 66d8 1b3d 989f e1bc 22c2 c0bc 7ec8 bdbc
000002b0: 0daa 783c 6028 203c ab25 da3c 3d63 0fbc
000002c0: d762 933c c8fc 103d b287 eebb 527f 08bd
000002d0: cf7d cd3a d21c 643c 83a9 37bc ad61 8abb
000002e0: d68a ca3c e1d7 463d 6283 873a fdd7 543c
000002f0: 5db4 bebc 09a3 8b3c ecc9 fe3a 9a21 153c
00000300: 81b6 0fbd f038 163d 64bf d9bc 965a eabc
00000310: ef6a 3f3c 7f4c ad3c 350d 1e3d a9f1 16ba
00000320: 7aa1 073d 7dd9 ba3b 522b b93c 7197 893d
00000330: 5ae3 00bd fc70 1c3b 990c 923c d243 673d
00000340: 15c2 2a3d db2c 64bc b120 c33d 3bdc 993c
00000350: 700c 033d 5880 93bc 6804 b53d ae06 43ba
00000360: 312d cd3c 223c 0e3d 7989 183d 3222 34bc
00000370: 39c5 353d 5e5a 083d 5d80 cfbb 68ee 243d
00000380: 2a97 9e3a 3156 babb 4a5a f73b 782f 28bd
00000390: 31a2 6e3c 871b 7a3c 859c 2b3d 595b 363c
000003a0: e6b3 973d 7271 8bbc a12c 4b3d 6a00 4d3d
000003b0: 5966 bd3c 9216 ee3c bc31 c23b 0989 163b
000003c0: c61b 223d d6b5 303d 849e b13c 7243 9d3c
000003d0: 0838 eb3c e966 9e3b eafc f2ba 3fca c43b
000003e0: 03b2 2c3d eee0 903a b7b8 c33c 78de 173d
000003f0: 8d5f 56bc 4a2b 31b8 341d 4b3d 87c8 e73b
0.008363358 0.031977978 0.014692193 -0.014004638 0.012538281 -0.019655675 0.015975138 0.032485798
0.024641778 -0.012496199 -0.017903987 0.01727695 0.0045842906 0.027667368 0.01713793 0.029754218
0.018980723 0.02541145 -0.007247412 0.046386458 0.059474457 0.028107116 0.02218584 -0.0093325805
0.010756565 0.018074917 0.0077668508 0.058894582 0.0035712074 -0.00028513875 -0.019399755 0.01185677
-0.004942921 0.018550938 -0.012440425 0.0045293444 0.041836802 -0.0090918215 0.029416673 -0.012781084
0.0047922246 0.0146900145 -0.009009983 0.02360992 -0.02784932 -0.020307878 0.0010299872 0.024436267
0.053794675 0.026818566 0.010778979 0.051088758 -0.003795647 0.010540362 -0.013276442 -0.018733088
-0.0023543106 0.03707021 -0.000762911 0.0072560655 -0.026162518 0.011057965 0.06532036 -0.014014948
-0.014539471 -0.03638059 -0.009416185 0.03223945 0.0069422256 -0.0036071977 0.04701554 -0.014576161
0.02198664 0.012338202 0.07199139 0.03425309 0.026532786 -0.025840847 -0.0042921477 0.02264867
0.031442154 0.0041994243 0.034644485 -0.0068891016 0.016404932 -0.002624145 0.05491437 0.014450406
0.027734792 0.004641057 0.026661808 0.016858788 0.012182845 0.009791061 5.7255238e-05 -0.03968766
-0.013006881 -0.040367134 -0.040244218 0.020849308 0.025307745 0.02529181 0.0022560384 0.032254282
0.018122882 0.013538157 0.017401818 0.01873679 0.03552085 0.07342839 0.05313491 -0.00939248
0.017981313 0.055067547 0.037739966 0.0015814867 0.018600086 -0.03923043 -0.001547929 0.03471646
0.035964698 0.008710998 0.04353679 0.0009608327 0.045506164 0.0019175002 -0.017159157 -0.012676883
0.017759804 -0.0065653715 -0.003639476 -0.009652515 0.02793084 -0.006736399 0.0058280807 -0.029504744
0.03446667 0.005505263 -0.0007919858 0.024814382 0.04166995 0.023597194 0.016657658 0.027093166
0.02069747 -0.016804714 -0.0017494732 0.031296726 -0.0058059013 -0.0077479724 -0.014143899 0.058487125
0.041552335 0.008479856 0.03300492 -0.019638319 -0.029628592 0.06458064 0.020931497 0.027844608
0.008873667 -0.015516108 0.047270436 0.05945428 0.019738888 0.019720178 0.008412874 -0.030282633
0.03804817 -0.02754192 -0.02353007 -0.023166891 0.015177262 0.009775251 0.02662929 -0.008751688
0.017991466 0.03539732 -0.0072793597 -0.033324547 0.0015677753 0.013922887 -0.011209848 -0.0042230696
0.024724405 0.048545722 0.0010338838 0.012990949 -0.023279363 0.017045515 0.001943884 0.0091022495
-0.03508616 0.036675394 -0.02658052 -0.028607648 0.01168321 0.02115464 0.038586814 -0.0005758056
0.03311298 0.005702196 0.022603665 0.06718338 -0.03146682 0.0023871055 0.017828273 0.056461163
0.041688997 -0.01392671 0.0952772 0.018781772 0.031994283 -0.018005535 0.08838731 -0.0007439655
0.025045963 0.034725316 0.03724048 -0.010994481 0.04437754 0.033289306 -0.006332441 0.040266424
0.0012099494 -0.0056865443 0.007548605 -0.041060895 0.014565037 0.015265352 0.041897316 0.011130177
0.0740736 -0.017021868 0.04960311 0.050049223 0.023120092 0.029063497 0.005926339 0.0022969863
0.039577268 0.043142162 0.021682031 0.0191972 0.028713241 0.004834045 -0.0018538509 0.006005555
0.042161953 0.0011053362 0.02389179 0.037077397 -0.0130843045 -4.2240405e-05 0.049588397 0.0070734653

network_body._body_endoder.seq_layers.0.weight f4 [256, 266]
00000000: e6d2 ba3c cf4e 9d3d ca6a 87bb f488 ddbc
00000010: ab9d 12bd a690 8dbd 20d0 73bd 6ae9 203e
00000020: 6fb0 57bd ba18 783d 0e6a 403d 55d0 f2bc
00000030: ed91 8d3d 923b d3bc 55b7 423d c696 54bd
00000040: 7812 843d efae e5bb f429 bebb 24c8 d9bd
00000050: c877 d23c 1293 173d 60f9 73ba 0196 87bc
00000060: 124e 40bd 8e1d 90bd 02bf e1bc 806d b6bc
00000070: 2275 0fbd b4e1 2a3d 8c02 48bd 1717 0e3d
00000080: 2a7d 4fbd 96d6 b2bd 615d 973d a715 f1bc
00000090: 5993 773d f473 b0ba dc9e d63d 0a17 85bd
000000a0: c27a 273c d1e0 26bd 0801 ecbc 46c2 9a3d
000000b0: a5fa 50bc 6ed1 923d 2c72 4b3d a891 1abd
000000c0: 8c00 b23d 0c9f c6bd 456a 75bd 160a 7dbd
000000d0: a0b6 e23c 4526 003c 46fe 39bd 43c9 cc3d
000000e0: 7df3 223e 2569 9cb8 bbfc ca3c 15f2 0bbe
000000f0: 3883 123c 3cea 553c 722f 0cbe 94f6 53bd
00000100: 70f9 353d 418c 49bd d516 d7bc 2da9 03be
00000110: f689 70bd 66dc e03c 26fd 0c3d e47e 25bd
00000120: 5ab9 eebc a192 2f3e 3244 10bd 71ec 0bbe
00000130: b0bd 0d3d 43b6 243d 37f3 c0bc 7ed3 973d
00000140: f326 803a 1373 2abc f3a7 903c 0adf b53d
00000150: 91ab 413d db1d 8bbd a427 bcbc ee05 043c
00000160: e3b2 de3d 952f af3d 4b4c 9d3c e95e 78bb
00000170: 8e90 fdbb e6f2 1fba adeb 8abd 82d2 82bd
00000180: 0aff 203c d47e 943d b36c 803d 13c9 0fbb
00000190: 4769 a6bd 276f dd3c 8fe2 e43c d2a6 713d
000001a0: 59f0 e2bd 894e f8bc dabe 99bd 2fea 81bd
000001b0: 51f5 9c3d 9eda 9abd 68cf a4bd be15 81bd
000001c0: b1de 9e3d e92d 4ebd fd59 f93d ef98 50bd
000001d0: 23bd f73b b277 173b 9233 01bd 23bf 4dbd
000001e0: 8c4d 823c 3444 713c ce92 0a3e b51f ac3d
000001f0: e36e 843d 0646 89bc 50f3 d1bb fd18 6f3d
00000200: 1962 a83d 7ace 993d 2f27 b9bb 34ea 04bc
00000210: 726b e5bc 6ff8 85bd a29c 953d b0d4 a13c
00000220: 5ed3 dabc 1995 003e 4e0a f93b 82bc 593d
00000230: fbd6 393c 41a7 63bd c8d0 bf3d 584d 20bd
00000240: b76b 823d 3881 543d 1e9b debd f3ae 233e
00000250: bc57 613d e001 563d 7189 0abd f397 cd3d
00000260: 73ce 9f3c f24b 1b3e f7d8 d03d 65a1 a53c
00000270: 87d2 123d 6f08 b6bc e473 f33c 4f2d 113c
00000280: c582 333d cb7a 9b3d b341 bf3c a8a1 f3bd
00000290: 97a9 2e3d 34d3 03b9 6be9 8d3d 4ca6 d8bb
000002a0: ba92 eb3c aea1 9dbd 6b74 a3bd 978f 08bd
000002b0: e575 633d 92a9 143d 761d 99bd 335f 5ebd
000002c0: 2714 943d 32fe f2bd fb48 95bd 11f0 523c
000002d0: e3af 9abd d098 193e 3d57 3d3c c55f 0bbd
000002e0: ea44 adbc 8db1 d63a 9015 f4bc 5514 e3bd
000002f0: e6fb c43c 27d3 673d 4dbd 38bd 6fec d63b
00000300: ce87 173c b622 123e c890 98bc 6e84 dfbd
00000310: a94a 2c3b 2f92 6cbc dc9d c8bb 6643 f3bd
00000320: c49e eabc 6431 3dbd 9c85 a6bb 50ed 97bd
00000330: 588e 013d 2d4c 84bd 11e9 103d 2e91 16bd
00000340: a0bd 78bc f72c 2b3d e5c1 fabd d7f3 1fbd
00000350: c1cb 353d c881 a0bd e7e2 0ebe f6d6 103d
00000360: 6d1a d53c 5ecd 4ebd 575b 983d d5bf cbbc
00000370: 8eef 1ebd 7df9 083d 3174 063c 13aa a5bd
00000380: 9d12 1cbd 8634 1e3d 2050 3ebd d655 6c3b
00000390: b9f9 893d 8a94 71bd 9ed3 cc3d 7bd9 19bc
000003a0: 8398 453d d1c2 b0bd b81c 20bd 1be3 133e
000003b0: 0f2e bf3c 99ab c43d 831a a13c 3493 e0bd
000003c0: c498 203c 0ecc c9bc fce9 173d 9eac bdbd
000003d0: 436e 9c3d e1ba e23c f590 5cbd f413 f73c
000003e0: 742c 6ebc 8a82 35bd 1b48 a6bc 5f25 953d
000003f0: c5a6 aa3d 2ffb d7bc d8a1 9e3b 0ba8 fcbc
0.022805642 0.07681047 -0.0041326033 -0.027042843 -0.035794895 -0.06912355 -0.059524655 0.1571404
-0.052658495 0.060570456 0.04697614 -0.029640356 0.06912599 -0.025785241 0.04753812 -0.0519016
0.06448835 -0.007009379 -0.005803341 -0.10633877 0.025691882 0.03700549 -0.0009306874 -0.01655102
-0.046949454 -0.07036887 -0.0275569 -0.02226901 -0.035023816 0.041719154 -0.048830554 0.03468999
-0.050656475 -0.08732335 0.073908575 -0.02942927 0.060443256 -0.0013462291 0.10479519 -0.06498535
0.010222139 -0.040741745 -0.028809085 0.07556586 -0.012755071 0.07168852 0.04966943 -0.037736565
0.086915106 -0.096983045 -0.0599158 -0.061777197 0.027674973 0.007821624 -0.04540851 0.09999325
0.15913196 -7.458244e-05 0.024778714 -0.13666566 0.008942418 0.013056334 -0.13689974 -0.051748827
0.044427335 -0.049206022 -0.026256004 -0.12857504 -0.05872532 0.027448844 0.03442111 -0.040404215
-0.029141117 0.17145778 -0.035221286 -0.13664414 0.03460473 0.04021288 -0.023553474 0.07413386
0.0009777233 -0.010403412 0.01765821 0.08880432 0.04728276 -0.06792804 -0.02296812 0.008058054
0.10873964 0.085539974 0.019201418 -0.0037898368 -0.0077381795 -0.00061015633 -0.06783233 -0.063878074
0.009826431 0.07250753 0.06270733 -0.0021939918 -0.08125549 0.02703054 0.027940063 0.058996983
-0.11080999 -0.030310886 -0.07507105 -0.06343495 0.07663978 -0.07561229 -0.08047372 -0.06302975
0.07757319 -0.050336752 0.12175367 -0.0509271 0.0075603887 0.0023112115 -0.031543322 -0.05023111
0.015906118 0.014725734 0.13532564 0.08404485 0.064664625 -0.016757023 -0.006407179 0.05837344
0.08221836 0.075100854 -0.005650423 -0.008112479 -0.028005335 -0.065415256 0.07305266 0.019754738
-0.026712116 0.12556876 0.0076001054 0.05315829 0.011342759 -0.055579428 0.09365994 -0.03913626
0.06368201 0.051881045 -0.1086943 0.15984707 0.05501531 0.052247882 -0.03382248 0.10038748
0.019507622 0.1516569 0.10197633 0.02021856 0.035845306 -0.022220818 0.029718347 0.0088609
0.043825883 0.0759178 0.023346758 -0.11896068 0.042642202 -0.00012571813 0.069292866 -0.006611621
0.028756488 -0.076968536 -0.07981189 -0.033340063 0.055532355 0.036294527 -0.07476322 -0.054290008
0.07230406 -0.1186489 -0.072893105 0.012874619 -0.07553079 0.149997 0.011556444 -0.03402688
-0.021151025 0.0016379819 -0.029795438 -0.110878624 0.024045896 0.056597855 -0.045102406 0.006558947
0.009248687 0.14271054 -0.018623725 -0.10913931 0.0026289618 -0.01443915 -0.006122334 -0.118780896
-0.028640158 -0.04618968 -0.0050818454 -0.07418311 0.03162989 -0.06459842 0.03537852 -0.036759548
-0.015181929 0.04179093 -0.12244014 -0.039050903 0.044383768 -0.07837254 -0.13953744 0.035361253
0.026013577 -0.050488822 0.07439297 -0.024871746 -0.038802676 0.033441056 0.008206413 -0.0808908
-0.03810369 0.03862431 -0.046463132 0.0036061904 0.06737084 -0.05897955 0.100013 -0.00939023
0.04824115 -0.08630908 -0.03908989 0.14442103 0.023337392 0.09603042 0.019665962 -0.10965577
0.009802047 -0.024633434 0.03708838 -0.0926144 0.07638218 0.027677001 -0.05384918 0.030160882
-0.014536966 -0.044313945 -0.020298054 0.072825186 0.0833259 -0.02636489 0.0048410706 -0.030841848

network_body._body_endoder.seq_layers.0.bias f4 [256]
00000000: f945 c63c 03bd 81bc 2e32 5b3b 5b46 1b3b
00000010: 835c 0e3a b6e2 423c bf90 27bb 61b7 dd3b
00000020: 9dfa 363c 9436 72bc 5aad 393c 51e4 a9bc
00000030: 9d1d 88b9 8d61 1bbc 4924 ba3b 7ee1 f2bb
00000040: a843 d1b9 421d 91bc f8e3 8c3c d22d 003c
00000050: 04b3 d8ba 606b e33b c8fc 58bc bbf5 903a
00000060: 1a78 0d3c b67d 45bb dcfc 9d3c 38cd 05ba
00000070: f7fe 0c3c ae98 d63b b660 7d3a cbfb 6b39
00000080: 8b7d 603c 1e0e 65bc 73c6 f83b 60e0 b7ba
00000090: 8a57 683c 53e3 3bbc ebde d6bb ce6b 15bb
000000a0: 1d8c 3dbb c14d 4b3b 668c b63c 3be4 edbc
000000b0: 4625 133a 5b5c ad3c c41d d2ba de64 a8bc
000000c0: a6de 93bb 662d dd3b dca1 a438 c1e9 fd39
000000d0: efa3 5e3a 5160 da3b 99e5 a8bc 3a40 b13c
000000e0: 436b abbc b943 9b3a d522 a5ba 63f7 003b
000000f0: 7a11 d8bc 5c29 353c 3b15 03bc 4885 c439
00000100: 9c90 ca3b ad11 bebb bfe3 a43b a08c 32bc
00000110: 0db7 74bb 66cd a63b 5c00 673c d16f ed3b
00000120: ad0b 283c cf1e 8e3c 32d3 87bc 8f6e f43c
00000130: 3829 8f3c 883c 593c 59c7 52bc 199d dbbb
00000140: 1178 6d3c 272f 693b ff02 913a dca5 30bc
00000150: 7bc1 8dbc 0f74 b13c ddae fcba 4684 b43b
00000160: e6bc 923c 0813 013b cb9b 1bbb 5067 503c
00000170: 3a08 dc3b 8a39 4bbb 1178 fc3b d1c8 5f3b
00000180: 0b74 1a3b 04ef 9c3c 7149 403a a5dd 04bc
00000190: 58a3 cd39 000e b53b 95d9 bb3c 9062 223c
000001a0: c6d0 01bb 860b 5a3c edd4 8eba 08f6 5a3c
000001b0: 5015 8c3c a9c3 113a 01c7 503b c872 51bb
000001c0: e5f5 99b9 c863 823c 2e3e 6bbb 6fc1 5f3b
000001d0: 754a 5f3c 5df3 483c b523 02bc ee64 f03b
000001e0: 0a97 a7b9 6de5 4c3a ead9 583c 06db a2bb
000001f0: 6550 57ba 3498 3b3c fd90 a63b e6d5 b43c
00000200: 6fca fbbb d88d 603c 77c3 9abb ef01 923c
00000210: 0b64 c43b 773d 8aba 6380 2bbb d872 313c
00000220: 090e 8c3c 3700 ad3b 1f17 2fbc 2bfb 99bb
00000230: 191e b43a 2523 56bc 346e 513c 53b7 86bb
00000240: 44df 77bc 2966 363c 783a 63ba 64ce c4bc
00000250: be56 8c3c 0381 9fbb 6ca8 fc3b 2565 593c
00000260: 89e2 143c e00b 2ebc 8915 b9ba 2f26 2e3c
00000270: e13c 343b dafd 9dbb 34e8 6dbc 9299 04bb
00000280: f48e 4a3b ad06 a5bc 0a13 1f3c 2c54 2d3c
00000290: c020 de3b f83f 0e3b 8f31 f63b f2c3 853a
000002a0: 4e8c c03c 49fa ff3b a456 1dbc 7057 2bbc
000002b0: f85e 793c 8ded b1bb 247c ff3a 1cba 87bc
000002c0: 9329 773c d1fd ba3b a9dc 80bc ec39 1f3b
000002d0: 41cb 9b3c 9208 9c3b 3319 0fbc 8d8b 1c3c
000002e0: cbdd cdbb f822 22bc aafa 9a3c 82e6 8c3c
000002f0: 6805 473c c7c0 18ba f5f4 983c 6914 033b
00000300: 39d7 fe3a ca9d a73b 520c 863b 7a6d fabb
00000310: acf0 c23b 2330 8b3c adc2 453c 4866 a4bc
00000320: b5c6 84bc 89b2 9dbc 7bf4 6dbc 917c f93b
00000330: 664b 3d3c 2002 d43a b286 a8bb 3310 b03c
00000340: 2dc6 713c f467 b33c 3e6a 423c ad68 e13b
00000350: 5cfd a9bc bd08 df3b 10f6 023c 168d cd3c
00000360: e5ad 00bc 8eea e73b cb79 88bc d8b2 bb3b
00000370: a540 1ebc 1b6c b43c 6efd 1639 fb12 e23b
00000380: 7b41 b63b f9be 993b fb30 b53b 018b c2bb
00000390: c031 473c 1d60 1cbc 37a0 353d b4c7 39bc
000003a0: 1892 ebbc aea1 98bc f766 953c ac3e b13a
000003b0: 913a 343b c92a e83b 8133 ad3b 94ca fe3a
000003c0: 470d 57bc 031a 553c 5e74 2e3a a417 89bc
000003d0: c0c0 17bb da88 6a3c 84db 9d3c 8f32 943c
000003e0: cd75 f43a 595f 263c 6d3d 9cbc 5eeb 433c
000003f0: 2bb4 fe3b fe56 26bc b02c 1f3b f9bf 89bb
0.024203287 -0.015837198 0.0033446657 0.0023693058 0.00054306554 0.011894872 -0.0025568453 0.0067662452
0.011168149 -0.01478352 0.011332834 -0.020738753 -0.00025962005 -0.009483707 0.005680595 -0.0074121347
-0.00039913994 -0.017714147 0.017198548 0.007823424 -0.0016532843 0.0069402903 -0.0132438615 0.0011059562
0.0086345915 -0.0030134744 0.019285612 -0.00051041273 0.00860571 0.0065489626 0.0009665595 0.00022505147
0.013701807 -0.013980417 0.0075920164 -0.0014028661 0.014181027 -0.011467773 -0.0065573356 -0.0022799852
-0.0028922625 0.0031021687 0.022283744 -0.029039493 0.0005613159 0.021162203 -0.0016030599 -0.02055591
-0.0045126257 0.0067497967 7.850278e-05 0.0004843008 0.0008493056 0.006664314 -0.020617293 0.02163707
-0.02092517 0.0011845744 -0.0012598882 0.0019678704 -0.026375521 0.011057224 -0.008000667 0.00037483335
0.0061817896 -0.005800447 0.0050320323 -0.010897785 -0.0037340552 0.0050904034 0.014099207 0.0072459956
0.01025669 0.017348675 -0.016580198 0.029837875 0.01747571 0.013259061 -0.012864911 -0.006702077
0.014493958 0.0035581084 0.0011063515 -0.010781731 -0.017304173 0.021661786 -0.0019278188 0.0055089323
0.01791234 0.0019695181 -0.0023743983 0.012719944 0.006714848 -0.0031009638 0.0077047427 0.0034146796
0.0023567702 0.01915694 0.00073351624 -0.008109485 0.00039222348 0.0055253506 0.0229309 0.009911194
-0.0019808277 0.013308411 -0.0010897197 0.0133643225 0.017100006 0.00055604667 0.0031856897 -0.0031959284
-0.0002936564 0.01591672 -0.0035895216 0.0034142395 0.013628592 0.012265054 -0.0079430835 0.0073362505
-0.00031965255 0.00078161695 0.0132355485 -0.0049699573 -0.0008213579 0.011449862 0.005083202 0.022074651
-0.007684044 0.013705693 -0.0047230083 0.017823188 0.0059933714 -0.0010546882 -0.0026169054 0.010830604
0.017096536 0.0052795666 -0.010686665 -0.004699131 0.001374188 -0.013069903 0.012782622 -0.0041112094
-0.015128914 0.011132755 -0.00086680753 -0.024024196 0.017131206 -0.0048676743 0.007710507 0.013268744
0.009087213 -0.010622948 -0.0014120798 0.010629221 0.0027502107 -0.004821521 -0.014520694 -0.0020233137
0.003090796 -0.020144785 0.009709129 0.01057915 0.0067788064 0.0021705609 0.007513232 0.0010205491
0.023504402 0.0078118187 -0.009603176 -0.010457858 0.015220396 -0.0054299296 0.0019491953 -0.016568236
0.015085596 0.005706527 -0.015730219 0.0024295999 0.019017817 0.004761764 -0.008734035 0.009554756
-0.0062825433 -0.0098960325 0.018918354 0.017199758 0.012147285 -0.0005827066 0.018671492 0.002000118
0.0019442803 0.0051152455 0.004090824 -0.007642445 0.0059491005 0.016990727 0.01207034 -0.020068303
-0.016208032 -0.019250171 -0.014523621 0.0076137264 0.011553621 0.001617495 -0.00514301 0.0214921
0.014756721 0.021900155 0.01186615 0.0068789334 -0.020750694 0.0068064616 0.007993236 0.02509169
-0.00785396 0.0070775216 -0.016659638 0.005728107 -0.009658967 0.022024205 0.00014399525 0.0068992353
0.005562005 0.004691955 0.0055295206 -0.0059369807 0.012157857 -0.0095444 0.044342246 -0.011339117
-0.028756186 -0.018631782 0.018237574 0.0013522706 0.0027500729 0.0070851785 0.0052856808 0.0019439035
-0.013125724 0.01300669 0.00066549133 -0.016734906 -0.002315566 0.0143148545 0.019269712 0.018090514
0.001865083 0.010154569 -0.019072259 0.011957971 0.0077729425 -0.0101525765 0.002428811 -0.004203793

network_body._body_endoder.seq_layers.2.weight f4 [256, 256]
00000000: e55a 5bbc 0af7 6f3c 128b f33d 6616 da3c
00000010: b34e 3bbc 7683 e83d 2091 bc3d 85a8 fd3c
00000020: cf18 68bd 3d04 b23c 1a20 323e 950d c43d
00000030: 687d b7bd a313 08be c031 df3b 98fa e93c
00000040: a59f 703d 5116 c4bd 3b70 0dbc 96bc 9fbc
00000050: 8a6f 553d e58c 8ebd dd2d 993c 2924 8dbd
00000060: 4500 fdb9 883a a73c a006 b63c d079 f6bb
00000070: 0715 11bd 5010 1abb c775 1f3d db56 3fbd
00000080: 394e 0fbd bc15 19bd 1837 133d 060e 05bd
00000090: cac9 5dbd 16ca 823c 1937 04be 8375 3d3c
000000a0: bbca 193d 25e8 f53c c89b 213d 3366 4bbd
000000b0: 4621 a13c a458 273d 6fba 8cbd d6f2 42bd
000000c0: 7816 6dbd 397a 90bc f6e7 a0bc 236e 3d3d
000000d0: 9392 813d b8de 0ebd 463a 85bb 794c fbbc
000000e0: 9502 11bd dea1 873c 2e81 3e3d 83cd 35bd
000000f0: 6c64 493a 2563 88bd e6b0 0d3d cb57 80bc
00000100: decc 343d dbb5 a3bd 726e afbd c118 3b3c
00000110: 637c 7d3d 13dc 013c e04e 1d3d 6c78 d3bc
00000120: 7163 00be b28e a1bd 2100 a6bb 68d1 f53c
00000130: f099 5bbc 709c 103d 4097 d43d 48ce 63bd
00000140: 6759 803d c910 0bbd 9a69 0abc 84c8 8a3c
00000150: ba07 87bc edaf 403e d5eb 043e 8ab0 0cbd
00000160: 360a 563d 88f1 6d3c 4bc1 b3bc f637 a83c
00000170: 3f68 e63c e0cb 87bc 3ae6 543d 1e1d 693d
00000180: 681a 31bd 5f88 113d e6ee ce3d b83d d53c
00000190: 02e7 f53c 1160 f6bd 72fd 11bd 7206 883b
000001a0: 2f01 6c3d 55c1 74bd fda7 50bb cf74 a5bc
000001b0: 63ad 073e 01fc 4dbd 9e6a c83d 6208 4a3d
000001c0: 0f58 aeba ad19 8fbd 0a1a b4bd 7238 1e3d
000001d0: 3d15 1abd 8ee1 f83c 9ef7 f9bc bbfb dd3d
000001e0: 8a95 32bd 9a9e ec3c eb81 debd a2c3 083a
000001f0: f599 133a f526 24bd 81c5 24bc 294f dfbd
00000200: dc2b 90bc ddd4 053e 5ec3 423e 2374 5b3c
00000210: f2f2 793d 9a0c be3d 4855 a33d 731e 1fbd
00000220: 2e88 1fbd 8790 ac3c 53b7 c53c ac95 ff3d
00000230: 1afe d13d 1da8 973c f2e0 6f3d 38d7 01bd
00000240: 3ad8 76bb 3379 50bd 7382 a13b 17d3 7b3d
00000250: 0c54 27bd 4e64 1bbd ebd0 88bc 66b4 18bd
00000260: 3f28 96bd a7b3 683d d09a b8bc 7649 363c
00000270: 16d2 c23b 3882 55bd 2aa0 08be fb51 41bd
00000280: 89b6 cc3d 6fbb c13d c85f 9abd bd63 09be
00000290: 233a 723c 16f9 c53d 94c7 94bd 8d4c 0bbd
000002a0: f48c 96bc 76cd b93d 56b3 58bc 1219 a3bc
000002b0: c587 eabd a65d 92bc 6eab a2bd ce1e 4abc
000002c0: 070f 073c 6d75 9fbc a8d8 773d 3bab 913d
000002d0: 24a7 243d 7625 f43d 4d00 a63c c8e3 89bd
000002e0: 14d9 633d c0c2 6cbc 612c e3bc 782a 27bc
000002f0: 8c3d 08bc d6a6 d83c 8f1b e6bc 21e3 58bd
00000300: 20b0 b33a d532 643d 0956 183d aa83 d53c
00000310: 1eda 86bb 4b0d 91bc e287 a63c 7960 f2bd
00000320: b32f 7e3d 4791 40bd d3e9 193e 2c6a 60bc
00000330: 5cc7 c9bb 3550 bd3c 3071 b8bd c75c af3c
00000340: f803 e4bd 466c e6bc 1462 383e 379b acbd
00000350: 59e0 d43d aaa5 6a3c 1f8f df3c 6613 99bd
00000360: 076a 8dbd f12d c8bd e98f ab3c d0ed 213c
00000370: d292 3a3c dbc7 e2bd 7600 e93c 49b8 8bbc
00000380: e2a1 a53c 093b fbbc df61 033e 8f81 21bd
00000390: 1f1a a8bc a4f0 eebd 0c53 1cbd 7da4 393d
000003a0: 3a7c edbd 43be 6ebd 0ec3 5f3d 9263 2c3d
000003b0: 3d72 00be e389 48bd 0af3 ed3c 6260 903d
000003c0: fc3d f23d c872 5fbd 85da 1eba 19d5 a73d
000003d0: 6a2b 183e eba0 533c a20f b13c b8a2 b3bd
000003e0: 1dd4 49bd d25a 323d 63fc b3bd 9b0e b13d
000003f0: 2872 36bd 6a47 493d 9dff 943d 072b cc3d
-0.01338837 0.014646301 0.1189176 0.026622009 -0.011432338 0.11353199 0.09207368 0.030964145
-0.056664284 0.021730537 0.17395058 0.09572903 -0.08959466 -0.13288741 0.0068113506 0.028561875
0.058746 -0.09574569 -0.008632715 -0.019499104 0.052108325 -0.06960467 0.018698627 -0.068916626
-0.0004825612 0.020413652 0.022219956 -0.0075218454 -0.035420444 -0.0023508258 0.03893068 -0.04671369
-0.03498671 -0.037374243 0.035941213 -0.032484077 -0.05414752 0.015965503 -0.12911643 0.0115636615
0.037546854 0.030017922 0.039455205 -0.04965801 0.019669186 0.04085602 -0.06871497 -0.047594868
-0.057882756 -0.017636405 -0.019641858 0.046247613 0.06326785 -0.03488037 -0.0040657846 -0.030676113
-0.035402853 0.016556676 0.046509914 -0.044385444 0.00076825055 -0.06659535 0.03459253 -0.015666863
0.04414069 -0.079936706 -0.08565988 0.011419476 0.061886203 0.007926005 0.0384053 -0.025814258
-0.12537934 -0.07888545 -0.0050659333 0.03000708 -0.013403401 0.03530544 0.10380411 -0.055616647
0.06267052 -0.033951554 -0.008448029 0.016941316 -0.016483176 0.1881711 0.12980588 -0.03434805
0.05225583 0.014522918 -0.021942755 0.020534497 0.02812588 -0.016576707 0.051977374 0.056912534
-0.043238074 0.035530444 0.1010416 0.026030406 0.03001738 -0.12030042 -0.035642095 0.004151159
0.057618316 -0.05975469 -0.003183841 -0.0201973 0.13249736 -0.050289158 0.097859606 0.0493244
-0.001330139 -0.06987319 -0.08794029 0.03862805 -0.03761791 0.03038099 -0.03051358 0.108390294
-0.043599643 0.02888422 -0.10864624 0.000521714 0.00056305464 -0.040076215 -0.010056854 -0.109037705
-0.017599039 0.13069482 0.19019839 0.013394388 0.061022706 0.09279747 0.079752505 -0.038847398
-0.03894823 0.02106501 0.024135267 0.124797195 0.10253544 0.01851278 0.058564134 -0.03169939
-0.0037665502 -0.050896835 0.004928881 0.061480608 -0.040851638 -0.037937455 -0.016701182 -0.037281416
-0.07331895 0.056811955 -0.022534758 0.011125913 0.0059454544 -0.05212614 -0.13342348 -0.047197323
0.09995753 0.09459578 -0.075378 -0.13416953 0.014784369 0.0966665 -0.07264629 -0.03400855
-0.018377759 0.09072392 -0.013226351 -0.019909415 -0.11451677 -0.01786692 -0.07942854 -0.012336446
0.008243329 -0.019465173 0.060509354 0.07112738 0.04019846 0.119212076 0.020263815 -0.06732899
0.055626944 -0.014450729 -0.027731122 -0.010202996 -0.008315455 0.026446741 -0.028089313 -0.052950982
0.0013709106 0.05571254 0.037191425 0.026063759 -0.004115357 -0.017706534 0.020328466 -0.11834807
0.06205721 -0.047013547 0.15030603 -0.013697188 -0.0061577987 0.023109535 -0.09005964 0.021406544
-0.111335695 -0.0281278 0.18006164 -0.084280424 0.103943534 0.014321724 0.027289925 -0.07474403
-0.06904989 -0.09774388 0.020942645 0.009883359 0.011387544 -0.11073276 0.028442603 -0.017055647
0.020218793 -0.030667799 0.12830304 -0.039430197 -0.020520268 -0.11666992 -0.038165137 0.045322884
-0.1159596 -0.058286916 0.054629378 0.042087145 -0.12543578 -0.048959624 0.029046554 0.070496336
0.11828229 -0.054552823 -0.00060597836 0.08194942 0.14860311 0.012916784 0.0216139 -0.087712705
-0.049274553 0.043543644 -0.08788373 0.08645364 -0.04454246 0.04914037 0.07275317 0.09969144
