results/PushBlockCollab_POCA/PushBlockCollab/PushBlockCollab-1999936.onnx (onnx, 643240 bytes, 12 tensors)

network_body.observation_encoder.processors.0.conv_layers.0.weight f4 [16, 6, 8, 8]
00000000: 277a 6fbb 5279 afbd 976d f8bd 017b 603d
00000010: 3a1b e93c b63f f73c b035 e93c c60c 34bc
00000020: f292 173d bd28 27bd 18bf a13c 2132 2abd
00000030: b4a8 523d 3b0f e5bc 165c c4ba 6b3c 13bc
00000040: 7c45 5d3d a8c9 cfbc e10c 413d 2974 843d
00000050: 4c5d 9a3b 9f23 3bbc cf6d 823c cb51 9d3d
00000060: a298 2c3d 34ba 813d 0bb0 ba3c eed3 7abc
00000070: 6a7d 55bd a0e1 4e3d ef06 0cbc dfaa b33d
00000080: 5e39 0ebc e874 2dbd 0a46 87bc 8ccf 4cbb
00000090: 2b09 d9bc 4823 693d 3f13 d43d 4354 a93d
000000a0: 60c4 dcba eca2 963a f945 fcbc 69c7 593d
000000b0: 04e3 19bd 5b90 213d 1c5f a83c 4517 8e3d
000000c0: 322e e6bc c918 1abd 111c 81bd f9f4 05bd
000000d0: ad13 0ebd 512a 9a3d d8bc 643d 8024 3d3c
000000e0: b636 fb3c b58a 2d3d d168 953a 222c 56bc
000000f0: d3f9 a6bc a84b 383d 7050 97bc 5ae3 7b3d
00000100: 13fe 81bd 7187 b8bc ba21 04bd ca9b 8c3d
00000110: aeb1 11bd 27bd 4d3d e0d4 c83c ba44 a53d
00000120: 7433 febc 13a1 f53b 2c63 e6bb 3845 5f3d
00000130: 0e1a 0fbd b0b6 8d3c 7700 c63c 8495 56bd
00000140: 5e60 d7bd d024 e2bb de5e e83c fcf1 3f3d
00000150: ac7d 82bc 1de0 df3c 8915 9839 ac43 abbc
00000160: cd29 a5bd 71a7 85bd 1121 bf3b 2804 243d
00000170: 0ee1 973c 8248 37bc d5e2 ec3a 35ed a53b
00000180: be82 7bbd c0ad 67bd 8d41 b2bb c20f b93d
00000190: 3d6a d53d d187 953d 6c90 04bd 80cf 0fbd
000001a0: e58d b1bc ea5b 46bd 958f 24bd 95d7 803d
000001b0: e4af e53c ab34 a2bc 3c9a d6bc 0769 71bd
000001c0: 7ce1 41bc 4ad6 243c 7dad 26bd e1f1 55bd
000001d0: 346b 75bb a0c6 b7bd 7404 febd 973b 9abd
000001e0: 8cca 60ba 8ff4 48bd 9789 68bd ae34 7dbd
000001f0: 2502 9fbd 45c5 003c 6187 15bd 8f5c 7dbc
00000200: 6901 61bc 8076 49bd 8440 abbd bae7 dabd
00000210: 2c3d cebc 501b 67bc 9f2c 73bc 7f49 3fbd
00000220: 8035 64bd 1169 95bd bcba 06bd fbbd fbbd
00000230: 2698 08bd 0e7c 22bd 9bcd a4bd 75aa 58bd
00000240: bcfc c2bc 241f 033a 18ca dc3b af3a ccbd
00000250: 8e9d dfb8 3b03 2abd d774 33bd e1f8 903c
00000260: 47d7 b2bb 1c1d 153c 6ef2 54bc 0142 78bd
00000270: b99b b7bc b6bc acbd f1c9 b2bc 6ce3 aebc
00000280: 9d21 663c c02b f43c 4d5b 8a3c 3d1a cbbc
00000290: e035 f7bd 3a14 8ebd 4f1f 173d 31eb 04bd
000002a0: 8c61 b6bc d0c6 643c cf72 123d 09fa 3dbd
000002b0: 8797 33bd 6cca 10bd c99f 4abd 5095 dabc
000002c0: 7dfa 8b3b 23b5 4fbb c575 7a3c 409f 3c3d
000002d0: cf41 a6bd 93a4 db3c 1d5d 9d3c de7a 983c
000002e0: 2794 753b 6dba d93c a987 823d 2714 0e3b
000002f0: 327d 843c 54a1 10bd e62e df3b f646 55bb
00000300: 19c1 eb39 3430 f7ba a1ff 0c3c 1119 cabb
00000310: 05e5 fabc a50f 74bc f89e c03d 49e6 b13d
00000320: fa28 8bbd b8b1 4abd 1183 0abd 9dc6 f53b
00000330: 8b6d fbbc 59f6 7fbc 6629 fd3d ebc0 a83d
00000340: 968b 94bd 0008 7cbd a931 4a3d 01cd 773c
00000350: 176f 793c 88c0 8cbd 7ad8 963d c5fa f73c
00000360: eb1f f5bc c8d3 133d e230 ccbc dbd6 b0bc
00000370: 925c 6a3d ff86 b73d 061a 033d 9764 af3d
00000380: b1ff 603d 78b5 063e 7416 633d d786 e83c
00000390: 0d36 ed3d 47d8 ae3d a220 a43d ba22 783d
000003a0: af24 aab9 acae 9a3d 3611 8c3d 321e c73c
000003b0: e667 bd3d 38a6 963d 7e79 e23d 6239 033d
000003c0: fb9b da3d 9a5a 6c3c 32b4 a0bd 51b0 4cbd
000003d0: eefe 953d d85b f23c 27a5 113d 3196 d6bd
000003e0: 7aa7 f43c 5fc6 343d 04a8 ba3c 80e8 e33d
000003f0: ef45 91ba 58d1 8a3d c5e9 93bd 1ab0 61bd
-0.0036541314 -0.08568062 -0.121302776 0.054804806 0.028455365 0.030181747 0.028467983 -0.010989374
0.037005372 -0.040810335 0.01974444 -0.041551713 0.05143042 -0.027961364 -0.0014981057 -0.008986573
0.054021344 -0.025364712 0.047131423 0.06467468 0.004710829 -0.011422067 0.015921501 0.076816164
0.04213775 0.063343436 0.022789022 -0.015309317 -0.052121557 0.05050814 -0.008546575 0.087728254
-0.00868067 -0.04234782 -0.01651289 -0.0031251637 -0.02649363 0.056918412 0.103552334 0.08268025
-0.0016843192 0.0011492646 -0.030795084 0.053168688 -0.037570015 0.03944431 0.020553164 0.06938032
-0.0280982 -0.037621293 -0.06304181 -0.032704327 -0.034686733 0.075276025 0.055844158 0.011544347
0.030665737 0.04236861 0.0011399036 -0.0130720455 -0.020382797 0.044994026 -0.018470973 0.061496116
-0.06347289 -0.022525521 -0.032258727 0.06865652 -0.03556984 0.050229218 0.02451557 0.08069749
-0.031030394 0.007496008 -0.007030865 0.05450937 -0.034936957 0.017299026 0.024170144 -0.052388683
-0.105164275 -0.006901361 0.028365549 0.046861634 -0.015929066 0.027328545 0.00029007744 -0.020906292
-0.080646135 -0.065260775 0.0058327992 0.040043026 0.018539932 -0.011186721 0.0018072972 0.0050636777
-0.061403982 -0.056562185 -0.005439943 0.09036209 0.10420654 0.073012955 -0.032364294 -0.035109997
-0.021674106 -0.0484275 -0.040175993 0.06291119 0.028037973 -0.019800505 -0.026196592 -0.058938053
-0.011833545 0.010060856 -0.040692795 -0.052232627 -0.0037447931 -0.089734316 -0.12403193 -0.07530897
-0.0008575104 -0.049061354 -0.05677184 -0.061817817 -0.07764081 0.007859533 -0.03650606 -0.015463962
-0.013733246 -0.049185276 -0.08361915 -0.106887296 -0.025175653 -0.014105633 -0.0148421815 -0.04670095
-0.055715084 -0.072954305 -0.032892928 -0.12292095 -0.033348225 -0.03966909 -0.08047029 -0.052896935
-0.023802154 0.0005001894 0.0067379586 -0.099721305 -0.000106628155 -0.041506987 -0.0438126 0.0176968
-0.005457792 0.0091011785 -0.012997253 -0.06060982 -0.022413122 -0.08434431 -0.021824809 -0.021348678
0.0140461 0.029806018 0.016889239 -0.024792785 -0.12070823 -0.06937452 0.036895093 -0.03245086
-0.02226331 0.013963416 0.03575402 -0.04638103 -0.04384568 -0.035349295 -0.04946879 -0.026682526
0.004271804 -0.003169366 0.0152868675 0.04605031 -0.08118021 0.026811874 0.019209439 0.018613275
0.003747234 0.026578153 0.06373531 0.0021679492 0.016172979 -0.035310104 0.0068110107 -0.0032543517
0.00044966562 -0.001885897 0.008605869 -0.006167539 -0.030626783 -0.014896308 0.09405321 0.086865015
-0.06794925 -0.049485892 -0.0338164 0.007500483 -0.030691883 -0.015622699 0.12361412 0.08239921
-0.072531864 -0.061531067 0.049363766 0.01512456 0.01522424 -0.0687266 0.073655084 0.030270943
-0.029922446 0.036090642 -0.024925653 -0.021586826 0.05721719 0.08961295 0.03200724 0.08564108
0.054931346 0.13155162 0.055441335 0.02838461 0.11582575 0.085373454 0.08014037 0.060579993
-0.00032452258 0.07552847 0.0683922 0.02430639 0.09248333 0.073559225 0.11058329 0.032037146
0.10674282 0.014425898 -0.078468695 -0.049972836 0.073240146 0.02958481 0.035557892 -0.104778655
0.029865015 0.044134494 0.022785194 0.1112833 -0.0011083464 0.067782104 -0.072223224 -0.055099584

network_body.observation_encoder.processors.0.conv_layers.0.bias f4 [16]
00000000: 1a7f e43c acc6 b9bb 1f50 0f3d 50c4 313c
00000010: 375c f73c 4473 3abd 0f52 0e3d 8873 e9bc
00000020: 86bf 7dbc dcb7 48bc 3370 d5bc eefd 94bc
00000030: 491f 2f3d 2490 b0bc 53fb 0d3c 88f8 873c
0.027892638 -0.0056694355 0.03498852 0.010850027 0.030195339 -0.045520082 0.034746226 -0.028497472
-0.015487557 -0.012250867 -0.026054477 -0.01818749 0.042754445 -0.021553107 0.008665877 0.016598001

network_body.observation_encoder.processors.0.conv_layers.2.weight f4 [32, 16, 4, 4]
00000000: e327 043d 5de3 d23b 12cd 4f3d 02a9 843c
00000010: 5592 b6bd 8e4d 083e 90d5 9cbc dc2b 0cbd
00000020: 6822 ac3d 622f a83c 57d1 b33d 266b b1bc
00000030: b3dd 573d b183 6dbd dbb2 543d a678 423d
00000040: 015b 9e3c 9f7b acbd 58a4 403c d98e 033c
00000050: 8230 733d 2d16 77bd f617 b9bd 01db 373c
00000060: d5f5 fc3c 12d1 f93c 0e61 a5bd b2ac cd3d
00000070: bf0e 553d 8c0b 113c e99e 88bd 9ebc 553c
00000080: 3a05 e0bc 2b3a 55bd 782a 92bc e8b8 82bd
00000090: df41 babb 818c a3b9 4ed6 053d 05a6 ab3d
000000a0: 1764 60bd 0adb 353d d8a1 28bd 65d1 a0bc
000000b0: 505e 24bd 121c 133d 842a 9a3a 4a1f 713d
000000c0: c7ed 973c 54cd b93b fdc6 1e3d 35ab cc3c
000000d0: c078 8d3d 78fe fdbc e9fd 8a3d c917 463d
000000e0: 4c00 65bd 1ac8 523d 7cd8 14bd 1c2e 12bb
000000f0: c745 00bd 5980 023c 62ee e83d cf43 003d
00000100: cd45 17bb 24e8 85bc 21c7 a1bc 476e 00bd
00000110: 984a 9d3d 1e94 a4ba bfe1 cd3c ba59 0d3c
00000120: 4107 443d b760 433d 5a68 8e3d 15e6 5f3d
00000130: 95cb 873d 18fc 4ebd f2c3 183d 48b6 99bc
00000140: 73c8 ca3c 5b51 9ebd a183 313d e9ea 233d
00000150: 6c08 cdbd b377 8cbd 52e7 1d3d ce86 f33d
00000160: 033e 5dbd 0c52 3a3d 0dae aebd 2c32 22bc
00000170: 07a9 81bd ca05 20bd 4478 823c 081b 443c
00000180: 74b1 9f3d 233d 893d 2276 d3bc 7046 b43c
00000190: f635 233c b742 bd3c fc46 18bd 6cc7 56bc
000001a0: 5a33 3f3d e50d 603d 1ee7 aabd 840b 9e3c
000001b0: a0a5 e9bd 65cc c93d 726c 7b3d 474c aa3a
000001c0: 3491 5dbd de9b 92bd 0e0c 1a3d 0ef2 263c
000001d0: 5425 f0bc e158 aa3c e547 e93c ab0b 8abb
000001e0: 1796 61bd 04ef 143d ae7b 153d 31c5 99bd
000001f0: a4e1 29bd 1db9 90bd f448 89bd 2f20 133d
00000200: de64 1e3d 7933 07bd 845c 8c3c 881e 8f3d
00000210: 6ddc 59bd b9c8 ccbc 1c3a 28bd de1d 273d
00000220: 4301 97bb 9333 dbbb 8ccd 5dbd 47dc 87bd
00000230: 6edc b0bd 278c 48ba f916 8b3c 8d20 78bd
00000240: 4bdb 013d 137a c03c 3b85 b0bb ce4d 6b3d
00000250: 5bfd 94bb 3c80 3c3d 88b1 e53c 02a6 313d
00000260: 9405 c73c 1231 99bb bc0e 743d d442 b93d
00000270: ad35 e93d 71ed e9bb 9fbf 62bc 8779 603d
00000280: a1c9 523c bfac 3ebd e635 13bd a7c2 15bc
00000290: 52f8 b73d 492d 233c d1b4 71bb 37e0 913c
000002a0: 4f98 8d3c 1d56 a3bd 2bbd 60bd 068c 20bd
000002b0: ec15 7e3d 1b16 cdbb ef8f 14bd 7744 2f3d
000002c0: 8f91 3abd 6b52 8b3d 6850 7ebd d730 3b3d
000002d0: 27e9 78bc 0d96 9d3c 73d3 103d 8ef5 08bd
000002e0: 5566 3e3d b303 8dbd 5e46 05bc cfcd 823d
000002f0: a052 cb3d 9dbb c6bb 57e9 6e3d 6b40 643d
00000300: df19 f03c c67e 3bbd 4cc9 2e3c 15be ab3d
00000310: da72 9c3d 700a 053b fc40 07bd c93d 6fbd
00000320: 6220 1d3d 21e7 54b9 0159 0c3d 503c da3d
00000330: 81e8 173d 7b9b 91ba 7982 023d b624 8b3d
00000340: 1b88 00bc f294 593c b264 973d e2a9 b83d
00000350: f743 993d a510 173d fe37 8d3d 5732 ce3d
00000360: c717 a03d 5cc3 90bd 30ca 67bc dc78 f6bb
00000370: aff3 3dbd 0693 0dbd da8e 063d 52ee 04bc
00000380: a579 083d 8b77 9b3b 0d3c 913d 2463 a63d
00000390: 55ef 2dbb 7150 b7bc 182d 7ebc 97fa 8c3d
000003a0: a421 e0bc 7479 e73d ff02 0dbd a357 c4bc
000003b0: c402 7e3b b301 363d 1dff 893d 7102 c13c
000003c0: 8331 62bb 6ec8 adbc ec96 a43d 2cda d93c
000003d0: a7d9 dcbc aa0e dbbc b744 94bd cd59 163d
000003e0: 3803 93bd 4efd 12bc 5b3f 1e3c f9d2 e63c
000003f0: f04b b5bd 89ff 07bd 5cb9 92ba 4f11 663d
0.0322646 0.006435795 0.05073268 0.01619387 -0.08914629 0.13310835 -0.019144803 -0.034221515
0.08405 0.020530406 0.08780163 -0.021657538 0.052701663 -0.05798692 0.051928382 0.04747834
0.019330503 -0.08422016 0.011757933 0.008029663 0.059372433 -0.060323883 -0.09037773 0.011221648
0.03087894 0.0304952 -0.08075152 0.10042705 0.052016016 0.008852851 -0.06670935 0.013045458
-0.027346242 -0.052057426 -0.017842516 -0.06382924 -0.005684122 -0.00031194466 0.03267508 0.08381275
-0.054782953 0.044398345 -0.04116997 -0.019631097 -0.040129006 0.03591544 0.0011761938 0.05886773
0.018545998 0.005670229 0.03876399 0.024983982 0.06907797 -0.03100513 0.06786711 0.048362527
-0.055908486 0.051460363 -0.036339268 -0.0022305315 -0.031316545 0.007965171 0.11373593 0.031314667
-0.0023082376 -0.016346045 -0.019748272 -0.03135517 0.07680243 -0.0012556349 0.025132058 0.0086273495
0.04785848 0.047699656 0.06953497 0.054662783 0.06630627 -0.050533384 0.037296243 -0.018763676
0.024753785 -0.07730361 0.04333842 0.04001895 -0.10011372 -0.06858768 0.038550682 0.11890946
-0.054014217 0.045488402 -0.08529291 -0.009899657 -0.063310675 -0.03906802 0.015926488 0.011969335
0.077975184 0.06701114 -0.025813166 0.022006243 0.009961596 0.023103101 -0.03717707 -0.013109069
0.046679832 0.05470075 -0.08344863 0.0192926 -0.114085436 0.09853438 0.06138272 0.0012992703
-0.054093555 -0.071586356 0.037609152 0.010189546 -0.029314674 0.020794334 0.028476665 -0.0042128167
-0.055074777 0.036360756 0.036494903 -0.075083144 -0.041474953 -0.070665576 -0.06703368 0.035919365
0.038670413 -0.033008073 0.017133959 0.06988245 -0.05318873 -0.024998056 -0.041071042 0.040799968
-0.0046083047 -0.0066894977 -0.054151103 -0.066338114 -0.086357936 -0.0007650279 0.016978728 -0.060577918
0.031703275 0.02349571 -0.005386976 0.057447247 -0.004546804 0.04602073 0.028038755 0.043371208
0.024294652 -0.004675039 0.059584364 0.090459496 0.11387191 -0.007138901 -0.013839631 0.054803398
0.012865455 -0.046551462 -0.035940073 -0.009140647 0.0898291 0.009959527 -0.0036881457 0.01780711
0.01728454 -0.07975409 -0.054867905 -0.039196037 0.062032625 -0.0062587387 -0.03627008 0.042789903
-0.04554897 0.06802829 -0.0620884 0.045700874 -0.015192307 0.019236589 0.035357904 -0.033437304
0.04648431 -0.06885471 -0.008134453 0.06386911 0.09927869 -0.0060648457 0.058328 0.055725496
0.029309211 -0.045775197 0.01066811 0.08385865 0.07639094 0.002030041 -0.03302096 -0.058408532
0.03836096 -0.00020303998 0.03426457 0.10656035 0.037086967 -0.0011108959 0.03186271 0.067941114
-0.00784495 0.01328014 0.07392253 0.090167776 0.074836664 0.036881108 0.06895445 0.10068195
0.07817035 -0.07068512 -0.014147326 -0.007521732 -0.046374973 -0.03456404 0.032851078 -0.008113461
0.033319134 0.0047444752 0.07091532 0.08124378 -0.0026540358 -0.022377225 -0.015513681 0.06883734
-0.027359791 0.11302462 -0.034426685 -0.02396757 0.0038758973 0.044435214 0.06738112 0.023560734
-0.0034514375 -0.021213736 0.080365986 0.02659329 -0.026959253 -0.02674039 -0.07239669 0.036706734
-0.07178348 -0.008971525 0.00965866 0.028176771 -0.088523746 -0.03320268 -0.0011194157 0.05616885

network_body.observation_encoder.processors.0.conv_layers.2.bias f4 [32]
00000000: a56a c33c 2d51 3ebc fdc8 30bd 1441 b4bc
00000010: c949 2abd c05f d93c 8c4c 333d 63fe 213b
00000020: 3d10 023d 4a8d 96bb cbc4 263b 5cb6 d73c
00000030: eaad e539 0b31 2fbc 93c3 1e3d 5375 6d3d
00000040: cff8 5f3d 26d7 3aba 1f28 9bbc 8c41 cbbc
00000050: ab4c 10bd 4867 7e3d 4bf6 963c 86e8 633d
00000060: 4ad4 cebc ac88 04bd c6dc 27bd 546f 003d
00000070: 06c8 5ebd 5de0 653d 1558 c33b 9785 07bd
0.023854563 -0.0116160335 -0.043160427 -0.022003688 -0.041574273 0.026534915 0.043774173 0.0024718277
0.031753767 -0.0045944797 0.0025446888 0.026332073 0.0004380786 -0.010692845 0.038760733 0.057973217
0.05468064 -0.00071273965 -0.01894003 -0.024811529 -0.035229366 0.062110215 0.018427989 0.055641674
-0.025247712 -0.032356903 -0.04098203 0.03135617 -0.054389976 0.056122173 0.005961428 -0.033086386

network_body.observation_encoder.processors.0.dense.0.weight f4 [256, 32]
00000000: e5ec 3f3c b26e 69bd b90a dbbe b5aa 4e3d
00000010: 233c ae3d 1627 063e ee04 3a3e 57ab 17be
00000020: 9406 ddbd 116a 7b3e b0b8 86be ea0f 24be
00000030: 5649 49be 30bc 4bbe 4bfb 1e3e 2bb1 dcbe
00000040: c8da 083e 4d23 603e a890 433d 38c1 95bd
00000050: b189 8a3e 6e5d 983e 4699 9c3e 0f1f 8bbd
00000060: 9de7 9d3d eea9 cf3d 32bb 05bf 2fe1 bdbd
00000070: f481 53be 3f36 a2bd 90a3 ea3c c89b b4bd
00000080: 8c12 993e 6ec3 4a3e 2820 ba3c 3bd0 f93d
00000090: ff6b f33e 4ab9 47be 1d82 123e 2720 a73e
000000a0: 4d04 953d 33b9 5a3d 781e 603c 7843 3a3e
000000b0: 4089 c1bd e531 8d3d 4ec9 25be 565c 37be
000000c0: 8825 31be 8393 d63c 0980 603e a241 a4be
000000d0: 40cb 15be e6af f93d 6629 8dbe f797 c4bc
000000e0: 8eab 3ebe 44fb a2be 3c95 d63d 4040 12be
000000f0: f778 e4be 4ac3 553e bdf3 dbbe 55c3 58be
00000100: 1818 353e cfa6 5d3e d520 4ebd f754 4ebe
00000110: 99c2 7c3e 37cc 093e d331 fe3d d5b5 e33e
00000120: ff32 abbd 8948 ae3c e66c 54be 35e3 bebc
00000130: 69af 6dbd a19d 4bbe 4b66 f23e 960c 9ebe
00000140: 1d02 1c3f 3845 c2be 688a 02be 43d4 9ebe
00000150: 53a2 07bd 8fa2 843d 1606 ba3e 9cb5 44bb
00000160: e2f2 1fbe d902 6d3e e11c f2be 1e38 8bbc
00000170: 91cc f73d 16ff 103e 27f5 763d 89e0 a43e
00000180: 8dab 61bd 8791 91be f1ec d4be 2a82 47be
00000190: e811 df3d c453 883d 78d0 643e 8c58 cf3e
000001a0: aee4 d63e c469 ee3d e78e 123e 5fab be3e
000001b0: 5f7d a73e 1af1 7fbe 7900 47be ef6f a3be
000001c0: 8976 c23e 37a1 f33d 5c71 763e 9ac8 2f3d
000001d0: acb6 5c3e 5b13 2abe b412 8bbe 5d24 123e
000001e0: dfdc 223e 25ae 63be 2b66 a43e ac9f 293e
000001f0: 1d81 0f3e 425c 2b3c 2893 eb3e 8e81 3abf
00000200: 5444 8bbe cfa3 0ebe 8351 3b3e 5dd6 ba3e
00000210: 275c 603e 555b 153e 7e02 75be 7241 453b
00000220: e0cf 683e 4f63 02bd 58d1 9c3c 1a13 d43c
00000230: e793 72be ffc1 0b3e 1e54 46bd 09f4 7a3d
00000240: 0584 ea3e c3bc a7bd c6a8 97be 00b9 183e
00000250: 49e2 203e ec01 b8be 07ff e7bd 9fc9 a6be
00000260: 4f7b 2dbe 2ce8 be3d 0527 983e 0853 bfbd
00000270: 6027 30be d5eb 4abd a6c6 d13e 05a5 0ebe
00000280: 0dd9 72be 9742 8bbd 94c2 9f3d 2c0b 1d3f
00000290: 646e 873d 810f 033e 531b 2f3b c9cc 43bd
000002a0: 0ea5 8e3e c783 a63d 8758 20be c4ba acbe
000002b0: 17dd 143e 9deb 4b3d ae53 ecbe 3882 da3d
000002c0: 200b 1d3e ffb7 1e3f a451 fb3c d542 3b3f
000002d0: 9e3e 4fbd c47d 80be 924a 20be a261 e3be
000002e0: dcb6 4a3d e674 bc3e 8991 1d3e 3ff7 d0bd
000002f0: c700 293f 159f 4b3d 3040 7a3e d58b 26bb
00000300: 453c 7fbe 49a2 543d 0bdc 55bd c700 233e
00000310: fe09 c03e 9e0c d5bd 4fce e1be d7b5 703e
00000320: d43e 783d 7141 ba3e 1adb debd ce0e 78be
00000330: a251 a93e 8984 0dbf e7bb c0bd 0e9f 73be
00000340: 8623 3cbf a6ef e03e b74c 17bf 7a19 89be
00000350: 1074 04be ffb5 be3e 9fe1 9fbd eb76 ba3d
00000360: e345 fdbd 82ea d9bd f414 183e 8fa0 a23e
00000370: fd59 c13e 62b6 3abc 2d23 843e 76e7 713e
00000380: 2adb bc3c ef41 acbd 2acf 63bc ae20 2a3e
00000390: b113 d1bd 4c3c c63e c005 4abe 8c5f 87be
000003a0: 05ed e1bd 2061 983e 3742 d0bd ffa9 cc3e
000003b0: e8b6 97bd 9056 443e dcfc 2d3d 5050 bebe
000003c0: 45de a73e 16cb d5bd d114 86bc 5323 a4be
000003d0: 0c37 8dbe 729c a03d 7655 89be 3c38 70be
000003e0: 8bb8 81bd df05 ad3e 49d1 1f3e fe41 86be
000003f0: c5a3 b23d 554d 6cba e7b4 68bc 1934 f63d
0.011714195 -0.056990333 -0.42781618 0.050455768 0.08507564 0.13100848 0.18165943 -0.14811455
-0.1079227 0.2455218 -0.2631278 -0.16021696 -0.19656882 -0.19896007 0.15525548 -0.43103918
0.13364708 0.21888466 0.047745377 -0.07312244 0.27058175 0.2975878 0.30585688 -0.06793033
0.07710192 0.101398334 -0.5223876 -0.09271466 -0.20655042 -0.07920503 0.028642446 -0.088187754
0.29896963 0.19801113 0.022720411 0.1219792 0.47543332 -0.19504276 0.14307447 0.32641718
0.07276211 0.053399276 0.013679139 0.181898 -0.094500065 0.06894282 -0.16190073 -0.17906317
-0.17299473 0.026193386 0.21923842 -0.32081324 -0.14628315 0.12191753 -0.27570647 -0.023998244
-0.1862013 -0.31832325 0.10477683 -0.14282322 -0.4462354 0.20875278 -0.42959395 -0.21168263
0.17684972 0.21645664 -0.05032428 -0.20149599 0.24683608 0.13456808 0.12411847 0.44474664
-0.08359336 0.021274822 -0.20744666 -0.0233017 -0.058028612 -0.1988435 0.47343668 -0.30868977
0.60940725 -0.37943435 -0.1274811 -0.31021318 -0.03311379 0.06476318 0.36332768 -0.0030015474
-0.15619996 0.23145618 -0.47287658 -0.016994532 0.12099565 0.14159808 0.06029239 0.32202557
-0.055095244 -0.2843134 -0.41587022 -0.19483247 0.10892087 0.06656602 0.2234515 0.40497243
0.41971344 0.11641267 0.14312325 0.3724012 0.32712838 -0.24994317 -0.19433774 -0.31921336
0.3798106 0.11895984 0.2406668 0.042915918 0.21554059 -0.16608946 -0.27162707 0.14271684
0.15904568 -0.222344 0.32109198 0.16564816 0.14014097 0.010459008 0.4601071 -0.72853935
-0.27200568 -0.13929676 0.18292813 0.3649167 0.21910153 0.14585622 -0.23926732 0.0030098823
0.22735548 -0.03183299 0.019142792 0.025888015 -0.23689233 0.13648222 -0.048420064 0.061267886
0.45803848 -0.081903 -0.2962095 0.14914322 0.15711321 -0.35938966 -0.113279395 -0.325757
-0.1694157 0.09321627 0.2971727 -0.09342009 -0.1720252 -0.049541313 0.4097187 -0.13930137
-0.23715611 -0.067998104 0.07800785 0.6134517 0.06612852 0.12798883 0.0026719167 -0.04780272
0.27860302 0.08130603 -0.1565877 -0.3373624 0.14537464 0.049785245 -0.46157593 0.106693685
0.15336275 0.61999506 0.030678578 0.7314885 -0.050596826 -0.25095952 -0.15653446 -0.44410425
0.049490795 0.36807936 0.15387549 -0.102034084 0.6601681 0.04971226 0.24438548 -0.0025412936
-0.24925335 0.05191258 -0.052211802 0.15918265 0.37507623 -0.10402797 -0.44102713 0.23506866
0.060606793 0.36378053 -0.10881634 -0.24224398 0.33070093 -0.5528036 -0.094108395 -0.23791143
-0.73491704 0.43932837 -0.5910143 -0.2677725 -0.129349 0.37248227 -0.07806706 0.09104713
-0.123668455 -0.10640432 0.14851743 0.3176312 0.37763968 -0.0113960225 0.25808087 0.23623452
0.023053724 -0.08411013 -0.013904372 0.16614029 -0.10208834 0.38717878 -0.19728756 -0.26440084
-0.11031536 0.297616 -0.101688795 0.39973447 -0.074079335 0.19173646 0.042477474 -0.3717065
0.32786766 -0.10439126 -0.016367348 -0.320582 -0.2758106 0.078423396 -0.26823014 -0.23458952
-0.06334027 0.33793542 0.1560718 -0.26222223 0.08722643 -0.0009014209 -0.014203287 0.120216556

network_body.observation_encoder.processors.0.dense.0.bias f4 [256]
00000000: 0094 8e3c 7560 023d d106 243c 025c 5dbc
00000010: 9db1 b1bb 1766 d1bc 6f8d 523c b0c1 d33c
00000020: 0c6f 943c 2c3a b0bb 9468 a3bc 9392 b13c
00000030: d8c8 513b 76d5 ad3c e70b ff3b cda6 dd3c
00000040: 17aa b23c bb15 c03c e28d 29bc af23 473d
00000050: 3ae3 4d3d 3911 bb3c 5b5b be3c 60fe 7fbc
00000060: e20b 263d d78b 113d d843 e83a f2e4 473d
00000070: f3de 3cba 6741 36bc 12f6 54bc 95fb 063c
00000080: 3518 2f3c 73f4 933c f558 6ebc 8a47 fc3c
00000090: 9b15 c03c 5202 7dbb 3823 003c 019f 55bc
000000a0: 4164 b33b 20fc 843c fac6 4dbc c2e2 c43c
000000b0: fc1b 00bd f711 b8bc aea4 3dbb f083 d13c
000000c0: 1397 433d cf0a 063d 0d7b 873c a0de 403d
000000d0: 78ff 95bc 4a83 98bb 64fd 5dbb b512 1bbd
000000e0: 83fd 54bb fac4 2d3d 671c 0abc 264f cf3b
000000f0: 7a8d dabc 83ef 9e3c ec95 8f3d 5f2a a6bc
00000100: 3fa2 e0bb c9a2 20bd cf02 b23c 56c6 073d
00000110: f3a9 23bc 1646 c5b7 d371 3e3d 4734 bfbc
00000120: 10d4 553c 04d3 483b a489 823d 422a 503c
00000130: acf1 093d abed e7bc 9b82 f8bb 09e6 7d3c
00000140: c8f4 213d c6a8 d5ba 6aec 113d d8ce cfbc
00000150: 0bc3 aa3c bfc4 f1bb c878 753d 79b0 e63c
00000160: c42c d43c ff60 1f3a 2a65 c33c d167 8c3c
00000170: 61a7 5f3c 8aed 543c e4c3 5a3c f5af 47bd
00000180: e7e4 cebc b5fb 0dbd fba8 6ebd 63b7 c63c
00000190: c6bb 8c3c c538 d83c acf7 a9ba 0b82 d63c
000001a0: 2580 313d 9706 253c 8680 b03c d96c 8e3c
000001b0: 347e 0d3d cada 863d 0558 513d 861b febb
000001c0: 298d 263c 024e 523d 26b8 4b3d 8c8b be3c
000001d0: 1f3f b63c c8c0 dfbc 8031 cabb e151 053d
000001e0: cc4f c73c 3b42 98b9 fb9b 063d cb65 563b
000001f0: 528f 123d d58f 4c3b f00f 13bd 599f e3bc
00000200: 1128 643c 9139 8abc 7b1f cabb 284f d3bb
00000210: f993 763c c258 80ba 28bf 113c 29e6 06bd
00000220: 8bfa 1c3d 7b1e c83b 2048 823b 4399 123c
00000230: 473f 1e3d 46c5 fe3c e2f6 203c 29a5 143d
00000240: c3cb 853c ce60 b6bc 209c 46bc 28a2 d13c
00000250: 3462 babc 6a84 7abb b9d4 8cbc 82f9 663d
00000260: 360a 133d 6f14 ad3b 1722 193d bc88 debc
00000270: 8380 2fbd 50fa 873d 8e15 aa3c d677 9e3c
00000280: 0add 0cbc c125 f73a 2286 073d 2557 693d
00000290: c3de da3c 7ed7 7f3c 7800 c23a 17e2 07bd
000002a0: 8c66 0e3d 5e66 0bbd 50f9 dcbc 58b5 8fbc
000002b0: a53d 463c 55d1 0e3b 6e73 e33c 5282 db39
000002c0: 8cc0 8c3c 66b4 193d 23ca e6ba 8d38 29bd
000002d0: dfd6 38bc 146e 833c 2f2f 35bc 0bb2 a8bc
000002e0: 599c 903c 4cf1 5d3d 82e3 84ba ba2c 8c3c
000002f0: e719 43bc 6854 e53c 5ea8 393a fc12 e53b
00000300: 54db f3bc a51d 153d fe7a 0abd 90d2 e2bc
00000310: 99f5 933c 4c21 063d 4638 873c 8880 993b
00000320: f40b de3c 4989 ee3b 8542 c33c 040d 8c3d
00000330: ec4c 0bbd d644 c7bb 05d4 143c fd03 733d
00000340: cca4 2a3d 2061 4cbc 5abe c53d 88fa 8e3c
00000350: df00 093d 4cab 45bc df51 813d 095a 5fbb
00000360: 2f9f 0d3d a654 203d a1b0 f23c 8a4f 00bd
00000370: 009d 563d 5c72 ec3c db91 34bc 20f8 493d
00000380: 1901 50bc 2e22 cc3b 9f50 493b a9f9 49bd
00000390: d5ec 9b3c 6126 a1bb f1cc 373d ae9a f43b
000003a0: b5a7 a53d 7767 0cbd 82f5 873d 6c73 763d
000003b0: 57ac 8b3c ce0e 003d 0522 a6b9 e5b3 963c
000003c0: d2e7 cd3c 4169 293d 21a8 e13b 6cfe 9f3c
000003d0: 2626 8d3c b63a e53b 2ede 40bc 2426 8f3a
000003e0: 415f 373d 2ebd fcba 3aa7 d83c aa3e 1a3d
000003f0: 455c 00bc c5e8 b43a 04f9 633d 5de5 a0b9
0.017404556 0.03183027 0.010011391 -0.013510706 -0.0054227845 -0.025561376 0.012851103 0.025849193
0.018119358 -0.0053780284 -0.019947328 0.021676337 0.0032010581 0.02121995 0.0077834013 0.027057076
0.02180962 0.023447862 -0.010348769 0.048618015 0.05026553 0.02283536 0.023236921 -0.015624613
0.040538676 0.035533752 0.0017720414 0.048802324 -0.0007204853 -0.011123992 -0.012998121 0.008238693
0.010686924 0.018060898 -0.014547576 0.030795831 0.023447802 -0.003860612 0.007820897 -0.013038398
0.0054745977 0.016233504 -0.012559647 0.024033908 -0.031276688 -0.022469504 -0.0028937268 0.025575608
0.047751497 0.03272515 0.016538167 0.04708731 -0.018310294 -0.0046543228 -0.0033872956 -0.037859637
-0.0032499738 0.04242418 -0.008429623 0.006326574 -0.02667879 0.019401317 0.07011017 -0.020283876
-0.0068552787 -0.039217744 0.021729855 0.033148132 -0.0099892495 -2.3516866e-05 0.04649527 -0.023340357
0.013051048 0.0030643353 0.06373909 0.012705388 0.033677742 -0.028311571 -0.0075839288 0.015496739
0.039540082 -0.0016300909 0.035625853 -0.025367185 0.020844957 -0.0073781903 0.05992964 0.02816032
0.025900252 0.0006079822 0.02385195 0.017139347 0.013650746 0.012996087 0.013352368 -0.04875179
-0.025255634 -0.034663875 -0.05826662 0.024257367 0.017179381 0.026394257 -0.0012967489 0.026185056
0.0433351 0.010072372 0.02154566 0.017385887 0.034544185 0.065846995 0.051109333 -0.007754746
0.010165491 0.051343925 0.049736165 0.0232599 0.022246895 -0.027313605 -0.0061704516 0.03254879
0.024330042 -0.00029041045 0.0328636 0.0032714482 0.035781212 0.003121366 -0.03590387 -0.027785944
0.013925568 -0.016873153 -0.0061683035 -0.006448645 0.015049928 -0.0009792077 0.008895673 -0.03293434
0.038324874 0.006107149 0.003975883 0.008947673 0.038634565 0.031099927 0.009824486 0.03629032
0.016332513 -0.022262957 -0.012122184 0.025590017 -0.022751905 -0.0038225898 -0.017191278 0.056390293
0.03589841 0.005281977 0.037386026 -0.02716481 -0.042847168 0.0663954 0.020762231 0.019344252
-0.008597622 0.0018855856 0.033086903 0.056967873 0.02671755 0.015615342 0.0014801165 -0.0331746
0.034765765 -0.03403317 -0.02697435 -0.017542526 0.012099658 0.0021792252 0.027765002 0.0004186803
0.017181657 0.037525557 -0.0017607849 -0.041313697 -0.011281698 0.0160437 -0.011058613 -0.02059271
0.017652677 0.054185197 -0.0010138603 0.017111171 -0.011908031 0.02799435 0.00070822786 0.0069907885
-0.02976767 0.036405224 -0.0338087 -0.027688295 0.018061446 0.032746598 0.016506325 0.0046845116
0.02710531 0.0072795493 0.02383543 0.0683842 -0.034008905 -0.006081204 0.0090837525 0.059329975
0.04166107 -0.012474328 0.09655447 0.017453447 0.033448096 -0.012064766 0.06314444 -0.0034080765
0.034575637 0.039143227 0.029625239 -0.031325854 0.05239582 0.028863125 -0.011021103 0.049308896
-0.012695574 0.0062296605 0.003071822 -0.04931036 0.019033829 -0.004917905 0.04487318 0.0074647283
0.08088628 -0.03427836 0.06638624 0.06016867 0.017049951 0.03126412 -0.00031687334 0.018396327
0.025134955 0.041360144 0.0068864976 0.019530497 0.017230105 0.0069955243 -0.011771722 0.0010921401
0.044768576 -0.0019282454 0.026446927 0.037657417 -0.007834499 0.0013802281 0.0556574 -0.00030688467

network_body._body_endoder.seq_layers.0.weight f4 [256, 266]
00000000: 3d51 393d 489b af3d b154 fcbb 52a7 09bd
00000010: 286b 05bd 0895 88bd 1499 79bd a7cd 1f3e
00000020: 4b89 8dbd 69dc 873d 01ca f93c c45b f7bb
00000030: e09f 963d 74c3 02bd 8bdc 4a3d 24b5 8fbd
00000040: 4c15 623d 4aa9 83bc 633e d6bb f653 e1bd
00000050: 95a8 b53b 097c b33c 3a28 863c 9392 f6bb
00000060: 18fc 25bd 0b76 e6bd 0ffc 953b 124e c5bc
00000070: 7343 33bd 3996 393d ea42 5dbd b75c 0d3d
00000080: 309f 56bd 1914 88bd e711 c23d b5d1 c0bc
00000090: 361f 3d3d da9c febb 4825 b93d 81c1 91bd
000000a0: fc28 203a b98c 3fbd c654 b6bc 68f2 bb3d
000000b0: ae53 20bb 51c1 cc3d 4ea9 9b3d fd88 14bd
000000c0: f7d6 8e3d 68da e8bd 2879 7ebd 8dcd 5abd
000000d0: d267 783c c6ba 85bb 69b1 90bd d635 b63d
000000e0: 8c4e 0b3e 91e6 ab3c 4e26 023d f569 f2bd
000000f0: 76b1 c13a 850a 1e3a 988d 21be a6d7 28bd
00000100: a77b ad3d 33d5 18bd ed37 c6bc f20b f5bd
00000110: 295a 9bbd 65b4 873c a6ef 013d 0984 58bd
00000120: 16a8 23bc f021 2e3e b717 ccbc c4cd fcbd
00000130: 4c09 063d 8406 4c3d 0a65 f5bc ab55 a13d
00000140: 045c cb3c 80aa 13bc f44e 913c 360f c13d
00000150: c503 923d 3b34 1abd 08f5 253c 7c18 3d3c
00000160: 14dd 003e 21f1 dd3d ffd6 af3c 7716 83bb
00000170: 0b9c b8bc 65b9 1ebc 8a20 a6bc d08d 59bd
00000180: 1a3d 8b3c 1060 883d 204f 563d 68d8 1f3b
00000190: cc37 a0bd 7ef5 103d 81df d73c db9b 893d
000001a0: 536f f7bd 7675 29bd 828d 7abd f229 afbd
000001b0: 3619 983d c110 24bd 7ec0 c8bd cffd 6bbd
000001c0: bd48 953d 6d4c 68bd 3c02 373e a537 5dbd
000001d0: 5223 673c 6153 fd3b 9a06 c0bc 6f03 c0bc
000001e0: 6063 4a3c e644 1c3d d4c1 f63d 811c c63d
000001f0: 3836 a13d ca70 f93c fe86 09bc ed9b 5c3d
00000200: b5da bb3d 5097 b63d d159 f93b 526e c7bc
00000210: 7739 0ebd c157 02bd 8948 913d 74fd 6b3c
00000220: ac99 f3bc fd55 e43d bc2f 4c3c 0e8e 0d3d
00000230: 06ce c73c c0dc 31bd fb8e e93d 333a e6bc
00000240: eec9 8b3d 22d5 043d c00a ddbd 5d43 163e
00000250: 8358 323d 74b4 903d 9762 e0bc 9eff e63d
00000260: a4fd af3c 67b6 163e bbde e63d 8960 353c
00000270: ab7d 303d 55a0 ca3a 2ca5 ce3c 35e9 083c
00000280: 7298 583d ba4c a23d 1aa7 a93c 1e19 dcbd
00000290: b21e 1f3d 4bf8 9cb9 4a14 8c3d 501c cbbc
000002a0: 2125 a23c 97c9 8fbd 510d bfbd 7b6f dcbc
000002b0: 8b7d 233d f89b db3c 1d3e 3fbd 1b87 b7bc
000002c0: 715a c13d da98 ffbd 729d 40bd bfeb a13b
000002d0: 181d 2ebd c532 223e bcab 273c d1b6 5abc
000002e0: 3012 a1bc c26f 763c 622e 59bc a52a e0bd
000002f0: 9da1 ba3d 93f6 993d a484 84bd b5c1 d43c
00000300: b34c 3f3a 7de5 0d3e befe 2cbc d024 e0bd
00000310: a62b e13a a5e6 8d3a a0bc a8bc d19b cebd
00000320: af27 f5bc 3d1d 20bd c9a7 e7bc 5637 6fbd
00000330: 75a9 2f3d 4ea5 6bbd 392d bf3c 9b76 1ebd
00000340: 8466 51bc cf99 073d 124c 04be 0263 4abd
00000350: ed80 ae3c b587 54bd fff5 12be 4c94 1d3d
00000360: 48df cb3c fa7d 3fbd 4b9d 6a3d 7dca 02bd
00000370: 2a6d 23bd 25d9 9b3c 1e33 8c3c b2ba bdbd
00000380: 8115 43bd 3733 1a3d 7899 37bd 315f 953b
00000390: ca17 9c3d ecd6 42bd 9b4f e93d 71ce 29bc
000003a0: adc3 563d ca6d d0bd 7c1f 12bd 14ec 163e
000003b0: 1c81 043d 9999 c93d cf3c 0a3d fa5d f7bd
000003c0: 1d7f 543c dd4f 29bc 0684 9bba e2c6 cebd
000003d0: 9e6b bd3d b7af 703d 8830 88bd 494d 223d
000003e0: e3c9 7bbc ab6a 05bd 1278 babc e287 973d
000003f0: 289d c83d fc26 e3bc 2707 f2bb ebe3 e83b
0.04524349 0.085745394 -0.0077005257 -0.033606835 -0.032572895 -0.066690505 -0.060937002 0.15605794
-0.06910952 0.06633837 0.03049183 -0.007548781 0.073547125 -0.03192468 0.049526732 -0.07016972
0.05519609 -0.016071934 -0.006538199 -0.110023424 0.005543778 0.02190973 0.016376603 -0.007524797
-0.04052362 -0.11252984 0.004577167 -0.024085078 -0.043765496 0.04530928 -0.054018892 0.034512248
-0.052397907 -0.06644458 0.09476071 -0.023537496 0.046172343 -0.007770163 0.09040314 -0.07116986
0.0006109623 -0.046765063 -0.02225722 0.09177095 -0.002446394 0.0999781 0.07600652 -0.036263455
0.06974595 -0.11369783 -0.062127262 -0.053418685 0.015161471 -0.004081103 -0.07065088 0.08896987
0.13604182 0.020983966 0.03177481 -0.11836616 0.0014777619 0.0006028789 -0.1577667 -0.041221283
0.084708504 -0.037312698 -0.02419659 -0.11965169 -0.07585556 0.016565511 0.031722687 -0.052860294
-0.009988805 0.17005134 -0.024913652 -0.12343934 0.03272371 0.0498109 -0.029955406 0.07877668
0.02482415 -0.009012818 0.017737843 0.094267294 0.07129625 -0.037647467 0.010129221 0.011541482
0.12584335 0.10837007 0.021464823 -0.0040004808 -0.022535345 -0.009687756 -0.020279188 -0.05311376
0.016996909 0.066589475 0.052321553 0.0024390463 -0.078231424 0.03539037 0.026351692 0.0671918
-0.1208178 -0.041371785 -0.06117011 -0.08552922 0.074266836 -0.04005504 -0.0980234 -0.057615098
0.07289264 -0.05671351 0.17871946 -0.054008145 0.014107542 0.007730887 -0.023440648 -0.023439137
0.012352794 0.038151644 0.120486885 0.096734054 0.078716695 0.03044929 -0.008394001 0.05385964
0.091725744 0.08915579 0.007609584 -0.024344597 -0.03472277 -0.03182197 0.07093913 0.01440369
-0.029736362 0.111492135 0.012462553 0.034559302 0.024390232 -0.043423414 0.114042245 -0.028103923
0.068256244 0.03242982 -0.10793066 0.14674135 0.043541443 0.07065669 -0.027390761 0.11279224
0.02148325 0.14718018 0.11272951 0.011070379 0.043088596 0.001545916 0.025225244 0.008356382
0.05287976 0.07924791 0.020709563 -0.10746978 0.038847633 -0.0002993963 0.06839807 -0.024793774
0.019793095 -0.07020872 -0.09328712 -0.026908627 0.03991465 0.02680777 -0.046690095 -0.02240329
0.094410785 -0.12480326 -0.04702515 0.004941433 -0.042508215 0.1583968 0.010233816 -0.013349251
-0.019661993 0.015041294 -0.013255687 -0.10945634 0.091128565 0.075177334 -0.06470612 0.025971273
0.0007297501 0.13857074 -0.010558782 -0.109445214 0.0017179146 0.0010826184 -0.020597756 -0.10088313
-0.02992615 -0.039090384 -0.028278248 -0.05840238 0.042886216 -0.057530694 0.023336994 -0.03868733
-0.012780789 0.033105668 -0.12919644 -0.049410827 0.021301711 -0.051887233 -0.14351653 0.038471505
0.024886742 -0.046751 0.057278913 -0.03193139 -0.03989903 0.019024441 0.017114218 -0.09264125
-0.04762793 0.0376465 -0.044824094 0.004558467 0.07621725 -0.047568247 0.11392137 -0.010364161
0.052432705 -0.101771906 -0.035674557 0.14738494 0.03234969 0.098437496 0.033749398 -0.120784715
0.012969759 -0.010333982 -0.0011864908 -0.10096528 0.09249042 0.058761325 -0.066498816 0.039624486
-0.015367958 -0.03257243 -0.022762332 0.073989645 0.097956 -0.02772855 -0.0073861065 0.007107248

network_body._body_endoder.seq_layers.0.bias f4 [256]
00000000: be5f c83c 3d36 ebbc 7218 db3b 6672 b5bb
00000010: 3a74 3abb 5bdb 803c f807 dabb caf7 933c
00000020: 1dbb 8a3b 247b 8dbc d22e 1c3c d095 bcbc
00000030: 9ce2 483b 0df0 62bc 5109 ed3b 2036 3abc
00000040: 5c49 d7ba 7fed c8bc 7b5d 463c 05cd 3a3c
00000050: e477 b1bb 1dab 9e3b 85c1 99bc 287d 8e3b
00000060: 02ba bd3a 3768 b33b d1b1 9e3c 5ee1 033c
00000070: fc36 963a b3a3 443c 9765 8abb 5d25 24bc
00000080: 67d4 c63b 80de 14bc 1067 bb3c c548 e8ba
00000090: 769c 673b 2e26 24bc 9d8d 4abc 5b33 893b
000000a0: ada6 babb 2324 a33b 3209 af3c bf0e 8ebc
000000b0: 152c 133c 1b43 613c cbf8 45bb 35da 60bc
000000c0: a1ea 88bb 7fc6 173c 6e35 2dba 784a 7d3a
000000d0: dad0 4d3b f48d 463c 1315 a1bc a38d 8e3c
000000e0: e58c 34bc b61c 8d3b dc46 0bbc bf37 df3a
000000f0: 38b6 42bc fc5b 093c 0c47 00bc 1e69 ba3a
00000100: 3ff9 623c 32f5 a13a 70fe 033c 4337 1bbc
00000110: 1e60 293b 78c1 fb3a 5a47 803c 32c2 ba3b
00000120: 7976 963b 5499 0f3c 5a3b 21bc f63a da3c
00000130: 6948 8e3c da59 1c3c 303e 2cbc 1fdf 0bbc
00000140: 57da 393c 06f8 d73b fca3 05ba 4355 8cbb
00000150: 75ca 8cbc 3930 933c 0adb e9bb e69f 7c3b
00000160: 02ea b33c 4647 24bb 8b5f 0b3b 8f2d 563b
00000170: 5e9b 853c f2cc 47ba 46ea 183b 49c3 a43b
00000180: f671 063c a9b9 803c 9e33 993b d9ee 58bc
00000190: 5a7a 383b d3b1 013c 7066 793c bc2a 663b
000001a0: 5a62 04bc 0501 8a3b 287d 08bc 012b 643c
000001b0: ad08 c23c afa7 86bb 6ab3 fd3a abfd 963a
000001c0: 5ced 0d3b 82c8 023c 43a9 73bb ef90 193b
000001d0: de32 cf3b 837f b53b 5551 23bc 619f 423c
000001e0: 9920 073c 6dc1 d53b a921 e43b 913c 6cbc
000001f0: 9c80 edba 8fe1 423c ca67 1e3b a4d5 ef3c
00000200: d69c fcbb 8f8b 133c 38c6 d9bb aed1 883c
00000210: ed03 a23b 4438 0e3c 4f3c fe3a 655c 283c
00000220: f7a2 7e3c 34b9 023b 307f 96bc f442 fb3b
00000230: 82e0 253c 8023 3abc 15e5 883c 63e9 383b
00000240: 0e36 8bbc 5d25 9b3b 28a1 01bb 3140 17bd
00000250: df5b 723c 74c5 4fbc 019f 443c f428 ac3c
00000260: 1a79 c73b 81eb 96bc 26de 143b f612 703c
00000270: 5bc4 28bb 9491 2fbc a43e 87bc 6d59 a9b6
00000280: d173 1a3b 1fd8 85bc 4e08 633c bfab f53b
00000290: 1d74 ae3b 5b6e 273a 6be2 0b3c 363c 0e3c
000002a0: cb88 b03c d17f be39 c315 a0bc 8614 6bbb
000002b0: d524 923c 83eb 983a eacd 6a3a 3557 29bc
000002c0: 18f6 4f3c baf1 1fb9 715a a8bc c2f3 3eba
000002d0: e369 643c e7a6 513b 46d8 3db9 2b1b dd3b
000002e0: faf0 9abb da22 09bc 3752 7d3c ea58 b73c
000002f0: 8eac 123c c215 d9b9 4b42 6a3c 0d63 c73a
00000300: 2914 33ba 0893 693c 170a 0c3c caca 31bc
00000310: 182a 223c 477f 8a3c db7a 0a3c aaee cabc
00000320: 0521 9ebc 39f4 74bc b947 39bc 8ff1 273c
00000330: dc61 0a3c aca9 093c 530c 3ebb 035b c43c
00000340: 90b4 a03c 1e43 943c 0da7 133c 74b4 7f3b
00000350: 421c 1fbc fdaa ee3b d1c2 d53b fbb1 0e3d
00000360: 9f6b 57bc 6f67 783b d3cf 3bbb f786 4c3c
00000370: f133 eabb ac78 5b3c 55d8 ce3b 3998 253c
00000380: 681e 95ba 36c0 b5ba 6f8f e13b 0c01 463b
00000390: 1ba1 db3b fb9e ecba bcae 203d 1f2f 55bc
000003a0: 3d39 d3bc 3ca7 f4bc 887c 863c 31cc d73b
000003b0: 95f5 47bb f187 523c b4d8 e33b 44c8 99bb
000003c0: bb6a 47bc 56db 783c 6486 d8bb a7b9 9fbc
000003d0: 6826 37bc 2054 183c 8a44 923c 72aa 133c
000003e0: 8e3c 063b 98b9 b33b c349 89bc 61a8 eb3b
000003f0: 1cb7 8b3b e146 73bc aadc bd3a d476 08bb
0.024459716 -0.028712386 0.0066862637 -0.005537319 -0.0028450624 0.015729597 -0.006653782 0.018062491
0.0042337314 -0.017270632 0.009532647 -0.023020655 0.0030652648 -0.013851178 0.0072337766 -0.0113654435
-0.0016425061 -0.02452731 0.012107248 0.0114014195 -0.0054159034 0.0048421756 -0.018769035 0.004348416
0.001447499 0.00547507 0.019371899 0.008049337 0.0011460478 0.01200192 -0.0042235362 -0.010018674
0.006067801 -0.009086251 0.022876292 -0.0017721882 0.003534106 -0.010018868 -0.012362865 0.0041870303
-0.005696139 0.004978673 0.02136669 -0.017341016 0.008982678 0.013748909 -0.0030208107 -0.0137239
-0.0041783606 0.009263634 -0.0006607388 0.0009662281 0.0031405003 0.012118805 -0.01966337 0.017401522
-0.01101992 0.004306401 -0.008500781 0.0017030163 -0.011884265 0.008383747 -0.007829439 0.0014222001
0.01385337 0.0012356399 0.008056268 -0.009473625 0.0025844644 0.0019207438 0.015659023 0.0056994194
0.0045917598 0.008764584 -0.009840811 0.026639443 0.017368512 0.009542907 -0.0105128735 -0.008537083
0.01134356 0.006590846 -0.0005097983 -0.004282625 -0.017186383 0.01796733 -0.007136707 0.0038547455
0.02196217 -0.0025066896 0.0021266665 0.0032680964 0.016309436 -0.0007621787 0.0023332997 0.0050281626
0.008205881 0.01571353 0.0046753427 -0.0132405395 0.00281491 0.007915932 0.015222177 0.0035120687
-0.008080089 0.0042115473 -0.008330621 0.013926269 0.023685778 -0.004109345 0.0019355838 0.0011519691
0.002165637 0.007982375 -0.0037179745 0.0023432334 0.0063232025 0.005538882 -0.009968122 0.011878819
0.008247518 0.0065233023 0.0069620204 -0.014418737 -0.0018119994 0.011894598 0.002417075 0.029276676
-0.007709126 0.009005441 -0.006645944 0.016701546 0.0049443156 0.008680407 0.0019396635 0.010275935
0.0155417835 0.0019946815 -0.018371195 0.0076678935 0.010124328 -0.011361003 0.016710797 0.0028215281
-0.016993549 0.0047346787 -0.0019779895 -0.036926452 0.014792412 -0.012681354 0.0120008 0.021015622
0.0060874345 -0.018422844 0.0022715419 0.014652958 -0.0025751803 -0.010715861 -0.016509362 -5.047003e-06
0.0023567567 -0.016338406 0.01385696 0.0074972804 0.0053239004 0.00063869887 0.008537869 0.008681348
0.021549603 0.00036334855 -0.019541627 -0.0035870387 0.017839829 0.0011666868 0.0008957075 -0.010335733
0.012692951 -0.00015253472 -0.020550938 -0.00072842475 0.013941261 0.003199035 -0.00018105013 0.0067476234
-0.0047284337 -0.008370126 0.015461496 0.022381265 0.008952273 -0.00041405676 0.014298032 0.0015212015
-0.0006831312 0.014256246 0.0085473275 -0.010851571 0.009897731 0.016906394 0.008452143 -0.024772007
-0.019302854 -0.014950805 -0.011308604 0.010250463 0.008446183 0.008402269 -0.0028999045 0.023969179
0.019617349 0.01809841 0.009011996 0.003901747 -0.009711327 0.007283567 0.006523468 0.034837704
-0.013148217 0.0037903448 -0.0028657808 0.01248335 -0.007147305 0.01339547 0.00631241 0.0101070935
-0.001137686 -0.0013866487 0.0068835537 0.0030213026 0.006702555 -0.0018052751 0.03922914 -0.013011723
-0.02578413 -0.0298649 0.016416803 0.006585621 -0.0030511369 0.012849794 0.0069533233 -0.004693063
-0.012171443 0.0151890125 -0.0066078175 -0.019497706 -0.01117859 0.009297401 0.017854948 0.009012805
0.002048287 0.005484771 -0.016758805 0.007191703 0.0042637717 -0.014848442 0.0014485319 -0.002082278

network_body._body_endoder.seq_layers.2.weight f4 [256, 256]
00000000: c257 01bd 8dbc dd3b 0bcc e43d 6136 e73c
00000010: aa32 ddbb 0303 b33d 1e32 c83d f755 d03c
00000020: e062 86bd e7ce d03c 62f8 203e 4e97 b53d
00000030: 958f a7bd 3266 07be 5695 d03b 7ec2 d83c
00000040: 0eb9 683d 1735 cdbd d4f6 13bc 4c70 9fbc
00000050: 5ac6 813d cc7e 79bd 7e73 523c d2e0 a0bd
00000060: 0316 91bc fcba 6a3c 06ee 723c 50be 8fbc
00000070: 18b9 2dbd 0c59 a2bc a86e 333d a146 3bbd
00000080: c32b 14bd 2397 04bd 65cd 1c3d 969b 12bd
00000090: 6d6f 80bd 65ee 353c 6a9d 05be 6926 663c
000000a0: 96fc 8d3c 6ec8 233d 9b4e f43c bcbe 59bd
000000b0: 16ed 583c 5437 c73c 4680 a8bd ba9f 80bd
000000c0: 84f8 57bd f7df 82bc d1ea 0cbd a103 6b3d
000000d0: f944 733d db6b 17bd 6191 96bc da46 12bd
000000e0: 22af 18bd 0498 013c ae13 303d f410 5fbd
000000f0: ed9f 563b 09a8 aebd b937 0e3d e807 a5bc
00000100: 3968 393d 7505 b2bd c95c c8bd 9c7e 9b3a
00000110: 54ad a13d e54c 023c 6292 fe3c 5526 fbbc
00000120: aeb4 04be 78a7 a0bd 192a 9abc f098 623b
00000130: 4aad 13bd 0d21 643c 97b3 af3d cf34 72bd
00000140: 59bb 703d f9f7 10bd 27dd 84bb f8a9 f03b
00000150: c506 a0bc dde5 333e 230d 173e ca00 2cbd
00000160: 4f11 6a3d 3501 923c 68e6 83bb 56f4 783c
00000170: 73ba 49bb 4237 e2bb e822 6c3d 72d0 533d
00000180: 9ed7 2cbd 4e1e b23c 4dff cd3d 8d66 dd3c
00000190: 8565 293c 6093 0fbe 442d 2ebd 9377 4c37
000001a0: 0330 3a3d da55 8dbd 3dfb 52bc e9b8 aabc
000001b0: b1dc f43d c191 4dbd d3a3 a83d f1c7 3f3d
000001c0: 4775 1dbc 32dc 95bd 95b7 b9bd 1808 4f3d
000001d0: 50d2 1dbd 8494 283c afa2 1dbd 595e d73d
000001e0: 749a 69bd 0709 c23c ffa1 edbd cdc2 39bc
000001f0: 8d24 b739 779e e6bc e92a dbbc f1e4 e8bd
00000200: d5aa cebc c014 0e3e 24ce 343e 1547 1d3c
00000210: 7291 6e3d 37b2 a93d 056b a53d 3a2f fdbc
00000220: 5b27 65bd b7be d23c 8cd0 573c fcac 113e
00000230: 9a71 d73d ba9f 023d f56b 4d3d f867 0fbd
00000240: a121 9ebc d042 86bd c9d2 13bc 1e4a 443d
00000250: 369e 81bd fe78 55bd c981 73bc 627b 12bd
00000260: 0500 8fbd a8d0 673d 2198 32bd f561 b23c
00000270: 1744 5bbc 67a9 5cbd 12b8 07be c8e0 04bd
00000280: 6da8 c13d 9080 bc3d 4800 8ebd d9a3 08be
00000290: f6ef 2f3c 453c d23d 336e 7cbd 9e77 31bd
000002a0: 68f2 2ebd aee7 a93d 14a5 1739 d2b6 71bc
000002b0: 631a 08be f733 92bc d3f6 d1bd a78e 1cbc
000002c0: 6b31 a4bb f284 0fbd 6ee2 7f3d c93b 8c3d
000002d0: bdc4 c43c 484e ec3d d1b3 1d3c 2465 b1bd
000002e0: 4e23 3a3d cf29 15bc b041 4cbd c5cd 9bbb
000002f0: 3017 28bc 835a ca3c e8cf 11bd 779c 56bd
00000300: fbbe 04ba c84c 693d fb62 1d3d ff05 b43c
00000310: 03ae 9b3a a808 e6bc 8fb3 823c e1b9 f8bd
00000320: 3220 5e3d e9b7 4fbd 4f4d 183e 1202 93bc
00000330: 03f1 b4bc 4ec4 a63c 3ba9 a9bd d04c 133c
00000340: 1e26 e3bd 61a6 0cbd 938d 443e 1102 c1bd
00000350: 778f f23d f1f0 10bc 3044 b23c b7d2 96bd
00000360: d7a0 a4bd c198 e0bd c5f8 e83c 4995 97bb
00000370: 5eec 13bc 3258 ecbd c830 d33c 5d55 16bc
00000380: f8b7 633c 146f 04bd 9fa5 e43d aa36 55bd
00000390: 9efd 20bd 0f2d f2bd ecc2 5abd ee58 313d
000003a0: bd1f eabd 0976 8fbd 4702 433d 7200 513d
000003b0: f23e 0dbe 8313 70bd 855a c13c 8e7c 923d
000003c0: 0b0e ec3d 1ade 78bd d6e2 fbbb 4a3c 923d
000003d0: f1da 1b3e fbd7 be3b 56e2 063d 6eb3 b5bd
000003e0: 9017 8abd 0ad5 253d b129 c9bd 3b7b be3d
000003f0: 158f 39bd 1434 2e3d a5cd 7b3d b3d5 d23d
-0.031577833 0.006766862 0.111717306 0.028224172 -0.0067504244 0.08740809 0.09775184 0.025431616
-0.06561828 0.025489284 0.1571975 0.0886675 -0.08181683 -0.13222578 0.0063654585 0.026459929
0.056817107 -0.10019892 -0.009031016 -0.019462727 0.06336661 -0.06091194 0.012844918 -0.07855381
-0.017710691 0.014326807 0.014827257 -0.017546803 -0.042412847 -0.019817851 0.043806702 -0.045721654
-0.036174547 -0.032370698 0.038281817 -0.03579291 -0.06271253 0.011104201 -0.1304833 0.014047244
0.017332356 0.039986067 0.029822638 -0.053160414 0.013240119 0.024318375 -0.08227591 -0.062804654
-0.052727237 -0.015975935 -0.034403626 0.057376508 0.05939195 -0.036968093 -0.018379869 -0.0357121
-0.037276395 0.0079097785 0.042987518 -0.054459527 0.0032749132 -0.08528144 0.03472111 -0.020145372
0.04526541 -0.08692447 -0.09783322 0.0011863294 0.07894388 0.007952903 0.03107566 -0.030657927
-0.12959549 -0.07844442 -0.018818902 0.003457602 -0.036053933 0.013923896 0.08579176 -0.059132393
0.05877242 -0.035392735 -0.0040546837 0.0073444806 -0.019534478 0.17568155 0.14751105 -0.04199294
0.057145413 0.017822841 -0.0040252693 0.015194973 -0.0030781298 -0.00690356 0.057650477 0.05171246
-0.042197816 0.021742966 0.100584604 0.02702644 0.010339146 -0.14021063 -0.042523637 1.2187188e-05
0.045455944 -0.069011405 -0.012877283 -0.020840125 0.11956156 -0.05018783 0.08234372 0.04682154
-0.009610481 -0.073173895 -0.090682186 0.05054483 -0.038530648 0.010289315 -0.038485225 0.10516042
-0.057032064 0.023685945 -0.11603164 -0.011337948 0.00034931712 -0.028151734 -0.02675386 -0.11371792
-0.025227943 0.13875103 0.17656761 0.009599467 0.058244176 0.08285945 0.08077053 -0.030906308
-0.055945735 0.025725706 0.01317228 0.14226145 0.10519715 0.03189061 0.050151784 -0.03501126
-0.019303145 -0.06555712 -0.009022423 0.047922246 -0.063290045 -0.05211734 -0.014862486 -0.0357622
-0.069824256 0.056595474 -0.043602113 0.021775225 -0.013382933 -0.053872492 -0.13253811 -0.03244093
0.09455953 0.09204209 -0.069336474 -0.13343753 0.0107383635 0.10265402 -0.06162853 -0.043326966
-0.042711645 0.082961425 0.00014461979 -0.01475306 -0.13291316 -0.017847044 -0.10252156 -0.009555495
-0.005010774 -0.035038896 0.0624718 0.068473406 0.024019593 0.115383685 0.009625391 -0.08661869
0.045443825 -0.009104206 -0.049867332 -0.0047547542 -0.010259435 0.024701362 -0.035598665 -0.05239531
-0.00050638587 0.05695799 0.038424473 0.021975515 0.0011877421 -0.0280803 0.01595476 -0.121448286
0.054229923 -0.0507125 0.14873241 -0.017945323 -0.02208758 0.020357277 -0.08284231 0.0089904815
-0.11091255 -0.03433836 0.19194631 -0.09424222 0.1184377 -0.008846507 0.02176103 -0.073644094
-0.0803849 -0.109666355 0.028438935 -0.0046259505 -0.009028522 -0.115402594 0.025780097 -0.009175626
0.013898842 -0.032332495 0.11164402 -0.052054085 -0.03930437 -0.118250005 -0.05340855 0.0432977
-0.11431835 -0.07004935 0.047609594 0.051025815 -0.13793543 -0.058612358 0.023602733 0.07152663
0.11526116 -0.060758688 -0.007686953 0.071404055 0.15220238 0.0058240867 0.032930695 -0.08872114
-0.067427754 0.040486373 -0.09822405 0.09300848 -0.04530247 0.042530134 0.061475415 0.10294666
