results/PushBlockCollab_PPO/PushBlockCollab.onnx (onnx, 643240 bytes, 12 tensors)

network_body.observation_encoder.processors.0.conv_layers.0.weight f4 [16, 6, 8, 8]
00000000: 8737 a13c b6e0 93bd 131a 913d c366 b73d
00000010: 2ff7 a83d 8391 953b e6bb 9abd cc4f 14bd
00000020: 0144 b93a 8802 fcbd a262 273d 961f b83d
00000030: 2e22 193e 588e be3d c7a1 ac3c 4dea 7ebd
00000040: c42e 1dbc 2b63 aebd e1da 523d b03f a23c
00000050: 31b5 96bc bded 99bd 6ed5 3bbd ee4f 4abe
00000060: ea1d f4bc 3488 95bd 0260 debd 3222 cebc
00000070: d0f8 9bbd f87b d6bd 51d6 16bd 5ce2 86be
00000080: 71ef a33c 3b5c 2abd 5f3b f7bc aa84 e3bc
00000090: 7a36 d039 afaa 65bd 427f 2e3c 993b a6bc
000000a0: 7113 c0bd 9d64 a6bc e0c5 09bd 5f3a 613d
000000b0: b5d2 073d e9f5 b13d bf62 9b3d 188f afbd
000000c0: ac94 7a3b 0c9f a33c 8d12 a8bd 77b1 a5bc
000000d0: c83c 16bc a135 a43b c706 ec3d ee54 fabd
000000e0: f0a3 253c a8a2 9fbd 93b2 a4bd 1d88 aa3d
000000f0: f339 563b a605 f0bb 1b75 e5bc dd0a 8bbe
00000100: 0dd1 82bd e299 fa39 bbb0 b6bd e7a6 afbd
00000110: 48a7 25bd d2a1 0f3e d06e c3bb ddf8 833c
00000120: 0546 7bbd 0f2d 12be b495 24be 0cff 7cbd
00000130: db7b dcbd 6c92 213e b7a6 093e 2cb7 513d
00000140: 5cfa 91bc add3 49bd a9e2 2abd 1e6d fdbc
00000150: 1926 823d b86a fdbc 57f8 673e 7369 c0bd
00000160: 8914 8abd 38b6 34bd da91 a1bc 7742 993d
00000170: 3049 b53d eab3 093c 957d ffbd 9a7d 57be
00000180: ee91 11be 4467 e63c a390 fabd b642 a5bc
00000190: f9bb 0f3d a081 1abe 01b4 babc 0828 99bd
000001a0: acd9 0a3c 0f48 783d cd19 3c3d 2349 a33c
000001b0: 582c a3ba 3f7b 38bd c13e 12be c528 43bb
000001c0: aff8 24be ff88 a43d 4f3a 4fbb 1614 323d
000001d0: f4df 8fbd d233 b4bd 7852 17be 382c 89bd
000001e0: 07f0 2dbe c77b fa3c 3b5c d33c 8dee 1e3e
000001f0: e220 723d c3d7 b43d 40b4 43be 2e73 19be
00000200: d0a7 743d 5d93 323d 5b77 3fbd 93d6 e1bc
00000210: 3db5 c7bc 473d 03be 5997 9bbd 57c1 16bd
00000220: bbff 94bd 667e 433d bc1e 1d3d af71 dabc
00000230: 7a79 4fbc 4f3c 0ebe a6a2 5ebd 72c2 763c
00000240: dd4b 693b b174 133d 43e0 14bd 5523 273c
00000250: 0ae9 8f3c 5a34 de3c 0280 6cbd 2003 2aba
00000260: 7b4e 84bc 9f15 44bc f128 8e3d 7b62 a3bc
00000270: 7243 20bd 82d6 4c3c 6a75 a03b 1815 543c
00000280: 3d38 773b 5533 cf3d 0916 8abb 4279 41bc
00000290: b07a 5c3d fa70 fbbc 7405 b3bb 0aab a0bb
000002a0: 0927 bb3c cf92 993d 3ba2 07bd b084 edbc
000002b0: 0b83 33bd bc33 40bd d38b efbc fff7 31bd
000002c0: 706e 30bd 54c9 51bd 0e1d 1cbc c609 263c
000002d0: 8d50 c5bc 336b 99bd 1b2c a2bc 9970 e43c
000002e0: 0182 a8bb e679 563d a7f6 c93c 2b84 4cbd
000002f0: 3c2a 153d f1b7 c43c 43f4 2a3c 95a8 fabc
00000300: 9caf 6e3a 7e19 2fbe 15c5 5abd 955b b03c
00000310: cf6e 36bd d48e fd3c 5b84 18bb 8ea2 43bd
00000320: 4507 453d 0a27 cbbd f44b bdbd 835c 9ebd
00000330: 511d 443d 68da 093d 3222 38bd 6d8c 3fbc
00000340: ab9b cb3d 08c3 abbd 4356 88bd d7c7 f23d
00000350: b15d 803e 6177 6d3d bdbf 96bd 8aaf 253e
00000360: 8791 97bc 268a 4d3c 2d7b e53c bbbd 38bd
00000370: 1ae0 1a3c 586b 3c3d cf2a a9bd 05f5 d13d
00000380: 1222 003d 6c18 873d 41ac 02bc dc10 a03d
00000390: d108 1f3e 9da8 5cbd 3794 d43c e0bd 253c
000003a0: 5423 a93c 25ba 6abb c5fa b03d c3e5 b8bc
000003b0: 6a76 9d3d 90b7 acbc 62c3 59bd 8299 ae3d
000003c0: 107e b63d c294 9cbd 0e94 423d c78c 0a3c
000003d0: 723f 0c3e bbdd e53d 7503 14bc e1ce fabc
000003e0: 685c ab3c 3d20 cfbd a44e 7bbc 767a 0b3e
000003f0: 40f7 633e c2ff 953d 2936 d0bc 93a5 e83d
0.019679798 -0.072205946 0.070850514 0.08955147 0.082502715 0.0045644655 -0.0755537 -0.036208913
0.0014134647 -0.1230517 0.040865548 0.089903995 0.14954445 0.09304494 0.021073235 -0.062235165
-0.009593669 -0.085150085 0.05147827 0.01980576 -0.018396946 -0.07516048 -0.04585784 -0.19757053
-0.02979942 -0.07301369 -0.10858156 -0.02516279 -0.076158166 -0.10472864 -0.03682548 -0.26344573
0.020011635 -0.041591864 -0.030179678 -0.02777322 0.0003971344 -0.05607098 0.010650458 -0.02029209
-0.09378708 -0.020311648 -0.033635974 0.054987308 0.03315993 0.08689482 0.07587194 -0.08572215
0.0038235588 0.0199733 -0.08206663 -0.020226223 -0.009169765 0.005011276 0.1152473 -0.1222323
0.0101098865 -0.07794696 -0.08041873 0.08326743 0.003268835 -0.007324892 -0.028009942 -0.27156726
-0.063875295 0.00047798367 -0.089204274 -0.08576756 -0.040442735 0.14026573 -0.0059641376 0.016109878
-0.061346073 -0.14275001 -0.16072732 -0.06176667 -0.10765811 0.15778512 0.13442503 0.051200077
-0.017819576 -0.049274135 -0.041720066 -0.03093582 0.06354923 -0.030934677 0.22653328 -0.09395113
-0.06742198 -0.04411909 -0.019722868 0.0748338 0.0885185 0.008404711 -0.12475125 -0.21044007
-0.14215824 0.028125413 -0.122346185 -0.020173412 0.035091374 -0.1508851 -0.02279091 -0.074783385
0.008474749 0.060615595 0.045923043 0.019932335 -0.0012449129 -0.04503941 -0.14281751 -0.002977894
-0.1611049 0.080339424 -0.0031620448 0.043476187 -0.070251375 -0.087989464 -0.14777553 -0.06697887
-0.16986094 0.0305766 0.025800815 0.15520687 0.05911339 0.08830216 -0.19111729 -0.14985344
0.05973035 0.043597568 -0.046744686 -0.027568137 -0.024378413 -0.12816344 -0.07597227 -0.036805477
-0.07275339 0.047727965 0.03835939 -0.026665537 -0.01266324 -0.13890193 -0.054354332 0.015061008
0.0035598197 0.035999957 -0.036346685 0.010201295 0.017567176 0.027124573 -0.057739265 -0.0006485451
-0.016150704 -0.0119680455 0.06941403 -0.01994442 -0.03912682 0.0125023145 0.0048968093 0.012944482
0.003772273 0.10117213 -0.0042140526 -0.011808695 0.05382794 -0.03069352 -0.0054632965 -0.004903202
0.022845762 0.07498705 -0.0331137 -0.028993934 -0.043826144 -0.046924338 -0.029241478 -0.043449398
-0.04307407 -0.051217392 -0.009528412 0.010134166 -0.024086261 -0.0749115 -0.019796422 0.027885722
-0.005142451 0.052362345 0.024653746 -0.049930733 0.03641723 0.024013491 0.010434213 -0.030597964
0.00091051473 -0.17099568 -0.05341061 0.021528045 -0.04453927 0.030951895 -0.002327225 -0.047762446
0.048102636 -0.099195555 -0.092430025 -0.07732489 0.04787952 0.033655554 -0.044954486 -0.011691195
0.09941801 -0.08386809 -0.06657078 0.11854523 0.2507148 0.057975177 -0.0736079 0.16180244
-0.01850201 0.012545144 0.028012836 -0.045102816 0.009452844 0.04600081 -0.08260118 0.10251812
0.031282492 0.06596455 -0.007975639 0.07815716 0.15530707 -0.05387174 0.02594958 0.0101160705
0.020646729 -0.0035816517 0.086415805 -0.022570496 0.07688601 -0.021083623 -0.053164847 0.08525373
0.08910763 -0.07645561 0.047504477 0.0084564155 0.13696077 0.11223932 -0.009034027 -0.030616226
0.020918086 -0.10113571 -0.015338574 0.13620934 0.22262287 0.073241726 -0.02541645 0.11359706

network_body.observation_encoder.processors.0.conv_layers.0.bias f4 [16]
00000000: 3fb3 f9bd 0251 d2bc bc75 36bd 4bd1 75bd
00000010: 103a 3bbd ddb9 843d 0dfe 58bd 9802 8fbc
00000020: 395f 9a3d a3ec 0dbd 2dde acbd aa41 32b9
00000030: 0edb 71bd de40 29bb ce73 30bd c060 75bd
-0.121923916 -0.025673393 -0.044545874 -0.06001405 -0.04570967 0.06480763 -0.052976657 -0.017457291
0.075376935 -0.034649502 -0.08440814 -0.00016999865 -0.059046797 -0.0025826017 -0.04307919 -0.05990672

network_body.observation_encoder.processors.0.conv_layers.2.weight f4 [32, 16, 4, 4]
00000000: 34d6 333d d3a2 bebd ea0e 8c3d 03e7 8d3d
00000010: 3441 cbbd 693a 9cbc 5aae f33d 4f34 ba3c
00000020: 399a 553e e665 54bd 37a7 6d3c bac6 07bd
00000030: 8d15 163c 390e 973d 748e 60bd 8e95 02be
00000040: 0470 37bb 765e 53be 4378 26be 6021 bd3d
00000050: 9cde bf3d c38e a6bd 27af fabd 3310 acbd
00000060: 69b2 403d 9ec3 5dbd 3662 45bd 54c7 0c3d
00000070: 8d93 963d cd05 813d d6e7 19bd 53d3 f73d
00000080: 7c05 a23d 493e 18bd db26 13be 04f5 afbb
00000090: e138 a63d 1de6 f13b 88d4 dcbc 6d42 babd
000000a0: d043 2b3d 7b45 fa3c dff2 2bbe 71da 18bb
000000b0: 7fa0 223e f64d fabc 8973 b4bd 7661 203d
000000c0: 6f17 b0bd eff9 233d b098 0e3b a011 a7bd
000000d0: 8489 f53d 9bce febd 20b8 8cbc d3dc 06be
000000e0: 4dbf d43d 71bc c23c 370c 8e3a ab79 c93d
000000f0: 777a df3c 0c7a 88bc 87e4 993c 010f 3f3d
00000100: 75eb 643d b591 0abd 4d3f 153d af90 b7bd
00000110: 6853 83bd 16e0 adb9 2a83 a6bd ff2c 3ebc
00000120: a0ee d83d 41d6 9abc 0c61 b53c e75d 6dbe
00000130: bca7 0d3d 61fc 533d 21ed 84bc c39b d83d
00000140: 351e ad3d 280d 03bd bed5 9fbd 236d 11be
00000150: d709 cc3d 9f05 bcbd 8a0c 3dbe c2ce 9ebc
00000160: 26c8 a43d 14ad c7bd ca82 a6bd 68dc a6bd
00000170: 845c 15bd 2223 fb3c d787 f73b 6bca 973d
00000180: df16 0d3d c1f5 87bc d4ac 7a3d f362 a33d
00000190: e620 9ebd ba4f bfbc 63c5 62be ead2 9ebd
000001a0: 4d57 8d3d f0a6 02bd dc46 373d b635 0ebe
000001b0: 06b4 ad3d 9328 8d3d 24d7 62bd bd74 2dbc
000001c0: ad41 b93c f1f7 90bd e98b 62bd 5072 43bd
000001d0: 6a32 8fbd feac ffbd 2551 c6bd b87e e7bc
000001e0: 7fca 143e bea3 b63b a6f8 46bd caec c33c
000001f0: 9874 edbb 54c8 683d d09d 86bc f52e c93d
00000200: eb0d d33c 4d78 6bb9 8058 9cbd f1c4 a3bd
00000210: e072 9cbd 7901 90bd 4734 febd cd55 abbb
00000220: 762b 04be 51b4 113d 6940 313d f841 0bbc
00000230: ad30 f93d 11ab 0dbe 5d68 debc b36c a93d
00000240: ed7b c0bd 76e8 a53d 90e8 683d a698 af3d
00000250: cbe0 2abd 8b83 2abc 477a 52bc fbc6 1a3d
00000260: 922f 413d b9de ba3d a59d 92bd 0c30 cdbc
00000270: 1547 8dbd deeb 9cbc a47d bdbd b3f6 d93c
00000280: 44e7 36bd 1ae8 03be a862 ecbc 3663 52bd
00000290: 55fe e23d def7 273d 58bf a1bc 7044 afbd
000002a0: 9ab0 873b 865b 8d3d d49a 13bc 4f63 4fbd
000002b0: 529c fc3c 61b4 0b3d c828 1f3c 6a84 28bd
000002c0: bfdc 593d e406 a5bd 166d cdbd 2fc5 2ebe
000002d0: 5c24 87bd 1338 03be 9e44 01bc cb24 c6bc
000002e0: c44b 3e3d cf4a 49be 8739 57bd aa1e c0bd
000002f0: f62a b03d 40cc 7b3d c853 1f3d 93a4 4c3d
00000300: 5ba4 0e3c f9a2 95bd 1cf1 19bd 299d 923d
00000310: d681 c9bb 4a23 87bd 0c32 043d a159 0e3d
00000320: 086e 383e a2cb 7cbd 32d8 00be 72e1 dbbd
00000330: 10aa 083e 8699 df3d 5ef3 12bd f88f cbbd
00000340: b5d6 28be 5a82 aebb 1171 6bbc e043 f2bc
00000350: c8b5 ebbb 6156 c53b 7f8d aabc 34b7 63bc
00000360: 2c4b ba3d 7048 35bd 1fba 44bc df14 eb3d
00000370: ca87 ff3a 15b7 0b3d 08e7 de3c fff7 c03d
00000380: e136 fd3d 16d2 323d 874b c63d 5f32 97bd
00000390: 728e 0e3e fe4f c63c e577 b4bb dca8 52bd
000003a0: f994 573d 7f03 c03d 081c d4bc c7c6 ccbd
000003b0: 97dc e73d 5bfa 103d a9c9 cfbd 7cbb 52be
000003c0: 1906 c03d afd6 423d d82b ffbd 66b3 533c
000003d0: e9a2 de3d 8b2d a23b 5f6c edbd 7f3f 16bd
000003e0: 42e2 c13c 4dd4 cdbd 2e4b 8fbd de8c ac3b
000003f0: bac1 963c 31c6 a13c bbf0 b3bc a658 3c3d
0.043905452 -0.093084 0.06838782 0.069288276 -0.09924546 -0.01907082 0.11898489 0.02273002
0.20859613 -0.05185499 0.014505199 -0.033148505 0.009160412 0.0737576 -0.054823354 -0.12752363
-0.002799035 -0.20641503 -0.16256814 0.092348814 0.09368631 -0.081326984 -0.12240439 -0.08401527
0.047045145 -0.054141633 -0.048189364 0.03436978 0.07352362 0.062999345 -0.03757461 0.12100854
0.07911202 -0.037168775 -0.14370291 -0.0053697843 0.081163175 0.007382168 -0.026956812 -0.09094701
0.041812718 0.030550709 -0.16791867 -0.002332356 0.15881537 -0.030554753 -0.08811099 0.039155446
-0.085982196 0.040033277 0.002175849 -0.081576586 0.1198912 -0.124417506 -0.017177641 -0.13170175
0.1038805 0.023771496 0.001083738 0.098376594 0.027280075 -0.016659759 0.018785728 0.04664517
0.05588861 -0.033830363 0.03643732 -0.08963143 -0.06412393 -0.00033164088 -0.08130486 -0.011607408
0.10592389 -0.018900992 0.022141002 -0.23180352 0.034583792 0.05175436 -0.016226353 0.10576584
0.08453027 -0.03199497 -0.0780444 -0.14201789 0.09962814 -0.0918076 -0.18461815 -0.0193857
0.08045988 -0.09749809 -0.08130415 -0.08147508 -0.036465183 0.030656401 0.007554035 0.07411655
0.03444564 -0.016596677 0.061199978 0.079778574 -0.07721119 -0.023353446 -0.2214561 -0.077550724
0.06901417 -0.031897485 0.04474531 -0.13887677 0.08481602 0.068925045 -0.055380955 -0.010586915
0.022614324 -0.07078541 -0.05530921 -0.04771644 -0.069920376 -0.124841675 -0.09683446 -0.028258666
0.14530371 0.005573719 -0.048576973 0.02391662 -0.007246565 0.056831673 -0.016432673 0.098234095
0.025763473 -0.00022456162 -0.076340675 -0.07996548 -0.07639098 -0.07031531 -0.12412315 -0.005228734
-0.12907204 0.035572354 0.043274317 -0.008499615 0.12167487 -0.13834788 -0.027149374 0.08272686
-0.09398637 0.08100979 0.056862414 0.08574037 -0.041718286 -0.010407339 -0.012846536 0.03778742
0.047164507 0.09124512 -0.071589746 -0.025047325 -0.068983234 -0.019155439 -0.0925248 0.026606893
-0.044654146 -0.12881508 -0.028855637 -0.051364146 0.11083666 0.04100787 -0.01974456 -0.08557975
0.0041409256 0.06902222 -0.009009082 -0.050631817 0.030836258 0.03410757 0.009714313 -0.041141905
0.053189036 -0.08057955 -0.10030572 -0.17067407 -0.06598732 -0.1281436 -0.007889895 -0.024187466
0.046458974 -0.19657443 -0.052545097 -0.09380849 0.08601944 0.061474085 0.03889826 0.049961638
0.008706178 -0.07306475 -0.037583455 0.07158882 -0.006149511 -0.06598528 0.03227429 0.034753446
0.18010724 -0.061717637 -0.12582472 -0.1073636 0.13346124 0.10917954 -0.035876624 -0.09939569
-0.16488154 -0.0053255977 -0.014370219 -0.029573381 -0.007193301 0.00602226 -0.020819424 -0.0138986595
0.09096369 -0.044258535 -0.012007265 0.1147859 0.0019495424 0.034110148 0.027209774 0.094223015
0.12363983 0.043657385 0.096823744 -0.073826544 0.13921526 0.024208065 -0.0055074566 -0.051430568
0.052632306 0.09375667 -0.025892273 -0.09998851 0.11321371 0.035395008 -0.101458855 -0.20579332
0.09376163 0.04756802 -0.124595344 0.01292119 0.108709164 0.004949277 -0.11592936 -0.03668165
0.023667458 -0.10050259 -0.06996761 0.005265816 0.018402923 0.019747825 -0.021965375 0.04598298

network_body.observation_encoder.processors.0.conv_layers.2.bias f4 [32]
00000000: 615f 42bd cc0e 743d 1881 9a3d 3344 c6bc
00000010: c358 3dbd 4d16 daba abcb 17bb b609 193d
00000020: 0d3b 15bd 90da 88bc c00f 80bd 8da4 c03c
00000030: d221 5c3d 4b75 113d 22a8 64bc b747 71bd
00000040: 918d bcbc cb4a 20bd f1f6 823d 0721 433d
00000050: 8dca 2b3a fbe1 0f3d 96ed 0d3d 44d0 6d3d
00000060: c1ea 813d cf77 aa3d 9d22 253d 7d78 a2bc
00000070: 4366 1a3c 80b4 88bd db17 48bc fdab 8a3d
-0.04745424 0.059584424 0.07544154 -0.024202442 -0.046227228 -0.0016638726 -0.0023162167 0.037362777
-0.03643327 -0.016705781 -0.06253004 0.023515964 0.05374319 0.03551225 -0.013956102 -0.058906283
-0.023016723 -0.039133828 0.063947566 0.04763892 0.0006553315 0.03512762 0.034650408 0.058059946
0.06343604 0.08323633 0.040316213 -0.019832844 0.009423795 -0.06675053 -0.012212719 0.067710854

network_body.observation_encoder.processors.0.dense.0.weight f4 [256, 32]
00000000: 6511 483d 42df a23e 7c6d be3e 43c9 cb3e
00000010: 074a 8fbd 963b 8dbe d3a5 8e3c ec6e a6bd
00000020: 5452 db3e d155 bc3e 05a8 64bd f5de b4be
00000030: c0ce 183e 40ca 55be 5bd8 1c3e fa4f b4be
00000040: 57ca 75be ae5c 02bd fc53 053e 0daf e3bc
00000050: da62 c2be 6334 1ebe 64bd 923e f793 0cbe
00000060: 4b31 373e f65d 953e c9d0 903e 6742 6fbe
00000070: 108f 8abc 2d6c 2abe d2a0 66bd 1e81 f73e
00000080: 2527 dbbe 09c5 75bc 67b4 a9bd e480 363d
00000090: 90aa 40be fc98 343d 71a5 833e a5a0 473e
000000a0: 8768 5d3d 8117 d5bd a1de 83be 0ca2 be3c
000000b0: 0975 68bd e2f5 d2bd 46e6 ce3b 54ff d23e
000000c0: 8eba b43e 0dde 223e 9fd0 d2ba 1d42 f7bc
000000d0: 9670 c8be 33d8 053d 6933 b2be 7933 b73e
000000e0: 629d 7dbe aeb2 ba3d db7e 8ebe 9c54 e4bd
000000f0: f587 963e d53d ae3e ac73 023f 85ea 843d
00000100: fa15 f83d 3978 1cbe 5e92 4b3d 1a7a 54be
00000110: a373 c9bd b540 10be 7277 973e 3ce3 05bd
00000120: 3ffd cd3d 523f 28bc 960c b3bd cdb9 dabd
00000130: 8f59 c0be 42bd 55bd cda5 49bd ac93 653d
00000140: e41d 033f 0637 17be 9135 1e3f ea32 023e
00000150: 7e01 8cbd 973a dcbd 2b15 6fbe 207d 463d
00000160: 0c79 b7be 1291 2c3e 9d2c acbe 2367 36be
00000170: 951e dc3e 197a 5c3e 4168 693d a606 8bbc
00000180: f181 97bd 0806 b03e 203f f8be 0100 39be
00000190: 9849 c1be 8775 1d3e f5ce bdbe a73d b23e
000001a0: 7bcc 52be a00b 5cbd 88df dabd e793 ebbd
000001b0: c43f 3ebe 1924 36be d9ef d4bc 1870 9cbd
000001c0: 6752 f93e f842 c4bd 345e c83e f16f 9c3d
000001d0: fc05 f0bc 1cbb d3be 247f 57be 1be9 783e
000001e0: 4aa3 b23e 7d29 d4bd 8fe7 cabe 1a30 5fbe
000001f0: 8690 ca3e a935 b2bc 889f 17be 49e6 883e
00000200: a80b e23e ad1d 96be 44e2 d5bd a5fa 42be
00000210: 9c32 283e 6811 483e 16ec c6bd a52d d9be
00000220: 4b16 a9be 09ee a93d 9f86 e33d 4186 2ebe
00000230: 0aa2 7bbe c06f 59be ec65 21bf 407e 0c3f
00000240: 010c c7bd a099 71be 1eb4 9fbd 087c 0b3f
00000250: 2443 27be f359 0d3e ec6b 033e 8fb8 763e
00000260: 037d b03e 42c3 efbd 2b92 81be 7f4b e8bc
00000270: bced a83e 12c8 ab3d c88e a2be 6096 68bd
00000280: 8bf4 d1be ca1f aa3e 2eb9 1abe 25ea 40be
00000290: 98ca 16be 509f 103e 3288 a6be b8fe 5e3e
000002a0: 8020 863d 9664 60bd 858e 483e 927a 1e3d
000002b0: 0025 f1be 2430 cabe 8942 ffbd 8554 97bd
000002c0: 7cc1 203e 3481 f83d ab5b 863e e234 f1ba
000002d0: 72b1 3c3e d232 2cbe 9718 cebe 9a2e c5bd
000002e0: 2306 c63d ee97 933e 68e3 50be de01 96be
000002f0: 3f32 213e 5e86 893d 22c1 4f3e cea7 93bd
00000300: bf39 e63d ab69 3b3b 3260 963e 4d46 f9bb
00000310: e5c2 cebe 72fd edbd f530 47be d76e c23d
00000320: 66bb b1be 4f5f 96be 5731 c13d 1b2d cb3d
00000330: ca80 09bf 6ba7 04be 97bf 363e b933 443d
00000340: e176 3f3f 3f97 d63d 75f4 4e3e 03a7 963b
00000350: 3930 273c c690 31be d999 80be 8858 10be
00000360: 292c cb3e df1d 36be 474d 60bc b872 4e3c
00000370: f7db fe3d 7a86 66bd 71d6 b63d 6de8 07bd
00000380: 433c 71bd f686 6ebe 3e79 87be 6e15 913e
00000390: 2f1e 73be 7164 af3e 9c6f ec3e 172d 2dbe
000003a0: 4d08 6c3d fab1 9dbe c921 8f3d df85 e9bd
000003b0: 72e0 a6ba 2911 9c3d 35cd f73e 59d3 183e
000003c0: aa62 fd3d 5500 6cbe a277 cabe 48b9 9e3e
000003d0: 6588 473d 569a c93e 2cf6 30be 452f 1b3e
000003e0: ef3b ab3e 1fdc 883e a933 66be d4e7 cabe
000003f0: f83b db3e f3b2 39be 8c60 253e 2ef7 9cbd
0.048844714 0.31810957 0.37192905 0.39801988 -0.069965415 -0.27584523 0.017413056 -0.081266254
0.4283625 0.36784223 -0.0558243 -0.35326353 0.14922619 -0.20877934 0.15316908 -0.35217267
-0.24002968 -0.031826667 0.13020319 -0.027793432 -0.37966043 -0.15449671 0.2866012 -0.13728319
0.17889898 0.2917325 0.2828429 -0.23365174 -0.01691392 -0.16642828 -0.056305714 0.48340696
-0.42803302 -0.01500059 -0.08286362 0.044556513 -0.18815064 0.04409121 0.2571216 0.19494875
0.054054763 -0.10404874 -0.2575579 0.02327063 -0.05675224 -0.10300805 0.006314072 0.41210425
0.3529858 0.15905018 -0.0016083902 -0.030182892 -0.39148396 0.032676887 -0.34804848 0.35781458
-0.24767068 0.09116112 -0.27831158 -0.111489505 0.29400602 0.3403155 0.5095775 0.064900436
0.12113567 -0.15280236 0.049700134 -0.20749703 -0.09836509 -0.14087184 0.29583317 -0.03268741
0.100580685 -0.010269003 -0.08742635 -0.1067997 -0.37568328 -0.052182443 -0.049230386 0.056049034
0.51217484 -0.14767084 0.61800486 0.12714735 -0.06836222 -0.107533626 -0.23347919 0.048459172
-0.3583454 0.16852215 -0.33627787 -0.17812781 0.42992082 0.21530952 0.05698419 -0.016970944
-0.07397831 0.343796 -0.4848566 -0.18066408 -0.3775146 0.15376864 -0.37071958 0.34812662
-0.20585816 -0.053722024 -0.106871665 -0.115028195 -0.18579012 -0.17787208 -0.025993275 -0.07638568
0.4869568 -0.09583086 0.3913437 0.07638539 -0.029299729 -0.4135369 -0.21044594 0.24307673
0.34890205 -0.10359476 -0.3962979 -0.21795693 0.39563388 -0.021754103 -0.1480695 0.26738194
0.44149518 -0.29319516 -0.10443547 -0.19040926 0.16425556 0.1953789 -0.097129986 -0.42417637
-0.3302482 0.08297355 0.11109661 -0.17043401 -0.24573532 -0.21234035 -0.63046145 0.5488014
-0.097190864 -0.2359376 -0.077980265 0.5448613 -0.16334206 0.13803844 0.12834138 0.24093841
0.34470376 -0.11707164 -0.2530683 -0.028356312 0.32993877 0.0838777 -0.31749558 -0.056784034
-0.41006884 0.33227378 -0.15109703 -0.18839319 -0.14725721 0.14123273 -0.32525784 0.21776855
0.06549168 -0.054783426 0.19585617 0.03869111 -0.4709854 -0.39489853 -0.124638624 -0.07389168
0.15698808 0.121340185 0.26241812 -0.0018402601 0.18427065 -0.16816261 -0.40253136 -0.09628029
0.09669139 0.2882685 -0.20399249 -0.292983 0.15741824 0.06715082 0.20288518 -0.072097406
0.11241483 0.0028596919 0.29370266 -0.0076072575 -0.40383068 -0.116206065 -0.1945227 0.09493797
-0.34713286 -0.2936959 0.09433239 0.099207126 -0.5371214 -0.1295449 0.17846523 0.04790089
0.7479077 0.10478067 0.2021044 0.004597546 0.010204368 -0.17340383 -0.25117376 -0.14096272
0.3968213 -0.17784832 -0.013690299 0.012600593 0.12444299 -0.05628059 0.0892762 -0.033180643
-0.05889536 -0.23293671 -0.26459688 0.28336662 -0.23741983 0.34256318 0.461789 -0.16911732
0.057625104 -0.30799848 0.06988866 -0.11402487 -0.0012731685 0.076204605 0.48398748 0.14924373
0.12372334 -0.23047002 -0.39544398 0.31000733 0.04871406 0.3937556 -0.17281407 0.1515475
0.33444163 0.2673044 -0.22480644 -0.39629996 0.4281919 -0.1813467 0.16150111 -0.07664333

network_body.observation_encoder.processors.0.dense.0.bias f4 [256]
00000000: aea5 c43b d8ab 313d c1bd 883d 4290 8a3c
00000010: d29e a03d 910e 933d 9372 bf3d 47e5 8fbc
00000020: 984a 2b3c 6ed3 893c 2369 f73c 78f5 b03c
00000030: 17a1 20bd 9f67 903d 073e ddbd 7f33 353c
00000040: bd61 6d3d 6446 49bd aada 32bd 9039 e4bc
00000050: 7224 883d e5a8 b83d 4542 503d f11b 453d
00000060: 3aae 383c 2be5 dbbb 39e4 8f3d d37f 2b3e
00000070: e425 b63c cb15 a13c 6b9f 8c3d 404e 1d3b
00000080: d357 8ebb e795 a53d 9e61 7bbc 0766 f13c
00000090: 32dc f9bd 8be5 353a 8b6b 62bd 3922 e7bb
000000a0: 4948 12bd 768f 603d a728 d63c cdc1 45bd
000000b0: 5104 633d ec40 15bd 1c11 e33d 9031 d63d
000000c0: 96ab 45bd 925e aebc 74fd 843d 44e5 543d
000000d0: 7216 013d 6f3d 893d ff4e 1cbd bd8c 7dbd
000000e0: bf19 98bc ea4c c33d d658 763b 2981 923d
000000f0: fb2e be3d 1ba3 85bc 67fd 273d 5473 b83c
00000100: 81b1 623d 8b61 303c c27b be3c 8b11 b53c
00000110: 7df7 b13c b218 c43c f2f3 6f3d 595f a9bd
00000120: e796 423d cfbb 643d f6d0 99bc de37 353d
00000130: 6c0b 3abd 00bd eebc 4573 333d 5672 9cbd
00000140: 11d7 413c 09cd 783d 681d 733d 2936 97bd
00000150: 7be7 c4bc 651d 75bd 2e2b 97bc 8dc6 333c
00000160: dbd1 9c3c c4aa 17bc 38a9 21bd f0e8 63bc
00000170: 26f9 d13c 61ad 643d 69c9 d2bd 4a1f 7cbb
00000180: fe18 563d 2f08 c73d 7359 ef3d 20ba d03d
00000190: d640 853c c706 7e3d 4167 373c ea25 183d
000001a0: c665 3abd f4be e73b 04dc a43d 36e8 a7bc
000001b0: 2b3a 9c3d 0f8f 3a3d 2782 24ba 4019 683d
000001c0: 47f7 983c 6e31 78bb 6b90 ba3d f233 cf3d
000001d0: 9d10 cabc e32f ea3d 7643 253d a4e7 8bbd
000001e0: 4840 f6bc 12f6 1ebc efb7 aa3d b608 ae3c
000001f0: 1874 833c 2c8f fbbb 2ea8 bebc 42e2 8cbd
00000200: 8226 6bbd 3627 01bd 0851 c03d 60e3 31bc
00000210: 4038 8ebc 5d6d 7cbd da4e 4f3c 2979 a73c
00000220: ddcc 4c3d 7222 1f3e dd87 1fbd 5c7d 29bb
00000230: 6435 3aba 2098 113e 8c9d 13bc 23c2 aa3d
00000240: 1a62 023d b8cb f6ba 3a90 a2bd 0b4e aebc
00000250: 7c00 a93c 569f 8b3d d814 d53c 622b 053d
00000260: 3e12 64bc b5e8 8f3c d874 73bb 4483 9e3c
00000270: eb38 683b caad 5bbb 30b5 a3ba c1ea b23b
00000280: 993a e63d 02f2 a83c c5df 923d 78f0 82bd
00000290: 4a01 f33b e3e9 8fbd f463 183d 40c3 1abd
000002a0: 4edd 7a3c e554 31be 7d96 203d 354d 633d
000002b0: 8fb9 903d ab02 b23c 2176 a0bc a564 1a3d
000002c0: 9c25 833d 2fbb d13d 8d34 bfbd 83d2 2bbc
000002d0: ff80 833c 3e6a aa3d 44ce ebbc b8b7 a9bd
000002e0: 6b2c 90bb 7b2a 52bc 86ea 3d3d 1dd0 bd3c
000002f0: ec88 493d 027b 093c e9ba 44bc 41f6 e93d
00000300: 134b 33bc c871 5c3d e4b4 6c3b 5ffb 433d
00000310: 77ae 083d 8af9 833d ac8f babb 70b4 ad3d
00000320: 4331 993d 5d9c b73d 7d98 96bd 7f39 6fbd
00000330: b0c7 463d 3c15 bb3c 34cf 4f3c 2a17 77bd
00000340: aa9f 283d fc8e c13d 3c6a db3d 2a5c c13d
00000350: 041b 433d b4c9 87bd 59ca 023d c92b c63c
00000360: bb1e cdbd 68e3 673d 372a 583c 53f4 2a3d
00000370: 5866 1cbd 87fb a23c b5d8 643d 6096 ed3c
00000380: e46f b73d 1df2 3abb 1ea8 6cbd d8de 08bc
00000390: a8f4 e33c fabc 243d 8b19 aabb 213d 59bd
000003a0: 43cd 803d 89ff 2a3c 63f2 9d3b fb39 af3b
000003b0: 61c1 0fbc c086 963d 4b94 223d 874b 5c3b
000003c0: f452 0cbd 2ba7 023c 894c 4c3a a037 053d
000003d0: cde5 4a3d 3e4e 15bd 0013 9d3d 5eaf 9d3d
000003e0: 25b5 833d 466c bf3d e9e6 52bc 7d6e 873c
000003f0: f8ba c63c 44d3 5bbd 8d35 383d 27ff 593d
0.006001196 0.043376774 0.06676818 0.01691449 0.078427926 0.07180513 0.09348025 -0.017565383
0.010454796 0.01682445 0.0302015 0.021601424 -0.039216127 0.07051014 -0.108028464 0.011059641
0.05795454 -0.049139395 -0.043665566 -0.02785948 0.066475764 0.09016589 0.05084445 0.04812235
0.011272008 -0.0067106686 0.07025952 0.1674798 0.022234865 0.019663712 0.06866344 0.002400294
-0.0043439656 0.08085232 -0.015343098 0.029467596 -0.12200202 0.00069388066 -0.055278342 -0.00705364
-0.035713468 0.054824315 0.026142431 -0.048280526 0.05542404 -0.036438867 0.11087248 0.10458672
-0.04825934 -0.021285329 0.06493655 0.051976457 0.031515546 0.06701171 -0.038161274 -0.061901797
-0.018566964 0.095361546 0.0037589571 0.071535416 0.092863046 -0.016313126 0.041013148 0.02251593
0.055345062 0.010765444 0.023252372 0.022103092 0.021724457 0.023937557 0.058582254 -0.08270139
0.047507193 0.05584317 -0.018776398 0.044242732 -0.04542105 -0.029142857 0.0438111 -0.07638995
0.011831061 0.06074241 0.059354216 -0.07383377 -0.02403616 -0.059842486 -0.018453207 0.010972631
0.019143036 -0.009257022 -0.03946802 -0.013910517 0.025631499 0.05582941 -0.10292322 -0.0038470798
0.05226993 0.09718358 0.11686983 0.101917505 0.016266268 0.062018182 0.011194051 0.037145533
-0.045507215 0.007072324 0.08049777 -0.020496469 0.07628282 0.045546588 -0.0006275498 0.056664705
0.018672599 -0.003787126 0.09109577 0.1011733 -0.024666125 0.11434915 0.04034754 -0.06831291
-0.030059949 -0.009702222 0.08335864 0.021244388 0.016046569 -0.0076769795 -0.023273554 -0.06879093
-0.05740977 -0.031531535 0.093904555 -0.010857433 -0.017360806 -0.061627734 0.012653077 0.020443516
0.05000006 0.15540484 -0.03894793 -0.0025862074 -0.0007103293 0.14218187 -0.00900973 0.0833781
0.03183184 -0.0018829023 -0.07937665 -0.021277448 0.020630114 0.068175 0.026010916 0.032512076
-0.013920365 0.017567018 -0.0037148502 0.019349702 0.0035434316 -0.0033520334 -0.0012489911 0.0054601138
0.11241645 0.02062321 0.07171587 -0.06393522 0.007415925 -0.07027032 0.037204698 -0.03778386
0.015311552 -0.17317541 0.039206017 0.055493552 0.070666425 0.021729788 -0.019587578 0.03769364
0.06403658 0.102407806 -0.09336195 -0.010487202 0.016052721 0.08321045 -0.028784879 -0.08286995
-0.0043998263 -0.012827511 0.046366237 0.023170525 0.049202845 0.008391144 -0.0120074535 0.11423922
-0.010943192 0.053819448 0.0036118561 0.047847148 0.033369508 0.0644408 -0.0056933966 0.08481681
0.07480099 0.08965371 -0.073533036 -0.058404442 0.04853028 0.022837274 0.012683678 -0.060324825
0.041167893 0.094511 0.10713622 0.09441407 0.047633186 -0.06630269 0.031931255 0.0241908
-0.10015627 0.056613356 0.013193659 0.041736912 -0.03818354 0.019895328 0.05587073 0.029002368
0.08956888 -0.0028525658 -0.057777517 -0.008353911 0.027826622 0.040219285 -0.0051910332 -0.053036813
0.062891506 0.010436901 0.0048201545 0.005347488 -0.0087741325 0.0734992 0.039692204 0.0033614354
-0.034258798 0.007974426 0.0007793387 0.03252375 0.04953556 -0.03645157 0.076696396 0.07699464
0.06431035 0.093468234 -0.012872436 0.016532177 0.024259076 -0.053668275 0.044972945 0.053221848

network_body._body_endoder.seq_layers.0.weight f4 [256, 266]
00000000: d71f 87bd 57a6 d33c ee6d c43d 51d8 f4bc
00000010: 7405 d9bd 4baa 1b3d 5a0a abbc 3b1b a1bd
00000020: 9923 50bc c780 263d c653 223d a77b 30be
00000030: c918 2ebe 8728 2bbd b823 e5bd 520f 8a3d
00000040: 4ce2 79bc 789a bbbd cafc 053e ab62 503d
00000050: fd17 4ebe fcf0 80bc a140 b73d 07e4 9bbd
00000060: c987 72be 668c 4bbd f04e 52be cfec 15bd
00000070: 876b 07be 1997 09be 2ef3 ba3d 1712 2b3d
00000080: 074a 603d b254 cebd 1c73 823d c2c8 6dbe
00000090: dbca 65bd 9584 9abc 8ff9 bdbd 4af4 7cbd
000000a0: bd70 a6bd 3cd4 a2bd b506 a8bd e4f0 1fbc
000000b0: 7156 99bc 852f 9bbd 1043 33bc ae00 9d3d
000000c0: efdc 14bb 58c2 24bd a575 3abd c6a2 7bbd
000000d0: 280c 0ebe 4da1 003e 4356 2dbe 4dfc 863d
000000e0: ab98 f23d 2861 d23c a0cc ffbd c399 85bc
000000f0: 5dc0 be3d a925 efbc 00ed 663d a0b3 333e
00000100: 4abe adbd ef03 ad3d bc95 86bc eb13 2ebe
00000110: f4ee a13b 59d1 05be ade2 07bd cd57 01bd
00000120: 4e4d a5bb 5b41 883c 74f1 15bd ab9f 1e3e
00000130: 17e1 5fbd 539c 923c 2ec5 3cbe 0778 c43d
00000140: 9ecf 633c c433 b63d 62e4 97bd 9546 fcba
00000150: 5d5f 36bd fd47 d9bc ae6f 84bd 8367 d3bc
00000160: f0d8 febc 746e 90bd 6735 9cbd bf82 64bd
00000170: 9b34 ea3d 8b0d b6bb 704d 78bd e29b 86ba
00000180: 2bea 64be 0840 0e3e 199f 9a3c 5457 f2bd
00000190: bb67 533e f119 0a3e e010 38be 7ab3 ec3c
000001a0: 6376 a93d bee2 253d 67f6 64be e39d 83bd
000001b0: 83cd 193d c46f 0cbe 0519 783c d567 a3bd
000001c0: 8bbf 063e d3a4 debb 0c7c ef3d d977 313c
000001d0: 973d 813c 8ec3 cd3b 1a0e 18be a0b9 cb3d
000001e0: 056e fd3d 7997 60bd 4a7d 7bbd 8bcd e13d
000001f0: 9dfa b1bb c5ee 483c 5232 083d b112 3fbd
00000200: 0966 4abd 6896 623c 3ead 27be 568b 1ebd
00000210: 08b5 b9bd 20da 91bd 68dc f93b 1029 03be
00000220: 7a90 dfbd dda1 0b3d 9fcb cebd 1e3f 03be
00000230: 9d6d e13d d52e 093c abcd debd 69a8 853d
00000240: 59e7 163c 3888 96bc a0eb 5abe 6fe1 0abd
00000250: 7e3a a8be e4ac 22be e713 1a3e 0db2 f13c
00000260: 9bf5 20bd 83a3 e4bd dd5e 8ebd 79a5 303e
00000270: 59c2 e7bd 0946 44bd 42a8 9fbd 462d b33c
00000280: eb1d 943a 0a53 3b3d 3084 823d 1581 53bc
00000290: d6fc 72be 8bd5 8f3d 79cb 7ebe db82 4cbe
000002a0: f076 9ebd 1dd8 9d3d 06e0 8abb 039c 37be
000002b0: 89ef c23c e232 2d3d e450 2fbe 48fa 2abc
000002c0: f82b c03c 615a 293c 7a42 a23c 85d3 46bd
000002d0: d983 b1bb 58bb 0d3c 762b 6e3c 2edc 013c
000002e0: 4b77 7fbe 6709 27be 42e2 2bbe 21d1 2b3d
000002f0: 06a1 2bbe 1513 42bd f855 8b3d a4a8 92bd
00000300: 0d25 353b d97c a0bd bf2d 8dbd 64c7 c1bd
00000310: d552 e7bd fc11 beba 5450 d8bd c29c 303c
00000320: d8ac 0b3d ab32 303d 82d4 39bd 1a22 43bd
00000330: 1430 1f3e 86f5 0ebe 4c77 6c3d 675b 4a3d
00000340: ff7f 20bd 369f 8bbe 543e 46bc 6763 583c
00000350: 42d2 b0bd bcc1 003e 4eb2 fdbb b707 87bd
00000360: c68b b6bd d14a 0ebe 26a4 a03d 28be 0d3d
00000370: 7ea6 813d b4a6 64ba 372d 8c3c b60b 16bd
00000380: 9185 dcbd ad5c 78bd c99b b9bc 3e6c 01bd
00000390: 2223 a13d 920f 88bc f419 d33c a548 97bd
000003a0: 00a3 a0bd 90c9 b93b a058 7e3d 4136 90be
000003b0: 64db 71bd 9905 3b3d 0d16 debd e0a5 dcbd
000003c0: a32b 19bd fb76 7dbd 7b3e 65bd 052f 50be
000003d0: 6e4f 47be 05d8 b93d b2df 6d3c 5572 ad3c
000003e0: 5e9a 01bc fc8c b0bd 1172 db3d 42bc 173d
000003f0: 2870 03bb 925a aabb 6eeb 0dbe af69 473d
-0.0659787 0.025836153 0.0959128 -0.029888304 -0.10596743 0.0380042 -0.02087896 -0.07866522
-0.0127038 0.040650155 0.039630674 -0.1723467 -0.17001642 -0.041786697 -0.111884534 0.06741203
-0.015251707 -0.09160322 0.13084713 0.050875347 -0.20126338 -0.01573991 0.08947874 -0.07611852
-0.2368461 -0.04969444 -0.20537925 -0.03660279 -0.13224612 -0.13436545 0.09128414 0.0417653
0.054758098 -0.10074748 0.063696116 -0.23221114 -0.05610166 -0.018862048 -0.09276115 -0.06175641
-0.08126972 -0.07950637 -0.08204404 -0.009762023 -0.018717976 -0.07577423 -0.010941282 0.07666145
-0.0022714694 -0.040224403 -0.04552235 -0.06143453 -0.13871825 0.12561531 -0.16927437 0.06591091
0.11845525 0.025681093 -0.12490201 -0.01630867 0.09314034 -0.029192762 0.056378365 0.1754899
-0.084835604 0.08448016 -0.01642882 -0.16999786 0.0049418155 -0.13068141 -0.03317516 -0.031577874
-0.005044616 0.016632726 -0.03660722 0.15490596 -0.05465802 0.017896807 -0.18434593 0.09593206
0.01390448 0.08896592 -0.074166074 -0.0019247109 -0.04452454 -0.026523584 -0.06466614 -0.025806194
-0.031109303 -0.07052317 -0.07627373 -0.05578875 0.11435815 -0.0055558137 -0.060620725 -0.0010269845
-0.22354953 0.13891613 0.018874692 -0.11833063 0.20645039 0.13486458 -0.17975187 0.028894175
0.082745336 0.04049944 -0.2235962 -0.06426599 0.037549507 -0.1371451 0.015142684 -0.07978789
0.13159005 -0.006794551 0.11693582 0.010831797 0.015776439 0.0062794155 -0.1484913 0.099475145
0.123745 -0.054831956 -0.06139878 0.11025532 -0.0054314868 0.012263958 0.033251114 -0.046648685
-0.049413715 0.013829805 -0.1637468 -0.0387071 -0.09067732 -0.07121682 0.0076251514 -0.12808633
-0.109162286 0.03408991 -0.100974314 -0.12817046 0.11007235 0.008372982 -0.10879072 0.06526262
0.009210431 -0.018375501 -0.21378946 -0.033906396 -0.32857126 -0.15886265 0.15046655 0.029503847
-0.039296728 -0.11164 -0.069516875 0.17250623 -0.11316366 -0.047918353 -0.077957645 0.021872174
0.001130042 0.04573349 0.06372869 -0.0129091935 -0.23729262 0.07023152 -0.24882306 -0.19971792
-0.07737529 0.07707236 -0.0042381315 -0.17930607 0.02379586 0.042284854 -0.17120701 -0.010435648
0.023458466 0.010336489 0.01980709 -0.048541564 -0.005417329 0.008650623 0.014536729 0.00792603
-0.2494785 -0.1631218 -0.1678553 0.041947488 -0.16760644 -0.04738148 0.068035066 -0.07161072
0.0027640492 -0.07836313 -0.06893491 -0.09461859 -0.11295096 -0.0014501209 -0.105621964 0.0107795615
0.034100384 0.04301707 -0.04536868 -0.047639944 0.15545684 -0.13960847 0.057730958 0.049403574
-0.039184567 -0.27269906 -0.012099821 0.013207293 -0.086338535 0.12573904 -0.007742203 -0.06593268
-0.089133784 -0.13895728 0.07843809 0.034605175 0.06330584 -0.00087223505 0.017111404 -0.036632262
-0.10767663 -0.060635258 -0.022657292 -0.03159737 0.07868029 -0.016608987 0.025769211 -0.07386903
-0.0784359 0.00566978 0.062096238 -0.28166392 -0.059047118 0.045659635 -0.108440496 -0.10773826
-0.03739513 -0.061881047 -0.05596779 -0.20330437 -0.19463894 0.090744056 0.014518665 0.021172682
-0.007910339 -0.08620641 0.10715116 0.03704477 -0.0020055864 -0.005198785 -0.1385934 0.048684772

network_body._body_endoder.seq_layers.0.bias f4 [256]
00000000: 70f2 2abd abe0 22bc 2a49 463c a811 17bc
00000010: f839 f43c a84c 043d 2794 9dbb 522c 253c
00000020: 88ab 2f3d f135 ecbc 8323 3d3d d00f 5abd
00000030: 7d88 843c e489 323c 8656 aebb 65b3 e2bc
00000040: f0e9 343d 9e70 03bc 508b a13c 3586 183c
00000050: ba1f 0d3d 7c6f 833c c518 a13c 5f2e 67bc
00000060: 5c63 3ebc 1d8b 8f3c a041 aabc 92e4 c33a
00000070: 8f1b de3b 702a 213c 0be7 38bb 512b cbbc
00000080: 8b23 6cbb 772b 143c 212e 383c 68e0 92b9
00000090: cc03 9e3c e02c e1bb 3e9e 2abc 8217 8aba
000000a0: 44d8 3fbc 5ba4 11bd 3269 bdbb 85b1 733d
000000b0: 7fb8 cabb 685a b73c 8370 503b 0ebc d63c
000000c0: 29f0 0cbe 65ca 2b3c 6e56 eb3c 2b1e 4a3c
000000d0: cf22 bf3c 278f 933c 1f88 b3bb 26c8 b43b
000000e0: 5afb 0b3d 7c21 1c3c 96a1 32bb dfc3 21bd
000000f0: f32e 5e3c c300 ac3b 9906 03bb 667e 893c
00000100: f07c 483a cc8d 83bb 2c62 983c b088 85bb
00000110: f34b 363d b5d7 643c 7eed 203d afc3 f6bc
00000120: 6855 ea3c 9730 ac3b 0d60 a8bc c095 8abc
00000130: 6b7e 013d 1faf 2abc 1069 c4bb 1fda cc3b
00000140: 76f8 213d abb5 eb3b f777 c93c da26 e83b
00000150: ad02 9abc 90e9 aebc f4d2 cabb ec9c be3a
00000160: bd2f 083d 9b4a b0ba c3e0 21bc adc8 e83c
00000170: 44d6 e93c f526 ddbc a3fd c43c e4ce 0d3d
00000180: e57f 0a3d 8c40 4e3c 06d7 ea3c aaa7 42bc
00000190: 165b 48bc a453 493c 7595 4abc ac73 793c
000001a0: 8d2a 943b 658c 423d 01dd be3c 9b2e 933d
000001b0: 263a ca3c 59c2 a2bc a2c3 0e3d 6026 333b
000001c0: 869a 00ba 5a22 833d e06c 9cbb 9312 cc3c
000001d0: f1c9 d93c 8679 b3bb 5b28 e83b 3e8d 99bc
000001e0: bd8d f43c 393b 2b3d 9650 163c 332b d43c
000001f0: 9110 363c a587 a93c a5d4 dabb 9ca1 273d
00000200: cc04 9bbc b4d6 08bd 0764 34bd b0e1 6e3c
00000210: cc61 a33c 0886 f8bc 64e9 6dbb 01f5 323c
00000220: 29f8 93bc 1be5 b7bb 2adc 28bc bc2a f63c
00000230: 0ca8 37bc 36b5 9cbb d3e7 24bc ebb1 533a
00000240: 7f6c afbc 3161 6d3c 3f01 483a b9fb 4e3b
00000250: 5ed2 babc 9b4e 8d3c fc89 803c 42b3 253c
00000260: 6928 0839 62a8 903c fd22 6abb 57b7 463b
00000270: 2e3f 98bb 8d6b 4f3d f88f d8bc 514a fdba
00000280: 7122 5bbb 2a97 d6bb ba59 163d efdf d43c
00000290: 98a0 d33c 6b83 123d ef98 183d d868 8cbd
000002a0: 5f51 873c cbb6 cebb 6ef1 ceba ac1d 0ebd
000002b0: ab49 08bc 7f8b cbba 8b15 213d 77cd 2a3d
000002c0: 6763 c8bb 74a1 d43b 8abe 3abc 99b1 f2bc
000002d0: 2e11 753c 4232 133c 9211 523c 355f 9e3c
000002e0: 83eb 873c 1ca5 f63b e9d0 0e3c 837d e03a
000002f0: ad7b b63c fc7a 74bb 4fa0 00bc 9ce6 113d
00000300: dfea d2bc 209f 3d3b 79e4 d0bc 27ac c83b
00000310: 5224 973c 302a 503c b3f0 95bc ddb6 873a
00000320: b802 a239 c154 05ba 3a58 45bc 01a0 813c
00000330: 3602 643c aebb c23c bef1 16bb 36e2 773c
00000340: 2306 083c 5d10 1c3b bdd6 cbbc 812e 3ebc
00000350: 9e8d 30bc c729 993c 80e0 0cbc 02e2 cf3c
00000360: ea60 4f3d 64f4 a43c 9ecd 32bc 7d75 663c
00000370: 1b70 173c 2cb2 713c 9945 63bc dab0 d0bc
00000380: c4bb 433c ce90 f93c 9772 353c 659f f1ba
00000390: ff9d 4a3d b8c3 0bbd 0e87 843c adec f73c
000003a0: 5350 293c bc10 1a3d 9949 8d3b c3f8 753a
000003b0: 79b3 3ebc e594 17bb d112 683d 78da 003d
000003c0: 5f1f 1b3d fbc4 af3b dc78 aa3c f446 11bd
000003d0: f57c 0ebb a95e 0dbc 170a 4f3b 0cec 8a3b
000003e0: dcef cdbb 9f68 9ebc 5b69 cb3c a7d4 ee3b
000003f0: 5967 823c 5a27 51bc a6e3 333d 1e73 a13c
-0.041735113 -0.00994126 0.012102405 -0.009220518 0.029812798 0.032299668 -0.004808921 0.010081368
0.042888194 -0.028834315 0.046176445 -0.053237736 0.016178364 0.0108971335 -0.005320373 -0.027673433
0.044168413 -0.0080224555 0.01971975 0.009309341 0.034454085 0.01604437 0.019665131 -0.014110177
-0.011620369 0.01752239 -0.020783246 0.0014945439 0.0067781876 0.009836778 -0.0028213884 -0.024800928
-0.0036031927 0.009043566 0.011241467 -0.00028014486 0.01928892 -0.0068718046 -0.010413704 -0.001053557
-0.011709277 -0.035557132 -0.0057803625 0.059495468 -0.0061865444 0.022381976 0.0031805343 0.026212718
-0.13763489 0.010485266 0.028727736 0.012336294 0.023332028 0.018012596 -0.0054788734 0.0055170236
0.034175254 0.009529468 -0.0027256957 -0.039493438 0.013560998 0.0052491142 -0.0019992946 0.016783904
0.00076480117 -0.0040147062 0.0186015 -0.0040751323 0.044506025 0.013967444 0.03928899 -0.030122606
0.028605178 0.005254816 -0.020553613 -0.01691711 0.031614702 -0.010417729 -0.0059939697 0.006251588
0.03954359 0.0071932874 0.024593337 0.0070847096 -0.018800104 -0.021351606 -0.0061896984 0.0014542616
0.03324865 -0.0013449969 -0.0098802475 0.028416002 0.028544553 -0.026996115 0.024046725 0.034621134
0.033813376 0.012588631 0.028666984 -0.011880795 -0.012228748 0.012288008 -0.012364735 0.015225332
0.004521674 0.047497172 0.023298742 0.07186624 0.02468593 -0.019868063 0.03485454 0.0027336106
-0.0004905838 0.064030364 -0.004773721 0.0249112 0.026585551 -0.005477133 0.007084889 -0.018744107
0.029852742 0.041804526 0.009174487 0.025899505 0.011112348 0.020694563 -0.0066781812 0.040925607
-0.018923186 -0.03340788 -0.044040706 0.014580175 0.019944094 -0.030337349 -0.0036302442 0.010922671
-0.018062668 -0.0056120283 -0.010306397 0.030049674 -0.011209499 -0.004782344 -0.010065037 0.0008075523
-0.02141404 0.014488504 0.000762958 0.0031583144 -0.022805389 0.017249396 0.015690796 0.010113539
0.00012985025 0.017658416 -0.003572642 0.0030321681 -0.0046462035 0.050639678 -0.026435837 -0.0019324516
-0.0033437277 -0.006548782 0.036706664 0.025985686 0.025833413 0.03576986 0.037255224 -0.06855935
0.016518293 -0.0063084117 -0.0015788504 -0.034696266 -0.008318345 -0.0015529244 0.039327186 0.041699853
-0.0061153653 0.0064889733 -0.011397967 -0.0296257 0.014957709 0.00898415 0.012821572 0.019332508
0.016591793 0.007527007 0.0087168 0.0017127249 0.02227577 -0.003730475 -0.007850721 0.035620317
-0.02574676 0.0028933957 -0.02549957 0.006124038 0.018449936 0.012705371 -0.01830325 0.001035418
0.00030901073 -0.00050861767 -0.012044961 0.015823366 0.013916543 0.023771133 -0.0023032273 0.0151296165
0.008302244 0.0023813464 -0.024882669 -0.011607767 -0.010775952 0.018696679 -0.008598447 0.025376324
0.050629534 0.020136066 -0.010913281 0.014066097 0.009243037 0.014751952 -0.013871574 -0.025474954
0.011946622 0.030464556 0.011074684 -0.0018434344 0.049467083 -0.0341222 0.01617768 0.030264223
0.010334092 0.037613615 0.004311752 0.00093830767 -0.011639469 -0.002312952 0.05665857 0.031458348
0.037871715 0.005364058 0.020809583 -0.035468057 -0.002174196 -0.008628526 0.0031591707 0.0042395648
-0.006284697 -0.019336997 0.02483051 0.0072885337 0.01591842 -0.01276573 0.043918274 0.019708212

network_body._body_endoder.seq_layers.2.weight f4 [256, 256]
00000000: a7fc 18be 479f 95bd 10aa 2abc f452 863d
00000010: f2af b8bd 5604 373e 7de4 b4bd 09d1 d43c
00000020: 597a 94bd f3f9 0bbe 57a0 a23d 08bc 2cbc
00000030: 9615 2d3e 5691 dcbc 1bea b7bb 3f21 29bd
00000040: a898 a23c bbf6 02bd a293 9abd 8481 0f3d
00000050: d13a c73d 4430 07bc 4d3a 333c 6933 69bd
00000060: 1d99 07bc ead3 583b d72e 2fbc 2e3b 203e
00000070: f162 aa3d 1546 e03c 3398 5d3c 9d5a 74bb
00000080: c521 2f3d 4a7b 143d bf41 2abe 6c1b 313d
00000090: 337a 9e3d 2cc5 5a3d 3fff 3f3d f269 d4bd
000000a0: efad 833d b648 4cbe 1642 02be 823c cc3d
000000b0: 45b3 6abc 677b 393d 5f12 67be 0ec8 0abd
000000c0: 09a7 8dbd 8539 2d3e bb92 0fbe 90ae 413e
000000d0: 527c 83bc 3736 a83c d2a1 6cbc 7e36 0dbc
000000e0: a9e6 df3c 388b 563d 6160 7cbc 9c56 05bd
000000f0: 6e0f fd3d c41b 12bd 8f96 f9bd b78d 093e
00000100: 8604 203e 3075 02bd fe70 963d 1f36 8fbd
00000110: 509c e0bc 7c73 67be 3565 893d 4ee2 4abe
00000120: a63f e33d e85a 413e 353e a6bb 8091 edbc
00000130: 742f 143d b0d7 163d c8b4 503e 4347 5e3e
00000140: 6d92 783d 5c61 a63a af11 30bd 237e 313d
00000150: 1419 ab3d 1e56 71bd 6d56 423e 74ea 57bd
00000160: 6d83 373e 88b5 aabd 0bb7 17bd 83c3 93bd
00000170: 08d9 b3bd f871 f4bd 15a9 0f3c bef4 99bc
00000180: a6d1 e53a 4838 8e3d 0145 c93c 2a6f bf3d
00000190: 23d3 d1bd 2f8b acbd 0072 34bd d18c 96bd
000001a0: 2f22 203d 09b2 6b3e d1f4 39be 7a93 28bc
000001b0: 535c d83d 1a44 0abe 9769 24bd 3f97 b1bd
000001c0: d963 243e a855 693e cefe 9a3c 88e7 31be
000001d0: 4e9b 8a3c f131 d93d 111e 2d3c e7f1 b9bd
000001e0: fc18 9ebd 22cc 1f3b 8d6a e73d bf29 d33d
000001f0: f5ef 8dbc 1a84 893d 97df 743c 1924 143e
00000200: dc28 3ebd 5d62 abbd eef0 bc3b 6a32 a2bd
00000210: bb34 253e 955a 19be a81a 1fbc 8324 0a3d
00000220: 75a4 ee3c d6b0 f4ba 8624 06be 6a3a 813d
00000230: b0e0 00be 8db4 48be afc9 d53d d741 d5bc
00000240: 452d d03d 4688 a2bc 7cce febd 91e5 4a3c
00000250: fab4 1f3d 264a 233e edf9 cb3c afea f93d
00000260: ba1b adbb 50a9 ddbd fb9b 5c3d 306e 4a3d
00000270: 3a82 e33d fe86 023e 23d7 21be 3c0b 10be
00000280: ca66 d53d 8082 443e 8250 c1bd 000f 263d
00000290: 45fc 7abd 05ea 843c 3176 59bb 5c33 2bbe
000002a0: 3aee 003d 5f28 17ba 8302 c0bd 0ad0 9abd
000002b0: 74ed 9e3c 8aa8 49bd f7f8 d73d 1155 83bd
000002c0: 2eb9 06ba d5e2 23be 0d6c 0b3e b610 143c
000002d0: 0d59 6fbc 45ba 0f3c b696 e7bd dfe0 87bc
000002e0: 2de5 2239 4bb3 c1bd a2d0 4b3e b401 b43d
000002f0: 1edc dc3c 6462 10be 367e 813d 436b b33d
00000300: 4713 273d fba6 3ebe 5219 29be 855d 58bd
00000310: 646b 35be ec01 75bc f407 e5bd 9520 153d
00000320: 1858 6bbe 49f4 ccbc 7c51 c9bc 292d 0b3e
00000330: 95dd 49be f368 9dbd 3c00 b13d 315e 42be
00000340: 4624 e3bd 2cec 03bd ea14 f53d 0dd6 cdbd
00000350: 1647 a33d b6b5 37bc 7814 5fbb 1834 39bd
00000360: 8d33 7b3e 722c c33d 07f4 213e b78f 203d
00000370: 2d97 6f3e 24a6 8bbe 1d08 913d 93de f83c
00000380: d606 273e 9cf7 e23c f410 f73d 121c be3d
00000390: 880f 523e fb8b b4bd 6145 a6bb a8e4 bd3d
000003a0: d9b5 263b 050c 9d3d b96a 033d 78eb 2bbd
000003b0: e010 21be 195e fcbc 8088 e4bc dbb2 313e
000003c0: b83c 85bc 40a0 a23c 4e34 36be c7ca a5bd
000003d0: 888a adbd f211 53bd 35ff 093e 615d 5ebd
000003e0: d7ee ad3c b29c fbbd 3d45 d0bd 5143 2dbc
000003f0: 7083 f8bd 7cde c03d 06fd 9e3c f42f a73c
-0.14940129 -0.0730577 -0.010416523 0.06558791 -0.09017934 0.17872748 -0.08832643 0.025978582
-0.072498985 -0.13669567 0.07940739 -0.010542877 0.16902766 -0.02692477 -0.0056126243 -0.04129147
0.019848183 -0.03197358 -0.0754769 0.035035625 0.09728015 -0.0082512535 0.010939193 -0.056933794
-0.008276251 0.0033085295 -0.01069232 0.15647575 0.08319653 0.027377168 0.013525057 -0.0037285455
0.042756815 0.03625039 -0.16626643 0.043239042 0.077381514 0.053410694 0.04687428 -0.1037177
0.064296596 -0.19949612 -0.12720522 0.099724784 -0.014324968 0.0452837 -0.22565602 -0.033882193
-0.06916625 0.16916473 -0.14020817 0.18914247 -0.016050491 0.020533664 -0.014442878 -0.008618949
0.027331667 0.052378863 -0.015403838 -0.0325533 0.123564586 -0.03567101 -0.1218692 0.13432966
0.15626726 -0.03185004 0.0734577 -0.06992745 -0.027418286 -0.22602648 0.06708757 -0.19812891
0.11096124 0.18882334 -0.0050733336 -0.029000044 0.036178067 0.03682679 0.20381463 0.21706872
0.060686518 0.001269381 -0.042985614 0.043333184 0.08354393 -0.05892002 0.18978281 -0.052713826
0.17921229 -0.083354056 -0.037039798 -0.07215025 -0.0878163 -0.119358 0.00876834 -0.01879346
0.0017533794 0.069443285 0.024569036 0.09347375 -0.10245349 -0.08424985 -0.04405403 -0.07351077
0.0390951 0.23017134 -0.18159796 -0.010289067 0.105644844 -0.13502541 -0.04013976 -0.08671426
0.16053714 0.22786582 0.018920328 -0.17373478 0.016919758 0.10605229 0.01056625 -0.09079342
-0.07719609 0.0024383147 0.1129962 0.10310697 -0.017326334 0.067146495 0.014945886 0.14466895
-0.046425685 -0.08368371 0.0057660257 -0.07919772 0.16133396 -0.1497596 -0.009710945 0.033726227
0.029131154 -0.0018668424 -0.1309987 0.0630997 -0.12585711 -0.19600125 0.10438859 -0.026032371
0.101648845 -0.01984037 -0.124417275 0.012383834 0.038990952 0.15946254 0.024899447 0.122029655
-0.0052828463 -0.108233094 0.053859692 0.04942149 0.11108823 0.12746808 -0.15804724 -0.14066786
0.10419996 0.19190407 -0.09439184 0.04054165 -0.06127574 0.01622487 -0.003318202 -0.16718811
0.03147719 -0.00057662086 -0.09375479 -0.075592116 0.019400336 -0.049232997 0.10545533 -0.064127095
-0.0005139288 -0.16004498 0.13615437 0.009037187 -0.014608634 0.008772437 -0.11308043 -0.01658672
0.00015534899 -0.094580255 0.19903806 0.08789387 0.026960429 -0.14100033 0.06322901 0.08760693
0.04078987 -0.18618385 -0.16513565 -0.052823562 -0.17716748 -0.0149540715 -0.111831576 0.036408026
-0.22982824 -0.025018828 -0.024574988 0.13591446 -0.19713433 -0.07686033 0.08642623 -0.18981244
-0.11090903 -0.032207653 0.1196688 -0.100505926 0.07972543 -0.011212757 -0.00340393 -0.045215696
0.24531384 0.09529962 0.15815745 0.039199557 0.23397513 -0.27275193 0.070816256 0.03037957
0.16311201 0.02770596 0.120637804 0.09282698 0.20513737 -0.08815762 -0.0050741886 0.09272128
0.002543798 0.07668308 0.0320842 -0.041972607 -0.15729094 -0.030806588 -0.02789712 0.17353384
-0.016264305 0.019851804 -0.1779339 -0.08095317 -0.08473688 -0.051530786 0.1347626 -0.05428827
0.021232052 -0.12285747 -0.10169456 -0.0105751315 -0.12134445 0.094174355 0.01940776 0.020408608
