results/PushBlockCollab_POCA_Curiosity/PushBlockCollab/PushBlockCollab-6499994.onnx (onnx, 643240 bytes, 12 tensors)

network_body.observation_encoder.processors.0.conv_layers.0.weight f4 [16, 6, 8, 8]
00000000: f62d 86bc c3d0 42bd 21ef d9bb 9139 d2bd
00000010: e75a 78bd 3fe4 0bbe 7181 d6bc 6835 6b3c
00000020: 8686 a23d 2611 993d 5324 a5bc f230 86bd
00000030: e69a b7bd 6bfe 99bd 54cf 873c d773 cb3d
00000040: a231 4dbc e865 b73c 3db2 abbd 37a4 b4bd
00000050: b2df 053d 0b89 8ebd 281e 903d 4fc1 233d
00000060: e137 1b3d e611 82bd 3f57 4ebd b649 49bd
00000070: 16e0 f5ba 36b8 35bd 0214 a63c ec4b b53d
00000080: 083a c7bc 0ad5 3dbb f4cc d4bd 3304 d4bc
00000090: be5a 8439 064a 8fbd 4c2c e13b 0c1a 10bd
000000a0: 6a93 bcbc d4bc c1bc 1b2e aa3d 299a 9e3c
000000b0: e60f a9bd 0e95 21bb b4bd 87bc 7030 713d
000000c0: 0dca b03b ad22 913d 807b 823d 6130 9d3d
000000d0: 6dec abbd 13da 283d 7893 81bc 501f 95bb
000000e0: d39e a73b 3e79 b13c abab b33c e72f 0a3d
000000f0: b0a1 91bd e345 f7bd 165e 1bbd c969 9bbd
00000100: 7030 a7bb 1280 063e 9ea7 683d 6164 b73d
00000110: 23fc 2cbb 185c 4cbc 0886 abbb b91d 593d
00000120: 6299 023d e561 343d 85ba 5b3d 661b b53d
00000130: 60ef 833b 5fdd 923d 0e45 52bb a9d7 9b3d
00000140: 7e58 52bd 5d83 4fbc d429 c33c dd93 823d
00000150: 2780 083d d6b3 183d 25d2 d63d 029c 0c3d
00000160: 0729 86bc 9c86 723d 60bd 8e3d 726c 163d
00000170: 6699 16bd 52e1 c43c 01cc 3d3c 762f 01be
00000180: 61ad bb3c 33ba 0b3d ba24 b33d 968c 8c3b
00000190: 8928 a2bc 044e 22bd cedc 553d 32e4 233d
000001a0: 125d 6d3d 3b3f e4bc 808e 8f3c 31a4 19bd
000001b0: 1847 cebd 1187 7bbd d70f e13c e82e 693d
000001c0: c674 06bd 2d01 243e c30e 063e b02e 3c3d
000001d0: 4573 c4bc ea7c 00bd 080e 7e3d f65f bb3d
000001e0: f917 863c caa4 13bc 796b 203d 7c0b 333d
000001f0: d8d1 9c3d 52af ab3c 8e06 df3d f253 033e
00000200: 0f51 02bd 12d5 8fbc 8ed6 0fbc f7dd 79bb
00000210: 0ff4 dd3c 6ee3 cabc a503 26bb 9596 803b
00000220: be1c a3bd 1a58 d6bc 1ea0 6a3d 1f69 ff3a
00000230: 010b 673d 0af4 263d ca8a 2fbd 09b3 04bd
00000240: 038c 75bd 5d77 963d 9a53 ce3d 3589 683d
00000250: a432 a13b 6287 b43c a67a 4c3d c38e f9bb
00000260: 94d2 c03c 8c90 053d 9eec 6e3c a486 903d
00000270: 166e 753d d980 1f3d da64 343b dad9 21bd
00000280: 2b6b 173d 56af c23b 150e 753c 3347 7e3c
00000290: 929a a23d b6e9 9e3d 53cc 2f3d e860 b1bb
000002a0: ba11 d63a effd bcbc 6550 233d a393 77bd
000002b0: 0270 aabc a4b6 503d ecda 16bd fe01 e83b
000002c0: 3766 aa3b e08c a3bd 4d24 72bd 3122 3c3d
000002d0: ce77 0c3c 349d a1bb fe5f 11bd ef39 0e3a
000002e0: 24b3 bbbc e383 07bd 5e69 273d 9eba 05bd
000002f0: def2 0ebd 4218 303d 749c 0ebd 446a 993d
00000300: b149 06be 3bf6 25bd eaff 31bc 0147 43bd
00000310: 407a 18be 044b 38bd cd63 963d 02dc 993d
00000320: 87dd 803d 273a 3c3c bfb0 afbc a01f fa3b
00000330: 8330 74bd 9d9d 92bd 2f81 1c3c 79ac 073c
00000340: f804 1c3e a7b9 113e 02a5 173e cd6f 293d
00000350: 122a 043d 2659 6f3d 40f9 4dbc 3610 eaba
00000360: 7966 123e ac4f 693c c9f4 693d 0aaa 003e
00000370: 0ce8 b83d bc91 063d 4e1b a6bb f28e e13d
00000380: ab84 073e 3372 533d 29ce a83d e32e c23d
00000390: be93 8c3d 406d 11bc d0d1 ce3d dd7b 613d
000003a0: 608a 093e f2d0 ef3d cf6c 913d 466b 233e
000003b0: fee5 b33d 6e47 5e3d 38aa d8bc cfde d33c
000003c0: 3296 443e 38a6 db3d 7559 5e3d 22ff fd3d
000003d0: 26f2 ef3d 976a cbbc c56d 9d3c 2ace c4bd
000003e0: 865c 353e c6ea aa3d 9f67 c33d 1f7f 093e
000003f0: 7913 9a3d 5f27 6a3d e58a b13d 2680 b7bd
-0.016379338 -0.047562372 -0.006650821 -0.10264886 -0.060633566 -0.13661288 -0.02618477 0.014355995
0.079358146 0.07473974 -0.020158922 -0.06552304 -0.089650914 -0.075192295 0.016578354 0.09934204
-0.01252404 0.02238746 -0.08383606 -0.08820384 0.032684036 -0.069597326 0.07037002 0.039979275
0.037895087 -0.0635107 -0.050376173 -0.04914256 -0.0018758799 -0.04436513 0.020273212 0.088523716
-0.024319664 -0.0028966093 -0.10390654 -0.025880909 0.0002524461 -0.06996541 0.0068717357 -0.03518109
-0.023019511 -0.02364961 0.08309575 0.019360619 -0.082549855 -0.0024655494 -0.01656995 0.058884084
0.00539518 0.07086692 0.06371212 0.07675243 -0.08394704 0.041223597 -0.015817389 -0.004550852
0.005115369 0.021664258 0.021932444 0.03373709 -0.071109176 -0.12073877 -0.037931524 -0.07588536
-0.0051022097 0.13134792 0.056800477 0.08954693 -0.0026395402 -0.012473129 -0.0052344836 0.05300686
0.03188456 0.044038672 0.053644676 0.088431165 0.0040263385 0.071711294 -0.0032084617 0.07609493
-0.051353924 -0.012665597 0.023823656 0.06375859 0.03332534 0.03728088 0.10489301 0.03432847
-0.016376985 0.059210405 0.06969714 0.036724515 -0.036767386 0.024033222 0.011584283 -0.12615761
0.022909822 0.03411312 0.087472394 0.00428922 -0.01979472 -0.039625183 0.05221253 0.040012546
0.057950087 -0.027862182 0.017524004 -0.0375101 -0.10072154 -0.061408106 0.027473373 0.0569295
-0.032826208 0.16016074 0.13091569 0.045942962 -0.023980746 -0.031369127 0.0620251 0.091491625
0.016368853 -0.009011457 0.039164994 0.043712124 0.07657212 0.020957623 0.10889922 0.12824991
-0.031815585 -0.017557655 -0.008779181 -0.0038126686 0.027093915 -0.02476665 -0.0025331762 0.003924201
-0.079644665 -0.026165057 0.057281606 0.0019486285 0.05640698 0.040760078 -0.04285697 -0.032397304
-0.05994798 0.073469855 0.100745395 0.056771476 0.004919367 0.022037212 0.049921654 -0.0076158955
0.023537911 0.032608554 0.014582781 0.07056931 0.05991944 0.038941238 0.0027525933 -0.0395144
0.036967438 0.005941312 0.014956971 0.015519905 0.07939638 0.077594206 0.042919468 -0.0054131635
0.0016332187 -0.023070304 0.039871592 -0.06044353 -0.020805363 0.05095543 -0.036829874 0.0070803156
0.0052001732 -0.07985854 -0.05911665 0.045931045 0.008573486 -0.00493207 -0.035491936 0.0005425503
-0.02291257 -0.03308476 0.04087197 -0.032648675 -0.034899585 0.042991884 -0.034817174 0.07490972
-0.13114049 -0.040518027 -0.010864237 -0.047675136 -0.14890385 -0.044993415 0.07343254 0.07512666
0.06292253 0.011488474 -0.021446584 0.0076331645 -0.059616577 -0.071589686 0.009552284 0.008280867
0.1523627 0.14230977 0.14809039 0.041366387 0.032266684 0.058434628 -0.012571633 -0.0017857614
0.14296903 0.014240187 0.05711821 0.12564865 0.090286344 0.032853827 -0.005069173 0.11013593
0.13234203 0.05162258 0.08242447 0.09481599 0.06864117 -0.008876145 0.10098612 0.055049766
0.13431692 0.11709775 0.07100832 0.1595889 0.08784102 0.05426734 -0.026448354 0.02586308
0.1919792 0.10725063 0.05428453 0.12402178 0.11716108 -0.0248311 0.019217381 -0.09609635
0.17711076 0.08345561 0.095412485 0.13427399 0.07523245 0.057166453 0.0866907 -0.08959989

network_body.observation_encoder.processors.0.conv_layers.0.bias f4 [16]
00000000: f206 1bbd 1a85 3c3d 0e4d 77bd f346 103c
00000010: 49a6 1dbd 089e 3fbd b4c7 78bd 822b 64bc
00000020: 049b ecbc 934e 15bd 39b4 72bb 5cb8 a0bc
00000030: 06f6 1bbd 41aa be3b 5ba2 283d 1b57 fb3c
-0.03784842 0.046025373 -0.06037622 0.008805978 -0.03848866 -0.04678157 -0.060737327 -0.013926389
-0.028882511 -0.036451887 -0.003703369 -0.01961916 -0.038076423 0.0058186357 0.04117046 0.030681184

network_body.observation_encoder.processors.0.conv_layers.2.weight f4 [32, 16, 4, 4]
00000000: c38a c2bd 1b1d 24be 9956 03bb fa2f 073d
00000010: 6f1d b23c 7f04 09be 4924 3b3c 0fc0 563d
00000020: f3ff cabb 9333 ddbc 6505 b33d adab 543a
00000030: 4ba6 b6bc c4b1 7b3d 01d1 f83d 21f1 103c
00000040: 3242 65bb f2a0 b3bc 1f55 903d 8fca 46bd
00000050: c3d9 a23d f2c0 02bd 884f 3a3c e341 9dba
00000060: 42ed 2d3d a230 1fb9 af95 4d3a 9cb2 9e3d
00000070: 00bc fd3d 52b7 2d3d fadf 88bd 750c 153d
00000080: 0b80 73bb 405c dbbc a7ff dc3d 784d b23d
00000090: 9ea1 02bd 0041 9fbd ed6e b33d e638 ca3d
000000a0: 66ed 4dbc d278 983d 316c a53d de66 be3c
000000b0: 985d be3b 2f49 843d 0228 453d 5c25 ef3c
000000c0: 9362 ccbd 5e0f 2e3c 42e4 133e 5bf4 c4bb
000000d0: c772 b93c 0d81 f73b 14aa cb3d 188c da3d
000000e0: 18c0 7bbd bb04 fd3d c965 e13d 29d7 57bd
000000f0: e9d9 fd3c a940 ae3d 10eb 413d 55e8 cc3d
00000100: 05a7 5dbd a84f 983c 04db ef3d 8969 9a3d
00000110: 9707 25bb 9228 5c3c 54aa 993c aa19 853d
00000120: cad9 3e3d 9f96 0ebd b56e 183d 63af 043e
00000130: abdb 9bbd 6dee 3dbc 4fb8 2a3d c7c3 c53d
00000140: 91b5 a0bc 00b2 aabc 6423 8d3d 7a82 a6bd
00000150: bcb6 9dbd 702d 3cbc 3738 b2bc 7a25 283c
00000160: 7f0f ffbd e7cd 8dbd 1a3c 033b e9cb d1bd
00000170: 7d3f 083d edd0 df3d 6f1e df3c 1854 773b
00000180: 4d1f 9a3a 65bb f4ba dcf4 503c 93e7 eb3d
00000190: 88d4 ebbb 6582 2d3c cf54 523c 4985 d93c
000001a0: 8b61 8b3d 023f 8dba 2a4c ba3c 8c30 9f3d
000001b0: b16a 383d 2237 643d 69ca e23d f34a 9d3d
000001c0: c43a 993d b58a 673d 1819 9c3c 1ffc 0e3e
000001d0: 84ac cd3c 78a8 3db9 1598 e33d 893e 023e
000001e0: b18c 803d 5def 8aba e582 d43c 9d4d 4e3e
000001f0: 88e5 abbc 5d69 e43c 252d 46ba 012d adbc
00000200: ee1c b6bc eb7d 3bbb 61f2 f23c caa2 4c3c
00000210: d610 56bd a0a0 ddbd b8a8 283c 8c04 b4bd
00000220: 56e4 3a3c a16c 0e3d bfeb 34bc 22f9 293d
00000230: ab21 e53c 9ce2 eb3b 245f f43d 4a1b 27bc
00000240: fea0 b5bd 000f 8b3d be56 0b3d 3fab b53d
00000250: d852 bbbc b47d e13d 9a09 1b3e 77d6 083e
00000260: 29a6 a43d 68e6 293d 36b7 883d 3343 4e3e
00000270: 581c 813d c9ff 903d 7ac2 a73d c1e3 0c3d
00000280: d9ec 8abc ec0b 38bc bddd bdbc 2936 f03d
00000290: 4eda 873c bf30 2f3c d17f cc3c a16e fb3d
000002a0: 203e efbb e6e4 44bd 7d5c ed3c 4a0e d33d
000002b0: 5fb3 83bd 8d29 853d 8d8d 4c3d 37aa 013e
000002c0: 450f 14be 3783 fdbd 4946 84bc 9686 ab3d
000002d0: e344 4dbd bd66 d0bc 416c 96bd 5c4e 31bd
000002e0: 52c5 723d e94c a33d f8b2 9ebd 406c 66bd
000002f0: 08f3 a83b 4cf3 e1bc e127 c93d 2876 713d
00000300: f441 8abd a39d 21bd 2eef 84bd 5b77 42bd
00000310: 8c8d b9bd 1755 a5bd 1822 063d 0559 163d
00000320: a86c ecbc 5b71 8c3a 535e fe3b 3269 c0bc
00000330: a7b5 9c3d e757 243d 877e 763d 399c fcbc
00000340: b0a0 e1bd 2a4c da3d b62c 7a3d 6ffe 8e3d
00000350: ecd8 95bd 28d3 a73d f070 dc3b 3271 aa3c
00000360: d50c ffbc 094c f73d c5c4 d3bc 22a5 d03d
00000370: 3122 13bd e8e6 173d d1bf 323c cfef ae3b
00000380: 07ab 353b f9e8 24bd af8e e63d 1aa9 013e
00000390: 5b33 b6bc d1a4 683d 91a6 c23d 15a4 a83d
000003a0: 51ef 1d3d bfd7 9a3d f954 d93d cce0 9b3d
000003b0: 4559 f53c 0a8f 3a3d 3e41 bb3c 4ca2 4a3d
000003c0: 171d 83bd 74cb 873c 5c85 81bd e06e e6bc
000003d0: bb51 85bd 7c2e d3bd ca04 dcbc 2755 643c
000003e0: a8d4 00bd ae0c 15ba 0689 ccbb bb43 22bd
000003f0: fdfa 98bc 980b 48bd 55f7 c93c d283 f83b
-0.09499123 -0.16026728 -0.002004063 0.03300474 0.02174255 -0.13380621 0.011422225 0.052429255
-0.0061950623 -0.027002132 0.08741263 0.000811274 -0.022296092 0.061448827 0.12149239 0.008846552
-0.0034982082 -0.02192733 0.070474856 -0.04853302 0.07951691 -0.03192229 0.011371501 -0.0011997785
0.042462595 -0.00015181539 0.0007842434 0.07748911 0.12389374 0.042411156 -0.06683345 0.036388833
-0.0037155177 -0.026777387 0.10790949 0.08706182 -0.03189241 -0.0777607 0.08761392 0.09874134
-0.012568807 0.0744492 0.080772765 0.02324241 0.005809497 0.06459271 0.048133858 0.029192619
-0.09979739 0.010623781 0.14442542 -0.0060105748 0.022637738 0.007553226 0.09944549 0.10671252
-0.06146249 0.12354418 0.11005742 -0.052695427 0.030987697 0.08508427 0.047343314 0.10005251
-0.05411436 0.01859267 0.11711696 0.075396605 -0.0025181526 0.013437407 0.018757977 0.06499036
0.04659442 -0.034811612 0.037214953 0.1295753 -0.07610258 -0.01159249 0.041679677 0.09656482
-0.019617828 -0.02083683 0.06891516 -0.08130355 -0.077008694 -0.0114854425 -0.021755321 0.010262841
-0.124541275 -0.069240384 0.0020024837 -0.10243971 0.033263672 0.10928521 0.027236192 0.0037739333
0.0011758596 -0.001867157 0.0127536915 0.11518779 -0.0071969666 0.0105901705 0.012837603 0.026552813
0.06805714 -0.0010776224 0.022741396 0.077729315 0.045023624 0.05571664 0.11073763 0.07680311
0.07481912 0.056528766 0.019054934 0.13963364 0.025106676 -0.00018087204 0.11112992 0.12719168
0.06276835 -0.00105999 0.025941322 0.20146795 -0.020983472 0.027882272 -0.00075598276 -0.021139624
-0.022230592 -0.0028608989 0.02965659 0.012489984 -0.05226215 -0.108216524 0.010294132 -0.0878993
0.011406979 0.034771565 -0.011042534 0.041497357 0.027970156 0.007198645 0.11932209 -0.010199377
-0.088685974 0.067899704 0.03401827 0.08870553 -0.022866651 0.11010304 0.15140381 0.13363062
0.08039505 0.0414795 0.0667557 0.20142822 0.06304234 0.07080037 0.0819139 0.03439689
-0.01695864 -0.011233311 -0.023177022 0.1172908 0.016583588 0.010692774 0.024963291 0.1227696
-0.007301107 -0.048069857 0.028974766 0.1030546 -0.06430697 0.06502066 0.04993968 0.12662588
-0.1445895 -0.12378543 -0.016146796 0.083752796 -0.050114524 -0.025439614 -0.073448665 -0.04328762
0.05927021 0.07973654 -0.07748979 -0.05625558 0.0051559247 -0.027581833 0.098220594 0.058950573
-0.06750861 -0.039456975 -0.064909324 -0.047477107 -0.09060201 -0.0807287 0.032747358 0.03670599
-0.028860405 0.0010714935 0.007762709 -0.023487661 0.07651835 0.040122893 0.06017926 -0.030836212
-0.11016977 0.106590584 0.061077796 0.06982123 -0.07316765 0.08194572 0.0067273304 0.020805929
-0.031134048 0.120750494 -0.025850663 0.101877466 -0.03592128 0.037085444 0.01090999 0.005338646
0.0027720348 -0.040261243 0.112576835 0.12662163 -0.022241285 0.056797806 0.09504426 0.08234421
0.038558308 0.075606816 0.106119104 0.07611236 0.029949794 0.04554657 0.022858258 0.049471185
-0.06402033 0.016576506 -0.063242644 -0.028129041 -0.065097295 -0.103116006 -0.026857752 0.0139363175
-0.031452805 -0.00056857883 -0.0062419204 -0.039615374 -0.018674368 -0.04883918 0.02465407 0.0075840736

network_body.observation_encoder.processors.0.conv_layers.2.bias f4 [32]
00000000: 0f57 bbbc c3f0 6dbc f68b 4339 1b4b 9cbc
00000010: f889 91bd f71c e33c 20d3 113d 9786 12bc
00000020: 1a4f 973d 5cf1 023d b832 15bd 689b 08bd
00000030: cbdc 243c 6d10 0fbd ea22 ef3c c512 a93d
00000040: 6651 50bd 7a4b 8e3d 5f90 c6bc 1a04 253d
00000050: 7cc3 6e3c 66f5 12bd 1e26 4cbc 48e6 06bd
00000060: 247d 473d a23d f4bb c623 98bd 6d08 9bbd
00000070: 2f72 4c3d cb91 0e3d 3f31 b13d 3d18 6ebc
-0.022868661 -0.014522734 0.00018648789 -0.019078782 -0.071063936 0.027723772 0.035601735 -0.0089432215
0.07388134 0.03196846 -0.036425322 -0.033351332 0.010062407 -0.034927774 0.029191453 0.08255533
-0.050858878 0.0694799 -0.024238763 0.040287115 0.014572974 -0.03587856 -0.01246026 -0.032934457
0.048703328 -0.0074536363 -0.07428698 -0.075699665 0.04991358 0.034807008 0.08651971 -0.014532146

network_body.observation_encoder.processors.0.dense.0.weight f4 [256, 32]
00000000: 20af 2b3e a335 973e fb77 c83d 8fe3 383e
00000010: 48bd 9abe 6278 a1be b6b9 cc3e 802c dcbe
00000020: 240e ed3d 819b c93e 6e4e e83e 150d 833e
00000030: 506b f0be 4ab9 443d 1127 37bd 54b9 933e
00000040: 5989 513d ea69 ecbd a3ad de3d 118f b6be
00000050: 8702 96be 1845 bdbe 3c44 0fbe c3d3 6b3d
00000060: eaf8 da3e 4878 c6bd b603 9dbe 94ea 4f3e
00000070: 5f5f 6f3e f65f 233d 5964 8fbe 6e14 b9bd
00000080: bd90 19be d472 183e 2a32 8dbe fd7a 4dbe
00000090: a31a 38bf 39b5 b63d 6c4b 273e 4976 a33d
000000a0: 5e3c 2ebe c088 123f c4b8 1cbe f083 57be
000000b0: 6d89 f13e ac21 ddbd 0e47 b33e 6364 c43d
000000c0: adf0 633e 74ec af3e 491c c2be 03ee dbbe
000000d0: 084f 8b3d c127 a73e 3eea b33e 89f7 31be
000000e0: 9cb4 e5bd a311 1e3d b7a9 bd3e bc35 703e
000000f0: cbd5 34be 5391 b73d 5a32 143d 777a afbd
00000100: 18fc fb3c 3aa1 cd3e ebc7 db3e 8151 a53d
00000110: 5aea 08bc 0639 41bf b243 783d 31b7 383f
00000120: cd50 213f 75d3 253d 2715 3b3c 3c3b e1be
00000130: 8af9 ffbd 165c 103e 983b 553e e906 d6bd
00000140: f80f 103d 00cc 233e 20d3 7b3e 6c01 db3e
00000150: 3162 8bbe 4be5 83be 1d06 1e3e b7e9 afbc
00000160: bbdb 19be 65d9 053d f0fe 293c 9e73 26bd
00000170: b1cd 64bd ef41 de3c 3c7d 4fbd b2b9 42bc
00000180: 8d49 b43e 87dc 90bd 9829 51be b872 aebe
00000190: 5b88 febe e5c9 083e eb33 82bc 6d28 8e3e
000001a0: b7ff 56be fee6 8e3e b694 d3be 09cf 51bd
000001b0: bd49 2abe 1171 0a3d 64e7 94bc aaab 01bd
000001c0: cc25 91be 9fb3 9e3e 591e 35be e8c6 5a3e
000001d0: 4b55 93bd 00c7 77bc 6a79 e6be d345 2abe
000001e0: 5645 b13c 0c7d ecbe 26c8 f0be abb7 173f
000001f0: 8685 983d c84f ba3e 555a ac3e 5ce1 b23d
00000200: 2ec0 5abe 798a 283f 041a ce3e f3a5 db3e
00000210: 27a9 18bf 5187 02bd 3f7a 03bf 8734 bbbe
00000220: 675b 363e 5a2e 1fbd a56e c4bc af6e 493e
00000230: 4e77 07bd 4efc b43e 2bb4 5b3d a415 463c
00000240: 6dff 323e b753 c83d e8f0 083e b7cd ac3e
00000250: fb66 80be f726 443e e932 50be 6e96 333e
00000260: 7d79 70be 6f3c 273c 4ca8 cdbe 23bc 393f
00000270: c803 093e 882f 333e f565 bcbe 4188 963d
00000280: 6e83 b73d 8cbc 623c c9da 133d 4a85 133e
00000290: 85c4 1cbc 7882 d23e 07c8 9a3e be53 05be
000002a0: 8b7e b63e 946a 673d 027d 1fbc e130 103e
000002b0: c079 853d e544 513e 7e42 d9be 7592 58bd
000002c0: 323d 86be 2815 443e 821b a73e ca3f 003f
000002d0: f0c8 633d f793 0fbe a280 cdbe a57e 80be
000002e0: bfcc 653e aed4 2c3e eb43 87be 6170 80be
000002f0: e5a5 febd 8b4e 1e3e 09c3 203d 99c4 823d
00000300: add5 373e 3653 64bd 0333 003b a8fb 4ebe
00000310: 25e0 3c3c ae1d 83be a2aa 67be 3ea9 d93e
00000320: 7943 8b3e fcd4 463e 8bfc 113e 72f3 8bbe
00000330: 22e6 103e afd3 64be 8f55 bbbe bd8c 5d3e
00000340: 2fae da3c 30bc 60bd 25d7 013b 30ea 3b3e
00000350: 70e8 8b3d 01b7 f63d fbf4 5e3c b11b 2ebe
00000360: c3e1 243e 64e5 03bd a918 a33e bd47 b5be
00000370: 520f fe3e 398b c83d d2b4 923e cbc6 d5bd
00000380: 6ae1 1abe f449 a3be e002 123b 65df de3d
00000390: f8cd 4b3e 74be 023e 9f12 a5be 79b3 a03c
000003a0: 1131 51be f7e0 1ebe 4549 2e3e 7bd1 38bd
000003b0: ece4 24be f693 ba3d 9c14 f13d 74b9 063d
000003c0: 9e8c f43d 09e3 1fbc 8a65 d73e 64a0 7f3e
000003d0: 3b68 0abe 7335 0b3f 649e b2bc fc8c 1b3e
000003e0: 9104 23be 4d95 9fbd bea9 0cbf 6241 8c3e
000003f0: 0818 3a3e 31fe 1fbe 0cf3 abbe 846a 7c3d
0.16766024 0.2953311 0.097885095 0.18055557 -0.30222535 -0.31537157 0.39985436 -0.430027
0.11574963 0.39376453 0.45372337 0.25595918 -0.46956873 0.048028268 -0.04471499 0.28852332
0.051156376 -0.11543639 0.10872962 -0.35656026 -0.29298803 -0.36966777 -0.13990873 0.057575
0.4276803 -0.096909106 -0.30666894 0.20304328 0.23376225 0.039886437 -0.28006247 -0.090371
-0.1499662 0.14887553 -0.27577335 -0.20066448 -0.71915644 0.08921284 0.16337365 0.079815455
-0.17015216 0.57239914 -0.15304857 -0.21046424 0.4717516 -0.10797438 0.35015148 0.0958946
0.2225978 0.34360087 -0.37912205 -0.42955026 0.068021834 0.32647517 0.3513965 -0.17379583
-0.11216089 0.03859104 0.37043545 0.23457998 -0.1765968 0.08963265 0.03618083 -0.0856828
0.030759856 0.4016207 0.42925963 0.08072186 -0.008356655 -0.75477636 0.060611434 0.7215453
0.6301392 0.040484864 0.011418617 -0.43990505 -0.12498768 0.14097628 0.20823514 -0.10450537
0.03517148 0.15995789 0.24592257 0.42774522 -0.27223352 -0.25760874 0.1543202 -0.021473749
-0.15025227 0.032678027 0.010375723 -0.040637605 -0.055860225 0.027131049 -0.050656542 -0.0118850935
0.35212365 -0.07073312 -0.20426023 -0.34071898 -0.49713406 0.13358267 -0.015893897 0.27765217
-0.20995985 0.27910608 -0.41324395 -0.051222835 -0.16629691 0.033799235 -0.018176742 -0.031657852
-0.2834915 0.30996415 -0.17687358 0.21364939 -0.07194003 -0.015123129 -0.45014507 -0.16628198
0.021639507 -0.46189153 -0.470277 0.5926463 0.074473426 0.36388993 0.33662668 0.0873439
-0.21362373 0.6583629 0.40254223 0.42900047 -0.59633106 -0.03186733 -0.5135841 -0.36563513
0.17808305 -0.038862564 -0.02397854 0.19671129 -0.033072762 0.35348743 0.05363862 0.01209012
0.1748025 0.09781592 0.13373148 0.33750698 -0.25078568 0.19155489 -0.2033192 0.17537853
-0.23483844 0.01020728 -0.40167463 0.725527 0.13380349 0.174986 -0.36796537 0.07350207
0.08960615 0.013838898 0.03609732 0.14406314 -0.009568338 0.41115165 0.30230734 -0.13020226
0.3564342 0.056498125 -0.009734394 0.14081146 0.065173626 0.20436437 -0.42433542 -0.052874047
-0.26218563 0.19148695 0.32638174 0.50097334 0.05561155 -0.14021288 -0.40137202 -0.25096622
0.22441386 0.16878006 -0.26419005 -0.25085738 -0.124339856 0.1545965 0.0392485 0.06385154
0.17952605 -0.05574342 0.0019561655 -0.20213187 0.01152805 -0.2560858 -0.22623685 0.42511934
0.27199915 0.19417185 0.14256494 -0.27334172 0.14150289 -0.22346376 -0.36588714 0.21635719
0.026694385 -0.05486697 0.0019812074 0.18351054 0.06831443 0.12046624 0.013608213 -0.17002751
0.16101746 -0.032201186 0.31854752 -0.35406294 0.49621063 0.097921796 0.2865358 -0.104383074
-0.15125051 -0.3189236 0.0022279546 0.10882453 0.1990279 0.12767965 -0.3224077 0.01961683
-0.20428874 -0.15515505 0.17020138 -0.04512165 -0.16102952 0.091102526 0.11771509 0.032891706
0.11940883 -0.009758719 0.42069656 0.24963528 -0.13516323 0.5437843 -0.021804042 0.151905
-0.1591971 -0.07792149 -0.54946506 0.27393633 0.1817323 -0.1562431 -0.33583868 0.06162502

network_body.observation_encoder.processors.0.dense.0.bias f4 [256]
00000000: 5f7a a13c b214 1ebc cc65 10bd 6b68 a93d
00000010: 25fa 333c e42a 973d 2722 643d 35e8 d13c
00000020: bef3 6b39 39d4 a0bc 216b 49bc 1fc0 723d
00000030: 4f34 bb3c cf6d 2a3d ff19 83bd 106e 16bc
00000040: d76d 99bb aebb 933d c8f4 af3c 1f74 853d
00000050: 4e76 3bbc 24ba 0f3c a608 853d 22e5 203c
00000060: da79 19bc d5f3 ea3c 9f7a b13c d90c a03d
00000070: 5134 eb3c b906 40bc 65c7 443c 0c67 a23d
00000080: ac3b 2abd d57d 493d 5827 e03c 19b1 7b3d
00000090: 1037 66bd 596f fc3c 997d 2c3d c6fd 9e3c
000000a0: 9e29 d7bc ce5a 3bba e6e3 b1bc 2a24 593c
000000b0: 3a62 413d a528 8fbc 774d 4e3b 0f7d 653d
000000c0: ac65 583d e6fb bfbc 70d6 5b3d a89c 553d
000000d0: 3313 773d 194c f13c abd4 f03c dd0b 473d
000000e0: 2a81 b7bb d4fe 133d 7bbf 5d3c 4eb0 6f3d
000000f0: ac3c e63c e001 e13c 00bb 3f3d 7e2d febc
00000100: 2bea 9fbd 0311 7a3c f52b 2dbb 3803 6e3d
00000110: ddd9 8f3d ea6b 0ebc c7b3 77bc ffc9 0b3d
00000120: 4cf9 21bd 7b80 513d 2eb6 6f3a 54ab e83c
00000130: 10a8 8c3b ba51 903b 4615 f43c 025b bc3d
00000140: 2b21 9cba a6c0 96bb 04c8 2dbd e731 613d
00000150: 3a2a 0fbd 6558 7e3c 2363 f43c 7c28 273d
00000160: a618 913d 7169 193c 4a99 bd3c 14b8 023b
00000170: 7f7c 343c ede2 1fbc 68e1 0f3a e212 a2bb
00000180: 97b0 af3b df36 06ba 1635 483b 5c7d 283d
00000190: 6510 743d e2cf 3e3d 87c8 883c 36fc 5b3d
000001a0: 89a0 5e3c 6fc9 f1bc 2157 f93c 5f2f 0d3d
000001b0: eb70 853d 6609 81bc 86d6 413d c2bf 70bc
000001c0: 6aea 6d3c 0715 6ebd f01f e23c a585 653c
000001d0: 9b4c 9f37 3982 8c3c a378 d4bb c4ac 413c
000001e0: b088 66bd 1460 573b 4a05 9e3b ed2d 4a3d
000001f0: b970 fa3c 0048 d73b 01d6 88bc 953a e43c
00000200: 1034 0bbb a7df 5b3d c280 053d 265e da3d
00000210: 1d50 b23d a677 e33d d396 833d 9e79 643c
00000220: d3af fd3c 2201 3c3b fd91 f73c e12d 9c3a
00000230: 4f83 fb3b 44ba 583d ec72 6f3d 4353 1cbb
00000240: dd0d 6cbc 3438 323c 88b3 b53d 1c3f 5d3d
00000250: e416 dcbc c627 d33b 9800 2ebc af1d 5fbc
00000260: b0b3 853d 51b1 2f3d 34fa 353d 9691 8c3d
00000270: eba0 af3c 0a8d aabc 9f57 623d ef13 f93c
00000280: e3e9 363d 6857 f83c 06ec a0bc 6b33 92bc
00000290: a0de adbc 0a06 a93c 8649 61bd 2e7c 013d
000002a0: c7bc 8e3c dfc8 fdbc 6af0 213d 8897 2e3c
000002b0: d078 913d 557d 883c 7a94 313d f6dc fe3c
000002c0: ca4f 263c 875a d13c 6cc7 3d3d ce81 5a3d
000002d0: 0576 2f3d 7f99 a9bc 7426 ad3d e002 89bc
000002e0: 900e f3bb 77e1 df3a 89ed 4a3d a2b9 81bc
000002f0: 52ef a73c b555 4a3d 5179 133d 0033 66bd
00000300: ce91 56bb 89b3 c5bb 1988 3abc b3b7 ec3c
00000310: 5366 6f3d 1b90 b03c 021a 3e3d 04e3 4a3a
00000320: 74da af3c c6f3 1c3d c8f9 0b3d ced6 0cbd
00000330: ed67 653d fe2f 7e3c 86fe fe37 5536 593d
00000340: 13cb b93d fb9a 6c3d 1063 623d 57fb 873c
00000350: 1fa1 893c 0b1d 1e3d adac 5b3d cec6 c13d
00000360: e2c7 d73c e575 943c 9658 9d3c 25ba 84bc
00000370: b847 6fbb f568 e33c 2053 8f3d e777 d939
00000380: f65e 673d 9fae 3ebd 6b63 05bd 1be1 55bc
00000390: 2d5f 3cbc d6d5 a23d ac72 31bb 41af 50bd
000003a0: b345 e2ba 1a5e 9438 3533 9b3c e48c 923d
000003b0: 8c67 293d eb66 373d 14be a63d fb3e 283d
000003c0: 26a5 063d cb50 263b 7ed9 d53d 9a2e ff3c
000003d0: 7eab 293c 3e1d 613d 3042 cd3d 13a7 a3bc
000003e0: 887a ca3c 0492 f7bb 1e60 89bb 7b49 ae3d
000003f0: 2766 9dbc 8e77 4b3c d93f 423d 149a 7c3d
0.019711671 -0.009648489 -0.03525333 0.08271869 0.010984932 0.073812276 0.055696633 0.02562342
0.00022502147 -0.019632446 -0.012293608 0.059265252 0.022852091 0.041608628 -0.06401443 -0.009181514
-0.0046822834 0.072135314 0.021479025 0.06516289 -0.01144178 0.008772407 0.0649579 0.0098202545
-0.009367431 0.028680721 0.021664916 0.078149505 0.02871147 -0.011720353 0.01201043 0.07929811
-0.041560814 0.04919227 0.02736251 0.06144819 -0.056204855 0.030814813 0.042111967 0.019408118
-0.026264962 -0.0007147015 -0.021715116 0.013253251 0.047212817 -0.017475436 0.0031479278 0.05602747
0.052831337 -0.023435544 0.0536713 0.052151352 0.060321044 0.029455232 0.029398283 0.048595298
-0.0056001144 0.036131695 0.013534422 0.058517747 0.028105102 0.027466714 0.046809196 -0.031027552
-0.07808336 0.015262845 -0.0026423906 0.05810854 0.07023976 -0.008692721 -0.015118546 0.034128185
-0.03954439 0.05114792 0.00091442734 0.028402008 0.0042924955 0.004404274 0.0297953 0.09197046
-0.001191174 -0.004600602 -0.042427078 0.05497923 -0.03495238 0.015524005 0.029832428 0.040810093
0.070847794 0.009363518 0.023144383 0.0019946145 0.01101601 -0.009758693 0.0005488605 -0.0049460987
0.0053616273 -0.0005119871 0.003054922 0.041135177 0.059585948 0.04658497 0.016697181 0.053707324
0.013588079 -0.029514996 0.030437054 0.034469005 0.06515678 -0.015751552 0.047323726 -0.014694156
0.014521221 -0.058125522 0.02760312 0.014008914 1.898995e-05 0.017151939 -0.0064841076 0.011820976
-0.0562827 0.0032863664 0.004822408 0.049360204 0.030571328 0.0065698624 -0.016703608 0.027859965
-0.0021240748 0.05368009 0.032593496 0.10662489 0.08706687 0.111068055 0.06425252 0.013945011
0.030967629 0.0028687199 0.03022098 0.0011915528 0.0076755653 0.05291201 0.058459207 -0.0023853339
-0.014407602 0.010877658 0.088721335 0.054015264 -0.026866384 0.0064439503 -0.010620259 -0.013617917
0.06528413 0.04289371 0.044428065 0.06863706 0.021439036 -0.020819206 0.055259343 0.030405013
0.044656646 0.030315116 -0.019643795 -0.017846784 -0.02122432 0.020632762 -0.055001758 0.031612568
0.017424 -0.030979572 0.039535917 0.010656245 0.07103121 0.016661325 0.04335449 0.031111222
0.010150859 0.025555862 0.04633276 0.053346448 0.04283716 -0.020703075 0.084546 -0.016725004
-0.0074175075 0.0017080744 0.049542937 -0.015835587 0.020499859 0.049398143 0.03600437 -0.05620098
-0.0032740715 -0.006033365 -0.011384987 0.028896188 0.058447193 0.02155309 0.04641152 0.00077395164
0.021466471 0.038318418 0.034173757 -0.03438454 0.056007314 0.015514372 3.0397681e-05 0.05303033
0.090719365 0.05776499 0.055270255 0.01659934 0.016800461 0.038601916 0.053631473 0.09461747
0.026340429 0.018122623 0.01920728 -0.016202042 -0.0036511254 0.027760008 0.06998277 0.000414788
0.056487046 -0.04655325 -0.032565515 -0.013054158 -0.011497301 0.07950942 -0.0027076406 -0.050948385
-0.0017263204 7.074718e-05 0.018945316 0.07155779 0.041358516 0.044775885 0.08141723 0.041075688
0.03287234 0.0025377746 0.10441874 0.031150151 0.010355828 0.05495953 0.1002239 -0.019977128
0.02471663 -0.007555248 -0.0041923663 0.08510109 -0.01921375 0.012418641 0.04742417 0.061670378

network_body._body_endoder.seq_layers.0.weight f4 [256, 266]
00000000: 2775 0f3b ca97 17bd 76ad 4c3c e644 febd
00000010: 1cce f93c 78d4 3ebe 53ce a8bd c3e9 28bd
00000020: e25c b5bd 7632 123e 02a2 e03d b2d6 66bd
00000030: a9e2 0fbe c2ac da3d 1b57 b0bd 40fd c03c
00000040: ae6b 24be 8905 9c3c 9519 f7bc fada 89bd
00000050: 3f63 75bd e1c8 05bd ef55 9cbd d62d e23b
00000060: faa1 a0bc 375c 6f3d 6be2 7fbb 49fd be3b
00000070: e585 ce3c 6ba6 15bd e445 70bd c00c c63d
00000080: 24a4 c1bc 3b82 173e c878 563c 7571 ee3d
00000090: 9b62 c83d 2a92 e03d 0941 3bbd ef98 dcbc
000000a0: cccf 20bd 8742 cb3c 41b3 4abd b8be 2bbe
000000b0: 5ec8 173b b2da 71bd 43a9 243d f58b 883d
000000c0: 65e1 ffbc 3716 8b3c aea8 fcbd 79a7 17bd
000000d0: 1efc 943d 3e02 1fbe e2cd 483d 85f8 15bd
000000e0: 4c44 8bbb aa92 5fbd 6c34 043c e371 8a3c
000000f0: 08e5 edbd afc6 4c3d 8238 1cbd 76a9 dd3c
00000100: 3e93 c33d 7d43 e33d a319 273d 386a 73be
00000110: 5722 24be ef52 98bc 42d1 863d f91c 1fbe
00000120: e80b 1ebe 8fb7 a9bc 63a6 833d b331 93bd
00000130: d6c9 d93d 3b7a 993d ed1d 9cbd 207e e6bd
00000140: e19e 183e 793b 56bd c61e 293e eb3a de3b
00000150: b00a 60bc 827b 4abc 05e1 523d ca76 fe3b
00000160: 77a2 aabc c9ae a3bd 4a5f 723d 1581 1abd
00000170: 40ab 3d3e b71b c2bc a5aa 5a3d a303 913b
00000180: 7247 67bd 46da a2bc b6b8 9dbc b6e9 44bd
00000190: 82dc bf3d 5689 013d fed5 223d 0269 38be
000001a0: dc24 543d 46d2 7fbd acf8 203e c156 afbd
000001b0: e7a5 7ebd 68a2 cf3b 525f df3d 60b4 ec3d
000001c0: 3e4a e03d cd01 00bc 5cca b43d c265 a03d
000001d0: 135f 9f3d 0952 7abc c050 0e3c 50e7 61bd
000001e0: bf73 8abd 84cd 593c e723 6abd 38ed 0abe
000001f0: 0590 323d 91fe 603d cfa5 1d3e bb74 553b
00000200: 8d66 5e3d d758 a5be ffbe 323a 8d82 e33d
00000210: b94b d9bc 035e 3bbd f086 043e 88fd 83bc
00000220: 48a7 8cbb d6f3 b6bd 49c4 8bbd 7a29 223e
00000230: 1bf5 b23c 9a9d fbbd 3246 83be b680 453d
00000240: 02e2 3dbe 7b7f 21bd 309d d03d 212a d8bd
00000250: e09d ff3d 59ab 5ebd 05a4 48bc 6037 aa3c
00000260: cd4f 9dbd 5a2b 433d 8d4c 1abd 21dc e0bd
00000270: f6c4 4d3b 573e 843c cb09 58bd 2c19 0dbe
00000280: ab60 fe3c 8076 1abd 670f 2ebe 98ea 06be
00000290: 84f1 2bbc 8c60 ba3c 963d 9d3d cbd5 bcbd
000002a0: ac50 f8bd e893 0a3e 830d 42bd 8060 f9bd
000002b0: f719 06be f448 8c3c f9c9 fbbc f193 47bd
000002c0: 9309 2dbe c127 26bd 5422 89bd cec2 88bc
000002d0: ae4f edbd 592f 003c fc32 a73d a4b0 aabc
000002e0: 9a0c d93a 47bc 9e3d 0890 4e3d 9408 ea3d
000002f0: e8da 50be 8965 5abd eae8 2bbd b237 6cbd
00000300: cfb6 8bbc c270 47bd 7abe 803d 152c bebd
00000310: 67b2 24be ae20 883d 2aae 273d 81a7 353d
00000320: ef8d 093d 4af1 32bd 176f 70bc c207 93bc
00000330: 0113 8dbd 7859 5cbd 7948 723b 4d1f 40be
00000340: e0b7 62be 367f f43c 1420 acbd 32e5 2fbe
00000350: 052c 323c b29f 46be 091a 923c 18d0 343e
00000360: 00a0 d9bd 9836 cabc 7a10 e63d cb9d 04bd
00000370: cb29 9d3c c024 893d 5073 843a 55cd 2ebd
00000380: 173a b2bd c332 01ba 4d35 d8bc e70d cfbc
00000390: 7ee2 95bd 056d 6a3d ca09 073d 9ca0 0dbb
000003a0: 502e 8cbd 37e6 783d fb79 dbbd f7f0 943b
000003b0: 1a8c 2d3e f1c7 5e3d 7152 70bd a81c 123e
000003c0: 602f bebc 073c 7abd 8397 3f3d a9cc bdbd
000003d0: a553 11bc 14bc 06be 5121 08be d6c7 86bd
000003e0: a6b4 db3c 0a03 be3d 416b 393c ec63 82bc
000003f0: ceab 343d 500d 4d3c 1ac7 2dbe 6580 c7bd
0.0021889897 -0.03700999 0.012492528 -0.12415485 0.030493788 -0.18635738 -0.08242478 -0.041238558
-0.088556066 0.14277062 0.109684005 -0.056357093 -0.14051308 0.10677482 -0.08610364 0.023558259
-0.16056702 0.019045608 -0.030163566 -0.067312196 -0.0599091 -0.032662276 -0.07633578 0.0069024367
-0.019608486 0.058437552 -0.0039044868 0.005828534 0.02521033 -0.03653566 -0.058660403 0.096704006
-0.023637839 0.14795773 0.01309032 0.11642734 0.097844325 0.109653786 -0.04571632 -0.026928393
-0.03926067 0.024811996 -0.049487356 -0.16771972 0.00231602 -0.059046455 0.040200483 0.0666732
-0.031235406 0.016978366 -0.123368606 -0.03702495 0.0727465 -0.15528199 0.04902447 -0.03661396
-0.004250085 -0.05458323 0.008069139 0.016900009 -0.1161595 0.049994167 -0.038139828 0.027058344
0.095495686 0.11096857 0.040795933 -0.23770988 -0.16028725 -0.018594233 0.065828815 -0.15538396
-0.1543423 -0.02071741 0.0642822 -0.07187214 0.106342 0.07494017 -0.076228954 -0.11254525
0.14904357 -0.05230281 0.16515645 0.006781926 -0.013674423 -0.012358548 0.051484127 0.0077656256
-0.020829422 -0.07992322 0.059172906 -0.03772076 0.18522358 -0.023694856 0.053385396 0.0044254824
-0.05646462 -0.019879472 -0.019253116 -0.048074447 0.093682304 0.031625114 0.03975486 -0.18008807
0.051792964 -0.06245639 0.15719861 -0.08561469 -0.062169936 0.006336499 0.10906853 0.11557841
0.109516606 -0.007812929 0.088276595 0.07831909 0.07781806 -0.015278348 0.0086862445 -0.055152237
-0.06760358 0.013293628 -0.057163145 -0.13567054 0.04359438 0.054930273 0.15395282 0.0032570797
0.05429702 -0.32294342 0.0006818622 0.11108885 -0.026525365 -0.045743953 0.129421 -0.016112104
-0.0042924024 -0.08933227 -0.06824548 0.15836135 0.021845391 -0.122859195 -0.25639492 0.04821845
-0.18543246 -0.039428215 0.10186231 -0.105549105 0.12481284 -0.05436263 -0.012246137 0.020778358
-0.076812364 0.047648765 -0.03767066 -0.10979486 0.0031397915 0.016143007 -0.052743714 -0.13779134
0.031051954 -0.037710667 -0.16998063 -0.13175428 -0.0104945935 0.022751115 0.07677762 -0.09220465
-0.12124762 0.13532984 -0.047376167 -0.12176609 -0.13095842 0.01712463 -0.030735957 -0.048725072
-0.16898184 -0.040565256 -0.06696001 -0.016694453 -0.11587463 0.007823789 0.081640214 -0.020836182
0.0016559542 0.07750755 0.050430328 0.114274174 -0.20396006 -0.053319488 -0.04197017 -0.057670303
-0.017054943 -0.04869152 0.062863305 -0.09285752 -0.1608368 0.06646858 0.04093758 0.044349197
0.033582624 -0.043687142 -0.014674923 -0.017948035 -0.0688839 -0.05379626 0.0036969467 -0.1876194
-0.22140455 0.029845815 -0.08404556 -0.17177275 0.010874753 -0.19396856 0.01783468 0.17657506
-0.10626221 -0.024684235 0.112336114 -0.032377046 0.019184968 0.06696463 0.0010105167 -0.04267629
-0.08702486 -0.00049285236 -0.026392603 -0.025275184 -0.073185906 0.057232875 0.03296832 -0.0021610623
-0.06844771 0.060766425 -0.10716625 0.004545327 0.16947976 0.054389898 -0.058672372 0.14268744
-0.02321595 -0.061092403 0.046775352 -0.092675515 -0.00887004 -0.13157684 -0.13293959 -0.065810844
0.026819538 0.092779234 0.011317075 -0.015916787 0.04410916 0.012515381 -0.16970482 -0.09741286

network_body._body_endoder.seq_layers.0.bias f4 [256]
00000000: eeb7 d7bc ac6c e93b b903 58bc 7a0c 233d
00000010: 556f 993c 81b6 073a 0bd4 2abc a480 773b
00000020: 2be6 37bc 82ca 18bd f69a 3dbd 3b1c ff3c
00000030: c6b8 253c 93dd 54ba 46d7 38bc 7f7a 563c
00000040: 1e49 b4ba 0719 7dbc 4e1e 8bbc f57e 533c
00000050: 3cbb 6d3c 9b05 73bb dff7 0e3c 11be ca3c
00000060: 297b 223d 0bfb 1b3c c827 09bc 07f3 233d
00000070: b670 98bc f44e ac3c 1c32 573c af26 e93b
00000080: a4cb 0c3b 7c37 d7bb d1ab 523c f0a0 29bc
00000090: d0b3 85bc 5b07 1ebd 7cb5 283c 73f8 0b3b
000000a0: 832b e13c 6259 fa3c 87ff 1dbd 6aaf dd3c
000000b0: f105 9cbc 5225 29bc a793 9cbc ded2 dbbc
000000c0: 1da7 d8ba 51b4 a8b9 0f9c ce3c d113 6bbc
000000d0: 0f78 043b fec3 7c3c 7010 223b 1069 54bc
000000e0: 5093 d53b 7e05 963c 2cbf 0b3c f5ba c6bc
000000f0: e3ed cabb 7d69 5dbc 8787 25bc 95e9 d43b
00000100: 64ec 00bc a0bf c4ba 77af 36bb 879a 0c3c
00000110: 23a6 a9bc ccd5 8b3c 2e9f 7f3c f501 6b3b
00000120: 1d46 053c 28ea d1bb c6cc ca3b aaef 3e3d
00000130: c8b3 b5bc c32d bf3b a27a 61bc d437 81bb
00000140: e896 0cbd 46e7 cebc 63bb 803c 331a c9bc
00000150: f07e 6b3b d02e fdbb f699 123d 175b 54bc
00000160: eebd ac3c e167 923c 9cd5 c1bc 3664 49bc
00000170: f4ec bbbc c889 853a a332 2abd ae19 23b8
00000180: 219a 533c d144 113c 1dd6 1bbd fab2 373d
00000190: 8342 3abc 6f31 e0bc 92f8 a23c 15b3 9a3c
000001a0: 5352 8fbc 66f9 c5bc cc92 5ebb 6ad5 acbc
000001b0: 8999 203c 4a9e 973c e3c0 aebc 3c5d 79bc
000001c0: 599a aabc ba4f 0a3c 4316 12bd acb1 393d
000001d0: 5b29 fa3c 06dc 503c 35ca 2cbd d42e b939
000001e0: b2e2 adbc 28a1 7e3c 129a e1bc f8cc d6bc
000001f0: 8e8a 3e3c 51fe a83c 861f dabc dbb1 de3c
00000200: 44f9 89bc 5547 b43c 6ab1 75bc b02e 66bc
00000210: d6d0 083c 4a05 0c3c 6bd7 6a3d 4155 723c
00000220: 3f58 2e3c 3db3 f53c 6341 d8bc 0e73 46bd
00000230: 4a18 4d3b fc4b 463b 2369 67bc f86d 5c3c
00000240: 3ed2 fb3c 0262 15bd 8278 9c3c 61f8 30bc
00000250: 159c eb3c 4dfc ed3c 910c e33c 02fa 813c
00000260: 12d8 5a3b d69a 083c 6516 85bc 75a2 5abc
00000270: f73d 053c 850d 5a3c 5c20 b23c 1339 853c
00000280: 177d 99bc 38df 74bb 05ec 763c 3149 5cbc
00000290: cb89 aebb 5b73 643c 5570 46bd 39f6 ebb8
000002a0: aa47 e03c 89b6 783c 1942 1f3c c757 82bc
000002b0: 36b2 b83c 7eee 8eba d4d2 d7bc 07cd 7aba
000002c0: 430f b4bc 229d 153d 5f3a 0abd 673a 84bc
000002d0: 3f2c 053d 20b1 833c 1edb 683b 1853 9b3c
000002e0: e940 1cbb b025 f23c 55a3 e7bc 2050 553d
000002f0: df3d a63c cc89 b83c 9568 8ebc 72e4 07b8
00000300: 9d9c a83c 7b9e 93bc 8c66 53bc 6e05 a8b9
00000310: f973 35bd 70c5 493d 7cae 553c e5e5 173d
00000320: 6ce0 663c 8255 543d a66f c73c 46df 043d
00000330: f30b 16bd c2d0 4f3d c054 9ebc 780e a6bb
00000340: b455 f13c 0fbb 983c 6f41 bebc ccfb aa3a
00000350: 97c2 223c f8d0 94bc 794d efbc e51c 2fbd
00000360: 23f5 bc3c 60c4 e3bb 393e ddbc 8ff4 d4ba
00000370: 13c2 63bc 48a6 a73b a326 2e3c a148 0b3c
00000380: 73c1 00bc e75f 8abc 9a31 17bd 0046 263b
00000390: 9c77 ffbb 7604 d33c 3d03 193c 0a2d b1bc
000003a0: 827a 76bb b224 93ba 3d9a 3a3a 1af8 18ba
000003b0: 631b a8ba 9f3f e63c b10d 31bc 2bc5 483c
000003c0: 1ea3 033d 2ae3 8b3c e145 423c be6b f03b
000003d0: 90f6 c53b 2c65 0abc e8cb 75bd de5a 2f3d
000003e0: 815e 203c 12d2 983c 4b87 513c e14c 543c
000003f0: 027d 50bd 0fb9 dcbc a5dd b2bb 6474 c93c
-0.026332822 0.0071235504 -0.013184481 0.03980682 0.018729845 0.00051770365 -0.010426532 0.0037765885
-0.01122431 -0.0373025 -0.04629036 0.031141391 0.010114854 -0.00081201753 -0.011281794 0.013090729
-0.0013754701 -0.0154478615 -0.016982224 0.012908687 0.014509972 -0.0037082199 0.008726089 0.024748834
0.039668236 0.0095203025 -0.008371301 0.04002669 -0.018608432 0.021033742 0.013134506 0.007115207
0.0021483684 -0.0065678935 0.012858347 -0.010353312 -0.016321093 -0.038581233 0.0102971755 0.0021357804
0.027486568 0.0305602 -0.038573768 0.027061183 -0.019045802 -0.010323839 -0.019113375 -0.026833948
-0.0016529296 -0.00032177803 0.025220899 -0.014347986 0.0020213162 0.015427588 0.0024729036 -0.012964502
0.006517805 0.018313166 0.008529466 -0.02425907 -0.006192909 -0.01351392 -0.010103113 0.0064975717
-0.00786886 -0.0015010722 -0.0027875581 0.008581764 -0.020709103 0.01706972 0.015601916 0.003585932
0.008134392 -0.0064060874 0.0061889617 0.04661528 -0.022180453 0.0058343126 -0.013762148 -0.003943423
-0.034323603 -0.025256764 0.015714353 -0.024548626 0.0035933815 -0.0077265278 0.03579136 -0.012961171
0.02108666 0.017871799 -0.023661427 -0.012291959 -0.022940136 0.0010188157 -0.041552197 -3.8886144e-05
0.012915165 0.008866505 -0.03804599 0.04484842 -0.011368397 -0.027367322 0.019893918 0.018884221
-0.01749531 -0.024166774 -0.003396201 -0.021097858 0.009802231 0.018508095 -0.02133221 -0.015219983
-0.020825552 0.00844186 -0.03566576 0.045335457 0.030537298 0.01274777 -0.042185027 0.0003532084
-0.02122626 0.015541352 -0.027539287 -0.026220784 0.011629714 0.02062908 -0.02662636 0.027184417
-0.016842492 0.02200667 -0.014995912 -0.014049217 0.008350572 0.008546183 0.057334345 0.014790834
0.010641157 0.029992694 -0.026398366 -0.04844957 0.0031294995 0.0030257693 -0.014124188 0.013453953
0.0307399 -0.03647042 0.019100431 -0.010801406 0.02876095 0.02905097 0.027715953 0.015866283
0.0033392948 0.008337697 -0.01624603 -0.013344397 0.008132449 0.013308887 0.021743946 0.016262567
-0.018736405 -0.0037364494 0.01507092 -0.013445185 -0.005326485 0.0139435185 -0.048446972 -0.00011251536
0.027377922 0.0151802385 0.009720349 -0.015910996 0.022545915 -0.0010904816 -0.026345648 -0.00095672946
-0.021979934 0.036526807 -0.033747073 -0.01614113 0.0325129 0.01607567 0.0035530995 0.01896052
-0.00238424 0.029558986 -0.028276125 0.052078366 0.020293174 0.022526644 -0.017383853 -3.2399264e-05
0.020582492 -0.018019905 -0.012902867 -0.00032047502 -0.044300053 0.049260557 0.013042089 0.03708448
0.014091592 0.05183936 0.02434523 0.032439493 -0.03663249 0.050736196 -0.019327521 -0.005067643
0.029459812 0.018643884 -0.02322456 0.0013045012 0.009934089 -0.01816605 -0.029211747 -0.042752165
0.023066109 -0.0069509 -0.02700721 -0.00162472 -0.013901251 0.005116258 0.010629329 0.008501203
-0.007858622 -0.016891433 -0.036912538 0.0025371313 -0.007796241 0.025758963 0.009339151 -0.021627922
-0.0037609641 -0.0011226146 0.000711832 -0.000583531 -0.0012825545 0.028106509 -0.010806487 0.01225404
0.032137983 0.017076094 0.011857481 0.0073370626 0.0060413554 -0.008446973 -0.060008913 0.042811267
0.0097881565 0.018654857 0.012788604 0.0129577825 -0.050900467 -0.026943712 -0.005458551 0.024591632

network_body._body_endoder.seq_layers.2.weight f4 [256, 256]
00000000: 2fe0 79bd 27ed 983d b3eb 9fbd b41c adbc
00000010: 204b 13be 944c 92bd e948 453d 5a7b 92bd
00000020: 144d bdbd 582d cdbd ba9a fbbd ad98 7abd
00000030: eb29 29be 2247 e53d c632 bebb 4930 77bd
00000040: d11c 073e ac11 37be 488b 9fbd 6285 823d
00000050: 28d2 b3bc 068b d23c e6a7 ae3c af61 93bd
00000060: cbc7 873d 2a5d 0e3e 82e5 20bd f19a 87bc
00000070: daf7 a53d 01bd 3c3b 5b4b 30bd 1c88 04bd
00000080: 753d 89bb 5ae9 3ebc 48f4 9fba 7518 febc
00000090: aa47 3ebc c0d0 97bd 941e bb3c 9d20 1f3d
000000a0: c18b c43d 4184 063e e474 c2bd 6864 66bc
000000b0: dccc 27be e3e2 e53d 06ea 59bd 07b1 fbbd
000000c0: 4e07 983d 368f 753d 7585 37bc 58e4 adbb
000000d0: 054b 80b9 8e88 9abd 98e8 5dbe 969e 02be
000000e0: ae94 93bd fd46 273e 905b 45bd 8742 9fbd
000000f0: 0f1b c3bd 54a2 a43c 41f8 48bd d50c 1dbe
00000100: ddf4 b83d c664 163d 3ddd b5bc b5ca 99bd
00000110: 8f74 83bd 1a9a ccbd 5353 8dbd b33e edbc
00000120: 01d4 21be cf21 63bd c75c dd3c afe3 b3bc
00000130: b748 453e 31ab a03d b980 233c 103c ab3c
00000140: fa93 dbbc 9450 883c 5aad 6f3d c7a2 0f3d
00000150: fbc9 003e 1947 2fbd fd5f 133d 6b90 3b3d
00000160: a7bc bcbd 5e80 8dbd caee b73c 4363 66bc
00000170: 248b c3bd 42a8 7abc 4af7 b8bc b790 683d
00000180: 27cf b23d ac5e 15bc 3814 91ba ea96 263c
00000190: 7ffa 13bd 6a0c bc3d d07d 963d 61ba f13d
000001a0: 32cb 0dbd c849 e13d 5935 1dbd ffb6 03be
000001b0: 8b6c 81bc 35df 003e baa7 9fbd bb9e a63d
000001c0: 5efd 13be f5f0 91bb f74f b43c 7940 37bd
000001d0: 60cc 723d 1371 aa3c 1e4c 55bd 324c 18bd
000001e0: 3bbe 453d c824 363d d44e 8c3c 7671 22be
000001f0: 40e5 d3bd 0ddb eebb a812 14be 8f4c fe3d
00000200: 8073 46bd a7ac ccbc 873f f43c 1967 5abe
00000210: 9b87 bebd 646a 863d 605a c9bb ca89 1f3d
00000220: 415c b63d 9f36 b33d 20a6 aabc 4b85 4bbb
00000230: 03ce 96bb 7148 763d 208f 53bd 3799 b63b
00000240: 9302 2ebd 2558 613d c72c 073d e583 e43a
00000250: 75a5 8abd 71af 6d3d 0b8a d5bb c5f0 f2bb
00000260: 7df2 7e3c c652 14be 47aa 41bd 79bd 803d
00000270: f5d1 9fbd 42c3 0a3e aa04 1dbd 324d f93b
00000280: f16d 88bd def0 903b 92a4 c9bc d5e2 6fbd
00000290: 7dba 4e3d 68b9 f33d 7257 c7bc b0b8 8c3d
000002a0: 15ee 22be 7b39 6cbd 56b2 c13d da2c 7cbd
000002b0: 10fc e73d b22a 00bc f4f8 563c 2e4f bdbc
000002c0: f201 173d eedb a1bd 8363 2ebd 9c3a 813d
000002d0: 630d cd3d b852 f8bd 364a 90bc 7dc8 cd3d
000002e0: 8a79 843b 02de 1a3d 273c fbbc b9cf 803d
000002f0: 4d6a c93d 470b f13d ae68 653d b2ce aebd
00000300: a83a 38be 6a1f 7fbb b2c0 9b3c 9dbb 853d
00000310: 9bdb aebc 92f2 c1ba b94d 06bd 2428 38bd
00000320: 4be0 b1bd f2ac 81bc e2fd bc3d be27 c43d
00000330: 91b0 9abd e30b 463d f17c 923c 6758 d43b
00000340: 0f4f 0a3d c910 7e3d 6b49 013d b058 00be
00000350: 0465 8cbd da8a c53d a85b 1f3d 9cab d7bd
00000360: 51d4 c7bc ab89 c1bd a790 523c f9e3 81bd
00000370: f728 5abd 2780 8f3d 19f3 fa3d 457e ac3d
00000380: d0fd bdbd 0259 d23b 8502 34bc 5d33 953d
00000390: 422f 2d3e 1e44 483e b101 a43d 84fe 6d3d
000003a0: fd3b 25bd ea67 cd3d f178 0f3e 5586 5fbd
000003b0: f135 0bbe 430c a3bd d1c8 e93d 3ed5 fdbc
000003c0: 1f83 103e b884 59bd 40e9 4d3e bced 783c
000003d0: 8519 893c f9f7 74bc 13bc 8c3d a989 51bd
000003e0: 6bd9 28bc 67c5 04be 3406 e53d 76a2 1fbb
000003f0: 7f0d 063e 477f 4dbd 35c2 d5bd ac2c 113c
-0.061004814 0.07467108 -0.07808628 -0.02113185 -0.14384127 -0.07143512 0.048165236 -0.07152434
-0.09243217 -0.10018414 -0.12285371 -0.06118076 -0.16519897 0.11195208 -0.0058043925 -0.060348783
0.13194586 -0.17877835 -0.07790238 0.06373097 -0.021950796 0.025701057 0.021320295 -0.07196366
0.06629904 0.13902727 -0.039281376 -0.016553374 0.081039146 0.0028799179 -0.043040615 -0.032356367
-0.0041882345 -0.011652315 -0.0012203539 -0.031017521 -0.011613766 -0.07412863 0.02284173 0.03884946
0.095969684 0.13136388 -0.09494951 -0.014062025 -0.16386741 0.11224916 -0.053201698 -0.12289625
0.07423268 0.05995103 -0.011201252 -0.0053067617 -0.00024469956 -0.07545577 -0.21670759 -0.12755808
-0.07206093 0.16335674 -0.048183024 -0.07776361 -0.095266454 0.020096935 -0.04906488 -0.15336926
0.09031079 0.0367172 -0.022200221 -0.075093664 -0.06418716 -0.0999033 -0.069006585 -0.028960561
-0.1580353 -0.055452164 0.027021779 -0.021959154 0.1926602 0.07845152 0.00997942 0.020902663
-0.02680396 0.016639985 0.05851493 0.035067346 0.1257705 -0.042792413 0.035980213 0.045792025
-0.0921567 -0.0690925 0.02245273 -0.014061752 -0.09548023 -0.015298905 -0.022578854 0.056778636
0.087309174 -0.00911681 -0.0011068648 0.010167817 -0.036127564 0.09182055 0.073482156 0.11803127
-0.03461761 0.11000401 -0.038380954 -0.12862776 -0.015798828 0.12585147 -0.07795663 0.08135744
-0.1445212 -0.004453773 0.022010786 -0.04473922 0.05927694 0.020805871 -0.052074544 -0.03718204
0.04827712 0.04446867 0.017127432 -0.15863594 -0.1034646 -0.0072892965 -0.14460242 0.12416946
-0.048449993 -0.02498467 0.029815448 -0.21328391 -0.093032084 0.06563261 -0.0061448067 0.038949765
0.08904315 0.087506525 -0.020831168 -0.003105479 -0.004602195 0.06012768 -0.051650167 0.005572464
-0.042482924 0.0550157 0.033001687 0.0017434327 -0.0676984 0.058028642 -0.0065167 -0.007413956
0.015560743 -0.144847 -0.04728153 0.06286139 -0.07803718 0.13551047 -0.038334526 0.0076080794
-0.06661595 0.004423245 -0.024614606 -0.058565933 0.050470818 0.11900598 -0.02433369 0.06871164
-0.15911134 -0.057672005 0.09457843 -0.06156621 0.11327374 -0.007822679 0.0131208785 -0.023109045
0.03686709 -0.079032764 -0.04257537 0.06310007 0.10012319 -0.12125152 -0.017613512 0.10048006
0.004042809 0.03780938 -0.030668331 0.0628962 0.098347284 0.11769729 0.056008033 -0.08535518
-0.17991126 -0.0038928636 0.019012783 0.06529925 -0.02134495 -0.0014797023 -0.032788966 -0.044960156
-0.086853586 -0.015829537 0.09228112 0.09577893 -0.075532086 0.04835118 0.017881842 0.006480265
0.033766802 0.062027726 0.031564157 -0.12533832 -0.06855205 0.096456245 0.03890577 -0.10530779
-0.024393233 -0.09450086 0.012851871 -0.063423105 -0.053261723 0.07006865 0.122533984 0.084225215
-0.092769265 0.006419302 -0.010986929 0.072851874 0.16912559 0.19557235 0.08008135 0.058104053
-0.040340412 0.10029586 0.14010979 -0.05457147 -0.13594796 -0.07961323 0.11415256 -0.03098547
0.14112519 -0.053105086 0.20108509 0.015193399 0.016735801 -0.014951699 0.0687181 -0.051156674
-0.010305743 -0.12965928 0.11182824 -0.002435831 0.13091086 -0.05017021 -0.10437433 0.008860748
