results/PushBlockCollab_POCA_Curiosity/PushBlockCollab/PushBlockCollab-5999962.onnx (onnx, 643240 bytes, 12 tensors)

network_body.observation_encoder.processors.0.conv_layers.0.weight f4 [16, 6, 8, 8]
000000 53 52 98 bb c6 4f 26 bd 3c 27 0a bc 23 ee cb bd
       -0.0046484857 -0.04060342 -0.008432206 -0.0995753
000010 38 04 5e bd fb 21 0f be fd fd 14 bd 3a 90 36 3d
       -0.054203242 -0.13977806 -0.036375035 0.04457114
000020 d6 2f 94 3d 96 35 84 3d 09 3a a1 bc 88 35 81 bd
       0.072356865 0.06455533 -0.019680994 -0.063090384
000030 f0 19 cc bd f9 9f b4 bd 48 20 01 3c c4 c3 de 3d
       -0.09965885 -0.08819575 0.007881232 0.10877183
000040 be 15 87 b8 6e 0f 9d 3c ac 2f 9f bd 38 eb ad bd
       -6.4413514e-05 0.019172397 -0.077727646 -0.0849213
000050 fb b6 26 3d 1c fa 60 bd 38 8c 84 3d 33 c3 50 3d
       0.040701848 -0.054926023 0.06472057 0.050967406
000060 0c 4e 54 3d 1e 96 93 bd 7e 87 2d bd f0 69 35 bd
       0.051832244 -0.07206367 -0.042365544 -0.044290483
000070 76 3f c8 3c 54 8f 26 bd c4 93 dd 3c f9 70 b9 3d
       0.024444323 -0.040664032 0.027048 0.09054751
000080 c1 e6 9d bc 95 1c 88 bb b4 ff b5 bd 2c 22 25 bc
       -0.019275071 -0.004153798 -0.08886662 -0.010078948
000090 7b f5 4f bc 15 7f 43 bd 22 2a e3 3c ff 9a cb bc
       -0.012692804 -0.047728617 0.027730051 -0.024854181
0000a0 58 7a 86 3b 02 e2 97 bc 8d fd 90 3d 61 b8 17 3d
       0.00410394 -0.018540386 0.07079611 0.03704107
0000b0 77 26 a0 bd 15 c1 03 bc bd 85 55 ba 98 d3 7f 3d
       -0.078198366 -0.00804164 -0.0008145234 0.06245765
0000c0 3e f5 91 3c fb 95 a3 3d 68 0d 8c 3d df 04 91 3d
       0.017817136 0.07987591 0.068384945 0.07081007
0000d0 ed a0 8c bd 80 2e 68 3d 6b 0b 9c bc 8a 1c 7d 3b
       -0.06866632 0.05668497 -0.019048413 0.0038621747
0000e0 4c a2 1f 3c da 33 05 3d 8c 11 0e 3d 1d 0f f0 3c
       0.009743284 0.032520153 0.034684703 0.029304082
0000f0 2f 0e b3 bd a9 0a fc bd bc 5b 2a bd 22 25 80 bd
       -0.0874294 -0.12306721 -0.04159139 -0.062570825
000100 f8 87 85 bc da 6f 06 3e 79 9f 10 3d 8b 9a 7c 3d
       -0.016300187 0.13128605 0.035308335 0.06167082
000110 14 5c ae bc b6 99 26 bc ae 3a 6c 3c 93 8f 67 3d
       -0.02128414 -0.0101684835 0.014418287 0.056533407
000120 64 0f 87 3c d0 57 01 3d e1 ca 3a 3d ca a0 95 3d
       0.016486831 0.031577885 0.045603637 0.07306059
000130 c2 12 0f bd 12 6a 15 3d 2b 20 07 3b ae a4 ce 3d
       -0.03493 0.03647811 0.002061854 0.10090004
000140 7b c2 7a bd 65 31 b1 bc 52 00 db 3c 2b 22 58 3d
       -0.061220627 -0.021629998 0.026733551 0.05276696
000150 ec 38 08 3d 13 d5 c8 3c 3b 44 c6 3d bf 04 64 3d
       0.03325741 0.024515664 0.09680983 0.05566859
000160 77 5d 88 bb 2a a7 8e 3d c2 1f 9f 3d 55 2c 0d 3d
       -0.0041615325 0.06965478 0.07769729 0.034466106
000170 4f 7a 6f bc 7b 02 25 3d 37 b5 2d bb 28 73 d5 bd
       -0.014616563 0.04028557 -0.0026505718 -0.10422355
000180 7e 3c 7f 3c 92 e1 94 3d 2a 1d d8 3d 71 25 26 3c
       0.015578387 0.072695866 0.105524376 0.010140763
000190 51 87 40 bc 71 68 15 bd 0a 60 39 3d ec e7 15 3d
       -0.011751012 -0.036476556 0.045257606 0.03659813
0001a0 7a ae 8f 3d 84 8a 03 bc 6d d4 df 3b a0 b9 75 bd
       0.07015701 -0.00802863 0.006830743 -0.05999148
0001b0 11 2d c6 bd 8d 33 89 bd ba e3 b1 3c 4d 2f f3 3c
       -0.096765645 -0.06699286 0.021715034 0.02968564
0001c0 d6 79 f9 bc f1 f0 27 3e f9 33 fa 3d 7c e1 2f 3d
       -0.030453604 0.16400506 0.12216944 0.042939648
0001d0 45 67 b2 bc 1d b3 1b bd 47 12 79 3d 8c 50 c0 3d
       -0.021777758 -0.038012613 0.060808446 0.09390363
0001e0 21 f5 bb 3b 76 c2 f3 bb 22 21 3b 3d 54 ca 3e 3c
       0.0057360088 -0.007438953 0.045685895 0.0116449185
0001f0 a4 f8 b9 3d 18 ac 02 3d 3a 02 b5 3d 2e 13 f2 3d
       0.090806276 0.031902403 0.08838315 0.118200645
000200 6a 4b 62 bc 22 b1 2e 3c 44 b5 32 3c 7b dd da 3c
       -0.013811925 0.010662349 0.010907475 0.026716938
000210 7e b8 fc 3c bc 09 89 bc 06 8b 36 3c 5d 4d ec 3b
       0.030849691 -0.016728275 0.011141544 0.007211371
000220 46 ef 57 bd fc fe 96 bb 21 b5 83 3d 6b fc a9 3c
       -0.052718423 -0.004608033 0.06431032 0.020750245
000230 0a 74 8a 3d d7 e9 29 3d 6c 60 40 bd 23 fc d6 bc
       0.06760414 0.041482773 -0.046966955 -0.026243275
000240 f6 04 49 bd 5f 2c 99 3d f1 1c db 3d 8e d3 93 3d
       -0.049076997 0.07479166 0.106988795 0.07218085
000250 05 bd 67 3c 16 27 30 3c 4b 10 45 3d a8 86 84 bc
       0.014144187 0.010751506 0.04811124 -0.01617749
000260 a7 10 e5 3c 1a 95 04 3d c9 2e e6 3c c3 1e aa 3d
       0.027962042 0.032368757 0.02809848 0.083066486
000270 17 1c 59 3d 8d bf 23 3d ac 38 f3 3a cb fa 28 bd
       0.053005304 0.0399776 0.0018556318 -0.0412548
000280 9c 12 41 3d 6b ba e7 3b 66 44 ad 3c 6d 9d b6 3c
       0.047136888 0.0070717833 0.021150779 0.022291863
000290 99 c2 9f 3d f2 68 8b 3d 45 9c 10 3d ae fa d7 3b
       0.078007884 0.06807126 0.03530528 0.0065911626
0002a0 e3 42 7b bb 62 c0 ca bc ba 23 3b 3d ef 74 61 bd
       -0.0038339428 -0.024749938 0.04568837 -0.055043157
0002b0 87 d7 a0 bc 60 50 61 3d 15 22 02 bd af 97 20 3c
       -0.019634021 0.055008292 -0.031770784 0.009801789
0002c0 9f 08 0b 3c f4 97 ab bd e1 0e 6b bd 0d c5 3d 3d
       0.008485942 -0.08378592 -0.057387237 0.0463305
0002d0 97 af 39 3c 17 f8 87 3b 2c 82 0a bd 5b fe e9 3b
       0.011333368 0.0041494477 -0.033815548 0.0071409172
0002e0 2c 3d e3 bc 5b c1 0e bd 49 55 31 3d 81 ba 93 bc
       -0.02773913 -0.034852367 0.043294225 -0.018033268
0002f0 c3 a8 bb bc 47 a1 4c 3d 12 d3 a2 bc 55 4e a3 3d
       -0.02290762 0.049958494 -0.019876037 0.07973925
000300 f6 ab 0e be 7b 0a 19 bd 6e a3 89 3c 08 d4 e6 bc
       -0.13932785 -0.03736351 0.016801562 -0.028177276
000310 0b c0 05 be c7 17 2b bd 70 76 97 3d c4 c3 a8 3d
       -0.1306154 -0.041770723 0.07395637 0.08240464
000320 7f 4d 7d 3d 5a 09 56 3c 1a 58 cc bc 14 af 5d bb
       0.061841484 0.013063753 -0.024944354 -0.0033826279
000330 b1 aa 54 bd 6e 45 71 bd f9 31 ca 3c 29 46 00 bc
       -0.051920597 -0.058904104 0.024682032 -0.0078292275
000340 25 41 1b 3e de 41 06 3e c6 32 e6 3d c4 ba 47 3c
       0.1516157 0.13111064 0.11240153 0.0121905245
000350 1e 56 ba 3c b2 54 95 3d ed 49 cb bb dc a8 1e 3b
       0.022746142 0.07291545 -0.006203881 0.0024209535
000360 ca 74 0c 3e 4c 96 0a bc 46 7f 3d 3d 4b 2a c9 3d
       0.13716426 -0.008458685 0.046263956 0.0982252
000370 12 06 a3 3d d3 f9 b6 3c df eb 1c bb 43 08 a1 3d
       0.07960142 0.022335922 -0.00239443 0.07862904
000380 c8 62 fe 3d 7b dc 88 3d e2 70 9e 3d 50 9a b4 3d
       0.12421185 0.06682678 0.077363744 0.08818495
000390 d7 75 6e 3d ea 12 85 ba 35 3a a6 3d 4a 43 e7 3c
       0.05821785 -0.0010152732 0.08116571 0.028230328
0003a0 5a d5 02 3e b9 23 f9 3d db 33 9a 3d 5e e5 0e 3e
       0.127767 0.12165017 0.07529422 0.13954684
0003b0 71 3c b4 3d e5 4e 59 3d 2a 35 00 bd 8c 4e 07 3c
       0.08800591 0.053053755 -0.0313007 0.008258473
0003c0 2b e4 51 3e 3c aa e2 3d 40 93 69 3d 49 24 09 3e
       0.20497195 0.11067626 0.057025194 0.13392748
0003d0 85 9d e1 3d 67 da 9e bc c2 d6 84 3c a3 cc a5 bd
       0.110163726 -0.019391252 0.016215686 -0.08095672
0003e0 ee a0 42 3e a1 17 b7 3d ea 36 d4 3d b8 e2 21 3e
       0.19006702 0.08940054 0.103620365 0.15809143
0003f0 b2 21 c9 3d 9a 2b 54 3d 07 a8 cc 3d da 61 92 bd
       0.0982088 0.051799394 0.09992986 -0.0714757

network_body.observation_encoder.processors.0.conv_layers.0.bias f4 [16]
000000 80 a3 db bc cc 58 03 3d 82 2a 64 bd 49 00 56 3c
       -0.026811361 0.032067105 -0.0557046 0.013061591
000010 c3 ba ff bc 27 e7 26 bd c9 a4 5b bd 72 5f 9b bb
       -0.031216985 -0.040747788 -0.05362395 -0.0047416026
000020 25 b1 e6 bc 6a bb 17 bd 26 c0 f0 bb ca a4 69 bc
       -0.028160641 -0.037043966 -0.0073471246 -0.01426048
000030 d5 5d 24 bd 63 1d 88 bb df 87 21 3d f7 68 09 3d
       -0.040128548 -0.004153894 0.039436217 0.033547368

network_body.observation_encoder.processors.0.conv_layers.2.weight f4 [32, 16, 4, 4]
000000 5a 7f 95 bd 16 b6 25 be 9d 14 24 3c 18 e9 fa 3c
       -0.07299681 -0.16182742 0.01001468 0.030628726
000010 2a 67 b8 3c a7 00 0f be a7 fa 30 3c 49 26 7c 3d
       0.02251013 -0.13965093 0.010801948 0.06155995
000020 2e d0 5e bc 32 92 18 bd 6c af b6 3d e2 f1 4d 3c
       -0.013599439 -0.037248798 0.08920178 0.012569876
000030 50 00 89 bc 45 91 79 3d 6c 72 08 3e ea 28 01 3d
       -0.016723782 0.060929555 0.13324898 0.03153316
000040 87 d2 5b bc e9 72 e0 bc b0 85 a7 3d 59 ca 63 bd
       -0.013416893 -0.027398543 0.08179796 -0.055612896
000050 68 43 db 3d ea 38 81 bc 28 02 30 3c c4 fe e5 bc
       0.10706216 -0.015774209 0.010742702 -0.028075583
000060 6b d5 53 3d df 50 b0 3c ce 0e fe 3c e9 72 3d 3d
       0.051717203 0.021522937 0.031012919 0.046252165
000070 8c 6a 08 3e f2 41 81 3d 62 ea 93 bd ae fc fa 3c
       0.13321894 0.06311406 -0.07222439 0.030638065
000080 c7 96 b2 bc d5 68 4f bc 96 a6 bb 3d dd 1d a4 3d
       -0.021800412 -0.012659271 0.09162633 0.080135085
000090 48 86 c7 bc 00 d3 8b bd e4 ba 94 3d bb 24 ab 3d
       -0.024356022 -0.068273544 0.07262209 0.08356615
0000a0 5f ca db 3a 41 dd ae 3d 3d b7 8c 3d 9f 4a 85 3c
       0.0016768685 0.085382946 0.068708874 0.016270934
0000b0 29 aa 1d 3c 5f 44 99 3d 7a e1 38 3d 9b 77 a6 3c
       0.009623089 0.07483744 0.045136906 0.020320704
0000c0 b6 92 c3 bd ea fe 9f 3c 79 a7 09 3e fc 46 d0 bc
       -0.09549467 0.019530732 0.13442792 -0.025424473
0000d0 56 50 e3 3c 14 7f 1d 3b 19 97 a6 3d 72 e6 9d 3d
       0.027748268 0.0024032043 0.08134288 0.077099696
0000e0 45 91 4b bd 6d db fd 3d 9b 03 d3 3d e1 d4 6a bd
       -0.049699087 0.12395368 0.10303422 -0.057331923
0000f0 20 d2 d2 3c 43 9e cf 3d 8d 1b b1 3c c4 64 dd 3d
       0.025734961 0.10137608 0.021619583 0.10810235
000100 c1 72 2f bd c5 16 ca 3c ca 86 10 3e 2e 58 57 3d
       -0.042834047 0.02466906 0.14113918 0.05257433
000110 be 4b 80 bc 0c 91 ee 3c 90 40 f9 3c 33 c0 04 3d
       -0.015661117 0.029121898 0.030426294 0.032409858
000120 85 54 73 3d f6 fa 62 bc 9c c4 55 3d 27 85 ca 3d
       0.059406776 -0.013853779 0.052189454 0.09888678
000130 49 e3 55 bd e4 28 26 3c af 16 80 3d 07 9b 97 3d
       -0.05221871 0.010141585 0.062543266 0.07402616
000140 90 33 33 bc 04 c1 3a bc 56 86 8d 3d 7f 8a 8d bd
       -0.010937586 -0.011398558 0.06910388 -0.06911182
000150 c2 51 90 bd 0b 65 2e bc ee a1 20 bc 46 4c 48 3c
       -0.07046844 -0.010644208 -0.009804232 0.012225216
000160 78 d3 e9 bd 42 ba 68 bd fd e6 c4 ba 27 02 bc bd
       -0.114172876 -0.056818254 -0.0015022453 -0.09180098
000170 d6 97 1e 3d eb a8 ea 3d ca 8f 01 3d d7 c2 96 3c
       0.03871902 0.11458 0.03163127 0.018403454
000180 6e 6b 2d 3c b7 4b fe ba a4 38 cf 3c 3c 55 cd 3d
       0.010584695 -0.0019401227 0.025295563 0.10026023
000190 73 50 e2 3a 53 be f6 3c 0e 5f 90 3c 0b 98 7c bb
       0.0017266407 0.03012005 0.01762345 -0.0038542773
0001a0 c0 d0 b0 3d 89 b0 e1 bb 8b de 29 3d ff 7c 42 3d
       0.08633566 -0.0068874997 0.041472 0.047482487
0001b0 b1 ab 42 3d 31 2d 89 3d 75 57 97 3d 3d 86 8f 3d
       0.04752702 0.06698073 0.07389728 0.07008026
0001c0 e8 b7 b3 3d 67 54 50 3d ff 45 05 3d 5d f9 05 3e
       0.08775312 0.050861742 0.032537457 0.13083406
0001d0 05 a3 1b 3d 0d e0 af 3c 19 ea f0 3d ed ab bb 3d
       0.037997264 0.02146914 0.117634006 0.091636516
0001e0 81 74 9b 3d 03 8c 00 3b 7d dd 12 3d 7c 55 1d 3e
       0.07590581 0.0019614703 0.03585576 0.15364641
0001f0 3a 2c 47 bc 75 53 0f 3d 6b 9c 27 3c e1 9a 00 bd
       -0.0121565405 0.0349917 0.010230164 -0.031397704
000200 bc 19 93 bc af ae 2d 3b cd 64 f3 3c bd aa 9d 3c
       -0.017956607 0.0026501825 0.029711151 0.019246453
000210 34 79 1f bd ce 0d da bd d1 ca 81 3c 44 3b ba bd
       -0.038933948 -0.10647164 0.01584378 -0.09093335
000220 fd 20 a9 3c 3d d2 12 3d b1 d4 25 bb 57 66 65 3d
       0.020645613 0.03584503 -0.0025303776 0.056005802
000230 33 64 ca 3c 5e ab b5 3c 5a 93 fc 3d 38 19 c0 bc
       0.024705982 0.02217644 0.123327926 -0.023449525
000240 b4 cf 9d bd 52 b9 4c 3d dc df 6e 3d ca 94 a3 3d
       -0.07705632 0.049981423 0.058318958 0.07987364
000250 25 0a 75 3a 15 57 01 3e a2 2f 21 3e b0 ae e2 3d
       0.000934752 0.12630875 0.15740827 0.11068475
000260 ad d5 cc 3d e9 85 7f 3d e9 83 90 3d 26 c7 18 3e
       0.10001693 0.062383566 0.0705641 0.14919719
000270 c8 47 5e 3d a4 e0 b4 3d 60 7f 98 3d 08 f6 0b 3d
       0.054267675 0.08831909 0.0744617 0.03417018
000280 7c 3c 90 bc 37 d8 b1 bc cd c5 29 bc 05 40 f6 3d
       -0.017606966 -0.021709545 -0.010362101 0.120239295
000290 89 48 e1 3c 55 c2 39 3c 3c df 74 3c e7 16 e0 3d
       0.027500408 0.011337836 0.014945801 0.10941868
0002a0 40 38 e0 3b 21 e3 8b bc 40 70 f9 3c 3c 9f 97 3d
       0.006842643 -0.017076077 0.030449033 0.074034184
0002b0 19 36 34 bd b4 de 80 3d 1d f7 1c 3d ec a8 ee 3d
       -0.043996904 0.06292477 0.038321603 0.11653313
0002c0 10 97 0d be 4f 35 bf bd 08 b1 50 bc e5 94 aa 3d
       -0.13827157 -0.0933634 -0.01273752 0.08329181
0002d0 3e 0c 22 bd 1a a0 49 bc 6f e9 7c bd a0 e3 2b bd
       -0.039562456 -0.012306238 -0.061746057 -0.041965127
0002e0 28 bf 8a 3d 49 6b b0 3d 92 78 a2 bd 0b ef 6f bd
       0.067747414 0.08614213 -0.07933153 -0.05857758
0002f0 b7 3f 64 3c ed f6 e9 bc 19 ff 8d 3d 11 90 72 3d
       0.013931206 -0.028560126 0.06933422 0.059219424
000300 63 fa 86 bd df 4b bc bc d7 53 78 bd c0 48 23 bd
       -0.06590726 -0.022985397 -0.06062683 -0.0398643
000310 76 12 af bd ba 58 92 bd 14 f1 29 3d 6c 9f 15 3d
       -0.08548443 -0.071458295 0.041489676 0.03652899
000320 08 34 a2 bc 43 bc 6a ba 3b 93 9a 3c c0 45 17 bc
       -0.019800201 -0.0008954445 0.018869033 -0.009232938
000330 a7 10 9f 3d eb eb 28 3d d8 64 8e 3d 9f 2d a6 bc
       0.07766848 0.041240614 0.06952828 -0.020285426
000340 f2 42 c3 bd 0c ac b5 3d 59 f5 89 3d 36 d5 d3 3d
       -0.09534253 0.08870706 0.067362495 0.10343401
000350 ec 8f 90 bd 3b 4b bf 3d b8 72 73 3c 2a c6 c3 3a
       -0.07058701 0.09340521 0.014858894 0.0014936377
000360 94 30 9e bc 4a 3b c0 3d 6a 9a bd bb a7 8a b4 3d
       -0.019310273 0.093863085 -0.00578623 0.08815508
000370 2c 43 20 bd 31 ea 31 3d 56 52 c1 3c 96 81 84 3c
       -0.03912656 0.043436233 0.023598831 0.016175073
000380 b2 83 00 bc 68 74 35 bd 64 a2 d3 3d fa bf d9 3d
       -0.007843899 -0.044300467 0.10333708 0.1063232
000390 5b d8 89 bc 01 94 91 3d 63 a3 8d 3d b3 28 ad 3d
       -0.0168268 0.07108308 0.06915929 0.084550284
0003a0 25 81 18 3d b7 2b 91 3d f4 fb ca 3d 68 79 54 3d
       0.037232537 0.07088416 0.099113375 0.051873595
0003b0 3e a2 a8 3c d7 ac 4c 3d c5 d5 36 3c 37 2e 69 3d
       0.020585176 0.04996952 0.011159365 0.05692884
0003c0 ba b5 87 bd 87 a0 29 3c 86 00 92 bd 31 3f d6 bc
       -0.066264585 0.010353214 -0.07129006 -0.026153179
0003d0 63 9b 93 bd cc 45 c7 bd ea 58 a5 bc af f7 c0 3c
       -0.07207372 -0.097301096 -0.020184 0.023555605
0003e0 f2 e7 93 bc 8f 26 35 3b 14 ad 1a 3c 99 7a 27 bd
       -0.018054936 0.002764139 0.009440679 -0.040888403
0003f0 f1 61 2c bc 79 49 ef bc ac 24 1d 3d 9c 92 03 3d
       -0.010521398 -0.02920984 0.03836505 0.03212224

network_body.observation_encoder.processors.0.conv_layers.2.bias f4 [32]
000000 df 10 94 bc 78 f0 54 bc a3 10 84 39 04 e0 ff bb
       -0.018074451 -0.012996785 0.00025189397 -0.007808687
000010 a3 2d 89 bd 74 5e f5 3c ce 6f 24 3d 68 13 57 bc
       -0.06698158 0.029952265 0.040145688 -0.013127185
000020 df 4f a1 3d 08 62 00 3d c2 4e 04 bd 6a 11 34 bd
       0.07876562 0.03134349 -0.03230167 -0.04396192
000030 fb 26 cc bb 12 f9 0b bd ec ee dc 3c 24 51 aa 3d
       -0.006230233 -0.03417308 0.026969396 0.083162576
000040 ef a6 53 bd d6 e2 89 3d 93 c2 06 bd 6c 05 3f 3d
       -0.051672872 0.06732719 -0.032900404 0.04663603
000050 ab 55 6b 3c 01 f5 03 bd 0a 6f 38 bc 6e 4d 0e bd
       0.014363687 -0.032216076 -0.0112569425 -0.03474181
000060 5d aa 44 3d 55 84 ae bb 89 74 9c bd 36 f5 a0 bd
       0.048014034 -0.005325834 -0.07639415 -0.0785927
000070 65 e3 60 3d b2 39 ff 3c 5c 18 99 3d 98 55 49 bc
       0.05490436 0.031155441 0.07475349 -0.012288474

network_body.observation_encoder.processors.0.dense.0.weight f4 [256, 32]
000000 ff e1 2b 3e c5 70 95 3e be bd bf 3d a0 c2 2f 3e
       0.1678543 0.291876 0.09362362 0.17164087
000010 75 f6 a9 be 33 83 a3 be 81 cf cb 3e 19 45 d5 be
       -0.33195844 -0.31936035 0.3980675 -0.4165428
000020 03 26 de 3d e2 60 c7 3e c6 0c e6 3e 86 92 7c 3e
       0.10847094 0.38941103 0.4493162 0.2466527
000030 e9 ec e4 be a7 30 33 3d 47 b1 63 bd 8c 7a 96 3e
       -0.44711998 0.04374757 -0.055588987 0.2939037
000040 a4 71 56 3d 6e 34 fe bd b6 17 e2 3d 36 09 c0 be
       0.05235447 -0.12412344 0.11039679 -0.37507027
000050 62 ce 97 be 26 e5 b8 be a3 2b 10 be fd f0 59 3d
       -0.29649645 -0.36112326 -0.14079146 0.05320834
000060 80 d1 d8 3e c3 7c ce bd 63 0c 9c be 9e ab 4b 3e
       0.42347336 -0.1008239 -0.304782 0.19889686
000070 82 70 6d 3e 1a da 0c 3d b6 58 96 be 66 46 c7 bd
       0.2318745 0.034387685 -0.29364556 -0.09730224
000080 0f 82 16 be 3b 36 1b 3e 2d fe 8d be 00 0a 5c be
       -0.14698051 0.15157406 -0.27732983 -0.2148819
000090 ad 24 36 bf 05 8f a8 3d fe 78 21 3e d3 6a af 3d
       -0.7114971 0.08230404 0.15768811 0.08565297
0000a0 cd 77 2f be 04 c1 12 3f 90 5f 24 be 48 45 44 be
       -0.17135544 0.5732577 -0.16052079 -0.19167054
0000b0 49 84 ef 3e 85 bd da bd ac 62 b4 3e bc eb af 3d
       0.46780613 -0.10680679 0.3523153 0.08589885
0000c0 54 31 71 3e 89 0f ac 3e 8e 6f be be a9 73 dd be
       0.23553973 0.33605602 -0.37194484 -0.43252304
0000d0 bf 98 96 3d 9b f3 a0 3e 00 3c bb 3e d9 f0 33 be
       0.07353353 0.31435856 0.36569214 -0.17572345
0000e0 ae 74 e0 bd 6d b4 41 3d d7 0d be 3e 38 b1 7d 3e
       -0.10959755 0.047291208 0.37119934 0.24774635
0000f0 f2 ee 37 be 06 29 b9 3d a6 80 40 3d ce 45 bd bd
       -0.17962244 0.09041028 0.04699769 -0.0924183
000100 d0 d5 0c 3d 15 26 ca 3e 52 1f dd 3e 76 f8 86 3d
       0.034383595 0.3948218 0.43187958 0.06590359
000110 fd 92 2a bc 79 a3 3e bf 25 1c 91 3d f9 21 38 3f
       -0.010411021 -0.7446819 0.07085446 0.7192684
000120 2f 8e 22 3f 40 22 15 3d 8b 70 91 3c 7f 20 e0 be
       0.63498205 0.036409616 0.01775386 -0.43774793
000130 35 3c fb bd dd a5 13 3e 99 9d 57 3e 62 de c2 bd
       -0.12267343 0.1441874 0.21056212 -0.095150724
000140 c5 75 14 3d 60 f6 2a 3e ec 9e 6f 3e cb a5 da 3e
       0.036245126 0.16695547 0.23400468 0.42704615
000150 8d 3a 87 be 35 ea 86 be 1e 0a 21 3e e4 2f a0 bc
       -0.26411858 -0.2635056 0.15726516 -0.019554086
000160 ad bc 2a be 07 08 26 3d c9 d7 1a 3c fe 2e 2e bd
       -0.16673537 0.040535 0.009450861 -0.042525284
000170 45 3c 70 bd a3 08 d2 3c 60 b7 88 bd 74 6a f9 bb
       -0.058651228 0.025638884 -0.06675601 -0.007611567
000180 2f 47 ab 3e 35 60 99 bd a3 25 69 be a2 36 aa be
       0.33452746 -0.07489053 -0.22768264 -0.33244807
000190 7f 88 03 bf cc a3 0e 3e 5a 9d fa bc d6 cb 8f 3e
       -0.5138015 0.13929671 -0.03059261 0.28085202
0001a0 5a ab 4e be be 40 8e 3e bd c6 cf be b3 95 11 bd
       -0.20182553 0.2778377 -0.40581313 -0.035543155
0001b0 db bd 1e be 12 61 af 3c a1 bc 9e bc f5 cd 16 bd
       -0.15502112 0.021408591 -0.019377055 -0.03681751
0001c0 c7 7d 97 be 95 9b 9d 3e c2 b4 31 be 01 a2 55 3e
       -0.29588148 0.30782762 -0.1735411 0.20862581
0001d0 10 7d b6 bd 9b a4 ce bc 5b 64 ec be 59 ef 3b be
       -0.089105725 -0.025224974 -0.46170315 -0.18353023
0001e0 bb 44 83 3c ed 64 e6 be f6 41 ee be 78 ed 14 3f
       0.016023984 -0.44998875 -0.465347 0.5817485
0001f0 00 08 8b 3d 4a e2 b4 3e 88 ee a1 3e fe 63 a1 3d
       0.06788635 0.35328895 0.31627297 0.078804
000200 5d ad 50 be ee 72 25 3f 39 12 cf 3e d2 28 de 3e
       -0.20378633 0.64628494 0.4044359 0.43390518
000210 88 2e 16 bf 89 19 12 bd 79 bd 03 bf 83 29 bf be
       -0.5866475 -0.035668883 -0.5146099 -0.37336358
000220 db e3 35 3e ce 64 53 bd 2f 04 e9 bc 51 23 46 3e
       0.17762701 -0.051609807 -0.028444378 0.1934941
000230 81 b2 26 bd 2e 96 b7 3e ca d8 56 3d 83 9b 09 3c
       -0.04069758 0.35856766 0.05245284 0.008398893
000240 b6 4a 34 3e 82 de c5 3d e9 21 ff 3d fd 5e ae 3e
       0.17606625 0.096615806 0.1245764 0.34056845
000250 78 f3 75 be 1c fb 44 3e 29 fd 4c be 47 c8 3b 3e
       -0.24018657 0.19236416 -0.20018448 0.18338118
000260 77 83 77 be 8f fe 60 3c c8 18 cb be 78 9e 39 3f
       -0.24171244 0.0137325665 -0.39667344 0.7250743
000270 13 1d 07 3e 50 bd 33 3e 28 9f bc be 95 f8 9d 3d
       0.13194685 0.17552686 -0.36840177 0.07713429
000280 93 38 a7 3d 33 8f e5 3b 44 73 00 3d 76 18 04 3e
       0.081650876 0.007005596 0.031359926 0.12899956
000290 95 1e f0 bc ec 7a d2 3e fa e5 9d 3e 43 7e 01 be
       -0.029311458 0.41109407 0.3083952 -0.12645821
0002a0 b1 0c b5 3e 76 76 5c 3d 3e 3a 1e bc 50 0b 15 3e
       0.35361245 0.05382391 -0.009657441 0.14555097
0002b0 8d 76 a4 3d de 2e 4c 3e 7f bd dc be ac b2 3c bd
       0.08030424 0.19939753 -0.43113324 -0.046068832
0002c0 bc ce 87 be e1 cd 3f 3e 72 b2 a7 3e 1a 1d fd 3e
       -0.26524913 0.1873088 0.3275333 0.49436265
0002d0 96 53 55 3d 3a e8 15 be 3a 2a cf be b8 6e 82 be
       0.052081667 -0.14639369 -0.40461904 -0.25475097
0002e0 0e bc 52 3e 51 9d 33 3e c7 f2 86 be 65 a8 83 be
       0.2057955 0.1754048 -0.263571 -0.25714412
0002f0 07 e5 02 be 64 45 19 3e 96 a9 95 3c 83 04 75 3d
       -0.1278268 0.14967877 0.018269341 0.059818756
000300 41 8c 2d 3e d0 72 74 bd 83 ad 47 3b b3 84 5e be
       0.16948034 -0.059679806 0.0030468411 -0.21730308
000310 bb d6 a9 3c 28 c2 82 be 3e 15 68 be 7d e3 da 3e
       0.020732274 -0.25538754 -0.22664353 0.42751685
000320 8f 8b 8c 3e 11 22 43 3e cd 48 13 3e 68 d4 8b be
       0.27450225 0.19055964 0.1438324 -0.2731049
000330 f6 3f 16 3e 9c d7 64 be 95 a9 bc be 57 fa 5b 3e
       0.14672837 -0.22347873 -0.3684813 0.21482216
000340 14 2a 11 3d 4f 79 77 bd 5e e2 b0 3c f9 3b 33 3e
       0.03544052 -0.060418423 0.021592315 0.17503347
000350 70 16 87 3d fb dd d3 3d b8 66 5f 3c ec b2 31 be
       0.065960765 0.10345074 0.01363533 -0.1735341
000360 dc a9 16 3e cc 72 c7 bc 08 ad a3 3e 10 73 b7 be
       0.14713234 -0.024346732 0.3196795 -0.35829973
000370 c4 b5 fd 3e ff 3a bf 3d 97 78 8d 3e 29 f6 d5 bd
       0.4955274 0.093374245 0.27631065 -0.10447342
000380 90 b1 12 be 44 ee 9f be 32 1b 17 3c 31 e7 ee 3d
       -0.14325547 -0.3123647 0.009222792 0.1166519
000390 58 3c 5c 3e 90 ba 07 3e f9 57 a1 be 95 dd 95 3b
       0.21507394 0.13254762 -0.3151243 0.004573534
0003a0 1f d2 51 be 1f a8 2c be ae b8 2c 3e 4f d0 44 bd
       -0.20490311 -0.16861008 0.16867325 -0.04805022
0003b0 c1 58 34 be d3 5f c3 3d 75 7a f6 3d ce 82 0e 3d
       -0.17611982 0.095397614 0.120350756 0.034792714
0003c0 29 53 ea 3d 60 09 74 bb 11 8b d1 3e 8e f5 84 3e
       0.11441643 -0.0037237033 0.40926412 0.25968593
0003d0 8c 53 06 be b7 af 09 3f f4 c6 db bc e9 6b 23 3e
       -0.13117808 0.53783745 -0.026828267 0.15959133
0003e0 7c 4b 29 be af 8d ac bd 17 a9 0c bf e9 4a 8c 3e
       -0.16532701 -0.084254615 -0.5494551 0.27400902
0003f0 71 54 39 3e 01 b8 1c be a1 fd a3 be 55 92 85 3d
       0.18098618 -0.15304567 -0.3202944 0.06522051

network_body.observation_encoder.processors.0.dense.0.bias f4 [256]
000000 0c 80 a4 3c a0 68 74 bc 62 47 e7 bc 92 3d 9f 3d
       0.020080589 -0.014917523 -0.02823228 0.077754155
000010 5f 32 45 3c 9d 47 99 3d ba d7 5e 3d ef 5c c4 3c
       0.012035935 0.07484362 0.05440495 0.023970095
000020 cb 76 18 bb 5d 02 e1 bc 6c f4 9a bb 79 78 71 3d
       -0.0023264166 -0.027466947 -0.0047288444 0.058952782
000030 6c 20 db 3c 10 e5 ee 3c 98 66 46 bd 6c 63 04 bc
       0.026748858 0.02916196 -0.048437685 -0.008080345
000040 a2 12 83 3a d1 4d 8c 3d 4d 63 b5 3c b1 e5 67 3d
       0.001000006 0.0685078 0.022142077 0.056615535
000050 3d 83 78 bc 4c 63 36 3b 5e 2a 84 3d 26 53 d5 3b
       -0.015168008 0.0027830182 0.064533934 0.006510156
000060 99 c5 1a bc 97 b8 f2 3c 49 fc ef 3c cb c9 96 3d
       -0.009446525 0.029629035 0.029295104 0.07362708
000070 f3 56 ec 3c 47 e1 73 bc e7 01 d0 3b 50 13 98 3d
       0.028850054 -0.014885253 0.006347883 0.074255586
000080 5a 30 14 bd 4e 7f 32 3d 37 7c f8 3c f8 6c 7d 3d
       -0.036178924 0.04357844 0.030332668 0.0618715
000090 f0 c4 1b bd bc c7 0e 3d f4 b8 18 3d 43 ec e9 3b
       -0.03802961 0.03485845 0.03728576 0.0071387603
0000a0 da c4 ed bc d9 bf e7 3b fa 6c bb bc e6 96 6e 3c
       -0.02902453 0.0070724306 -0.022879113 0.014562344
0000b0 71 a3 37 3d 58 50 8e bc 3a a7 01 3c 67 08 39 3d
       0.044833604 -0.017372295 0.007913405 0.04517403
0000c0 dd 2f 54 3d bf 31 6d bc be 8d 70 3d 1d 13 87 3d
       0.05180346 -0.014477192 0.058728926 0.065954424
0000d0 6c 79 68 3d 11 85 04 3d 6e 0a a0 3c c6 a0 5c 3d
       0.056756422 0.032353465 0.019536223 0.053864263
0000e0 aa 89 00 bc 8c 5a 42 3d 76 8b 9f 3c 13 24 6e 3d
       -0.007845322 0.047449633 0.01947568 0.05813987
0000f0 73 00 16 3d 50 e3 0c 3d a7 40 41 3d 55 90 1b bd
       0.036621522 0.03439647 0.047180798 -0.037979443
000100 20 59 89 bd 69 27 73 3c ae cd 85 bb 85 ca 76 3d
       -0.06706452 0.014840939 -0.004083357 0.06025173
000110 e9 e8 77 3d c0 05 d8 bb e1 36 b8 bc ff 8d 20 3d
       0.060524855 -0.0065924823 -0.022487106 0.039197918
000120 21 e2 0f bd 0f 15 47 3d 4c 76 1f ba 81 36 00 3d
       -0.035127763 0.048604067 -0.0006082996 0.03130198
000130 9f cd 7a 3b d8 75 22 3b df 99 a2 3c a8 86 c1 3d
       0.0038269532 0.0024789479 0.019848762 0.09449512
000140 e5 99 ec bb 96 31 81 3b ff 43 12 bd 97 3e 5c 3d
       -0.007220494 0.0039426787 -0.035709377 0.053770628
000150 2a 67 30 bd 30 42 2f 3c 7a ce be 3c 0f 6a e8 3c
       -0.043067135 0.010696933 0.023291815 0.028370885
000160 31 fe 63 3d 9a 4e 9a 3c a6 0b c5 3c c2 b6 fb 3a
       0.055662338 0.018836308 0.024053406 0.0019204246
000170 bc c1 f6 3b 06 a7 5a bc 05 50 65 bb 9a ed e6 bb
       0.007530419 -0.013345486 -0.0034990322 -0.0070473673
000180 83 66 53 3c 96 46 dd 3b f0 dc 1a bb dc 8c 3d 3d
       0.012902859 0.0067527993 -0.0023630224 0.046276912
000190 3e 5e 83 3d 30 4e 21 3d 32 03 82 3c 8c 82 71 3d
       0.0641446 0.039381206 0.015870664 0.05896239
0001a0 55 aa 9f 3c 6d 79 b7 bc 44 54 db 3c 4b 16 ef 3c
       0.0194904 -0.022396768 0.02677358 0.029185435
0001b0 2e e9 85 3d e9 36 d9 bc 8c 26 2e 3d 05 fc 3f bc
       0.06538616 -0.026515441 0.04251723 -0.011717801
0001c0 08 9e c2 3b dd 72 55 bd 09 ab 81 3c ea 55 da 3b
       0.005939249 -0.052111495 0.015828626 0.006663074
0001d0 a5 d7 26 3c e2 3c 15 3c f0 30 ae bb 59 e2 9c 3c
       0.01018325 0.009108754 -0.0053158924 0.0191509
0001e0 c9 b1 4f bd fb 09 07 3b 4a b6 5a 3c 3f 92 7c 3d
       -0.05070666 0.0020605314 0.013349125 0.06166291
0001f0 46 b9 18 3d 47 16 12 3c a8 cd 9e bc f1 18 f6 3c
       0.037286066 0.008916444 -0.019385174 0.03004119
000200 f4 8c a7 bb 03 35 66 3d 9e 69 13 3d 42 c7 d4 3d
       -0.0051132385 0.0562029 0.035989396 0.10389568
000210 9a 88 a8 3d 32 01 e7 3d 72 89 8a 3d 99 73 33 3c
       0.0822918 0.11279525 0.06764497 0.010952854
000220 6b cc 12 3d c6 95 c8 ba 0d aa f6 3c d8 60 d3 bb
       0.03583948 -0.0015303425 0.030110383 -0.0064507537
000230 1f 7e ae 3b 71 67 51 3d cf 49 8e 3d 90 54 43 bb
       0.0053250934 0.05112404 0.069476716 -0.0029805042
000240 0a 55 5b bc 06 ae 63 3c 91 c6 ba 3d 6e 96 47 3d
       -0.013386974 0.013896471 0.09119905 0.048727445
000250 62 4a b0 bc f1 c4 04 3c 91 49 41 bc a1 8d 0e bb
       -0.021519843 0.008103595 -0.011797325 -0.0021751898
000260 ae 05 88 3d 24 ea 20 3d 64 8d 31 3d 27 ca 8e 3d
       0.06641708 0.039285794 0.04334773 0.06972151
000270 ad 24 99 3c df a1 76 bc da e0 61 3d dc 5a 1e 3d
       0.018694246 -0.0150532415 0.055146076 0.03866087
000280 62 86 dc 3c 18 c9 04 3d 40 e0 a2 bc 6a 84 16 bc
       0.026919547 0.03241834 -0.019882321 -0.009186843
000290 ad d3 a4 bc 35 f8 a8 3c 10 d7 43 bd 7c f5 12 3d
       -0.020120466 0.020626167 -0.04781252 0.035878643
0002a0 ec 49 85 3c b1 f1 ba bc d3 fa 1f 3d 03 10 95 3b
       0.0162706 -0.022820326 0.039057564 0.004549028
0002b0 19 2a 94 3d a4 6c 6d 3c f5 5b 35 3d 57 2e fe 3c
       0.07234592 0.014491234 0.04427715 0.031027956
0002c0 ea 14 f1 3c 20 e7 fb 3c 2f 9e 4e 3d 36 33 63 3d
       0.029428918 0.030749857 0.050443824 0.05546876
0002d0 9d b6 2a 3d 48 76 1b bc 9a af 9d 3d 16 d1 16 bc
       0.04167806 -0.00948865 0.07699509 -0.009205123
0002e0 d4 74 85 bc 3e c8 78 3b b1 8d 56 3d 50 f2 ab bc
       -0.01629106 0.003796115 0.05238122 -0.020989567
0002f0 1c 04 cd 3c 43 95 52 3d 17 e2 d8 3c 19 52 2d bd
       0.025026374 0.05141188 0.026474996 -0.042314623
000300 71 3a 2b bb 94 90 20 bc 06 56 6c bc 41 ab 34 3d
       -0.0026127363 -0.009800095 -0.014424806 0.044108633
000310 31 be 7e 3d e2 99 35 3c 3a 6b 2b 3d 93 db 9e bc
       0.0621931 0.011084052 0.041850306 -0.01939181
000320 e8 3f c5 3c 01 0c 06 3d 51 62 e6 3c 10 08 1a bd
       0.024078324 0.03272629 0.028123053 -0.037605345
000330 4f 1b 61 3d 72 dc a6 3c ad 0b d3 bc 4c 7a 59 3d
       0.054957684 0.020368788 -0.025762403 0.053095147
000340 31 0b bb 3d 7a c8 8f 3d 62 eb 95 3d 13 0c 8b 3c
       0.09132994 0.0702066 0.07320286 0.01697353
000350 34 d7 b7 3c 17 57 18 3d 09 50 51 3d 8f 3f 92 3d
       0.022441484 0.03719243 0.051101718 0.07141029
000360 14 bf eb 3c 12 ec a2 3c 51 f7 82 3c 30 ce 8c bc
       0.028777637 0.019887958 0.01598707 -0.017188162
000370 17 ce 8f bb 25 90 dc 3c 61 a3 8f 3d 90 5f 0c 3c
       -0.0043885815 0.026924202 0.07013584 0.008567706
000380 49 0f 6c 3d 5b 06 fd bc 29 cd f5 bc 61 50 6b bc
       0.057631765 -0.03088682 -0.030005055 -0.014362426
000390 be f7 0a bc 6c ee a7 3d 05 ee 29 3c 45 e6 50 bd
       -0.008481918 0.08199772 0.01037169 -0.051000852
0003a0 1c 99 dc bb 01 76 f5 3b 7f 7a ee 3c 4d e3 8f 3d
       -0.0067321192 0.007490874 0.029111145 0.07025776
0003b0 19 b4 0f 3d b8 d4 2e 3d 10 0e a0 3d 24 d7 27 3d
       0.035083864 0.042683333 0.07815182 0.04097666
0003c0 07 39 67 3c 53 44 f9 3b 29 7f c2 3d 54 55 ef 3c
       0.0141127175 0.007607022 0.0949691 0.029215492
0003d0 4c 48 5a 3c b9 ea 40 3d e9 93 cb 3d 40 93 de bc
       0.013322901 0.04709885 0.09940321 -0.027169824
0003e0 b1 5b 90 3c 99 09 1d 3b bb 18 e5 bb a8 89 90 3d
       0.017621847 0.002396202 -0.0069914735 0.07057506
0003f0 95 57 c8 bc d4 c1 a5 3c 80 a8 42 3d be 66 7e 3d
       -0.024455825 0.020234026 0.047523975 0.0621097

network_body._body_endoder.seq_layers.0.weight f4 [256, 266]
000000 37 c8 39 3b 4a 76 00 bd 45 4c a7 3c d2 07 cb bd
       0.0028348097 -0.03136281 0.02042211 -0.09913601
000010 1c 53 0b 3d 52 40 42 be 02 f9 a7 bd a2 0f 29 bd
       0.034014806 -0.18969849 -0.08201791 -0.041274674
000020 23 03 bd bd 83 c6 16 3e da 44 f8 3d 19 8c 68 bd
       -0.09229114 0.14724164 0.121225074 -0.056774233
000030 36 f3 fb bd 8d 90 d4 3d 49 ca a4 bd c2 42 a4 3c
       -0.12302248 0.103791334 -0.08046395 0.020051364
000040 66 be 20 be 62 82 c4 3c c3 d5 ca bc 64 6f 61 bd
       -0.15697631 0.023987953 -0.024760133 -0.05503787
000050 7c 12 67 bd 4e 3c 83 bc 27 a7 92 bd b2 93 6a bb
       -0.056414112 -0.016019966 -0.07160788 -0.00357936
000060 df 27 79 bc fe 8d 82 3d 47 ad 80 3b 29 dd a5 3b
       -0.01520726 0.06374739 0.0039269063 0.0050617647
000070 6a 08 11 3d b3 7a 02 bd d5 d7 f6 bc f0 a7 d5 3d
       0.035408415 -0.031855296 -0.030132214 0.10432422
000080 c5 70 e5 bc cf d6 13 3e 6d b3 01 3c 6f 85 ec 3d
       -0.028007874 0.14437412 0.007916314 0.11548888
000090 62 42 cc 3d eb 8a c6 3d ea 8f 19 bd e8 7c 88 bc
       0.09973599 0.09694465 -0.037490763 -0.016661122
0000a0 ca 70 32 bd 44 f0 5d 3c cf cd 30 bd e5 74 27 be
       -0.043564595 0.013546053 -0.043165024 -0.16353185
0000b0 65 91 5d 3c d4 67 2f bd 05 24 24 3d 64 ee 75 3d
       0.013523434 -0.042823628 0.040073413 0.0600418
0000c0 08 3c 15 bd 8f c2 a8 3c 2c 4e 07 be b7 ed dd bc
       -0.036434203 0.020600585 -0.13213414 -0.02709089
0000d0 b1 76 94 3d 7d c3 13 be 4e 66 8f 3d 9d cb 1a bd
       0.07249201 -0.14430042 0.07001935 -0.037791837
0000e0 d4 16 50 bb 3e 96 59 bd b3 60 90 3c 35 79 ce 3c
       -0.0031751888 -0.053121798 0.017624235 0.02520428
0000f0 fd 5b ed bd ec c8 69 3d 4a df c3 bc b9 d2 b9 3c
       -0.11589811 0.05707638 -0.023910183 0.022683488
000100 5f 9c c8 3d 66 07 e1 3d 5a 93 39 3d b0 48 64 be
       0.097954504 0.10987739 0.04530654 -0.22293353
000110 77 58 07 be cc 58 82 bc 44 3d 8a 3d fe 68 25 be
       -0.1321734 -0.015911482 0.06749967 -0.16153333
000120 1b 53 07 be ee a4 0f bd 30 80 8e 3d 04 82 74 bd
       -0.13215296 -0.0350694 0.069580436 -0.059694305
000130 a9 c2 cd 3d 46 3d 9f 3d 5b 44 b1 bd 3a 60 e5 bd
       0.10046894 0.07775359 -0.08655616 -0.111999944
000140 c4 65 1b 3e 36 5f 69 bd 59 70 23 3e 7b ac 10 39
       0.1517554 -0.056975566 0.15960826 0.00013797164
000150 20 0c 56 ba 73 a6 b1 3a d3 f8 54 3d c7 2e 78 bb
       -0.0008165259 0.0013553634 0.05199511 -0.0037869678
000160 a5 5d 18 bc 67 cb 98 bd a3 5c 73 3d 7a 91 25 bd
       -0.00929967 -0.07460671 0.059414517 -0.04042194
000170 a1 d8 36 3e 1c 11 86 bc b8 28 3a 3d c8 4c 52 3a
       0.17856075 -0.01636558 0.04544899 0.00080223056
000180 8d 15 82 bd 7e f8 ae bc 53 b4 04 bc 50 61 db bc
       -0.06351767 -0.021358725 -0.008099633 -0.0267798
000190 38 ee c0 3d f9 14 2f 3d d0 62 20 3d f5 e3 3a be
       0.094204366 0.04274461 0.039156735 -0.18251021
0001a0 2b 44 7c 3d e3 c5 54 bd 2e 25 1f 3e ea 6f aa bd
       0.061588448 -0.051946532 0.15541527 -0.08322127
0001b0 8e af 8d bd d6 67 c1 3c 46 5b c9 3d 4b 12 e5 3d
       -0.0691825 0.023609083 0.09831862 0.1118513
0001c0 ab 18 b3 3d 64 f5 cb bb 10 2e b8 3d 47 79 a9 3d
       0.087449394 -0.006224321 0.08993161 0.08275085
0001d0 e4 12 94 3d d9 c1 9c bc 2d dc 17 3c ec 51 65 bd
       0.072301656 -0.019135403 0.009268803 -0.05598633
0001e0 0a 11 8a bd a1 ce d1 3c 68 c1 81 bd d0 79 0f be
       -0.06741531 0.025611224 -0.063357174 -0.14011312
0001f0 29 59 24 3d 07 70 67 3d db 3f 1b 3e a0 09 87 3b
       0.040124092 0.056503322 0.15161078 0.0041210204
000200 a2 3e 85 3d 04 86 99 be b0 67 c7 3a 73 6d d8 3d
       0.06506087 -0.29985058 0.0015213396 0.10567751
000210 b9 38 4b bd 43 04 60 bd 4c de 0f 3e 3c 54 7a 3c
       -0.04961464 -0.054691564 0.14049643 0.015278872
000220 6d c7 15 bc 3e 55 b5 bd 91 e2 93 bd bb f3 1e 3e
       -0.009141785 -0.08854149 -0.072209485 0.15522663
000230 be 4f 9b 3c 58 c8 d1 bd 58 41 81 be 33 42 47 3d
       0.018958922 -0.10243291 -0.25245166 0.048647117
000240 ec 26 3a be 08 72 24 bd 86 58 c6 3d 75 a9 a3 bd
       -0.1817891 -0.04014781 0.09684853 -0.07991306
000250 4f 12 0e 3e 16 eb 28 bd 6b 8b e1 3b c6 58 a4 3c
       0.13874172 -0.04123982 0.006883075 0.020061862
000260 0d f9 97 bd ba f2 32 3d f3 5d 4f bd 48 60 da bd
       -0.074205495 0.043688513 -0.050626706 -0.106628954
000270 cc 8d b6 bc 31 79 07 3d af 5b 6b bd 94 3e 0d be
       -0.02228441 0.03307456 -0.057460483 -0.13793403
000280 2c 20 ef 3c 38 e7 2c bd 9e f3 0d be a4 02 0b be
       0.029190145 -0.042212695 -0.13862464 -0.13575226
000290 68 be 36 bc b5 2e c7 3c d6 30 9a 3d ce b4 c4 bd
       -0.011153795 0.024314264 0.07528846 -0.09604798
0002a0 a5 d0 02 be 73 0a 11 3e db 14 4a bd 65 8f 8f bd
       -0.12774904 0.14164142 -0.049336296 -0.07009772
0002b0 84 b9 fc bd b4 ee 29 3b 4d bb af bc 54 da 92 bc
       -0.12340072 0.0025929632 -0.021451617 -0.017926373
0002c0 48 17 41 be 50 b5 19 bd 55 9b 92 bd d2 d0 53 bc
       -0.18856537 -0.03752643 -0.071585335 -0.012928205
0002d0 1a d3 cf bd d6 2d 3b 3c d4 10 99 3d d6 11 52 bc
       -0.10147686 0.011424502 0.07473913 -0.012821635
0002e0 17 ff 85 3b 8c 88 9b 3d 59 1a 5b 3d 66 fc d4 3d
       0.004089247 0.075944036 0.053491924 0.10399704
0002f0 3d c0 4b be 95 13 62 bd d3 e3 1d bd 30 e4 85 bd
       -0.19897552 -0.055194456 -0.03854735 -0.06537664
000300 3c 2d fd bb 70 8e 29 bd 5b 3d 7e 3d 4c 03 be bd
       -0.0077263396 -0.041395605 0.062070232 -0.092779726
000310 ca 03 24 be 7b 66 9b 3d cb ed 31 3d 92 81 6e 3d
       -0.1601707 0.07587906 0.043439668 0.058229037
000320 54 79 0e 3d 07 76 4f bd 4a 64 8d bc cc 9d b9 bc
       0.034783676 -0.05064967 -0.017259736 -0.022658251
000330 c1 f1 a2 bd dc 8e 58 bd 32 54 24 3d 2c cd 3c be
       -0.07956267 -0.052870616 0.040119357 -0.18437642
000340 e1 2c 68 be dc 2c fd 3b 5c a7 b2 bd d1 2a 28 be
       -0.2267337 0.007726295 -0.087233275 -0.16422583
000350 9f 5d e5 3b d0 16 3c be e2 f2 bb 3c 40 1d 32 3e
       0.006999686 -0.18368077 0.022942964 0.1739397
000360 a5 d0 e5 bd ec 0f 06 bd 1f 77 e6 3d 85 60 6d bc
       -0.112214364 -0.032730028 0.11253189 -0.014488344
000370 5b 5d bb 3c 62 66 83 3d 01 10 00 3c 0e 28 13 bd
       0.022871664 0.06416012 0.007816316 -0.03592687
000380 b3 e4 b0 bd 66 3d 26 3c be 4f 5d 3c 75 3c 07 bd
       -0.08637371 0.0101464745 0.013507782 -0.03301664
000390 67 9e a2 bd 3a 0e 1c 3d 82 4e 94 3c cb 14 b3 bb
       -0.07940369 0.038099505 0.018103842 -0.005465125
0003a0 69 c4 99 bd 7b dd 7a 3d fb 6f df bd a1 bd b1 3b
       -0.075081654 0.061246376 -0.109100305 0.005424217
0003b0 db 79 29 3e ca 0d 53 3d 21 fe 75 bd f9 f9 09 3e
       0.1655039 0.051526822 -0.06005681 0.13474263
0003c0 5a 4a b8 bc d5 17 74 bd 24 5e a5 3d 9f cc b5 bd
       -0.022496391 -0.05959304 0.080745965 -0.08876919
0003d0 e6 0b 76 bc 7a 53 f5 bd 58 95 f9 bd ef 87 56 bd
       -0.015017485 -0.119788125 -0.12186688 -0.05237573
0003e0 ac fc 31 3d de 7d a8 3d b4 43 43 3c 6e ea 00 3c
       0.043453857 0.08227132 0.011917997 0.007868392
0003f0 a2 4a 20 3d 14 2f 42 3c 35 f1 1a be b7 10 bc bd
       0.039133675 0.011852045 -0.15131076 -0.091828756

network_body._body_endoder.seq_layers.0.bias f4 [256]
000000 5c 4a e4 bc f5 74 f0 3b 2b 1c bb bc 16 9e 24 3d
       -0.027867489 0.007338161 -0.02284058 0.040189825
000010 4d a3 8b 3c 09 38 47 3a 56 14 7b bc b1 8a 98 3b
       0.017045641 0.00075995974 -0.015324673 0.004655205
000020 c6 c4 ad bc 20 5b 13 bd 56 6d 4c bd 01 9a 10 3d
       -0.021211993 -0.035975575 -0.04990896 0.03530312
000030 35 ee 00 3c 53 10 9d 3a 65 06 ea bb 31 20 5c 3c
       0.007869293 0.0011983014 -0.0071418756 0.013435409
000040 23 91 cb 3b c7 b6 77 bc c0 ec ad bc 73 8f f6 3a
       0.00621237 -0.015119261 -0.021231055 0.0018811062
000050 4e cf 61 3c 90 4b 94 bb 25 dd 83 3c 1c be a1 3c
       0.013782335 -0.0045256093 0.01609666 0.019743972
000060 77 06 1c 3d 2b c4 1c 3c bf 2b aa bc 1d 3d 30 3d
       0.038092103 0.009568254 -0.020772813 0.043027032
000070 24 42 bf bc e5 61 9d 3c 6b 02 2a 3c 62 8f 61 3b
       -0.023346968 0.019211719 0.010376553 0.0034417738
000080 2f 91 9c 3b ac c7 4d bc 23 61 7b 3c 63 04 37 bc
       0.0047780494 -0.0125598125 0.015342983 -0.0111704795
000090 37 31 b1 bc c6 33 fa bc 18 3f 5b 3c 21 46 72 3a
       -0.021629913 -0.030542266 0.013381742 0.00092420174
0000a0 7b 16 89 3c 31 72 ae 3c dd 52 25 bd ba e2 cd 3c
       0.016734352 0.021294685 -0.040362228 0.025132526
0000b0 58 55 a7 bc a5 bb 1d bc ad fc c8 bc 46 a8 f4 bc
       -0.020426437 -0.0096272575 -0.024534548 -0.029865395
0000c0 a3 3c 8f 3a ee 95 5a 3a 3f 2d ec 3c 03 9c 8b bc
       0.0010928105 0.00083383813 0.028830169 -0.017042166
0000d0 b3 61 30 39 b8 2f 30 3c 92 b2 db 37 30 6a 21 bc
       0.00016821064 0.010753565 2.6189988e-05 -0.009851977
0000e0 54 dc 58 3b 7b 7d a4 3c 04 ec 19 3c 17 24 1a bd
       0.003309031 0.020079365 0.009394649 -0.037632074
0000f0 28 e3 f2 bb 28 cf cf bb 0e 66 5f bc 7b f9 03 3c
       -0.007412333 -0.0063418336 -0.013635172 0.008055086
000100 f7 db 37 bc 0b da 5b 3b a4 2d 83 bc 09 97 0d 3c
       -0.011221877 0.0033546712 -0.016012974 0.008641967
000110 3b e5 97 bc 78 9f 95 3b 85 19 e9 3b 4b b0 d2 3b
       -0.018541923 0.0045661293 0.007113638 0.006429707
000120 d1 a8 00 3c cb 49 16 bc ad 5e f8 3b 9e 25 42 3d
       0.007852749 -0.009172867 0.0075796456 0.047399156
000130 9d c6 ac bc 61 4a 1f 3c 0d 49 ae bc 18 ac f8 bb
       -0.0210908 0.009722323 -0.021275068 -0.0075888745
000140 66 2a 03 bd 34 71 12 bd 89 f0 ba 3c b8 31 a9 bc
       -0.032022856 -0.03575249 0.022819774 -0.02065359
000150 e7 6f 1e bb 9e 12 38 bc 6a 7c 33 3d 09 25 82 bc
       -0.0024175586 -0.011234907 0.043819822 -0.0158868
000160 d6 04 a4 3c 41 d7 94 3c cd 72 a6 bc d0 32 28 bc
       0.020021837 0.018169047 -0.020318413 -0.010266021
000170 fc 8f cb bc ea d6 27 3b 7a b5 26 bd 9c e9 a4 bb
       -0.02484893 0.0025610276 -0.040700413 -0.005032731
000180 a3 07 89 3c 15 a1 f2 3b 1c cb 1c bd a3 60 43 3d
       0.016727274 0.0074044564 -0.038279638 0.04769958
000190 e9 75 78 bc 7e 17 03 bd d3 f9 45 3c 1e 19 af 3c
       -0.015164831 -0.032004826 0.0120834885 0.021374281
0001a0 9f bd bd bc 21 74 cd bc e9 fe 95 bb 84 c5 97 bc
       -0.023161707 -0.025079789 -0.004577507 -0.0185268
0001b0 4d 1d 36 3c 65 a5 cc 3c 54 fd cf bc d4 b5 75 bc
       0.011115384 0.02498121 -0.025389351 -0.0149969645
0001c0 e3 95 b2 bc b4 8c 1e 3c fd 6a 13 bd f3 a1 36 3d
       -0.021799987 0.009677101 -0.035990704 0.04458804
0001d0 8d ce 1c 3d 06 09 54 3c 0e ad 2f bd 9c c8 62 bb
       0.03828292 0.0129416045 -0.042889647 -0.0034604436
0001e0 b0 9c eb bc 9a b3 d5 3b 66 24 db bc 90 8e f7 bc
       -0.028761238 0.0065216543 -0.026750755 -0.030219346
0001f0 2b cb 58 3c c0 33 b9 3c ab 14 f3 bc 2d 2f c9 3c
       0.013232033 0.022607684 -0.029672941 0.024558628
000200 89 dc 8a bc 5a 25 c1 3c f3 4c 94 bc 48 b6 a5 bc
       -0.016950862 0.02357738 -0.018103098 -0.02022852
000210 8d 82 fc 3b 89 1b b4 3b 19 af 6f 3d a2 47 b6 3c
       0.0077059926 0.0054964465 0.058516596 0.022250954
000220 57 51 c8 3b 21 ce f4 3c 2e 91 a1 bc eb bd 31 bd
       0.006113212 0.029883446 -0.019722547 -0.04339401
000230 bb 07 f3 3a 17 a6 a0 3b 8e a1 3c bc 1b 91 7d 3c
       0.0018541733 0.004902612 -0.011513127 0.01547649
000240 a7 c2 df 3c c3 6d f4 bc 81 99 9c 3c da 15 3a bc
       0.027314497 -0.029837495 0.019116165 -0.011357749
000250 e5 c0 e3 3c 0e 47 e7 3c a8 4c 21 3d b4 ff 41 3c
       0.02780194 0.028232124 0.039379746 0.0118407495
000260 b7 e5 53 3b a8 b4 8d 3b 36 61 69 bc d1 ae bf bc
       0.0032332966 0.0043245144 -0.014244368 -0.023398789
000270 5d aa 0a 3a cf 19 1a 3c 52 0c c3 3c ea 49 32 3c
       0.00052896683 0.009405567 0.023809586 0.01088188
000280 fc c4 a4 bc 73 de 63 bb 0e 14 92 3c 07 7c 1e bc
       -0.02011346 -0.0034770041 0.017831828 -0.009673125
000290 06 53 16 bc 3a f4 83 3c 0c 90 42 bd 25 63 c3 bb
       -0.009175068 0.016107667 -0.047500655 -0.0059627467
0002a0 3c 0d cd 3c 56 6f a4 3c 2a e2 1f 3c be 6a 03 bd
       0.025030725 0.02007262 0.009758512 -0.03208422
0002b0 41 4f bc 3c f0 cd 40 bb 41 91 00 bd ae 37 ae 39
       0.02298701 -0.0029419623 -0.031388525 0.0003322935
0002c0 7d 98 9b bc a7 a1 29 3d 57 8e 36 bd e3 e8 6d bc
       -0.01899361 0.04141393 -0.04456934 -0.014520857
0002d0 de cd 20 3d 00 3d 48 3c 00 09 fe 3b a8 49 96 3c
       0.03925883 0.012221575 0.0077525377 0.018345669
0002e0 85 8e a4 bb dd 92 09 3d fb fc e7 bc 68 d8 63 3d
       -0.0050218725 0.033587325 -0.028318873 0.055626303
0002f0 55 ab 60 3c 3a 9b b2 3c 22 00 82 bc f4 4c aa 3a
       0.013712724 0.021802533 -0.015869204 0.0012992905
000300 13 c5 94 3c dc 3c b3 bc cd 99 92 bc 55 6e 79 3a
       0.018160379 -0.021879606 -0.017895604 0.0009515037
000310 02 74 26 bd 68 f9 5d 3d 08 23 0b 3c 3a a8 17 3d
       -0.040637977 0.05419293 0.008492239 0.037025668
000320 da 4f 1c 3c f3 90 56 3d c2 47 cb 3c 2a 01 30 3d
       0.0095405225 0.052384328 0.02481449 0.04296986
000330 fe da 23 bd 19 6e 69 3d c7 44 9d bc a7 ba 8a bb
       -0.04000377 0.056989763 -0.019197835 -0.0042336765
000340 fc a9 e3 3c c6 31 84 3c 94 24 d7 bc 62 a7 07 bc
       0.027791016 0.016137015 -0.026262559 -0.008279653
000350 2b 0a 00 3c 97 e3 ee bc 65 f4 e9 bc 4c a3 14 bd
       0.007814924 -0.029161258 -0.02855892 -0.036288545
000360 f4 2e c1 3c 30 38 21 bc 24 48 1b bd 3e d1 02 bc
       0.02358196 -0.009840056 -0.037910596 -0.007984458
000370 e6 49 74 bc e5 0b b3 3b 64 24 85 3c 44 0c 41 3c
       -0.014910197 0.0054640644 0.016252704 0.0117827095
000380 69 44 42 bc 22 c1 7d bc f8 c5 23 bd 1c bc b2 bb
       -0.011857131 -0.015487941 -0.03998372 -0.0054545533
000390 3b 01 e9 bb ef 94 e0 3c fa 9f 20 3c 53 14 90 bc
       -0.0071107424 0.027414767 0.009803766 -0.017587816
0003a0 59 89 01 bc 7d 1a 64 3b cf e6 81 3b 26 d6 af bb
       -0.007906281 0.0034805827 0.003964282 -0.0053661047
0003b0 80 2b 9c bb e9 db bb 3c 9c f9 53 bc ec 02 29 3c
       -0.004765928 0.02293201 -0.0129379295 0.010315638
0003c0 3d 97 c7 3c 3b c4 87 3c e7 ce 37 3c 98 e3 6d 3a
       0.024364108 0.016573062 0.011218763 0.00090747466
0003d0 22 d2 c6 3b 00 51 33 bc c1 50 4f bd d4 01 10 3d
       0.0060675303 -0.010944605 -0.050614122 0.035157993
0003e0 51 0b 10 3c 61 a9 95 3c 3c e1 8f 3c 0b 20 4b bb
       0.008791761 0.018269243 0.017563455 -0.003099444
0003f0 75 b0 36 bd a1 3d d4 bc ab d1 9e bb bc ab cd 3c
       -0.044601876 -0.025908293 -0.0048467717 0.025106303
